run_results/simple-gine-focal-no-es/checkpoints/A/model_A_epoch_800.pth (torch, 78709 bytes, 15 tensors)

node_embedding.weight f4 [1, 64]
00000000: 8189 afbd 2348 7abe fc01 b8bd 763a 11bf
00000010: f422 763f 96c7 a0bf dbef 12bb 9607 303f
00000020: 1394 05bf bd43 ee3e 5d87 053f d608 06bf
00000030: 34e8 523f e53f b7bf 214e aabf 7d6a 77be
00000040: c3a1 8e3f 487c b33e dde1 883f a1ea d8bf
00000050: 1d33 563f 4a28 26be 5c39 15bf 3501 d3be
00000060: b150 3abf 715d ffbe 95e6 97bf cd58 cc3e
00000070: 8682 783f bb15 a53e 87a7 383e def4 99be
00000080: 94a3 4f3f 5773 23c0 27b2 ac3a 8e6e 993f
00000090: ee3b 6e3f 1104 493f 220c 62bf a9b8 09be
000000a0: c27f 363e 435c f03f 0e3c 33bf 3d1f 9ebf
000000b0: 1b96 0ebe 4450 883d c60f 673e aa02 213f
000000c0: 62d7 053f cda0 04bf 4030 1640 ed33 d6be
000000d0: bed8 c4be 56ee 8a3f a6c7 04bf a79d 093f
000000e0: 1ef1 ab3c f8b0 7bbf 87bd 65be 512f f03b
000000f0: 7dac 67bf b172 193f 9bac 963f f610 903f
-0.08571149 -0.2444158 -0.089847535 -0.5672983 0.96147084 -1.2560909 -0.0022420797 0.68761575
-0.5217907 0.46536055 0.5215967 -0.5235723 0.82385564 -1.4316374 -1.3305093 -0.24161716
1.1143116 0.35055757 1.0693928 -1.6946603 0.8367174 -0.16226307 -0.5829065 -0.41211858
-0.72779375 -0.49875978 -1.1867243 0.399115 0.9707416 0.32243142 0.18032657 -0.3006963
0.81108975 -2.5539148 0.0013175652 1.1986864 0.93060195 0.7852183 -0.88299763 -0.13449349
0.17822173 1.8778156 -0.7001351 -1.2353283 -0.13924448 0.066559345 0.22564611 0.6289469
0.52281773 -0.5180786 2.346695 -0.4183649 -0.3844661 1.0853984 -0.5186714 0.53756183
0.020988997 -0.9831691 -0.2243558 0.0073298593 -0.9049757 0.5994063 1.1771425 1.1255176

conv1.nn.0.weight f4 [64, 64]
00000000: 07b6 c93d 152c 13bd 2e45 863d 1583 2f3e
00000010: ac49 ebbd 08b7 233e ff3d 81be e156 11bd
00000020: 799b 9eba e85e 03be fbca 483c e492 f13d
00000030: 6e48 713d 3a7f 9e3d 9fd0 7ebb 6f35 e7bd
00000040: 689d e5bd bf11 96bd 5a2f a93d c695 b23d
00000050: aa38 19bd e767 073d a85b 183d b482 92bb
00000060: 15e5 c23d 8f3c 04be fa1e 65bd 016f 83bb
00000070: d436 9e3a 7e90 483c b997 ffbc 6be0 f03d
00000080: 3126 7bbd 80c8 b3ba 26c2 8b3d 2f4c cd3c
00000090: 18df 803d 26b2 133c a578 38bd 877d 03be
000000a0: 8da1 bb3b d591 edbd 0f08 0dbd 87b9 f13d
000000b0: e8ef 2cbd ea93 7fbd 3164 f2bd 0c91 c33d
000000c0: 1221 373c 36c2 d63d 0077 6e3d 516f b73d
000000d0: e2c7 bbbc 538d 2dbb 673d 65bd 2a18 55bc
000000e0: 5dc5 ba3d e3bb a43d f72c 1abe 5433 173c
000000f0: f971 e0bb 6236 53bd 099f 6c3d 43bc 89bd
00000100: fc24 b23c 2ede 13be befd 4fbc bdd4 c43c
00000110: 8227 763d 8907 a63c 97d1 933d abb0 863b
00000120: 48d5 93bd 0963 08bd bbe0 31bd 7080 0d3d
00000130: d001 1bbe e33e bdbd 91ca e4bb e046 383d
00000140: 5f51 c0bd 22a1 753c 817e 13be 6ab2 5abc
00000150: 54ab 1abe 8587 973d f9b5 70bd ad6f 85bd
00000160: d0f0 b53d 1bec f5bc 5515 673d 93a3 92bd
00000170: 224b a2bd 52f5 93bd fea3 bc3d 2855 f539
00000180: 1c92 fdbb 1571 58bd ada3 36bd 8273 a5bd
00000190: 570d 19be 9f96 1bbe 1d4d bebd c5d4 ab3b
000001a0: 8950 f3bd 4c42 0abd cf95 463d 47c3 5dbc
000001b0: bf7e ac3d 9b93 2a3d a6a4 833d 6bb2 1dbe
000001c0: 09b2 07bd e95d 143e f5b6 afbd 6043 8c3d
000001d0: cc9f 96bd ce36 28bd 7040 b63c 4a8b 11bd
000001e0: dff4 1cbe 6054 3f3c 3eb4 473d 35f8 893d
000001f0: b343 fd3d 955f 8abd 6baa f6bc 4f15 443d
00000200: a7f7 35bd ce49 50bc ba06 a8bd b756 0aba
00000210: bede 893d f6ab 153e bb9d 083d f16b cabd
00000220: bd53 8a3d d170 3c3c 4ffb 0abe 6b2c b73c
00000230: 17b8 c6bd 895e 683c a715 e9bc 7bfc cf3d
00000240: 0be7 4bbd e307 65bb 2d56 04be 7fe4 8abc
00000250: 8caf b5bd 31cf bb3b 9a6e 96bd eab8 8fbc
00000260: 1807 bfbd 14dc 0abd 1b01 8b3d cb48 0fbe
00000270: 2e9c 6cbd edb7 09be a631 1dbe 6d7c a53b
00000280: 058d b2bd ae0e 973b fef6 a63d 5339 483d
00000290: 075e 31ba 012c cfbd cd73 5e3d 7035 3bbc
000002a0: 4873 b93d c5e7 4b3b c06a 553c d08c 1ebd
000002b0: 69d1 2fbd a895 2abd 562e 0ebe c5a2 9ebd
000002c0: 8727 883c d24e 3c3d 227b 1abc 8180 973d
000002d0: 0aec a83d d395 60bd 8628 d83d 2710 d4bc
000002e0: c192 afbd a887 b43d b471 bd3d aaa1 833d
000002f0: 2885 563d 5b8a 82bc ffff adbd a870 0fbc
00000300: a5d4 99bd fb05 0bbd 72a4 8cbd ac24 c93d
00000310: 5843 e0bd 11ff d53d 4ee5 97bd 631c c93d
00000320: 94b8 d3bc e91a c23d b776 18be 3440 34bb
00000330: 7ecc 07be ba6f 83bd 3f73 f2bb 0a3b 9e3d
00000340: 19b7 81bd de2b db3d 09a8 80ba 2fd3 babb
00000350: 6f08 f13d fc2d ebbd 171d dfbc e340 733d
00000360: 7f5a bdbd bbd9 0bbe 312c be3d b2b5 c5bd
00000370: 4afc 0dbc cb44 b43d 17c2 443d 164d 203d
00000380: d1bd 49bb a750 4abd 4d92 5dbc 699e 04be
00000390: a4d7 a3bb d4bf 233d 4e60 ad3d 4909 e6bd
000003a0: 6925 87bd e489 38bd 8199 763c 07cf 3b3d
000003b0: fa16 acbc 645b 1cbd 7e20 13be 584b 0fbe
000003c0: 3b00 44bd f64b 30bd 3caa 36bd 63a3 1e3d
000003d0: 715d 1ebe 6749 503d d668 83bd 775c 91bd
000003e0: c483 f33d 61c3 143d 6d12 a5bd 512d 27bd
000003f0: d8a6 90bc cf85 f7ba 1a79 99bd d92e 96bc
0.09849172 -0.03593071 0.06556164 0.17139848 -0.11488661 0.1598779 -0.25242612 -0.035483245
-0.0012100778 -0.12829173 0.012255426 0.11795595 0.058906965 0.0773911 -0.0038881672 -0.112894885
-0.112116635 -0.073276035 0.08260985 0.08719973 -0.037407555 0.033058073 0.037196785 -0.0044711474
0.0951635 -0.12913726 -0.055937745 -0.0040110354 0.0012070783 0.012241481 -0.031200277 0.11761554
-0.06131572 -0.001371637 0.0682414 0.025060741 0.06292552 0.009014642 -0.04503693 -0.12840854
0.0057260455 -0.11600081 -0.034431513 0.11802965 -0.04222098 -0.06239692 -0.11835516 0.0954915
0.011177318 0.104862615 0.058218956 0.08956779 -0.02292246 -0.002648194 -0.05596676 -0.013006249
0.09119675 0.08043649 -0.15056215 0.009228546 -0.006849524 -0.051565535 0.057768855 -0.06725361
0.021746151 -0.14440224 -0.012694774 0.024027223 0.06009627 0.020267265 0.072177105 0.004110416
-0.072184145 -0.033297572 -0.04342721 0.034546316 -0.1513741 -0.0924051 -0.0069821556 0.044989467
-0.0939052 0.01499203 -0.14403726 -0.013348201 -0.15104419 0.07398895 -0.058767293 -0.06515441
0.08883822 -0.03001981 0.05641683 -0.071601056 -0.07924487 -0.072245255 0.092109665 0.00046793488
-0.007738365 -0.05284222 -0.044589687 -0.08078672 -0.14946495 -0.15194176 -0.09292052 0.00524387
-0.11880595 -0.033754632 0.048482712 -0.013535327 0.084226124 0.041644674 0.064278886 -0.15400092
-0.033128772 0.14488949 -0.08579818 0.06848788 -0.073546976 -0.04106789 0.022247523 -0.035533227
-0.15327786 0.011677831 0.048755877 0.06736795 0.12366428 -0.06756512 -0.030110558 0.047871884
-0.044425633 -0.012712909 -0.08204408 -0.0005277204 0.06731938 0.14616379 0.03335355 -0.098838694
0.06754253 0.011501507 -0.13572429 0.022360047 -0.09703081 0.014182695 -0.028452707 0.10155579
-0.049780887 -0.0034947328 -0.12923498 -0.016954659 -0.088713735 0.0057314862 -0.07345314 -0.017544229
-0.09327525 -0.03390129 0.0678732 -0.13992612 -0.057766132 -0.13449068 -0.1535097 0.005050233
-0.087183036 0.0046099043 0.08152579 0.048882794 -0.00067660253 -0.10115815 0.054309655 -0.011426315
0.09055191 0.0031113487 0.013025939 -0.038708508 -0.04292432 -0.04164663 -0.13884863 -0.077458896
0.01662041 0.045973606 -0.009428771 0.07397557 0.08248146 -0.054830384 0.10554604 -0.025886608
-0.08572913 0.08814937 0.09250203 0.06427319 0.05237308 -0.015935114 -0.08496093 -0.008754887
-0.07511262 -0.03394125 -0.06867303 0.09821448 -0.10950345 0.10449041 -0.07416783 0.098198675
-0.02584485 0.09477789 -0.14889036 -0.0027504088 -0.13261601 -0.064177945 -0.0073989923 0.077261046
-0.06333751 0.107017264 -0.0009815703 -0.0057014446 0.11769187 -0.1148338 -0.02723555 0.059388053
-0.092457764 -0.13657276 0.092857726 -0.09653796 -0.008666107 0.08802184 0.04803666 0.039136015
-0.0030783305 -0.049393322 -0.01352365 -0.12951054 -0.0050000716 0.039977863 0.08465634 -0.1123224
-0.06598932 -0.045053378 0.015051247 0.045851734 -0.02100705 -0.038173094 -0.14367864 -0.13993585
-0.047851782 -0.043041192 -0.044595942 0.038730036 -0.15465333 0.050851252 -0.0641648 -0.070977144
0.11890367 0.03631914 -0.08060155 -0.0408147 -0.017657682 -0.0018884483 -0.074938014 -0.018332886

conv1.nn.0.bias f4 [64]
00000000: 3698 c0bd 6f99 9a3d b36f e93b f320 823d
00000010: 460b 77bd bff5 29be 9a59 e83d 4a10 1a3d
00000020: f30c 6dbe f23c babd 47e6 323c b5cc cdbd
00000030: 1696 58bd 9b48 91bd 4828 71be 38e4 783d
00000040: b540 2e3d 7ab1 22be 59f8 e8bd 6906 cc3c
00000050: 87e0 9fbc 3e14 d03d fba3 843d 66d5 073d
00000060: 6968 82be 0793 2dbd b072 203d 405f 28be
00000070: bfdd f13d 642e 87bd c079 41be 6424 053d
00000080: 75ca 80be ba89 bf3e ac0a 633e fbc6 803c
00000090: 1c21 273e 6a9f 923d 5de4 45bc a6a0 69bb
000000a0: 75a9 aebd 471e cb3d b201 6ebc 8710 6bbe
000000b0: 0dea 0bbe d6cd 5cbe 730e 193d c4e4 78bc
000000c0: db23 7abd 461f 17bc 854b 11bf 1267 a9bd
000000d0: 0039 f2bc 4aef 03bd fb7e 1c3d ab39 d43e
000000e0: bf79 e7bd 101c 843e 319a 533d d46e 3dbc
000000f0: 3dab 67be 2489 943d 66a1 92bd a43b 153c
-0.09404032 0.075487964 0.0071239113 0.06353941 -0.060313486 -0.16597651 0.11345215 0.03761319
-0.23149471 -0.09093656 0.01091916 -0.100488104 -0.052877508 -0.070939265 -0.23550522 0.06076452
0.04254218 -0.15888014 -0.113754936 0.0249054 -0.019516243 0.10160111 0.06476589 0.033162497
-0.25470284 -0.042376544 0.039171875 -0.16442585 0.11809873 -0.06600645 -0.188941 0.032505408
-0.25154462 0.37409765 0.2217204 0.015719881 0.16321224 0.07159312 -0.012078372 -0.0035648732
-0.08528415 0.09917884 -0.014526771 -0.22955523 -0.13663502 -0.21562895 0.037367295 -0.015191261
-0.06106935 -0.009223765 -0.5675586 -0.08271612 -0.029568195 -0.032210626 0.038207036 0.41450247
-0.11302518 0.2580266 0.05166072 -0.011562068 -0.22623916 0.0725272 -0.071596906 0.009108458

conv1.nn.2.weight f4 [64, 64]
00000000: 2ea7 a03d 2078 223c 08c6 893c 880c dcbd
00000010: d7bc e9bd 7a33 64bd 2232 afbc 044a 4ebd
00000020: c3eb a2bc 8132 823c beed 853d 1698 353d
00000030: 08cb 813d e933 0dbe eda6 74bc ee68 8e3d
00000040: 53ba 5e3d 0c85 dd3b efab 24bd 4a68 623d
00000050: ba07 fabd 7390 8cbd 9ac9 a1bc e65a 84bd
00000060: c26e 693c fa8b 033e d49b cc3d ad35 f6bd
00000070: fc88 2ebd 38ee 683d 9af3 883d b589 54bd
00000080: debf 11be 0176 a8bd 342c 6fbd 4988 55bc
00000090: d875 4fbe 0da5 f93d f8ce d13d 16f8 bdbd
000000a0: 17ac 823d 3467 963d d8a5 563d f88c 9cbd
000000b0: 78b2 d53c a978 0a3d 4789 163d 985d 853c
000000c0: 58f5 f33c e53e b5bc 66bc 22be 408b c2bd
000000d0: 484f b63d 004f ebba 61a7 063d 17f3 c9bd
000000e0: acfc 053d 7fbb 58be b669 973d 7a06 a5bd
000000f0: 2bd0 01be 180b 003e 3c57 143d c556 93bc
00000100: c406 bcbd d811 be3d d0da febc 6fd8 f4bd
00000110: 8c90 83bc 2e75 6b3d b93e d33d bc92 a0bd
00000120: 716d 08bf 0b08 8ec0 009d 6dbd ee2b a23d
00000130: e8f5 eb3d ec44 9c3b d35c 83bc 893a 103d
00000140: ef3d fc3d ad43 553d e2a2 a63c ba62 d63d
00000150: 1026 383c c388 05c0 1490 053d 4b9f d93d
00000160: 597f 523d 4abe 993d ed28 0fbe 6f95 a53d
00000170: b602 9fbc 4616 0abe d557 d2bd d4ec 823c
00000180: d3ab 9e3e bd50 f63e 79c0 aa3e 177a f5be
00000190: 3c37 07be 8566 403d 40e5 f03d 914e 69bc
000001a0: 3cae 20bd d45d 2dbc cc6e 5dbd dda5 e3bc
000001b0: c887 0d3d e27e c8bd ce53 3dbd de48 95bc
000001c0: a0ba f2bb 1972 b53c ce5b 87bf f42e bdbd
000001d0: c031 c5bb da89 4b3c 338a 92bd f444 a2bf
000001e0: 1312 90bd 2192 7dbe 0cc3 d13d 1ecb 9b3d
000001f0: 7312 3bbe a619 6c3d 7b04 11bd ef3e 17bc
00000200: e8b5 f6bc e816 d13c a0dd e0bc 00aa 623c
00000210: cd94 963c 30df 9f3d d7b2 53bc 60d5 08bd
00000220: 963e 65bd 3a20 6fbd 5036 42bd b264 d23d
00000230: d29d 85bd 93f3 633d de6f 15be 6094 ed3b
00000240: 465b 80bd f276 05be d84c 1e3d efaa a2bd
00000250: 90bf acbc 577a dfbd 2685 8d3d 31a6 aabd
00000260: 9245 13be 226f bdbd a420 c6bd 9c0d 04bd
00000270: 0051 5b3c 3645 e8bd 82b3 9ebd 84bb 433c
00000280: 130c 2abd a75c 25be 3b09 6ebd 166f 1ebd
00000290: a3b9 cd3d 0c70 a23d 286a fdbc 3054 cd3d
000002a0: b22c 06be 3cc5 d03d f045 c83c e1fc 09bd
000002b0: f0ac 44bd 5e80 c7bd 4cb0 f33d 04da 413d
000002c0: a014 5dbc 216e 5f3d b4e6 07be b642 fd3d
000002d0: 9cc4 413d d6e9 f23d 909a 7ebd 8fc6 8bbd
000002e0: fcd4 163d b432 1f3c 9215 debd ea6f b33d
000002f0: 9a2b d83b 9ce2 a9bc c86d 9b3c bcb5 6b3d
00000300: a9c7 4c3d f63b a83d 68a6 d33c 5e9e 06be
00000310: 5489 e13d 4e95 af3c d794 a93d 0027 0fba
00000320: bcca 29bf 6741 d2bf 016e 103e d6b8 efbd
00000330: 94cf 873d d1fb b9bd b7a7 103d 5279 1abd
00000340: 45a2 c2bd 6b9f 3b3d 03a1 bebd 08a0 01be
00000350: 406a 7cbd 9b30 4e3d 2698 983d 3ee6 20bf
00000360: 2259 debd 9393 85bc bc6f b73d ad47 bb3d
00000370: 74c5 a9bd 7fca c7bd 9fb4 5a3d a531 9fbd
00000380: 48d3 d2bc 443b 05c0 6e20 dabf fd4d c93e
00000390: 1052 6dbc b227 da3c 8c09 0abd 71a9 ea3d
000003a0: 003c b2be 8c28 0e3d 14a4 cabd 0fbd 58bb
000003b0: 91af 47bc 8da7 e93d 738d 82bd 340d b93d
000003c0: fcdd 07bd 5ce1 253d 022e 06bf 8806 e2bd
000003d0: 24ea 2cbd f161 92bd c3e2 f73d 2f2e 17bf
000003e0: ee52 d8bd f404 d73e b001 de3d d8db 933c
000003f0: 95df 70be 87ab 243d ed4e 1cbd c5ab b3bb
0.07844387 0.009916335 0.016818061 -0.10744578 -0.114129715 -0.055713154 -0.02138621 -0.050363556
-0.01988781 0.015893223 0.06539486 0.044334494 0.06337553 -0.13789333 -0.014932376 0.069536075
0.05437691 0.006760245 -0.04020303 0.05527524 -0.12208505 -0.06863489 -0.019749451 -0.0646265
0.014247598 0.12846366 0.09990659 -0.120219566 -0.042611107 0.056867808 0.06687088 -0.05188914
-0.14233348 -0.082256325 -0.058391765 -0.013032981 -0.20259798 0.12189684 0.10244554 -0.09275834
0.0638048 0.07343903 0.052404255 -0.07644075 0.026086077 0.033806477 0.03675201 0.01627998
0.029780075 -0.022124717 -0.15892181 -0.09499216 0.089018404 -0.0017952621 0.03287447 -0.09860819
0.03271167 -0.21165274 0.0739321 -0.08057876 -0.12677066 0.12504232 0.036216006 -0.01798571
-0.09180978 0.09280747 -0.031110197 -0.11955344 -0.016060136 0.057484798 0.10314698 -0.07840487
-0.53291994 -4.438482 -0.058011055 0.07918535 0.11521512 0.0047689583 -0.016035473 0.035212073
0.123165004 0.052066494 0.02034134 0.10468049 0.011239544 -2.0864723 0.032608107 0.10626086
0.05139098 0.07506998 -0.13980456 0.08085143 -0.019410472 -0.13485059 -0.10270659 0.01598207
0.30990466 0.48108473 0.3334997 -0.4794471 -0.13204664 0.04697277 0.11762476 -0.014239923
-0.039228663 -0.010581452 -0.054060742 -0.02778905 0.03455332 -0.09789826 -0.0462225 -0.018223222
-0.0074075013 0.022149133 -1.0574892 -0.09237471 -0.0060178936 0.012423003 -0.07155266 -1.2677293
-0.070346974 -0.24762775 0.1024228 0.07607101 -0.18268757 0.057641648 -0.035404664 -0.009231313
-0.030116037 0.025523618 -0.027449429 0.0138344765 0.0183815 0.078062415 -0.012921057 -0.033406615
-0.05596789 -0.058380343 -0.047415078 0.10273112 -0.065242425 0.055652212 -0.14593455 0.0072503537
-0.06267409 -0.13033655 0.038647503 -0.07942759 -0.021087438 -0.10912006 0.06910162 -0.0833248
-0.14382008 -0.092497125 -0.096741945 -0.03223954 0.013386011 -0.11341326 -0.07749082 0.011946563
-0.04151542 -0.16148625 -0.05811427 -0.03868016 0.10045173 0.079315275 -0.030934408 0.10025823
-0.13102987 0.101938695 0.024447411 -0.03368843 -0.04801649 -0.09741281 0.1189886 0.047327057
-0.013493687 0.054548386 -0.132716 0.1236624 0.047306642 0.11861007 -0.06215912 -0.068249814
0.03682421 0.009716678 -0.10843958 0.0876158 0.0065969946 -0.020737939 0.018973246 0.057546362
0.0499951 0.08214562 0.025836185 -0.1314635 0.110125214 0.021433499 0.08280342 -0.00054608285
-0.66324973 -1.6426209 0.14104463 -0.117051765 0.06631389 -0.09081233 0.035316195 -0.037713356
-0.09503607 0.04580633 -0.09308054 -0.12658703 -0.061624765 0.050339323 0.07450895 -0.6285132
-0.108568445 -0.01630572 0.089568585 0.091445304 -0.08289614 -0.0975542 0.05339491 -0.07773141
-0.025735512 -2.0817423 -1.7041147 0.39317313 -0.014484897 0.026630256 -0.03370051 0.114581
-0.348114 0.034706637 -0.09894577 -0.0033071672 -0.012187854 0.11408911 -0.063746355 0.090357214
-0.033170685 0.040498123 -0.5241395 -0.11036402 -0.04221548 -0.07147587 0.12103798 -0.59054846
-0.105626926 0.41995966 0.108401656 0.018049166 -0.2352279 0.040202644 -0.038161207 -0.005483123

conv1.nn.2.bias f4 [64]
00000000: c449 2bbd 2c89 6e3f 7d6a 13be e5e7 aa3e
00000010: 7a4c 503f a16c 2dbe fa57 c6bc f514 42be
00000020: fb4c 093f 6d5d 5fbd 604d e03e 581d d4bd
00000030: 1091 cfbd cb98 18bd 43c2 2fbe d0ba 55be
00000040: a43d 1d3f 7b07 7fbd 0d16 5a3f 2558 ccbd
00000050: c161 84be 4706 b1be a74a 59be bc48 04bf
00000060: 68df c53e 0a57 26bf dcd9 00be 51b6 cebd
00000070: 4952 1dbe ebe4 62bf c331 073f b2e7 34bc
00000080: 0120 7dbe c1db c2bd b731 363f 2ece d3bd
00000090: 62ab 52be 4456 ddbd 2a47 033f 4088 ca3d
000000a0: c318 bf3f f904 c0be 3417 ac3e b9e6 67bf
000000b0: a5d4 d5bd a735 923f f308 31be eeee babe
000000c0: b2df 97bc cd85 d1bd 8355 f6bd 840b 50bd
000000d0: 6cca 03be 6d63 203f 451c 16be e1fb c73c
000000e0: f4f5 56bf 52f6 1abd d052 5e3e 3d0e 57be
000000f0: cda2 87bd 9bb4 14be d833 8bbd 210a 27be
-0.041818395 0.9317806 -0.14396091 0.33380046 0.81366694 -0.1693597 -0.024211872 -0.18953307
0.5363309 -0.054532457 0.43809032 -0.103571594 -0.1013509 -0.03725509 -0.17163949 -0.20872045
0.6142218 -0.062262993 0.85189897 -0.0997775 -0.2585583 -0.34575102 -0.21219884 -0.51673484
0.38647008 -0.6497656 -0.12583107 -0.10093368 -0.1536342 -0.8863055 0.52810305 -0.011041569
-0.2471924 -0.09514571 0.7116961 -0.1034206 -0.2057319 -0.108074695 0.5128046 0.09889269
1.4929432 -0.37503794 0.33611453 -0.9058643 -0.10440949 1.1422623 -0.1728857 -0.36510414
-0.018539283 -0.102305986 -0.12028029 -0.050792232 -0.12870187 0.6265171 -0.14659221 0.024412097
-0.83969045 -0.037832566 0.21711278 -0.21001525 -0.06622849 -0.1452202 -0.06796998 -0.16312458

conv1.lin.weight f4 [64, 7]
00000000: 07f4 42be e9e7 2f40 788f a0ba 926d 5a3e
00000010: ef88 983e 3bff b1be da09 e33e d507 8bbe
00000020: eb08 563f 5dac 9b3e 57f5 6b3f d5a1 93bf
00000030: aeaf 963e 108b ebbc b563 34bf 7baa b7be
00000040: 8eac 753e 63ed 1ebf 4254 b43c 6af2 b73e
00000050: 43d8 d43e 978b 9b3d 2b34 95bd 14c6 293e
00000060: 0a94 0abe ecd6 a4be 3828 44be cfb5 8dbe
00000070: ac8f 26bf 3fe4 53be c6f0 30bc e05d 5dbf
00000080: 9004 813e d3e2 bfbe 2d78 7cbf 7506 823d
00000090: 4aa3 a03d 8e45 b8bd 8743 cdbd 9ea8 8fbe
000000a0: 3b10 70be d18d b9bc daa5 c6bf 2fb1 84bf
000000b0: cdbf ddbe ba8c 03bd c9bf b63d 6301 2b3e
000000c0: 51ff fd3e ba34 2c3e 3cca 19be 4921 12bf
000000d0: 6c8e 8ebe e3e2 46be 862e 2bbf b811 87be
000000e0: 0dda 353f 32b4 ed3c 6b88 8c3f 4612 d93e
000000f0: 3187 b4bd c216 bc3e faf4 c4be 8f32 4abe
00000100: 1ed9 af3b 7024 d4bf f06b b7bf ffba 733f
00000110: 7533 4dbd 132f b7be 968d 853d 0b84 fdbe
00000120: ad11 363f 8654 c7be f1ff a83e 3057 0ebf
00000130: 099d 5ebe fb24 1bbe c495 a9be 84f3 c0bd
00000140: 4a33 96be 6b9f cd3d 3249 ce3c f1f7 27be
00000150: 7c3e 77be c822 bfbd e7be 75be 30de f2bf
00000160: 76d4 013c 67f0 f8bf 186f 7fbf 6606 983e
00000170: 18b3 0b3e 5e81 0c3e 639f 933e dcb5 c1bd
00000180: 9f40 3dbc 4b9d 5e3c d2cf d63d ddd0 d73c
00000190: 3ef8 e23d e14e 643e 4dde 2abe a81a 3fbe
000001a0: f989 78bc 58fa 6ebf 5926 8f3e 7ce3 4d3f
000001b0: 0899 fd3e f403 12be d606 edbd f22e 183f
000001c0: 8716 57bf ee56 1b3f c3e9 703e fd3a 04bf
000001d0: 4329 2cbf 5c1f 0fbf c9b3 e1be 1e40 943e
000001e0: 84e8 6abf d5df 2bc0 fe63 1ec0 65c0 8ac0
000001f0: 9ee1 94c0 02cd d3c0 1ec1 9abe 1add 40bf
00000200: d709 58bf d096 72be ea25 c3bd 53e0 c4be
00000210: 5dc5 b8bd a887 a5be 41c9 553a 614b 183e
00000220: a97f 613e ad87 0fbe 8618 63be ea48 ac3e
00000230: 9aca 00c0 fc5e 97c0 c36c 0bbf 8dd5 cebf
00000240: 066c dbbf e65c b8bf d773 8a3e 5440 b2be
00000250: 2089 373f c847 793f 0eda 63bd 4166 673e
00000260: 239a f03e d753 a3be 83cd a43e 0b50 30bd
00000270: 35a2 76ba c629 933e 6df5 b73e 8106 0ebe
00000280: 085a aebe 8ab1 b53f ab72 d3bf aa0d d7be
00000290: 3e37 353e c343 613e 0220 30bf 4b06 19bf
000002a0: 0832 e93c 22db 223e 1d67 ecbd d9ee 9a3c
000002b0: b6bf 023d 8614 293e c134 de3d 71f3 b03f
000002c0: 07ee 76bf 639f ae3e 7c61 2b3e 5596 6d3c
000002d0: 5b3e 1d3c 8e19 93bd 9261 983d e826 4cbe
000002e0: f96a 9d3d aeaf 0bbe bfbc 68be 540e 533e
000002f0: ca5c 563e f4c9 823e f877 863f bda3 21bf
00000300: 61a3 fcbf f236 77c0 bc59 863e 4896 0abe
00000310: ac7c 12bf eafa b33d da33 2cbf 5e27 f7bf
00000320: 3133 413e 9534 43bf 9987 89bf 48ce 3dbf
00000330: 278e 783f 9351 f0be 438f 82be ecfc 20bf
00000340: 8088 3a3e c402 883e bd27 0f3f 4b7c 8dc0
00000350: c47b 21bf 4ffc 67be f44b eb3e 393b 86bf
00000360: d3df 75be f89b 363e b38d aebc 8d64 c03d
00000370: fe59 623e 8577 b53c de59 843d 6d78 05be
00000380: c90c 1a3e 9801 94bf af15 79bf 68c8 1f3e
00000390: 8b86 3d3e afbc cdbd 2020 fabe f22c 8ebe
000003a0: d7c7 6ebe 0a28 b83e 2e54 b63d f90a ac3e
000003b0: a315 32be f9e3 54bd aeba 8dbe 6a33 9cbd
000003c0: f053 e73d 9e18 9dbe 1dc0 d83c 674a 903e
000003d0: c3bd 59be 3380 51bf 4e11 2c3e fc53 21be
000003e0: 53fc bdbe 0bb3 83bf a9f4 a1bd cbe8 823d
000003f0: 6398 3ebf 8573 a13e a0e4 ed3e 5f71 6cbf
-0.19038402 2.7485297 -0.0012249788 0.2133086 0.29791972 -0.34765038 0.44343454 -0.27154413
0.8360736 0.3040494 0.92171234 -1.1533762 0.29430908 -0.028752834 -0.7046464 -0.35872254
0.23991606 -0.62080973 0.022012834 0.35927135 0.41571245 0.07594984 -0.07285341 0.16579467
-0.13533035 -0.32195222 -0.19155967 -0.2767777 -0.65062976 -0.20692538 -0.010799592 -0.86471367
0.25198793 -0.3747774 -0.98620874 0.06348888 0.07843645 -0.089976415 -0.100226454 -0.28058332
-0.23443691 -0.022650631 -1.5519364 -1.0366572 -0.43310395 -0.03211663 0.08923299 0.16699748
0.49608853 0.16816989 -0.15018553 -0.5708204 -0.27843034 -0.19422488 -0.66867864 -0.26380706
0.71035844 0.029016588 1.0979131 0.42396754 -0.08814848 0.36736113 -0.38468152 -0.19745849
0.0053664586 -1.657362 -1.4329815 0.9520721 -0.0500979 -0.35778102 0.06521146 -0.49514803
0.7112072 -0.38931674 0.33007768 -0.5560179 -0.21739592 -0.15150826 -0.33122075 -0.09421447
-0.29336005 0.10040172 0.025181387 -0.16403176 -0.2414493 -0.09332806 -0.23998605 -1.8974056
0.00792419 -1.9448365 -0.9977889 0.29692382 0.13642538 0.13721225 0.2883254 -0.09458515
-0.011551051 0.013587306 0.10488857 0.026344711 0.11082505 0.22295715 -0.16686364 -0.18662512
-0.015169614 -0.93350744 0.27958944 0.8042524 0.49530816 -0.1425932 -0.115735695 0.5944663
-0.8401875 0.6067952 0.23526673 -0.5165251 -0.6725046 -0.55907226 -0.44082478 0.28955168
-0.9176104 -2.6855366 -2.474853 -4.3359857 -4.652541 -6.6187754 -0.30225462 -0.75337374
-0.84390014 -0.23690343 -0.09528716 -0.38452396 -0.09022019 -0.3233006 0.00081552943 0.14872505
0.22021355 -0.140166 -0.22177324 0.3364938 -2.0123658 -4.730345 -0.5446283 -1.615892
-1.7142341 -1.440335 0.27041504 -0.34814703 0.7169361 0.97375154 -0.055627875 0.225976
0.46992597 -0.31899902 0.32188043 -0.043045085 -0.0009408326 0.28742808 0.35929433 -0.13869669
-0.34053063 1.4194806 -1.6519369 -0.42002612 0.17696854 0.21998505 -0.6879884 -0.5977523
0.02846624 0.15903905 -0.11543105 0.01891272 0.03192111 0.16511735 0.10849906 1.3824292
-0.9645695 0.34105977 0.16736406 0.014501174 0.009597386 -0.071826085 0.07440485 -0.19936717
0.07686419 -0.13641235 -0.22728251 0.20610934 0.20933834 0.25544703 1.0505362 -0.6314047
-1.9737359 -3.8627286 0.26240337 -0.1353389 -0.57221484 0.087880924 -0.6726662 -1.9308889
0.18867184 -0.7625211 -1.0744506 -0.74142885 0.9709191 -0.46937236 -0.25499925 -0.6288593
0.18216133 0.2656461 0.5592001 -4.4214225 -0.63079476 -0.22654842 0.45956385 -1.0486823
-0.24011163 0.17832935 -0.021307802 0.093941785 0.22104642 0.022151718 0.06462453 -0.1303422
0.1504394 -1.1562986 -0.9729871 0.15603793 0.18508355 -0.10045754 -0.48852634 -0.27768666
-0.2331842 0.35968047 0.08902775 0.3360212 -0.17391066 -0.051975224 -0.27681488 -0.07626994
0.11295307 -0.30682844 0.026458794 0.28181764 -0.21263795 -0.8183624 0.16803476 -0.15754694
-0.3710657 -1.0289015 -0.07907993 0.06392058 -0.74451274 0.31533447 0.4646349 -0.9236049

conv1.lin.bias f4 [64]
00000000: b2b9 cbbe 6f2b 473e e0f2 88be fe1d a33e
00000010: 4b7e e9be c5cc 863e 27da b43e 4b9e d8bd
00000020: 589f 38bd 21ec 9fbe 35b1 aabe 913d b33e
00000030: bd7d 1cbe d5b0 763e fd2c 503c 0653 4cbe
00000040: f140 ebbe 7d93 313d 3446 f2bd 75db 5fbe
00000050: 0b04 2bbe c828 c73e 79be 93be f5bf 093f
00000060: 525a 693e 46d4 87bd e71f 38bd bfaa 03be
00000070: cef3 8abe a77c 9a3d c996 c0bd 502e 6dbe
00000080: 3fb7 8bbe 1701 923e 14d9 d0be 2723 c0be
00000090: c9a5 63bf 819d 92be 8e50 5bbe e156 e5be
000000a0: f64f 033e 3b55 9dbe 717c 26be d396 953e
000000b0: 2bad 383d 1fde cabe 073f 00bd 52f3 03bf
000000c0: 7cd9 24bf eff8 babe 05b6 99bf f8cb a2be
000000d0: cdcd b73d 9e04 ecbe 9852 2ebe a1e2 13bf
000000e0: f35a fabe 5d0f 953e 4c9e 8fbd 6275 63be
000000f0: 5fa1 d43e fd0a c8be a987 7cbe 384e afbe
-0.39790112 0.19450162 -0.267478 0.3185882 -0.45604166 0.26328102 0.35322687 -0.10577067
-0.045073837 -0.3123484 -0.33338323 0.3500791 -0.1528234 0.24090894 0.012706039 -0.19953546
-0.45947984 0.043353546 -0.118297964 -0.2186106 -0.16700761 0.388983 -0.28856257 0.5380853
0.2278836 -0.06632285 -0.0449523 -0.12858103 -0.27139133 0.07543307 -0.0940376 -0.23162198
-0.27288243 0.28516456 -0.40790617 -0.3752682 -0.88924843 -0.2863579 -0.21417448 -0.44792846
0.12823471 -0.30729088 -0.16258408 0.29216632 0.04508702 -0.3962259 -0.031310108 -0.5154315
-0.64394355 -0.36518046 -1.2008673 -0.3179624 0.089748 -0.46097273 -0.17023695 -0.57767683
-0.48897514 0.29113284 -0.070126146 -0.22212747 0.41529366 -0.39070883 -0.24661125 -0.34239364

conv2.nn.0.weight f4 [64, 64]
00000000: ea0f 4b3e 4839 ed3c 34f3 81be 4ddd 233f
00000010: 818e 343d cd59 bbbe 8680 f13d 93f6 3fbe
00000020: 11e1 81be 8009 07bf 0646 69be fed6 6e3c
00000030: 26b7 a8bd a500 75bf 8363 32bf a411 713e
00000040: 8154 3d3f 6df2 173d cc3f 773e ff84 e33e
00000050: fa42 80bf 2513 823e 5716 eabe ad61 a8be
00000060: 4f8c 533d 63b2 8fbf 81d6 513f 63cf 3d3d
00000070: d344 9dbd 30e8 cabf 504f ac3e 65bc 02bf
00000080: ccdb 003d 2a8f 3d3e c310 3abd 0ca4 7abe
00000090: a59c b43d b238 413f 5475 87be 73c8 4a3e
000000a0: ef25 053d aed1 d1bd 59ec a23d b8a2 ac3d
000000b0: 3a3e 4cbc bada 6c3d 1fed a33e 6346 abbe
000000c0: f18b 4c3f 763e f7be d453 303e d39d e33e
000000d0: 16a9 85bd 8324 373e 8ca1 0b3c f150 fc3d
000000e0: 313f ad3d 1c40 0f3f 4636 703d 6146 623d
000000f0: 6daa 62bf 94e3 9dbe d778 c1bd 7f2f 38be
00000100: a2be 33bf b0bd 92be f3c6 b13e 5846 103f
00000110: 46c3 4cbd c5d7 33bf 91fb 3abf 5f51 b53e
00000120: bdad 94be 3a15 b63e 9908 66be ad56 e5be
00000130: 4f1e e13e b4cb 09bc ce1b 6fbd 7921 1d3e
00000140: 9dbb d0bd 38cd d8bb 4d21 993d 3462 383e
00000150: 2a14 753f da12 b7be fcca 393c 8302 813e
00000160: f5ee 773e 52cc 0cbf f2d2 073d d2ca eabd
00000170: 4f0d 24bf a32a a73e 2847 eabe 1334 1fbf
00000180: 78ac 17bc 0d94 33be 1e21 963e 75a5 afbd
00000190: 577c 26be 85cf ee3e 0bdd 0e3e 5145 f8be
000001a0: 1c1f 0b3e 7c46 013d e0ca 07bf 3012 14be
000001b0: 569c 5b3e 86d9 81be 89d3 d6be 4b04 02bd
000001c0: 5a48 d43e 3b66 c0be 82a8 503e 3f67 2a3f
000001d0: 9663 a0bd c055 0ebf 7be3 eabd 164f f33d
000001e0: f346 77bd c810 ae3e 60cb 25bd 50cd ebbd
000001f0: 3fe4 30be f05e c93d 5523 6cbd ab4d 7cbe
00000200: f821 afbf 68cb 153e b628 633f e779 573e
00000210: 15a7 f0be 25dd a3be cc33 3abe f393 9d3e
00000220: f3a1 8d3d 79d4 1c3e 51c0 f63c fb52 9abe
00000230: 8cf9 48be 0781 5abe 7b7c 4e3d a437 963d
00000240: af5e 893e 7fb1 31bf efbe 60bf c68b e4c0
00000250: 7eed e53e adc1 913c 2170 ad3d f92a 4fbe
00000260: 78fc 1a3e e3db 9bbe 33b8 2fbf a645 18bf
00000270: 8f81 8cbc ac89 293e 85d2 cf3e d599 643c
00000280: 7dc9 6f3e 4e13 d6bd 01fc be3e 7734 e1be
00000290: dacc 1fbe bb01 38bf f04d 1a3e 7e47 34be
000002a0: d500 dfbd a592 aabc bcc5 2dbf f3c3 86be
000002b0: c9fe 723d 2d7a c23d e972 193f dd90 12be
000002c0: 6dee babf c7b3 9f3e 10de fbbd c70f 90be
000002d0: da59 20be 40c3 a5be 1343 0cbd d6c0 a93c
000002e0: ee99 af3e 88a8 083e 29f9 e5be 3895 5c3d
000002f0: 7dbc 163d 0f14 7dbe 5c21 97bd f1b0 e9bc
00000300: 1c19 06bf 082d 65be 4694 22c0 341f a93e
00000310: 77e0 a13d f4ca 303f 0e37 05bd bd48 d33d
00000320: 1ac4 7dbe 417c c3be 79e7 88bf e278 6dbf
00000330: 0506 85be 2332 86be 08e4 df3e eb81 b5be
00000340: 7200 c0be 113a f5be 3839 92bd 9fc3 f8c0
00000350: e5c4 0fc0 2848 7cbe 19c0 2b3d c29b f03d
00000360: 1a43 063f 432b 283f e1b9 d43e f38e b83e
00000370: 34c1 b2be 2b9e 413e 9c3d a13c f4b3 203d
00000380: ece8 1ac0 16f8 593e f123 723e 8ce6 06bf
00000390: 34cb ebbe f110 c4bf ea43 87be 46c7 823e
000003a0: 9e27 c43e 4dc6 113e 08b8 e4be 86ac 29c0
000003b0: 155b f63e 4696 65bf 4594 b6be 8a2d 20bc
000003c0: 138a c5be f857 3bbf a2cd c43e 247a 0d3f
000003d0: b79d 4e3e 8da2 ba3d 1c10 85be 67b1 5dbd
000003e0: e1fe 8bbf 6ea6 883e db3e 0c3b 8612 febd
000003f0: 911a bb3b 8bec 0fbe 589d d13d d839 893c
0.1983029 0.028957978 -0.25380862 0.64009553 0.044081215 -0.3659195 0.11792092 -0.18746404
-0.25367025 -0.5274887 -0.22780618 0.014577625 -0.08238058 -0.9570411 -0.6968309 0.23541886
0.7395707 0.03709643 0.2414543 0.44437405 -1.002044 0.2540523 -0.4572017 -0.3288702
0.05164748 -1.1226314 0.8196793 0.046340358 -0.07679143 -1.5852108 0.3365426 -0.5106872
0.031459615 0.18511644 -0.04542614 -0.24476641 0.0881894 0.75477135 -0.26456702 0.19803028
0.03250688 -0.10245071 0.07955236 0.08429474 -0.012466008 0.05782578 0.32016847 -0.33452138
0.79901034 -0.4828984 0.17219478 0.44456348 -0.06526391 0.17885022 0.0085224025 0.12320126
0.084593184 0.559572 0.05864551 0.0552429 -0.885413 -0.3083769 -0.094468765 -0.17986868
-0.7021276 -0.28660345 0.347221 0.56357336 -0.049990915 -0.70251113 -0.7304011 0.35413644
-0.29038802 0.3556307 -0.22464217 -0.4479269 0.43968436 -0.008410383 -0.058376126 0.153448
-0.101920344 -0.006616261 0.07477055 0.18006212 0.9573389 -0.3575657 0.011339899 0.2519723
0.24212249 -0.5499927 0.033160158 -0.11464466 -0.6408281 0.32649717 -0.45757413 -0.62188834
-0.009257428 -0.17536946 0.2932214 -0.0857648 -0.1625837 0.466427 0.13951509 -0.48490384
0.13586086 0.03156136 -0.5304394 -0.14460063 0.21446356 -0.2536127 -0.41958264 -0.031742375
0.4146145 -0.37577996 0.2037678 0.6656379 -0.078314945 -0.55599594 -0.1146917 0.11880319
-0.060370397 0.33997178 -0.040477157 -0.115137696 -0.17274569 0.09832561 -0.057650883 -0.24639003
-1.3682241 0.14628375 0.88733995 0.21042596 -0.47002473 -0.32004657 -0.18183821 0.3077694
0.06915655 0.15315427 0.030121 -0.30141434 -0.19626445 -0.21338283 0.050411683 0.07334831
0.2683005 -0.6941146 -0.8779134 -7.142062 0.44907755 0.017792547 0.084686525 -0.20231237
0.15135372 -0.30441198 -0.6864044 -0.59481275 -0.017151622 0.16556424 0.405903 0.013952692
0.23416705 -0.10452901 0.3730164 -0.4398534 -0.15605488 -0.7187764 0.15068793 -0.17605397
-0.108888306 -0.020821879 -0.67879844 -0.26321372 0.059325013 0.094959594 0.59940964 -0.14313073
-1.4604012 0.31191847 -0.122982144 -0.28137037 -0.15659276 -0.32375526 -0.034243654 0.020721834
0.34297127 0.1334554 -0.44916657 0.053853244 0.03680085 -0.24714683 -0.0737941 -0.028526755
-0.52382064 -0.2238046 -2.5403 0.3303162 0.079041414 0.6905968 -0.032523207 0.10316608
-0.24781838 -0.38180736 -1.069564 -0.9276258 -0.25981155 -0.26210126 0.43728662 -0.35450682
-0.3750034 -0.47895864 -0.0713982 -7.7738795 -2.2463925 -0.246369 0.041931245 0.117484584
0.5244614 0.6569101 0.41548064 0.36046562 -0.34913027 0.18907993 0.019682698 0.039234117
-2.4204664 0.21286044 0.23646523 -0.52695537 -0.4605347 -1.531767 -0.26419002 0.2554266
0.38311476 0.14235802 -0.44671655 -2.651155 0.48116365 -0.89682424 -0.35659996 -0.009776482
-0.38581905 -0.73181105 0.38438135 0.55264497 0.20177351 0.09113035 -0.25988853 -0.054124262
-1.0937158 0.26689476 0.002139977 -0.12405877 0.005709954 -0.14055078 0.10235089 0.016751215

conv2.nn.0.bias f4 [64]
00000000: 5226 b4be 27c3 dfbe 28f1 c03e a3e4 103e
00000010: 2161 6c3e 7a22 333e 3cd2 983d f149 72be
00000020: e014 d3be b56a 333c ac2f bcbd c602 3ebd
00000030: 926a b0be 5156 ae3e 4f06 173d 1582 2c3e
00000040: 048d b73b bea1 6f3f c982 eabe b549 023e
00000050: 3f34 d9be f0a7 63be 81fc 76bf d24b 14bf
00000060: 6c32 e9bc c447 7e3e 64a7 6dbe e316 df3e
00000070: b621 1d3f d01f abbc 8b94 09bd 1fd5 3fbf
00000080: bdb6 1abe e5d6 5ebe 3a26 e43d 237c c7bd
00000090: e703 ea3e 447a 7e3d ea60 cabe 7b27 a7be
000000a0: 5be0 bcbc d40d 85bd 331b 31bf 737a f9be
000000b0: 4d7f 8abd 5647 80be 85de a9be 70eb 513e
000000c0: af39 8d3e 7822 4a3e 802d 6e3e e742 aebe
000000d0: 8335 cdbe 88f5 20be 2bff 25bf 3532 cfbe
000000e0: 2d82 5c3e 8060 72be 4ac8 f1bd 7162 2b3f
000000f0: e0b2 8abe bed2 063f 3eca 16be 846e 093e
-0.35185486 -0.43703577 0.37683988 0.14149718 0.23083927 0.1749362 0.07461974 -0.23661019
-0.41226864 0.010950734 -0.0918878 -0.046389364 -0.34456307 0.3405023 0.03687125 0.16846497
0.005601527 0.93606174 -0.45802906 0.1272343 -0.42422673 -0.22232032 -0.9647904 -0.5792819
-0.028466426 0.24832064 -0.23208386 0.4357215 0.61379564 -0.020889193 -0.033588927 -0.7493457
-0.15108772 -0.21761663 0.11140104 -0.09740474 0.45706102 0.06212832 -0.39527065 -0.3264731
-0.0230562 -0.06496778 -0.6918213 -0.48726234 -0.06762562 -0.25054425 -0.3317758 0.20499969
0.27583072 0.19739711 0.23259544 -0.34035417 -0.4007989 -0.15718663 -0.6484248 -0.40467992
0.21534033 -0.23669624 -0.1180578 0.66947085 -0.27089596 0.5266532 -0.14725587 0.13421065

conv2.nn.2.weight f4 [64, 64]
00000000: 23f2 7f3e ef2b 4b3e 6992 a8be 6737 ab3e
00000010: 3f30 b5be 32c4 47be e077 ca3d 3e57 c73c
00000020: 27ab 41bf 0ebb 92bf a404 1f3f 571d a6bc
00000030: e1f8 aa3e 6657 c03e e0fe ab3e cc89 d3be
00000040: b014 2e3f 122e d33e f2b2 963d 1b90 a43e
00000050: 17b6 33bd b415 67bd 5b1d 443e 54ad 3abd
00000060: 5198 2bbe 4c1f debe 457b 05bd 75fc e5bf
00000070: ff22 82be c587 b43e 994c fbbc 07d4 9a3f
00000080: 9bc6 d4bd 748c ad3d 3285 823c 1da0 07be
00000090: 93bc b53e d595 ae3c e680 ffbd 9076 ab3e
000000a0: 5271 4fbe 44b9 063f 9940 4a3f fc77 66be
000000b0: e4c6 6d3f 6f8f 9ebf 5a21 cd3e 02ca 77be
000000c0: 97b7 f0be 0956 d7be 468b 6dbf 8a9a 2abe
000000d0: 6532 78bd f3fc cabc 99d1 b2be f9b3 28be
000000e0: 36f3 f03f 4b9c 2f3e c618 e93d 5774 a33e
000000f0: bad7 18be 0de6 bf3d 4a98 e63c 3e78 4a3f
00000100: 763b 4e3e 6bc2 cabd 697a 523e 2474 09bf
00000110: da36 92be f2f6 6fbe e690 a83c 34a2 bfbd
00000120: 9b5d 403e 5dab 2fbf 9f62 133d 96f1 eabc
00000130: 0b5b e0be 0738 93bd eac9 1b3f 81e4 aa3c
00000140: c57b 223f 040d 0fbe a8cc 63bd da3c b33e
00000150: 2eb5 9bbd 7876 10be 2917 533c b7b9 09bf
00000160: d3a9 abbe 01da 57be 7237 c2bc c0ca 66bf
00000170: d903 cfbd 7b92 863e 0a29 893f 8128 b7be
00000180: aadd 92be 6fda 023f 12d1 5abd 89cc 84bd
00000190: 53a4 c43e 6ffc 853e eaca 953d 8c9d 943f
000001a0: 57f2 25ba 509d febd 35b6 663f f84a aebe
000001b0: aed1 993f 58d0 4c3f cc78 ee3a 71b2 71be
000001c0: ea3f 763f ec0c f3bd d3ba 72bf 9934 673e
000001d0: f563 4cbe cf9b c43d 2dd5 ae3e 56e8 8abe
000001e0: e646 0a3f acce 8ebf eb32 d2bd c4fa 223e
000001f0: c186 4dbe c335 96be 6cff 1c3c 33af 94bd
00000200: d757 dfbe 8980 373c 478a 8c3e 7d15 373f
00000210: 4803 ba3e 37f7 b23d 81e2 053c b411 283d
00000220: 1a32 813e 1a51 ef3c e0b3 89bf 647b 313d
00000230: e0cd 0f3e 3014 d63e 632f 4ebf d190 f6bf
00000240: d307 fabc afd2 6d3e 0a29 b6be 7c19 a5bf
00000250: d2aa d43d f678 8ebc 4783 903e 46a0 9f3f
00000260: 3979 363e b321 a43e 41ab ef3d 7359 6b3f
00000270: 13f9 253d aef7 cfbe f498 c4be 6c8c 11bc
00000280: 0556 04be 0d02 42bf 3991 f9be 6de8 cbbc
00000290: 590f 373e 0545 233e fc7b 053e 1531 9bbf
000002a0: 34c1 c6bd a182 183e b283 193f 4319 19bc
000002b0: c176 bf3f 3645 133e 72f8 ac3e 0d5c a0bd
000002c0: 9c4f 8f3f a91b 3bbe efe4 833f 9f2c 423e
000002d0: f186 c0bd adf6 b13d fea1 c93d 5ec1 24be
000002e0: c0de bdbd f6e3 ec3f d1dc ae3d 2c46 b9be
000002f0: 1aef 09bd 3c8a bd3d a03f 7f3d 7f16 8c3e
00000300: 2ad3 46be af55 2e3e 938e ef3d 9121 153f
00000310: 963d 533e b69f 30bd db70 883e 4bf8 ebbc
00000320: 2b70 393e fe70 a03d d2a6 59be ed2a a6bd
00000330: ea19 a5be d74e 833e eed3 f9bd 87e5 b2bf
00000340: a328 063e 5b86 333e cf22 00bf 8b87 cfbf
00000350: 9ce1 03be 7a0f 21be f441 623f efc4 5abf
00000360: d391 babe 505d 0abf 51af f83d 7348 8abe
00000370: 433e c4bd e3ac 803e cd6a 7f3e b47d b7be
00000380: c866 6f3e 3cb5 20be 0ac9 34be aa84 2f3c
00000390: 2760 953e 7196 eb3e 808a 883c 89c4 1f3f
000003a0: 54cd 8dbe 9286 1c3f 277b ce3f 3d8a d4be
000003b0: aac8 0f3f de16 5dbf 551a b23e dd8d 70be
000003c0: cfd8 eb3e edf3 3abe 0275 cfbe 9497 c3be
000003d0: 0c61 3ebe 4aeb 7e3d 62b2 1c3e 054d a93d
000003e0: 08f3 e53f dfad 533f fdeb 29be a498 f8bd
000003f0: 6156 c03d 5d92 e1be 09a9 803d 02ea f43e
0.24994712 0.19840978 -0.32924202 0.33440706 -0.3538837 -0.19508436 0.098861456 0.024333593
-0.7565178 -1.1463335 0.62116456 -0.020277662 0.33393005 0.3756668 0.33592892 -0.41316068
0.68000317 0.41246086 0.0735835 0.32141194 -0.043874826 -0.056417182 0.19151823 -0.045575455
-0.16757323 -0.43383253 -0.032588262 -1.7967669 -0.25417325 0.35259834 -0.030676173 1.2095956
-0.103894435 0.08474055 0.015932653 -0.13244672 0.35495433 0.02131168 -0.12475757 0.33488894
-0.20258072 0.5262644 0.7900482 -0.22506708 0.9288161 -1.2387522 0.40064508 -0.24198154
-0.47015068 -0.42057827 -0.9279064 -0.16660514 -0.060594935 -0.024778819 -0.34925535 -0.16474904
1.8824222 0.17149465 0.11381678 0.31924698 -0.14926043 0.093700506 0.028148789 0.79089725
0.2013987 -0.099003635 0.20554508 -0.5369284 -0.28557473 -0.23434046 0.020576905 -0.0935711
0.18785708 -0.68620855 0.035982724 -0.02867965 -0.4381946 -0.07188421 0.6085497 0.020860912
0.6347011 -0.13969809 -0.055615097 0.35007364 -0.07602917 -0.14107692 0.01288394 -0.53799003
-0.33528003 -0.21079256 -0.023708079 -0.9015312 -0.10108156 0.2628363 1.0715649 -0.3577309
-0.2868474 0.51114553 -0.05342204 -0.064843245 0.3840662 0.26169154 0.073140934 1.161058
-0.0006330362 -0.12432349 0.90121776 -0.34041572 1.2017114 0.8000541 0.0018193959 -0.23603226
0.96191275 -0.11867699 -0.9481632 0.22578658 -0.19960006 0.09600031 0.34147015 -0.27130383
0.5401443 -1.1156821 -0.10263618 0.15915972 -0.20070936 -0.29337892 0.009582382 -0.07259979
-0.43621704 0.011200079 0.27449247 0.71517164 0.36330628 0.08738559 0.0081716785 0.041032508
0.25233537 0.029213477 -1.0758018 0.043330565 0.14043379 0.41812277 -0.80541056 -1.9262944
-0.030521309 0.232249 -0.35578185 -1.2898402 0.10384144 -0.017391663 0.28225157 1.2470787
0.1781968 0.3205696 0.11702586 0.91933364 0.04052074 -0.40618652 -0.38397944 -0.008883577
-0.12923439 -0.7578438 -0.4874361 -0.024891103 0.17876948 0.15944298 0.13035578 -1.2124354
-0.09704819 0.14893581 0.59966576 -0.009344402 1.4958116 0.1438187 0.337833 -0.07830057
1.119617 -0.1827227 1.030424 0.18962334 -0.09400738 0.08689628 0.09845351 -0.16089389
-0.09271002 1.8507068 0.08538211 -0.3618635 -0.03367529 0.09254882 0.062316537 0.27360913
-0.1941649 0.17024873 0.11697116 0.58254343 0.20628962 -0.043121062 0.26648602 -0.028804919
0.18109195 0.078340515 -0.21255043 -0.08113656 -0.32246333 0.25646088 -0.121986255 -1.3976296
0.13101439 0.17531721 -0.50053114 -1.621324 -0.12879032 -0.1572856 0.88381886 -0.85456747
-0.3643938 -0.54048634 0.12142814 -0.270084 -0.09582188 0.25131902 0.24943085 -0.3583809
0.23379052 -0.15694135 -0.17654815 0.010712782 0.2917492 0.46013215 0.016667604 0.62409264
-0.27695715 0.6114284 1.6131333 -0.41511717 0.56165564 -0.8636302 0.34785715 -0.23491617
0.4606385 -0.18257113 -0.40518957 -0.38201582 -0.18591708 0.062236108 0.15302423 0.082666434
1.7964792 0.8268718 -0.16593929 -0.12138489 0.093914755 -0.4405698 0.06282241 0.47834784

conv2.nn.2.bias f4 [64]
00000000: 2233 003e 5ee8 1e3e 85e7 a13d c0be 2d3d
00000010: e91e 57bd c23b 4bbd 572a 0ebe 8bfa 4ebe
00000020: 2d59 16bd 26e6 b63d 91c0 5b3e 0cfe 0f3d
00000030: acc5 e4bd e8b8 89bb c2b6 97bd 354c 06bc
00000040: 0357 d03d 20f9 83bc 3e6d 4e3d c043 5f3d
00000050: 8f5b 43bd e39e 9abd b4f7 90bb 853c 193d
00000060: 7e09 1bbc f732 0ebe 351c 0cbd abc7 b83c
00000070: 7003 ba3b 8e8f b4bd f0b4 cbbc a8f5 823d
00000080: 8d29 aebd 8718 47bc 4fb0 60bd 2177 aabe
00000090: 4310 02be a458 983d fa3e f7bd 40ea ac3d
000000a0: 8385 103d ea25 5dbc ee6e 463e a50f 8bbc
000000b0: 736e 003e 5367 45bd 708f ebbc 1716 04be
000000c0: d22f 08be 6e43 68bd 45c7 e7bb 7306 1bbd
000000d0: 38b8 5b3d 8a7c 61bc 9a78 0bbc f926 34bd
000000e0: b094 e3bc 3ada 4d3d 3612 9f3b 1c63 77bd
000000f0: 5b09 33bd 9288 cfbb a241 efbd 382d 39be
0.12519506 0.15518329 0.07905487 0.04241824 -0.052519713 -0.049617536 -0.13883339 -0.20212762
-0.03670614 0.08930616 0.21460177 0.035154387 -0.111705154 -0.0042029507 -0.07407905 -0.00819688
0.10172846 -0.016110003 0.05039715 0.05450797 -0.04769474 -0.075498365 -0.0044240598 0.03741123
-0.009462712 -0.13886629 -0.034206588 0.022556147 0.0056766793 -0.088164434 -0.024866551 0.063945115
-0.08504019 -0.012151844 -0.05485564 -0.33294013 -0.12701516 0.07438782 -0.12072559 0.08443117
0.035283577 -0.013497809 0.19378254 -0.016975233 0.12542133 -0.04819424 -0.02875492 -0.12899052
-0.13299492 -0.05670493 -0.0070733153 -0.037847947 0.05364248 -0.013762603 -0.00851264 -0.04398248
-0.02778086 0.050256945 0.004854466 -0.060397252 -0.043710094 -0.006333419 -0.1168244 -0.18083656

conv2.lin.weight f4 [64, 7]
00000000: ee2d fd3e ceb1 5ebf f8b5 7ebf 6fbe 89bf
00000010: 34ce 5c3f 0fef f5be e97f 4cbe c80d 8fbd
00000020: 7278 86bf 1f91 c3bd 42c8 15bf e659 b5bd
00000030: cd6a 86bf e6ce 7d3d 5727 ef3c da44 3c3e
00000040: 0a6d 08bf 79b2 773d 36c7 1d3f 36ed ae3e
00000050: 1c46 b4bf 0ff4 35bf 510e 813f 818f c73d
00000060: f528 6c3d c5b4 173e 9a6e afbc 06c7 493f
00000070: 5f9e 16be b76d 49c0 ea50 0b3e 5683 acbd
00000080: 057f ec3d e7af 793e 444b 0dbd 6802 9e3c
00000090: 9cc1 113f 0e2e 183f 7ead 633f 5727 4b3e
000000a0: 7027 b9be 7720 8ebe 4631 12be 6bd4 84c0
000000b0: 004a 243f de2d 143f a8f8 07be e93a a73e
000000c0: c85d 23be 8041 4f3f 9d02 873f a268 363d
000000d0: ddfe 0e3f 6d75 21be 9d3a 613b 2d5f aebe
000000e0: ea04 e2ba 612c 5fc0 5b13 9f3e 6008 9b3e
000000f0: 0d73 9cbe 2903 bd3c 4a2e 71bc 842a 8ebf
00000100: 19d5 08be 3888 c9be f984 fd3e 232e 073f
00000110: 45f4 343c e8b5 96bf 0ed7 04be d563 8fbf
00000120: 2336 7a3e 1da8 97be d544 2b3e 4273 963e
00000130: bada eebd bb82 92bc a628 8ebf 214b b2bf
00000140: a520 84be 9bed 8dbf 80b3 4f3e 2c73 aa3e
00000150: 912c a93f da13 d3bd e0f0 2bbf 3e11 063d
00000160: 45a1 6b3d d870 cc3e b58c 26bf bfa0 90be
00000170: 8d8e 853b e376 fa3e 8be7 653e 2729 71be
00000180: b9b4 373f 3577 6cbe e439 a43e dc2b e13e
00000190: 21e9 9abf f098 083f abdd b33e a45d a6bf
000001a0: dcc4 bb3d 765d eabf cbbc 0440 7a2f cfbf
000001b0: 8b5c a3bf a98c 28be dd81 e13e dcdf 963e
000001c0: d11a 093f a77a 7abe bbd1 2fbd a058 83be
000001d0: 5f62 19be bc8c d43e 809d 263c bab9 163f
000001e0: cb18 f2bc 58a8 4dbf 37cc 603d ca8d 7c3e
000001f0: 4ab2 1c3e c2d6 a83e 84d3 bfbe 6b03 8abf
00000200: aeab 353e 0396 8bbf 6c4f 763f b60b 9cbe
00000210: 0350 b93d f733 373e 83f2 0a3e 53bc dabb
00000220: 8dd7 a53d cef1 893f 65e2 2cbe a0ff 37be
00000230: 58d9 6d3b 2c23 b23e db45 913d 0e92 c8ba
00000240: b1bf 233b 8b1a 023b 00fe a33f be64 b7be
00000250: 1615 0c3f 9216 f13e 03c0 d2be 6965 453e
00000260: 7c1c 533e 512e 9bbf cf0e 003e bd58 2940
00000270: b270 e5be 63a4 653d a7a8 10be 4b37 033c
00000280: a09e 7ebd 9001 3a3f 915d 0e40 bcba d2be
00000290: f1fa b13e cddd 4ebc db3b c8bf 12cc 823d
000002a0: 6aec b6bf d153 38bf eb6e 953d 84b4 a8bf
000002b0: 1a64 c33d bab5 71bf 14eb 283f 5f59 a4be
000002c0: a240 ff3f 67f9 dbbe 364c 753f 4def 053d
000002d0: 345f 92bf 35f7 e23d 8a80 4a3f e0cb 203e
000002e0: 1b9b 023f 6280 b23e 87e4 c93e d385 41be
000002f0: c3c4 babf d4f3 4bbf 0626 00bf c7a4 bfbc
00000300: 36d4 bc3e f751 96bd f4a8 bc3b 5b90 0dbf
00000310: 2d99 a83e 6719 2ec0 ceb2 60bf 70e0 a7be
00000320: ff21 b7bf 9ee5 18bf c035 043f a907 253e
00000330: ea4f 0d40 512b ed3e fdf5 a0bd 5109 8bbe
00000340: 0790 57bd 05e6 073f c211 77bf bbb0 513f
00000350: b1af 463e 8b6b d7bd 6c46 e3be 932f 0dbe
00000360: f71c a53e a67a cfbf e1ac 85c0 95ec 193f
00000370: 34cb 84be d354 1d3f a5fb f43e 68fd efbe
00000380: b90d e2be 9ec9 b8c0 a637 a83d 6262 b43d
00000390: 7b1f 2e3e 6c1b 013f f475 ac3c a2ed 063f
000003a0: 2dfb 123f 641d 313f ae85 12bf 8cee 49bd
000003b0: e102 9c3e ab9f 70bf 203d af3d c53b 013f
000003c0: 530f 56be 57c5 093e e455 22bf 1793 1dbe
000003d0: f0d5 a03e c886 3abe 449d e3bb 7bed f3bd
000003e0: 119e e5be 82b6 f03d 2620 6c3e c82b 5ebe
000003f0: 990b a9bd d06d 973f bcf3 6bbe c159 54bc
0.49449104 -0.8699006 -0.9949641 -1.0761241 0.8625214 -0.4803395 -0.19970669 -0.069850504
-1.0505507 -0.09549164 -0.58508694 -0.088550374 -1.0501343 0.06196489 0.029193563 0.1838564
-0.5329138 0.06047294 0.61632097 0.34165353 -1.4083896 -0.7107553 1.0082494 0.09744168
0.057656247 0.14815052 -0.021415044 0.7881931 -0.14708851 -3.1473215 0.13605085 -0.08423488
0.115476646 0.24383508 -0.034495607 0.019288257 0.5693605 0.59445274 0.88936603 0.19839226
-0.361629 -0.27759144 -0.14276609 -4.15093 0.64175415 0.5788249 -0.13278449 0.32662132
-0.15953743 0.8095932 1.0547673 0.04453338 0.5585764 -0.1576745 0.0034367212 -0.34056988
-0.0017243896 -3.4870837 0.31069455 0.30279827 -0.30556527 0.023072796 -0.014720509 -1.1106725
-0.1336254 -0.3936174 0.49515513 0.52804774 0.0110445665 -1.1774263 -0.12972662 -1.1202341
0.24434714 -0.29620448 0.16725476 0.2938481 -0.116628125 -0.017884603 -1.1106155 -1.3929178
-0.25806156 -1.1088136 0.20283318 0.33290994 1.3216726 -0.10306521 -0.6716442 0.032731287
0.057526845 0.39929843 -0.6505845 -0.2824764 0.0040758313 0.48918828 0.22451608 -0.23550855
0.71760136 -0.23092349 0.32075417 0.43978775 -1.2102395 0.53358364 0.35130057 -1.2997327
0.09168407 -1.8309772 2.074023 -1.6186364 -1.2762617 -0.16459908 0.4404439 0.29467666
0.53556544 -0.2446085 -0.042924624 -0.25653553 -0.14978932 0.41513622 0.010169387 0.58877146
-0.029552838 -0.80335 0.054882254 0.24663463 0.15302387 0.32976347 -0.3746606 -1.0782293
0.17741272 -1.0905155 0.9621494 -0.30477685 0.09048464 0.17890917 0.13569073 -0.006675282
0.08097754 1.0776918 -0.16883238 -0.17968607 0.0036292877 0.3479246 0.07093402 -0.0015302317
0.0024986083 0.0019852247 1.281189 -0.35819048 0.54719675 0.47087532 -0.41162118 0.19276966
0.20616335 -1.212351 0.12505649 2.6460412 -0.44812542 0.056064975 -0.14126836 0.008008788
-0.062162995 0.72658634 2.2244608 -0.41158092 0.34761766 -0.012626124 -1.5643266 0.063865796
-1.4290898 -0.72002894 0.072965465 -1.3180089 0.09540577 -0.9441792 0.659837 -0.32099435
1.9941599 -0.42963716 0.95819414 0.032698918 -1.1435304 0.11082307 0.79102385 0.15702772
0.5101792 0.34863573 0.39432165 -0.18898706 -1.4591297 -0.7966893 -0.5005802 -0.023394002
0.36880654 -0.07339852 0.0057574455 -0.55298394 0.32929364 -2.7203004 -0.87772834 -0.3278842
-1.430725 -0.5972537 0.51644516 0.16116203 2.2080026 0.4632211 -0.078594185 -0.27155545
-0.05262759 0.53085357 -0.9651147 0.81910294 0.19402958 -0.10518559 -0.44389665 -0.1378768
0.3224866 -1.6209304 -4.1773534 0.6012662 -0.25936282 0.61457556 0.4784824 -0.4687302
-0.44151095 -5.7746115 0.08213739 0.088078275 0.17004196 0.5043247 0.021052338 0.5270635
0.57414514 0.6918547 -0.5723523 -0.04929976 0.30470946 -0.93993634 0.085565805 0.50481826
-0.20904283 0.13454185 -0.6341231 -0.15388142 0.3141322 -0.18215477 -0.0069462378 -0.1191053
-0.44847158 0.117535606 0.23059139 -0.21696389 -0.08254165 1.1830387 -0.23042196 -0.012960852

conv2.lin.bias f4 [64]
00000000: bbfb 2d3c e27f 423e d804 06be 89af 68be
00000010: 5811 53be 863e f1be bbb9 d2be 5a59 39be
00000020: 3fef 08be 7d3a c23d cf21 35be ba2f 24bc
00000030: 6de0 95be 4adc b8be 3ea5 27be 2814 7bbd
00000040: cf59 e3be c279 32be d5ac 1dbe 0da2 e3be
00000050: ef71 40bf 4f4d 26bd d63e 57bd 6ab5 ccbe
00000060: 204b c1bd 1a78 c5bf 2d27 bbbe b8ae af3d
00000070: a53d 92bd f682 91be 1bd1 f8bd 83da b4be
00000080: 7191 a9be c7ad 8dbe b43d 53be 6f3c a83d
00000090: dc49 873e faf8 823d b5b8 063d 18b3 58be
000000a0: e373 bc3e 8d88 863e 753f 4dbe 1b95 b1be
000000b0: b436 ffbe f288 873e 7bda 92be 7f61 bcbe
000000c0: 7546 04bf 5785 773e c08c 50bd 8e61 1dbf
000000d0: 0a7a 883e fd6b df3c 29ad 5cbe dce5 13be
000000e0: 012b 7e3e df6a 84bd e561 24bf ed66 44ba
000000f0: 3501 f8be bbad cabd 9b2c 2abe eaf8 56be
0.010619099 0.18994096 -0.13087785 -0.22723211 -0.20612085 -0.47118014 -0.41157326 -0.18100491
-0.13372515 0.09483812 -0.17688678 -0.0100211445 -0.29272786 -0.36105567 -0.16371629 -0.06129852
-0.44404456 -0.1742926 -0.15397961 -0.44459572 -0.7517385 -0.04060107 -0.05255016 -0.39982158
-0.09438157 -1.5427277 -0.36553326 0.08578247 -0.07140664 -0.28420228 -0.12149259 -0.3532296
-0.33118775 -0.27671644 -0.20629007 0.08214652 0.26423538 0.06395145 0.032890994 -0.21162069
0.36807165 0.26276055 -0.20043738 -0.3468407 -0.49846423 0.26471668 -0.28682312 -0.36793134
-0.5167001 0.24171959 -0.05091548 -0.6147698 0.26655608 0.027273173 -0.2155043 -0.14443153
0.24821092 -0.064656965 -0.64211875 -0.0007492144 -0.4843842 -0.09896418 -0.16618578 -0.2099339
