run_results/2905-1755/checkpoints/B/model_B_epoch_10.pth (torch, 698407 bytes, 7 tensors)

embedding.weight f4 [500, 300]
0.13096628 -0.13095073 -0.43669713 -0.6567773 1.6943336 -1.4509814 -0.1825226 1.0638838
-0.45821536 1.2844883 0.9631473 -0.6049813 1.4201044 -1.4297459 -1.579947 -0.15192288
2.092026 0.7287423 1.7249402 -1.9559163 1.2002152 -0.28191975 -0.66938496 -0.53593636
-0.8602428 -0.41511697 -1.3955934 0.82693243 1.8077319 0.6981272 0.64443785 -0.50386167
1.1753064 -2.6427286 -0.15183102 2.2504258 1.9233696 1.3076897 -1.2333583 0.21564567
0.5722423 2.3255947 -0.8689631 -1.3938351 0.033011645 0.2943997 0.27956372 1.1538715
0.8390607 -0.75610316 3.6938643 -0.556604 -0.1734836 1.8120056 -0.7011211 0.9441046
0.36912626 -0.9492953 0.030310173 -0.15752321 -0.8943782 1.2952107 1.6974096 1.6597459
0.83800834 2.326436 -1.0051138 0.37017685 0.743621 -0.046062585 -0.96473604 -0.055311576
1.5298693 0.55558795 1.2207048 -0.1896879 0.41998786 1.4754244 0.343879 0.7075354
1.3727028 0.46103317 1.4659927 1.6555129 0.91227794 0.1459452 1.5343176 1.2302334
-0.9914824 -0.32903048 0.40215394 1.1078303 -1.9711691 0.002076482 -0.018793851 -3.2326164
0.19867028 -0.19046688 1.1182023 1.729667 1.0493736 -0.5711588 0.9565984 -0.79385936
-2.1154752 -2.1284738 1.0992324 0.038747106 0.5283862 -0.44175416 -0.63655716 0.6920598
0.33161977 0.5945521 0.38988745 -0.037074246 0.8407813 0.1504264 0.6831984 0.28087237
0.71056366 -1.6595006 -0.10189508 -0.88374084 -0.43612477 1.5173005 1.3072355 0.1608291
-0.33295363 -0.80746424 0.79533434 0.9730443 -0.041633114 0.17761944 0.53769827 0.7460522
1.9272423 -1.9490103 -0.15841053 1.3124894 0.061390407 -0.9692682 1.220254 -1.7770177
0.15130165 -0.038057648 0.08843041 -0.30249006 -0.42689922 0.71104354 -0.7470769 -0.80798376
-0.04406523 0.33636123 1.2979431 -0.75282234 0.40115064 0.7786359 0.3688495 -0.40119892
-0.56369674 -1.5516351 1.2697212 -0.59045887 -1.0204527 1.3386312 -0.15261325 0.10830536
-0.80836743 2.5135295 -1.0336211 -0.44711825 0.703755 -0.8722133 -0.8159492 -0.3076574
1.0576296 1.391473 -0.8334264 0.5356951 1.3955809 0.4869221 0.0993519 -0.33933824
-0.9186612 -0.7386408 1.1609142 -0.49522674 -0.2424636 -0.04412838 0.27962083 0.47761604
-1.587761 0.70016634 -1.7331207 -1.133794 0.33063668 0.44453067 0.43138638 0.6086981
-0.25975588 -1.8649939 0.8311824 -0.8485759 -0.08877726 -1.2173252 0.08520791 1.2935055
1.403451 0.5020658 -0.41718453 -1.5234025 0.12641828 0.8151214 -0.04267181 0.28973576
-0.9158272 0.29043227 0.5811392 -1.8066639 0.38889042 -1.0252736 0.6307972 -1.114943
0.3154693 0.1563264 1.7956411 1.257932 -0.75966334 -0.663352 0.010179191 -0.5616439
0.28603294 1.9797802 0.45920178 -0.39158627 -0.71525896 1.1467359 0.15099119 0.6494094
-0.4877538 0.8080044 0.6210021 -0.2597263 0.9309518 2.0002594 -0.8025483 -1.1100167
0.91185516 -0.185886 1.5843385 0.59730583 -0.16272679 -0.32725993 -0.54913944 -0.5867918
00000000: 061c 063e f317 06be c496 dfbe 8f22 28bf
00000010: ecdf d83f c2b9 b9bf 34e7 3abe 582d 883f
00000020: 349b eabe 1d6a a43f d290 763f 0ee0 1abf
00000030: fbc5 b53f ea01 b7bf b43b cabf ac91 1bbe
00000040: c1e3 0540 db8e 3a3f d7ca dc3f 775b fabf
00000050: a7a0 993f c957 90be d05c 2bbf 2033 09bf
00000060: df38 5cbf 368a d4be cea2 b2bf d8b1 533f
00000070: c263 e73f 77b8 323f e1f9 243f 14fd 00bf
00000080: 7170 963f 7722 29c0 9779 1bbe fa06 1040
00000090: fa30 f63f 6062 a73f afde 9dbf 38d2 5c3e
000000a0: 797e 123f 8bd6 1440 5e74 5ebf 3069 b2bf
000000b0: 3837 073d 8fbb 963e fa22 8f3e 10b2 933f
000000c0: afcc 563f fa8f 41bf 4668 6c40 9a7d 0ebf
000000d0: afa5 31be cdef e73f ac7c 33bf d7b0 713f
000000e0: 1efe bc3e 0405 73bf 0a4d f83c c44d 21be
000000f0: f8f5 64bf 77c9 a53f b844 d93f 8e72 d43f
00000100: b787 563f 54e4 1440 92a7 80bf d287 bd3e
00000110: f25d 3e3f 1fac 3cbd f1f8 76bf 648e 62bd
00000120: c2d2 c33f 033b 0e3f 0e40 9c3f 8b3d 42be
00000130: a608 d73e b5da bc3f e910 b03e 0a21 353f
00000140: bab4 af3f 8a0c ec3e a6a5 bb3f d9e7 d33f
00000150: 0c8b 693f a972 153e 8564 c43f 4a78 9d3f
00000160: cad1 7dbf af76 a8be 1fe7 cd3e 62cd 8d3f
00000170: 454f fcbf 9615 083b 90f5 99bc 30e3 4ec0
00000180: 3970 4b3e c009 43be 4121 8f3f ba65 dd3f
00000190: e051 863f 7737 12bf a2e3 743f 5e3a 4bbf
000001a0: f263 07c0 ea38 08c0 a6b3 8c3f 49b5 1e3d
000001b0: 5144 073f 9a2d e2be 69f5 22bf d52a 313f
000001c0: 11ca a93e 9134 183f 549f c73e 2adb 17bd
000001d0: 713d 573f 6109 1a3e 17e6 2e3f 81ce 8f3e
000001e0: 80e7 353f 846a d4bf 5eae d0bd d73c 62bf
000001f0: bf4b dfbe e736 c23f 7e53 a73f 62b0 243e
00000200: e678 aabe fab5 4ebf 089b 4b3f 6e19 793f
00000210: 7c87 2abd dfe1 353e 98a6 093f 47fd 3e3f
00000220: e0af f63f 2b79 f9bf 5f36 22be a7ff a73f
00000230: 8274 7b3d f621 78bf 4831 9c3f 5175 e3bf
00000240: d2ee 1a3e 56e2 1bbd 011b b53d fadf 9abe
00000250: 8992 dabe f306 363f 6f40 3fbf 06d8 4ebf
00000260: be7d 34bd 8a37 ac3e 0023 a63f f7b8 40bf
00000270: 9e63 cd3e af54 473f d7d9 bc3e f269 cdbe
00000280: 6e4e 10bf fb9b c6bf 3986 a23f 5028 17bf
00000290: 329e 82bf 4458 ab3f a646 1cbe 33cf dd3d
000002a0: 2bf1 4ebf abdd 2040 b24d 84bf afec e4be
000002b0: 4a29 343f 5f49 5fbf 0ce2 50bf 4585 9dbe
000002c0: 6860 873f ca1b b23f 6f5b 55bf 5023 093f
000002d0: 65a2 b23f da4d f93e 0279 cb3d bebd adbe
000002e0: 612d 6bbf 9017 3dbf d698 943f 5c8e fdbe
000002f0: 6148 78be f6bf 34bd 762a 8f3e 178a f43e
00000300: c13b cbbf 1a3e 333f e6d6 ddbf 2920 91bf
00000310: 3649 a93e 8699 e33e adde dc3e a4d3 1b3f
00000320: b9fe 84be 1fb8 eebf 5fc8 543f 453c 59bf
00000330: dad0 b5bd 50d1 9bbf 7c81 ae3d 9791 a53f
00000340: 48a4 b33f 6287 003f 3699 d5be dafe c2bf
00000350: cb73 013e ccab 503f a3c8 2ebd 3f58 943e
00000360: a773 6abf 8ab3 943e 8ac5 143f c340 e7bf
00000370: a51c c73e 2a3c 83bf ed7b 213f 74b6 8ebf
00000380: 3185 a13e 0714 203e 91d7 e53f ea03 a13f
00000390: 4c79 42bf 70d1 29bf 9fc6 263c e5c7 0fbf
000003a0: e972 923e 7069 fd3f 7f1c eb3e ff7d c8be
000003b0: 361b 37bf 3ec8 923f 6f9d 1a3e b23f 263f
000003c0: deba f9be 60d9 4e3f fef9 1e3f d8fa 84be
000003d0: db52 6e3f 4004 0040 ce73 4dbf 0715 8ebf
000003e0: 576f 693f e658 3ebe 9bcb ca3f 09e9 183f
000003f0: daa1 26be 9d8e a7be 6794 0cbf fd37 16bf

conv1.bias f4 [64]
-0.033036537 0.016878856 -0.026278084 -0.021093952 -0.045147385 -0.0116799455 -0.027328895 -0.02686843
0.010115347 -0.034427207 -0.033183724 -0.020413728 -0.04380398 -0.04658801 -0.04411469 -0.028868193
-0.0062749865 -0.025928454 -0.012721498 0.046135005 0.005124371 -0.05400907 -0.028907431 -0.051088683
-0.010990384 -0.0572637 -0.045112524 -0.026016137 -0.009475725 -0.035135724 -0.011258109 -0.03700483
-0.028555844 -0.024204044 0.034890287 -0.023445718 -0.014893651 0.0660379 -0.03392232 0.00616832
-0.061825704 -0.032518514 -0.039157614 -0.03104452 0.05189134 -0.026348982 -0.0328409 -0.009830159
-0.0072393795 -0.022267481 -0.021956135 -0.03154298 0.0009497944 -0.052081995 -0.03078103 -0.014295102
-0.023668591 0.026967634 -0.016612662 -0.010201293 -0.03410286 -0.03343013 -0.010787284 -0.00905271
00000000: 5251 07bd 8745 8a3c 2345 d7bc 39cd acbc
00000010: 77ec 38bd 3e5d 3fbc d9e0 dfbc 2f1b dcbc
00000020: d7ba 253c 8b03 0dbd a8eb 07bd b13a a7bc
00000030: cd6b 33bd 12d3 3ebd 9bb1 34bd fd7c ecbc
00000040: 679e cdbb e967 d4bc d46d 50bc 0ff8 3c3d
00000050: 57ea a73b 9d38 5dbd 47cf ecbc 5e42 51bd
00000060: 0311 34bc 578d 6abd e9c7 38bd cb1f d5bc
00000070: 1240 1bbc 7aea 0fbd ee73 38bc 6092 17bd
00000080: f2ed e9bc 8f47 c6bc 1ee9 0e3d 3c11 c0bc
00000090: 8004 74bc e13e 873d 21f2 0abd 9e1f ca3b
000000a0: f33c 7dbd 2232 05bd bc63 20bd 1451 febc
000000b0: 048c 543d d2d9 d7bc 2e84 06bd ad0e 21bc
000000c0: 5138 edbb 4b6a b6bc 5add b3bc 3633 01bd
000000d0: a0fb 783a ee53 55bd 8028 fcbc 0136 6abc
000000e0: a2e4 c1bc 3aeb dc3c 4717 88bc 5323 27bc
000000f0: 71af 0bbd 08ee 08bd 26bd 30bc d151 14bc

conv1.lin.weight f4 [64, 300]
-0.05591557 0.11757598 0.08267356 0.12130149 0.016240718 0.0026396906 -0.12600936 -0.16591884
-0.06647003 0.0037086504 -0.25893536 0.17506824 -0.010620723 0.062379364 -0.04147742 0.08742493
-0.027494289 -0.0010274136 0.1444039 -0.18017404 -0.038590435 -0.13364746 -0.13584635 0.031833787
0.006970974 0.05694955 -0.20764798 -0.015513713 -0.05656492 -0.052151434 0.11693486 -0.17329909
-0.04079032 -0.008190719 0.077872165 -0.095445536 0.04552753 -0.081011385 0.08027115 -0.2545056
-0.12263243 0.12487012 -0.17739981 -0.064517975 0.07225282 0.089993596 -0.032729615 0.0057948637
-0.011739236 0.068719506 0.07158683 -0.057724364 0.13372909 -0.06824493 0.11803023 0.02427556
-0.13000157 -0.05490342 -0.031183645 0.075423576 0.04290517 -0.09263124 -0.11530945 -0.066055335
-0.0014007181 0.3156903 -0.14496878 -0.09290646 -0.013217234 0.025182087 -0.15120971 -0.16930181
0.12655774 0.020697605 0.04605432 0.12902163 0.05588822 -0.043986704 0.022925029 0.06424039
0.08050731 -0.09310247 0.087343976 -0.14029244 0.024550607 0.13511784 -0.074988574 0.00555486
0.028501721 0.046665166 -0.16008534 -0.024019176 -0.09854801 0.08820668 -0.14382632 -0.07041783
0.014862528 -0.117620125 -0.10344186 0.022031954 -0.103440285 0.11491001 0.1726909 -0.12680535
0.13296857 0.023596251 -0.18171638 -0.0278728 -0.032937616 0.15523592 -0.078291126 -0.073145814
0.0858394 -0.09729005 -0.06473918 0.03614191 -0.01240214 -0.15422508 0.08925831 -0.1514242
-0.1573379 -0.16250831 -0.046970777 -0.014137214 -0.06814781 0.019615607 0.14100033 -0.022449588
-0.005843612 0.15027483 0.07816388 -0.1762391 0.059903283 0.14215888 0.13901064 -0.0733207
-0.23742236 0.029700901 0.09085669 -0.0056924955 -0.079618536 0.06449402 0.06714538 0.08911333
-0.21216922 -0.13342865 0.11059125 0.025319899 0.1715196 0.09341036 0.12734717 0.022454318
-0.2992558 0.019919291 -0.032843556 0.069092795 -0.050097384 0.06798749 0.11995403 0.08838174
0.054209385 -0.11780987 -0.11656469 0.06853418 0.10282183 0.026617542 0.3336917 0.09970355
-0.10216857 -0.119636424 0.07831682 -0.05889762 -0.13713935 0.08317857 0.13224 0.052467097
0.043419782 0.07810317 0.1638446 0.0640049 -0.013838392 0.028844476 0.031053785 -0.1748903
-0.018418195 -0.0290877 -0.24463797 -0.24047299 0.008848202 -0.054123137 0.08840745 0.04374709
-0.044740718 0.18937878 -0.010775578 0.0043839365 -0.038384102 0.16994698 0.32928112 0.041034993
-0.008478679 0.10085865 0.02775672 0.04286924 -0.08565344 0.00680384 0.0904395 0.003069728
-0.04988959 0.1011601 0.1260217 -0.1568685 -0.018640446 -0.08631666 -0.06674434 -0.045946334
-0.096380346 -0.06924888 0.21833374 -0.02342122 -0.10021621 -0.019443352 0.14357424 0.15996441
-0.10341719 0.14303975 -0.0023419487 0.02154677 0.0669937 0.07204604 0.11154238 -0.108738236
-0.046696153 -0.14715736 -0.07300949 0.052452978 -0.037366454 0.046862807 0.2041591 0.119377665
-0.14249451 0.052694835 0.16043516 0.0289947 -0.030922526 0.10946805 0.19507992 -0.09181031
-0.23070657 0.1207614 0.001548081 -0.12321098 0.061626572 0.018698908 -0.11837822 0.07237196
00000000: ba07 65bd adcb f03d c150 a93d ea6c f83d
00000010: 410b 853c a9fe 2c3b 9908 01be a1e6 29be
00000020: 7021 88bd d40c 733b 2d93 84be 1745 333e
00000030: 8a02 2ebc 8181 7f3d 3ae4 29bd d70b b33d
00000040: b43b e1bc 48aa 86ba 9ede 133e 8b7f 38be
00000050: 0111 1ebd e1da 08be 4e1b 0bbe 2564 023d
00000060: c56c e43b ee43 693d aca1 54be 3a2d 7ebc
00000070: 9eb0 67bd be9c 55bd 8b7b ef3d 5175 31be
00000080: c013 27bd 5e32 06bc 717b 9f3d f378 c3bd
00000090: 137b 3a3d 4ce9 a5bd 3365 a43d 8f4e 82be
000000a0: b626 fbbd e8bb ff3d 4ca8 35be 0022 84bd
000000b0: 49f9 933d 904e b83d 7d0f 06bd d7e2 bd3b
000000c0: ed55 40bc d0bc 8c3d 1e9c 923d 6270 6cbd
000000d0: 47f0 083e ffc3 8bbd d5b9 f13d 8add c63c
000000e0: 221f 05be 69e2 60bd d874 ffbc ad77 9a3d
000000f0: 55bd 2f3d 73b5 bdbd 5c27 ecbd 0548 87bd
00000100: 4d98 b7ba 29a2 a13e b272 14be be45 bebd
00000110: 198d 58bc aa4a ce3c b8d6 1abe 745d 2dbe
00000120: 5a98 013e 068e a93c 74a3 3c3d 3f1e 043e
00000130: 0ceb 643d 672b 34bd 45cd bb3c 7790 833d
00000140: 04e1 a43d 82ac bebd 66e1 b23d d2a8 0fbe
00000150: 5b1e c93c 555c 0a3e 9c93 99bd 8b05 b63b
00000160: 717c e93c f923 3f3d 69ed 23be ddc3 c4bc
00000170: 8ad3 c9bd b4a5 b43d 3547 13be 3937 90bd
00000180: f681 733c d2e2 f0bd 53d9 d3bd 5b7c b43c
00000190: 80d8 d3bd f055 eb3d e2d5 303e 43d9 01be
000001a0: ea28 083e ed4c c13c dc13 3abe 8055 e4bc
000001b0: 98e9 06bd 2af6 1e3e 1957 a0bd 79cd 95bd
000001c0: 91cc af3d 0140 c7bd fa95 84bd 8a09 143d
000001d0: 5832 4bbc 2eed 1dbe 10cd b63d f20e 1bbe
000001e0: 301d 21be 9468 26be 6e64 40bd c69f 67bc
000001f0: 1491 8bbd e9b0 a03c 6462 103e 33e8 b7bc
00000200: c57b bfbb a5e1 193e 6214 a03d 0678 34be
00000210: 255d 753d 1992 113e ce58 0e3e 2a29 96bd
00000220: d91e 73be 4e4f f33c 1313 ba3d 1d88 babb
00000230: 0b0f a3bd 7115 843d 8483 893d 0d81 b63d
00000240: e342 59be 85a1 08be aa7d e23d ad6b cf3c
00000250: d6a2 2f3e ee4d bf3d 4c67 023e 1ef2 b73c
00000260: 0e38 99be c82d a33c f786 06bd 8680 8d3d
00000270: ea32 4dbd 063d 8b3d 75aa f53d 7c01 b53d
00000280: a90a 5e3d 4d46 f1bd 78b9 eebd a65b 8c3d
00000290: 4094 d23d 080d da3c a3d9 aa3e 6031 cc3d
000002a0: c13d d1bd f103 f5bd 9264 a03d a13e 71bd
000002b0: 426e 0cbe 8759 aa3d ec69 073e bde7 563d
000002c0: f1d8 313d 8ef4 9f3d e1c6 273e 0015 833d
000002d0: 6cba 62bc 404b ec3c 8264 fe3c 7116 33be
000002e0: c1e1 96bc 5449 eebc 6082 7abe 8d3e 76be
000002f0: 0df8 103c 39b0 5dbd f70e b53d 2630 333d
00000300: 0b42 37bd 83ec 413e 0d8c 30bc 20a7 8f3b
00000310: a638 1dbd 9506 2e3e 8997 a83e 4f14 283d
00000320: 28ea 0abc fb8e ce3d 1062 e33c a897 2f3d
00000330: 126b afbd bff2 de3b 5838 b93d 7d2d 493b
00000340: 0759 4cbd 072d cf3d d50b 013e 23a2 20be
00000350: d9b3 98bc cac6 b0bd 42b1 88bd 3932 3cbd
00000360: 0f63 c5bd 5bd2 8dbd e192 5f3e dcdd bfbc
00000370: 283e cdbd aa47 9fbc 2005 133e b6cd 233e
00000380: 64cc d3bd 0379 123e 617b 19bb da82 b03c
00000390: fe33 893d e08c 933d 5570 e43d 27b2 debd
000003a0: 7744 3fbd 6bb0 16be 0086 95bd efd8 563d
000003b0: 910d 19bd 37f3 3f3d 150f 513e 477c f43d
000003c0: 15ea 11be 8ad6 573d 1d49 243e 4b86 ed3c
000003d0: 3d51 fdbc c930 e03d 08c3 473e 0b07 bcbd
000003e0: 583e 6cbe c151 f73d fbe8 ca3a 0a56 fcbd
000003f0: 256c 7c3d 742e 993c 4870 f2bd c037 943d

conv2.bias f4 [64]
-0.0049329656 -0.014710013 -0.020701585 0.010320781 0.023700958 0.0010453673 -0.030082239 0.023543853
0.009574466 0.011640517 -0.023773752 0.028559154 0.005294481 -0.0068975007 -0.042247478 -0.021404264
0.017015403 0.004069738 -0.01971761 0.009139339 -0.0074225343 -0.025711313 -0.025282675 0.00974463
-0.0047251843 -0.0005761384 0.021869268 -0.041178443 0.00061758235 0.0021247684 0.0032713874 -0.02399441
-0.0369202 0.025937675 -0.01706774 -0.009561012 0.013367239 0.017258171 -0.015710069 0.020530414
0.013900741 -0.01701169 -0.0025856253 0.026762614 -0.026455142 0.032540273 0.0034305828 0.034177624
-0.021575827 -0.030455971 -0.00893244 0.02655002 0.026844049 -0.03472666 0.01535765 0.010384538
-0.008949539 -0.0155646745 0.0413317 0.006465033 -0.02123183 -0.02179933 -0.014897744 0.008872395
00000000: b7a4 a1bb 4402 71bc 5f96 a9bc 7e18 293c
00000010: 8328 c23c b504 893a 076f f6bc 0adf c03c
00000020: 39de 1c3c deb7 3e3c 2cc1 c2bc e3f4 e93c
00000030: 537d ad3b 6e04 e2bb b10b 2dbd ff57 afbc
00000040: e363 8b3c 705b 853b d386 a1bc 2bbd 153c
00000050: bb38 f3bb 88a0 d2bc 9d1d cfbc f1a7 1f3c
00000060: b8d5 9abb fe07 17ba 2e27 b33c baaa 28bd
00000070: 40e5 213a b33f 0b3b c664 563b ed8f c4bc
00000080: a339 17bd 3f7b d43c a5d1 8bbc caa5 1cbc
00000090: 4402 5b3c 0261 8d3c 67b2 80bc 662f a83c
000000a0: efbf 633c 1a5c 8bbc 9873 29bb 453d db3c
000000b0: 74b8 d8bc f348 053d a1d3 603b d6fd 0b3d
000000c0: cabf b0bc cd7e f9bc 5e59 12bc 6d7f d93c
000000d0: 0de8 db3c 8b3d 0ebd a79e 7b3c e923 2a3c
000000e0: 16a1 12bc fa02 7fbc 6e4b 293d a1d8 d33b
000000f0: 60ee adbc 8294 b2bc ab15 74bc 865d 113c

conv2.lin.weight f4 [64, 64]
-0.037981912 -0.073845945 -0.20502195 0.17226759 -0.2509873 -0.06943924 0.1667423 -0.052171614
-0.005029223 0.14024608 0.015952466 -0.1197034 0.036082417 0.11346883 0.027330415 -0.03548101
0.24105288 -0.16650447 0.17113678 -0.07304401 0.0029864034 0.1546009 -0.066322386 0.23761211
0.22088914 -0.18633868 -0.120491594 -0.09508526 -0.034446362 -0.062365696 0.22247608 0.13356529
0.11584191 0.21556339 -0.18940713 -0.1330753 -0.27705678 -0.18054217 0.22878337 -0.04885736
-0.073363855 -0.124993026 0.27533492 -0.24144511 -0.1259632 0.2295914 -0.017565237 0.06298165
-0.062458478 0.08153532 0.16413541 0.21133548 -0.24954078 0.15280321 0.019680519 0.11351013
0.1780126 0.045617748 -0.1355642 0.18654454 -0.08207852 -0.07410378 0.082559966 0.056637038
-0.11467743 -0.07627679 -0.1336103 -0.19329272 -0.104532726 -0.10650965 0.12818663 0.06828285
0.04342749 -0.2349281 0.041128736 0.040353935 0.23341274 -0.10562675 0.2090153 0.27415374
-0.013404805 0.06288159 0.15111445 -0.10057178 0.04584423 0.19943666 0.16923091 -0.03191499
-0.05553013 -0.017493801 -0.22030956 -0.22198306 -0.041068535 -0.055517722 0.043989006 -0.21163201
-0.23398037 -0.056627627 -0.07681171 0.04781513 -0.081906796 0.1887859 0.12989965 -0.101798676
-0.15407078 -0.0050032428 0.07410356 0.25020644 0.026100216 -0.07049411 -0.021976642 0.23220615
0.027091904 -0.23116605 -0.03195343 -0.09573729 -0.24640596 -0.25378117 0.14180306 0.1467397
-0.038196873 -0.12474967 -0.20088351 -0.09219807 0.054344635 -0.031256422 -0.07928271 0.29072493
0.00951948 -0.10083683 0.075908616 0.050569396 0.28483748 0.25399318 0.41323853 0.1235159
0.21545286 0.076897286 0.019755658 0.3467618 -0.05807 0.17618659 -0.29699177 0.16005743
-0.05717024 -0.07527104 -0.2506567 -0.20518617 -0.28762808 0.14241847 0.023713188 0.34529212
0.10751217 0.42883116 0.1786691 -0.12090246 -0.19776355 0.079480484 0.2968015 0.1786831
0.2193369 0.25794977 -0.31452844 0.041521475 0.44391483 -0.06523033 0.20519003 -0.20823145
0.057779733 0.053767517 -0.22386652 0.11155958 -0.18340059 -0.029332379 0.17990956 0.03713272
-0.09437178 0.27552423 -0.123415165 -0.1724034 0.20135729 0.25274342 -0.04935395 -0.12824497
0.11692683 0.17453095 0.08462 -0.104773775 0.26600814 0.26522186 0.4900754 0.109492876
0.019988352 0.034180947 -0.3148566 0.17424145 -0.25825858 0.24260387 -0.28294727 0.08904878
-0.08247513 -0.19418745 -0.16131386 -0.08851123 0.26566136 0.09180001 0.17619331 0.19296408
0.07951151 0.10463904 0.3094172 0.021436209 -0.15398656 0.076377496 0.061314065 0.24174836
0.16018708 -0.29786506 -0.34888062 -0.07648799 0.3389993 -0.09939269 -0.2527216 0.08276813
0.066883504 -0.23827411 -0.2392299 -0.06279027 0.06237887 0.04210739 -0.24088603 -0.26653913
-0.049590327 -0.05880547 0.08849591 -0.10037496 -0.21868038 -0.083164364 -0.18409368 -0.10820469
0.35607132 -0.1847357 0.0271528 0.12823159 0.026712231 -0.12685192 0.20881945 0.20587134
0.15170492 -0.12106422 0.07033302 0.08801565 -0.14732148 0.05620244 -0.08342923 0.054817557
00000000: ec92 1bbd 8b3c 97bd 46f1 51be ea66 303e
00000010: 6881 80be 2936 8ebd 7ebe 2a3e e7b1 55bd
00000020: 2ecc a4bb ab9c 0f3e bfae 823c 0e27 f5bd
00000030: 28cb 133d 5962 e83d 09e4 df3c 8954 11bd
00000040: 91d6 763e 2680 2abe 7b3e 2f3e 1998 95bd
00000050: 89b7 433b b34f 1e3e 08d4 87bd 9750 733e
00000060: c330 623e 91cf 3ebe 4cc4 f6bd 10bc c2bd
00000070: a117 0dbd 2c73 7fbd c5d0 633e 57c5 083e
00000080: 863e ed3d a6bc 5c3e f1f3 41be e444 08be
00000090: 63da 8dbe 0ce0 38be 3046 6a3e a81e 48bd
000000a0: ca3f 96bd 58fc ffbd b3f8 8c3e 633d 77be
000000b0: 7ffc 00be 021a 6b3e f9e4 8fbc 86fc 803d
000000c0: 76d4 7fbd fdfb a63d 1d13 283e 5468 583e
000000d0: 9e87 7fbe 7278 1c3e 0a39 a13c 0078 e83d
000000e0: ef48 363e add9 3a3d 57d1 0abe 8805 3f3e
000000f0: c818 a8bd b9c3 97bd 3315 a93d 3dfc 673d
00000100: 00dc eabd 0137 9cbd 23d1 08be 87ee 45be
00000110: 4115 d6bd bb21 dabd 5b43 033e e1d7 8b3d
00000120: 06e1 313d fe90 70be 9b76 283d 2b4a 253d
00000130: c003 6f3e d652 d8bd 1b08 563e e15d 8c3e
00000140: d49f 5bbc 10c8 803d bfbd 1a3e 94f8 cdbd
00000150: 29c7 3b3d 2039 4c3e de4a 2d3e 4bb9 02bd
00000160: 9073 63bd 294f 8fbc d498 61be 874f 63be
00000170: 7b37 28bd 8d66 63bd d12d 343d 10b6 58be
00000180: 8d98 6fbe 5ff2 67bd 754f 9dbd ccd9 433d
00000190: c0be a7bd 1751 413e 6a04 053e d37b d0bd
000001a0: bbc4 1dbe 3ef2 a3bb 9bc3 973d 0f1b 803e
000001b0: 1fd0 d53c 375f 90bd 5c08 b4bc 73c7 6d3e
000001c0: d7ef dd3c cbb6 6cbe 9ae1 02bd ea11 c4bd
000001d0: d851 7cbe 9bef 81be d234 113e ef42 163e
000001e0: 5374 1cbd c17c ffbd 68b4 4dbe 57d2 bcbd
000001f0: 7b98 5e3d bc06 00bd f95e a2bd e6d9 943e
00000200: 98f7 1b3c 8a83 cebd fa75 9b3d db21 4f3d
00000210: 38d6 913e 650b 823e 0094 d33e e7f5 fc3d
00000220: ad9f 5c3e 537c 9d3d 9ed6 a13c c38a b13e
00000230: cfda 6dbd 426a 343e 4e0f 98be 18e6 233e
00000240: 572b 6abd b427 9abd 1356 80be 531c 52be
00000250: fd43 93be 26d6 113e 2942 c23c 21ca b03e
00000260: 572f dc3d c28f db3e 08f5 363e b59b f7bd
00000270: 8782 4abe aac6 a23d 5ef6 973e b4f8 363e
00000280: da99 603e fe11 843e df09 a1be 6c12 2a3d
00000290: ce48 e33e 7b97 85bd 561d 523e a03a 55be
000002a0: 71aa 6c3d 543b 5c3d 443d 65be 5979 e43d
000002b0: 5dcd 3bbe 754a f0bc 363a 383e 7b18 183d
000002c0: fe45 c1bd 8311 8d3e 17c1 fcbd 848a 30be
000002d0: 9b30 4e3e 9667 813e 5e27 4abd a652 03be
000002e0: 5577 ef3d 3eb8 323e 404d ad3d a293 d6bd
000002f0: 3832 883e 29cb 873e 2aeb fa3e cd3d e03d
00000300: 9dbe a33c 5201 0c3d e234 a1be 5a6c 323e
00000310: 783a 84be 266d 783e 77de 90be 355f b63d
00000320: b9e8 a8bd 13d9 46be 762f 25be 6045 b5bd
00000330: c404 883e a501 bc3d 056c 343e 6098 453e
00000340: eed6 a23d fe4c d63d ee6b 9e3e fd9a af3c
00000350: a7ae 1dbe ce6b 9c3d 7524 7b3d e28c 773e
00000360: 1508 243e c581 98be 7ba0 b2be bca5 9cbd
00000370: 5191 ad3e 658e cbbd ba64 81be 5682 a93d
00000380: 38fa 883d 21fe 73be aff8 74be 2f98 80bd
00000390: fc80 7f3d cc78 2c3d d4aa 76be d177 88be
000003a0: 3a1f 4bbd 01de 70bd 583d b53d 6391 cdbd
000003b0: c0ed 5fbe 1452 aabd 0e83 3cbe 6c9a ddbd
000003c0: fb4e b63e 5b2b 3dbe 8c6f de3c 244f 033e
000003d0: 9cd3 da3c 78e5 01be c4d4 553e f0cf 523e
000003e0: 8958 1b3e 85f0 f7bd c20a 903d 8d41 b43d
000003f0: 71db 16be 8834 663d f2dc aabd 6088 603d

fc.weight f4 [6, 64]
0.097210586 0.032980036 -0.36407956 0.26255366 0.3564508 0.3101589 -0.02008601 0.6668086
-0.18432397 0.19077775 -0.08114103 0.06710235 0.13101049 -0.57294416 -0.058233198 -0.2169619
-0.066898435 0.030633638 -0.27817002 0.040298045 -0.25904348 0.16616853 -0.29634392 -0.12947135
-0.52232575 -0.017986668 -0.09470206 0.25473657 -0.022631176 -0.17500822 0.17948475 -0.08588371
0.018555079 0.01088344 0.10613305 0.514849 -0.23651229 -0.37266162 0.3451072 0.5061404
0.17290741 0.18728907 -0.16866837 -0.43244824 0.22587827 -0.036901448 -0.043280166 0.3836887
0.32299167 -0.17516336 0.14132378 0.112747416 0.1340652 -0.18177298 0.39207566 -0.23788692
-0.23409921 -0.1791252 0.10825832 0.06989637 -0.3576489 -0.21670082 0.14064467 0.3925438
0.010807604 -0.20182475 0.18148491 -0.25682068 0.16953024 -0.01103322 0.100105174 -0.076068565
0.08825578 0.22473949 -0.21868718 0.22393994 0.046798594 0.3601577 -0.26076365 0.11972427
0.18765537 0.0621728 0.006448098 0.018844457 -0.19051248 -0.20788758 0.22452779 0.27737296
0.2182941 -0.056660175 -0.1908171 0.02174052 0.02340848 0.07199948 -0.1634542 -0.20017028
-0.052625753 -0.13273098 -0.27785403 -0.2751713 0.0058525014 0.32380933 0.04021108 0.004390862
-0.038485784 0.00568528 -0.15446441 0.27392015 -0.30319282 0.072002135 0.2153475 0.056172613
-0.027199548 -0.012022647 -0.16010995 -0.014391951 -0.20258673 -0.1148984 0.074882925 0.17671587
0.119591706 -0.13358518 0.09283975 0.08747833 -0.26418325 -0.032276202 -0.24667217 0.0025113244
-0.22383064 0.00580692 0.09540442 -0.1671872 -0.15481295 -0.17922994 0.07879444 -0.20427291
0.19109857 -0.14843169 0.1727501 0.030026551 -0.067026205 0.13284552 0.11614123 -0.11852276
-0.05251125 -0.09182716 0.20744325 0.15990804 -0.12088534 -0.22588469 -0.060804352 0.24667038
0.067899175 -0.025332363 -0.22907893 -0.13866425 0.03615397 -0.0064181313 -0.11634836 0.04904847
0.12007326 0.08966104 0.11417596 -0.101955146 -0.08037755 0.1384851 -0.016446183 -0.16789778
0.11192548 -0.13163458 -0.075223595 0.08246002 0.05777995 -0.0062705227 -0.09961515 -0.20152426
-0.067448124 -0.13665274 0.0949474 -0.13999909 0.043131724 -0.12334147 -0.009668659 0.16678853
-0.037471674 0.11329939 0.030737339 0.061466202 0.34895068 -0.10380951 -0.04600524 -0.21601295
0.1210093 0.048123743 0.050798498 -0.18076971 -0.027105248 0.0686384 0.06163748 0.014468104
-0.1428954 0.04669553 0.14562224 0.03334454 -0.050625212 -0.009158625 0.25271827 -0.011848043
0.020655025 -0.030688522 0.037930828 0.07638912 0.041629948 0.09206879 -0.0025701893 -0.1823674
-0.105806306 0.07554493 -0.14460269 0.05370862 0.09411923 -0.17509787 0.14951457 -0.08622015
0.089164585 -0.20642133 -0.12681933 0.16568333 -0.14769816 -0.13807492 0.026294531 0.012174096
0.048572686 0.1670325 -0.07595943 -0.2732038 0.053794213 -0.118676655 -0.117791906 -0.23016
-0.01574013 0.12952125 0.1519413 0.005486731 -0.046955608 0.14709489 0.24247079 -0.14092714
-0.08747081 0.022153106 -0.05699794 -0.045427315 0.24359694 -0.040302303 -0.028622346 0.18877737
00000000: 5816 c73d 1316 073d a368 babe 6f6d 863e
00000010: b880 b63e 26cd 9e3e 6b8b a4bc f8b3 2a3f
00000020: 6cbf 3cbe 3e5b 433e 452d a6bd f56c 893d
00000030: 9d27 063e 78ac 12bf ef85 6ebd 432b 5ebe
00000040: 0c02 89bd 65f3 fa3c 4d6c 8ebe 900f 253d
00000050: 59a1 84be 1528 2a3e 64ba 97be 2394 04be
00000060: 24b7 05bf c758 93bc 27f3 c1bd d56c 823e
00000070: 0465 b9bc 5b35 33be daca 373e cce3 afbd
00000080: d200 983c 7550 323c 495c d93d 25cd 033f
00000090: 4730 72be 81cd bebe e4b1 b03e 6b92 013f
000000a0: a40e 313e b5c8 3f3e 67b7 2cbe db69 ddbe
000000b0: a24c 673e f925 17bd 8b46 31bd d872 c43e
000000c0: 2a5f a53e 065e 33be 2eb7 103e 1ee8 e63d
000000d0: 6348 093e b222 3abe 24be c83e a198 73be
000000e0: b4b7 6fbe 996c 37be 8ab6 dd3d d425 8f3d
000000f0: c21d b7be d2e6 5dbe 2805 103e 80fb c83e
00000100: 6012 313c 26ab 4ebe 2ed7 393e 007e 83be
00000110: 5699 2d3e aec4 34bc f103 cd3d d6c9 9bbd
00000120: 72bf b43d 1c22 663e 88ef 5fbe 8350 653e
00000130: e2af 3f3d 9766 b83e d082 85be 0032 f53d
00000140: bb28 403e e8a8 7e3d 914a d33b b15f 9a3c
00000150: b415 43be 7be0 54be 9dea 653e d403 8e3e
00000160: 7d88 5f3e 8014 68bd 8f65 43be 2d19 b23c
00000170: 24c3 bf3c 7774 933d 8a60 27be 70f9 4cbe
00000180: 1a8e 57bd a1ea 07be e242 8ebe 41e3 8cbe
00000190: 57c6 bf3b 56ca a53e 60b4 243d 38e1 8f3b
000001a0: 45a3 1dbd 964b ba3b eb2b 1ebe 433f 8c3e
000001b0: 173c 9bbe db75 933d 0e84 5c3e 4115 663d
000001c0: 96d1 debc a3fa 44bc ddf3 23be 38cc 6bbc
000001d0: e572 4fbe da4f ebbd 385c 993d 01f5 343e
000001e0: 7fec f43d 8eca 08be c422 be3d d727 b33d
000001f0: 0743 87be 0d34 04bd a197 7cbe 0895 243b
00000200: dc33 65be fa47 be3b 6463 c33d 1f33 2bbe
00000210: 4987 1ebe 0e88 37be fb5e a13d eb2c 51be
00000220: 58af 433e 7afe 17be 67e5 303e 3efa f53c
00000230: 0945 89bd a808 083e 74db ed3d 10bc f2bd
00000240: 0916 57bd e10f bcbd 016c 543e efbe 233e
00000250: bc92 f7bd 514e 67be fc0d 79bd 2997 7c3e
00000260: b90e 8b3d d185 cfbc ab93 6abe 00fe 0dbe
00000270: 2f16 143d 304f d2bb 0d48 eebd 0ce7 483d
00000280: f8e8 f53d 35a0 b73d 16d5 e93d dccd d0bd
00000290: fc9c a4bd 0acf 0d3e 25ba 86bc 65ed 2bbe
000002a0: 3039 e53d 37cb 06be d40e 9abd cde0 a83d
000002b0: abaa 6c3d f578 cdbb 0703 ccbd 605c 4ebe
000002c0: 3e22 8abd b2ee 0bbe c873 c23d ec5b 0fbe
000002d0: e4aa 303d 749a fcbd 4c69 1ebc 9dca 2a3e
000002e0: e67b 19bd 8309 e83d dfcc fb3c fcc3 7b3d
000002f0: aaa9 b23e 159a d4bd fe6f 3cbd 8032 5dbe
00000300: b9d3 f73d 671d 453d 1612 503d b21b 39be
00000310: d30b debc 4a92 8c3d 9577 7c3d a00b 6d3c
00000320: 2c53 12be d043 3f3d ff1d 153e 4994 083d
00000330: 625c 4fbd 0f0e 16bc 4a64 813e 4b1e 42bc
00000340: ba34 a93c 7f66 fbbc 5b5d 1b3d e671 9c3d
00000350: 2a84 2a3d 908e bc3d 9f70 28bb 85be 3abe
00000360: fab0 d8bd 4db7 9a3d ba12 14be 92fd 5b3d
00000370: 95c1 c03d db4c 33be 591a 193e 3194 b0bd
00000380: ec9b b63d 1d60 53be eddc 01be e4a8 293e
00000390: 303e 17be 8363 0dbe a167 d73c dc75 473c
000003a0: 27f4 463d 910a 2b3e 9e90 9bbd 5ee1 8bbe
000003b0: 5257 5c3d bf0c f3bd e23c f1bd 10af 6bbe
000003c0: 72f1 80bc 38a1 043e 8096 1b3e 09ca b33b
000003d0: 8654 40bd 0ba0 163e 434a 783e 344f 10be
000003e0: e523 b3bd 6e7a b53c ac76 69bd fe11 3abd
000003f0: 7a71 793e 0714 25bd 6979 eabc db4e 413e

fc.bias f4 [6]
-0.030722912 0.00311621 -0.07440636 -0.003626699 -0.020112947 -0.03550116
00000000: 9eae fbbc 5439 4c3b 5d62 98bd eaad 6dbb
00000010: e8c3 a4bc aa69 11bd
