checkpoints/C/model_C_epoch_400.pth (torch, 78709 bytes, 15 tensors)

node_embedding.weight f4 [1, 64]
0.14119613 -0.15762605 -0.35915452 -0.7787985 1.1657555 -1.5792373 -0.2400188 0.833818
-0.338805 0.82821935 0.6869224 -0.6192782 0.7967579 -1.6794233 -1.8491848 -0.03788485
1.5195559 0.36089402 1.0107709 -2.0498018 0.7853884 -0.23268515 -0.8063616 -0.4380368
-0.7900189 -0.5086997 -1.4599435 0.44562435 1.0532523 0.4091641 0.3443497 -0.72122395
0.8366131 -2.7044978 -0.26155713 1.5187154 1.4477222 0.9743237 -1.2688199 0.0141135715
0.29421687 1.6398493 -0.9848359 -1.3794926 0.08048513 0.25136858 0.22534946 0.75434357
0.7187075 -0.7446476 2.883874 -0.6787884 -0.23509909 1.1526657 -0.92302036 0.68261045
0.113863036 -1.1100234 -0.105197735 -0.22914971 -0.7982268 0.7003277 1.2225425 1.1300393
00000000: b895 103e b968 21be 1ae3 b7be 575f 47bf
00000010: 7a37 953f 7324 cabf 7dc7 75be 1975 553f
00000020: d977 adbe 2f06 543f 25da 2f3f 0489 1ebf
00000030: 53f8 4b3f 58f7 d6bf 16b2 ecbf 252d 1bbd
00000040: cf80 c23f 1ac7 b83e f160 813f f42f 03c0
00000050: 370f 493f 0445 6ebe b76d 4ebf 5c46 e0be
00000060: ae3e 4abf 253a 02bf 6edf babf e028 e43e
00000070: f9d0 863f f57d d13e 9b4e b03e 22a2 38bf
00000080: 472c 563f 7e16 2dc0 d1ea 85be 4465 c23f
00000090: f64e b93f 476d 793f b168 a2bf 9c3c 673c
000000a0: 98a3 963e 95e6 d13f 351e 7cbf 3793 b0bf
000000b0: 63d5 a43d 62b3 803e 02c2 663e a91c 413f
000000c0: 37fd 373f 3aa1 3ebf 6491 3840 14c5 2dbf
000000d0: d1bd 70be 8d8a 933f 104b 6cbf 8fbf 2e3f
000000e0: 0631 e93d 3f15 8ebf e971 d7bd 39a6 6abe
000000f0: 9758 4cbf ad48 333f 467c 9c3f 21a5 903f

conv1.nn.0.weight f4 [64, 64]
0.16594131 0.020984154 -0.00020835936 0.0971547 -0.12613128 0.08874691 0.10927668 0.020663423
-1.4215935 -0.14963983 0.084891826 0.04968544 0.09408312 0.006277205 -0.07484099 0.3847388
-0.040729254 -0.12531833 0.13626647 0.015429975 -0.003790165 0.24667409 -0.030645695 -0.8971729
0.14662914 -1.7290323 -0.12570682 -0.0027857376 -0.017172804 0.049000494 0.019988444 0.043594077
-0.05562734 -0.070809245 -0.005475807 0.081847556 0.116129495 0.08591802 -0.112754725 -0.28450638
-0.018999906 -0.07857141 -0.10149372 0.048649695 -0.09419973 -0.20520511 -0.105324954 0.18166026
-0.0594182 0.037688546 0.0807475 0.022187982 0.4024107 0.012964561 -0.12410359 0.07229792
0.05357917 0.01080754 -0.11646531 -0.048947413 -0.7088875 -0.07487883 0.19170557 0.0072270315
0.047931533 -0.11733045 -0.038387343 -0.0014027926 0.08183434 -0.0025141835 0.05074351 0.029795669
-0.10697246 -0.008253534 -0.01774673 0.008598544 -0.12611184 -0.11498125 -0.028947113 0.020616831
-0.07294705 0.04088939 -0.1194211 -0.034732845 -0.12589985 0.09606918 -0.08411969 -0.09773941
0.055768788 -0.06224013 0.033185147 -0.045746334 -0.055682544 -0.043823753 0.11761195 -0.024518307
0.01766412 -0.07257215 -0.06649511 -0.057850845 -0.12661086 -0.12983707 -0.11671997 0.029330874
-0.09106563 -0.01312263 0.023861306 -0.037008785 0.114231266 0.058624376 0.08792317 -0.12878506
-0.0070595117 0.11934792 -0.07127945 0.042931963 -0.10297527 -0.017206373 -0.0024940511 -0.010878915
-0.12418878 -0.012686537 0.07816164 0.044935104 0.093041606 -0.041655708 -0.005579417 0.06814339
-0.04380368 -0.011990359 -0.08755264 -0.0042201616 0.06748007 0.14411715 0.00930922 -0.09864034
0.06778936 0.011774813 -0.13535635 0.017937237 -0.09630636 0.012170879 -0.030226786 0.057031646
-0.049655806 -0.0030728837 -0.12902507 -0.018559406 -0.08866424 0.0062504346 -0.07708424 -0.07848401
-0.15541527 -0.035428427 0.06562578 -0.13912758 -0.057583533 -0.13326855 -0.1524286 0.0013282098
-0.08690869 0.003316922 0.075985394 0.049018145 -0.00045981075 -0.10100519 0.051871292 -0.012557114
0.09260285 0.0033100864 0.010029163 -0.040987074 -0.03162246 -0.043138087 -0.1384789 -0.076788254
0.018496763 0.0420822 -0.009357099 0.06978361 0.023698827 -0.054612316 0.10234293 -0.025430253
-0.0846521 0.085362315 0.09308347 0.057674963 0.052860256 -0.015337435 -0.08452268 -0.008651588
-0.036901444 -0.032890886 -0.07895371 0.100979045 -0.0898059 0.107758045 -0.034148633 0.11558266
-0.018527523 0.12360768 -0.124752924 -4.0367246e-05 -0.118836656 -0.06081544 -0.004089713 0.08773029
-0.050909042 0.10760392 0.024171457 -0.0022105873 0.12449743 -0.07457639 -0.024458095 0.07789469
-0.089554936 -0.11934909 0.09608038 -0.10054584 0.008259982 0.11221379 0.073057115 0.041550487
0.022782832 -0.04557468 -0.01838474 -0.115260184 0.0066763014 0.067640215 0.08768724 -0.07682024
-0.052743554 -0.021055043 0.017935097 0.049105346 -0.006190777 -0.025927871 -0.12073065 -0.10948321
-0.044706106 -0.040337384 -0.033365726 0.041316733 -0.11554366 0.07486194 -0.06145321 -0.06200525
0.07290071 0.039413378 -0.060112804 -0.0038691312 -0.0147001445 -0.0073899925 -0.0507026 0.006001726
00000000: 85ec 293e f6e6 ab3c 0a7b 5ab9 0bf9 c63d
00000010: 8f28 01be f1c0 b53d 74cc df3d 5746 a93c
00000020: c7f6 b5bf 2f3b 19be c4db ad3d f682 4b3d
00000030: a7ae c03d 03b1 cd3b 3c46 99bd 7cfc c43e
00000040: b8d3 26bd 7353 00be 7089 0b3e 02ce 7c3c
00000050: 6b64 78bb 2298 7c3e ae0c fbbc 20ad 65bf
00000060: f325 163e ee50 ddbf 4ab9 00be ec90 36bb
00000070: fbad 8cbc beb4 483d cebe a33c b48f 323d
00000080: 7ed9 63bd 7004 91bd 666e b3bb b19f a73d
00000090: 4dd5 ed3d c9f5 af3d f3eb e6bd d2aa 91be
000000a0: b1a5 9bbc 0cea a0bd f1db cfbd e744 473d
000000b0: caeb c0bd 4a21 52be 9cb4 d7bd 2605 3a3e
000000c0: 8060 73bd 4e5f 1a3d f25e a53d 92c3 b53c
000000d0: c608 ce3e 4f69 543c 062a febd ef10 943d
000000e0: d575 5b3d 1c12 313c 5d85 eebd 157d 48bd
000000f0: a779 35bf 125a 99bd 774e 443e bcd0 ec3b
00000100: db53 443d f24a f0bd 0c3c 1dbd e9dd b7ba
00000110: c398 a73d 00c5 24bb 6dd8 4f3d 0c16 f43c
00000120: 6114 dbbd d539 07bc 9761 91bc e8e0 0c3c
00000130: 7623 01be 4a7b ebbd 7f22 edbc a1e4 a83c
00000140: 4365 95bd a27b 273d 0d93 f4bd 0744 0ebd
00000150: e4eb 00be ebbf c43d f246 acbd 9a2b c8bd
00000160: d06d 643d 82ef 7ebd 26ed 073d 8260 3bbd
00000170: 6113 64bd 8980 33bd 89de f03d 9eda c8bc
00000180: 58b4 903c b5a0 94bd 972e 88bd 02f5 6cbd
00000190: 47a6 01be 02f4 04be e10a efbd 4d47 f03c
000001a0: 9e80 babd 4d00 57bc c978 c33c 8696 17bd
000001b0: 15f2 e93d 1d20 703d 1011 b43d 3be0 03be
000001c0: 7a53 e7bb af6c f43d f6fa 91bd 6dd9 2f3d
000001d0: b3e4 d2bd 61f4 8cbc 3c73 23bb 7a3d 32bc
000001e0: b056 febd 31db 4fbc 3613 a03d df0d 383d
000001f0: 998c be3d 2d9f 2abd 8bd3 b6bb c38e 8b3d
00000200: 7d6b 33bd 3673 44bc cc4e b3bd 4849 8abb
00000210: fe32 8a3d 7293 133e b385 183c f203 cabd
00000220: 26d5 8a3d 25eb 403c db9a 0abe 1df1 923c
00000230: 453c c5bd 5e68 473c 2a9e f7bc 049a 693d
00000240: e363 4bbd 6f62 49bb 261f 04be e509 98bc
00000250: 9995 b5bd 72d0 cc3b 58de 9dbd 3abc a0bd
00000260: 2e25 1fbe 661d 11bd cf66 863d 7677 0ebe
00000270: b6dc 6bbd 8d77 08be 3e16 1cbe 5317 ae3a
00000280: 2ffd b1bd b860 593b 3b9e 9b3d 40c7 483d
00000290: c112 f1b9 cfdb cebd fe76 543d 5abc 4dbc
000002a0: 90a6 bd3d 09ee 583b 5c51 243c 10e2 27bd
000002b0: 8d86 01bd 90b1 30bd 6acd 0dbe 2943 9dbd
000002c0: 8686 973c 635e 2c3d 854e 19bc b6ea 8e3d
000002d0: 0b24 c23c 2ab1 5fbd 2c99 d13d 1b53 d0bc
000002e0: 155e adbd 70d2 ae3d 8ca2 be3d 953c 6c3d
000002f0: ff83 583d dd49 7bbc 3a1a adbd 64bf 0dbc
00000300: f825 17bd 98b8 06bd 7cb2 a1bd 1ace ce3d
00000310: 28ec b7bd 40b0 dc3d 70df 0bbd 9ab6 ec3d
00000320: 08c7 97bc 0626 fd3d 767e ffbd 0050 29b8
00000330: a260 f3bd 9c19 79bd 0003 86bb f0ab b33d
00000340: 0086 50bd 725f dc3d 3803 c63c 80df 10bb
00000350: 82f8 fe3d 82bb 98bd 585c c8bc 4087 9f3d
00000360: 9468 b7bd 4c6d f4bd cac5 c43d faea cdbd
00000370: e054 073c 58d0 e53d f89e 953d d830 2a3d
00000380: 10a3 ba3c 84ac 3abd 989b 96bc 880d ecbd
00000390: e0c4 da3b f486 8a3d 5e95 b33d ee53 9dbd
000003a0: a009 58bd a07b acbc a0ec 923c b022 493d
000003b0: 00dc cabb b066 d4bc a241 f7bd bc38 e0bd
000003c0: c01d 37bd d038 25bd 80aa 08bd bc3b 293d
000003d0: 28a2 ecbd 3851 993d 5cb6 7bbd 38f9 7dbd
000003e0: f84c 953d ec6f 213d d838 76bd 4091 7dbb
000003f0: e0d8 70bc c027 f2bb 88ad 4fbd 20aa c43b

conv1.nn.0.bias f4 [64]
-0.023457186 0.10059892 0.010354438 0.060450718 0.093764134 -0.1471774 0.22555238 0.06195976
-0.2950307 -0.6161999 0.1900637 -0.08858698 -0.034090664 -0.13253559 0.0426586 0.23409493
0.01605956 -0.25381157 -0.10234162 0.036113277 0.009501323 0.12956354 0.057004143 0.01968195
0.014836984 0.025618695 0.029202616 0.09459752 0.11889828 -0.011244216 -0.07554099 0.2645362
-0.09621241 -0.11694031 -0.112508744 0.11327777 0.17451604 0.08786971 0.012558219 0.23709261
0.31910267 0.088919 0.015978158 -0.11950499 -0.090831324 -0.23848733 0.0471883 0.022615727
-0.058800366 0.025511134 -0.5282863 -0.08271612 -2.8014183e-05 -0.02138932 -0.08101556 0.30837184
-0.13035181 -0.104976304 0.04835963 -0.014643005 -0.11033283 0.26136938 -0.066028714 -0.014106679
00000000: 4929 c0bc ce06 ce3d a9a5 293c 2c9b 773d
00000010: 6907 c03d acb5 16be 34f7 663e 84c9 7d3d
00000020: 440e 97be 47bf 1dbf 0fa0 423e 176d b5bd
00000030: a7a2 0bbd 69b7 07be c9ba 2e3d 95b6 6f3e
00000040: 578f 833c 97f3 81be 7c98 d1bd 84eb 133d
00000050: 70ab 1b3c 4eac 043e 2d7d 693d 0a3c a13c
00000060: d216 733c 4cde d13c 533a ef3c 58bc c13d
00000070: f180 f33d a939 38bc 3cb5 9abd 4a71 873e
00000080: 030b c5bd 677e efbd fc6a e6bd 2dfe e73d
00000090: 55b4 323e 09f5 b33d fdc0 4d3c 68c8 723e
000000a0: 6d61 a33e 2a1b b63d a0e4 823c 08bf f4bd
000000b0: c605 babd 0636 74be 8548 413d 9e44 b93c
000000c0: a7d8 70bd bafc d03c c53d 07bf 1267 a9bd
000000d0: 0000 ebb7 a838 afbc 7ceb a5bd eae2 9d3e
000000e0: f27a 05be d1fd d6bd bf14 463d 37e9 6fbc
000000f0: 2ef6 e1bd 35d2 853e 103a 87bd b31f 67bc

conv1.nn.2.weight f4 [64, 64]
0.007939137 0.009916335 0.016818061 -0.10744578 -0.096790716 -0.06532327 -0.041485023 -0.050363556
-0.01782021 0.04210166 0.0046263584 0.044233385 0.06337553 -0.15141158 -0.06620374 0.06562611
0.05467666 -0.010739126 -0.045691155 0.048619825 -0.12208505 -0.0614801 -0.028863084 -0.07459849
-0.020752247 0.1278294 0.09990659 -0.13914166 -0.042611107 0.0060624518 -0.02368733 -0.06398637
-0.15607649 -0.02815847 -0.033190873 0.027585864 -0.057066537 0.116389215 0.10244554 0.09132693
0.0798799 0.07343903 0.052404255 -0.07881902 0.026086077 0.04053444 0.036857948 -0.011488801
0.029780075 -0.031404607 -0.08462184 -0.09499216 0.089018404 -0.0017952621 0.0151207 -0.111982934
0.03271167 -0.08598691 0.0739321 -0.08057876 -0.099462695 0.10152201 0.036216006 -0.06303467
0.00366751 0.092812 -0.031110197 -0.080927 0.022566251 0.062219955 0.20652047 -0.07840487
0.06169816 -0.37882194 -0.19692081 0.14805898 0.11521512 -0.21788864 -0.07786506 0.12399575
0.12022695 -0.048060276 0.021838466 0.10676669 0.011239544 0.035696406 0.064342916 -0.22574206
0.22539148 0.10205352 -0.119968474 0.0831668 -0.026661163 -0.2604912 -0.28433713 -0.006858783
0.08531432 -0.13703066 0.083307825 0.06328424 -0.110159606 0.07708715 0.11511285 -0.5710128
-0.17691667 -0.0040938715 -0.054060742 -0.10056111 0.03455332 -0.2125647 -0.036171902 -0.04458982
-0.02369837 -0.025407089 -0.054417033 -0.09237471 -0.0060178936 -0.026345298 -0.032097824 0.33719748
-0.06756067 0.09208178 0.1024228 0.07607101 0.07112455 0.2778498 -0.10011528 0.06404447
-0.07013269 0.025523618 -0.027449429 0.0138344765 0.0046575028 0.078062415 -0.08293027 -0.033406615
-0.09855621 -0.022688469 -0.017489428 0.10273112 -0.065242425 0.034078438 -0.1355012 0.038476348
-0.06267409 -0.11430256 0.038647503 -0.053345352 -0.021087438 -0.07865608 0.06910162 -0.09956593
-0.11672932 -0.092497125 -0.096741945 -0.04571575 0.013386011 -0.15544458 -0.14616755 0.025099888
-0.011150313 -0.1389426 -0.029325843 -0.046455767 0.12492226 0.079315275 -0.030934408 0.04622096
-0.14850156 0.101938695 0.024447411 -0.043653805 -0.04801649 -0.084781855 0.1189886 0.047327057
-0.013493687 0.06821562 -0.1407942 0.1236624 0.047306642 0.11861007 -0.12007242 0.0071136784
0.03682421 0.022836074 -0.10843958 0.0876158 0.032927513 0.004551545 0.018973246 0.057546362
-0.19621123 0.08214562 0.025836185 -0.105450496 0.174685 0.024625123 -0.030528096 -0.00054608285
-0.15437746 -0.21502642 -0.047192313 -0.1014746 0.06631389 -0.071333446 0.16423216 0.46293154
-0.11370603 0.056280144 -0.0921397 -0.122230366 -0.061624765 -0.511165 0.10563419 -0.5220863
-0.1625208 0.01368102 0.089568585 0.26162535 -0.08913809 -0.094165884 0.048322737 0.13963886
-0.11413659 -0.13773607 0.008583431 0.12614134 -0.43972638 0.027439479 -0.03370051 -1.7782161
0.35675067 0.047168322 -0.09894577 -0.16988824 0.04075937 -0.39490044 -0.059270073 0.06299567
-0.053949535 0.083136044 -0.16377701 -0.11036402 -0.04221548 -0.013289556 0.022347776 -0.117088035
-0.07280895 0.05677468 0.108401656 0.018049166 0.06805579 -0.3578789 -0.03827728 -0.023869336
00000000: 2713 023c 2078 223c 08c6 893c 880c dcbd
00000010: 363a c6bd 35c8 85bd 33ec 29bd 044a 4ebd
00000020: b0fb 91bc ca72 2c3d b598 973b 112e 353d
00000030: 08cb 813d a30b 1bbe d495 87bd fb66 863d
00000040: a2f4 5f3d 29f3 2fbc a626 3bbd 9525 473d
00000050: ba07 fabd 8fd2 7bbd 4672 ecbc 18c7 98bd
00000060: 9e00 aabc b6e5 023e d49b cc3d 277b 0ebe
00000070: fc88 2ebd 88a7 c63b ee0b c2bc 490b 83bd
00000080: 84d2 1fbe 97ac e6bc 27f3 07bd c0fb e13c
00000090: 9abe 69bd 785d ee3d f8ce d13d 9d09 bb3d
000000a0: 1398 a33d 3467 963d d8a5 563d de6b a1bd
000000b0: 78b2 d53c 7107 263d 5cf8 163d 863b 3cbc
000000c0: 58f5 f33c 1ea2 00bd 374e adbd 408b c2bd
000000d0: 484f b63d 004f ebba d0bc 773c 4f57 e5bd
000000e0: acfc 053d e819 b0bd b669 973d 7a06 a5bd
000000f0: 19b3 cbbd c6ea cf3d 3c57 143d 5218 81bd
00000100: 9c5a 703b 3814 be3d d0da febc 0ebd a5bd
00000110: dcdc b83c 5ada 7e3d 1a7a 533e bc92 a0bd
00000120: 36b7 7c3d f3f4 c1be 9ca5 49be c69c 173e
00000130: e8f5 eb3d 331e 5fbe b777 9fbd 7cf1 fd3d
00000140: 8c39 f63d dada 44bd 95e6 b23c 7fa8 da3d
00000150: 1026 383c 6536 123d 38c6 833d ed28 67be
00000160: 06cd 663e 7001 d13d 08b2 f5bd 5b53 aa3d
00000170: 8368 dabc 1a5f 85be a394 91be a4bf e0bb
00000180: 46b9 ae3d c451 0cbe 4b9d aa3d 2b9b 813d
00000190: 5c9b e1bd dedf 9d3d 49c0 eb3d e52d 12bf
000001a0: a529 35be e225 86bb cc6e 5dbd fcf2 cdbd
000001b0: c887 0d3d 90aa 59be fd28 14bd d1a3 36bd
000001c0: 1623 c2bc 8722 d0bc 65e4 5ebd f42e bdbd
000001d0: c031 c5bb 18d2 d7bc 0279 03bd 26a5 ac3e
000001e0: 405d 8abd 5f95 bc3d 0cc3 d13d 1ecb 9b3d
000001f0: c0a9 913d 5442 8e3e 3d09 cdbd bf29 833d
00000200: baa1 8fbd e816 d13c a0dd e0bc 00aa 623c
00000210: f79d 983b 30df 9f3d 58d7 a9bd 60d5 08bd
00000220: d7d7 c9bd 2bdd b9bc fd45 8fbc b264 d23d
00000230: d29d 85bd d595 0b3d d4c0 0abe 6099 1d3d
00000240: 465b 80bd 7617 eabd d84c 1e3d a880 5abd
00000250: 90bf acbc 7016 a1bd 2685 8d3d 39e9 cbbd
00000260: c80f efbd 226f bdbd a420 c6bd 7040 3bbd
00000270: 0051 5b3c dd2c 1fbe f2ac 15be 489e cd3c
00000280: cdaf 36bc f846 0ebe c03c f0bc 6748 3ebd
00000290: 3ed7 ff3d 0c70 a23d 286a fdbc 3052 3d3d
000002a0: cb10 18be 3cc5 d03d f045 c83c 55ce 32bd
000002b0: f0ac 44bd 1ca2 adbd 4cb0 f33d 04da 413d
000002c0: a014 5dbc a2b4 8b3d 5b2c 10be b642 fd3d
000002d0: 9cc4 413d d6e9 f23d 87e8 f5bd dc19 e93b
000002e0: fcd4 163d b812 bb3c 9215 debd ea6f b33d
000002f0: 00df 063d 2025 953b c86d 9b3c bcb5 6b3d
00000300: 99eb 48be f63b a83d 68a6 d33c 6ef6 d7bd
00000310: a0e0 323e a0ba c93c 0f16 fabc 0027 0fba
00000320: 2015 1ebe e32f 5cbe ba4c 41bd ead1 cfbd
00000330: 94cf 873d 4517 92bd 7a2c 283e 5d05 ed3e
00000340: b5de e8bd 0286 663d bdb3 bcbd ea53 fabd
00000350: 406a 7cbd b6db 02bf bd56 d83d 73a7 05bf
00000360: da6b 26be 5b26 603c bc6f b73d c2f3 853e
00000370: 088e b6bd 0bda c0bd 10ee 453d 7dfd 0e3e
00000380: 72c0 e9bd af0a 0dbe 85a1 0c3c 322b 013e
00000390: d123 e1be c2c8 e03c 8c09 0abd 969c e3bf
000003a0: 06a8 b63e 9233 413d 14a4 cabd 2ff7 2dbe
000003b0: 4cf3 263d 6430 cabe 2dc5 72bd e003 813d
000003c0: 30fa 5cbd 3b43 aa3d 29b5 27be 8806 e2bd
000003d0: 24ea 2cbd 70bc 59bc af12 b73c dacb efbd
000003e0: dc1c 95bd 918c 683d b001 de3d d8db 933c
000003f0: d660 8b3d e73b b7be a3c8 1cbd a089 c3bc

conv1.nn.2.bias f4 [64]
-0.016431654 0.2848449 -0.14527395 0.09126659 -0.08461893 -0.15256867 -0.085047536 -0.16026922
-0.11195528 -0.24713856 -0.04897173 0.30374566 0.22180428 -0.05121971 0.020640925 0.12901302
0.1012932 -0.02326093 0.25305218 -0.023962341 0.0005047206 -0.14145789 -0.19039251 0.17143543
0.19799282 -0.21294887 0.16561474 0.4638278 -0.049588908 0.060831692 -0.22863767 -0.023437558
-0.40406373 0.0062696566 -0.00012493633 -0.23494107 0.032185074 -0.225516 0.32801083 0.34984398
0.20777445 0.07270105 -0.34191608 -0.014466285 -0.04825985 0.43541002 -0.16625504 -0.08394537
-0.02914096 0.20957604 0.4180255 0.15054093 -0.10758974 -0.031121934 0.070845574 -0.2580536
-0.19673486 0.20977621 0.09913848 -0.21494159 -0.58778834 -0.046275314 -0.07514551 0.012485728
00000000: ad9b 86bc 31d7 913e b2c2 14be fae9 ba3d
00000010: b14c adbd f63a 1cbe 672d aebd 9d1d 24be
00000020: cf48 e5bd e411 7dbe 9596 48bd 8d84 9b3e
00000030: a920 633e c2cb 51bd 2817 a93c fd1b 043e
00000040: cf72 cf3d b58d bebc 0e90 813e ac4c c4bc
00000050: 3a4f 043a 56da 10be 41f6 42be c58c 2f3e
00000060: a1be 4a3e 450f 5abe e996 293e d67a ed3e
00000070: bd1d 4bbd a72a 793d fe1f 6abe 1f00 c0bc
00000080: 71e1 cebe b171 cd3b 5701 03b9 6494 70be
00000090: 7fd4 033d abed 66be 09f1 a73e c01e b33e
000000a0: d3c2 543e 4ae4 943d a00f afbe ff03 6dbc
000000b0: 1fac 45bd 10ee de3e c33e 2abe 8deb abbd
000000c0: 06b9 eebc 1a9b 563e 7007 d63e 6727 1a3e
000000d0: 0258 dcbd 6df3 febc 7c17 913d 9a1f 84be
000000e0: dd74 49be 93cf 563e 1e09 cb3d a619 5cbe
000000f0: 4c79 16bf 2f8b 3dbd e4e5 99bd f090 4c3c

conv1.lin.weight f4 [64, 7]
-0.6279059 1.213653 0.24231744 0.291914 0.33494148 -0.5164853 0.4148538 -0.96513265
0.8124038 0.029380845 0.20845996 -0.44843307 0.45787495 -0.06861042 -0.36479348 0.20361578
-0.01959117 -0.016878642 0.073466524 0.33298853 0.1391061 0.10364041 -0.07285341 0.19270587
-0.13533035 -0.32195222 -0.19155967 -0.2767777 -0.17225803 0.30531043 0.27190763 -0.7628967
0.36370644 0.13481858 -1.0453556 0.06348888 0.07843645 -0.089976415 -0.100226454 -0.28058332
-0.23443691 -0.022650631 -0.4702042 0.849219 -0.717964 0.45020962 0.003981754 0.41592193
0.2521681 0.07556142 0.21906115 -1.0374064 0.075902775 -0.08901421 -0.67641544 0.12845597
1.3610306 0.29234287 0.49390477 0.26174125 -0.09288073 0.3175063 -0.3989473 0.407809
-0.6225955 -0.84289545 -0.56949615 -0.15021402 -0.37354475 -0.24982625 0.44383773 -1.2755572
1.0300441 -0.3680487 0.36730888 -0.7883479 -0.4693817 -0.15150826 -0.33122075 -0.09421447
-0.29336005 0.10040172 0.025181387 -0.16403176 -0.2569385 -1.7613235 0.09709188 -0.6719895
-0.90932286 -0.7125063 -0.621576 0.29692382 0.13642538 0.13721225 0.2883254 -0.09458515
-0.011551051 0.013587306 0.10488857 0.026344711 0.11082505 0.22295715 -0.16686364 -0.18662512
-0.015169614 -0.60303754 0.5341137 0.45218238 0.53041595 -0.28599223 -0.052786794 0.41981646
-0.17156291 0.034071103 0.14064986 -0.8277313 -0.8422986 -0.85671896 -0.3963542 0.088944666
0.3662695 -1.2805953 -0.57856596 0.13253973 0.0033153729 0.08144275 -0.7151079 -1.0674387
-0.83277756 0.12257841 0.30977225 -0.6225079 -0.32363316 -0.3233006 0.00081552943 0.14872505
0.22021355 -0.140166 -0.22177324 0.3364938 0.034881014 0.29813683 -0.29076532 -0.5452063
-0.41157174 -0.4589083 -0.18728966 -0.27654573 0.48278734 1.1184194 -0.31711885 0.3659045
0.3151378 -0.09505816 0.32188043 -0.043045085 -0.0009408326 0.28742808 0.35929433 -0.13869669
-0.34053063 1.1600521 0.14522246 -0.23964947 0.21726994 0.3876913 -0.065815255 -0.33730727
-1.0195318 1.1378379 0.68640757 0.37628952 -0.14172052 0.7381425 0.4302394 0.76734406
0.31133586 0.4582635 0.14971139 0.020714328 -0.1573987 1.0244017 0.07440485 -0.19936717
0.07686419 -0.13641235 -0.22728251 0.20610934 0.20933834 0.31336316 -1.1334404 -0.362627
-0.7438422 -0.64141953 -0.45596406 -0.0044788243 -0.47679117 1.1548444 -0.73431665 -0.44229877
-0.12546779 -0.58486664 -0.92183876 -1.7045474 -0.7214746 -1.0782017 0.4640069 -0.3383777
0.031948663 -0.43428102 0.31095576 -0.55669373 -0.05467295 -0.12769048 0.21015936 -0.9485932
0.02846637 0.17832935 -0.021307802 0.093941785 0.22104642 0.022151718 0.06462453 -0.1303422
0.120629184 0.12992807 -0.91339153 0.17633696 -0.011427534 -0.17391528 -0.2183751 -0.27768666
-0.2331842 0.35968047 0.08902775 0.3360212 -0.17391066 -0.051975224 -0.27681488 -0.07626994
0.15455535 -0.30682844 0.026458794 0.32554755 -0.21263795 -0.82610166 -0.46585804 -0.742233
-0.4873259 -0.6966008 -0.23360991 0.33082944 -0.57221526 -0.44348425 0.763477 -0.70403665
00000000: 71be 20bf fb58 9b3f 1022 783e c075 953e
00000010: 737d ab3e 6138 04bf b867 d43e ef12 77bf
00000020: b2f9 4f3f 19b0 f03c 8776 553e 0599 e5be
00000030: 966e ea3e 9f83 8cbd 36c6 babe a880 503e
00000040: a97d a0bc 1445 8abc 9e75 963d 797d aa3e
00000050: d471 0e3e 6c41 d43d 2b34 95bd b054 453e
00000060: 0a94 0abe ecd6 a4be 3828 44be cfb5 8dbe
00000070: 6964 30be a651 9c3e 7a37 8b3e 334d 43bf
00000080: bb37 ba3e e20d 0a3e 36ce 85bf 7506 823d
00000090: 4aa3 a03d 8e45 b8bd 8743 cdbd 9ea8 8fbe
000000a0: 3b10 70be d18d b9bc 9bbe f0be 6b66 593f
000000b0: 7dcc 37bf e081 e63e 6079 823b b8f3 d43e
000000c0: 2d1c 813e f2bf 9a3d 9151 603e bcc9 84bf
000000d0: ea72 9b3d 154d b6bd 9029 2dbf f689 033e
000000e0: 4036 ae3f f7ad 953e 16e1 fc3e f302 863e
000000f0: 4138 bebd 3090 a23e d242 ccbe 57cc d03e
00000100: 6b62 1fbf ffc7 57bf 80ca 11bf b4d1 19be
00000110: 4241 bfbe 74d2 7fbe b33e e33e 7545 a3bf
00000120: 7cd8 833f e170 bcbe e90f bc3e 2bd1 49bf
00000130: cc52 f0be fb24 1bbe c495 a9be 84f3 c0bd
00000140: 4a33 96be 6b9f cd3d 3249 ce3c f1f7 27be
00000150: 718d 83be 0c73 e1bf 1cd8 c63d 8107 2cbf
00000160: 62c9 68bf d066 36bf 9b1f 1fbf 6606 983e
00000170: 18b3 0b3e 5e81 0c3e 639f 933e dcb5 c1bd
00000180: 9f40 3dbc 4b9d 5e3c d2cf d63d ddd0 d73c
00000190: 3ef8 e23d e14e 643e 4dde 2abe a81a 3fbe
000001a0: f989 78bc ab60 1abf adbb 083f 7384 e73e
000001b0: 57c9 073f 936d 92be f736 58bd 2ff2 d63e
000001c0: 30ae 2fbe 248e 0b3d 8406 103e 33e6 53bf
000001d0: e2a0 57bf ef51 5bbf f0ee cabe 9f28 b63d
000001e0: ad87 bb3e 8cea a3bf e61c 14bf 7fb8 073e
000001f0: ba46 593b 75cb a63d 5011 37bf d5a1 88bf
00000200: e930 55bf 640a fb3d 789a 9e3e ae5c 1fbf
00000210: 3fb3 a5be a887 a5be 41c9 553a 614b 183e
00000220: a97f 613e ad87 0fbe 8618 63be ea48 ac3e
00000230: 65df 0e3d 64a5 983e 31df 94be a492 0bbf
00000240: 88b9 d2be 07f6 eabe dcc8 3fbe 6797 8dbe
00000250: e72f f73e 5e28 8f3f 675d a2be d657 bb3e
00000260: be59 a13e daad c2bd 83cd a43e 0b50 30bd
00000270: 35a2 76ba c629 933e 6df5 b73e 8106 0ebe
00000280: 085a aebe 967c 943f 32b5 143e ac66 75be
00000290: 037c 5e3e 797f c63e 26ca 86bd 8ab3 acbe
000002a0: 0580 82bf aca4 913f 68b8 2f3f 05a9 c03e
000002b0: 2f1f 11be e8f6 3c3f 5748 dc3e a970 443f
000002c0: 6a67 9f3e 83a1 ea3e f14d 193e 18b1 a93c
000002d0: 202d 21be 981f 833f 9261 983d e826 4cbe
000002e0: f96a 9d3d aeaf 0bbe bfbc 68be 540e 533e
000002f0: ca5c 563e 2371 a03e 9314 91bf 3faa b9be
00000300: 716c 3ebf 1234 24bf 1f74 e9be 1ac3 92bb
00000310: f91d f4be f1d1 933f 2dfc 3bbf fc74 e2be
00000320: a17a 00be d2b9 15bf a0fd 6bbf 9c2e dabf
00000330: 8fb2 38bf 8302 8abf 5092 ed3e d83f adbe
00000340: 9adc 023d 155a debe 9835 9f3e 7b83 0ebf
00000350: bef0 5fbd 4bc1 02be 0434 573e 01d7 72bf
00000360: 4e32 e93c f89b 363e b38d aebc 8d64 c03d
00000370: fe59 623e 8577 b53c de59 843d 6d78 05be
00000380: 6f0c f73d dd0b 053e 07d4 69bf ad91 343e
00000390: 8d3a 3bbc d916 32be b99d 5fbe f22c 8ebe
000003a0: d7c7 6ebe 0a28 b83e 2e54 b63d f90a ac3e
000003b0: a315 32be f9e3 54bd aeba 8dbe 6a33 9cbd
000003c0: c243 1e3e 9e18 9dbe 1dc0 d83c 2bae a63e
000003d0: c3bd 59be 667b 53bf f284 eebe fb02 3ebf
000003e0: c882 f9be 6e54 32bf 7037 6fbe 7a62 a93e
000003f0: b37c 12bf 5e10 e3be 3b73 433f bf3b 34bf

conv1.lin.bias f4 [64]
-0.21375005 0.2685683 -0.19980294 0.346418 -0.44089535 0.26328102 0.07185838 -0.13406938
0.14297274 -0.20921734 -0.22357498 0.3500791 -0.28359157 0.24090894 0.012706039 -0.0047697793
-0.18507352 -0.29970336 -0.31234857 -0.2186106 -0.6056008 0.28847086 -0.28856257 0.45564654
0.4419503 -0.025076108 -0.0449523 -0.18134294 -0.36544517 0.043829367 -0.055586357 -0.23162198
-0.3463798 0.28516456 -0.36380038 -0.19807133 -0.51782197 -0.17217296 -0.21417448 -0.2961468
0.10537545 -0.62542266 -0.16258408 0.30474082 0.20327128 -0.25915694 -0.113704085 -0.4698617
-0.5118302 -0.36224967 -0.8486 -0.3179624 0.22384414 -0.5171064 -0.13865171 -0.5044458
-0.44299507 0.29113284 0.0064264582 -0.21972845 0.4264926 -0.47151658 -0.2930594 -0.4648794
00000000: 4be1 5abe c981 893e 2499 4cbe b35d b13e
00000010: 09bd e1be c5cc 863e 7d2a 933d 7c49 09be
00000020: 7267 123e 123d 56be d7f0 64be 913d b33e
00000030: ea32 91be d5b0 763e fd2c 503c cf4b 9cbb
00000040: ea83 3dbe b872 99be 27ec 9fbe 75db 5fbe
00000050: a708 1bbf 74b2 933e 79be 93be 814a e93e
00000060: 4f47 e23e 696c cdbc e71f 38bd f7b1 39be
00000070: a11b bbbe 6c86 333d 85ae 63bd 502e 6dbe
00000080: b158 b1be 1701 923e 0b44 babe 36d3 4abe
00000090: fb8f 04bf 1c4e 30be 8e50 5bbe 8ea0 97be
000000a0: 15cf d73d b31b 20bf 717c 26be fd06 9c3e
000000b0: 5926 503e 38b0 84be b0dd e8bd b691 f0be
000000c0: 4e07 03bf ca78 b9be d93d 59bf f8cb a2be
000000d0: 6637 653e 1661 04bf b7fa 0dbe 5c23 01bf
000000e0: 40d0 e2be 5d0f 953e 0a95 d23b 7f00 61be
000000f0: 3d5d da3e 9f6a f1be e20b 96be ac04 eebe

conv2.nn.0.weight f4 [64, 64]
-0.08516696 0.08005556 -0.35431615 -0.4169146 -0.010997437 0.23955336 -0.0009240206 -0.34066895
-0.27445805 -0.1929791 -0.14919789 0.03825746 -0.3023877 0.21603882 -0.40811238 -0.77018344
-0.0813338 -0.17412686 -0.046937704 0.11136138 0.14205611 0.30140656 -0.37473613 -0.33125365
-0.01940971 -0.042300586 -0.14776285 -0.2053513 -0.025100667 0.025706563 0.0484342 -0.0020073177
-0.034331117 -0.18807419 -0.6452396 -0.00521528 0.029125454 0.058432426 -0.090684466 0.36176732
0.24698678 0.09040333 -0.20110077 0.10690746 -0.080631964 -0.27509493 0.076277085 -0.030527625
0.40847486 -0.4107366 -0.3165901 0.115760766 0.14446084 -0.052255515 -0.16132465 0.04215037
-0.30925524 -0.000439065 0.28557122 0.5833059 -0.014795917 0.18949713 0.24106915 0.22131974
0.1832785 -0.11479444 0.10008777 0.12604186 -0.020021643 0.45798427 0.0139372 0.18132158
-0.02163775 0.04645167 -0.1666645 0.055802703 0.3253669 -0.24739449 -0.16083814 0.06501109
-0.086512916 0.1838015 0.10916328 0.54662585 -0.3438527 0.17366004 0.035910863 -0.08724689
0.43278065 -0.07667751 -0.6167812 0.10847864 -0.003086161 0.028096693 -0.010778453 0.0023959375
-0.041092284 -0.15881476 -0.038110632 -0.19289845 -0.5010555 0.7210597 -0.026958428 0.10269704
0.14128345 -0.034798317 -0.17108439 -0.29706478 0.47366032 -0.08795113 0.07947612 -1.6856338
1.1298254 0.09763051 -0.06908467 -0.39620477 0.114027716 -0.076722644 -0.12111789 0.018762484
-0.85067904 0.0042559337 0.17884415 0.17405969 -0.34818265 -0.11882319 -0.16396423 -0.017320164
-0.3964665 0.20130637 -0.08338655 -0.37831286 0.05975507 -0.115977176 -0.33168083 -0.1113667
0.2515767 0.15354276 0.16454507 -0.0406382 -0.23815247 -0.01107001 -0.016923955 0.10847913
-0.89606565 -0.014497918 0.103644796 -0.10521223 -0.07781298 0.01856525 -0.13557549 0.18842532
0.007886475 -0.0020944097 -0.5458945 -0.07096927 -0.009929174 -0.38370052 0.16338143 0.014716398
0.01690142 -0.19952144 0.08721082 -0.48882926 -0.06889381 0.26986298 -0.3478039 -0.41049394
0.181818 -0.05189021 -0.024194326 0.13484278 -0.2079258 0.1686739 -0.10480746 -0.30629772
-0.039455697 -0.39857924 -0.059401415 -0.30658373 0.2019277 -0.165901 0.11341041 -0.34138092
-0.057564862 -0.19702819 -0.002582295 -0.19667897 -0.03883561 0.14145234 -0.66031104 0.16377935
-0.11958739 -0.019439455 0.09200472 0.21851757 0.08184187 -0.25442195 -0.052830637 -0.17973496
-0.26067036 -0.17467941 -0.15384904 -0.21435945 -0.21288379 -0.4708665 -0.30909988 -0.25715378
-0.3537442 -0.2520763 -0.20653366 -0.31969112 -0.02023469 -0.14054975 -0.13516366 -0.13563298
-0.02416953 -0.20019698 -0.011646283 0.2253352 -0.1585791 0.09847554 -0.26772004 -0.19654283
-0.24267764 -0.22166204 -0.2072486 -0.111671336 0.023112565 0.088472016 -0.12861177 -0.106095605
0.122356445 -0.13489066 -0.032493636 -0.2808726 -0.17395535 0.11131968 -0.06300116 -0.019410804
0.09050796 -0.17014493 0.045023624 -0.14967461 0.041163236 -0.25242403 -0.4747984 -0.31876728
-0.15340923 0.19812696 -0.1898359 -0.059736323 -0.105554566 0.018291602 -0.023446646 -0.009890186
00000000: 046c aebd 2bf4 a33d ed68 b5be d575 d5be
00000010: 982e 34bc 7a4d 753e f939 72ba 296c aebe
00000020: c485 8cbe 509c 45be 55c7 18be dbb3 1c3d
00000030: 90d2 9abe 4839 5d3e 1bf4 d0be be2a 45bf
00000040: 5692 a6bd 504e 32be c041 40bd 6f11 e43d
00000050: 2877 113e f651 9a3e 6add bfbe 149a a9be
00000060: 1d01 9fbc 6143 2dbd 254f 17be 9c47 52be
00000070: ea9f cdbc 9296 d23c f162 463d 348d 03bb
00000080: c99e 0cbd 8596 40be 6c2e 25bf f1e4 aabb
00000090: 8198 ee3c d756 6f3d c7b8 b9bd 9139 b93e
000000a0: 1aea 7c3e 6225 b93d 5ced 4dbe 4cf2 da3d
000000b0: 5f22 a5bd 3ed9 8cbe 2937 9c3d 1215 fabc
000000c0: 9e23 d13e 114c d2be 1918 a2be fb13 ed3d
000000d0: 8bed 133e e109 56bd 4a32 25be dea5 2c3d
000000e0: b456 9ebe 4f32 e6b9 6436 923e 8953 153f
000000f0: 936a 72bc 890b 423e d5da 763e a4a1 623e
00000100: 5cad 3b3e 5919 ebbd d1fa cc3d 1e11 013e
00000110: 6e04 a4bc ea7c ea3e db58 643c 5dac 393e
00000120: a741 b1bc 1b44 3e3d 19aa 2abe 6091 643d
00000130: 7e96 a63e fb54 7dbe c1b2 24be 8924 853d
00000140: af2d b1bd 7636 3c3e ff90 df3d acef 0b3f
00000150: 760d b0be f0d3 313e 4517 133d 7fae b2bd
00000160: 6d95 dd3e 1909 9dbd 5fe5 1dbf 0d2a de3d
00000170: 3141 4abb 092b e63c 1c98 30bc 2905 1d3b
00000180: 6250 28bd 56a0 22be e519 1cbd 2c87 45be
00000190: 2c45 00bf 5e97 383f ecd7 dcbc d352 d23d
000001a0: 9cac 103e ae88 0ebd bf30 2fbe e018 98be
000001b0: 9b83 f23e b91f b4bd 60c4 a23d d9c2 d7bf
000001c0: 1e9e 903f 81f2 c73d 437c 8dbd 5adb cabe
000001d0: 5d87 e93d c320 9dbd a80c f8bd c8b3 993c
000001e0: 1ac6 59bf 5c75 8b3b ec22 373e b43c 323e
000001f0: ff44 b2be 9359 f3bd 3de6 27be 04e3 8dbc
00000200: a8fd cabe 4223 4e3e 91c6 aabd 39b2 c1be
00000210: bbc1 743d 7185 edbd 12d2 a9be 3914 e4bd
00000220: a9ce 803e 503a 1d3e 817e 283e 3e74 26bd
00000230: 3ede 73be fd5e 35bc 1ba4 8abc 4e2a de3d
00000240: 8f64 65bf ad88 6dbc b943 d43d 8279 d7bd
00000250: 695c 9fbd 2716 983c 4dd4 0abe 91f2 403e
00000260: 4636 013c 5d42 09bb bebf 0bbf 5658 91bd
00000270: f9ad 22bc 6574 c4be 764d 273e 0c1d 713c
00000280: d974 8a3c 594f 4cbe 969b b23d d447 fabe
00000290: 3318 8dbd 7b2b 8a3e 5a13 b2be 432c d2be
000002a0: 7f2e 3a3e d48a 54bd 2e33 c6bc 3a14 0a3e
000002b0: 80ea 54be dab8 2c3e 4ba5 d6bd 0ed3 9cbe
000002c0: 4c9c 21bd 9412 ccbe e64e 73bd 8bf8 9cbe
000002d0: 23c6 4e3e f4e1 29be b843 e83d 7bc9 aebe
000002e0: 22c9 6bbd c2c1 49be b93b 29bb 3666 49be
000002f0: 1712 1fbd e2d8 103e 250a 29bf c6b5 273e
00000300: 3cea f4bd 7e3f 9fbc f86c bc3d 12c3 5f3e
00000310: b69c a73d 9843 82be f064 58bd 710c 38be
00000320: 9676 85be 29df 32be 9a8a 1dbe 0b81 5bbe
00000330: 35fe 59be 6a15 f1be 5742 9ebe a9a9 83be
00000340: f61d b5be 2510 81be 8f7d 53be 8eae a3be
00000350: 38c3 a5bc 46ec 0fbe 5868 0abe 5fe3 0abe
00000360: 2eff c5bc 7000 4dbe 0dd0 3ebc 45be 663e
00000370: 8f62 22be 8bad c93d 9a12 89be 8642 49be
00000380: 7d80 78be 60fb 62be fa38 54be f1b3 e4bd
00000390: 9056 bd3c d130 b53d ceb2 03be a748 d9bd
000003a0: 0496 fa3d c720 0abe 0c18 05bd 89ce 8fbe
000003b0: 5a21 32be 93fb e33d c106 81bd 6803 9fbc
000003c0: 3d5c b93d 793a 2ebe b16a 383d 4d44 19be
000003d0: c89a 283d b93d 81be c718 f3be 7735 a3be
000003e0: 4f17 1dbe cbe1 4a3e 5864 42be 13ae 74bd
000003f0: fe2c d8bd 45d8 953c 2e13 c0bc 720a 22bc

conv2.nn.0.bias f4 [64]
-0.12568268 0.33996373 -0.05642765 -0.096787326 -0.22211647 0.5502236 0.35446784 -0.15145105
0.95641035 0.49364886 -0.20573033 0.27272776 0.13648857 0.10737846 -0.20226347 -0.08182738
0.024971165 0.4361047 -0.2815512 0.2876398 -0.13215512 -0.20484659 -0.34552547 -0.3663146
-0.027305823 0.3500422 -0.06701727 -0.16421516 -0.14192979 0.073944196 0.2155611 0.059951816
-0.4495651 -0.056917336 -0.4541296 0.2203028 -1.0428002 -0.19257738 -0.08445325 0.102377094
-0.15649971 0.17651984 0.36631835 0.27961376 -0.13252226 0.16842453 0.22977026 0.06933109
-0.061564688 -0.37635675 0.15328941 -0.4300891 0.10202838 0.3486552 0.0706389 0.18493345
-0.17839484 -0.015946059 0.10762079 0.45185962 0.23470502 0.23429722 -0.16312197 0.06707957
00000000: f6b2 00be ba0f ae3e ae20 67bd 6f38 c6bd
00000010: 8072 63be 74db 0c3f cf7c b53e fc15 1bbe
00000020: 4fd7 743f 8bbf fc3e f9aa 52be f9a2 8b3e
00000030: a9c3 0b3e 3de9 db3d 281e 4fbe 1d95 a7bd
00000040: 5490 cc3c 1e49 df3e 7b27 90be 8645 933e
00000050: ac53 07be 4ec3 51be b7e8 b0be 968d bbbe
00000060: 76b0 dfbc bb38 b33e 5a40 89bd 0528 28be
00000070: 0b56 11be 0e70 973d 0dbc 5c3e 0990 753d
00000080: 662d e6be 2722 69bd ad83 e8be 0f97 613e
00000090: 7a7a 85bf 0133 45be d3f5 acbd 15ab d13d
000000a0: 7641 20be 9ec1 343e 148e bb3e 8929 8f3e
000000b0: eab3 07be 7b77 2c3e e548 6b3e 75fd 8d3d
000000c0: 412b 7cbd d5b1 c0be e6f7 1c3e a334 dcbe
000000d0: 41f4 d03d ef82 b23e 21ab 903d 325f 3d3e
000000e0: 23ad 36be 4fa1 82bc 4a68 dc3d 255a e73e
000000f0: 8356 703e 9ceb 6f3e 7209 27be 0361 893d

conv2.nn.2.weight f4 [64, 64]
0.14061558 -0.07792849 -0.10647181 0.20329164 -0.0048367702 -0.47382885 0.27290025 0.08250517
0.21939933 0.23613426 0.06306554 0.5435227 0.001896116 0.15440068 -0.04988395 -0.02543381
0.36717784 -0.14438656 -0.1104114 0.09025386 -0.24863933 0.295169 -0.3468511 0.05549343
0.000887378 -0.20588608 -0.055428445 0.016342292 -0.08340671 0.391876 -0.04678613 0.12008769
-0.12309903 0.0058616195 0.058844157 -0.27385023 -0.09445331 -0.23246557 -0.0023416083 -0.24466084
0.42024657 0.2781465 0.040523354 -0.14945911 0.10863992 0.11149269 0.05251099 0.14126253
0.025337294 -0.051559933 0.49067128 -0.0676502 -0.20576984 -0.25324714 -0.16197482 0.07944548
-0.08543239 -0.057493497 0.2794148 0.40493578 -0.09211599 -0.120576985 0.0905151 0.013456298
0.004958842 -0.12895307 -0.10016072 -0.004253478 0.050844084 -0.65716416 -0.008988289 -0.16247648
0.14715523 0.25723144 0.08149215 -0.35694426 0.040641483 0.22436622 0.01342357 -0.046384245
0.33602816 -0.114181176 0.052457955 0.35304052 -0.45352846 0.5375271 -0.06007678 -0.1065152
0.12026053 -0.0692106 -0.17039861 0.07923797 0.075064145 0.22559962 0.08027556 0.17033477
-0.11528126 -0.016770545 -0.031061295 -0.40405297 0.1011203 -0.0452454 -0.200121 -0.0013536552
0.16369589 0.11577404 0.17073339 0.156364 0.04140972 0.4288773 -0.05364732 0.15312327
0.16394705 0.15396447 0.18254213 -0.09368236 0.20560056 0.113033205 0.0010026669 0.023653766
0.21576719 -0.04969926 0.29272893 0.36465833 -0.056586664 -0.12665021 -0.40418702 -0.11752604
-0.0696827 -0.07926255 -0.3217605 -0.014604703 -0.04750506 0.0046465644 0.186557 -0.040485278
0.17930907 -0.5415558 -0.052457307 0.06143661 0.08684882 0.04672052 -0.021116149 0.066677384
-0.03051572 -0.038986765 -0.04367436 -0.26863995 0.34692317 -0.1369577 0.085721806 -0.13063888
-0.13975693 0.64264816 -0.04400034 -0.10435408 -0.15430917 -0.3521218 0.13091592 0.26434368
-0.099037126 -0.016737625 -0.074445665 0.24963614 0.08666676 -0.041383862 0.32172433 -0.26581872
0.18508826 0.003320383 0.4274802 0.17521212 0.061013218 -0.38801283 -0.08221927 -0.15074624
0.03529022 -0.1901025 -0.42585665 0.106367715 -0.333614 -0.24099608 0.0077080927 -0.035803273
-0.013446983 -0.017757595 0.02901268 -0.11732028 -0.06557828 0.024827637 0.30212632 0.038371
-0.09535126 -0.0243884 0.12677224 0.14618072 -0.041329145 0.21851315 0.51413435 0.07436486
0.25063318 0.08846337 -0.16526265 0.6598334 -0.20205589 -0.17183404 -0.015654437 -0.066795364
0.015409873 0.21815717 -0.0779292 -0.50576675 0.07821062 -0.20238252 -0.24902862 0.16990153
-0.27910686 0.15099075 0.08848263 0.061934795 -0.2058135 0.13502066 0.062129125 -0.04414839
-2.1717091e-05 0.081856795 0.08168096 0.082197025 -0.10861367 -0.042061254 0.2964884 -0.29736033
0.39048293 0.26317647 -0.0015625127 -0.44746202 0.111907095 -0.41803113 0.18454255 -0.11017998
-0.037661552 -0.14066103 0.43659458 0.09156675 -0.5877008 -0.25825334 -0.3292258 0.00031407946
-0.28892154 0.051835433 -0.30702063 -0.054827515 -0.03467186 -0.37260637 0.43404204 -0.064892635
00000000: 88fd 0f3e f998 9fbd e40d dabd af2b 503e
00000010: c57d 9ebb b299 f2be 95b9 8b3e 78f8 a83d
00000020: 38aa 603e 2ecd 713e 8128 813d 4e24 0b3f
00000030: 1887 f83a 361b 1e3e 1d53 4cbd 915a d0bc
00000040: bcfe bb3e 12da 13be 5f1f e2bd 04d7 b83d
00000050: 4f9b 7ebe 6420 973e 7896 b1be 144d 633d
00000060: ee9e 683a cdd3 52be f008 63bd 45e0 853c
00000070: 23d1 aabd f9a3 c83e d0a2 3fbd 89f0 f53d
00000080: 581b fcbd d412 c03b 9206 713d 1936 8cbe
00000090: bd70 c1bd 740b 6ebe ab75 19bb 5f88 7abe
000000a0: 8f2a d73e 3869 8e3e d1fb 253d cf0b 19be
000000b0: 9b7e de3d 4856 e43d c415 573d 20a7 103e
000000c0: 2890 cf3c 8230 53bd 4439 fb3e 308c 8abd
000000d0: 54b5 52be 9ca9 81be badc 25be 50b4 a23d
000000e0: 2df7 aebd 4d7e 6bbd 750f 8f3e be53 cf3e
000000f0: 4fa7 bcbd 11f1 f6bd fb5f b93d ce77 5c3c
00000100: c87d a23b 460c 04be 1021 cdbd c260 8bbb
00000110: e341 503d e93b 28bf 9e43 13bc 3c60 26be
00000120: dcaf 163e d7b3 833e 5be5 a63d 66c1 b6be
00000130: af77 263d 42c0 653e 89ee 5b3c 68fd 3dbd
00000140: e20b ac3e d2d7 e9bd 27de 563d bac1 b43e
00000150: e234 e8be 609b 093f 1213 76bd a424 dabd
00000160: 274b f63d 49be 8dbd f97c 2ebe 8447 a23d
00000170: 3bbb 993d 9603 673e 8367 a43d 3d6c 2e3e
00000180: 9518 ecbd 6262 89bc 4274 febc 08e0 cebe
00000190: 2918 cf3d 3e53 39bd 85ec 4cbe 226d b1ba
000001a0: e59f 273e f11a ed3d bcd4 2e3e e21d 203e
000001b0: 3d9d 293d ce95 db3e 4bbd 5bbd 59cc 1c3e
000001c0: bce1 273e dda8 1d3e 53ec 3a3e 8adc bfbd
000001d0: f488 523e f47d e73d eb6b 833a 8bc5 c13c
000001e0: 13f2 5c3e 7491 4bbd 91e0 953e 7fb4 ba3e
000001f0: 6bc7 67bd 98b0 01be 9af1 cebe 7eb1 f0bd
00000200: ceb5 8ebd 6754 a2bd cbbd a4be 9048 6fbc
00000210: aa94 42bd 3542 983b cc08 3f3e e4d3 25bd
00000220: cc9c 373e 67a3 0abf 79dd 56bd f4a4 7b3d
00000230: cbdd b13d 045e 3f3d c6fb acbc 278e 883d
00000240: 1afc f9bc 96b0 1fbd e3e3 32bd 2d8b 89be
00000250: ea9f b13e a43e 0cbe ea8e af3d 33c6 05be
00000260: 711c 0fbe 9784 243f b339 34bd 98b7 d5bd
00000270: 3903 1ebe 4f49 b4be d30e 063e 0e58 873e
00000280: fad3 cabd 581d 89bc f876 98bd 9ea0 7f3e
00000290: 587e b13d 2082 29bd 0db9 a43e 6419 88be
000002a0: c787 3d3e c89a 593b afde da3e ce6a 333e
000002b0: ffe8 793d 9ea9 c6be 9462 a8bd 395d 1abe
000002c0: 7a8c 103d 3baa 42be e209 dabe 51d7 d93d
000002d0: 74cf aabe adc7 76be 2b94 fc3b 74a6 12bd
000002e0: bc50 5cbc 6078 91bc 00ac ed3c 9d45 f0bd
000002f0: e84d 86bd 5463 cb3c 4db0 9a3e e92a 1d3d
00000300: 8547 c3bd 2fca c7bc 95d0 013e 66b0 153e
00000310: c048 29bd e9c1 5f3e 4f9e 033f 9b4c 983d
00000320: fe52 803e 492c b53d 9d3a 29be d7ea 283f
00000330: bde7 4ebe 43f5 2fbe bc3d 80bc 02cc 88bd
00000340: b179 7c3c 9864 5f3e 5899 9fbd ee79 01bf
00000350: e42c a03d 5d3d 4fbe 5c01 7fbe abfa 2d3e
00000360: 18e7 8ebe 529d 1a3e 6236 b53d 57af 7d3d
00000370: c6c0 52be db42 0a3e 1c7b 7e3d f1d4 34bd
00000380: 192d b6b7 89a4 a73d 5948 a73d ea56 a83d
00000390: d870 debd 6c48 2cbd 54cd 973e 9d3f 98be
000003a0: 61ed c73e 11bf 863e 3acd ccba be19 e5be
000003b0: 8c2f e53d 2d08 d6be b9f8 3c3e 0ba6 e1bd
000003c0: 0043 1abd 7209 10be 5389 df3e 5987 bb3d
000003d0: 8f73 16bf c839 84be 4990 a8be 08ab a439
000003e0: 86ed 93be 6451 543d cf31 9dbe d192 60bd
000003f0: 1504 0ebd 43c6 bebe c23a de3e 6ee6 84bd

conv2.nn.2.bias f4 [64]
0.18168627 0.1228251 0.10789889 0.10399339 0.016069354 -0.027805232 -0.11925452 -0.083459966
0.020770587 -0.0067758504 0.2138355 0.09474606 -0.036848363 -8.678248e-05 0.02809578 0.0023324727
0.06531179 -0.091574915 0.14561334 0.0967147 0.0050300052 0.01670178 0.015215448 0.12495964
0.111862324 -0.038457934 -0.1130476 -0.03654376 -0.010798549 -0.23899978 0.085511915 0.0347778
-0.06461359 -0.103038594 0.006715996 -0.14152905 -0.16684295 0.120218016 -0.057270996 -0.0141276345
0.03003512 0.016706573 -0.030155186 0.1493479 0.11783969 -0.037577797 0.17979413 -0.26489162
-0.21767992 -0.07341191 -0.14248303 -0.04385241 0.0012539093 -0.14089268 0.081652984 -0.15451309
-0.015925346 0.24689415 0.086680494 0.09557198 0.08125001 0.050285894 -0.11894497 -0.19837981
00000000: f70b 3a3e ba8b fb3d 18fa dc3d 7dfa d43d
00000010: e1a3 833c ccc7 e3bc b73b f4bd 0fed aabd
00000020: 1427 aa3c f407 debb b1f7 5a3e 390a c23d
00000030: 4fee 16bd fdfe b5b8 1f29 e63c 66dc 183b
00000040: 30c2 853d a18b bbbd aa1b 153e 5b12 c63d
00000050: bed2 a43b 2cd2 883c 374a 793c d7ea ff3d
00000060: 1318 e53d 1186 1dbd 8085 e7bd e9ae 15bd
00000070: 66ec 30bc 5cbc 74be df20 af3d 2b73 0e3d
00000080: 2154 84bd e605 d3bd dc11 dc3b feec 10be
00000090: e1d8 2abe dd34 f63d fe94 6abd 9877 67bc
000000a0: 360c f63c 39dc 883c 0208 f7bc a8ee 183e
000000b0: ef55 f13d 2deb 19bd f41b 383e e09f 87be
000000c0: 7ce7 5ebe fc58 96bd 12e7 11be 969e 33bd
000000d0: 375a a43a 2c46 10be ae39 a73d ae38 1ebe
000000e0: df75 82bc d2d1 7c3e 8b85 b13d 3ebb c33d
000000f0: 6866 a63d 95f8 4d3d 6c99 f3bd 1424 4bbe

conv2.lin.weight f4 [64, 7]
-0.10223874 -1.085621 -0.2729851 -0.60099864 0.6650452 0.6341048 -0.8454478 -0.38771647
0.7328107 0.05539809 0.12354324 -1.2842486 -0.17806484 -0.07302917 -0.022590889 -0.9868483
-0.15552726 -0.255912 0.54763424 0.12288098 -0.86229146 -0.12885618 0.30297184 -0.0027844058
-0.117346235 -0.8889564 0.10705246 0.31445807 -2.2657077 -0.2299075 0.056341667 0.3453042
0.13050315 0.06936284 0.05618998 0.7373114 0.5874609 0.4950351 0.50143063 -0.73378503
0.19326696 -0.093865946 0.15614559 -1.833908 -0.040214572 -0.1170115 0.2308593 -0.093792155
0.17435513 0.8250421 0.13274376 -0.29830128 0.2863245 -0.4963311 0.058331713 -0.10221425
0.030992292 -0.673869 -0.5071676 0.37574038 -1.0038266 -0.04415252 0.33886486 -0.006144528
0.04516042 -0.9018945 0.9296731 0.23720324 0.13096645 -0.85989714 0.34911805 -1.5133681
-1.5377852 -0.32556432 -0.38708442 -0.14935464 -0.048159514 -0.2902565 0.55217403 0.005211639
-0.21000622 -0.0033584903 0.12986471 0.059049588 0.5919031 -0.43883896 -0.021533512 0.44086778
-1.0844748 0.6206458 -0.61340094 -0.23976314 0.8904489 0.72526103 0.55871415 -0.27658793
0.62795764 -0.17800136 0.12409227 0.63811547 -1.8484333 0.6257819 0.1750379 0.042562157
0.48044798 -0.52200496 1.1320041 -0.589267 -0.4345739 -1.199659 0.5855242 -1.284975
-0.51091737 1.167693 -0.61125225 0.14316672 0.6382043 -0.5442694 -0.11320631 0.7551084
-0.11966323 -0.9550847 0.13226226 0.15149376 -0.09165813 0.48352668 0.6823026 0.662629
-0.13322812 -0.12211893 0.30700967 -0.1415139 0.19581504 0.6282544 1.5634809 0.17074855
-0.51433986 0.36903113 0.0429939 0.072521046 0.0023337544 -0.24313846 -0.33205453 0.21629669
0.58353937 0.50750035 0.7668014 -0.2563713 -0.020001082 0.51379234 -0.09952223 0.47781003
-1.7499986 0.03282739 -0.09258072 -0.27875286 0.119752996 -0.30849367 -0.054943323 0.193983
0.011633647 0.20392516 -0.63291657 0.11037672 0.36054564 -2.207545 -0.1293904 0.23436606
-2.0030675 -0.22474363 -0.57844967 -0.79529506 0.2464716 -0.033816468 0.15555803 -0.42783123
0.43448794 0.5048579 -2.7232206 -0.079638675 -0.34507537 -2.0101643 0.43246165 1.6672262
0.6118508 -0.16881901 -0.1774721 -1.2699416 -1.0973315 -0.3932407 0.04126711 0.0022221212
0.22815141 -0.12084938 0.052088935 -0.17584668 -1.975319 -0.8362472 -0.04292548 -0.7109599
-1.5789511 -0.42263013 0.16009636 0.14599317 -0.38692147 -0.09047332 0.075693846 -0.007818248
-0.265257 0.17938092 -0.71333504 0.1432042 0.26638433 0.32336077 -0.03197721 -1.0425276
0.46586832 -0.09152529 0.14221145 0.6703442 -0.22221619 0.19020492 0.32853314 -0.021759009
-0.5586702 0.6517903 0.3304042 0.5720566 0.32086876 -0.0016644307 -0.13484436 0.7643794
-1.1474916 0.424505 -1.2356836 0.84644365 -1.2219789 -1.009286 -0.27855605 -0.11168606
0.019194456 -0.13631453 -0.1039829 0.44710475 0.13443863 -0.2838292 -0.9227595 0.47212932
-0.28987297 -0.4229189 -0.09340296 -0.5731846 0.0110875815 0.7428923 0.22823302 0.40711606
00000000: 8b62 d1bd a1f5 8abf b4c4 8bbe 0cdb 19bf
00000010: 6740 2a3f b154 223f 446f 58bf c682 c6be
00000020: 7b99 3b3f 1ce9 623d 3d04 fd3d 4262 a4bf
00000030: a156 36be 5190 95bd 8710 b9bc 17a2 7cbf
00000040: 8a42 1fbe e606 83be c231 0c3f 06a9 fb3d
00000050: 22bf 5cbf e0f2 03be 201f 9b3e 947a 36bb
00000060: 3953 f0bd a692 63bf 523e db3d a600 a13e
00000070: 5b01 11c0 df6c 6bbe 85c6 663d b6cb b03e
00000080: 9ea2 053e 1b0e 8e3d 7727 663d 71c0 3c3f
00000090: d663 163f 3e75 fd3e c25d 003f 56d9 3bbf
000000a0: c6e7 453e ca3c c0bd a1e4 1f3e 7fbd eabf
000000b0: 09b8 24bd baa3 efbd 6166 6c3e 1a16 c0bd
000000c0: 278a 323e f635 533f fbed 073e f2ba 98be
000000d0: 2099 923e 1c1f febe 3ced 6e3d b455 d1bd
000000e0: 8ce3 fd3c ae82 2cbf bcd5 01bf 0b61 c03e
000000f0: 647d 80bf 46d9 34bd b27f ad3e 0958 c9bb
00000100: 22fa 383d 8fe2 66bf 0eff 6d3f 68e5 723e
00000110: 121c 063e 3822 5cbf 9abf b23e 0cb6 c1bf
00000120: 25d6 c4bf 5eb0 a6be ee2f c6be 6cf0 18be
00000130: e942 45bd 809c 94be 475b 0d3f 66c6 aa3b
00000140: df0b 57be 1e1a 5cbb 41fb 043e fbdd 713d
00000150: f686 173f 80af e0be 0c67 b0bc 6cb9 e13e
00000160: 12d0 8abf a5e2 1e3f d807 1dbf 7884 75be
00000170: 76f4 633f b5aa 393f e407 0f3f ef9c 8dbe
00000180: d5c1 203f fd45 36be 1724 fe3d 895b 233f
00000190: 7699 ecbf 3e33 203f 233d 333e a855 2e3d
000001a0: 47fd f53e 1ea2 05bf 83e5 903f 34da 16bf
000001b0: 7880 debe 6d8e 99bf eae4 153f 107a a4bf
000001c0: 7bcb 02bf f776 953f 077b 1cbf 4c9a 123e
000001d0: 5b61 233f 3d55 0bbf b6d8 e7bd c94e 413f
000001e0: ff11 f5bd 6e80 74bf c26f 073e 2e21 1b3e
000001f0: 42b7 bbbd cf90 f73e 62ab 2e3f 0ea2 293f
00000200: f46c 08be 7d19 fabd 5f30 9d3e 05e9 10be
00000210: bd83 483e 48d5 203f 2420 c83f b5d8 2e3e
00000220: c7ab 03bf a6f1 bc3e 5f1a 303d ea85 943d
00000230: e7f1 183b 4af9 78be 0d03 aabe e17c 5d3e
00000240: d662 153f 8beb 013f 194d 443f 1943 83be
00000250: 4fd9 a3bc e587 033f 50d2 cbbd 84a3 f43e
00000260: f4ff dfbf 0376 063d f69a bdbd b2b8 8ebe
00000270: 0f41 f53d e2f2 9dbe 400c 61bd 7ba3 463e
00000280: 0d9b 3e3c c2d1 503e d206 22bf 310d e23d
00000290: 7099 b83e 6b48 0dc0 eb7e 04be a8fd 6f3e
000002a0: 4232 00c0 3223 66be 4715 14bf 7598 4bbf
000002b0: 0d63 7c3e 2383 0abd 9b4a 1f3e b20c dbbe
000002c0: 3475 de3e 5e3e 013f 3f49 2ec0 9a19 a3bd
000002d0: b8ad b0be 88a6 00c0 9d6b dd3e ab67 d53f
000002e0: 41a2 1c3f e4de 2cbe 3fbb 35be 728d a2bf
000002f0: 5c75 8cbf d856 c9be b307 293d 02a1 113b
00000300: 86a0 693e e17f f7bd 355b 553d 2711 34be
00000310: 41d7 fcbf 4c14 56bf a1d2 2fbd 7801 36bf
00000320: 121b cabf fa62 d8be 4df0 233e 3c7f 153e
00000330: 921a c6be 134a b9bd 6005 9b3d 1c18 00bc
00000340: c4cf 87be a2af 373e 209d 36bf 1fa4 123e
00000350: 8763 883e 8b8f a53e 89fa 02bd 8b71 85bf
00000360: 4b86 ee3e 9c71 bbbd e19f 113e ad9b 2b3f
00000370: a48c 63be 14c5 423e 7f35 a83e f33f b2bc
00000380: 0305 0fbf bbdb 263f bd2a a93e 4d72 123f
00000390: e948 a43e 0729 daba a414 0abe 5eae 433f
000003a0: 01e1 92bf b858 d93e e12a 9ebf 88b0 583f
000003b0: ce69 9cbf 4930 81bf e69e 8ebe a9bb e4bd
000003c0: b13d 9d3c 0996 0bbe fdf4 d4bd eaea e43e
000003d0: 48aa 093e 1052 91be f739 6cbf efba f13e
000003e0: 3b6a 94be d388 d8be 0d4a bfbd 3abc 12bf
000003f0: b0a8 353c 312e 3e3f ebb5 693e 8471 d03e

conv2.lin.bias f4 [64]
-0.16555022 0.06818005 0.085226096 -0.07799533 0.049893085 -0.13765757 -0.17172936 -0.11235129
-0.02467119 0.08956888 -0.0040267915 0.01906848 -0.13068081 -0.32851624 0.09893218 -0.012267789
-0.32476392 0.015169172 -0.313093 -0.1905804 -0.4294942 0.16275662 0.08294688 0.019079564
0.1513683 -0.03097677 -0.058885176 -0.030364003 0.058534004 -0.1902752 0.21864757 -0.06564282
-0.38907382 0.07284166 0.056464773 0.03876327 0.2786329 0.0963094 0.07417468 -0.041733783
0.32090777 0.12191136 -0.064019956 -0.27440125 -0.22951551 0.17042765 0.02106795 -0.50444824
-0.21518536 0.18548274 -0.1962729 -0.20262793 0.21757887 0.047212172 -0.21640001 -0.13437566
0.17794593 -0.092263475 -0.34207502 -0.019537132 -0.09745016 -0.0788198 -0.08069319 -0.10408314
00000000: ff85 29be fba1 8b3d 058b ae3d 04bc 9fbd
00000010: b15c 4c3d 1bf6 0cbe d2d9 2fbe 6f18 e6bd
00000020: 3c1b cabc e46f b73d 2df3 83bb 8035 9c3c
00000030: 31d1 05be 4833 a8be f49c ca3d d6fe 48bc
00000040: 7547 a6be 1e88 783c ba4d a0be 8227 43be
00000050: aae6 dbbe aca9 263e 0ee0 a93d bf4c 9c3c
00000060: 4b00 1b3e ffc2 fdbc 9531 71bd eebd f8bc
00000070: 5ac1 6f3d 81d7 42be 26e5 5f3e be6f 86bd
00000080: af34 c7be 022e 953d 9b47 673d 3cc6 1e3d
00000090: f9a8 8e3e dd3d c53d e5e8 973d 0bf1 2abd
000000a0: 064e a43e aaac f93d e51c 83bd 527e 8cbe
000000b0: 1d06 6bbe 9684 2e3e b296 ac3c 8523 01bf
000000c0: 8d59 5cbe 30ef 3d3e c3fb 48be b27d 4fbe
000000d0: ffcc 5e3e 8d61 413d f797 5dbe c699 09be
000000e0: 7537 363e a2f4 bcbd 7524 afbe 560c a0bc
000000f0: f393 c7bd 466c a1bd 7942 a5bd 8b29 d5bd
