checkpoints/C/model_C_epoch_10.pth (torch, 698407 bytes, 7 tensors)

embedding.weight f4 [500, 300]
00000000: c220 d13d 9888 70be f203 f8be dc70 38bf
00000010: a97e e13f f719 c3bf 5864 70be ec1c 8b3f
00000020: 71b0 acbe dd09 a13f d05e 5e3f e4a5 e8be
00000030: 6ef7 9a3f 3303 c1bf 0083 d9bf 06ac 4fbe
00000040: 5e31 0040 61c2 3b3f d5b8 e93f 95f0 f7bf
00000050: 3c09 9e3f 862c 94be 2540 3dbf 3420 10bf
00000060: cec0 6bbf 8f16 a9be 05e7 95bf 85d1 3c3f
00000070: 16d6 e53f 4ea1 313f fab2 493f 8a78 0abf
00000080: ee94 903f 7592 29c0 d606 4dbc 3d67 0a40
00000090: 346b ff3f 5735 c73f ef8b a0bf 10e2 3d3e
000000a0: b930 0f3f 91d9 0d40 3371 63bf f786 adbf
000000b0: 2aec 0c3e d174 323e e1af a83e 83ac 873f
000000c0: da41 6b3f 06db 32bf 5024 6a40 02e9 06bf
000000d0: daf0 81be 7a07 d93f 2fcb 24bf 9904 4b3f
000000e0: fcfc cf3e d308 83bf 4515 bd3b 852e 40bd
000000f0: 6c15 5ebf 923c 9f3f 181d de3f 481f d63f
00000100: ffbd 303f 8920 1640 6111 6fbf c0ee a73e
00000110: 94c2 6d3f 0146 81bd 94b6 7ebf 7a35 33be
00000120: 2a5d be3f 478b 113f 011b 9e3f 0ef4 85be
00000130: f2f9 f93e 52c6 b13f ae9e e53e 4870 4b3f
00000140: 9446 a33f b8eb a63e b92e b13f ac9b dd3f
00000150: 5135 453f 46ff 743e e07c c13f 4582 a33f
00000160: b6c4 7fbf 75bc 99be 4215 203f 2cd8 883f
00000170: 27be fbbf c453 64bd 6d7e fdbc 231e 48c0
00000180: 77b8 3a3e 9e46 0abe f551 943f 4e04 e23f
00000190: d1d7 8a3f 7ab1 bcbe d77d 7c3f 78e3 5ebf
000001a0: 4f31 0cc0 e5bc ffbf 38e2 8c3f 24f3 143d
000001b0: b87e 233f 9f8a fdbe 31dd 19bf 263c 1e3f
000001c0: 7184 e03e 1f9f 1c3f 94ae cd3e 0e65 a2bd
000001d0: 6918 463f 1ac3 243e 147f 0f3f fb8d c33e
000001e0: b7a9 363f 5e5a c0bf ea5e 8abd ff6f 3cbf
000001f0: b04a e6be 6e24 b93f 4775 ae3f 63d3 12be
00000200: 261f ddbe da62 4abf 3499 623f 37cb 703f
00000210: c2ba 9ebc 00fd 8e3e 272c 093f 1a52 423f
00000220: 8e6d ef3f a01d fbbf 9280 98bd 6270 af3f
00000230: 07b4 06be 4441 2fbf fd89 993f 12ce f8bf
00000240: 21dd 9d3d 0c0b 733d 9d6a 693e 11bb 56be
00000250: 7ea4 f5be 2804 313f 5ed3 66bf 6726 3cbf
00000260: 7d54 cebb a705 d73e 5db4 a13f d458 47bf
00000270: c761 a23e f351 5c3f c4e1 d83e e786 b3be
00000280: 17a5 c7be 9e4c b8bf 53d5 903f 187c 27bf
00000290: 0603 80bf d677 b83f f70c 36bd 1230 8e3d
000002a0: c2d8 55bf 618a 1f40 dd85 77bf dcab 4abf
000002b0: 3b5f 4f3f f144 5fbf fe79 65bf cec6 b2be
000002c0: 1b83 7c3f bc11 9e3f 0463 48bf fd17 003f
000002d0: 6a64 a83f ec01 ec3e 58e7 763e d2b7 b3be
000002e0: e3c8 75bf 9a02 1bbf 8f02 933f cb43 11bf
000002f0: 07da a9be 3533 d9bd fafa ad3e 5eaa ed3e
00000300: 899d c0bf 3c07 203f 3421 d6bf 4a65 90bf
00000310: 4c6a 213e d58f 283f 3843 e63e 450d 3e3f
00000320: 547b 25be 83a5 eabf cac5 6b3f 5d98 73bf
00000330: 9729 c0bd 2c40 a4bf 0b41 673d 2136 aa3f
00000340: d7a7 ae3f 88f5 e53e a9f9 f6be d54c ccbf
00000350: 56d6 b43e 2181 f83e 8d0c ac3d c63e a83e
00000360: 6f01 6abf be8e 4b3d b962 443f 1aa9 e3bf
00000370: c308 e93e 7c7f 82bf afd2 273f dc2c 93bf
00000380: cf43 853e d52d 683e 67ca f43f c6bb a93f
00000390: 0714 52bf 6f42 15bf 13c4 1d3d 17b3 0cbf
000003a0: d23a c93e 8dca 0140 6fac c23e 364f d0be
000003b0: d13f 3cbf 32fe 833f 162a 693e e8bc 0b3f
000003c0: ff98 3dbf 0faf 353f 9ac9 dc3e 1a84 77be
000003d0: c92e 653f 28d9 e73f db4a 43bf 2243 88bf
000003e0: ccdf 873f 8ddc 77be 3e7e ce3f da24 283f
000003f0: 3fd7 4bbe eec4 4dbe 6c43 d6be c830 05bf
0.10211326 -0.23489606 -0.4844051 -0.7204721 1.7616779 -1.5242299 -0.23475778 1.0868201
-0.33728364 1.2581135 0.8686342 -0.45439065 1.210676 -1.5079101 -1.6993103 -0.20280465
2.0030131 0.73343474 1.8259531 -1.9370295 1.2346568 -0.2894022 -0.73926 -0.5629914
-0.9209107 -0.33025023 -1.1711127 0.737572 1.7955959 0.69386756 0.7878872 -0.5409018
1.129545 -2.649564 -0.012513837 2.1625512 1.9954591 1.5563153 -1.2542704 0.18543267
0.5593372 2.2164042 -0.88844603 -1.3556813 0.13761964 0.17427374 0.32946685 1.0599521
0.91897357 -0.69865453 3.6584663 -0.5269929 -0.25379068 1.6955407 -0.64372534 0.7930389
0.406227 -1.0237068 0.005770358 -0.046919364 -0.8675144 1.244036 1.7352629 1.6728296
0.6903991 2.3457358 -0.93385893 0.3279934 0.9287503 -0.0631218 -0.9949734 -0.17500868
1.4872181 0.56853145 1.2351991 -0.2616276 0.48823506 1.3888648 0.44847625 0.794682
1.2755914 0.32601714 1.3842384 1.7313132 0.7703448 0.23925504 1.5116234 1.277413
-0.9990953 -0.30026594 0.62532437 1.069097 -1.9667405 -0.055743948 -0.030944074 -3.1268394
0.1823443 -0.13503501 1.1587511 1.7657564 1.0847112 -0.36854154 0.98629516 -0.8706584
-2.1905096 -1.9979521 1.1006536 0.03636469 0.6386523 -0.49519822 -0.60103136 0.6181053
0.43851045 0.611803 0.40172255 -0.07929431 0.77380997 0.1609005 0.5605328 0.3819426
0.71352714 -1.5027578 -0.06756385 -0.7360839 -0.44978857 1.4464242 1.362954 -0.1433845
-0.43187827 -0.79057086 0.8851502 0.9406008 -0.019376162 0.279274 0.53582996 0.7590653
1.8705308 -1.9618416 -0.07446398 1.3706172 -0.13154612 -0.6845896 1.1995236 -1.9437888
0.077081926 0.059336707 0.22794576 -0.20969798 -0.4797706 0.69146967 -0.9016627 -0.734961
-0.006296693 0.419965 1.2633168 -0.77869916 0.31715223 0.86062545 0.42359746 -0.3506386
-0.3899314 -1.4398382 1.1315101 -0.6542373 -1.0000923 1.4411571 -0.044445958 0.069427624
-0.8353387 2.492821 -0.96688634 -0.79168487 0.81004685 -0.8721457 -0.8963927 -0.349173
0.9863755 1.2349162 -0.78276086 0.50036603 1.3155644 0.46095216 0.24111688 -0.3510118
-0.96009654 -0.60550845 1.1485156 -0.5674407 -0.33174154 -0.1060547 0.33980542 0.46419042
-1.5048076 0.6251104 -1.6728883 -1.1280911 0.15763205 0.6584447 0.4497316 0.74239
-0.16160327 -1.833176 0.9209868 -0.9515436 -0.09382933 -1.2832084 0.056458514 1.3297769
1.3644971 0.44913888 -0.4823735 -1.5960947 0.35319775 0.48536018 0.08400831 0.32860392
-0.9140844 0.049696676 0.7671314 -1.7785981 0.45514497 -1.0195155 0.6555585 -1.1498065
0.26028296 0.22673734 1.9124268 1.3260429 -0.8206181 -0.58304495 0.03851707 -0.5496077
0.3930269 2.0279877 0.3802218 -0.40685433 -0.73534876 1.0311949 0.22769961 0.54585123
-0.7406158 0.70970243 0.4312256 -0.24171486 0.89524513 1.8113146 -0.76286095 -1.0645487
1.0615172 -0.24205227 1.6132276 0.6568123 -0.19906329 -0.20094654 -0.41848314 -0.5202756

conv1.bias f4 [64]
00000000: 251e 09bd 3aed cb3d 2d0c 2c3d 4121 15bc
00000010: 6450 9dbc de13 c3bd 2e9d d5bb cace 58bd
00000020: 7235 3fbd dc51 bdbd d6ae 24bd d539 82bb
00000030: b417 0abe df70 59bc bb1e 06bd 8475 47bd
00000040: 5c7f 05bd bbb1 a3bc dc68 9cbd 280e 67bb
00000050: ce42 89bd c740 213d e776 b23d 585f 19bd
00000060: 122d b9bd 1685 abbc 2b3a c73c 53a2 a53d
00000070: 512b bcbd a559 c0bc 7c43 8dbd fc55 10bc
00000080: 1b6a 0cbd 5a53 083d 21ec d53d 0b62 09bd
00000090: 98f3 27bb d2a7 3d3d 7431 8abd 61f8 0c3d
000000a0: f827 82bd 8da0 8fbd 7705 26bd d045 9abc
000000b0: ad05 8d3d 77d7 c5bc a6a9 8cbc 9647 243d
000000c0: 76e4 93bd a7c8 adbd 6d7f 5abb 2892 dabc
000000d0: 2e61 93bb 7db9 54bd b8e5 51bd 71b6 d7bd
000000e0: dcd5 31bd 667a b5bb abdc 89bd d620 8ebd
000000f0: ca04 35bd 47b2 86bd 3199 76bd db70 f6bd
-0.033476014 0.09957357 0.0420038 -0.009102167 -0.019203372 -0.09525274 -0.0065189814 -0.052931584
-0.04668183 -0.09244129 -0.0402058 -0.0039741793 -0.13485605 -0.0132715395 -0.03274415 -0.048696056
-0.032592162 -0.01998221 -0.07637188 -0.003525624 -0.06702195 0.039368417 0.08714085 -0.037444443
-0.090417996 -0.020937484 0.024319729 0.080876015 -0.091879494 -0.023480246 -0.06897637 -0.008809563
-0.034280878 0.033282615 0.10445429 -0.033540767 -0.002562737 0.046302624 -0.06747714 0.03441656
-0.0635528 -0.070130445 -0.040532555 -0.018832117 0.06885848 -0.024150593 -0.017170738 0.040107332
-0.0722131 -0.08485537 -0.0033340112 -0.02668102 -0.0044976687 -0.051934708 -0.051244467 -0.10532845
-0.043416843 -0.0055382727 -0.06731542 -0.06939857 -0.04419402 -0.065769725 -0.06020469 -0.12033244

conv1.lin.weight f4 [64, 300]
00000000: b92a 83bd c850 b93d 2ef9 03bd c0c3 963d
00000010: 3e88 d53b 9bb1 bd3d 401f 18be ea05 36be
00000020: 19f7 e33d 2e8a cbbd f773 d73c 6024 2e3e
00000030: 81a9 07bb 809e 963d 4652 4c3d a8b6 3f3d
00000040: fb3d a0bd d72f eb3d ef6f c0bc f238 52be
00000050: 0cf7 15be e35e 1e3c dba0 0dbd 0d66 a63b
00000060: 5b4e 39bd fb16 0dbe a29d e0bd e8c9 acbd
00000070: a6d0 c6bd 2bae a6bc ffe0 4f3e 10c1 34bd
00000080: 235e 383d b0a7 963d 9516 133d 1f48 5ebd
00000090: 7540 c13d ba50 fcbc cedf e23c 742c 14be
000000a0: 263e b8bd 8395 2f3e 6a07 c8bd 2ea4 09be
000000b0: 62d4 883d 2b31 7bbd 301b 843d 109c 54bd
000000c0: 1408 ddbd a20e 6ebd 9698 ac3d a9ec 15ba
000000d0: 8bf3 193b f698 2fbe ff50 d73d 8a5c 6c3d
000000e0: 6afc 77bd 139c c4bd f894 393d f138 1bbd
000000f0: eee2 a1bc db9d 70be fdcc 1ebd 821b 42be
00000100: 9f86 8cbc 504c 81bc aeca cbbc 0d45 febd
00000110: eccf 54bd d495 2b3e 516a 0dbe fda2 9c3c
00000120: cd6e 9c3d eec9 853d 13e5 623d 1e44 30bd
00000130: c667 11bb 9807 fcbd 10dc c73b 10a3 263e
00000140: c8ad 563d 07cc 673c 094b 2b3e 9a2e 25be
00000150: 20c8 933b ac73 f03c 069e d1bd 8058 ac3d
00000160: 093c 043e 754b 993d c3b8 a5bd dff2 bfbd
00000170: cb98 b5bd b619 39bc 0e16 afbd 6835 f6bc
00000180: be83 8239 f33c ad3d 69fb e8bd cf60 1cbe
00000190: fc20 b0bc d48d 833e a389 debc a9ca 8dbd
000001a0: 19ad e63d 05b6 993d 568e abbd f12f 0f3e
000001b0: c634 cdbd d051 443e bb78 d1bd 1e40 ecbd
000001c0: 6284 063e 34fb b4bc 7e0f eabd e455 9bbc
000001d0: ad53 15bc 582e 6bbd ebbb 91bd ef43 e2bd
000001e0: 865f d63b 9022 e6bd e9e9 1abe f1d1 ee3d
000001f0: 88c5 b13a 0829 e03d 6a24 1f3e c285 9b3b
00000200: 57e3 fabc e301 493d c1c0 3a3d 720f 2cbe
00000210: efe2 043d d603 293d 92ef 323e fa60 f6bd
00000220: 543b f2bd 1445 11bd f8c4 933d 7d9f 0d3d
00000230: c0b9 063d bd5a d7bd 5ee3 7ebd 4b4e 0c3e
00000240: 0c41 a9bd 9946 a2bc dc4d 763d 8e43 af3d
00000250: 35ce 4dbd 5952 5c3d 4b88 8a3c 090f fb3c
00000260: 0c63 43be 3bfb f73b 6bab b0bd a7bf 903d
00000270: e714 43bc 974c f93c e884 583d b16e a73c
00000280: 2104 aa3d c0df 7ebd b0a5 b8bd b4ab b0bb
00000290: 656b 163c 4ae1 003c b8ab 393e 1200 803e
000002a0: b164 a2bd 0f26 94bd 6b56 d43c ebb1 f7bd
000002b0: e118 3dbe c0ac 34bc 7d65 e23d f8bb 53bd
000002c0: b028 d83c 1737 5c3d a770 e93b 08b3 ed3d
000002d0: 6861 6c3d b0f8 30be 3095 b43d 5f4f 67be
000002e0: fa3f 2f3c e844 32be b416 3c3d f2a5 34be
000002f0: 510d 82bc 1118 9cbd 91a5 403d 190d 713d
00000300: 9d65 0cbe ca5a e03d 8618 213d 6ee1 4c3c
00000310: 80e0 84bd 54dc 5e3d c0f1 273d 4949 7ebd
00000320: 5a91 cabd 64cc ae3d 598f 683e 9f84 863b
00000330: 2e04 22be 4c82 26be 35ec fc3d 49c5 8abc
00000340: eb83 f5bc 4303 513e d149 433e 17d8 24bc
00000350: 7fb9 30bd de8e 45be 5548 6abd 9632 a5bd
00000360: 23d1 d23d 8401 8cbd 5416 ef3d 9ded 783d
00000370: 35a1 b73d d198 88bd b152 2c3d 63ce 653d
00000380: ee77 4abd d93f ac3d 7287 183e 9498 dcbc
00000390: 3226 203e fdf3 e43d 1dd6 6c3d a8c2 bebd
000003a0: 7e0c 67bd 868d 30be 4ef9 d3bc 80bf aa3d
000003b0: 9acd 2fbe cf08 103d 6d8e f83d ab36 ab3d
000003c0: 12a7 08be 2083 f23d 13f4 3b3e b469 773d
000003d0: bc25 21bd dd49 893d 7e2e 593d 6fcc 44bd
000003e0: fcf1 983c 4457 973d 67f2 fabb 8a74 47be
000003f0: afa2 053e f93f 153d e80b 353d 7936 7b3d
-0.06404633 0.09048611 -0.03222006 0.07361555 0.0065164855 0.09262391 -0.14855671 -0.17775694
0.111311145 -0.09938465 0.026300414 0.17006063 -0.0020700397 0.0735445 0.04988315 0.046805054
-0.07824322 0.11483734 -0.023490874 -0.20529535 -0.14645022 0.009666177 -0.03457723 0.0050780834
-0.04524074 -0.13778298 -0.10967566 -0.08436948 -0.09707765 -0.020346722 0.20300673 -0.04412943
0.04501165 0.073562026 0.035910208 -0.054268 0.09436122 -0.030800212 0.027694609 -0.14470083
-0.08996229 0.17146878 -0.09767039 -0.13441536 0.06681134 -0.061326187 0.06450498 -0.051906645
-0.107925564 -0.058119424 0.08427541 -0.0005719164 0.002349111 -0.17148194 0.10513496 0.05770544
-0.060543455 -0.09600081 0.045308083 -0.0378961 -0.019761529 -0.23497717 -0.03876971 -0.18955806
-0.017154036 -0.015783459 -0.024876919 -0.12415514 -0.051956102 0.16756374 -0.13810088 0.019120688
0.07638321 0.06532656 0.055394243 -0.04303371 -0.0022187098 -0.12306136 0.0060992315 0.16273141
0.052411824 0.014147765 0.16727842 -0.16131058 0.0045099407 0.029352032 -0.10235219 0.084153175
0.12913527 0.074850954 -0.08091881 -0.09372496 -0.088670336 -0.011297634 -0.085491285 -0.030054763
0.00024893688 0.08458891 -0.11376078 -0.15271305 -0.021500103 0.25694144 -0.02716524 -0.0692342
0.112634845 0.075054206 -0.08376758 0.13983132 -0.10019831 0.19171834 -0.10228106 -0.11535667
0.13136438 -0.02209244 -0.11428736 -0.018961854 -0.009114188 -0.057417244 -0.07115921 -0.110481136
0.006542149 -0.11237061 -0.15128292 0.11661137 0.0013562897 0.10945326 0.15541235 0.00474617
-0.030625982 0.049074065 0.04559398 -0.16802767 0.032442983 0.041263424 0.17474201 -0.120302156
-0.11827722 -0.03546627 0.07215303 0.034575928 0.03289199 -0.10515354 -0.062228553 0.13701741
-0.0826436 -0.019809054 0.060132846 0.08557807 -0.050245482 0.05378947 0.016910693 0.030646818
-0.19080752 0.007567791 -0.086264454 0.07067805 -0.011906839 0.030432029 0.052861124 0.020438524
0.08301569 -0.062225103 -0.090159774 -0.0053915624 0.009180878 0.007866213 0.18131912 0.25000054
-0.079293616 -0.072338216 0.025920114 -0.12094482 -0.18466522 -0.011027515 0.110545136 -0.051692933
0.026386589 0.053763475 0.007124025 0.11606413 0.05771008 -0.17282367 0.08817518 -0.22588871
0.010696406 -0.17409098 0.04592009 -0.17641428 -0.01587549 -0.07621778 0.047032896 0.05885038
-0.13710637 0.10954817 0.039330028 0.0125049185 -0.064881325 0.05440934 0.041002035 -0.06208161
-0.09891005 0.08535078 0.22710933 0.004105165 -0.15821907 -0.16260642 0.123497404 -0.016939776
-0.02997013 0.204114 0.19071127 -0.010061285 -0.043145653 -0.19292781 -0.057197887 -0.08066289
0.10293796 -0.068362266 0.116741806 0.06077348 0.08966295 -0.066697724 0.04207105 0.05610503
-0.04943078 0.084106155 0.14895418 -0.026928224 0.1563957 0.111793496 0.05782138 -0.093144715
-0.056408398 -0.17241487 -0.025875714 0.08337307 -0.17168275 0.03516465 0.121365406 0.083600365
-0.13344982 0.11841416 0.18354826 0.06040354 -0.039342627 0.067035414 0.053022854 -0.048046526
0.018670075 0.073896915 -0.007658291 -0.1947805 0.1305034 0.036437962 0.044200808 0.061331246

conv2.bias f4 [64]
00000000: 3c0e 82bc f4db 55bd 6104 50bd a67b 4dbd
00000010: 863b 2f3d 0c97 8c3d 9745 ae3c 6436 673d
00000020: 791e 4bbd fc7d 03bc 2e3c 3bbd aa30 8d3d
00000030: 8a25 673d dd10 bebc 76a7 083c ee9e d7bd
00000040: 67a9 063d 3c4f 0a3c c81f 66bb af25 343d
00000050: dfab 993b 0cf4 bb3b 116c 88bd 8b8e b9bc
00000060: b63b a8bc d58c 32bc 63b4 053c 2f5f 39bb
00000070: b85f a03c 53cd a2bd 4c9c e83c 902f c2bc
00000080: 8a0d 9a3b cd63 703d 51be adbc d1ce 2f3d
00000090: c4c2 60bc b094 3bbd 4ad3 dc3c b5f4 ae3c
000000a0: 3651 c73d d609 583d 45b0 fdbc b36e dcbc
000000b0: 24d4 03bd e9b1 843d ddfe 863d 34ea b7bb
000000c0: 0f72 2bbc 4b9d 253d 14f5 353c 0edd 0c3c
000000d0: 1892 4f3a 1dfe 8a3c 7451 043d a001 35bc
000000e0: 5f40 a4bd 5691 97bd 9c8c 5cbc 5e23 da3b
000000f0: a175 9a3c 1371 f3bd 67c0 093d 507c 423d
-0.015875928 -0.052211717 -0.050785426 -0.05016675 0.042781375 0.068647474 0.021273417 0.056448355
-0.049589608 -0.0080256425 -0.04571169 0.068940476 0.056432284 -0.0232014 0.008340707 -0.1052836
0.0328764 0.0084417425 -0.0035114158 0.04398125 0.004689678 0.0057358798 -0.06661237 -0.022650978
-0.020536285 -0.010897835 0.008160683 -0.0028285494 0.019576892 -0.07949319 0.02839484 -0.02370432
0.004701321 0.058688927 -0.021208914 0.042921845 -0.013718311 -0.045796096 0.02695622 0.02135692
0.09732287 0.052743755 -0.03096784 -0.026908254 -0.032184735 0.06479246 0.0659158 -0.005612636
-0.010464205 0.04043321 0.011105794 0.008597625 0.0007918193 0.016966874 0.032304242 -0.011047751
-0.0802009 -0.074007675 -0.013461258 0.006657048 0.018854918 -0.118868016 0.033630755 0.047481835

conv2.lin.weight f4 [64, 64]
00000000: 9d36 a0bd bce0 f1bd 4edd 5fbe 0ec9 853e
00000010: ed6c 4cbe a527 f8bd 75e8 d23d 1139 25be
00000020: 2461 093e 0a37 b13d 2ed4 ba3d b341 8c3c
00000030: 0ed1 abbd 9d5d 803d 0886 71bd 3b25 75bd
00000040: 1eef d03e 93fc e1bd 779b 9a3d d2e5 4cbd
00000050: c938 2cbe 5939 ab3d ca14 1bbe f40c 833e
00000060: 9b73 203e e32b 41be 4c85 04be 7354 11be
00000070: 3c47 03be ac9c 93bd c3b6 ac3d a71f 073e
00000080: aca3 333e b4df 093e a2d2 20be b38f e8bc
00000090: c7e8 86be 73f0 05be e4bc e63d 9033 c4bc
000000a0: 2aeb 02be f81c e6bd 5f9a b53e be3e 12be
000000b0: 926b 12be 4bef bd3e 0309 f7bd 3a7a 9f3d
000000c0: b091 99bd 0a88 153d d293 9e3b fd1e 8f3e
000000d0: a8a4 63be 2c99 d93d d16a 803c 9dd9 1f3d
000000e0: c12b 723d e112 893d 5d0c cebd e9a5 9a3d
000000f0: 14df 9bbd c31c b43a 2935 e03d 0968 c93d
00000100: 4468 07be f6bb aebd 3d37 c3bd e151 57be
00000110: 0a79 bd3c 1e06 b5bc 45cd 733e d945 673e
00000120: 58da acbd bf45 1ebe 838e 393d 81d2 eb3d
00000130: d02c bf3e 337a 80bd 8405 543e 3021 613e
00000140: f10c 4cbe 3e68 bf3d 43a3 5e3e 714b dbbd
00000150: ac31 1f3e cc1a ec3d 6d92 d63d 8522 bcbb
00000160: dd97 b83d 858a 253e ef72 33be 41c9 69be
00000170: 9549 00ba 1580 363d 78e8 8f3e 82bb 8fbc
00000180: 21ea 72be 013b 65bd 1a81 70be aee8 023c
00000190: 84ac 8a3b 71bd 2a3e 3770 893e a2c4 bbbd
000001a0: 8e08 463e 6f3c b43d 2bfa a53d a6e1 453e
000001b0: 4a52 4e3d 76af 9ebe 5750 bbbc 565e 213e
000001c0: c9e8 a23c 4271 c5bd 3093 a63d 1643 70be
000001d0: cbbe 5bbe 985d 37be 24ac 5e3e 56cb 873e
000001e0: 0387 673b 2964 f7bd 3b1f abbd 4247 abbb
000001f0: 9ea1 393e e2ac fc3d ccc7 0ebb de20 843e
00000200: 6db2 01bd 3165 6ebd 7ce1 bd3d 5b62 dc3c
00000210: eb5d be3d 39da 803e d08d 273e 48c6 283e
00000220: c3d5 aa3e 2f09 493e 0018 07bc 58b1 813e
00000230: 8965 f23d 6d1b 123e 9690 91be a0da ff3d
00000240: 9775 2d3e 0fcd c5bd 7c83 46be 6e7a 45be
00000250: a986 cbbd 4c7d 343e 277d 8c3c cd95 893e
00000260: f008 be3d f3a4 703e 2e63 5cbd 185d f0bd
00000270: cde3 853c b1ce 64bc badb b03e 0195 8b3b
00000280: ffd3 4d3e ad4b 9d3e 4c52 95be acd0 0e3e
00000290: 648f 0e3e 496b 4fbc 8f75 9c3e 10e0 56be
000002a0: 94b8 5fbd 0be5 8cbd 9641 98bd d574 0f3d
000002b0: ea35 46be 9cb7 b23d ddbe d83d 17d0 37bd
000002c0: 19d2 47ba ec6a 813e 1bb5 d0bd a6ad 35bd
000002d0: 56b1 693e cd17 843e 03c0 edbc 7f45 0cbe
000002e0: 3000 983e f84d 4d3e c8ec 183e 91d9 f93d
000002f0: c5cb ce3c 9d4f 473d 278b 603e 96b2 8d3d
00000300: 3762 6ebd 0bdd 05bc a39f b3be f0b8 d53e
00000310: 1d8d 08be 31e9 613e b68e cfbd dddb b33d
00000320: a936 8b3b b0c7 26be faef 1d3e 2f35 b03b
00000330: 4d77 8a3e 1513 c53d b10d cb3d 0fd9 f33d
00000340: 301e 743e b4f5 723d 25f7 aa3e 1100 3a3d
00000350: d189 1dbe c976 1cbd f81a 73bd 060a 983e
00000360: 7d25 9c3e 51ad 99bd 5f4f 51be ce9e 0bbe
00000370: 37af c93e 6026 a6bd 82a2 abbd 7a65 203e
00000380: 91d6 2c3e 21ff bcbe 6ff5 90be 67ee 9d3b
00000390: f12e fd3d 24f1 9c3d 5fc2 49be 0ae9 6ebe
000003a0: 4e21 7e3e 76a3 b2bd babe ad3d a3a2 08be
000003b0: f234 60be d10c 133d e245 67be 0cdf 1cbe
000003c0: 46a2 703e f5c2 e3bd 6427 20bd 8e81 6e3e
000003d0: a39a a03d 10ab acbd 5b11 9a3e d74e 953e
000003e0: ae4d 203e 820d acbd c9c1 a03e 0000 443e
000003f0: ec35 2cba 6b25 5c3e ff8a e23c 63ea 4b3e
-0.07822917 -0.11810443 -0.21861765 0.26129955 -0.19963427 -0.121169366 0.10298244 -0.1613505
0.13415962 0.08653076 0.09122501 0.017121172 -0.083894834 0.06267855 -0.058965713 -0.05984996
0.40807432 -0.11034503 0.07549184 -0.05002386 -0.16818537 0.083605476 -0.15144649 0.2559582
0.156691 -0.18864398 -0.12941474 -0.14192371 -0.12820143 -0.07207617 0.084332965 0.13195668
0.17542905 0.13464242 -0.1570535 -0.028388834 -0.2634947 -0.13080005 0.11266497 -0.023950368
-0.1278502 -0.11235994 0.35469338 -0.14281747 -0.14298847 0.3709663 -0.12062266 0.07786985
-0.07498491 0.03650669 0.004839399 0.2795333 -0.2223078 0.10624918 0.015675934 0.03902589
0.05912376 0.06693054 -0.10060952 0.07551176 -0.07610908 0.0013741482 0.109476395 0.09834296
-0.13223368 -0.085319445 -0.0953202 -0.21027328 0.023129005 -0.022097643 0.23808773 0.22585239
-0.08440083 -0.15456294 0.045301925 0.1151476 0.37338877 -0.06273308 0.20705229 0.21985316
-0.19926812 0.093460545 0.21741967 -0.10707749 0.15546292 0.115285486 0.10477147 -0.0057414197
0.090133406 0.16166122 -0.17524312 -0.22830679 -0.0004893777 0.044555742 0.28107047 -0.017545465
-0.23722126 -0.055964474 -0.23486748 0.0079900455 0.0042319912 0.16673829 0.26843426 -0.09168364
0.19339201 0.08800589 0.081043564 0.1932436 0.050371446 -0.3099324 -0.022865457 0.15758643
0.019886391 -0.09640743 0.081335425 -0.23463091 -0.214595 -0.17906797 0.21745354 0.2652232
0.0035328276 -0.12079651 -0.08355566 -0.0052270005 0.18128058 0.12337662 -0.0021786569 0.25806326
-0.0316643 -0.058201972 0.09271523 0.026902368 0.09295257 0.2516649 0.16362691 0.16481888
0.33366212 0.1963241 -0.008245468 0.25330615 0.118357725 0.14268275 -0.28430623 0.12492871
0.16939388 -0.096582524 -0.19386095 -0.19284984 -0.09937794 0.17625922 0.017149521 0.268721
0.092790484 0.23500423 -0.053805523 -0.11736506 0.016343975 -0.013965295 0.34542638 0.004259706
0.20100401 0.307218 -0.2916435 0.1394679 0.13921887 -0.012659856 0.3055844 -0.2098391
-0.054619387 -0.06879624 -0.074343845 0.03502353 -0.19356504 0.08726427 0.10583279 -0.044876184
-0.00076225545 0.25276887 -0.10190793 -0.044355057 0.22821555 0.2579941 -0.029022222 -0.13698386
0.29687643 0.20049274 0.14934075 0.121997006 0.02524365 0.04865991 0.21928082 0.06918828
-0.058199134 -0.0081703765 -0.3508273 0.4174266 -0.1333508 0.22061612 -0.10134642 0.0878217
0.0042484594 -0.16287112 0.15423575 0.0053774337 0.27044144 0.0962278 0.09914721 0.11906635
0.2383964 0.059316352 0.3339168 0.04541022 -0.15384604 -0.03819922 -0.05935189 0.29695147
0.3049735 -0.075037606 -0.20440434 -0.13634798 0.3939149 -0.08112788 -0.08380605 0.1566371
0.16878726 -0.36913398 -0.2831225 0.0048196795 0.12362469 0.076631814 -0.19703053 -0.23331085
0.24817392 -0.08722584 0.08483644 -0.13343291 -0.21895197 0.035900895 -0.22585252 -0.1531946
0.23499402 -0.111211695 -0.039100066 0.23291609 0.078419946 -0.08431065 0.30091366 0.29161713
0.15654632 -0.08401014 0.31397846 0.19140625 -0.0006569314 0.21498649 0.02765417 0.1991363

fc.weight f4 [6, 64]
00000000: 1c42 26bd cb33 52be 5f82 42be 4ad5 b1bd
00000010: abd1 823e b404 8f3e 8363 44bd 85db 403e
00000020: aea1 3cbe 457b d43b 7ee8 76be 2aea 113e
00000030: ee73 b53e 8829 7fbe 92c5 a1bc 4397 fbbe
00000040: f735 3b3d 24d6 cf3d 51f7 41be 01d0 243e
00000050: df76 56bd 6e05 7e3d caf9 74be e834 05bd
00000060: d124 f5bd 68ac be3c d511 2b3d db0b 6e3e
00000070: c029 c63c b450 56be 5799 133e 999b 24be
00000080: 5f54 1bbd 8d43 013e a24b 11bd 1bb2 593e
00000090: dfff d8bd 6472 ebbd 6912 a23d 5af8 ce3a
000000a0: 9e87 0c3f 14a3 003e 0900 1ebd 78ee c9bb
000000b0: 1c71 c83d 0092 693e 8a29 053e 0546 8c3d
000000c0: 945a fbbc 129c 943c 238d 143e 13e9 723d
000000d0: 218a 483e ddf8 d23d 0fc6 453e 0c81 26be
000000e0: 1499 b9be 99b9 9ebe 7727 833d e21c 9c3d
000000f0: c66e 0dbd 91ad 1bbf c93c 843e 779b 473e
00000100: f5e7 be3d e0aa d2bd 217b 0d3e 88e7 053d
00000110: 8bbe 923d cd98 5b3c 59b5 713d d7d0 0a3d
00000120: e8c1 a63d d0f1 053e c62d 4ebe a3a0 133e
00000130: f835 bfbc 3cc1 113e 4d2f e0bd f7dd 053e
00000140: fa20 963e 0f1c fe3d c53b 57bc 974f 8ebd
00000150: 1ebf 65bd 1476 fbbd b7b6 353e 0c94 013e
00000160: ff4b 8b3d 8bc4 1abd 3001 33bd 5424 a23d
00000170: e333 87bc aae8 a33d 6e96 0bbe 462a 19be
00000180: 62a5 51bd a663 45bd fba4 08be ed5d f6bd
00000190: a6c6 c73c ce8a eb3d dfe6 c3bb 77bf b2bd
000001a0: 83f3 5cbc f151 1bbd 47c0 913b ee57 d33d
000001b0: 034c fcbc be14 313d 637d 163d 9063 dd3d
000001c0: ab81 743c ac92 fcbd a37e cfbd 4949 0ebd
000001d0: e92b e6bd 3817 30be f354 3b3c 64b0 403d
000001e0: d97b 593e 5074 26be 3f84 3a3e 163e be3d
000001f0: b7d7 49be 158f 863d 71f7 4bbe f4e7 b4bc
00000200: 1b35 1bbe 052a d53d 0cc7 a63d 8504 08bd
00000210: d32d 1fbe 36c1 08be 3dd0 183e 08be 0dbd
00000220: f6d3 133e 6926 0cbe f27c 813e 15d7 12be
00000230: 5c0f 02bc 8c96 873d 8d52 4d3e 22ce 9bbd
00000240: 6e50 89be a2bf 16be 1427 203e b270 073e
00000250: 2263 2ebe f207 febd 24bc 9ebd 22b3 0d3e
00000260: 73fe 28bc 53b5 c2bd 0cf1 35be 13d8 5fbd
00000270: 3716 13bb 1953 44bc 7c66 d4bd 5515 3e3e
00000280: 7959 3a3e 7aa5 d5bd 5abe 5a3e 236e 67bc
00000290: f8c1 f7bd 9f0d c3bb 42cb 0b3e f109 d43d
000002a0: 45d6 063d ae62 24be 4753 14be ef91 52be
000002b0: f29d 343d e7cd 16be e491 17be 034c 2abe
000002c0: 251b e73d fb4e 393d 5dc1 4d3d af19 47be
000002d0: 4239 68bd b1f5 31be 5be7 c9bd a152 013e
000002e0: 498f 31be f9dd 2d3d af6d 143c 8c78 f53d
000002f0: 57d0 3b3e e5e0 04bd 3e5b a83d 4673 17be
00000300: a9cb 0b3c 96de 6a3c e029 c83c 1c30 6dbe
00000310: e4ee 583d f755 5c3d 9a31 f43c 2049 273c
00000320: 3c75 07be a37f b1bc 61ac e83d 4489 743d
00000330: 75b4 c3bc f733 41bd 714f 423e 8b78 3abe
00000340: f4d8 d43d 24c5 00bd 2cd4 a8bd 0e37 f53d
00000350: 6e35 003e d75b 383d b23e 84bd af72 f7bd
00000360: 4207 b4bd 569a 173d cef9 09be 5ef7 f6bc
00000370: c78f 1e3e c219 37be 8866 073e beb9 b0bd
00000380: 46f3 863d 099b aabc 0790 04be 5bc4 fb3d
00000390: 99fb c2bd 2019 d9bd 2989 843d afa1 603d
000003a0: 34e8 063e 9753 3f3e e63c f8bc c54a 57be
000003b0: 4887 64bd d9e1 653d 1dad 6d3b a6fa b0bc
000003c0: c7a7 aebd 1986 5b3e 4b24 023e 3216 193c
000003d0: dfbe f2bc ee14 493e 18a3 263e 45b8 acbd
000003e0: 73e4 66be 3c29 c4bd 9a4c 10be 6774 4dbd
000003f0: 319e 613e 41e9 acbe 6c29 aabd ced7 1f3e
-0.04059039 -0.2052757 -0.18995045 -0.0868326 0.2555059 0.27933276 -0.047946464 0.1883374
-0.18421051 0.0064844214 -0.24112126 0.14249483 0.3544001 -0.24918187 -0.01974753 -0.4913884
0.04570576 0.10148266 -0.18942 0.16094972 -0.052359458 0.062016897 -0.23923412 -0.03252116
-0.11969913 0.02327557 0.041765053 0.2324671 0.02418983 -0.20929223 0.14413963 -0.16074981
-0.03792226 0.12623425 -0.03547252 0.21259348 -0.105956785 -0.11496428 0.07913668 0.0015790567
0.54894435 0.1256221 -0.038574252 -0.006162461 0.09787199 0.22809601 0.13004127 0.06849293
-0.03068284 0.018140826 0.14506964 0.05930431 0.19583942 0.10301373 0.19313835 -0.16260165
-0.36249602 -0.31000975 0.06404012 0.076226965 -0.03452947 -0.60811716 0.25827625 0.19492899
0.09321586 -0.10286498 0.13816501 0.03269151 0.071652494 0.01340313 0.059010837 0.03389057
0.081424534 0.13080525 -0.20134649 0.14416747 -0.023341164 0.1423387 -0.10946522 0.13072954
0.29322034 0.124076955 -0.013136809 -0.06948774 -0.056090467 -0.12278381 0.17745481 0.12654132
0.068016045 -0.037785094 -0.043702304 0.07917085 -0.016504234 0.080033615 -0.13631603 -0.14957532
-0.051183112 -0.048190735 -0.13344185 -0.12029634 0.024386715 0.11501084 -0.0059784497 -0.08727925
-0.013485792 -0.037919942 0.00444797 0.10319506 -0.030797964 0.043232672 0.03674067 0.10810006
0.014923493 -0.12332663 -0.10131576 -0.03473786 -0.11238844 -0.17196357 0.011433828 0.04704322
0.2123865 -0.16255307 0.1821451 0.09289186 -0.19711195 0.065702595 -0.1991861 -0.02208326
-0.15156977 0.10408405 0.08143434 -0.033207435 -0.15544824 -0.13354954 0.14923187 -0.034605056
0.14436325 -0.13686527 0.25290638 -0.1433986 -0.007938232 0.066205114 0.20051022 -0.07607676
-0.26819175 -0.1472154 0.15639907 0.13226584 -0.17030004 -0.12403859 -0.07750729 0.13837865
-0.010314572 -0.09507241 -0.17767733 -0.054649424 -0.002244366 -0.011982703 -0.1037111 0.18562825
0.18198194 -0.10431953 0.21361676 -0.01412538 -0.120975435 -0.0059525515 0.13651755 0.10353459
0.032919187 -0.16053268 -0.14484893 -0.20563482 0.04409594 -0.14726983 -0.14801747 -0.16630559
0.11284474 0.045241337 0.050233234 -0.19443391 -0.05669523 -0.1737888 -0.09858581 0.12629177
-0.17339815 0.042448018 0.009059354 0.11985883 0.18341194 -0.03244104 0.08220528 -0.14790067
0.008532443 0.014335295 0.02443403 -0.23162884 0.0529622 0.05379292 0.029808808 0.010210305
-0.13228315 -0.021667307 0.11361004 0.05970122 -0.02388976 -0.0471687 0.18975617 -0.18210046
0.10392943 -0.031438008 -0.082435936 0.119733915 0.12520382 0.04500946 -0.06457271 -0.12082421
-0.08790447 0.03701242 -0.13474199 -0.03014725 0.15484534 -0.1788092 0.13222706 -0.086291775
0.065893695 -0.02082588 -0.12945567 0.12293311 -0.09520645 -0.10600495 0.06471474 0.054841693
0.13174516 0.1868423 -0.030302476 -0.21024616 -0.055793077 0.05612359 0.0036266514 -0.021603893
-0.08528095 0.21437873 0.12709157 0.009343671 -0.02963203 0.1963689 0.16273153 -0.08433584
-0.22548084 -0.09578177 -0.14091721 -0.050159838 0.22033001 -0.3377171 -0.08308682 0.15609667

fc.bias f4 [6]
00000000: 86e4 20bd 984b 003b a113 0bbd a435 1b3d
00000010: 5653 17bd d6de debd
-0.039280437 0.0019576307 -0.033954266 0.037892953 -0.03694471 -0.10882346
