checkpoints/C/model_C_epoch_42.pth (torch, 78688 bytes, 15 tensors)

node_embedding.weight f4 [1, 64]
00000000: 548b 483e 557a c3bd 2c62 c3be f361 49bf
00000010: 1ceb c83f bc26 bfbf 76ae acbd 29a9 943f
00000020: aef7 98be 9b80 933f 1606 753f 8800 1abf
00000030: 0014 a33f 1b86 babf 76af cebf 7803 cfbd
00000040: 166d 0340 40e8 413f 175d c83f b9c1 f7bf
00000050: f3f5 9c3f 6256 97be a0db 3ebf 3187 ecbe
00000060: 2f28 49bf 8f43 d7be fc06 a3bf 8182 583f
00000070: 6084 e03f 2a93 223f e676 313f 010c f8be
00000080: 326e 8a3f 01e3 26c0 cf05 c6bd 520f 0340
00000090: de4f ee3f dce1 b33f e03c 9bbf e600 4b3e
000000a0: 33f8 073f f7de 0b40 52d2 71bf 5077 b0bf
000000b0: 1049 803d eac4 643e 27ca c93e 9886 6e3f
000000c0: e337 6b3f db04 31bf 7207 6b40 9c3d 0ebf
000000d0: ab60 6cbe 2df4 e03f fce6 3fbf a359 6b3f
000000e0: 652d ba3e d0c4 7fbf f430 c0bc 9f20 2abe
000000f0: 8260 48bf c256 9d3f ad63 ce3f 0972 da3f
0.195844 -0.09544817 -0.38160837 -0.78665084 1.569675 -1.4933696 -0.08431713 1.1614124
-0.29876465 1.1523622 0.9571241 -0.6015706 1.2740479 -1.4572176 -1.6147296 -0.101080835
2.053533 0.7574501 1.5653409 -1.9355994 1.2262558 -0.29558092 -0.7455387 -0.46196893
-0.7857694 -0.4204373 -1.2736506 0.84574133 1.7540398 0.63505805 0.6932205 -0.48446658
1.0814879 -2.6076052 -0.09669077 2.04781 1.8618124 1.4053302 -1.2127953 0.19824561
0.53113097 2.1854837 -0.9446155 -1.3786411 0.062639356 0.22340742 0.39412042 0.93174124
0.9188215 -0.69148034 3.6723294 -0.5556276 -0.23083751 1.7574517 -0.7496183 0.9193365
0.36362758 -0.9990969 -0.023460843 -0.16614006 -0.7827226 1.2292101 1.6124169 1.7066051

conv1.nn.0.weight f4 [64, 64]
00000000: 1f38 233e 3964 26bd bfc0 49bb e219 ce3d
00000010: 5964 d7bd a02f ba3d 47ea 753e 55cf c6bc
00000020: 0b95 f7bb f0b9 f7bd 2c3c f63c f66a 333d
00000030: 9f8a 993d 2dba bc3b 34fb 94bd 01bb 4abc
00000040: 354e c1bd 1b19 91bd f1d2 c03d e770 8f3c
00000050: c72f d1bc fa73 9e3d e938 0ebd 0011 57be
00000060: 295a 8f3d 73f1 a43d 4eb6 01be b69e cf3b
00000070: 0c2c 5a3c 45ea c23c 9a3b 8ebc 174f 413d
00000080: 63d4 62bd 77eb 92bd 7df3 50bb 1571 2a3d
00000090: 1695 a33d 1b08 b83c 1657 e9bd 27ef f4bd
000000a0: 5c31 a43c 67d5 ccbd f55e d2bd 2c85 463d
000000b0: be20 4cbc c3b8 e6bd acc4 e6bd 2cb4 d73d
000000c0: 8f51 af3c 06a5 113d e238 8f3d ebfa 933c
000000d0: 9af9 a93d c801 f03b 9281 00be 5889 813b
000000e0: 09a0 ca3d 281e 1a3c d0f2 1dbe cebc 76bd
000000f0: e5c9 07bd a797 1fbd 689c 943d f0b4 57bd
00000100: 3c3a 573d 10df eebd e09f 28bd 8053 cebb
00000110: 8adb b93d a096 2ebc 885c 523d c809 0f3d
00000120: f8cd ccbd 002d 48bb 302c 54bc 40c1 933b
00000130: 2cda f7bd 0eb5 fcbd 247c 1bbd 88f1 c83c
00000140: e2a5 80bd 1c1c 323d 28a4 e7bd c421 36bd
00000150: 946c f7bd 4690 ce3d 0e59 b6bd 146e c1bd
00000160: f44e 6f3d 8c2d 73bd 9880 d13c c0a5 2ebd
00000170: b4ac 45bd 3868 29bd a6f5 f53d a079 edbc
00000180: 80b5 b93c ae55 acbd 62a8 8cbd 3c12 4bbd
00000190: dac9 f2bd 1895 f8bd 1636 fdbd 6c2e 003d
000001a0: 6c09 b6bd 00c8 1cbb d8bd 933c d0f6 35bd
000001b0: d625 eb3d d272 8b3d 90d7 ba3d cc83 fdbd
000001c0: c0d8 2bbb 0019 eb3d 8825 5fbd 445e 1e3d
000001d0: fab0 d0bd 8003 2abc 9091 01bc a072 b5bb
000001e0: 1eeb fabd 6071 9bbc 680d a33d 7c1d 303d
000001f0: 92b9 c43d ec00 18bd 0072 9a3a a828 a13d
00000200: 2070 57bc b043 9a3c 1690 e5bd 401a 01bd
00000210: b0ba ca3d 083a eb3d 18a5 1f3d c8e0 89bd
00000220: b20a cb3d 6c95 303d 3825 d5bd 90e3 09bc
00000230: 86f7 85bd 1083 8cbc 2ce3 74bd d077 b43d
00000240: e8fe 93bc 5026 e63c b8d8 c7bd cc20 46bd
00000250: 0cc5 6abd a8e4 183d a0d3 d5bd 0cb8 43bd
00000260: 1e87 febd 00af 95bb c8ff 153d dade ddbd
00000270: 2886 d5bc 28df d2bd 28aa f9bd 786b d0bc
00000280: 1c1c 64bd a866 dcbc c0ff 5b3d 480e a53d
00000290: c832 fe3c ec43 8ebd f046 bd3c e8c6 953c
000002a0: 882e fa3d a08b 0e3d f0a1 93bc 5455 8fbd
000002b0: 30e9 46bc 8029 41bc 6490 ddbd 3001 3cbd
000002c0: 4071 453d 50f1 773c e0b4 b63c f855 313d
000002d0: 348b 5d3d 78b6 bdbc 3cf2 983d a0d0 b93b
000002e0: 7081 5dbd d88a 693d b6d4 fc3d 2471 143d
000002f0: bef3 ab3d b803 813c 6c3e 5abd 60a7 bb3c
00000300: f825 17bd 98b8 06bd 7cb2 a1bd 1ace ce3d
00000310: 28ec b7bd 40b0 dc3d 70df 0bbd 9ab6 ec3d
00000320: 08c7 97bc 0626 fd3d 767e ffbd 0050 29b8
00000330: a260 f3bd 9c19 79bd 0003 86bb f0ab b33d
00000340: 0086 50bd 725f dc3d 3803 c63c 80df 10bb
00000350: 82f8 fe3d 82bb 98bd 585c c8bc 4087 9f3d
00000360: 9468 b7bd 4c6d f4bd cac5 c43d faea cdbd
00000370: e054 073c 58d0 e53d f89e 953d d830 2a3d
00000380: 10a3 ba3c 84ac 3abd 989b 96bc 880d ecbd
00000390: e0c4 da3b f486 8a3d 5e95 b33d ee53 9dbd
000003a0: a009 58bd a07b acbc a0ec 923c b022 493d
000003b0: 00dc cabb b066 d4bc a241 f7bd bc38 e0bd
000003c0: c01d 37bd d038 25bd 80aa 08bd bc3b 293d
000003d0: 28a2 ecbd 3851 993d 5cb6 7bbd 38f9 7dbd
000003e0: f84c 953d ec6f 213d d838 76bd 4091 7dbb
000003f0: e0d8 70bc c027 f2bb 88ad 4fbd 20aa c43b
0.15939377 -0.040622924 -0.0030785052 0.100635305 -0.10517187 0.09091115 0.24015151 -0.024268785
-0.007555609 -0.12096012 0.030057989 0.043803178 0.07497143 0.0057594986 -0.07274476 -0.012373687
-0.09438745 -0.070848666 0.09415234 0.01750989 -0.025535477 0.077369645 -0.034722243 -0.21002579
0.069996186 0.08053865 -0.126672 0.0063360585 0.013316166 0.023793349 -0.017362405 0.047194567
-0.05537833 -0.071738176 -0.0031883412 0.04161175 0.0798742 0.022464802 -0.113935634 -0.11959677
0.020043068 -0.10001641 -0.10272018 0.048466846 -0.012458978 -0.11265709 -0.11267981 0.10532412
0.021401195 0.03555777 0.069932714 0.018063983 0.08299561 0.007324431 -0.12549427 0.00395314
0.098938055 0.009406604 -0.15424657 -0.060238652 -0.033151526 -0.038962986 0.072563946 -0.05266279
0.05254577 -0.116636395 -0.041168094 -0.006296575 0.09075077 -0.010656029 0.051357776 0.034921438
-0.10000223 -0.00305444 -0.012949988 0.004509121 -0.1210216 -0.12339221 -0.037960187 0.024529234
-0.0628164 0.04348384 -0.11310607 -0.044465795 -0.120812565 0.10086112 -0.089037046 -0.09444824
0.058424905 -0.05936961 0.025574014 -0.04263854 -0.048260406 -0.041359156 0.12009744 -0.02898866
0.022669554 -0.084147796 -0.06868054 -0.049577937 -0.118549064 -0.121378124 -0.12363832 0.03129427
-0.08888516 -0.002392292 0.01803486 -0.044424832 0.11481826 0.068090096 0.091231465 -0.12378654
-0.0026221722 0.11479378 -0.054479152 0.038664117 -0.101900056 -0.010376811 -0.00790824 -0.005537346
-0.12251876 -0.01897496 0.079615414 0.04299687 0.09605707 -0.037110254 0.0011783242 0.07869083
-0.013149291 0.018831104 -0.11209123 -0.031519175 0.09898889 0.11485678 0.038975805 -0.06732327
0.09914149 0.04311125 -0.104074895 -0.0084160715 -0.06541352 -0.01715234 -0.05978696 0.08811915
-0.018065885 0.02809444 -0.09758133 -0.04837112 -0.057316825 0.03732744 -0.10440755 -0.047782943
-0.12428115 -0.0045679808 0.036620885 -0.10833521 -0.026064947 -0.1029647 -0.12190658 -0.02544187
-0.05569087 -0.026904419 0.0537107 0.080593646 0.031030074 -0.06946549 0.023105115 0.018283322
0.122159064 0.034801126 -0.018021554 -0.06998697 -0.012140557 -0.0117896795 -0.10818556 -0.04589957
0.048203707 0.015133217 0.022303045 0.043294877 0.054087833 -0.023158297 0.074680775 0.005670622
-0.05407852 0.057017177 0.12345259 0.03624071 0.083960995 0.015748844 -0.053282186 0.022906959
-0.036901444 -0.032890886 -0.07895371 0.100979045 -0.0898059 0.107758045 -0.034148633 0.11558266
-0.018527523 0.12360768 -0.124752924 -4.0367246e-05 -0.118836656 -0.06081544 -0.004089713 0.08773029
-0.050909042 0.10760392 0.024171457 -0.0022105873 0.12449743 -0.07457639 -0.024458095 0.07789469
-0.089554936 -0.11934909 0.09608038 -0.10054584 0.008259982 0.11221379 0.073057115 0.041550487
0.022782832 -0.04557468 -0.01838474 -0.115260184 0.0066763014 0.067640215 0.08768724 -0.07682024
-0.052743554 -0.021055043 0.017935097 0.049105346 -0.006190777 -0.025927871 -0.12073065 -0.10948321
-0.044706106 -0.040337384 -0.033365726 0.041316733 -0.11554366 0.07486194 -0.06145321 -0.06200525
0.07290071 0.039413378 -0.060112804 -0.0038691312 -0.0147001445 -0.0073899925 -0.0507026 0.006001726

conv1.nn.0.bias f4 [64]
00000000: 04ea c9bc 0429 d93d 508d 1c3d 2c9b 773d
00000010: cd8e f63d b452 c6bd a7f4 d03d 84c9 7d3d
00000020: 1e00 0abe 887c fbbd 746c 9a3d e514 3fbd
00000030: b858 c2bc 3f70 a03d 626a b4bd 372f bd3d
00000040: 9d18 853d 2eaf 01be 1798 21bd 7d35 a33d
00000050: 70ab 1b3c 7144 c23d 40ae c03d c739 0a3c
00000060: 9394 d1bd 5fd6 f03c 501d 753d 922c bdbd
00000070: b42f f73d 348c 9bbc afcf b5bd 2358 833d
00000080: b197 7fbd 58c5 dd3b e5dd 95bd 013a e43a
00000090: 9bf2 453d 5307 d83d e08b 9f3c 8072 833d
000000a0: 0c47 f03d 2cfc ea3d a0e4 823c 5f1e 04be
000000b0: c605 babd 33df 76bd 033c 963d 609b 3b3d
000000c0: d8aa 22bd a670 f63c fe7b 773c 1267 a9bd
000000d0: 0000 ebb7 a838 afbc 2f42 713d b527 b03d
000000e0: 3ed6 cbbd 018a a4bd 67ca 933d d039 393d
000000f0: de43 43bd 3ffb e83d 2e7d 18bd 0e16 7c3b
-0.02464772 0.10603526 0.038220704 0.060450718 0.12038956 -0.09683743 0.10202914 0.06195976
-0.13476607 -0.12279612 0.07540217 -0.046650786 -0.023723945 0.07833909 -0.088093534 0.09237521
0.06498835 -0.12664482 -0.039451685 0.079691865 0.009501323 0.094857104 0.094082355 0.008436627
-0.102334164 0.029399095 0.059842408 -0.09237017 0.120696455 -0.018987752 -0.08877503 0.06413295
-0.062400524 0.00676791 -0.07317714 0.0017412306 0.04832707 0.10548272 0.019475877 0.064183235
0.11732301 0.11473879 0.015978158 -0.1290221 -0.090831324 -0.060271453 0.07335665 0.045802474
-0.03971371 0.030083012 0.015105246 -0.08271612 -2.8014183e-05 -0.02138932 0.05890101 0.086013235
-0.09952973 -0.08034135 0.072163396 0.04522115 -0.047672145 0.113760464 -0.037228756 0.0038465294

conv1.nn.2.weight f4 [64, 64]
00000000: 5693 893d 2078 223c 08c6 893c 880c dcbd
00000010: 0b26 b1bd c306 83bd 2b2b ba3a 044a 4ebd
00000020: 37bb 0b3c acb4 7d3d 7ea0 7f3d 1b26 3a3d
00000030: 08cb 813d 75b8 04be 1eb6 80bb 8691 833d
00000040: 2a08 673d 6015 c53b 098d 36bd 3c5e 4b3d
00000050: ba07 fabd 3130 0abc 5ba4 fbbc 91cb 80bd
00000060: 7004 3b3a 9c58 023e d49b cc3d 7c0c e6bd
00000070: fc88 2ebd acec 703d a5b2 733d 7513 6dbd
00000080: 7cd2 0bbe 1f11 98bc 2fbc 49bd 8172 823d
00000090: 2549 05be ca7b f13d f8ce d13d af54 4a3e
000000a0: fd61 e53d 3467 963d d8a5 563d 29b0 49bd
000000b0: 78b2 d53c b37d 813d 0c77 263d 985d 853c
000000c0: 58f5 f33c 31ee e5bc c85a 95bd 408b c2bd
000000d0: 484f b63d 004f ebba c9e0 cc3c d58e adbd
000000e0: acfc 053d 8aa2 abbd b669 973d 7a06 a5bd
000000f0: 1c36 cdbd 0c7a e23d 3c57 143d 298f 7abd
00000100: 12f2 b5bd d811 be3d d0da febc 0ebd a5bd
00000110: 890b 563d 0eaf 843d 65d1 013e bc92 a0bd
00000120: 3948 e73d 7989 8ebd f296 81bd bd9e e13d
00000130: e8f5 eb3d 9672 403c 01b3 31bb bb70 903d
00000140: 5f59 f23d a42a 763d 568e 943c 54f3 db3d
00000150: 1026 383c 5130 813d 8882 053d 3fca 62bd
00000160: 8272 763d 6321 d23d 08b2 f5bd 3661 b43d
00000170: c8d9 3abd 82dc 00be edff c2bd e6d1 a13c
00000180: 7b64 b93d 3638 413d 3701 a23d e603 aebc
00000190: 574d 2ebc 00a8 3d3d 40e5 f03d 6b77 33bd
000001a0: b17e a9bc 28ef ac3c cc6e 5dbd 7f71 b0bc
000001b0: c887 0d3d 6adb 9fbd 6d76 18bd 18b0 8ebc
000001c0: a0ba f2bb f804 4ebc d5eb b2bd f42e bdbd
000001d0: c031 c5bb 18d2 d7bc bd3f 85bd d35f ca3d
000001e0: 405d 8abd 7b1e d13d 395c 8f3d 1ecb 9b3d
000001f0: 2cf2 a13d 4947 813d 4764 b5bd 9193 b43d
00000200: 7653 0abd e816 d13c a0dd e0bc 00aa 623c
00000210: 0f24 483d 30df 9f3d d425 f83b 60d5 08bd
00000220: 1e94 c1bc 9c5b 73b9 5036 42bd b264 d23d
00000230: d29d 85bd 409a bd3d 33a2 e9bd 6094 ed3b
00000240: 465b 80bd 52b1 b9bd d84c 1e3d 9128 62bd
00000250: 90bf acbc c551 63bd 2685 8d3d c4c9 38bd
00000260: b3f8 bebd 226f bdbd a420 c6bd 603a f63b
00000270: 0051 5b3c e5e9 b7bd 423f 64bd d7ad 3b3d
00000280: 859d 6b3d d649 92bd 691f fbbc 24dc ba3c
00000290: e01c ed3d 0c70 a23d 286a fdbc 265e c53d
000002a0: ac70 f9bd 3cc5 d03d f045 c83c e07a b33b
000002b0: f0ac 44bd 4a72 8abd 4cb0 f33d 04da 413d
000002c0: a014 5dbc a2b4 8b3d fc82 e2bd b642 fd3d
000002d0: 9cc4 413d d6e9 f23d 909a 7ebd 45b7 0dbd
000002e0: fcd4 163d b812 bb3c 9215 debd ea6f b33d
000002f0: a6ea f23c 77e3 4cb7 c86d 9b3c bcb5 6b3d
00000300: a89d 4e3d f63b a83d 68a6 d33c 6ef6 d7bd
00000310: 12ca 023e 01fd bd3c 5bde ba3d 0027 0fba
00000320: 8b97 a83b 5b19 32bd 4a43 d93d 0c75 edbd
00000330: 94cf 873d 4efe b9bd 7264 c63d ac5b eabc
00000340: 7246 f0bd 4158 463d 4d27 bdbd 9982 fdbd
00000350: 406a 7cbd 5415 ddba 2698 983d 2ce0 a7bc
00000360: 11d5 dbbd 17a0 5d3c bc6f b73d fbf2 ba3d
00000370: 6cc7 eabd e491 c2bd bdb7 5a3d fe5f 98bd
00000380: 5fb7 b5bd 20e5 c0bc c32d ae39 c394 e33d
00000390: a870 653c fe9d 6c3d 8c09 0abd 62a7 f33d
000003a0: fba0 ed3d 8c28 0e3d 14a4 cabd 0729 0e3c
000003b0: 4cf3 263d 513e e03d e87d 79bd 340d b93d
000003c0: fcdd 07bd 58c9 1d3d 6984 f6bd 8806 e2bd
000003d0: 24ea 2cbd 70bc 59bc 2a13 f83d 248e cb3d
000003e0: dc1c 95bd ccb2 3b3d b001 de3d d8db 933c
000003f0: a2fa 523d a5d8 363d 12ff 1abd 36f2 c7bc
0.06717555 0.009916335 0.016818061 -0.10744578 -0.08649834 -0.06397774 0.0014203539 -0.050363556
0.008528522 0.06193988 0.062408917 0.045446496 0.06337553 -0.1296099 -0.00392796 0.06424241
0.05640427 0.006014511 -0.044568095 0.049650416 -0.12208505 -0.008434341 -0.03071802 -0.06288827
0.0007134145 0.12729114 0.09990659 -0.1123285 -0.042611107 0.058819458 0.05949654 -0.057879884
-0.13654512 -0.018562851 -0.04925173 0.06369496 -0.13016184 0.11791189 0.10244554 0.19758867
0.112003304 0.07343903 0.052404255 -0.049240265 0.026086077 0.06322803 0.040640876 0.01627998
0.029780075 -0.02806768 -0.07292706 -0.09499216 0.089018404 -0.0017952621 0.02500953 -0.08474509
0.03271167 -0.08380611 0.0739321 -0.08057876 -0.10020086 0.11058435 0.036216006 -0.061171684
-0.08884062 0.09280747 -0.031110197 -0.080927 0.052257095 0.064787015 0.12677534 -0.07840487
0.11293072 -0.069598146 -0.06327619 0.11016605 0.11521512 0.011746069 -0.0027114751 0.07052752
0.118334524 0.06009926 0.018134277 0.107397705 0.011239544 0.06308044 0.032595187 -0.05536866
0.060167797 0.10260274 -0.119968474 0.08807604 -0.04561785 -0.12584117 -0.0952147 0.019753408
0.09052368 0.047172748 0.07910388 -0.021242093 -0.010638556 0.046302795 0.11762476 -0.043815058
-0.020690294 0.021110132 -0.054060742 -0.021538494 0.03455332 -0.07805522 -0.037222315 -0.017417952
-0.0074075013 -0.012574427 -0.08736388 -0.09237471 -0.0060178936 -0.026345298 -0.06506298 0.09881558
-0.06756067 0.10210892 0.07000012 0.07607101 0.07907519 0.06312425 -0.08857017 0.088172086
-0.033771 0.025523618 -0.027449429 0.0138344765 0.048862513 0.078062415 0.007572869 -0.033406615
-0.023630198 -0.00023208413 -0.047415078 0.10273112 -0.065242425 0.092579365 -0.1140789 0.0072503537
-0.06267409 -0.09067024 0.038647503 -0.05521447 -0.021087438 -0.055497903 0.06910162 -0.045114294
-0.09324779 -0.092497125 -0.096741945 0.007514283 0.013386011 -0.08980159 -0.05572439 0.045820083
0.05752327 -0.07142989 -0.030654626 0.02281005 0.11577773 0.079315275 -0.030934408 0.09637098
-0.121796936 0.101938695 0.024447411 0.0054772943 -0.04801649 -0.0676008 0.1189886 0.047327057
-0.013493687 0.06821562 -0.110601395 0.1236624 0.047306642 0.11861007 -0.06215912 -0.034598608
0.03682421 0.022836074 -0.10843958 0.0876158 0.029652905 -1.2212308e-05 0.018973246 0.057546362
0.05044332 0.08214562 0.025836185 -0.105450496 0.12772396 0.02319193 0.09124442 -0.00054608285
0.0051450185 -0.043481212 0.106085375 -0.115945905 0.06631389 -0.09081708 0.09687127 -0.028608166
-0.117321864 0.04842401 -0.09236012 -0.12378425 -0.061624765 -0.0016867318 0.07450895 -0.020492636
-0.107339986 0.013526938 0.089568585 0.09128376 -0.11463818 -0.09500483 0.053397883 -0.07440184
-0.08872866 -0.023546755 0.0003322196 0.111123584 0.01400391 0.05776786 -0.03370051 0.1189716
0.1160297 0.034706637 -0.09894577 0.008676774 0.04075937 0.10949386 -0.06091109 0.090357214
-0.033170685 0.038522094 -0.12036974 -0.11036402 -0.04221548 -0.013289556 0.1211303 0.099392205
-0.07280895 0.04582481 0.108401656 0.018049166 0.051508553 0.044640202 -0.03784091 -0.024407487

conv1.nn.2.bias f4 [64]
00000000: 694e f7bc 1bb6 b23d 2e3c 92bd 531d 0a3e
00000010: 0d0e d43d a844 6dbd 3f4d e13d 5b85 10bd
00000020: 775a 8e3b 55cb a33c d1da 9e3d c238 323e
00000030: c9fe 883d c674 2a3d 146e fc3d 9082 f2bb
00000040: 6ecb 923d b1ad 2f3d 5ca9 ea3c 27aa 97bc
00000050: ee23 99bd 5662 9ebb 0010 efbd dcfa 163e
00000060: 730a 0dbd 5b85 0dbe f10c ef3c 8e34 b93d
00000070: 5af2 49bd 9eb6 cabc 2602 d6bd 0053 d13c
00000080: 151f e0bd edff 773d 3209 a23d 1fa4 6ebd
00000090: 8189 bfbd e5ee 03bd f44a d43d 1b36 bf3e
000000a0: 5a2e 38bd c1b2 413d 53b9 a0bc 2ffa bdbc
000000b0: 7055 84bc d89e 18bd 71c4 c5bd ef28 be3d
000000c0: 2230 b63d c264 27b8 e4e7 31bd 1dcd e93c
000000d0: bab0 9dbd 402e 283c 4c34 dcbd 2a81 1bbd
000000e0: c193 0cbe c7af 043e 4bcf a1bd 4844 fdbd
000000f0: 475b cb3c a732 0cbd 1fd8 aabc e969 b3bd
-0.030188756 0.0872614 -0.071403846 0.13487749 0.103542425 -0.057926804 0.11001062 -0.035283428
0.0043442803 0.019994417 0.0775658 0.17404464 0.066892214 0.04161527 0.12325683 -0.007400818
0.071677074 0.042890254 0.02864521 -0.018513752 -0.07477556 -0.0048335 -0.11672974 0.14744133
-0.034433793 -0.13820402 0.029180976 0.09043227 -0.04930339 -0.024745282 -0.104496285 0.025552273
-0.109434284 0.060546804 0.0791191 -0.058261987 -0.09352399 -0.03221025 0.10365859 0.37345967
-0.04496608 0.047289614 -0.01961962 -0.023190586 -0.016154021 -0.03726086 -0.09656609 0.09285151
0.08895899 -3.990974e-05 -0.04343404 0.028540188 -0.076997235 0.010264933 -0.10752162 -0.037964977
-0.13728239 0.12957679 -0.07900866 -0.12366539 0.024823798 -0.034227993 -0.020855008 -0.08760435

conv1.lin.weight f4 [64, 7]
00000000: 6701 7abe 1769 993e 168b 5a3e f075 5e3d
00000010: f89f bb3e 6055 acbe 1324 b73e 88c7 1dbe
00000020: 775a aabe a34e 1cbe 164f bbbc 2809 5fbe
00000030: f077 b33e fc0c 343d 61b3 babe 4829 513e
00000040: 97ff 9bbc 2e25 89bc c661 973d 5bd9 aa3e
00000050: b1d8 0e3e 6c41 d43d 2b34 95bd b054 453e
00000060: 0a94 0abe ecd6 a4be 3828 44be cfb5 8dbe
00000070: b191 013e 6388 5c3e a03c 5d3e 29eb 7fbe
00000080: ce6e 983e 0680 673e 1abe d3be 7506 823d
00000090: 4aa3 a03d 8e45 b8bd 8743 cdbd 9ea8 8fbe
000000a0: 3b10 70be d18d b9bc 67f7 20bf 2896 033d
000000b0: 0ec4 de3d d636 533e 4fd4 59bf 23fb ad3d
000000c0: 759b 713e d305 8d3c 577c d7bd 39b4 afbe
000000d0: a8be 9c3d 91f3 143e e8b5 87be 6f97 6e3e
000000e0: 0151 153f 5c04 c73e 7152 e33e 610e 953e
000000f0: e82a a3be 6398 783e 70fe 0dbe 135f c23e
00000100: f247 b83c 7782 80be 669c 81be c4b9 75bc
00000110: c609 ffbd b959 13be 9a76 9b3e 5c5f 9b3e
00000120: 602a cf3e 24a2 d3bc a6b4 c13e 0dfd 80be
00000130: 22e1 a03b fb24 1bbe c495 a9be 84f3 c0bd
00000140: 4a33 96be 6b9f cd3d 3249 ce3c f1f7 27be
00000150: 9c3e 0fbd a93f c1be 6d2d 8d3e 0420 c3be
00000160: a71a 913e 0302 d5be d48f bcbc 6606 983e
00000170: 18b3 0b3e 5e81 0c3e 639f 933e dcb5 c1bd
00000180: 9f40 3dbc 4b9d 5e3c d2cf d63d ddd0 d73c
00000190: 3ef8 e23d e14e 643e 4dde 2abe a81a 3fbe
000001a0: f989 78bc dde1 82be c9b6 8dbe c9d4 8b3d
000001b0: f269 3b3e 7af9 fdbd d893 24be f9a1 2f3e
000001c0: 59bf 5fbe ce58 b73e f297 4a3e c282 84be
000001d0: 2c95 74be ee46 04be a31c 9e3d a047 483e
000001e0: 3cc3 123e b6ae bdbe f6d7 d6bc 994a 5abe
000001f0: 7dbc 603e d297 5dbc 3861 d03c 4eac 773d
00000200: 7438 b0bd d482 903e 7379 403e 76c5 1cbe
00000210: 905c cd3c a887 a5be 41c9 553a 614b 183e
00000220: a97f 613e ad87 0fbe 8618 63be ea48 ac3e
00000230: 2dc9 85bd bd94 a13e 63b0 fa38 551a e4bd
00000240: 219c 68be 227e 61be 0d25 cd3d c030 80be
00000250: bdd6 0b3e e0d3 9c3e 0fca 29be ecd6 283e
00000260: 3560 8b3e cb37 efbd 83cd a43e 0b50 30bd
00000270: 35a2 76ba c629 933e 6df5 b73e 8106 0ebe
00000280: 085a aebe 8759 233f f947 eb3e 9741 87be
00000290: f10b 5e3e f444 d53d ad9e edbe ca22 12be
000002a0: 56b9 363d a1d6 d03e 227c 9c3e 9fec 1b3e
000002b0: 6e1a 353e 8b07 b33e f73e b63e 24d0 3b3d
000002c0: 009b 243e 81a6 dc3e dc7d ad3d 7c6d 123e
000002d0: b5f3 02bd 6b92 eb3e 9261 983d e826 4cbe
000002e0: f96a 9d3d aeaf 0bbe bfbc 68be 540e 533e
000002f0: ca5c 563e fe9b 933e 1c8c a1bd d4b3 853d
00000300: 0a59 2abe 0e89 a7be 5f1b 7b3d f647 4c3e
00000310: dbfa 033e 3a4f 133e f72f a6be 1441 acbe
00000320: dce1 7ebd 7de0 00be da72 35be 6086 bcbe
00000330: dea2 6ebd fb4c aebe 0716 513e a585 c3be
00000340: 33f7 bb3c bdd2 4f3d eb35 b63e b2f5 4bbe
00000350: 3e99 5d3e 227b 793e 585f 8f3e f3fb b4be
00000360: 1da0 af3d f89b 363e b38d aebc 8d64 c03d
00000370: fe59 623e 8577 b53c de59 843d 6d78 05be
00000380: ee75 8c3d 2e41 98bd 64ed a2be 0e93 b33e
00000390: c688 6d3d eedf d13d 7140 f7bd f22c 8ebe
000003a0: d7c7 6ebe 0a28 b83e 2e54 b63d f90a ac3e
000003b0: a315 32be f9e3 54bd aeba 8dbe 6a33 9cbd
000003c0: c243 1e3e 9e18 9dbe 1dc0 d83c 2bae a63e
000003d0: c3bd 59be e43d a4be ae6c af3e 8003 1d3e
000003e0: eb7a 9bbd 6988 babe 9fcd debc 0ae2 833e
000003f0: 19a5 aebd 2dbc 813d 52e7 b33e 2dcd 8bbe
-0.24414597 0.2996299 0.2134212 0.054311693 0.36645484 -0.33658886 0.3576971 -0.15408146
-0.33272144 -0.15264373 -0.02286486 -0.21780837 0.35052443 0.043957695 -0.3646498 0.20425904
-0.019042773 -0.016741361 0.07391696 0.33368954 0.13949849 0.10364041 -0.07285341 0.19270587
-0.13533035 -0.32195222 -0.19155967 -0.2767777 0.12653233 0.21536402 0.21605158 -0.2499205
0.29772037 0.22607431 -0.41355973 0.06348888 0.07843645 -0.089976415 -0.100226454 -0.28058332
-0.23443691 -0.022650631 -0.62877506 0.032125622 0.10877238 0.20626387 -0.8508958 0.08495166
0.23594458 0.017214691 -0.10521763 -0.34317186 0.07653552 0.14546038 -0.2650597 0.23299955
0.5832673 0.38870513 0.44398835 0.29112533 -0.31868672 0.24276881 -0.13866591 0.3796316
0.022495244 -0.25099537 -0.25314635 -0.014997903 -0.12453036 -0.14389695 0.30363923 0.3034619
0.40462017 -0.02583415 0.37833136 -0.25193062 0.0049096504 -0.15150826 -0.33122075 -0.09421447
-0.29336005 0.10040172 0.025181387 -0.16403176 -0.03497182 -0.3774388 0.2757372 -0.38110363
0.28340647 -0.41603097 -0.023017801 0.29692382 0.13642538 0.13721225 0.2883254 -0.09458515
-0.011551051 0.013587306 0.10488857 0.026344711 0.11082505 0.22295715 -0.16686364 -0.18662512
-0.015169614 -0.25562945 -0.27678517 0.06827695 0.18302134 -0.124010995 -0.16072023 0.17151631
-0.21850337 0.3580994 0.19784525 -0.2588101 -0.2388503 -0.12917683 0.07720306 0.19558573
0.14332289 -0.37047356 -0.026226025 -0.21317519 0.21946903 -0.013524966 0.025436983 0.060467057
-0.086045176 0.28224814 0.18796329 -0.153097 0.025068551 -0.3233006 0.00081552943 0.14872505
0.22021355 -0.140166 -0.22177324 0.3364938 -0.06532512 0.3155879 0.000119537835 -0.11137835
-0.22715808 -0.22020772 0.100168325 -0.25037193 0.13656135 0.30630398 -0.16580985 0.16488236
0.27221838 -0.116805635 0.32188043 -0.043045085 -0.0009408326 0.28742808 0.35929433 -0.13869669
-0.34053063 0.6380848 0.45953348 -0.2641723 0.21684243 0.104135424 -0.46410123 -0.14271083
0.044610344 0.4078875 0.30563456 0.15226983 0.17685863 0.34966692 0.35594913 0.045852795
0.16074753 0.43095782 0.084712714 0.14299577 -0.0319707 0.46010146 0.07440485 -0.19936717
0.07686419 -0.13641235 -0.22728251 0.20610934 0.20933834 0.2882995 -0.07888052 0.0652844
-0.16635528 -0.32721752 0.0613054 0.19949326 0.12888663 0.14385691 -0.3245847 -0.336434
-0.062227115 -0.12585635 -0.17719594 -0.3682127 -0.05826079 -0.34043106 0.20418559 -0.381879
0.022945022 0.050738085 0.3558801 -0.19917944 0.21640489 0.24363378 0.2800243 -0.35348472
0.08575461 0.17832935 -0.021307802 0.093941785 0.22104642 0.022151718 0.06462453 -0.1303422
0.06858431 -0.07434307 -0.3182174 0.3507313 0.057991765 0.10247789 -0.12072838 -0.27768666
-0.2331842 0.35968047 0.08902775 0.3360212 -0.17391066 -0.051975224 -0.27681488 -0.07626994
0.15455535 -0.30682844 0.026458794 0.32554755 -0.21263795 -0.3207847 0.34262604 0.15333366
-0.07591804 -0.36432198 -0.027197657 0.25758392 -0.08527584 0.0633472 0.3513742 -0.27304974

conv1.lin.bias f4 [64]
00000000: 8f9d 23be 932d a53e 7ede 4bbe b35d b13e
00000010: 1897 54bd c5cc 863e 3acb 2b3e 81b0 3e3e
00000020: b5d8 3e3e 2e2d dc3d 6c95 b83c 913d b33e
00000030: 26b3 2c3e d5b0 763e fd2c 503c 8e3b aebd
00000040: 0372 a83e 8420 b13d 1564 743e 75db 5fbe
00000050: 652f 4dbe 23a7 553e 79be 93be 9ce3 e13e
00000060: 6faa ae3e 29ff 403d e71f 38bd 6d96 3b3e
00000070: 2cc5 a43e 6646 853e 48ee 8b3e 502e 6dbe
00000080: 247b dcbd 1701 923e 0b44 babe 384b a13e
00000090: 3f7d fdbd 05d6 7c3e 8e50 5bbe 3385 dbbd
000000a0: fa93 9f3e 93c7 ddbd 717c 26be fd06 9c3e
000000b0: 226a 2d3e 2c9d 91be 9f10 3c3d 5276 98be
000000c0: 4322 aabe ca78 b9be 8e5f 82bd f8cb a2be
000000d0: 266d 5f3e 2d4e 673d b7fa 0dbe f9a1 91be
000000e0: 2cd3 63be 5d0f 953e 168a b63d 926a 51be
000000f0: dde6 e13e 55d4 833c 5a96 713d 1e7b d43d
-0.15978073 0.32261333 -0.19909093 0.346418 -0.051901907 0.26328102 0.16776744 0.18622018
0.18637355 0.10750805 0.022532187 0.3500791 0.16865215 0.24090894 0.012706039 -0.08507453
0.32899484 0.0864878 0.23866303 -0.2186106 -0.20037611 0.20864539 -0.28856257 0.44118965
0.34114406 0.04711834 -0.0449523 0.18319102 0.3218168 0.26030272 0.27330232 -0.23162198
-0.10765675 0.28516456 -0.36380038 0.315027 -0.123774044 0.24691017 -0.21417448 -0.10718765
0.31167585 -0.108290814 -0.16258408 0.30474082 0.16935018 -0.28440225 0.04591429 -0.2977777
-0.33229265 -0.36224967 -0.06365882 -0.3179624 0.2181898 0.05647104 -0.13865171 -0.28443888
-0.22248524 0.29113284 0.089130566 -0.2045081 0.44121447 0.016092459 0.058981277 0.10375045

conv2.nn.0.weight f4 [64, 64]
00000000: 46de 4e3b 8c8a a93d 2168 acbd 877e 03bc
00000010: 3abf adbc 8dce 3d3e 6899 203d db82 06be
00000020: 9b86 c8bd c91f 0fbd 7c33 d03d 5dec 81bc
00000030: d2d3 ba3d 554a db3c ea49 07bf 58c9 263e
00000040: 0baf ccbd 1c05 12bd 0cf6 b0bd 6e08 cdbe
00000050: 91c4 d13c bbc0 e33c 36ae f1bd 89f8 87bd
00000060: 29d6 103d 96fb a33d 55fa 923d 6ef6 5abd
00000070: 9896 afbd 08eb d03b a836 81bd de17 ccbd
00000080: f007 01be d5bc a03d 2466 243d 676f dc3d
00000090: 3c50 a2bd 6e38 ea3c e4fe b5bd 8089 1e3e
000000a0: a699 cb3d 11f0 943d 030e af3d d7c8 723d
000000b0: e618 70bd fa0c 93bd 55a6 ac3d 0e2f 63bd
000000c0: 023a 3ebd 4914 91bd bf81 f63d 6de3 8c3d
000000d0: 4f59 0e3e 7136 5a3d 24d0 e53b 73e5 d43d
000000e0: 72bd 14be 14aa e6bd a0ad 613d 74b5 4f3e
000000f0: 3674 b23d 814f 093d fb54 8ebd 2d45 803c
00000100: 4314 6d3e 85f1 d63b 1e91 a5bd 710a 833d
00000110: 3257 dd3c 31fa c03e b60f 83bc 9d1a 3e3e
00000120: 52d3 c03c 44e3 553d 01e4 a33b 396b c0ba
00000130: b6e0 f23d 2a95 9abd de36 aabd 8581 e23d
00000140: ac92 b63d c238 613e d075 7f3d 043b f43d
00000150: 5f8b 05bd 0dcc bc3d 5fb3 4fbd 8058 be3a
00000160: 41e0 5e3c b752 65bd 061b 21be c030 3f3d
00000170: c44e f0bd 1362 b43d f36f 683c 67bd 9e3c
00000180: 2650 64bd 3aa6 93bd 8a95 e73c 6dc3 acbd
00000190: 7c43 6c3c 6ebc a53d 9273 b73d 5d8e 163d
000001a0: 2a9a 803d cfbd 303d 65d2 babd 7a59 c5bc
000001b0: 24d8 623e b009 793d f640 5dbd b203 e33d
000001c0: cc42 f63e c8b9 bd3d 2740 adbd b600 c5bc
000001d0: c040 fb3d a830 15be 619f c5bd c4db 8dbc
000001e0: 911e 83be c10b 963d c206 c93d f6c7 af3b
000001f0: c3d5 11be 12b3 9b3d e6b2 a6bd 748a b4bc
00000200: d4dd cf3e 4568 a33d 4416 193e 7700 4dbe
00000210: a238 c6bd d6bf 71bd fc7b fabd 9adf 51be
00000220: 5788 89bd 9245 e33d 522e 1b3d 0cfd 833d
00000230: 6d4c ff3d d99e c4bd 7b52 83bd ccaa 783e
00000240: 2bfc 2c3d 5219 d0bd 71c3 c33c c79b 903e
00000250: ee98 61bd c1e3 b03d 81b1 04be 2772 3c3d
00000260: 3b72 4bbd 5d0a 303d 101d 05be 3f95 17bd
00000270: f889 593c 9cf8 29bd ae3f f93c 50ff bebc
00000280: 4029 843d 97f6 1fbd 6603 d63c 590a 95bd
00000290: a0e0 aa3d 2462 80bd 4145 42bd 94ce e43d
000002a0: 6aaa ae3d 8944 3e3d 123c 03bd 8066 e2bd
000002b0: 22bf f7bd c843 1d3d 24e1 b2bc 46c0 923d
000002c0: 3252 c33e de7e 4cbd c079 b6bd a4e6 a83c
000002d0: 2ddc 0e3d 295e 3ebe 9552 eebc c095 02be
000002e0: 53fe 0bbd 5045 93bd 9c88 c73d 51ce 853d
000002f0: b784 a7bd 7919 10bd 74c8 90bd c4bf 78bd
00000300: bf5c fbbd d9d0 d63d 059d eb3d 86a9 aabd
00000310: ee62 2c3d 795b d3bc 11e4 fbbd f247 75bd
00000320: d5fb 3abd 8c89 4bbc 61be d5bd 12e5 c8bb
00000330: 29fa 2c3d fc2d 6ebd 939a 823c b96e f9bc
00000340: ef02 d3bd c587 71bd 3728 ea3b 14f4 40bd
00000350: ef87 57bd b37b 7abd cbba 943c aa06 083d
00000360: a1f4 e3bd 6ce3 9b3c fca9 953d 3181 ea3d
00000370: dc46 debd 726a 01be 54f8 c6bd c9f6 63bc
00000380: 9444 c3bd 40cc 4abd 6384 263c f27c d0bc
00000390: b470 af3d 0329 253d 582e 0fbd cb26 2e3e
000003a0: f140 aa3d e314 7fbd 2f40 943c fb37 46bc
000003b0: c894 0b3c eb05 f7bc 5fad 0d3d 440e 9a3d
000003c0: 4fec 12be 74f7 8dbd 3659 923d 7605 c33c
000003d0: 0218 5b3d b053 f0bc f60d c8bd 4657 a13c
000003e0: 3c8c 5fbd 81b1 183d f0e7 143d 72b2 22bd
000003f0: b2fa a6bd 0d2f 373d 645e a63d fb10 7ebc
0.003156559 0.08278379 -0.084182985 -0.008025772 -0.021209348 0.18535824 0.0392088 -0.13135855
-0.09791299 -0.034942422 0.1016607 -0.015859777 0.09122433 0.026768843 -0.5284716 0.16287744
-0.09994324 -0.035649404 -0.0864068 -0.40045494 0.025606425 0.027801862 -0.11800806 -0.06639201
0.03536049 0.080069706 0.07176653 -0.05345767 -0.08573645 0.006375674 -0.06309253 -0.0996549
-0.12600684 0.07848517 0.04013647 0.10763436 -0.0792546 0.02859136 -0.08886507 0.1548214
0.099414155 0.072723515 0.085475944 0.059273567 -0.058617495 -0.071802095 0.08430163 -0.055464797
-0.04644204 -0.07083947 0.12036466 0.068793155 0.13901256 0.053274576 0.0070133377 0.103953265
-0.14525393 -0.112629086 0.055097222 0.20284063 0.08713572 0.033523086 -0.069498025 0.015657986
0.2315226 0.006559553 -0.080843195 0.06398476 0.027019117 0.3769088 -0.015998702 0.1856484
0.023538265 0.05221869 0.0050015454 -0.0014680392 0.118592665 -0.07547982 -0.08311246 0.1105986
0.08914694 0.21994308 0.062368214 0.11925319 -0.032603618 0.09218607 -0.05070817 0.0014522225
0.013603271 -0.055987086 -0.15732965 0.04667735 -0.11733773 0.08807769 0.014186847 0.019377423
-0.055740498 -0.072094396 0.028269548 -0.08435712 0.014420386 0.08092581 0.0895759 0.036756862
0.062794045 0.043149766 -0.09122161 -0.024090517 0.22152764 0.060800254 -0.05401703 0.11084689
0.48097837 0.092639506 -0.08459502 -0.02404819 0.122682095 -0.14569342 -0.0964954 -0.017316706
-0.25609258 0.07326461 0.09815742 0.0053644134 -0.142417 0.07602514 -0.08139591 -0.022038676
0.4059893 0.07978872 0.149499 -0.20019709 -0.096787706 -0.05902084 -0.122306794 -0.20495453
-0.06715458 0.11097254 0.03788597 0.06444749 0.12465749 -0.0960061 -0.06412216 0.24283904
0.042232674 -0.101610795 0.023896905 0.2824385 -0.055077486 0.086371906 -0.12958337 0.0460073
-0.049669486 0.042978633 -0.12999368 -0.037007567 0.013277523 -0.041496858 0.030425873 -0.023315102
0.0645318 -0.039053526 0.026124667 -0.07277364 0.08343625 -0.06268719 -0.047429327 0.11172214
0.08528598 0.04645208 -0.03203971 -0.110547066 -0.120970026 0.03839472 -0.021835871 0.071655795
0.38148648 -0.049925677 -0.08909941 0.02061779 0.034877945 -0.18590607 -0.029092113 -0.12752438
-0.03417809 -0.07190955 0.09742853 0.06533492 -0.0817961 -0.035180543 -0.070694834 -0.060729757
-0.12273549 0.10489053 0.115045585 -0.08333115 0.042086534 -0.025800453 -0.122993596 -0.059883066
-0.045650322 -0.01242293 -0.104367025 -0.006130823 0.04223076 -0.058149323 0.015942847 -0.030448304
-0.10303294 -0.05896737 0.0071459073 -0.04710777 -0.05261987 -0.061153125 0.018155476 0.03320948
-0.11130644 0.019029342 0.073078126 0.114504226 -0.10853359 -0.12638262 -0.097153336 -0.013913819
-0.095345646 -0.049511194 0.010163399 -0.025450204 0.08566418 0.040322315 -0.034956306 0.17006986
0.08313168 -0.06227578 0.018097011 -0.012098308 0.008519359 -0.03015419 0.034589168 0.07522252
-0.14347957 -0.069319636 0.07145922 0.023806315 0.053489693 -0.02933678 -0.09768288 0.019694936
-0.054577097 0.037278656 0.036354005 -0.03972096 -0.08153285 0.044722605 0.08123472 -0.015506978

conv2.nn.0.bias f4 [64]
00000000: 7817 eb3d 3338 ecbc 5496 4a3d dbd5 413d
00000010: 13bc 84bd ba9b 003e bfc3 773d 2127 5cbd
00000020: 92cd c8b9 a9e2 993c 2c8a 2dbe b073 47ba
00000030: e60a 67bd dd44 16be 41a7 b7bd 6c64 08bd
00000040: aa22 0abe 6f8d d1bd cb7a 03be ae53 e23c
00000050: 3f89 20bd 01a3 edbd a901 95bd c788 f33c
00000060: a243 24bd 71c3 7a3d 7f3d 09bd 71f8 d2bd
00000070: d0f3 9b3d 95b8 ab3d 36f6 64bc a24f 8fba
00000080: 7f18 0bbd 6d50 11be f3ab 0fbe 19a5 2a3d
00000090: 713a 91bd ce95 af3c 7c87 cabd 382a 453e
000000a0: c961 853d f5bb 3dbd 31db 58bd 4c13 f1bd
000000b0: 9fcf fe3c 2607 29bd f6a7 a03c ddbf a53e
000000c0: 9c0d 573d f85f 87bc 1457 5cbd 2fcb a13d
000000d0: ba9e 85bc 823b 4abd 8209 66bd d288 033d
000000e0: 2f34 a43d 4485 943d 0620 5bbc f9a7 a73e
000000f0: 2e43 753e 1cd5 be3d 0730 03ba e814 10bb
0.11479086 -0.028835392 0.04945977 0.04732309 -0.06481185 0.12559405 0.060489412 -0.053748254
-0.00038300134 0.018784838 -0.1694724 -0.00076084863 -0.056406878 -0.14674707 -0.08967448 -0.033298895
-0.13489786 -0.102320544 -0.1283981 0.027627792 -0.039193388 -0.11603356 -0.07275707 0.029728306
-0.040103562 0.061221544 -0.033505913 -0.10301293 0.07614863 0.083848156 -0.013974717 -0.0010933767
-0.03395891 -0.14190836 -0.14030437 0.041661356 -0.07091225 0.021433737 -0.09889123 0.19254386
0.06512792 -0.046321828 -0.052943412 -0.11771259 0.03110486 -0.041266583 0.01961134 0.32372943
0.052503213 -0.016525254 -0.05379398 0.07900082 -0.016311038 -0.049373157 -0.05616141 0.032112904
0.08017766 0.07251981 -0.013374334 0.3274534 0.23951408 0.09317991 -0.000500441 -0.0021985117

conv2.nn.2.weight f4 [64, 64]
00000000: 1815 d83d b6de ebbd 58e5 2abc 17de c33c
00000010: 2e1a d83c 9f0b a9bd d255 af3d 3e4a c83d
00000020: d676 e5bd 3997 17bd c813 a43d 0092 aebd
00000030: d861 f1bd bf13 cc3d 9480 853c b4d7 a23b
00000040: 290a 823c b065 a1bd a3f6 dfbd 4b50 8d3d
00000050: 7475 4a3c 09c6 75bd 9f0d f7bc b610 2b3c
00000060: 1920 ac3d e50a eabd afdd e93a 77c0 2d3c
00000070: 73aa e0bd bf7c adbd 7cef adbd 30f2 ad3d
00000080: 3cea d83c 2198 983b 4be9 3b3d abdc a3bd
00000090: 2e88 53bd 3200 74bc cd5b a7bd fa18 a53d
000000a0: 876a 54bd 4df4 e33d 7d39 023d 60ca b6bd
000000b0: 06b6 e23d 5fd7 aebd 6ecf adbc 0e64 a23d
000000c0: ed5e 9cbd 7895 edbd e410 91bd 9fb6 073d
000000d0: 6ddd bc3c 5758 cc3d d42c c0bc 3e8f ff3c
000000e0: 1dd1 2a3d b20a 7ebd 1e79 333e 43d6 d53d
000000f0: 5d77 88bc 7598 283d 504c 123c 256c a13d
00000100: 73a1 f6bd 4ea2 4ebd a504 d33d f786 bcbd
00000110: cb49 103d d802 60bd 0cb0 b83d ec8f 9bbd
00000120: 5ed3 c53c 868e be3d d2bc b53d d0e2 7ebd
00000130: 2e77 ffbd 52eb a53d 549f 953c b3a4 cdbc
00000140: 1ae7 86bd c62c 113d 413a 2d3d b45f 6f3c
00000150: 7e8c a7bd 1cb9 80bd 9f24 dfba 0ac9 3cbd
00000160: 4afc 243d 3395 d43d 6961 3b3b 1210 8e3d
00000170: cf11 b53d a71f a9bd d6b6 5fbd 1995 953a
00000180: 2e96 2bbd b064 843d 65f6 f8bd e778 91bd
00000190: 61d1 be3d ca16 4e3d 56cf 83bd e529 c73d
000001a0: 694b 9b3c 4431 b13d 416c 693d da76 3abd
000001b0: b9ae fc3c b667 ca3c fea1 523d 807f 9aba
000001c0: 7a0e bb3d 1d2b e83d ca08 fa3d ba93 4f3d
000001d0: 8096 233d c5c2 8f3e a3af 09bd 80e6 813c
000001e0: 82fc 14bc cc42 25bd 6fd0 073d 3e8d 803d
000001f0: 42db 9ebd b87f 95bd 1e2f 123b ab4f babd
00000200: 736b 07bd c94d 47bd cd75 a13d 343e 7c3d
00000210: 8c71 163d e743 c23b 594b 00be cf45 ef3a
00000220: 2d95 03be e47c 48bd 9efc d53a e704 573d
00000230: e496 97bd e953 e93d 258a 563d 54ec e43d
00000240: 7572 0f3d e89d debd abd4 97bd fea2 9b3d
00000250: 6846 333d 8367 f63c a3bd 243d f168 393c
00000260: 273a 3fbd be37 93bd b5c3 753d ca55 0abd
00000270: 99d5 debd d7f5 fdbd 5a77 913d 7fb6 8cbd
00000280: 0ce7 babc a2bd 19bd 2633 04bc 1ee2 15bc
00000290: e28a d23d 164b c4bd e2ea 6abb 297e 17be
000002a0: 3fdc e73d e788 9cbd 832c 573d 0078 3e3d
000002b0: be9b efbd 99cf d0bd 0752 aebd 95a6 b93d
000002c0: 31b6 e43d 31f0 f5bd e1a4 c53b a021 433d
000002d0: 7010 1abc 510f 193d 7eb8 b5bd 837c b1bd
000002e0: 3584 7dbd e821 efbc b3fe 8c3d f7dd 9f3d
000002f0: f754 83bd bda2 303d 4435 5fbd 122b 233d
00000300: df62 f0bd 20a0 c23d d498 443d 4ad9 babd
00000310: 57fd 7b3c 575d 933d 4a6c 2d3e 3122 ab3c
00000320: 024c da3d f1c2 fe3c 7966 ffbd 1f54 f7bd
00000330: ccf4 97bd fe5d ce3c f669 0b3d 5fbd 9cbd
00000340: 8380 453d 120c 723c e6e8 dabd 1122 47bd
00000350: b33e bdbc d74f 16be dd51 a13c 2df0 c33c
00000360: 0719 c5bd a89f 893d 20b6 aa3d 8972 d83d
00000370: 2f17 e0bd c758 493d de9d e03d 063f da3d
00000380: 198f 113d 8b1c b73c deed 363d 0b75 c3ba
00000390: 9b1b e3bb cf97 8f3d 0d29 f63c 676e 9cbd
000003a0: 113e 713d ce27 c73d 933a 093e a319 d1bd
000003b0: 918a 8fbc 7518 783d 4619 f43c 7a62 2d3d
000003c0: efe9 423d 3eb5 f3bb 0640 9e3d e0a3 91bc
000003d0: 8b04 88bc e96b 243d 6ccd e4bd bcfa 953c
000003e0: b920 e83c cd32 dcbc 8b3f c4bd ebfb 8bbc
000003f0: 5f4b 47bc 6271 f2bd 46ad 003d 5d0f 303d
0.10550898 -0.11517088 -0.010430656 0.023909612 0.026379671 -0.0825417 0.08561291 0.097797856
-0.11204307 -0.03700945 0.080115855 -0.08523941 -0.1178624 0.09964704 0.016296662 0.0049695615
0.015873985 -0.078807235 -0.10935714 0.0690008 0.012357105 -0.060003314 -0.030157862 0.010440996
0.0840456 -0.11427859 0.0017842556 0.010604969 -0.109700106 -0.08471059 -0.08492944 0.08493459
0.02647888 0.004656807 0.045876782 -0.080010734 -0.051643543 -0.014892625 -0.081718065 0.080614045
-0.051859405 0.11130581 0.031793106 -0.08925319 0.110698745 -0.085371725 -0.021217074 0.0792924
-0.07635293 -0.116007745 -0.070833 0.033133145 0.023054803 0.09977787 -0.023458876 0.031196233
0.041703332 -0.06202192 0.17526671 0.10441258 -0.01665848 0.04116102 0.008929327 0.07881955
-0.12042513 -0.050447755 0.1030362 -0.0920543 0.035226624 -0.054690212 0.09017953 -0.0759581
0.02414864 0.09304528 0.08873905 -0.062228024 -0.124739036 0.081015244 0.01826445 -0.025102949
-0.06587048 0.03544309 0.042291883 0.01461022 -0.08181094 -0.06285307 -0.0017024464 -0.046090163
0.040279664 0.1038002 0.0028591997 0.06936659 0.08841287 -0.0825799 -0.054617725 0.0011412232
-0.04189127 0.06464517 -0.12156371 -0.071031384 0.093172796 0.050314702 -0.064360306 0.097247876
0.018956857 0.08651975 0.056988005 -0.045523502 0.030845033 0.024707656 0.05142402 -0.0011787266
0.091336206 0.11336348 0.12208708 0.050677992 0.03993845 0.28078285 -0.033614766 0.015856981
-0.009093406 -0.040346906 0.033157762 0.0627694 -0.07756664 -0.07299751 0.0022305916 -0.09097227
-0.033061456 -0.048658166 0.07883797 0.06158276 0.03672938 0.0059285047 -0.12528743 0.0018255058
-0.12849875 -0.04894723 0.0016325896 0.05249491 -0.07401827 0.11392958 0.05237784 0.111778885
0.035021264 -0.10869962 -0.0741361 0.07599448 0.043768317 0.030078655 0.040219914 0.011316524
-0.046686318 -0.07188366 0.060001094 -0.03377322 -0.10880584 -0.12400406 0.07102843 -0.06870746
-0.02281525 -0.037534364 -0.008068835 -0.009148149 0.10280396 -0.09584634 -0.0035845567 -0.1479422
0.113213055 -0.076432995 0.052532684 0.04650116 -0.11699627 -0.10195846 -0.08511739 0.09064976
0.11167563 -0.120087035 0.006031618 0.04763949 -0.009403333 0.037368122 -0.0887308 -0.08666327
-0.06189366 -0.029190972 0.068845175 0.07806008 -0.0641269 0.04312395 -0.054494157 0.039835997
-0.11737608 0.09503198 0.04799731 -0.09123476 0.015380225 0.071955375 0.1693584 0.020890327
0.106590286 0.031098815 -0.12470717 -0.12076592 -0.07419738 0.025191303 0.0340366 -0.07653307
0.04821826 0.014773386 -0.10688953 -0.048616473 -0.023101186 -0.14678894 0.019692356 0.023918236
-0.09623914 0.06719905 0.08335519 0.10568721 -0.10941922 0.04915693 0.10967611 0.10656552
0.03553686 0.022352478 0.04466044 -0.0014912201 -0.006930781 0.07011377 0.030048871 -0.07638245
0.05889708 0.09724389 0.1340125 -0.10209968 -0.017522128 0.0605702 0.029797208 0.042330243
0.047586378 -0.0074373772 0.07727055 -0.017778337 -0.016603729 0.040141974 -0.111719936 0.018308036
0.028335916 -0.026879692 -0.09582432 -0.017087897 -0.012163966 -0.11838032 0.031415246 0.0429834

conv2.nn.2.bias f4 [64]
00000000: 3493 1b3d 2868 f73d fcc8 16bd eca8 bc3b
00000010: 0bdc 79bd a735 88be b0a2 6bbe 9894 54be
00000020: 9f68 593d ac48 5d3d baec d63d eec4 603e
00000030: 044a 12be eba6 d5bd 9439 c5bd c867 1abe
00000040: 71e8 6e3d e051 7abe bb34 00be 4b32 333e
00000050: bd71 5b3d a75c acbb 309b e23c f4f3 213e
00000060: fafa 29bd ae37 d6bd b3cd 7e3c a097 333a
00000070: 1094 373e 8b85 12be aa50 85bd 0251 42bd
00000080: ef97 483d 14ab 82bc 3db0 d6bd 86ef 65be
00000090: 8dc6 5ebe 741c 66bd b83e 28bd a911 c73d
000000a0: ddfb bbbd 2d2b 7b3d 6624 a1bb 00c4 593d
000000b0: 80f9 6d3e 2ccb d7bd 3cd6 243c 0372 20be
000000c0: 20cb 60be a7c3 33bc fdc6 96bd dc53 25be
000000d0: 230a fbbd 2265 f03c cda4 7d3e f3b0 13be
000000e0: ef57 ad3b f290 80bd 1b96 c2bd 8a91 bfbd
000000f0: cf75 3bbd 4434 103e 80ae 42bd d069 21be
0.03798218 0.12080413 -0.036812767 0.0057574417 -0.061000865 -0.26603433 -0.23011279 -0.20759809
0.05307829 0.054024383 0.10494371 0.21950123 -0.14286047 -0.10432228 -0.09630123 -0.15078652
0.058327142 -0.24445295 -0.12520115 0.17499654 0.053575266 -0.0052600685 0.02766189 0.15815717
-0.041499116 -0.10459839 0.015551972 0.0006850902 0.17927575 -0.14308755 -0.06509526 -0.047440536
0.04897302 -0.015950717 -0.104828335 -0.22454652 -0.21755429 -0.05617948 -0.04107544 0.09720165
-0.091788985 0.061320473 -0.004917669 0.053165436 0.23239708 -0.10536799 0.010060843 -0.15668492
-0.21952486 -0.01097194 -0.07362173 -0.16145271 -0.12257793 0.029345099 0.24769898 -0.1442297
0.0052900235 -0.06277646 -0.095012866 -0.09353931 -0.045766648 0.14082438 -0.047529697 -0.1576302

conv2.lin.weight f4 [64, 7]
00000000: 0b90 0fbf 8f44 003e 06df acbe 423d d8be
00000010: 66c5 623f 8cc1 c93d a249 50be d993 9cba
00000020: 471d 1bbe 210f 3dbe 2564 76bd 661b 35be
00000030: 4e97 11be d4e0 413e 655a d4bd 3d8a 53bd
00000040: 8aaf a7be abb9 07bd c340 8c3e 03bf 3e3e
00000050: 125e c6bd 80d2 dfbe dbde 413d b638 413c
00000060: 0f2a 243d 9674 90be 96f0 153e 36b4 823e
00000070: 2bd5 a5be 61bb 60be 810f 7f3e 24e1 b43e
00000080: 5da9 9e3e 05d1 a63e 3b2e 6f3e 7ecd f63e
00000090: cf37 58be 02bc bc3e 88f4 a53e 8531 56be
000000a0: 36b4 16be 62ee b93d a51d 8a3e cf23 9ebe
000000b0: 323c 9e3e 2139 9e3e 3cb0 0e3e 8fd9 1a3e
000000c0: 8b10 983e a208 083f 0696 bcbd 600f aa3d
000000d0: 3b87 a83e a5c3 c7be dfca 99bd 508e 3e3d
000000e0: 79c7 a1bd 2d31 73be 43d3 803e 7771 3d3e
000000f0: 0e14 a2be 19ee f2bc 899a 5d3e 395e aebe
00000100: e36f 75bd 18aa 0abf a73b fd3e d7c7 b33e
00000110: 4519 0e3d 52ba aebe 63aa 323e ffe3 68be
00000120: f297 80be 1fde d93d 4fb2 8dbe 46a3 6c3e
00000130: f01b 9ebb f211 90be 409b 7a3e 4831 bebd
00000140: 0323 c8be 34fa c9bd e4f5 8b3e 81c4 b33d
00000150: 9431 833e ea28 66be 4689 4b3d fb81 b73e
00000160: 60d2 f4be 0ef4 f13e 6e55 afbe ce70 64be
00000170: 53b5 523e 732b 943e bb9c fc3e 45b1 423d
00000180: 8726 0e3f 01bf cebc d5f9 c03e 5312 963f
00000190: 9edb 46bf 0ad2 6d3e da8c 6cbd ce79 b93c
000001a0: 260d 6d3e d9d3 28bf 7bae 893e af07 edbe
000001b0: 03fe 9abd b4a3 2dbe e343 cf3e d4f7 dbbe
000001c0: fed8 41be 4adc 9dbe 7042 c1be 094c d6bd
000001d0: 51b4 bc3c a450 853d 7b81 4abe 5e21 4f3f
000001e0: 51b7 d03e 859e 02bf 77db 7a3e 6e3e 163d
000001f0: e9cb 2abe f614 da3e 92af ed3d db8a 41be
00000200: a6a1 19be 2c91 48be c950 a33e cf24 debd
00000210: 5b9d 483e 5792 003f f50a 683f c62e 32be
00000220: c840 d9be 6333 933e f3d2 853e 2f10 2f3e
00000230: 3a24 d33e 2adc 84bc 8baf 1f3e 1c6c 063e
00000240: 3e64 d23e 6840 b93d ec06 b73e e86b 4fbe
00000250: 956f de3e c83a e43e c549 a3bd 203c 3c3e
00000260: 9d84 6dbe 3909 1fbc ec01 903d ace2 bc3c
00000270: d1db a63d a59f 0dbd c112 673d 2132 823e
00000280: d71d a23d 2e03 a83e 78ef 30bc 558f 51be
00000290: 3ecc 953e 22a7 66be 43b9 a9be 64a6 553e
000002a0: 0efe b3be 3349 f0be bb5e 85be 5483 97be
000002b0: 5853 20be 8da4 89be 28b3 293e 3caf 84be
000002c0: 7262 833e 8891 73be bd45 30be 4bbe bc3d
000002d0: 86cc 74be 1378 66bd f54d 553e a96b 2c3f
000002e0: 3956 f03e bd2c 1dbd 9186 893d 8c5e 83be
000002f0: 5da6 26bf b626 5ebe 8ab0 0cbe 82c9 f7bd
00000300: 9010 a5bd b5ab 49be 82d6 953e 41d7 34be
00000310: 241e acbd 1c35 38be a792 90be 1f12 afbe
00000320: b562 1abe 0829 cebe 76a4 593e 80cb 883e
00000330: ecd2 cc3d 36b6 b13d 99ae e93d 4210 28be
00000340: 5a1b 453e f656 b93e 79ae bfbe df1f e23c
00000350: f0f2 723e e92c 463e 740c 6abd d18d f0be
00000360: 253b 833e c993 6fbe 4e0c 1f3e 7b3e c93e
00000370: f04b 793c f878 9f3e 5fef 943e 40db 373e
00000380: 84fb b3bc 15e4 a03e 9c55 8e3d b490 273e
00000390: 774d 533d 5983 ab3e debd 883c 90dc c13e
000003a0: 729a 153f 1ccc ad3e f92a 66be 1ebb d3bc
000003b0: 17db 58be 88e3 8f3c dfe4 09bf a485 d83e
000003c0: dd4d b5bd 9c3d 763d 1563 d6be ab24 e53e
000003d0: a2a8 d53d 3a7b 72be 67b3 65be 7c6e a1bc
000003e0: 95b7 12be 6931 2dbe 9b73 8d3e 84b4 16be
000003f0: 67d6 a1bd bd54 293e 9068 743d c56f 0f3e
-0.5607917 0.12526153 -0.33763903 -0.42234236 0.88582456 0.09851369 -0.20340589 -0.0011945918
-0.15147887 -0.18462802 -0.0601541 -0.17686233 -0.14217874 0.18933421 -0.10368804 -0.051645506
-0.32751113 -0.03313605 0.2739316 0.18627553 -0.09685911 -0.43715286 0.047331672 0.011793306
0.040079173 -0.28213948 0.14642558 0.25528115 -0.32389197 -0.2194648 0.24908258 0.3532802
0.3098859 0.32581344 0.2335748 0.48203653 -0.2111504 0.3686219 0.32413125 -0.20917328
-0.14717183 0.09078671 0.26975742 -0.30886695 0.309053 0.3090296 0.13934416 0.15122055
0.2970012 0.5313817 -0.09208302 0.08303714 0.32915673 -0.39016452 -0.07509398 0.04652244
-0.078993745 -0.23749228 0.2516118 0.18500315 -0.31655926 -0.02965455 0.21640982 -0.3405626
-0.059921157 -0.5416579 0.49459574 0.35113403 0.034692068 -0.34126526 0.1744781 -0.22743224
-0.25115925 0.10638069 -0.276751 0.23109159 -0.0048251078 -0.2813869 0.24473286 -0.092867434
-0.39089212 -0.098621756 0.27336037 0.087777145 0.25623763 -0.22476545 0.04969146 0.35841355
-0.47816753 0.4725651 -0.34244865 -0.22308657 0.20576982 0.289394 0.49338326 0.04753234
0.5552754 -0.025237562 0.37690607 1.1724342 -0.7767886 0.23224655 -0.057751514 0.022641089
0.23149547 -0.65948254 0.2689093 -0.46294925 -0.0756798 -0.16956979 0.4048148 -0.42962515
-0.18930432 -0.3083213 -0.37746 -0.10463721 0.0230352 0.065095216 -0.19775955 0.8091029
0.4076486 -0.5102313 0.24497782 0.03668063 -0.16679348 0.42594117 0.11605753 -0.18900625
-0.1500307 -0.19586629 0.31897572 -0.108468644 0.19591276 0.50223297 0.9064172 -0.17400655
-0.42432237 0.28750142 0.26137504 0.17096017 0.41238576 -0.016218264 0.15594308 0.13127178
0.41092104 0.09045488 0.35747468 -0.20256007 0.43444505 0.44576097 -0.07973055 0.18382311
-0.23195119 -0.009706789 0.070316166 0.023057304 0.081473954 -0.034576077 0.05641437 0.2542887
0.07915848 0.32814926 -0.010799281 -0.20464833 0.29257387 -0.22524694 -0.33149156 0.20864254
-0.35154766 -0.46930847 -0.26048836 -0.29592383 -0.15656793 -0.26883355 0.16572249 -0.25914943
0.25661045 -0.23785985 -0.17214103 0.09215983 -0.23906144 -0.056266855 0.2083052 0.67351776
0.46940783 -0.038372744 0.0671512 -0.2565807 -0.650976 -0.21694455 -0.1373922 -0.120989814
-0.080598 -0.19694407 0.2926522 -0.17660238 -0.08404186 -0.1798901 -0.28236887 -0.34193513
-0.15076716 -0.4026568 0.21254143 0.26717758 0.10001168 0.08677332 0.11410255 -0.16412452
0.19248715 0.36199158 -0.374378 0.027603088 0.23725486 0.1935307 -0.057140782 -0.46983197
0.2563106 -0.2339622 0.15532038 0.3930548 0.015215859 0.3114698 0.29088876 0.17954731
-0.021970518 0.31424013 0.069499224 0.16363794 0.051587548 0.33498648 0.016692098 0.37863588
0.5843879 0.33944786 -0.2247733 -0.02584606 -0.21177326 0.01756455 -0.53864855 0.4228946
-0.08852742 0.06011735 -0.4187247 0.44754538 0.10432555 -0.2367982 -0.22431718 -0.019706003
-0.14327843 -0.1691338 0.27627262 -0.14717299 -0.07902222 0.16536231 0.05967003 0.1400748

conv2.lin.bias f4 [64]
00000000: 4e9c bebd 5e94 903e eb16 bf3d 879b 5a3d
00000010: 61ca e13d a0cf 16be 575b 363e 98d3 e23b
00000020: e9c1 b83d 44cb 363d c6ba 203e be9d 843e
00000030: bb89 04be 9932 97be 9423 beba d0ef 683e
00000040: c177 8ebe b284 26bd 21e4 8cbe 6724 c3bd
00000050: 7244 b9be f5f3 a43d 2023 973e d87e ebbc
00000060: c638 df3d df2b 26be 4770 b13c 9b11 e63d
00000070: 1a7c d13b f312 153e 0b92 2b3e b7ca bc3a
00000080: 4b10 44be 5fd2 03be c97a 373d 56b7 313e
00000090: eea7 583e 030a 73bd 8fc8 213e 40b0 3d3d
000000a0: 2e0c b33e 86e6 a03e c113 823e 2985 3bbe
000000b0: 6757 75be 11ac 623e aca8 9c3d 9e1c 12be
000000c0: 1fcc 1cbe 872b 9d3e 9dcc 2ebe cc15 8fbe
000000d0: 74c6 553e fa22 073e 52c3 2ebe 0750 da3b
000000e0: 8556 7a3e feff fbbd bcc8 c5be 9e7e 9cbd
000000f0: a396 88be 63be 6ebd 3802 2abe 42c0 e13c
-0.093071565 0.28238195 0.09330543 0.05337098 0.11024929 -0.1472764 0.17808281 0.0069221966
0.090213604 0.044627443 0.15696248 0.25901598 -0.12943165 -0.2953079 -0.0014506453 0.22747731
-0.2782574 -0.04065389 -0.275178 -0.095284276 -0.36185032 0.080543436 0.29518986 -0.028747007
0.108995005 -0.16227673 0.021659983 0.11233827 0.006392968 0.1455801 0.1675493 0.0014403675
-0.1914684 -0.12873219 0.04479483 0.17355093 0.2115781 -0.05933572 0.15799163 0.046310663
0.3497023 0.31425875 0.25405696 -0.18312515 -0.23959123 0.2213595 0.07649359 -0.14268729
-0.15312241 0.3069727 -0.17070241 -0.27946317 0.20876485 0.13196936 -0.17066696 0.006662372
0.24447067 -0.12304686 -0.3862971 -0.07641338 -0.26677427 -0.058287036 -0.16602409 0.027557496
