checkpoints/C/model_C_epoch_138.pth (torch, 78709 bytes, 15 tensors)

node_embedding.weight f4 [1, 64]
0.16700515 -0.14512123 -0.4194109 -0.86519253 1.4595538 -1.5970311 -0.01365435 1.0460948
-0.2616232 1.0935233 0.8860809 -0.6965544 1.1369983 -1.5791056 -1.7041441 -0.11297618
1.926016 0.6547431 1.3850902 -2.037598 1.1171877 -0.252758 -0.9215014 -0.42113298
-0.7943932 -0.4720619 -1.389547 0.75217944 1.6067679 0.5130247 0.6037799 -0.610244
0.9781111 -2.7230558 -0.2041672 1.9645395 1.7712761 1.2436167 -1.3055129 0.15161811
0.4321326 2.040199 -1.0489051 -1.4266452 0.093569435 0.25034928 0.31016627 0.89820015
0.85773855 -0.8093777 3.503004 -0.6572976 -0.18139409 1.6387932 -0.8897774 0.8424063
0.28118068 -1.062848 0.00387236 -0.27101117 -0.7783424 1.1346146 1.4784179 1.5672059
00000000: 6603 2b3e a99a 14be 07bd d6be 427d 5dbf
00000010: a9d2 ba3f 846b ccbf 7fb6 5fbc 6fe6 853f
00000020: 7af3 85be 92f8 8b3f 33d6 623f 6451 32bf
00000030: 2989 913f 2220 cabf 6521 dabf 0e60 e7bd
00000040: b187 f63f 3e9d 273f a34a b13f 0168 02c0
00000050: 0200 8f3f 7f69 81be 84e7 6bbf be9e d7be
00000060: 5a5d 4bbf 19b2 f1be addc b1bf d58e 403f
00000070: 92aa cd3f 9655 033f 5291 1a3f f338 1cbf
00000080: 7d65 7a3f 8c46 2ec0 3511 51be 0876 fb3f
00000090: 2db9 e23f d52e 9f3f 0c1b a7bf c741 1b3e
000000a0: 7c40 dd3e 9f92 0240 8642 86bf 4f9c b6bf
000000b0: 55a1 bf3d c82d 803e 1dce 9e3e 72f0 653f
000000c0: c194 5b3f 6033 4fbf 3831 6040 a844 28bf
000000d0: 5fbf 39be fac3 d13f 74c8 63bf f0a7 573f
000000e0: eaf6 8f3e 670b 88bf 6cc7 7d3b fac1 8abe
000000f0: 7341 47bf 0d3b 913f cc3c bd3f 349a c83f

conv1.nn.0.weight f4 [64, 64]
0.32073525 -0.0493275 -0.055371474 0.045589928 -0.10070333 0.036701385 0.29410627 -0.04471502
0.032197077 -0.15683602 0.045449894 -0.010480708 0.07760488 -0.04845657 -0.12661542 -0.062841676
-0.09545869 -0.11083696 0.08514113 -0.03659496 -0.029026523 0.27741355 -0.0897726 -0.6718978
0.23489286 0.31909654 -0.1806975 -0.013562335 -0.0062246067 -0.007547188 -0.03149487 -0.008013174
-0.08376221 -0.12572935 -0.060070828 0.042560477 0.09004288 0.027244257 -0.16753855 -0.18188109
0.0008100752 -0.11918986 -0.15617408 -0.005489751 -0.090382524 -0.101483606 -0.18203896 0.13965109
-0.0075598327 -0.018653188 0.062524825 -0.03566617 0.21854311 -0.0070265974 -0.17965208 0.045228127
0.121809855 -0.04439554 -0.31098926 -0.113454275 -0.15784182 -0.038447168 0.063413136 -0.042504597
0.05254577 -0.116636395 -0.041168094 -0.006296575 0.09075077 -0.010656029 0.051357776 0.034921438
-0.10000223 -0.00305444 -0.012949988 0.004509121 -0.1210216 -0.12339221 -0.037960187 0.024529234
-0.0628164 0.04348384 -0.11310607 -0.044465795 -0.120812565 0.10086112 -0.089037046 -0.09444824
0.058424905 -0.05936961 0.025574014 -0.04263854 -0.048260406 -0.041359156 0.12009744 -0.02898866
0.022669554 -0.084147796 -0.06868054 -0.049577937 -0.118549064 -0.121378124 -0.12363832 0.03129427
-0.08888516 -0.002392292 0.01803486 -0.044424832 0.11481826 0.068090096 0.091231465 -0.12378654
-0.0026221722 0.11479378 -0.054479152 0.038664117 -0.101900056 -0.010376811 -0.00790824 -0.005537346
-0.12251876 -0.01897496 0.079615414 0.04299687 0.09605707 -0.037110254 0.0011783242 0.07869083
-0.014359677 0.013611481 -0.109260604 -0.026159018 0.078777164 0.12350929 0.030150108 -0.079673834
0.08651008 0.027689628 -0.11935595 -0.003952914 -0.08219944 -0.008567433 -0.050714303 0.08893158
-0.03974322 0.0157645 -0.1154916 -0.038096465 -0.06829237 0.027420394 -0.098761946 -0.04776594
-0.119786374 -0.0014127261 0.044426758 -0.12400003 -0.046396427 -0.11096619 -0.13315742 -0.02147123
-0.066558644 -0.014527745 0.055167247 0.05847361 0.009006862 -0.08850103 0.030550547 0.01719315
0.11104603 0.015759775 -0.011753669 -0.062024735 -0.012881265 -0.013554907 -0.111016855 -0.06135809
0.03630024 0.02019831 -0.0030770418 0.047526065 0.052317385 -0.04236791 0.0801521 -0.00814369
-0.0652481 0.06335329 0.12341632 0.038139023 0.0777411 -0.0034555395 -0.070003614 0.003301421
-0.036901444 -0.032890886 -0.07895371 0.100979045 -0.0898059 0.107758045 -0.034148633 0.11558266
-0.018527523 0.12360768 -0.124752924 -4.0367246e-05 -0.118836656 -0.06081544 -0.004089713 0.08773029
-0.050909042 0.10760392 0.024171457 -0.0022105873 0.12449743 -0.07457639 -0.024458095 0.07789469
-0.089554936 -0.11934909 0.09608038 -0.10054584 0.008259982 0.11221379 0.073057115 0.041550487
0.022782832 -0.04557468 -0.01838474 -0.115260184 0.0066763014 0.067640215 0.08768724 -0.07682024
-0.052743554 -0.021055043 0.017935097 0.049105346 -0.006190777 -0.025927871 -0.12073065 -0.10948321
-0.044706106 -0.040337384 -0.033365726 0.041316733 -0.11554366 0.07486194 -0.06145321 -0.06200525
0.07290071 0.039413378 -0.060112804 -0.0038691312 -0.0147001445 -0.0073899925 -0.0507026 0.006001726
00000000: 6937 a43e a20b 4abd 33cd 62bd 81bc 3a3d
00000010: 8c3d cebd 3154 163d 1995 963e 1927 37bd
00000020: 15e1 033d 9f99 20be ab29 3a3d 47b7 2bbc
00000030: 4fef 9e3d 657a 46bd 79a7 01be 23b3 80bd
00000040: d87f c3bd 7dfe e2bd 795e ae3d 99e4 15bd
00000050: 08c9 edbc 2609 8e3e b2da b7bd 7f01 2cbf
00000060: c187 703e 9f60 a33e c408 39be 8e34 5ebc
00000070: c9f7 cbbb 674e f7bb c400 01bd b049 03bc
00000080: 868b abbd 32bf 00be d40c 76bd e553 2e3d
00000090: 6768 b83d 592f df3c 3a8f 2bbe 093f 3abe
000000a0: 3a5b 543a d019 f4bd 19ec 1fbe 5fe3 b3bb
000000b0: 791a b9bd a3d6 cfbd 6c68 3abe b200 0f3e
000000c0: 79b8 f7bb 92ce 98bc 040d 803d b116 12bd
000000d0: c4c9 5f3e 5f3f e6bb b7f6 37be 2141 393d
000000e0: 7277 f93d 19d8 35bd fc39 9fbe b75a e8bd
000000f0: 49a1 21be c77a 1dbd bfde 813d 4d19 2ebd
00000100: 3c3a 573d 10df eebd e09f 28bd 8053 cebb
00000110: 8adb b93d a096 2ebc 885c 523d c809 0f3d
00000120: f8cd ccbd 002d 48bb 302c 54bc 40c1 933b
00000130: 2cda f7bd 0eb5 fcbd 247c 1bbd 88f1 c83c
00000140: e2a5 80bd 1c1c 323d 28a4 e7bd c421 36bd
00000150: 946c f7bd 4690 ce3d 0e59 b6bd 146e c1bd
00000160: f44e 6f3d 8c2d 73bd 9880 d13c c0a5 2ebd
00000170: b4ac 45bd 3868 29bd a6f5 f53d a079 edbc
00000180: 80b5 b93c ae55 acbd 62a8 8cbd 3c12 4bbd
00000190: dac9 f2bd 1895 f8bd 1636 fdbd 6c2e 003d
000001a0: 6c09 b6bd 00c8 1cbb d8bd 933c d0f6 35bd
000001b0: d625 eb3d d272 8b3d 90d7 ba3d cc83 fdbd
000001c0: c0d8 2bbb 0019 eb3d 8825 5fbd 445e 1e3d
000001d0: fab0 d0bd 8003 2abc 9091 01bc a072 b5bb
000001e0: 1eeb fabd 6071 9bbc 680d a33d 7c1d 303d
000001f0: 92b9 c43d ec00 18bd 0072 9a3a a828 a13d
00000200: da44 6bbc b002 5f3c 06c4 dfbd 704b d6bc
00000210: ec55 a13d 70f2 fc3d 5cfd f63c 092c a3bd
00000220: 322c b13d 5cd5 e23c e470 f4bd 7287 81bb
00000230: 2e58 a8bd 6b5e 0cbc cdb9 4fbd c321 b63d
00000240: c9c9 22bd 8d24 813c dc86 ecbd 0a0b 1cbd
00000250: dfdc 8bbd bca0 e03c b443 cabd 38a6 43bd
00000260: 8f52 f5bd 392b b9ba d5f8 353d baf3 fdbd
00000270: 2e0a 3ebd 3e42 e3bd 6b5a 08be 6fe4 afbc
00000280: e64f 88bd c705 6ebc 0df7 613d 0682 6f3d
00000290: 8491 133c 0740 b5bd 2445 fa3c a6d8 8c3c
000002a0: 1a6c e33d a51a 813c 7692 40bc a60d 7ebd
000002b0: f10b 53bc 6715 5ebc ce5c e3bd 9f52 7bbd
000002c0: 8faf 143d ed76 a53c 32a8 49bb b1aa 423d
000002d0: c14a 563d f989 2dbd c926 a43d 1d6d 05bc
000002e0: cca0 85bd 5fbf 813d b2c1 fc3d aa37 1c3d
000002f0: ba36 9f3d 5576 62bb 0e5e 8fbd a75c 583b
00000300: f825 17bd 98b8 06bd 7cb2 a1bd 1ace ce3d
00000310: 28ec b7bd 40b0 dc3d 70df 0bbd 9ab6 ec3d
00000320: 08c7 97bc 0626 fd3d 767e ffbd 0050 29b8
00000330: a260 f3bd 9c19 79bd 0003 86bb f0ab b33d
00000340: 0086 50bd 725f dc3d 3803 c63c 80df 10bb
00000350: 82f8 fe3d 82bb 98bd 585c c8bc 4087 9f3d
00000360: 9468 b7bd 4c6d f4bd cac5 c43d faea cdbd
00000370: e054 073c 58d0 e53d f89e 953d d830 2a3d
00000380: 10a3 ba3c 84ac 3abd 989b 96bc 880d ecbd
00000390: e0c4 da3b f486 8a3d 5e95 b33d ee53 9dbd
000003a0: a009 58bd a07b acbc a0ec 923c b022 493d
000003b0: 00dc cabb b066 d4bc a241 f7bd bc38 e0bd
000003c0: c01d 37bd d038 25bd 80aa 08bd bc3b 293d
000003d0: 28a2 ecbd 3851 993d 5cb6 7bbd 38f9 7dbd
000003e0: f84c 953d ec6f 213d d838 76bd 4091 7dbb
000003f0: e0d8 70bc c027 f2bb 88ad 4fbd 20aa c43b

conv1.nn.0.bias f4 [64]
0.029356748 0.10603526 0.032184277 0.060450718 0.012542443 -0.13342397 0.10553338 0.06195976
-0.1906894 -0.213744 0.087083355 -0.046650786 -0.023723945 -0.05883043 -0.11257347 0.08808188
0.06498835 -0.17774183 -0.046645015 0.08446459 0.009501323 0.09793542 0.094082355 -0.020250838
-0.032953616 0.026380118 0.059842408 -0.17645867 0.120696455 0.065458946 -0.08507795 0.07624149
-0.02764019 0.027737679 -0.09404151 0.023218691 0.14020793 0.10548272 0.019475877 0.15118593
0.22628163 0.11473879 0.015978158 -0.24479333 -0.090831324 -0.19186239 0.06889609 0.024906488
-0.03971371 0.026827525 -0.16699445 -0.08271612 -2.8014183e-05 -0.02138932 0.029136363 0.16862878
-0.09952973 -0.10461936 0.072163396 0.04522115 -0.069098435 0.10969424 -0.039156873 0.0038465294
00000000: 907d f03c 0429 d93d a9d3 033d 2c9b 773d
00000010: d27e 4d3c 4ba0 08be e221 d83d 84c9 7d3d
00000020: 1544 43be b5df 5abe c258 b23d e514 3fbd
00000030: b858 c2bc 2df8 70bd eb8c e6bd 4664 b43d
00000040: 9d18 853d f401 36be d80e 3fbd c5fb ac3d
00000050: 70ab 1b3c 5e92 c83d 40ae c03d 16e5 a5bc
00000060: 5ffa 06bd 1e1b d83c 501d 753d 95b1 34be
00000070: b42f f73d 570f 863d 593d aebd 8024 9c3d
00000080: ae6d e2bc 213a e33c d698 c0bd 2035 be3c
00000090: ab92 0f3e 5307 d83d e08b 9f3c 7cd0 1a3e
000000a0: 5fb6 673e 2cfc ea3d a0e4 823c 1aab 7abe
000000b0: c605 babd 9377 44be 6519 8d3d b108 cc3c
000000c0: d8aa 22bd 66c5 db3c 9800 2bbe 1267 a9bd
000000d0: 0000 ebb7 a838 afbc 62af ee3c 06ad 2c3e
000000e0: 3ed6 cbbd ad42 d6bd 67ca 933d d039 393d
000000f0: 7b83 8dbd 60a7 e03d f562 20bd 0e16 7c3b

conv1.nn.2.weight f4 [64, 64]
-0.007188245 0.009916335 0.016818061 -0.10744578 -0.12042587 -0.06551974 -0.012743237 -0.050363556
0.0034869271 -0.023787566 0.06317275 0.045446496 0.06337553 -0.15730394 -0.009516554 0.064047694
0.05640427 -0.008527 -0.044568095 0.04922533 -0.12208505 -0.08997278 -0.03071802 -0.08936402
-0.06315445 0.12729114 0.09990659 -0.10617615 -0.042611107 0.023992913 0.0006292753 -0.0714318
-0.20751746 -0.022415232 -0.062026944 0.007341292 -0.13625872 0.11791189 0.10244554 0.101103425
0.06826824 0.07343903 0.052404255 -0.1445579 0.026086077 0.057931215 0.040640876 0.01627998
0.029780075 -0.02806768 -0.18287161 -0.09499216 0.089018404 -0.0017952621 0.025044158 -0.30489516
0.03271167 -0.08383314 0.0739321 -0.08057876 -0.0947205 0.07615943 0.036216006 -0.061171684
-0.1120349 0.09280747 -0.031110197 -0.080927 -0.039434757 0.06478357 0.09843927 -0.07840487
0.09985856 -0.0890207 -0.058914177 0.11016605 0.11521512 0.0037628412 -0.00065743615 0.07058343
0.118334524 0.049920175 0.018101169 0.10593705 0.011239544 0.015690584 0.032595187 -0.06164916
0.04343138 0.10260274 -0.119968474 0.06901919 -0.04561785 -0.1305997 -0.10490925 0.013290878
0.063033655 0.04434026 0.07692249 -0.04194947 -0.21617532 0.046302795 0.11762476 0.008157093
-0.022899441 0.021110132 -0.054060742 -0.039991442 0.03455332 -0.09628276 -0.037222315 -0.017418643
-0.0074075013 -0.012513837 -0.10943245 -0.09237471 -0.0060178936 -0.026345298 -0.06801982 0.09118828
-0.06756067 0.10210989 0.07000012 0.07607101 0.07054818 0.05389307 -0.08857017 0.088172086
-0.080706336 0.025523618 -0.027449429 0.0138344765 0.020015841 0.078062415 -0.045878816 -0.033406615
-0.053896826 -0.055790212 -0.05692315 0.10273112 -0.065242425 0.07312442 -0.13340569 0.0072503537
-0.06267409 -0.16930263 0.038647503 -0.075869076 -0.021087438 -0.095513605 0.06910162 -0.060935535
-0.1338631 -0.092497125 -0.096741945 -0.0066712718 0.013386011 -0.16151996 -0.092561804 0.0018183345
0.018289637 -0.103106886 -0.0027051915 -0.013754583 0.07834772 0.079315275 -0.030934408 0.05277565
-0.15669183 0.101938695 0.024447411 -0.066236734 -0.04801649 -0.10717956 0.1189886 0.047327057
-0.013493687 0.06821562 -0.16719058 0.1236624 0.047306642 0.11861007 -0.06215912 -0.07936674
0.03682421 0.013290815 -0.10843958 0.0876158 -0.02930552 -0.03797306 0.018973246 0.057546362
-0.03491673 0.08214562 0.025836185 -0.105450496 -0.0007850115 0.022991206 0.042372853 -0.00054608285
-0.0007887847 -0.103772834 0.10740736 -0.115945905 0.06631389 -0.10775983 0.093949795 -0.028642792
-0.117321864 0.035438042 -0.09235228 -0.12642619 -0.061624765 -0.052056585 0.07450895 -0.02337021
-0.13212514 0.013526938 0.089568585 0.022101225 -0.11463818 -0.0976009 -0.012038126 -0.07914941
-0.2096756 -0.025621751 -0.0012350763 0.08457877 0.0029753349 0.05776786 -0.03370051 0.049491487
0.11349417 0.034706637 -0.09894577 -0.06478029 0.04075937 0.059567805 -0.091011554 0.09039617
-0.033170685 0.038524777 -0.20766896 -0.11036402 -0.04221548 -0.013289556 0.12042244 0.12744461
-0.07280895 0.04489263 0.108401656 0.018049166 0.03899952 0.03230922 -0.03784091 -0.024407487
00000000: 5f8b ebbb 2078 223c 08c6 893c 880c dcbd
00000010: d7a1 f6bd 372f 86bd 03c9 50bc 044a 4ebd
00000020: ee84 643b 24de c2bc b760 813d 1b26 3a3d
00000030: 08cb 813d 4914 21be 52eb 1bbc 702b 833d
00000040: 2a08 673d d5b4 0bbc 098d 36bd 80a0 493d
00000050: ba07 fabd a643 b8bd 5ba4 fbbc 7c04 b7bd
00000060: 1f57 81bd 9c58 023e d49b cc3d e272 d9bd
00000070: fc88 2ebd c98c c43c f3f5 243a d64a 92bd
00000080: 757f 54be 26a0 b7bc f70f 7ebd 398f f03b
00000090: 6887 0bbe ca7b f13d f8ce d13d 500f cf3d
000000a0: 38d0 8b3d 3467 963d d8a5 563d fc06 14be
000000b0: 78b2 d53c 4849 6d3d 0c77 263d 985d 853c
000000c0: 58f5 f33c 31ee e5bc b242 3bbe 408b c2bd
000000d0: 484f b63d 004f ebba 6829 cd3c 381b 9cbe
000000e0: acfc 053d b6b0 abbd b669 973d 7a06 a5bd
000000f0: d2fc c1bd 7af9 9b3d 3c57 143d 298f 7abd
00000100: 8e72 e5bd d811 be3d d0da febc 0ebd a5bd
00000110: 5786 21bd 40ad 843d 879a c93d bc92 a0bd
00000120: a582 cc3d 7c50 b6bd fe4f 71bd bd9e e13d
00000130: e8f5 eb3d 009a 763b cb57 2cba 0c8e 903d
00000140: 5f59 f23d 1979 4c3d e748 943c 86f5 d83d
00000150: 1026 383c 8a89 803c 8882 053d d483 7cbd
00000160: 1ae5 313d 6321 d23d 08b2 f5bd ef59 8d3d
00000170: c8d9 3abd eebb 05be a9da d6bd fcc1 593c
00000180: ca17 813d 229e 353d 8a89 9d3d 35d3 2bbd
00000190: 105d 5dbe 00a8 3d3d 40e5 f03d 54a5 053c
000001a0: 9c97 bbbc 28ef ac3c cc6e 5dbd 11ce 23bd
000001b0: c887 0d3d e52f c5bd 6d76 18bd 8bb1 8ebc
000001c0: a0ba f2bb d606 4dbc 1f1e e0bd f42e bdbd
000001d0: c031 c5bb 18d2 d7bc fa4d 8bbd ecc0 ba3d
000001e0: 405d 8abd fd1e d13d 395c 8f3d 1ecb 9b3d
000001f0: 907b 903d fbbe 5c3d 4764 b5bd 9193 b43d
00000200: 5d49 a5bd e816 d13c a0dd e0bc 00aa 623c
00000210: 43f8 a33c 30df 9f3d 6deb 3bbd 60d5 08bd
00000220: ebc2 5cbd 4784 64bd 4028 69bd b264 d23d
00000230: d29d 85bd 42c2 953d 809b 08be 6094 ed3b
00000240: 465b 80bd ab5d 2dbe d84c 1e3d 3f61 9bbd
00000250: 90bf acbc a39c c3bd 2685 8d3d 8a97 79bd
00000260: 6913 09be 226f bdbd a420 c6bd af9a dabb
00000270: 0051 5b3c 7d65 25be 0b91 bdbd 2e55 ee3a
00000280: 26d4 953c b429 d3bd 9549 31bb e75a 61bc
00000290: c574 a03d 0c70 a23d 286a fdbc 482b 583d
000002a0: d373 20be 3cc5 d03d f045 c83c 20a7 87bd
000002b0: f0ac 44bd f580 dbbd 4cb0 f33d 04da 413d
000002c0: a014 5dbc a2b4 8b3d 0234 2bbe b642 fd3d
000002d0: 9cc4 413d d6e9 f23d 909a 7ebd 088b a2bd
000002e0: fcd4 163d b8c1 593c 9215 debd ea6f b33d
000002f0: 2112 f0bc a489 1bbd c86d 9b3c bcb5 6b3d
00000300: d804 0fbd f63b a83d 68a6 d33c 6ef6 d7bd
00000310: 3bc9 4dba 0e58 bc3c 288f 2d3d 0027 0fba
00000320: 72c6 4eba da86 d4bd 64f8 db3d 0c75 edbd
00000330: 94cf 873d 30b1 dcbd c068 c03d 4aa4 eabc
00000340: 7246 f0bd 7b27 113d 3123 bdbd de75 01be
00000350: 406a 7cbd 4939 55bd 2698 983d e272 bfbc
00000360: d04b 07be 17a0 5d3c bc6f b73d a10d b53c
00000370: 6cc7 eabd fbe2 c7bd 8f3b 45bc 1619 a2bd
00000380: 33b5 56be b5e4 d1bc 49e2 a1ba a237 ad3d
00000390: d6fd 423b fe9d 6c3d 8c09 0abd 96b7 4a3d
000003a0: a26f e83d 8c28 0e3d 14a4 cabd 87ab 84bd
000003b0: 4cf3 263d 5ffd 733d 4464 babd a121 b93d
000003c0: fcdd 07bd 28cc 1d3d 2ca7 54be 8806 e2bd
000003d0: 24ea 2cbd 70bc 59bc 0aa0 f63d d780 023e
000003e0: dc1c 95bd 56e1 373d b001 de3d d8db 933c
000003f0: f6bd 1f3d ac56 043d 12ff 1abd 36f2 c7bc

conv1.nn.2.bias f4 [64]
-0.17829208 -0.014646914 -0.10865024 0.061630737 0.24490343 -0.11144912 0.12471664 -0.1262278
0.075429946 -0.12170806 0.12241262 0.33810195 0.08865557 -0.03786903 0.14716722 -0.09127697
0.14164807 -0.024555482 0.09159184 0.15620452 -0.21728535 -0.08648596 -0.116693765 0.12703514
0.042132806 -0.18428268 -0.05373136 0.025800105 -0.003592561 0.035855062 -0.19591779 -0.011736721
-0.18865205 0.14223853 -0.008767046 -0.20263928 -0.13295168 -0.024489429 0.08677554 0.442571
0.11271092 0.12893151 -0.06949376 -0.0012640707 -0.053455945 -0.08827222 -0.15591998 0.17842832
0.058538932 -0.21202347 -0.10374368 -0.021877855 -0.12236383 -0.0254506 -0.06351711 -0.113436125
-0.21548088 0.2415998 -0.1391007 -0.19489403 0.10822259 -0.0016749239 -0.031614996 -0.16557711
00000000: 3392 36be 9cf9 6fbc 0484 debd 8370 7c3d
00000010: f7c7 7a3e 703f e4bd 706b ff3d dc41 01be
00000020: 047b 9a3d 1342 f9bd 78b3 fa3d b31b ad3e
00000030: 0d91 b53d 8e1c 1bbd 01b3 163e 6cef babd
00000040: 310c 113e 9428 c9bc 8194 bb3d 14f4 1f3e
00000050: 0d80 5ebe 8d1f b1bd 24fd eebd 8015 023e
00000060: 7393 2c3d 99b4 3cbe 6a15 5cbd be5a d33c
00000070: 2c71 6bbb c2dc 123d ac9e 48be 604b 40bc
00000080: 012e 41be faa6 113e a8a3 0fbc ac80 4fbe
00000090: 7c24 08be 0e9e c8bc 60b7 b13d ab98 e23e
000000a0: fcd4 e63d 9f06 043e bf52 8ebd 2daf a5ba
000000b0: 9ff4 5abd 11c8 b4bd 7da9 1fbe eab5 363e
000000c0: 85c6 6f3d ae1c 59be 9177 d4bd 3039 b3bc
000000d0: e399 fabd c77d d0bc 4215 82bd 3351 e8bd
000000e0: 05a7 5cbe f065 773e 6a70 0ebe 4d92 47be
000000f0: cea3 dd3d 1f89 dbba ba7e 01bd 0c8d 29be

conv1.lin.weight f4 [64, 7]
-0.44605136 0.9100394 0.32623547 0.12597206 0.3756826 -0.29481283 0.44996455 -0.3233141
-0.8523537 -0.10634118 -0.3592999 -0.34086356 0.30873197 -0.03860574 -0.3646498 0.20425904
-0.019042773 -0.016741361 0.07391696 0.33368954 0.13949849 0.10364041 -0.07285341 0.19270587
-0.13533035 -0.32195222 -0.19155967 -0.2767777 0.005015964 -0.06640055 0.1971858 -0.20993415
0.34033298 0.13614899 -0.61062485 0.06348888 0.07843645 -0.089976415 -0.100226454 -0.28058332
-0.23443691 -0.022650631 -0.6238252 0.6835385 0.2342342 0.44694316 -1.1424438 0.21506856
0.2808792 0.015937319 -0.3383031 -0.55953014 -0.0038369119 0.095586 -0.44998273 0.14448652
0.77152884 0.37315527 0.5782558 0.46042767 -0.3756856 0.31869313 -0.14309426 0.38425744
-0.7486643 -0.4509319 -0.4291001 -0.15060674 -0.2820152 -0.20376623 0.015731908 0.44154695
0.5211208 -0.048310947 0.48719248 -0.42554095 -0.1319609 -0.15150826 -0.33122075 -0.09421447
-0.29336005 0.10040172 0.025181387 -0.16403176 -0.41491833 0.24738261 0.292252 -0.5466665
0.24696316 -0.3535823 -0.19665404 0.29692382 0.13642538 0.13721225 0.2883254 -0.09458515
-0.011551051 0.013587306 0.10488857 0.026344711 0.11082505 0.22295715 -0.16686364 -0.18662512
-0.015169614 -0.34921706 -0.22200443 0.09940025 0.17306207 -0.17609526 -0.1916278 0.16225983
-0.25294983 0.19383782 0.19086887 -0.49214506 -0.3672216 -0.39338705 -0.3170393 0.122302316
-0.09215188 -0.6199326 -0.20633657 -0.43046728 0.20869999 -0.043090016 -0.13188171 -0.03493859
-0.22364214 0.19804305 0.08111865 -0.2831285 -0.028112086 -0.3233006 0.00081552943 0.14872505
0.22021355 -0.140166 -0.22177324 0.3364938 -0.18152615 0.7131382 -0.2862844 -0.1575281
-0.29379177 -0.3742856 0.1504844 -0.37769252 0.90329015 0.44231412 -0.00035988502 0.20473215
0.431483 0.075776264 0.32188043 -0.043045085 -0.0009408326 0.28742808 0.35929433 -0.13869669
-0.34053063 1.1121294 0.005346225 -0.41948456 0.16746753 0.090662144 -0.32571882 -0.1822483
-0.05402989 1.0231235 0.34221002 0.14970402 0.13970512 0.26928863 0.8133486 -0.025574902
0.99799544 0.40266332 0.09972892 0.0683241 0.0009922821 0.855864 0.07440485 -0.19936717
0.07686419 -0.13641235 -0.22728251 0.20610934 0.20933834 0.40780023 -0.79651076 0.037634294
-0.3343885 -0.4316985 -0.15282953 0.06456158 0.09306374 -0.15243722 -0.4763989 -0.36687565
-0.07829746 -0.036331005 -0.21750212 -0.67450845 -0.21737261 -0.3681544 0.1697244 -0.3810449
-0.12139259 -0.020304158 0.44986138 -0.99758 0.042693324 0.20145401 0.31698543 -0.56911
0.01870774 0.17832935 -0.021307802 0.093941785 0.22104642 0.022151718 0.06462453 -0.1303422
0.07601618 -0.1526767 -0.5944128 0.30789426 -0.022032667 -0.14328478 -0.21667384 -0.27768666
-0.2331842 0.35968047 0.08902775 0.3360212 -0.17391066 -0.051975224 -0.27681488 -0.07626994
0.15455535 -0.30682844 0.026458794 0.32554755 -0.21263795 -0.42200318 0.38542277 -0.1617782
-0.23006204 -0.4812254 -0.07654308 0.32295933 -0.18930724 0.1090866 0.45204166 -0.2910491
00000000: d860 e4be 58f8 683f 5608 a73e d2fe 003e
00000010: 7859 c03e b5f1 96be c161 e63e 6d89 a5be
00000020: da33 5abf 68c9 d9bd 28f6 b7be ab85 aebe
00000030: 1e12 9e3e 0d21 1ebd 61b3 babe 4829 513e
00000040: 97ff 9bbc 2e25 89bc c661 973d 5bd9 aa3e
00000050: b1d8 0e3e 6c41 d43d 2b34 95bd b054 453e
00000060: 0a94 0abe ecd6 a4be 3828 44be cfb5 8dbe
00000070: f55c a43b 03fd 87bd 13eb 493e faf8 56be
00000080: 2040 ae3e a46a 0b3e e951 1cbf 7506 823d
00000090: 4aa3 a03d 8e45 b8bd 8743 cdbd 9ea8 8fbe
000000a0: 3b10 70be d18d b9bc 02b3 1fbf 61fc 2e3f
000000b0: 17db 6f3e bcd5 e43e 993b 92bf ef3a 5c3e
000000c0: 66cf 8f3e fb8e 823c 1036 adbe 5e3d 0fbf
000000d0: b374 7bbb 98c2 c33d 2364 e6be 46f4 133e
000000e0: ea82 453f 350e bf3e 9208 143f 2dbd eb3e
000000f0: dd59 c0be bf2b a33e 4d87 12be 64bd c43e
00000100: 77a8 3fbf 8ce0 e6be 02b3 dbbe a738 1abe
00000110: 4c64 90be 18a8 50be 34e0 803c 7112 e23e
00000120: 2c68 053f b3e1 45bd 4b71 f93e 81e0 d9be
00000130: c220 07be fb24 1bbe c495 a9be 84f3 c0bd
00000140: 4a33 96be 6b9f cd3d 3249 ce3c f1f7 27be
00000150: 2d70 d4be de51 7d3e 0ea2 953e 56f2 0bbf
00000160: e9e3 7c3e bd08 b5be ad5f 49be 6606 983e
00000170: 18b3 0b3e 5e81 0c3e 639f 933e dcb5 c1bd
00000180: 9f40 3dbc 4b9d 5e3c d2cf d63d ddd0 d73c
00000190: 3ef8 e23d e14e 643e 4dde 2abe a81a 3fbe
000001a0: f989 78bc 94cc b2be 2155 63be 5c92 cb3d
000001b0: 2f37 313e 5152 34be 143a 44be 7127 263e
000001c0: a482 81be 6c7d 463e 2173 433e 70fa fbbe
000001d0: 7804 bcbe 076a c9be fa52 a2be a379 fa3d
000001e0: 20ba bcbd e7b3 1ebf e549 53be 3566 dcbe
000001f0: 73b5 553e 287f 30bd 000c 07be c41b 0fbd
00000200: 7202 65be cccb 4a3e 8921 a63d 38f6 90be
00000210: 514b e6bc a887 a5be 41c9 553a 614b 183e
00000220: a97f 613e ad87 0fbe 8618 63be ea48 ac3e
00000230: fee1 39be 3a90 363f de93 92be 0c4f 21be
00000240: e06b 96be 5da2 bfbe 9518 1a3e ea60 c1be
00000250: 063e 673f ff76 e23e f3ae bcb9 4ea5 513e
00000260: 57eb dc3e 9630 9b3d 83cd a43e 0b50 30bd
00000270: 35a2 76ba c629 933e 6df5 b73e 8106 0ebe
00000280: 085a aebe 425a 8e3f 632f af3b aec6 d6be
00000290: 9c7c 2b3e 13ad b93d 9ec4 a6be 4c9f 3abe
000002a0: 724e 5dbd b6f5 823f 2736 af3e 034c 193e
000002b0: dc0e 0f3e 33e0 893e 9d37 503f 7582 d1bc
000002c0: a17c 7f3f e329 ce3e ad3e cc3d 81ed 8b3d
000002d0: 760f 823a e719 5b3f 9261 983d e826 4cbe
000002e0: f96a 9d3d aeaf 0bbe bfbc 68be 540e 533e
000002f0: ca5c 563e 31cb d03e 21e8 4bbf 6b26 1a3d
00000300: f834 abbe 9607 ddbe 587f 1cbe dd38 843d
00000310: 3498 be3d 8118 1cbe 8eea f3be 20d7 bbbe
00000320: 6b5a a0bd d2cf 14bd e0b8 5ebe 96ac 2cbf
00000330: ed96 5ebe bc7e bcbe 3ccc 2d3e 5118 c3be
00000340: ae9c f8bd e854 a6bc 3b54 e63e 6761 7fbf
00000350: 32df 2e3d f649 4e3e ea4b a23e 31b1 11bf
00000360: f940 993c f89b 363e b38d aebc 8d64 c03d
00000370: fe59 623e 8577 b53c de59 843d 6d78 05be
00000380: 5fae 9b3d 4857 1cbe 702b 18bf 51a4 9d3e
00000390: da7d b4bc 3fb9 12be bfdf 5dbe f22c 8ebe
000003a0: d7c7 6ebe 0a28 b83e 2e54 b63d f90a ac3e
000003b0: a315 32be f9e3 54bd aeba 8dbe 6a33 9cbd
000003c0: c243 1e3e 9e18 9dbe 1dc0 d83c 2bae a63e
000003d0: c3bd 59be cd10 d8be 2256 c53e 2fa9 25be
000003e0: 6295 6bbe 2d63 f6be 9ec2 9cbd ed5a a53e
000003f0: c2d9 41be cc68 df3d 0172 e73e 6304 95be

conv1.lin.bias f4 [64]
-0.1929747 0.27250844 -0.19909093 0.346418 -0.15675108 0.26328102 0.2461209 0.070002794
0.2258974 0.05038286 -0.045530584 0.3500791 0.03301531 0.24090894 0.012706039 -0.0905094
0.19941534 -0.016388156 0.062299598 -0.2186106 -0.30615196 0.2551393 -0.28856257 0.48468047
0.3274151 -0.01609671 -0.0449523 0.08702517 0.17813322 0.14566647 0.18461506 -0.23162198
-0.21130669 0.28516456 -0.36380038 0.23397039 -0.20965672 0.08707978 -0.21417448 -0.15493341
0.21760637 -0.24825592 -0.16258408 0.30474082 0.20418938 -0.24666545 -0.038009074 -0.32751054
-0.39117706 -0.36224967 -0.23519091 -0.3179624 0.2757762 -0.057608634 -0.13865171 -0.358162
-0.30933437 0.29113284 0.122203454 -0.2045081 0.45139596 -0.06942644 -0.0680135 -0.029683257
00000000: 299b 45be 3a86 8b3e 7ede 4bbe b35d b13e
00000010: 5b83 20be c5cc 863e 1e07 7c3e a05d 8f3d
00000020: a651 673e 425e 4e3d 477e 3abd 913d b33e
00000030: 103b 073d d5b0 763e fd2c 503c fe5c b9bd
00000040: 8933 4c3e 7440 86bc dd2d 7f3d 75db 5fbe
00000050: f3bf 9cbe 9ea1 823e 79be 93be 0a28 f83e
00000060: f4a2 a73e 3fdd 83bc e71f 38bd 413a b23d
00000070: 8e68 363e 9729 153e bb0b 3d3e 502e 6dbe
00000080: c860 58be 1701 923e 0b44 babe ef95 6f3e
00000090: 40b0 56be e256 b23d 8e50 5bbe dda6 1ebe
000000a0: 34d4 5e3e cd36 7ebe 717c 26be fd06 9c3e
000000b0: 0517 513e de95 7cbe 67af 1bbd 76af a7be
000000c0: 5c48 c8be ca78 b9be e3d5 70be f8cb a2be
000000d0: 8a32 8d3e 08f7 6bbd b7fa 0dbe 0261 b7be
000000e0: 1361 9ebe 5d0f 953e ce45 fa3d 926a 51be
000000f0: 5f1d e73e 732f 8ebd a94a 8bbd 4d2a f3bc

conv2.nn.0.weight f4 [64, 64]
0.010287313 0.09111932 -0.115943186 -0.023107963 -0.049672704 0.10339671 0.021128947 -0.17859155
-0.111658566 -0.07435775 0.09852681 0.04098254 0.11403504 0.013229361 -0.51303107 0.17698339
-0.10544106 -0.010220945 -0.09360438 -0.40466982 0.025048813 -0.058053635 -0.14289021 -0.06057667
0.022912586 0.07985552 -0.050859712 -0.05310667 -0.07374029 0.01772664 -0.09233798 -0.13913146
-0.11075381 0.08732514 0.084735185 0.015100183 -0.108459614 0.020974854 -0.089559846 0.1813294
0.08326868 0.07012713 0.083889976 0.034556832 -0.10982311 -0.08528176 0.09970441 -0.055716895
-0.0402352 -0.08056874 0.0728562 0.08849832 0.09860314 0.08523141 0.01671326 0.15299338
-0.2113588 -0.10578866 0.060791507 0.17577586 0.045859277 -0.0032325329 -0.42841575 -0.048632562
-0.30832022 0.032131974 -0.17281766 0.083614506 -0.040586762 0.48075747 -0.017118784 0.23874094
0.009233824 -0.05021968 -0.0066198073 0.015143993 0.1526683 -0.19738273 -0.051296562 0.07876332
0.12110407 0.25487882 0.073260136 0.06439994 -0.03008434 -0.056756917 -0.06580586 -0.014338395
0.029255178 -0.055608712 -0.6492012 0.005780829 -0.19611298 0.09058671 -0.02747451 -0.024648
-0.006187131 -0.14608003 0.14348136 -0.100044906 -0.047885094 0.014747254 0.017391222 0.13936844
-0.0008255795 0.043562073 -0.16566119 0.012094438 0.26121506 0.06213808 -0.04600823 -0.022863813
0.39497107 0.103280954 -0.22794701 -0.026906533 0.08268985 -0.110530004 -0.31314155 -0.01674739
-0.45008734 -0.13537925 0.12310065 -0.049581457 -0.12629873 -0.021792592 -0.3419629 -0.22508892
0.29534572 0.19138564 0.03079871 -0.12728354 -0.18056746 0.3100346 -0.1947194 -0.018792957
0.051879708 0.13002962 -0.0039921864 0.093364686 0.09150769 -0.40932953 0.027871482 0.3390386
-0.012217432 0.015101278 -0.30952027 0.20003499 -0.095047265 -0.008277689 -0.16836496 0.1333448
0.0830591 0.02536459 -0.6320177 -0.05854147 -0.022182178 0.03902826 0.082927994 -0.16454165
0.037407808 0.16937044 0.1872402 -0.0018269018 0.15272692 -0.01157404 -0.006992553 0.12450452
0.20845447 0.08204743 -0.015406079 -0.07083051 -0.12608206 0.21777482 0.03074516 0.11413222
0.23379539 0.04775524 -0.18145387 -0.022612894 0.096314825 -0.097389415 -0.59662324 -0.22515802
-0.32421258 -0.13581434 0.06714267 0.029956453 -0.030483378 -0.062804356 0.6073707 -0.1521873
0.16047628 0.09691473 0.24011078 -0.07353214 -0.023901071 0.08704612 -0.12366684 -0.25408888
-0.118518256 0.08815313 -0.13156165 0.09315982 -0.20080858 -0.7468792 -0.23164481 0.05083424
-0.1954232 -0.4615689 -0.033057168 -0.03829466 -0.025150567 -0.03165519 0.026782162 -0.020677283
0.005097868 0.010362542 0.16081658 0.18742506 -0.08532765 -0.13316847 -0.30381238 -0.055286888
-0.060220297 0.041416593 -0.060456295 -0.046827074 0.0024659305 -0.090296626 0.005253486 0.36660138
0.12533833 -0.032998074 0.10442572 -0.3054291 0.025091134 -0.17278837 0.13747582 0.101994745
-0.059228845 -0.0007242407 0.06417467 -0.0049249413 0.034386996 0.047098402 -0.21342266 -0.025572738
0.10446962 -0.18992145 0.058999334 0.09496552 -0.02353808 -0.08500153 0.32216957 -0.07291388
00000000: 1e8c 283c c49c ba3d 9f73 edbd e94c bdbc
00000010: 9b75 4bbd a7c1 d33d 9d16 ad3c b4e0 36be
00000020: 3fad e4bd e048 98bd 6dc8 c93d 4fdd 273d
00000030: 348b e93d f6bf 583c 0156 03bf 223b 353e
00000040: 7cf1 d7bd c075 27bc a7b3 bfbd e230 cfbe
00000050: 2b33 cd3c a6c9 6dbd d051 12be 3e1f 78bd
00000060: 2db3 bb3c 4a8b a33d 4652 50bd 6186 59bd
00000070: 2605 97bd 7537 913c b21b bdbd 7a78 0ebe
00000080: e5d2 e2bd 86d7 b23d a489 ad3d c266 773c
00000090: 1320 debd 75d3 ab3c 276b b7bd 6aae 393e
000000a0: c588 aa3d d09e 8f3d 82ce ab3d 778b 0d3d
000000b0: f0ea e0bd 34a8 aebd d331 cc3d 6637 64bd
000000c0: aacd 24bd 3901 a5bd a235 953d 9b3e b53d
000000d0: 71f0 c93d ce8d ae3d 3fea 883c 4caa 1c3e
000000e0: 716e 58be baa7 d8bd 8400 793d 96fe 333e
000000f0: f0d6 3b3d e7d8 53bb 4f59 dbbe f032 47bd
00000100: 26dc 9dbe d19c 033d 1df7 30be 153e ab3d
00000110: 4e3e 26bd d825 f63e b13c 8cbc 8178 743e
00000120: 7749 173c 27b3 4dbd f8ea d8bb 831e 783c
00000130: 1455 1c3e b31e 4abe 581c 52bd aa4e a13d
00000140: 6905 f83d 7a7f 823e 6909 963d 1ee4 833d
00000150: 6f73 f6bc f179 68bd 39c5 86bd 96eb 6abc
00000160: 8ea8 ef3c f6c5 63bd 0d32 26bf 1c6d bd3b
00000170: d7d1 48be 8685 b93d 3912 e1bc 9aea c9bc
00000180: 6bbd cabb 0196 15be c7ec 123e 58e4 ccbd
00000190: 2923 44bd 779e 713c 0978 8e3c 9ab6 0e3e
000001a0: b46b 58ba 256e 323d 16a3 29be c027 463c
000001b0: fbbd 853e 8084 7e3d 2073 3cbd e44c bbbc
000001c0: a639 ca3e f784 d33d f16a 69be 176b dcbc
000001d0: 4c59 a93d 8e5d e2bd 1754 a0be d331 89bc
000001e0: d971 e6be dca0 0abe 321c fc3d ed15 4bbd
000001f0: 7454 01be 6186 b2bc c315 afbe b67d 66be
00000200: 8e37 973e 99fa 433e 944d fc3c 9e56 02be
00000210: ade6 38be dbbc 9e3e 8664 47be b0f3 99bc
00000220: d17f 543d 7c26 053e e3d0 82bb fc35 bf3d
00000230: 6268 bb3d a493 d1be bc52 e43c 7896 ad3e
00000240: a02b 48bc 5a6b 773c 7179 9ebe f9d5 4c3e
00000250: 24a8 c2bd 259f 07bc dd67 2cbe 8a8b 083e
00000260: e41a aa3d 67c9 cf3c e9cb 21bf 2ec9 6fbd
00000270: 66b7 b5bc 19dc 1f3d 27d6 a93d 9b7d 28be
00000280: ee38 193d 726f 2d3e e5bb 3f3e a774 efba
00000290: 7264 1c3e 0ba1 3dbc c921 e5bb 3afc fe3d
000002a0: 1775 553e 7c08 a83d c769 7cbc 960f 91bd
000002b0: a81b 01be 5d00 5f3e 46dd fb3c 27be e93d
000002c0: 0f68 6f3e 009b 433d 0bcf 39be ad3e b9bc
000002d0: b540 c53d 1a74 c7bd 4dbc 18bf d38f 66be
000002e0: 31ff a5be ea12 0bbe 1982 893d 3c67 f53c
000002f0: 47b8 f9bc 929f 80bd a57c 1b3f fdd6 1bbe
00000300: e553 243e 3b7b c63d 9adf 753e 0598 96bd
00000310: 2ecc c3bc 3c45 b23d 0a45 fdbd f017 82be
00000320: b3b9 f2bd a189 b43d 19b8 06be 93ca be3d
00000330: c4a0 4dbe 7a33 3fbf 4c34 6dbe 9037 503d
00000340: 051d 48be c252 ecbe f466 07bd ddda 1cbd
00000350: 9008 cebc dfa8 01bd 4466 db3c 6863 a9bc
00000360: 040c a73b a7c7 293c 1aad 243e 5bec 3f3e
00000370: 43c0 aebd 515d 08be 4c8d 9bbe 8174 62bd
00000380: 8fa9 76bd 72a4 293d 05a1 77bd bfcd 3fbd
00000390: 739b 213b 70ed b8bd 6f25 ac3b 2db3 bb3e
000003a0: b158 003e fd28 07bd 27dd d53d 3461 9cbe
000003b0: ec8b cd3c 6fef 30be 76c6 0c3e 9fe2 d03d
000003c0: f299 72bd f8da 3dba 026e 833d 6761 a1bb
000003d0: 61d9 0c3d 41ea 403d 788b 5abe eb7d d1bc
000003e0: 2bf4 d53d c57a 42be 49a9 713d 487d c23d
000003f0: eed2 c0bc 4815 aebd 69f3 a43e df53 95bd

conv2.nn.0.bias f4 [64]
0.19759516 0.098157495 0.005719585 0.046527654 -0.1960779 0.23332249 0.38648885 -0.09680847
0.3966925 -0.112338886 -0.19991311 0.044118494 0.020197509 -0.14523256 -0.08967457 -0.06474581
-0.123563126 -0.18452926 -0.25375023 -0.017902676 0.13092107 -0.06766755 -0.10102943 -0.087622695
0.063956685 -0.026673319 -0.00623806 -0.105691336 0.07731377 0.16131422 -0.023882333 0.474469
0.04124596 -0.17646699 -0.16589381 -0.009261533 -0.16619757 -0.10375726 -0.3398473 0.2720115
-0.09574123 -0.010626371 0.25724 -0.09729593 -0.002214766 0.112943225 0.08392135 0.42618287
0.09791408 0.00043779932 -0.26022333 0.06933973 -0.06790448 -0.10207626 -0.15711245 0.029437944
0.034256753 0.040839583 -0.03604123 0.4267241 0.32011268 0.18053718 -0.08388067 0.10354976
00000000: 6356 4a3e cc06 c93d 5b6b bb3b c893 3e3d
00000010: a5c8 48be 17ec 6e3e dee1 c53e 8543 c6bd
00000020: 481b cb3e ee11 e6bd 06b6 4cbe 98b5 343d
00000030: 3f75 a53c d8b7 14be 4da7 b7bd 7499 84bd
00000040: aa0e fdbd 3df5 3cbe 8deb 81be a2a8 92bc
00000050: 2c10 063e 4995 8abd 85e8 cebd 8773 b3bd
00000060: b9fb 823d 0182 dabc a468 ccbb b374 d8bd
00000070: af56 9e3d 8e2f 253e e2a4 c3bc 9aed f23e
00000080: 86f1 283d c3b3 34be 11e0 29be afbd 17bc
00000090: b22f 2abe b07e d4bd 7700 aebe 1745 8b3e
000000a0: fa13 c4bd 3b1a 2ebc f6b4 833e 1743 c7bd
000000b0: 9c25 11bb c74e e73d f5de ab3d a434 da3e
000000c0: 2d87 c83d 6e88 e539 fe3b 85be fd01 8e3d
000000d0: 8111 8bbd 5c0d d1bd 16e2 20be d827 f13c
000000e0: cf50 0c3d 6847 273d f89f 13bd 957b da3e
000000f0: cfe5 a33e bdde 383e a1c9 abbd e611 d43d

conv2.nn.2.weight f4 [64, 64]
0.10907647 -0.114143655 0.024157219 -0.16286911 0.006663367 -0.22624755 0.046267994 0.09990935
-0.0986161 -0.06145537 0.093654014 -0.028034564 -0.092605874 0.103270985 0.016296739 -0.016340462
0.03337401 -0.05593499 -0.10185817 0.07610402 0.052708305 0.010006664 -0.040662985 -0.015703069
0.11614323 -0.13548341 -0.030109964 0.01590184 -0.11717419 -0.062114704 -0.07969952 -0.20314834
0.060774647 0.018031815 0.091938235 -0.100270964 -0.0828592 -0.059362777 -0.10211568 0.21578185
0.022211025 0.12648962 -0.076563016 -0.062844016 0.1619127 -0.063275866 -0.0017743004 0.1169052
-0.071042575 -0.09575043 -0.12820965 0.034427833 0.012803556 0.46687162 -0.031813543 0.0067720735
0.10280717 -0.04722497 0.16513488 0.19966981 -0.004692454 0.027853929 0.03796946 0.095891215
-0.116543494 -0.11957389 0.10147586 -0.24907121 0.020096008 -0.15008 -0.0747103 -0.069848135
-0.010942064 0.08230802 0.106092624 -0.0311556 -0.22169329 0.0617666 0.018264536 -0.058786243
-0.059484024 0.010573583 0.026524385 0.02104873 -0.03647624 0.0028521002 -0.0073030507 -0.08772104
0.057032816 0.12074856 -0.08481446 0.18331902 0.067863986 -0.055104706 -0.05583544 -0.42854482
-0.02753407 0.075951055 -0.10344875 -0.11400889 0.079352625 -0.063490115 -0.030877138 0.21999663
0.09293528 0.11543703 -0.028745366 -0.036913767 0.05294272 -0.0070207426 0.07531195 0.026830286
0.0933877 0.1117334 0.08326777 -0.013332308 0.017083526 0.6473645 -0.046820384 -0.0114816455
0.076716624 -0.051677573 0.033608068 0.18361174 -0.0959311 -0.07232233 0.020655243 -0.07505765
-0.03176082 -0.066433564 0.10063562 0.31215328 0.030917075 0.18345432 -0.13153552 -0.0053560575
-0.18116574 -0.02444229 -0.004086201 0.05142518 -0.20048288 0.091413885 0.052377854 0.11553916
0.030978553 -0.100098655 -0.09004679 0.08206679 0.018223092 0.07977516 0.042804603 0.01264273
-0.05968342 -0.0072409147 0.049170155 -0.024222227 -0.10663118 -0.14208055 0.06661974 0.13328177
-0.039796177 -0.048768364 -0.025623677 0.0034218286 0.15405577 -0.015583458 0.14407003 -0.19859579
0.09513814 -0.058948196 0.21879293 0.05415326 -0.1889167 -0.067188196 -0.08231729 0.053253036
0.10895401 -0.12353365 0.07833773 -0.025730565 -0.035242744 -0.10013173 -0.088086545 -0.063626476
-0.041801274 -0.042437024 0.056768853 0.087794214 -0.07516197 0.052108794 -0.032724764 0.022399515
-0.10771877 0.015641842 0.112432845 0.15185232 0.01182232 0.24101658 0.25022957 0.010286291
0.09710543 0.0236309 -0.13296065 -0.123641916 -0.2529458 -0.01125644 0.034036532 -0.0547414
0.06181411 0.040528692 -0.09072772 -0.048894413 -0.034604136 -0.18357451 0.008829379 0.04310568
-0.10296833 0.08694234 0.06507399 0.03244085 -0.104605265 0.0068528876 0.08968014 0.3066989
-0.011893775 0.01614237 0.040352788 -0.0074883346 0.054371856 0.067890376 0.11971962 -0.21681193
0.08510135 0.09964184 0.068059966 -0.10035525 -0.10870999 0.15872663 0.02082046 -0.011983807
0.052828692 -0.0100683225 0.0507527 0.012804078 -0.011549407 0.007937226 -0.10723326 0.032501247
0.17856815 -0.017340407 -0.12980425 -0.03142244 -0.043447122 -0.098493546 0.07011453 0.024092065
00000000: 7c63 df3d 26c4 e9bd 5ce5 c53c 29c7 26be
00000010: 6058 da3b 70ad 67be 8283 3d3d 469d cc3d
00000020: 3df7 c9bd a0b8 7bbd adcd bf3d bea8 e5bc
00000030: 26a8 bdbd bd7f d33d bd80 853c 6fdc 85bc
00000040: 30b3 083d 171c 65bd 049b d0bd 6ddc 9b3d
00000050: aae4 573d fef2 233c 3b8e 26bd b9a3 80bc
00000060: 80dc ed3d 2abc 0abe 2ca9 f6bc 9344 823c
00000070: 06f9 efbd fd6b 7ebd 8039 a3bd 1e06 50be
00000080: d6ee 783d 75b7 933c 1d4a bc3d dd5a cdbd
00000090: 16b2 a9bd 6226 73bd 0722 d1bd ebf5 5c3e
000000a0: e5f3 b53c 7f86 013e 12cd 9cbd 5db4 80bd
000000b0: 71cc 253e c796 81bd a48f e8ba fe6b ef3d
000000c0: c57e 91bd cd18 c4bd 6449 03be 3304 0d3d
000000d0: 02c6 513c cc09 ef3e eb4e 02bd 45e8 dd3b
000000e0: 918c d23d f86e 41bd 1e19 293e 3e76 4c3e
000000f0: 28c3 99bb ec2d e43c dd85 1b3d 9d62 c43d
00000100: 5bae eebd 28e3 f4bd 93d2 cf3d 860c 7fbe
00000110: 62a0 a43c 92ae 19be b701 99bd 8a0c 8fbd
00000120: 5846 33bc 1b91 a83d 1747 d93d 073a ffbc
00000130: 9103 63be f9fe 7c3d 829f 953c d8c9 70bd
00000140: 85a5 73bd d23c 2d3c ab49 d93c 636e ac3c
00000150: 1c68 15bd 4dea 3a3b 6e4e efbb 17a7 b3bd
00000160: 3e9b 693d 054b f73d 34b3 adbd fbb7 3b3e
00000170: 46fc 8a3d 79b5 61bd b4b3 64bd 3a6a dbbe
00000180: 218f e1bc 3a8c 9b3d f0dc d3bd 7e7d e9bd
00000190: a183 a23d 1b07 82bd 0df2 fcbc cc46 613e
000001a0: da54 be3d 406a ec3d 677b ebbc e432 17bd
000001b0: 77da 583d 420e e6bb 273d 9a3d 30cb db3c
000001c0: 0d42 bf3d 7bd4 e43d 4b88 aa3d c16f 5abc
000001d0: c0f2 8b3c aeb9 253f bbc6 3fbd 831d 3cbc
000001e0: 9b1d 9d3d ddab 53bd 9da8 093d b704 3c3e
000001f0: 8677 c4bd bb1d 94bd 2f35 a93c d3b7 99bd
00000200: a217 02bd 520e 88bd 0c1a ce3d 8ed2 9f3e
00000210: ce45 fd3c 73db 3b3e 3fb1 06be de81 afbb
00000220: 8383 39be 333b c8bc 8ae5 85bb 36a3 523d
00000230: 624b 4dbe 3437 bb3d 298a 563d cc9f ec3d
00000240: bcc6 fd3c 8600 cdbd 746a b8bd a212 a83d
00000250: 9848 953c 2961 a33d e153 2f3d 7423 4f3c
00000260: 9a76 74bd 3245 edbb a566 493d b16d c6bc
00000270: 7361 dabd 907d 11be ee6f 883d 047b 083e
00000280: 5101 23bd 56c1 47bd bfe8 d1bc c240 603b
00000290: ccc0 1d3e c351 7fbc 1887 133e b25c 4bbe
000002a0: c9d7 c23d aa73 71bd 410b 603e cfcf 5d3d
000002b0: 6173 41be f799 89bd f895 a8bd db1f 5a3d
000002c0: 4823 df3d 36ff fcbd 886f a03d e8c8 d2bc
000002d0: b25a 10bd dd11 cdbd b866 b4bd 994e 82bd
000002e0: d037 2bbd 72d2 2dbd 7586 683d 74cd b33d
000002f0: 85ee 99bd 0870 553d 670a 06bd 307f b73c
00000300: a99b dcbd 5223 803c 3143 e63d 2d7f 1b3e
00000310: 67b2 413c 0dcd 763e 171e 803e d587 283c
00000320: 36df c63d 9795 c13c d626 08be f937 fdbd
00000330: 1d82 81be ee6c 38bc e469 0b3d 8538 60bd
00000340: cb30 7d3d 6a01 263d 74cf b9bd 8245 48bd
00000350: 11bd 0dbd f5fa 3bbe 1aa9 103c 958f 303d
00000360: 0fe1 d2bd d30e b23d 8345 853d b2e0 043d
00000370: 493b d6bd 308e e03b 39aa b73d a307 9d3e
00000380: 1cde 42bc 013d 843c f748 253d b460 f5bb
00000390: 06b5 5e3d 1c0a 8b3d 8f2f f53d f203 5ebe
000003a0: 9e49 ae3d 0511 cc3d 0663 8b3d 0e87 cdbd
000003b0: 58a3 debd 3c89 223e ab8f aa3c bb57 44bc
000003c0: e662 583d 9bf5 24bc 10e2 4f3d 32c8 513c
000003d0: b939 3dbc 240b 023c 1d9d dbbd 0720 053d
000003e0: 92da 363e 780d 8ebc 68eb 04be d1b4 00bd
000003f0: 9cf5 31bd fcb6 c9bd 3598 8f3d b95c c53c

conv2.nn.2.bias f4 [64]
0.06981438 0.15222779 -0.030793138 -0.082092084 -0.10345989 -0.37805453 -0.29113588 -0.30511284
-0.051481225 0.017186778 0.13305274 0.31041947 -0.2497232 -0.14591926 -0.10491044 -0.25169626
0.009747529 -0.2307141 -0.30059475 0.2487587 0.0035789572 -0.062248375 -0.007955637 0.27056798
-0.14615233 -0.20801505 0.06057978 -0.14809869 0.23463255 -0.23886882 -0.15041412 -0.08745744
0.14366242 -0.01243829 -0.18113992 -0.35575488 -0.27228567 -0.13071872 -0.10814846 0.140312
-0.124387436 0.1527814 -0.08169302 0.031838816 0.31320545 -0.18554126 0.07430431 -0.2418406
-0.31005964 8.948149e-07 -0.018371088 -0.26895934 -0.22594868 0.06801495 0.46858343 -0.24798617
-0.06346651 -0.1777123 -0.14768994 -0.10869926 -0.09192647 0.19841114 0.035583496 -0.2251986
00000000: d7fa 8e3d 9ae1 1b3e e441 fcbc e51f a8bd
00000010: c7e2 d3bd 5d90 c1be c30f 95be c037 9cbe
00000020: fadd 52bd 49cb 8c3c fa3e 083e 4def 9e3e
00000030: 70b7 7fbe dc6b 15be 49db d6bd 55de 80be
00000040: 1ab4 1f3c 5140 6cbe 8ee7 99be 9aba 7e3e
00000050: f08c 6a3b 27f8 7ebd 5c58 02bc e387 8a3e
00000060: f5a8 15be e601 55be 8122 783d 2fa7 17be
00000070: 8443 703e 079a 74be 2906 1abe e31c b3bd
00000080: 3e1c 133e f8c9 4bbc be7c 39be 8125 b6be
00000090: 0769 8bbe 21db 05be f17c ddbd f3ad 0f3e
000000a0: d7be febd ba72 1c3e ac4e a7bd 6b69 023d
000000b0: 775c a03e 87fe 3dbe dc2c 983d 10a5 77be
000000c0: 23c0 9ebe 3633 7035 f77e 96bc 0ab5 89be
000000d0: 175f 67be 6c4b 8b3d 2bea ef3e 16f0 7dbe
000000e0: bbfa 81bd 37fa 35be 083c 17be b89d debd
000000f0: f243 bcbd 4a2c 4b3e 00c0 113d 769a 66be

conv2.lin.weight f4 [64, 7]
-0.6545362 -0.23434797 -0.5200336 -0.59886146 0.9615401 0.043654863 -0.33958802 -0.14281718
0.24917287 -0.20643312 -0.26649064 -0.14867462 -0.38417837 0.0045351298 -0.11053556 -2.6916966
-0.55527437 -0.110023685 0.5277183 0.14683335 -0.12148195 -0.4009125 0.69204074 0.12694842
0.017717492 -0.57335734 0.15228236 0.23801115 -0.5180349 -0.5092866 0.15135908 0.30051902
0.29440957 0.122358456 0.08213729 0.56655335 0.0054879896 0.3707681 0.32728976 -0.20097578
-0.26488534 0.07543924 0.22806258 -1.7745461 0.20634711 0.21543175 0.19590278 0.13555796
0.24714048 0.51103145 0.49603724 0.13919026 0.3524079 -0.79696053 -0.10699732 0.0096559655
-0.21068001 0.20272069 0.31395397 0.14072181 -0.80586743 -0.055219274 0.14815222 -0.34841442
-0.7933841 -0.7911614 0.536091 0.3592281 -0.008614477 -0.51887643 0.057203013 -0.07151948
-0.27149093 0.03386845 -0.5341751 0.20341714 -0.12087316 -0.56785154 1.0264552 -0.28563756
-0.5352822 -0.19167043 0.0393289 0.10447204 0.42576554 -0.23329747 -0.15585294 0.36668035
-0.488536 0.5016677 -0.39900023 -0.24164955 0.61935824 0.2996087 0.39319214 -7.601587e-05
0.59807014 -0.025289338 0.3931046 0.8941549 -1.204826 0.19941321 -0.0016195173 0.038301155
0.2429031 -0.9537757 0.20149083 -1.0779222 -0.11730852 -0.017236238 0.32063702 -0.4702922
-0.44016176 -0.4991091 -0.7846994 -0.21452115 -0.21166836 0.25732633 -0.18021211 0.8728962
0.24355501 -0.6309911 0.083597414 -0.017630478 -0.15540503 0.2846369 0.15490906 -0.57673275
-0.05539175 -0.08649277 0.44019338 0.024137335 0.4851887 0.6125112 0.6210553 -0.31188655
-0.47500682 0.3453077 0.2504337 0.1593494 0.14974393 0.06440095 0.042799797 0.00041412577
0.48945108 0.12564084 0.41191047 -0.25578582 0.5116145 0.42499822 0.016815238 0.29388282
-0.44803855 0.10627689 -0.052686695 -0.32494035 0.04355105 -0.23850076 0.039467577 0.17167848
-0.09740501 0.1897525 0.18258113 -0.30035606 0.21641663 -0.38785273 -0.3097366 0.14765835
-0.24805367 -0.6873183 -0.8473452 -0.31772178 -4.1300624e-05 -0.16471016 0.046129715 -0.26509807
0.26778847 -0.23208004 -0.17626357 0.05106645 -0.25264895 -0.070641875 0.29725504 0.5264554
0.52506053 -0.10521576 0.010816292 -0.20094936 -0.7267256 -0.37385863 -1.849598 -0.6555387
-0.59566396 0.062769994 0.22490962 -0.048887573 -0.1578897 -0.26637045 -0.15158808 -0.15129355
-0.3177113 -0.38785565 0.028691856 0.21136858 1.8781716 0.0014361199 0.10904362 -0.12801993
0.020177053 0.24949996 -0.56901014 0.3310827 0.26799446 0.24757513 0.0036438082 -0.5778625
0.3625319 -0.23453693 0.14983283 0.3742123 0.09535422 0.40010142 0.23468477 0.27381456
-0.34455362 -0.42553383 0.02634227 0.33010423 0.2460158 0.2742695 0.18669806 0.8793949
0.5214734 0.0701866 -1.1176355 -0.48872286 -0.22459707 -0.23781948 -0.59490806 1.1154891
-0.037944898 0.030211525 -0.26610985 0.42645523 0.20525359 -0.2082561 -0.3263117 0.088585526
-0.27565682 -0.30159652 0.23242807 -0.30634108 0.10250259 2.1247919 -0.063887715 0.09710169
00000000: af8f 27bf eaf8 6fbe ec20 05bf fc4e 19bf
00000010: 7e27 763f 71cf 323d 7bde adbe ab3e 12be
00000020: 2c27 7f3e 3463 53be 7671 88be 293e 18be
00000030: 07b3 c4be 6d9b 943b 7860 e2bd c244 2cc0
00000040: 7626 0ebf 1954 e1bd 8c18 073f 7b5b 163e
00000050: 87cb f8bd 6744 cdbe 9529 313f c4fe 013e
00000060: 4624 913c 8cc7 12bf e8ef 1b3e 32b9 733e
00000070: ef9d 04bf 9b60 02bf e0fd 1a3e a1dd 993e
00000080: dabc 963e 1297 fa3d 9837 a83d a409 113f
00000090: 98d4 b33b 51d5 bd3e 8692 a73e 98cc 4dbe
000000a0: 0d9f 87be e37f 9a3d 3d89 693e 5424 e3bf
000000b0: a84c 533e 249a 5c3e bd9a 483e b5cf 0a3e
000000c0: 6512 7d3e f5d2 023f 98f8 fd3e e487 0e3e
000000d0: cf6e b43e 9b05 4cbf 6921 dbbd 0e34 1e3c
000000e0: 80bc 57be 0396 4f3e 93be a03e 6119 103e
000000f0: 544d 4ebf 9b2d 62bd 37b5 173e 6063 b2be
00000100: 381b 4bbf 8e89 4abf 433d 093f bfec b73e
00000110: bc23 0dbc 16d5 04bf b54d 6a3d ce78 92bd
00000120: dc00 8bbe a5b9 0a3d b3bf 08bf 954c 503e
00000130: 598c f7bd b85e 11bf e262 833f 163f 92be
00000140: 4108 09bf 4145 44be 5717 213d 70f5 d53d
00000150: f1fd d93e 88e5 6ebe ea97 1fbe 87bd bb3e
00000160: 6421 fabe 4b6d 003f c249 ccbe fb72 77be
00000170: 438e 1e3f 5066 993e 7b50 c93e b66a 9fb8
00000180: 201b 193f 962b cfbc 0245 c93e 56e7 643f
00000190: bd37 9abf fa32 4c3e fc45 d4ba ace1 1c3d
000001a0: 97bb 783e a52a 74bf 9d53 4e3e 5bf9 89bf
000001b0: 733f f0bd 0333 8dbc 892a a43e 24ca f0be
000001c0: e25c e1be 3a8b ffbe 0fe2 48bf 6fab 5bbe
000001d0: 97bf 58be 47c0 833e 8689 38be 2076 5f3f
000001e0: 7c66 793e a288 21bf 1f35 ab3d cb6d 90bc
000001f0: 7f22 1fbe eebb 913e 7ba0 1e3e c2a4 13bf
00000200: 76e2 62bd 1f23 b1bd 0761 e13e a9bb c53c
00000210: a76a f83e 89cd 1c3f 7bfd 1e3f 98af 9fbe
00000220: 1834 f3be 2ccc b03e d938 803e 7d2c 233e
00000230: 7956 193e a5e4 833d d74e 2f3d 051f d939
00000240: 5599 fa3e fea7 003e eee5 d23e 5cf6 82be
00000250: 2bf9 023f 5e99 d93e 1cc0 893c cf77 963e
00000260: 4f65 e5be b3a7 d93d 01ce 57bd 955e a6be
00000270: 9662 323d 8b39 74be c1a8 213d 7ccc 2f3e
00000280: 477c c7bd 7b4e 423e 8cf6 3a3e 45c8 99be
00000290: 529c 5d3e a294 c6be cc95 9ebe c033 173e
000002a0: c801 7ebe 18f4 2fbf 9deb 58bf 6eac a2be
000002b0: 353a 2db8 c8a9 28be 83f2 3c3d efba 87be
000002c0: 921b 893e 64a6 6dbe 707e 34be 0e2b 513d
000002d0: 345b 81be b0ac 90bd d031 983e c8c5 063f
000002e0: 5e6a 063f 5c7b d7bd d136 313c abc5 4dbe
000002f0: b00a 3abf 666a bfbe a1bf ecbf 62d1 27bf
00000300: 6f7d 18bf 8e8d 803d b54e 663e 563e 48bd
00000310: d6ad 21be b561 88be e839 1bbe b2ec 1abe
00000320: 0eab a2be 0495 c6be 2f0b eb3c 0171 583e
00000330: ed67 f03f 303c bc3a 4352 df3d a817 03be
00000340: 594a a53c eb7c 7f3e a6aa 11bf ac83 a93e
00000350: 9236 893e 5684 7d3e f5cc 6e3b ccee 13bf
00000360: c89d b93e 732a 70be c76d 193e c198 bf3e
00000370: 1349 c33d 18da cc3e 3451 703e 6c31 8c3e
00000380: 5569 b0be 92df d9be bfcb d73c 6c03 a93e
00000390: 91eb 7b3e 0d6d 8c3e c72d 3f3e 0620 613f
000003a0: 487f 053f febd 8f3d ae0e 8fbf e239 fabe
000003b0: c6fc 65be f386 73be e54b 18bf 59c8 8e3f
000003c0: 1c6c 1bbd 297e f73c 8d3f 88be 5758 da3e
000003d0: ff2d 523e 1641 55be 5412 a7be 546c b53d
000003e0: e422 8dbe dc6a 9abe a001 6e3e bdd8 9cbe
000003f0: e1ec d13d 97fc 0740 90d7 82bd 40dd c63d

conv2.lin.bias f4 [64]
-0.05650601 0.13809048 0.11556829 0.028823705 0.00845878 -0.16541477 0.10079834 0.029212562
0.046442937 0.02675581 0.081110016 0.13943876 -0.1062877 -0.31612006 0.018403582 0.14112578
-0.1914316 -0.13106331 -0.33673078 -0.0891347 -0.42072952 0.0288598 0.18066613 -0.10512231
0.095114864 -0.20232649 -0.0113523975 0.026812294 -0.028364994 -0.11069335 0.142321 -0.06425806
-0.22472048 -0.20041724 -0.01836468 0.01691092 0.15052958 -0.04643737 0.16677111 0.11253506
0.25406662 0.19411923 0.03640242 -0.2428861 -0.22750206 0.19439848 0.030182997 -0.181576
-0.33055124 0.20136209 -0.20861027 -0.28171954 0.16268452 0.07631718 -0.0913397 -0.070553675
0.22307229 -0.122613065 -0.3862971 -0.09408847 -0.27051035 -0.06908383 -0.14392453 -0.13908535
00000000: d972 67bd 9767 0d3e 11af ec3d b11f ec3c
00000010: b296 0a3c 7d62 29be 5c6f ce3d 2f4f ef3c
00000020: f33a 3e3d 002f db3c 021d a63d 09c9 0e3e
00000030: 5ead d9bd 7dda a1be 1cc3 963c 4783 103e
00000040: a506 44be 7635 06be fa67 acbe 418c b6bd
00000050: dc69 d7be 636b ec3c 8b00 393e 5e4a d7bd
00000060: 95cb c23d ad2e 4fbe 68ff 39bc 75a5 db3c
00000070: b45d e8bc 32b3 e2bd 99bc 113e bb99 83bd
00000080: 201d 66be 2d3a 4dbe 8771 96bc c588 8a3c
00000090: 6d24 1a3e 1d35 3ebd 0cc6 2a3e c878 e63d
000000a0: 0515 823e 31c7 463e b41a 153d 22b7 78be
000000b0: 4df6 68be 6510 473e 5542 f73c 0fef 39be
000000c0: 033e a9be dd31 4e3e ee9d 55be 8b3d 90be
000000d0: c596 263e 2f4c 9c3d 4f10 bbbd 727e 90bd
000000e0: 106d 643e 8f1c fbbd bcc8 c5be 75b1 c0bd
000000f0: 5580 8abe d37b 8dbd f460 13be 646c 0ebe
