checkpoints/C/model_C_epoch_48.pth (torch, 78688 bytes, 15 tensors)

node_embedding.weight f4 [1, 64]
0.19359867 -0.097084075 -0.38227126 -0.78666013 1.5672978 -1.4938396 -0.07323874 1.158496
-0.29418752 1.1515323 0.9568609 -0.605003 1.2689781 -1.4662721 -1.6211343 -0.10075303
2.0498283 0.75505865 1.5611252 -1.9346585 1.2232914 -0.29373753 -0.7536672 -0.45894486
-0.78542733 -0.42386207 -1.2755235 0.84516245 1.7530158 0.63197637 0.6925545 -0.4926318
1.0772727 -2.6114926 -0.10009636 2.045148 1.8591288 1.4013749 -1.2168187 0.1947476
0.53160733 2.1797469 -0.94585454 -1.3771374 0.0644983 0.222172 0.39235285 0.930388
0.91698635 -0.6948011 3.6679215 -0.5578949 -0.23033825 1.754746 -0.7583753 0.91770375
0.36228442 -1.0008348 -0.024751455 -0.16900243 -0.788913 1.227683 1.6099317 1.7032962
00000000: bb3e 463e 04d4 c6bd 0fb9 c3be 8f62 49bf
00000010: 379d c83f 2336 bfbf 31fe 95bd 9949 943f
00000020: bf9f 96be 6965 933f d6f4 743f 7ae1 1abf
00000030: e06d a23f ceae bbbf 5481 cfbf 9b57 cebd
00000040: 6330 0340 864b 413f f3d2 c73f e4a2 f7bf
00000050: d094 9c3f c464 96be 55f0 40bf d2fa eabe
00000060: c411 49bf 7304 d9be 5b44 a3bf 915c 583f
00000070: d262 e03f 34c9 213f 404b 313f 3c3a fcbe
00000080: 12e4 893f b222 27c0 52ff ccbd b4e3 0240
00000090: eff7 ed3f 4160 b33f b7c0 9bbf ea6b 473e
000000a0: 6b17 083f f980 0b40 8623 72bf 0a46 b0bf
000000b0: af17 843d 0f81 633e 79e2 c83e e82d 6e3f
000000c0: 9ebf 6a3f 7cde 31bf 3abf 6a40 33d2 0ebf
000000d0: cadd 6bbe 849b e03f e224 42bf a2ee 6a3f
000000e0: 587d b93e 5b1b 80bf 90c3 cabc f90e 2dbe
000000f0: 34f6 49bf b724 9d3f 3e12 ce3f 9c05 da3f

conv1.nn.0.weight f4 [64, 64]
0.16398926 -0.04127049 -0.0021781535 0.10131194 -0.10482123 0.09165475 0.26251355 -0.025463639
-0.0049547898 -0.12243427 0.03019932 0.044645134 0.0750432 0.006518966 -0.07199705 -0.013050219
-0.09439095 -0.072654665 0.093811646 0.018237386 -0.025995243 0.092307426 -0.03391328 -0.23174228
0.08114487 0.1048075 -0.12589523 0.005308632 0.0124462135 0.023144713 -0.017766958 0.047931522
-0.056168072 -0.0709961 -0.0027301162 0.041588083 0.08021532 0.02272608 -0.1131694 -0.12277613
0.018657422 -0.1002964 -0.10194102 0.049215797 -0.018557042 -0.115001634 -0.11572415 0.10787074
0.019106206 0.036368486 0.069373384 0.018869394 0.089455225 0.006977477 -0.1246405 0.0049843546
0.09915668 0.010196133 -0.16078356 -0.059000533 -0.037992056 -0.038682315 0.07220821 -0.052178666
0.05254577 -0.116636395 -0.041168094 -0.006296575 0.09075077 -0.010656029 0.051357776 0.034921438
-0.10000223 -0.00305444 -0.012949988 0.004509121 -0.1210216 -0.12339221 -0.037960187 0.024529234
-0.0628164 0.04348384 -0.11310607 -0.044465795 -0.120812565 0.10086112 -0.089037046 -0.09444824
0.058424905 -0.05936961 0.025574014 -0.04263854 -0.048260406 -0.041359156 0.12009744 -0.02898866
0.022669554 -0.084147796 -0.06868054 -0.049577937 -0.118549064 -0.121378124 -0.12363832 0.03129427
-0.08888516 -0.002392292 0.01803486 -0.044424832 0.11481826 0.068090096 0.091231465 -0.12378654
-0.0026221722 0.11479378 -0.054479152 0.038664117 -0.101900056 -0.010376811 -0.00790824 -0.005537346
-0.12251876 -0.01897496 0.079615414 0.04299687 0.09605707 -0.037110254 0.0011783242 0.07869083
-0.013149291 0.018831104 -0.11209123 -0.031519175 0.09898889 0.11485678 0.038975805 -0.06732327
0.09914149 0.04311125 -0.104074895 -0.0084160715 -0.06541352 -0.01715234 -0.05978696 0.08811915
-0.018065885 0.02809444 -0.09758133 -0.04837112 -0.057316825 0.03732744 -0.10440755 -0.047782943
-0.12428115 -0.0045679808 0.036620885 -0.10833521 -0.026064947 -0.1029647 -0.12190658 -0.02544187
-0.05569087 -0.026904419 0.0537107 0.080593646 0.031030074 -0.06946549 0.023105115 0.018283322
0.122159064 0.034801126 -0.018021554 -0.06998697 -0.012140557 -0.0117896795 -0.10818556 -0.04589957
0.048203707 0.015133217 0.022303045 0.043294877 0.054087833 -0.023158297 0.074680775 0.005670622
-0.05407852 0.057017177 0.12345259 0.03624071 0.083960995 0.015748844 -0.053282186 0.022906959
-0.036901444 -0.032890886 -0.07895371 0.100979045 -0.0898059 0.107758045 -0.034148633 0.11558266
-0.018527523 0.12360768 -0.124752924 -4.0367246e-05 -0.118836656 -0.06081544 -0.004089713 0.08773029
-0.050909042 0.10760392 0.024171457 -0.0022105873 0.12449743 -0.07457639 -0.024458095 0.07789469
-0.089554936 -0.11934909 0.09608038 -0.10054584 0.008259982 0.11221379 0.073057115 0.041550487
0.022782832 -0.04557468 -0.01838474 -0.115260184 0.0066763014 0.067640215 0.08768724 -0.07682024
-0.052743554 -0.021055043 0.017935097 0.049105346 -0.006190777 -0.025927871 -0.12073065 -0.10948321
-0.044706106 -0.040337384 -0.033365726 0.041316733 -0.11554366 0.07486194 -0.06145321 -0.06200525
0.07290071 0.039413378 -0.060112804 -0.0038691312 -0.0147001445 -0.0073899925 -0.0507026 0.006001726
00000000: cdec 273e 3f0b 29bd 5abf 0ebb a27c cf3d
00000010: 83ac d6bd 7cb5 bb3d 2d68 863e 1f99 d0bc
00000020: ca5b a2bb d2be fabd 9064 f73c d1dd 363d
00000030: 40b0 993d 0d9d d53b 3073 93bd 96d0 55bc
00000040: 0b50 c1bd f8cb 94bd 5220 c03d 9266 953c
00000050: faf3 d4bc ad0b bd3d a7e8 0abd d94d 6dbe
00000060: 482f a63d 51a5 d63d aeea 00be 08f4 ad3b
00000070: 34eb 4b3c fb99 bd3c 038c 91bc d853 443d
00000080: 7e10 66bd 6766 91bd c0eb 32bb 4458 2a3d
00000090: ee47 a43d 0b2c ba3c 5cc5 e7bd 0d72 fbbd
000000a0: 73d7 983c 3368 cdbd 74c6 d0bd 8196 493d
000000b0: f004 98bc fa85 ebbd c800 edbd 56eb dc3d
000000c0: 9e84 9c3c 1ff7 143d a213 8e3d fd93 9a3c
000000d0: 4d34 b73d 52a3 e43b 8543 ffbd cc53 a33b
000000e0: a812 cb3d ae0d 273c 72a4 24be 8baa 71bd
000000f0: 8f9d 1bbd 5971 1ebd e6e1 933d 4cb9 55bd
00000100: 3c3a 573d 10df eebd e09f 28bd 8053 cebb
00000110: 8adb b93d a096 2ebc 885c 523d c809 0f3d
00000120: f8cd ccbd 002d 48bb 302c 54bc 40c1 933b
00000130: 2cda f7bd 0eb5 fcbd 247c 1bbd 88f1 c83c
00000140: e2a5 80bd 1c1c 323d 28a4 e7bd c421 36bd
00000150: 946c f7bd 4690 ce3d 0e59 b6bd 146e c1bd
00000160: f44e 6f3d 8c2d 73bd 9880 d13c c0a5 2ebd
00000170: b4ac 45bd 3868 29bd a6f5 f53d a079 edbc
00000180: 80b5 b93c ae55 acbd 62a8 8cbd 3c12 4bbd
00000190: dac9 f2bd 1895 f8bd 1636 fdbd 6c2e 003d
000001a0: 6c09 b6bd 00c8 1cbb d8bd 933c d0f6 35bd
000001b0: d625 eb3d d272 8b3d 90d7 ba3d cc83 fdbd
000001c0: c0d8 2bbb 0019 eb3d 8825 5fbd 445e 1e3d
000001d0: fab0 d0bd 8003 2abc 9091 01bc a072 b5bb
000001e0: 1eeb fabd 6071 9bbc 680d a33d 7c1d 303d
000001f0: 92b9 c43d ec00 18bd 0072 9a3a a828 a13d
00000200: 2070 57bc b043 9a3c 1690 e5bd 401a 01bd
00000210: b0ba ca3d 083a eb3d 18a5 1f3d c8e0 89bd
00000220: b20a cb3d 6c95 303d 3825 d5bd 90e3 09bc
00000230: 86f7 85bd 1083 8cbc 2ce3 74bd d077 b43d
00000240: e8fe 93bc 5026 e63c b8d8 c7bd cc20 46bd
00000250: 0cc5 6abd a8e4 183d a0d3 d5bd 0cb8 43bd
00000260: 1e87 febd 00af 95bb c8ff 153d dade ddbd
00000270: 2886 d5bc 28df d2bd 28aa f9bd 786b d0bc
00000280: 1c1c 64bd a866 dcbc c0ff 5b3d 480e a53d
00000290: c832 fe3c ec43 8ebd f046 bd3c e8c6 953c
000002a0: 882e fa3d a08b 0e3d f0a1 93bc 5455 8fbd
000002b0: 30e9 46bc 8029 41bc 6490 ddbd 3001 3cbd
000002c0: 4071 453d 50f1 773c e0b4 b63c f855 313d
000002d0: 348b 5d3d 78b6 bdbc 3cf2 983d a0d0 b93b
000002e0: 7081 5dbd d88a 693d b6d4 fc3d 2471 143d
000002f0: bef3 ab3d b803 813c 6c3e 5abd 60a7 bb3c
00000300: f825 17bd 98b8 06bd 7cb2 a1bd 1ace ce3d
00000310: 28ec b7bd 40b0 dc3d 70df 0bbd 9ab6 ec3d
00000320: 08c7 97bc 0626 fd3d 767e ffbd 0050 29b8
00000330: a260 f3bd 9c19 79bd 0003 86bb f0ab b33d
00000340: 0086 50bd 725f dc3d 3803 c63c 80df 10bb
00000350: 82f8 fe3d 82bb 98bd 585c c8bc 4087 9f3d
00000360: 9468 b7bd 4c6d f4bd cac5 c43d faea cdbd
00000370: e054 073c 58d0 e53d f89e 953d d830 2a3d
00000380: 10a3 ba3c 84ac 3abd 989b 96bc 880d ecbd
00000390: e0c4 da3b f486 8a3d 5e95 b33d ee53 9dbd
000003a0: a009 58bd a07b acbc a0ec 923c b022 493d
000003b0: 00dc cabb b066 d4bc a241 f7bd bc38 e0bd
000003c0: c01d 37bd d038 25bd 80aa 08bd bc3b 293d
000003d0: 28a2 ecbd 3851 993d 5cb6 7bbd 38f9 7dbd
000003e0: f84c 953d ec6f 213d d838 76bd 4091 7dbb
000003f0: e0d8 70bc c027 f2bb 88ad 4fbd 20aa c43b

conv1.nn.0.bias f4 [64]
-0.025365897 0.10603526 0.038220704 0.060450718 0.1201626 -0.09679094 0.10175072 0.06195976
-0.14072233 -0.13027257 0.07665144 -0.046650786 -0.023723945 0.07324346 -0.089300185 0.09237521
0.06498835 -0.12857345 -0.039451685 0.081831194 0.009501323 0.09437898 0.094082355 0.005382098
-0.10100257 0.029399095 0.059842408 -0.09540624 0.120696455 -0.011836574 -0.09197769 0.06635181
-0.05718217 0.0006388131 -0.07361437 0.014481791 0.0559689 0.10548272 0.019475877 0.075688355
0.12018291 0.11473879 0.015978158 -0.13463594 -0.090831324 -0.06526864 0.07335665 0.045802474
-0.03971371 0.02851765 0.005062621 -0.08271612 -2.8014183e-05 -0.02138932 0.058609482 0.088087246
-0.09952973 -0.080983154 0.072163396 0.04522115 -0.051892385 0.122427955 -0.037228756 0.0038465294
00000000: 24cc cfbc 0429 d93d 508d 1c3d 2c9b 773d
00000010: cf17 f63d 543a c6bd ae62 d03d 84c9 7d3d
00000020: 8419 10be 2c66 05be 6efb 9c3d e514 3fbd
00000030: b858 c2bc ab00 963d 04e3 b6bd 372f bd3d
00000040: 9d18 853d c2a8 03be 1798 21bd 1d97 a73d
00000050: 70ab 1b3c c449 c13d 40ae c03d 4f5c b03b
00000060: 6fda cebd 5fd6 f03c 501d 753d 5964 c3bd
00000070: b42f f73d 31ee 41bc cd5e bcbd 75e3 873d
00000080: da37 6abd 0576 273a 21c3 96bd 0945 6d3c
00000090: a53f 653d 5307 d83d e08b 9f3c 7f02 9b3d
000000a0: 7522 f63d 2cfc ea3d a0e4 823c 01de 09be
000000b0: c605 babd 91ab 85bd 033c 963d 609b 3b3d
000000c0: d8aa 22bd d99d e93c 58e4 a53b 1267 a9bd
000000d0: 0000 ebb7 a838 afbc 7f10 703d 1667 b43d
000000e0: 3ed6 cbbd 7fda a5bd 67ca 933d d039 393d
000000f0: 1c8d 54bd 82bb fa3d 2e7d 18bd 0e16 7c3b

conv1.nn.2.weight f4 [64, 64]
0.057575095 0.009916335 0.016818061 -0.10744578 -0.08882053 -0.06397774 -0.002082757 -0.050363556
0.005538032 0.05018432 0.06285972 0.045446496 0.06337553 -0.13284001 -0.0054917163 0.06424241
0.05640427 0.0018652314 -0.044568095 0.049671978 -0.12208505 -0.016181454 -0.03071802 -0.065289214
-0.003602337 0.12729114 0.09990659 -0.11500952 -0.042611107 0.054606076 0.05650402 -0.06046757
-0.15371813 -0.020496955 -0.061265666 0.05765317 -0.13250233 0.11791189 0.10244554 0.170191
0.10086774 0.07343903 0.052404255 -0.055407014 0.026086077 0.061459124 0.040640876 0.01627998
0.029780075 -0.02806768 -0.09112198 -0.09499216 0.089018404 -0.0017952621 0.025044436 -0.0839739
0.03271167 -0.08381432 0.0739321 -0.08057876 -0.10311288 0.10985818 0.036216006 -0.061171684
-0.08847379 0.09280747 -0.031110197 -0.080927 0.05744417 0.064782575 0.12194399 -0.07840487
0.11109238 -0.071583115 -0.062286425 0.11016605 0.11521512 0.009690116 -0.0022881713 0.07052752
0.118334524 0.057822123 0.018134277 0.10763556 0.011239544 0.060028795 0.032595187 -0.05630416
0.059393726 0.10260274 -0.119968474 0.08524466 -0.04561785 -0.12761818 -0.0958797 0.018319398
0.08876518 0.047595054 0.07765133 -0.022942077 -0.020475833 0.046302795 0.11762476 -0.050177053
-0.022538671 0.021110132 -0.054060742 -0.02458814 0.03455332 -0.07768854 -0.037222315 -0.017417952
-0.0074075013 -0.012513837 -0.09170921 -0.09237471 -0.0060178936 -0.026345298 -0.06491316 0.09809608
-0.06756067 0.10210892 0.07000012 0.07607101 0.0767382 0.063160054 -0.08857017 0.088172086
-0.033771 0.025523618 -0.027449429 0.0138344765 0.048862513 0.078062415 0.007572869 -0.033406615
-0.023630198 -0.00023208413 -0.047415078 0.10273112 -0.065242425 0.092579365 -0.1140789 0.0072503537
-0.06267409 -0.09067024 0.038647503 -0.05521447 -0.021087438 -0.055497903 0.06910162 -0.045114294
-0.09324779 -0.092497125 -0.096741945 0.007514283 0.013386011 -0.08980159 -0.05572439 0.045820083
0.05752327 -0.07142989 -0.030654626 0.02281005 0.11577773 0.079315275 -0.030934408 0.09637098
-0.121796936 0.101938695 0.024447411 0.0054772943 -0.04801649 -0.0676008 0.1189886 0.047327057
-0.013493687 0.06821562 -0.110601395 0.1236624 0.047306642 0.11861007 -0.06215912 -0.034598608
0.03682421 0.022836074 -0.10843958 0.0876158 0.029652905 -1.2212308e-05 0.018973246 0.057546362
0.049168326 0.08214562 0.025836185 -0.105450496 0.12680435 0.02319193 0.087381616 -0.00054608285
0.0043415255 -0.04783145 0.10778995 -0.115945905 0.06631389 -0.09157726 0.096310556 -0.028608166
-0.117321864 0.04702737 -0.09236012 -0.12369345 -0.061624765 -0.00317331 0.07450895 -0.021102052
-0.107894495 0.013526938 0.089568585 0.090570055 -0.11463818 -0.09616833 0.050761677 -0.0748038
-0.09420234 -0.023654457 0.00040277594 0.10988551 0.016712237 0.05776786 -0.03370051 0.12334732
0.11598638 0.034706637 -0.09894577 0.007946535 0.04075937 0.10844025 -0.06091109 0.090357214
-0.033170685 0.038524777 -0.12348351 -0.11036402 -0.04221548 -0.013289556 0.12113476 0.09764249
-0.07280895 0.04582561 0.108401656 0.018049166 0.05059251 0.045032028 -0.03784091 -0.024407487
00000000: ddd3 6b3d 2078 223c 08c6 893c 880c dcbd
00000010: 8ae7 b5bd c306 83bd dd7e 08bb 044a 4ebd
00000020: 6178 b53b 138e 4d3d 99bc 803d 1b26 3a3d
00000030: 08cb 813d 3607 08be dbf3 b3bb 8691 833d
00000040: 2a08 673d c87a f43a 098d 36bd d874 4b3d
00000050: ba07 fabd f88e 84bc 5ba4 fbbc 5ab6 85bd
00000060: 3015 6cbb 9c58 023e d49b cc3d 1c8a ebbd
00000070: fc88 2ebd 9faa 5f3d c270 673d d8ac 77bd
00000080: 4968 1dbe 3be9 a7bc b5f1 7abd bb25 6c3d
00000090: b1ae 07be ca7b f13d f8ce d13d 8d46 2e3e
000000a0: bf93 ce3d 3467 963d d8a5 563d 77f2 62bd
000000b0: 78b2 d53c 90bc 7b3d 0c77 263d 985d 853c
000000c0: 58f5 f33c 31ee e5bc 299e babd 408b c2bd
000000d0: 484f b63d 004f ebba fd29 cd3c 82fa abbd
000000e0: acfc 053d d8a6 abbd b669 973d 7a06 a5bd
000000f0: d82c d3bd 53fd e03d 3c57 143d 298f 7abd
00000100: bf31 b5bd d811 be3d d0da febc 0ebd a5bd
00000110: 944a 6b3d baac 843d c5bd f93d bc92 a0bd
00000120: 6784 e33d 2b9a 92bd 0d20 7fbd bd9e e13d
00000130: e8f5 eb3d 4bc3 1e3c 25f5 15bb bb70 903d
00000140: 5f59 f23d e4d6 6c3d 568e 943c 0870 dc3d
00000150: 1026 383c c1e0 753d 8882 053d 319f 66bd
00000160: d646 733d 6321 d23d 08b2 f5bd c194 ae3d
00000170: c8d9 3abd 57ae 02be 935c c4bd 9012 963c
00000180: 85ca b53d 08f3 423d a907 9f3d 06f1 bbbc
00000190: efbc a7bc 00a8 3d3d 40e5 f03d 7486 4dbd
000001a0: 05a3 b8bc 28ef ac3c cc6e 5dbd 116d c9bc
000001b0: c887 0d3d 2b1b 9fbd 6d76 18bd 18b0 8ebc
000001c0: a0ba f2bb d606 4dbc 0ad2 bbbd f42e bdbd
000001d0: c031 c5bb 18d2 d7bc 31f1 84bd 99e6 c83d
000001e0: 405d 8abd 7b1e d13d 395c 8f3d 1ecb 9b3d
000001f0: eb28 9d3d 0f5a 813d 4764 b5bd 9193 b43d
00000200: 7653 0abd e816 d13c a0dd e0bc 00aa 623c
00000210: 0f24 483d 30df 9f3d d425 f83b 60d5 08bd
00000220: 1e94 c1bc 9c5b 73b9 5036 42bd b264 d23d
00000230: d29d 85bd 409a bd3d 33a2 e9bd 6094 ed3b
00000240: 465b 80bd 52b1 b9bd d84c 1e3d 9128 62bd
00000250: 90bf acbc c551 63bd 2685 8d3d c4c9 38bd
00000260: b3f8 bebd 226f bdbd a420 c6bd 603a f63b
00000270: 0051 5b3c e5e9 b7bd 423f 64bd d7ad 3b3d
00000280: 859d 6b3d d649 92bd 691f fbbc 24dc ba3c
00000290: e01c ed3d 0c70 a23d 286a fdbc 265e c53d
000002a0: ac70 f9bd 3cc5 d03d f045 c83c e07a b33b
000002b0: f0ac 44bd 4a72 8abd 4cb0 f33d 04da 413d
000002c0: a014 5dbc a2b4 8b3d fc82 e2bd b642 fd3d
000002d0: 9cc4 413d d6e9 f23d 909a 7ebd 45b7 0dbd
000002e0: fcd4 163d b812 bb3c 9215 debd ea6f b33d
000002f0: a6ea f23c 77e3 4cb7 c86d 9b3c bcb5 6b3d
00000300: ba64 493d f63b a83d 68a6 d33c 6ef6 d7bd
00000310: 00d9 013e 01fd bd3c 22f5 b23d 0027 0fba
00000320: 5b43 8e3b e9ea 43bd fac0 dc3d 0c75 edbd
00000330: 94cf 873d dc8c bbbd 783e c53d ac5b eabc
00000340: 7246 f0bd c69f 403d 4d27 bdbd fe52 fdbd
00000350: 406a 7cbd 4ff7 4fbb 2698 983d 36de acbc
00000360: caf7 dcbd 17a0 5d3c bc6f b73d cb7c b93d
00000370: 6cc7 eabd e7f3 c4bd 7aeb 4f3d bc32 99bd
00000380: 28ed c0bd fec6 c1bc ac2b d339 a70b e13d
00000390: 1ae8 883c fe9d 6c3d 8c09 0abd 859d fc3d
000003a0: 448a ed3d 8c28 0e3d 14a4 cabd 2f32 023c
000003b0: 4cf3 263d ec15 de3d e87d 79bd 340d b93d
000003c0: fcdd 07bd 28cc 1d3d ece4 fcbd 8806 e2bd
000003d0: 24ea 2cbd 70bc 59bc 8015 f83d c9f8 c73d
000003e0: dc1c 95bd a3b3 3b3d b001 de3d d8db 933c
000003f0: 173a 4f3d 8173 383d 12ff 1abd 36f2 c7bc

conv1.nn.2.bias f4 [64]
-0.037143085 0.086920835 -0.071403846 0.13437432 0.102669165 -0.057926804 0.104489736 -0.035283454
0.011720323 0.019841082 0.09017751 0.1915875 0.04262557 0.04161527 0.14208254 -0.008616292
0.069921985 0.042863935 0.028994655 -0.018513752 -0.0751917 -0.0048335 -0.11672974 0.14953862
-0.02706158 -0.14227353 0.009988175 0.08535317 -0.049299616 -0.024020793 -0.104496285 0.025552273
-0.1143124 0.062698536 0.0791191 -0.06515777 -0.09447229 -0.034583516 0.111258596 0.38073525
-0.054846827 0.046203274 -0.026645513 -0.024935903 -0.016154021 -0.03726086 -0.09656609 0.09195191
0.08895899 -0.008534698 -0.04374171 0.030526849 -0.076997235 0.010264933 -0.11586252 -0.04479749
-0.13728239 0.13690688 -0.07900866 -0.12552701 0.024680598 -0.036273614 -0.051367823 -0.0981807
00000000: 5923 18bd 8d03 b23d 2e3c 92bd 6c99 093e
00000010: 3644 d23d a844 6dbd b7fe d53d 6285 10bd
00000020: 9906 403c c489 a23c fdae b83d 832f 443e
00000030: 2698 2e3d c674 2a3d 167e 113e 592b 0dbc
00000040: 4233 8f3d 1892 2f3d 3386 ed3c 27aa 97bc
00000050: 1bfe 99bd 5662 9ebb 0010 efbd a720 193e
00000060: 3fb0 ddbc 27b0 11be 71a5 233c a5cd ae3d
00000070: 65ee 49bd 41c7 c4bc 2602 d6bd 0053 d13c
00000080: 9f1c eabd 1768 803d 3209 a23d 7071 85bd
00000090: b07a c1bd 72a7 0dbd 8cdb e33d bbef c23e
000000a0: 11a7 60bd a53f 3d3d b147 dabc 6146 ccbc
000000b0: 7055 84bc d89e 18bd 71c4 c5bd 4851 bc3d
000000c0: 2230 b63d 1ed5 0bbc 822a 33bd 7113 fa3c
000000d0: bab0 9dbd 402e 283c 5449 edbd 937d 37bd
000000e0: c193 0cbe 5131 0c3e 4bcf a1bd 278a 00be
000000f0: f72e ca3c a493 14bd 1167 52bd f612 c9bd

conv1.lin.weight f4 [64, 7]
-0.25521827 0.3195936 0.21900311 0.052832138 0.36274254 -0.34611982 0.36518407 -0.14572558
-0.34272844 -0.15656559 -0.029258754 -0.22962297 0.35492715 0.050336905 -0.3646498 0.20425904
-0.019042773 -0.016741361 0.07391696 0.33368954 0.13949849 0.10364041 -0.07285341 0.19270587
-0.13533035 -0.32195222 -0.19155967 -0.2767777 0.11295852 0.224395 0.21878372 -0.24025723
0.30354917 0.2289226 -0.43152583 0.06348888 0.07843645 -0.089976415 -0.100226454 -0.28058332
-0.23443691 -0.022650631 -0.6175022 0.045140497 0.114728704 0.23179848 -0.9503581 0.09808253
0.2424275 0.025395462 -0.08934349 -0.34839788 0.069885954 0.1430828 -0.27025095 0.23757903
0.595681 0.37566823 0.449321 0.31487918 -0.32112187 0.24266665 -0.14689165 0.3909165
-0.015130582 -0.26135424 -0.26091754 -0.018947022 -0.13140038 -0.13458104 0.29254508 0.29677686
0.41031855 -0.022926977 0.37695393 -0.2590784 0.004116608 -0.15150826 -0.33122075 -0.09421447
-0.29336005 0.10040172 0.025181387 -0.16403176 -0.043920077 -0.37137696 0.2806185 -0.38966516
0.2761535 -0.41278297 -0.02655498 0.29692382 0.13642538 0.13721225 0.2883254 -0.09458515
-0.011551051 0.013587306 0.10488857 0.026344711 0.11082505 0.22295715 -0.16686364 -0.18662512
-0.015169614 -0.25543725 -0.27474335 0.066287965 0.18385291 -0.123689376 -0.15903713 0.17046243
-0.20470272 0.348606 0.19403718 -0.2688572 -0.2469575 -0.13707863 0.07212796 0.20552024
0.1492874 -0.3881859 -0.032447394 -0.21868536 0.22092739 -0.006469567 0.022216655 0.053898532
-0.08078832 0.2772801 0.18700165 -0.16231796 0.021163795 -0.3233006 0.00081552943 0.14872505
0.22021355 -0.140166 -0.22177324 0.3364938 -0.062110826 0.346096 -0.008993249 -0.11755272
-0.23001277 -0.23086506 0.10878464 -0.25591817 0.1826841 0.30906534 -0.16307625 0.15521976
0.27912855 -0.11954537 0.32188043 -0.043045085 -0.0009408326 0.28742808 0.35929433 -0.13869669
-0.34053063 0.6712902 0.43028772 -0.2728117 0.20978093 0.0985624 -0.4558829 -0.15515834
0.03403305 0.45678166 0.30562478 0.15315777 0.17467083 0.3488354 0.39258096 0.039058734
0.18319172 0.42976132 0.0761769 0.14067017 -0.026950523 0.48744428 0.07440485 -0.19936717
0.07686419 -0.13641235 -0.22728251 0.20610934 0.20933834 0.299547 -0.13510944 0.0613628
-0.17304683 -0.3277059 0.060684808 0.20439588 0.12672989 0.12611373 -0.3224352 -0.33426663
-0.059387837 -0.1288935 -0.18435164 -0.38177913 -0.056038085 -0.33641243 0.20574541 -0.37945282
0.024502719 0.042894233 0.37048757 -0.25519446 0.20278452 0.24256353 0.28439155 -0.34976265
0.08949618 0.17832935 -0.021307802 0.093941785 0.22104642 0.022151718 0.06462453 -0.1303422
0.07240748 -0.060193382 -0.3340149 0.3474127 0.053603064 0.09054991 -0.12480055 -0.27768666
-0.2331842 0.35968047 0.08902775 0.3360212 -0.17391066 -0.051975224 -0.27681488 -0.07626994
0.15455535 -0.30682844 0.026458794 0.32554755 -0.21263795 -0.3169466 0.3504666 0.13839804
-0.08553404 -0.37011474 -0.027091283 0.27185374 -0.0951726 0.03356583 0.36033013 -0.2704891
00000000: f8ab 82be c6a1 a33e 5a42 603e 8366 583d
00000010: 64b9 b93e 9e36 b1be 68f9 ba3e 1639 15be
00000020: 1a7a afbe bb52 20be 0eb0 efbc 4922 6bbe
00000030: 03b9 b53e 122e 4e3d 61b3 babe 4829 513e
00000040: 97ff 9bbc 2e25 89bc c661 973d 5bd9 aa3e
00000050: b1d8 0e3e 6c41 d43d 2b34 95bd b054 453e
00000060: 0a94 0abe ecd6 a4be 3828 44be cfb5 8dbe
00000070: cc56 e73d cec7 653e d708 603e fe05 76be
00000080: cc6a 9b3e b06a 6a3e f4f0 dcbe 7506 823d
00000090: 4aa3 a03d 8e45 b8bd 8743 cdbd 9ea8 8fbe
000000a0: 3b10 70be d18d b9bc a014 1ebf 3ee5 383d
000000b0: e2f6 ea3d 955c 6d3e ab4a 73bf 7edf c83d
000000c0: ea3e 783e 250a d03c b8f9 b6bd 3561 b2be
000000d0: 5e20 8f3d 4c84 123e 555e 8abe eb47 733e
000000e0: 8d7e 183f 9657 c03e 670d e63e d837 a13e
000000f0: 166a a4be 9b7d 783e c46a 16be 3526 c83e
00000100: 43e6 77bc 39d0 85be fc96 85be c936 9bbc
00000110: d28d 06be 9dcf 09be 78c8 953e 23f3 973e
00000120: 4615 d23e 5bd1 bbbc 1b00 c13e eda5 84be
00000130: 9ce4 863b fb24 1bbe c495 a9be 84f3 c0bd
00000140: 4a33 96be 6b9f cd3d 3249 ce3c f1f7 27be
00000150: 8ae5 33bd 1f25 bebe 3aad 8f3e 3182 c7be
00000160: fe63 8d3e 4a58 d3be d489 d9bc 6606 983e
00000170: 18b3 0b3e 5e81 0c3e 639f 933e dcb5 c1bd
00000180: 9f40 3dbc 4b9d 5e3c d2cf d63d ddd0 d73c
00000190: 3ef8 e23d e14e 643e 4dde 2abe a81a 3fbe
000001a0: f989 78bc acc8 82be 29ab 8cbe fcc1 873d
000001b0: f043 3c3e db50 fdbd a1da 22be b48d 2e3e
000001c0: 979d 51be 7c7c b23e afb1 463e a7a7 89be
000001d0: 6de2 7cbe 575e 0cbe d3b7 933d e673 523e
000001e0: ccde 183e 4dc0 c6be 8fe7 04bd 0eef 5fbe
000001f0: ca3a 623e a9fe d3bb b4ff b53c b5c4 5c3d
00000200: 5974 a5bd a8f7 8d3e 5c7d 3f3e ae36 26be
00000210: b25f ad3c a887 a5be 41c9 553a 614b 183e
00000220: a97f 613e ad87 0fbe 8618 63be ea48 ac3e
00000230: ec67 7ebd 7f33 b13e 6c58 13bc 7bbf f0bd
00000240: 7888 6bbe e467 6cbe 7bca de3d b507 83be
00000250: 8a11 3b3e d03d 9e3e 76fd 26be eef1 1e3e
00000260: f0e9 8e3e 34d4 f4bd 83cd a43e 0b50 30bd
00000270: 35a2 76ba c629 933e 6df5 b73e 8106 0ebe
00000280: 085a aebe add9 2b3f ac4e dc3e faad 8bbe
00000290: d0d0 563e 15db c93d 7c69 e9be d4e1 1ebe
000002a0: 3d66 0b3d 49df e93e da7a 9c3e 64d5 1c3e
000002b0: e9dc 323e 8e9a b23e 5f00 c93e 0dfc 1f3d
000002c0: 9c96 3b3e ad09 dc3e a202 9c3d d70b 103e
000002d0: 58c7 dcbc 4c92 f93e 9261 983d e826 4cbe
000002e0: f96a 9d3d aeaf 0bbe bfbc 68be 540e 533e
000002f0: ca5c 563e 395e 993e 215a 0abe 8f57 7b3d
00000300: 3033 31be 11c9 a7be a290 783d 274d 513e
00000310: 7bc5 013e f523 013e 3a16 a5be ff24 abbe
00000320: a940 73bd a8fc 03be adc6 3cbe 8e78 c3be
00000330: 3188 65bd 403e acbe edae 523e a447 c2be
00000340: edb9 c83c ddb1 2f3d 8cb0 bd3e d9a8 82be
00000350: bfa6 4f3e 9362 783e c59b 913e 1714 b3be
00000360: c649 b73d f89b 363e b38d aebc 8d64 c03d
00000370: fe59 623e 8577 b53c de59 843d 6d78 05be
00000380: 5f4a 943d 568d 76bd 0004 abbe 14e0 b13e
00000390: e38e 5b3d 3b72 b93d 6e97 ffbd f22c 8ebe
000003a0: d7c7 6ebe 0a28 b83e 2e54 b63d f90a ac3e
000003b0: a315 32be f9e3 54bd aeba 8dbe 6a33 9cbd
000003c0: c243 1e3e 9e18 9dbe 1dc0 d83c 2bae a63e
000003d0: c3bd 59be d346 a2be 5c70 b33e 37b8 0d3e
000003e0: 792c afbd ae7f bdbe 8aee ddbc 6a30 8b3e
000003f0: dae9 c2bd 537c 093d 317d b83e 8c7d 8abe

conv1.lin.bias f4 [64]
-0.16213977 0.3209718 -0.19909093 0.346418 -0.05431475 0.26328102 0.17948945 0.18317172
0.19123077 0.1067035 0.02237756 0.3500791 0.1635127 0.24090894 0.012706039 -0.08553529
0.32522678 0.08399825 0.23437698 -0.2186106 -0.2033148 0.21075901 -0.28856257 0.44441798
0.34141302 0.043145712 -0.0449523 0.18270002 0.3208226 0.25723925 0.27268764 -0.23162198
-0.11224149 0.28516456 -0.36380038 0.31239593 -0.12623386 0.24312828 -0.21417448 -0.11094571
0.31226832 -0.113695994 -0.16258408 0.30474082 0.17129049 -0.2854183 0.04407941 -0.29896113
-0.33419845 -0.36224967 -0.06825972 -0.3179624 0.21897018 0.053919613 -0.13865171 -0.28605753
-0.22382003 0.29113284 0.08785196 -0.2045081 0.4348108 0.014875264 0.05703303 0.10040145
00000000: f807 26be 6a56 a43e 7ede 4bbe b35d b13e
00000010: 2579 5ebd c5cc 863e 15cc 373e 5e91 3b3e
00000020: 00d2 433e 5d87 da3d 2551 b73c 913d b33e
00000030: e06f 273e d5b0 763e fd2c 503c 202d afbd
00000040: 2084 a63e 4607 ac3d 8500 703e 75db 5fbe
00000050: c131 50be 36d1 573e 79be 93be c18a e33e
00000060: b0cd ae3e 8fb9 303d e71f 38bd b715 3b3e
00000070: dc42 a43e ddb4 833e b79d 8b3e 502e 6dbe
00000080: dede e5bd 1701 923e 0b44 babe 5cf2 9f3e
00000090: 7343 01be 9ff6 783e 8e50 5bbe 8137 e3bd
000000a0: a2e1 9f3e 72d9 e8bd 717c 26be fd06 9c3e
000000b0: c666 2f3e 5922 92be 9d8c 343d 6f11 99be
000000c0: 0f1c abbe ca78 b9be c1cb 8bbd f8cb a2be
000000d0: b839 603e d0da 5c3d b7fa 0dbe 2276 92be
000000e0: 1431 65be 5d0f 953e baeb b33d 926a 51be
000000f0: 859f de3e 61b7 733c 779b 693d 479f cd3d

conv2.nn.0.weight f4 [64, 64]
0.005823527 0.083023876 -0.08568195 -0.0034168784 -0.020626424 0.1857438 0.039270937 -0.13717161
-0.094328 -0.034997758 0.102409355 -0.010216437 0.0964831 0.03257604 -0.5315439 0.16825408
-0.099939294 -0.03504843 -0.0864076 -0.4112717 0.026229488 0.031347036 -0.11842085 -0.066337645
0.034209456 0.079960994 0.06518396 -0.053307936 -0.081850514 0.006571976 -0.056000914 -0.097411565
-0.12166979 0.076859854 0.05184214 0.10609159 -0.07934492 0.02863199 -0.089501075 0.1586736
0.10040228 0.072563834 0.085063554 0.059645783 -0.058757957 -0.0687492 0.085329264 -0.05528173
-0.030372968 -0.06951165 0.12158782 0.06959417 0.13915645 0.06141153 0.0076440484 0.105037175
-0.14483218 -0.111334726 0.055097222 0.21435544 0.08765445 0.034343798 -0.1498649 0.016900277
0.22779876 0.008743448 -0.08264964 0.06410639 0.020018816 0.3924402 -0.017652523 0.19614781
0.019891731 0.04480617 0.004332249 0.0019451877 0.14099115 -0.07796652 -0.082038686 0.12519512
0.08914214 0.2206989 0.06213807 0.111816965 -0.032401394 0.05991296 -0.055202074 2.1791644e-05
0.012696589 -0.05603692 -0.2147029 0.047163114 -0.116395324 0.08748983 -0.0010496982 0.0051069735
-0.048702803 -0.071534716 0.048222125 -0.087526046 0.01006869 0.080766134 0.08457618 0.048082087
0.057309743 0.043738116 -0.09510948 -0.025910541 0.22780964 0.050863486 -0.059972417 0.11049314
0.4779968 0.08790181 -0.09404304 -0.021310953 0.11241876 -0.14672479 -0.09711187 -0.017249292
-0.27134055 0.07132248 0.09815742 -0.017803526 -0.14217381 0.075699665 -0.14323366 -0.025791572
0.4123083 0.0774073 0.15122338 -0.2032913 -0.09978607 -0.044779614 -0.1242759 -0.1841214
-0.072956875 0.12329235 0.05062004 0.06666923 0.15744415 -0.09391437 -0.047554843 0.2591463
-0.034364413 -0.08408523 -0.009650947 0.27296367 -0.05958793 0.08363639 -0.12681985 0.05608431
-0.032709565 0.039903 -0.17292164 -0.038613554 0.013109115 -0.03742202 0.042025425 -0.031195456
0.07916564 -0.01609341 0.055768546 -0.08318094 0.10239382 -0.08296738 -0.03976771 0.09414438
0.10089359 0.050999153 -0.02785584 -0.12106495 -0.11484665 0.053853963 -0.020669144 0.072692625
0.39155698 -0.041815825 -0.08443243 0.007889748 0.04144347 -0.17649224 -0.033404928 -0.116454154
-0.050803848 -0.06774633 0.09742853 0.07365648 -0.081959486 -0.035142936 -0.08113716 -0.0753363
-0.12253521 0.0993197 0.11028076 -0.06925797 0.036033794 -0.07616928 -0.123495 -0.12395885
-0.038102128 -0.019185148 -0.109232984 0.013607872 0.0037223476 -0.12752324 -0.04165278 -0.037086338
-0.10294657 -0.1495308 0.007382928 -0.08539736 -0.052970096 -0.030904053 0.008600966 0.032534845
-0.108819045 0.019026626 0.080850825 0.11360027 -0.110588185 -0.1346457 -0.1091052 -0.017312823
-0.070522666 -0.053792536 -0.0067510526 -0.02732994 0.08615063 0.04094261 -0.035893854 0.25454813
0.10017266 -0.076360926 0.01876304 -0.04008049 -0.049626153 -0.02769836 0.021532243 0.075413086
-0.18014063 -0.074484974 0.07288687 0.01165874 0.052669916 -0.034248516 0.009328025 0.019023683
-0.04640485 0.031656154 0.036354005 -0.0025323285 -0.0822878 0.03721505 0.12954085 -0.018087445
00000000: 49d3 be3b 6c08 aa3d 057a afbd b5ed 5fbb
00000010: bff8 a8bc 9f33 3e3e 90da 203d b776 0cbe
00000020: 0a2f c1bd cf59 0fbd ffbb d13d d862 27bc
00000030: ee98 c53d 746e 053d 4313 08bf cc4a 2c3e
00000040: f9ac ccbd f18e 0fbd 78f6 b0bd 3492 d2be
00000050: 39df d63c c065 003d a186 f2bd 08dc 87bd
00000060: 371f 0c3d 97c2 a33d 2b7f 853d 6c59 5abd
00000070: 3ea1 a7bd bb59 d73b 3761 65bd b77f c7bd
00000080: 032e f9bd b368 9d3d 6c58 543d 8c46 d93d
00000090: 977f a2bd a38d ea3c 574c b7bd 557b 223e
000000a0: b69f cd3d 599c 943d cd35 ae3d 234f 743d
000000b0: 2fac 70bd 61cc 8cbd 1cc1 ae3d 186f 62bd
000000c0: bbd0 f8bc 205c 8ebd 0903 f93d 6387 8e3d
000000d0: 077f 0e3e a88a 7b3d ed7a fa3b bb1d d73d
000000e0: e34e 14be 7603 e4bd a0ad 613d fe7f 5b3e
000000f0: 2d84 b33d 15ac 0c3d 2f76 19be 7372 8a3c
00000100: 1444 693e ae40 0f3c 3744 a9bd 364a 833d
00000110: 80fe a33c eced c83e 069c 90bc f9da 483e
00000120: fcf3 a23c ad86 373d 8af5 8d3b abf5 fe3a
00000130: fc5f 103e e9ac 9fbd e603 a8bd 2633 003e
00000140: 2790 b63d e4fe 613e 7d84 7e3d 4b00 e53d
00000150: 53b7 04bd 4b67 753d 921b 62bd 33cd b637
00000160: 5b05 503c f886 65bd 14db 5bbe 1c2e 413d
00000170: ac60 eebd de2d b33d 0796 89ba 6658 a73b
00000180: 977c 47bd cb80 92bd 9084 453d db40 b3bd
00000190: 26f7 243c b768 a53d 4736 ad3d b9f1 443d
000001a0: 9fbd 6a3d bd26 333d c2c8 c2bd 5842 d4bc
000001b0: ee46 693e 3b56 503d a3a5 75bd 3a4a e23d
000001c0: ffbb f43e dd05 b43d a399 c0bd 4f94 aebc
000001d0: cf3b e63d 063f 16be 97e2 c6bd 634e 8dbc
000001e0: 26ed 8abe 8511 923d c206 c93d b3d8 91bc
000001f0: 0396 11be 6d08 9b3d d8ab 12be d948 d3bc
00000200: 131a d33e b887 9e3d 4dda 1a3e 982b 50be
00000210: a45c ccbd d46a 37bd 5d84 febd 528a 3cbe
00000220: 6a6a 95bd b380 fc3d f656 4f3d e189 883d
00000230: 0a39 213e 2d56 c0bd dec8 42bd d3ae 843e
00000240: b3c1 0cbd e134 acbd 011f 1ebc e5c1 8b3e
00000250: 7912 74bd 8e49 ab3d 10dd 01be a9b8 653d
00000260: 77fa 05bd 5471 233d 5f12 31be 3f29 1ebd
00000270: 9dc7 563c d547 19bd da22 2c3d 9d8d ffbc
00000280: 9821 a23d 54d6 83bc 8f6d 643d c55a aabd
00000290: dab3 d13d cdea a9bd 77e3 22bd c5ce c03d
000002a0: 4ca1 ce3d 7de4 503d ee31 e4bc e7f0 f7bd
000002b0: b834 ebbd f995 5c3d 5652 a9bc dfdf 943d
000002c0: 287a c83e 1247 2bbd e9ea acbd 0044 013c
000002d0: a1c0 293d 62ba 34be 9bd3 08bd 847f eebd
000002e0: b217 50bd 96be 8abd 9c88 c73d 35d9 963d
000002f0: 60da a7bd 0af2 0fbd 3d2b a6bd eb49 9abd
00000300: bdf3 fabd 2068 cb3d e1da e13d 1fd7 8dbd
00000310: 2c98 133d a4fe 9bbd f2ea fcbd 23de fdbd
00000320: fa10 1cbd 2c2a 9dbc 8bb5 dfbd 8df3 5e3c
00000330: a1f2 733b 7495 02be 1b9c 2abd d8e7 17bd
00000340: a7d5 d2bd 9a1e 19be 7dec f13b d0e4 aebd
00000350: 2cf7 58bd 7f2a fdbc 11eb 0c3c 4243 053d
00000360: 85dc debd badd 9b3c 1e95 a53d 42a7 e83d
00000370: 0f7c e2bd 90e0 09be 8c72 dfbd 9fd3 8dbc
00000380: 306e 90bd 9055 5cbd ef37 ddbb 0ae3 dfbc
00000390: be6f b03d 70b3 273d 6f05 13bd 2254 823e
000003a0: 5327 cd3d 1e63 9cbd f2b4 993c 712b 24bd
000003b0: cb44 4bbd ace7 e2bc 6364 b03c 2d72 9a3d
000003c0: c976 38be 948b 98bd b645 953d 4d04 3f3c
000003d0: 69bc 573d 2c48 0cbd 93d4 183c 8ed7 9b3c
000003e0: 0313 3ebd e2a9 013d f0e7 143d 6cf5 25bb
000003f0: 8286 a8bd cf6e 183d 5ba6 043e 1f2c 94bc

conv2.nn.0.bias f4 [64]
0.12203059 -0.02378576 0.053708743 0.033179287 -0.06361758 0.12114701 0.106083184 -0.053748254
0.00030902404 0.013432212 -0.1694724 -0.004101599 -0.04691324 -0.15477516 -0.08967457 -0.06474581
-0.12925842 -0.10297317 -0.13181543 0.027649518 -0.035870075 -0.11603356 -0.074569434 0.034374636
-0.026319126 0.056356404 -0.015644934 -0.10301293 0.08328342 0.09776989 -0.024512706 0.012358074
-0.036790874 -0.15131548 -0.14182483 0.034660637 -0.074152514 0.011962763 -0.10176858 0.20759067
0.051248293 -0.050570853 -0.044069782 -0.12300381 0.03103275 -0.028400917 0.017718615 0.33895725
0.04513804 -0.021636326 -0.06878964 0.07517461 -0.0161776 -0.061248016 -0.056625932 0.043248676
0.081790134 0.065853715 -0.025696596 0.3360727 0.25098786 0.08877164 -0.000500441 0.0075834165
00000000: 2deb f93d 5bda c2bc b3fd 5b3d 01e7 073d
00000010: ef49 82bd ec1b f83d 2442 d93d 2127 5cbd
00000020: 8104 a239 c812 5c3c 2c8a 2dbe b566 86bb
00000030: 1928 40bd 617d 1ebe 4da7 b7bd 7499 84bd
00000040: 525c 04be 99e3 d2bd a0fa 06be 3e81 e23c
00000050: 80ec 12bd 01a3 edbd dcb7 98bd 6bcc 0c3d
00000060: 359b d7bc f9d5 663d ce29 80bc 71f8 d2bd
00000070: 7f90 aa3d 953b c83d dfce c8bc 8579 4a3c
00000080: 07b2 16bd 72f2 1abe 873a 11be 50f8 0d3d
00000090: 46dd 97bd 77ff 433c 0c6c d0bd a692 543e
000000a0: bbe9 513d 6223 4fbd 8482 34bd 6ce9 fbbd
000000b0: 6538 fe3c 0aa9 e8bc a126 913c ce8b ad3e
000000c0: aae2 383d aa3e b1bc 95e1 8cbd 25f5 993d
000000d0: e386 84bc 33df 7abd 98f0 67bd 8625 313d
000000e0: 9681 a73d 50de 863d ab81 d2bc b911 ac3e
000000f0: 7b81 803e e8cd b53d 0730 03ba 4f7e f83b

conv2.nn.2.weight f4 [64, 64]
0.10547459 -0.114944264 0.0054662656 0.012920166 0.026294569 -0.09710162 0.095640436 0.097797856
-0.11211515 -0.039346755 0.080115855 -0.078404404 -0.1236228 0.09978279 0.016296739 -0.016340462
0.015827935 -0.07144176 -0.10944444 0.06956287 0.012358939 -0.060003314 -0.030523315 0.00974184
0.083478525 -0.115432404 0.0016973207 0.010604969 -0.11011549 -0.08455463 -0.08503198 0.08680038
0.025061695 0.0043752575 0.044640113 -0.07981876 -0.051836263 -0.018635955 -0.08472841 0.08616509
-0.051258422 0.11144307 0.032229163 -0.08865817 0.110674866 -0.0760716 -0.020799845 0.086107
-0.07635659 -0.11517313 -0.079855055 0.03129508 0.022833096 0.12674983 -0.023465611 0.03095536
0.06151855 -0.052665148 0.16350839 0.106796734 -0.01648653 0.041186575 0.008929327 0.07890501
-0.12080962 -0.048849124 0.13247631 -0.10514409 0.035374638 -0.059039153 0.10329292 -0.0759581
0.024087472 0.092316315 0.08873905 -0.037260085 -0.1322961 0.081401855 0.018264536 -0.058786243
-0.065937445 0.023452478 0.04191038 0.014745263 -0.08181967 -0.06285307 -0.0012460159 -0.046657503
0.039295197 0.10631943 0.00045377802 0.06936659 0.08807716 -0.0806375 -0.054490276 -0.00725704
-0.041915733 0.064590454 -0.12532829 -0.07122668 0.09245684 0.041771375 -0.067797564 0.09259698
0.018889628 0.0867277 0.06048811 -0.045741893 0.030878367 0.024180057 0.051052786 0.00895612
0.09129128 0.114878885 0.11427265 0.04559425 0.039112575 0.31249684 -0.033635005 0.0157429
0.02647391 -0.042929202 0.027852006 0.0675343 -0.07759954 -0.072954096 0.0022305916 -0.090658024
-0.032585856 -0.047034714 0.08750186 0.07634025 0.037222907 0.0317534 -0.13026726 0.0018255058
-0.12840942 -0.04868445 0.0016325896 0.0435636 -0.0720393 0.11274609 0.052377854 0.11553916
0.035141505 -0.11374812 -0.07402075 0.07601225 0.043756742 0.030078655 0.04040659 0.013431132
-0.04481791 -0.06767003 0.05959599 -0.03377322 -0.10739474 -0.123742156 0.0712489 -0.071517475
-0.021294085 -0.037338223 -0.006557994 -0.009508254 0.10505623 -0.08808809 0.0032984852 -0.14581068
0.114806965 -0.07657718 0.05332643 0.048506185 -0.11709902 -0.110669345 -0.0858783 0.08315177
0.11179606 -0.11988891 0.04849973 0.044702474 -0.010455726 0.02066498 -0.088725306 -0.08598663
-0.06442058 -0.038696416 0.06692742 0.07729838 -0.06435702 0.043107644 -0.054494157 0.03930819
-0.11705789 0.09263625 0.055484127 -0.092958376 0.01571683 0.09431028 0.17455994 0.020890327
0.10653425 0.02933438 -0.12470717 -0.1332918 -0.07646052 0.023463689 0.034036532 -0.0547414
0.04809615 0.021445414 -0.10609692 -0.048612047 -0.022920314 -0.14678894 0.019542262 0.023615645
-0.098181814 0.064608395 0.08333939 0.10568721 -0.1092178 0.050775692 0.10934786 0.11317091
0.035894413 0.022196284 0.04764714 -0.0021698608 -0.00482372 0.07437656 0.03325038 -0.06986876
0.0625194 0.097346984 0.13388973 -0.10056427 -0.017714072 0.10229247 0.029660195 0.029694552
0.047773086 -0.0073284335 0.10186632 -0.017063143 -0.016719734 0.034627162 -0.1117095 0.019185241
0.007370957 -0.024474228 -0.11285803 -0.017474163 -0.01235524 -0.11839592 0.031415246 0.042481713
00000000: 1003 d83d e667 ebbd 5c1e b33b 1baf 533c
00000010: b567 d73c 37dd c6bd 22df c33d 3e4a c83d
00000020: a19c e5bd 102a 21bd c813 a43d 7d92 a0bd
00000030: f32d fdbd eb5a cc3d bd80 853c 6fdc 85bc
00000040: 96a9 813c 0f50 92bd 6824 e0bd fa76 8e3d
00000050: 267d 4a3c 09c6 75bd 080c fabc 3d9c 1f3c
00000060: caf6 aa3d d367 ecbd a278 de3a 77c0 2d3c
00000070: 3b84 e1bd fa2a adbd 3f25 aebd 66c4 b13d
00000080: 2f4e cd3c 525e 8f3b 8dd8 363d 0578 a3bd
00000090: 4352 54bd 6eaa 98bc 1786 adbd 5377 b03d
000000a0: 5af4 51bd 443c e43d ba02 043d 6a92 b5bd
000000b0: 81a9 e23d 6dcb 9bbd 7064 aabc de58 b03d
000000c0: d860 9cbd e4df ebbd 0c8b a3bd 452f 003d
000000d0: 790c bb3c b5ca 013e f43a c0bc 1896 fd3c
000000e0: e0fa 7b3d 69b7 57bd be6e 273e 3fb8 da3d
000000f0: c20e 87bc 41b3 283d 504c 123c f398 a13d
00000100: 096b f7bd 0516 48bd dfa7 073e c955 d7bd
00000110: ffe4 103d 0ad3 71bd 3d8b d33d ec8f 9bbd
00000120: 1753 c53c 5610 bd3d d2bc b53d 089e 18bd
00000130: a178 07be 04b6 a63d 829f 953c d8c9 70bd
00000140: 360a 87bd 691f c03c 38aa 2b3d 1e96 713c
00000150: 1291 a7bd 1cb9 80bd 5b51 a3ba f01b 3fbd
00000160: 00f4 203d 00be d93d 0ee9 ed39 1210 8e3d
00000170: cc61 b43d 4625 a5bd 3231 5fbd 77cc edbb
00000180: d5af 2bbd 0048 843d 0f56 00be 4bdf 91bd
00000190: 035a bd3d 7618 2b3d 73d9 8abd 7ca3 bd3d
000001a0: 6cbe 9a3c 4b9e b13d 61c2 773d da5b 3bbd
000001b0: a1f4 fc3c 4115 c63c ba1c 513d b1bc 123c
000001c0: ecf6 ba3d 9f45 eb3d c707 ea3d 09c1 3a3d
000001d0: 8234 203d 96ff 9f3e dcc4 09bd 41f7 803c
000001e0: d0df d83c 88d6 2fbd e429 e43c 6c4f 8a3d
000001f0: 82ec 9ebd f568 95bd 1e2f 123b eaaa b9bd
00000200: bf78 05bd 79a7 40bd 2d34 b33d 4758 9c3d
00000210: 0c77 183d da0f 023d c864 05be cf45 ef3a
00000220: c27d 03be 5969 47bd 9efc d53a bf6f 323d
00000230: 5789 93bd 6ce7 e63d 298a 563d cc9f ec3d
00000240: 8af0 0f3d c6f4 e8bd 3198 97bd 4fac 9b3d
00000250: 453a 333d 8367 f63c 6181 253d 400e 5c3c
00000260: fc92 37bd 9696 8abd ed1a 743d ca55 0abd
00000270: c6f1 dbbd 876c fdbd f1ea 913d c177 92bd
00000280: ef70 aebc f7ef 18bd 71e4 d6bb 82c8 1bbc
00000290: b927 d73d 8767 b4bd 662b 583b 654f 15be
000002a0: ea1f eb3d 7fd4 9cbd d16c 5a3d 6cae 463d
000002b0: 9cd1 efbd 9ca6 e2bd f6e0 afbd 7a4b aa3d
000002c0: 55f5 e43d 5188 f5bd a7a7 463d f119 373d
000002d0: 7e4e 2bbc 9b49 a93c 9db5 b5bd c219 b0bd
000002e0: f0ee 83bd 2280 1ebd 3e11 893d 9d4e 9e3d
000002f0: 9dcd 83bd a491 303d 4435 5fbd a001 213d
00000300: 0cbc efbd 13b8 bd3d 5343 633d f660 bebd
00000310: 95c0 803c c025 c13d d7bf 323e 3122 ab3c
00000320: a12e da3d a74e f03c 7966 ffbd a57d 08be
00000330: 5597 9cbd ec36 c03c e469 0b3d 8538 60bd
00000340: 7800 453d 4bae af3c 5849 d9bd 6d1d 47bd
00000350: 62c3 bbbc d74f 16be 1817 a03c 9975 c13c
00000360: 8c13 c9bd 6851 843d d8ad aa3d 8972 d83d
00000370: 95ad dfbd 2cfa 4f3d c5f1 df3d 26c6 e73d
00000380: 0506 133d fbd4 b53c a629 433d 3934 0ebb
00000390: 4c10 9ebb bd52 983d 8d31 083d 5a17 8fbd
000003a0: 2c0a 803d db5d c73d 641a 093e a4f4 cdbd
000003b0: 1a1d 91bc b77e d13d f0f9 f23c fd41 f33c
000003c0: b6ad 433d 5b23 f0bb 4a9f d03d 01c8 8bbc
000003d0: d3f7 88bc 36d5 0d3d f3c7 e4bd 5e2a 9d3c
000003e0: 1288 f13b 2d7e c8bc 1c22 e7bd fa25 8fbc
000003f0: a26d 4abc 8f79 f2bd 46ad 003d 4e01 2e3d

conv2.nn.2.bias f4 [64]
0.043094683 0.12841624 -0.0347432 -0.0018372997 -0.06279822 -0.27527192 -0.23664625 -0.21943457
0.040577415 0.046493847 0.113978244 0.22469081 -0.15561463 -0.099549174 -0.0956586 -0.15965164
0.054972894 -0.24493618 -0.13120021 0.18115532 0.04569395 -0.013494624 0.0224414 0.17128427
-0.047341928 -0.11536263 0.019427463 -0.014311927 0.17800905 -0.15254271 -0.07354237 -0.05527307
0.053756338 -0.02588763 -0.11461053 -0.23924038 -0.22296026 -0.066707335 -0.052119136 0.102584496
-0.0949213 0.06622038 -0.011573479 0.052142356 0.24076287 -0.115939885 0.019033933 -0.16618064
-0.23405108 -0.013987704 -0.0705016 -0.17163326 -0.13321522 0.028574564 0.2651192 -0.15716167
-0.004058818 -0.062204905 -0.105735205 -0.090248205 -0.04941672 0.14245436 -0.04079625 -0.15996759
00000000: 0d84 303d 8c7f 033e e34e 0ebd 8cd1 f0ba
00000010: 5a9c 80bd 71f0 8cbe 6553 72be 75b3 60be
00000020: 8134 263d 5570 3e3d 6d6d e93d 5915 663e
00000030: 7159 1fbe 70e0 cbbd a8e8 c3bd b87b 23be
00000040: 422b 613d 8dd0 7abe 5959 06be c880 393e
00000050: 9429 3b3d 8e18 5dbc 07d7 b73c 2565 2f3e
00000060: 9ce9 41bd 3e43 ecbd 5826 9f3c 937c 6abc
00000070: 0148 363e 2834 1cbe 629d 96bd 0466 62bd
00000080: 9b2f 5c3d 4c12 d4bc edb8 eabd 6efb 74be
00000090: b24f 64be db9d 88bd e07a 55bd d217 d23d
000000a0: 1966 c2bd 8d9e 873d b09e 3dbc 3993 553d
000000b0: 8b8a 763e e471 edbd 0ded 9b3c 422b 2abe
000000c0: 16ab 6fbe af2c 65bc 2563 90bd a1c0 2fbe
000000d0: 9269 08be 3415 ea3c b4bd 873e fdee 20be
000000e0: d5ff 84bb 92ca 7ebd b38b d8bd 0dd4 b8bd
000000f0: 3069 4abd 8edf 113e f819 27bd 8bce 23be

conv2.lin.weight f4 [64, 7]
-0.5689766 0.1154829 -0.36661044 -0.42461008 0.9064963 0.07342756 -0.20383537 -0.017314242
-0.12419709 -0.1707124 -0.07203973 -0.17828035 -0.15423946 0.18814778 -0.100571744 -0.094956435
-0.33146024 -0.048838347 0.29036814 0.17680505 -0.10633959 -0.43249747 0.14196055 0.038843732
0.045455147 -0.30537423 0.14534894 0.2614895 -0.3284288 -0.19723794 0.24438718 0.35088062
0.2937775 0.31982815 0.2242137 0.493248 -0.22864693 0.37650865 0.31839013 -0.22602916
-0.1387741 0.08763884 0.2696435 -0.34430844 0.30474114 0.30388036 0.15725178 0.16085222
0.3037018 0.53493077 -0.09495122 0.09268677 0.33745208 -0.4674365 -0.077146485 0.043312926
-0.08792541 -0.2125269 0.26180843 0.17234907 -0.37611943 -0.033526722 0.21753198 -0.34275767
-0.049817678 -0.5730991 0.53635687 0.3653351 0.023154056 -0.35830086 0.16934872 -0.20668407
-0.22912376 0.109815456 -0.2886479 0.22746722 -0.008836871 -0.28857708 0.34918833 -0.11813136
-0.40826863 -0.10004941 0.25755194 0.088438116 0.27182752 -0.20921113 0.020791367 0.36656108
-0.49584633 0.47964472 -0.34585506 -0.23071896 0.24676274 0.28752762 0.5000424 0.024552565
0.5651195 -0.03155634 0.38345745 1.1785146 -0.8281174 0.23843849 -0.051474474 0.023805985
0.22905062 -0.6504694 0.37734714 -0.49050784 -0.11092766 -0.17255224 0.40923843 -0.42638862
-0.1892991 -0.3083213 -0.37742746 -0.10463846 0.022948643 0.0650664 -0.19774877 0.821898
0.38386944 -0.53428835 0.25189182 0.03534821 -0.16063616 0.40977162 0.117161214 -0.18591213
-0.15056974 -0.19883026 0.311457 -0.10940498 0.19545151 0.5246116 0.9237538 -0.17873698
-0.43671298 0.2910125 0.26347402 0.16586211 0.3854492 0.0024800252 0.1659024 0.14399725
0.42758012 0.100836225 0.3377028 -0.18459277 0.50808644 0.45159152 -0.08829918 0.19945458
-0.26340848 0.0035897195 0.058963288 0.047789656 0.07907286 -0.05087929 0.05224739 0.24043398
0.05808059 0.32377663 -0.07213951 -0.22522394 0.28240678 -0.24606313 -0.32153285 0.20188364
-0.33426422 -0.48522186 -0.27167 -0.28865924 -0.14486955 -0.2686634 0.17175926 -0.2656106
0.23256305 -0.24399959 -0.17408301 0.08822631 -0.23904093 -0.05854877 0.21264458 0.7178379
0.47905144 -0.0064835814 0.108434446 -0.22835872 -0.6833048 -0.21309489 -0.19921517 -0.13679644
-0.1155887 -0.18631464 0.2930182 -0.17695719 -0.10753082 -0.22861536 -0.27503395 -0.34055823
-0.16302283 -0.39710003 0.21029904 0.25815988 0.18170479 0.056542825 0.09537049 -0.18870817
0.20819165 0.35252964 -0.40321493 0.057462793 0.23734875 0.17403483 -0.05623337 -0.48825347
0.2747378 -0.24018466 0.20371594 0.39860332 -0.0058244476 0.31874007 0.2888125 0.19442493
-0.025893621 0.29460624 0.07473364 0.15710601 0.061418425 0.330891 0.027060898 0.42924353
0.6260262 0.33558205 -0.22266024 -0.00090026617 -0.22185677 0.010135656 -0.553663 0.521885
-0.09054439 0.052460622 -0.4130876 0.45250377 0.11604882 -0.24795258 -0.30330223 0.016951328
-0.14022245 -0.15411831 0.2633394 -0.1616665 -0.07077368 0.354486 0.03432734 0.14330952
00000000: 73a8 11bf 4c82 ec3d 5db4 bbbe 7e66 d9be
00000010: 2410 683f 3061 963d 38ba 50be 99d6 8dbc
00000020: 0b5b febd 3bcf 2ebe 9189 93bd 208f 36be
00000030: f3f0 1dbe d0a9 403e 8ff8 cdbd 8578 c2bd
00000040: 28b5 a9be b80a 48bd 22ab 943e 620c 353e
00000050: 92c8 d9bd 4f70 ddbe 1b5e 113e 9b1a 1f3d
00000060: 2d2f 3a3d 035a 9cbe 5ad6 143e f4e1 853e
00000070: d227 a8be bef8 49be a240 7a3e a0a6 b33e
00000080: 016a 963e 84c0 a33e 4798 653e 008b fc3e
00000090: 6c22 6abe bec5 c03e 0804 a33e 3074 67be
000000a0: cc1a 0ebe fe7b b33d b60e 8a3e 3249 b0be
000000b0: 0807 9c3e 3596 9b3e 9c06 213e 72b6 243e
000000c0: cd7e 9b3e 39f1 083f c975 c2bd 90d2 bd3d
000000d0: 85c6 ac3e d653 efbe fafe 9dbd e568 313d
000000e0: 3d12 b4bd a7a0 59be c10b 863e 467c 303e
000000f0: ba92 c0be 5153 09bd b4c0 5e3e ef7d afbe
00000100: 9f0d 4cbd 9fb6 12bf af4e 093f 340d bb3e
00000110: 93ad bd3c 3673 b7be c069 2d3e fda4 53be
00000120: 6b9f 6abe ede6 e03d a8c9 93be 2bed 683e
00000130: 86c8 10bc 60c0 93be d0c8 b23e dbee f1bd
00000140: 9608 d1be b4e6 ccbd d9dd 833e 0b1f b53d
00000150: fa2c 8b3e 713b 56be a852 aa3c e5ad bb3e
00000160: 92df fdbe fe93 f53e ea13 b1be 9741 6cbe
00000170: 5faf 7c3e d236 933e c702 003f 7622 c93c
00000180: acab 103f 3941 01bd 8954 c43e 91d9 963f
00000190: 80ff 53bf 3829 743e e6d6 52bd c504 c33c
000001a0: 3f8c 6a3e 2a85 26bf a533 c13e d823 fbbe
000001b0: 0a2e e3bd 89b1 30be b387 d13e 9c4f dabe
000001c0: a0d7 41be 4adc 9dbe 2c3e c1be b04c d6bd
000001d0: cbfe bb3c 8841 853d a77e 4abe e867 523f
000001e0: 898a c43e 1fc7 08bf f7f7 803e 49c9 103d
000001f0: ce7d 24be 96cd d13e 38f2 ef3d c05f 3ebe
00000200: f42e 1abe 299a 4bbe 4b77 9f3e b80f e0bd
00000210: 7124 483e f24c 063f 217b 6c3f d406 37be
00000220: d898 dfbe 97ff 943e 11e6 863e c2d7 293e
00000230: 9959 c53e eb87 223b 52e2 293e 0474 133e
00000240: c8eb da3e 3983 ce3d 62e7 ac3e e305 3dbe
00000250: f411 023f 0137 e73e 33d6 b4bd d23d 4c3e
00000260: 7add 86be 8041 6b3b 7d83 713d 16bf 433d
00000270: f4f0 a13d cd66 50bd 5c01 563d 5334 763e
00000280: eae5 6d3d 0dc6 a53e e1bd 93bd 1ba1 66be
00000290: 9f97 903e f9f7 7bbe f49f a4be 96ba 4e3e
000002a0: ae24 abbe 006f f8be 5518 8bbe 25cb 93be
000002b0: af58 14be 408e 89be a9e1 2f3e 1dfe 87be
000002c0: 0225 6e3e 07db 79be d142 32be ffaf b43d
000002d0: 25c7 74be d6d0 6fbd 80bf 593e 3ac4 373f
000002e0: 3b46 f53e 3974 d4bb e112 de3d ded6 69be
000002f0: 10ed 2ebf 8c35 5abe 10ff 4bbe 5e14 0cbe
00000300: c5b9 ecbd 44c9 3ebe 7b06 963e 4434 35be
00000310: 1e39 dcbd 251a 6abe 40d1 8cbe a65d aebe
00000320: 75ef 26be b250 cbbe a258 573e 882d 843e
00000330: d210 3a3e 7399 673d 9a51 c33d b73c 41be
00000340: 3130 553e c47e b43e 3072 cebe 1b5e 6b3d
00000350: 8d0b 733e 3036 323e f654 66bd 5cfc f9be
00000360: 6faa 8c3e f8f2 75be e99a 503e bc15 cc3e
00000370: 02db bebb e631 a33e 3bdf 933e 5417 473e
00000380: dc1e d4bc a1d6 963e f30d 993d 66e0 203e
00000390: e391 7b3d 8c6a a93e d1ae dd3c cfc5 db3e
000003a0: 4143 203f 69d1 ab3e 0c01 64be d7ff 6bba
000003b0: 6c2e 63be 0610 263c dcbc 0dbf 419a 053f
000003c0: 566f b9bd f3e0 563d 3880 d3be 93ae e73e
000003d0: 01ab ed3d 48e7 7dbe 6e4a 9bbe 83dd 8a3c
000003e0: 7996 0fbe 31d1 1dbe 6cd4 863e e78b 25be
000003f0: cbf1 90bd 307f b53e d39a 0c3d bbbf 123e

conv2.lin.bias f4 [64]
-0.09429607 0.27646497 0.09352509 0.056794457 0.10789943 -0.15071873 0.1797392 0.012593767
0.084997565 0.03882126 0.15386014 0.25131336 -0.12824294 -0.29825515 0.0010407597 0.2304687
-0.278269 -0.04327292 -0.27672 -0.094032 -0.3691637 0.068977766 0.28687343 -0.03388934
0.11553242 -0.16666801 0.020495536 0.103887424 0.0056231874 0.13257653 0.15799962 0.00045103297
-0.19458802 -0.13518518 0.039142203 0.16369417 0.21194805 -0.048865896 0.15526044 0.057628777
0.34336093 0.31140846 0.24621493 -0.18268082 -0.23566647 0.21778792 0.0714899 -0.13966912
-0.18097392 0.29718143 -0.15942259 -0.2766479 0.20458938 0.13053147 -0.17839082 0.0052623004
0.24366511 -0.11657145 -0.3862971 -0.07039681 -0.2682876 -0.05791499 -0.07582461 0.011882301
00000000: 4c1e c1bd d18c 8d3e 158a bf3d 4ea1 683d
00000010: 60fa dc3d 0356 1abe 8e0d 383e 1656 4e3c
00000020: 3413 ae3d 0b03 1f3d 838d 1d3e 25ac 803e
00000030: 1e52 03be e6b4 98be 1a6a 883a fdff 6b3e
00000040: 4679 8ebe f23e 31bd 3eae 8dbe d993 c0bd
00000050: 0603 bdbe 3744 8d3d 13e1 923e 8ccf 0abd
00000060: 439c ec3d 05ab 2abe 41e6 a73c eec2 d43d
00000070: b742 b83b 24c2 073e a7ca 213e 9f78 ec39
00000080: 1542 47be fc6d 0abe 9353 203d 729f 273e
00000090: e908 593e 9b27 48bd 98fc 1e3e 270c 6c3d
000000a0: 01cd af3e ee70 9f3e c41f 7c3e ae10 3bbe
000000b0: 8d52 71be cc03 5f3e 4c69 923d 6c05 0fbe
000000c0: 3a51 39be 2a28 983e ad3f 23be cba4 8dbe
000000d0: e17f 513e 0baa 053e 15ac 36be 606f ac3b
000000e0: 5983 793e 03bd eebd bcc8 c5be 342c 90bd
000000f0: fe5c 89be 4538 6dbd ef49 9bbd fcad 423c
