checkpoints/C/model_C_epoch_108.pth (torch, 78709 bytes, 15 tensors)

node_embedding.weight f4 [1, 64]
000000 b3 42 36 3e df de 0e be 36 1d cd be 19 2a 58 bf
       0.17798881 -0.13952206 -0.4006135 -0.84439236
000010 9d 91 c1 3f 62 8f ca bf 1f 53 bc bc d4 cb 8a 3f
       1.5122563 -1.5825007 -0.022988854 1.0843453
000020 b2 2a 85 be ab ef 8e 3f 5c 41 6e 3f 90 cc 2d bf
       -0.26009136 1.1166891 0.9306848 -0.6789026
000030 74 67 98 3f 42 55 c6 bf 70 36 d9 bf 9f 47 e7 bd
       1.1906571 -1.5494769 -1.6969738 -0.112929575
000040 99 b1 fd 3f 6e 85 32 3f a8 3e bb 3f 52 63 01 c0
       1.9819824 0.6973485 1.4628496 -2.021687
000050 97 87 95 3f 8d 8c 80 be 98 e1 65 bf b8 18 d1 be
       1.1682004 -0.25107232 -0.89797354 -0.4083917
000060 4f 2a 45 bf 66 c7 e5 be 66 5b af bf d0 39 4a 3f
       -0.7701768 -0.4487869 -1.3699768 0.78994465
000070 b7 59 d6 3f d4 c0 10 3f b1 5b 24 3f 71 3c 14 bf
       1.6746129 0.5654423 0.6420241 -0.57904726
000080 20 24 81 3f 85 75 2c c0 e9 df 34 be c9 d7 ff 3f
       1.008915 -2.6946728 -0.1766354 1.9987727
000090 65 27 e8 3f 14 6c a9 3f f2 7f a4 bf 04 20 1d 3e
       1.8137022 1.3236108 -1.2851546 0.15344244
0000a0 a6 8f fa 3e c1 c8 05 40 29 0e 83 bf 9e 3d b5 bf
       0.4893772 2.090378 -1.0238696 -1.4159429
0000b0 4e e2 b5 3d 18 05 6e 3e 89 91 ab 3e 5e be 68 3f
       0.08881055 0.2324413 0.33509472 0.9091548
0000c0 23 8e 60 3f 1d 57 49 bf 38 72 65 40 6d 0a 24 bf
       0.87716883 -0.7864855 3.5850964 -0.6407841
0000d0 7e d6 4b be a3 9f d7 3f 33 fc 5b bf e7 1d 60 3f
       -0.19906041 1.6845592 -0.859317 0.8754563
0000e0 ec c1 9b 3e 0f 84 86 bf 5a ee e9 bb b2 b4 80 be
       0.30421388 -1.0509051 -0.0071390094 -0.2513786
0000f0 c0 a7 47 bf 0f af 95 3f bc 9d c3 3f 51 a1 d1 3f
       -0.7799034 1.1694049 1.5282512 1.6377355

conv1.nn.0.weight f4 [64, 64]
000000 d1 79 7f 3e f7 eb ae bc 2a b4 34 bd 25 c6 6a 3d
       0.24948813 -0.021352751 -0.04411713 0.05731787
000010 7e f7 ce bd e6 4a 45 3d ad 43 9b 3e c3 72 19 bd
       -0.10105799 0.04816713 0.3032507 -0.03746296
000020 46 b5 22 3d 8f 0a 13 be 94 2f 0d 3d e6 e9 69 3a
       0.039723657 -0.14359497 0.034469202 0.0008923098
000030 52 66 90 3d c5 5b 17 bd e4 0d ec bd 50 99 64 bd
       0.07050766 -0.036952753 -0.11526087 -0.055810273
000040 f7 e6 c6 bd 3b 0f b5 bd f0 f1 b7 3d d2 bb cd bc
       -0.09712022 -0.088407956 0.08981693 -0.025113974
000050 57 8e 00 bd 08 ae 66 3e 71 ae a0 bd 7f c8 08 bf
       -0.031385746 0.22527325 -0.07845772 -0.5343093
000060 d2 df 31 3e ab a1 72 3e b5 6c 2d be f8 dc 09 bc
       0.17370537 0.23694484 -0.16936 -0.008414499
000070 96 81 84 3a e8 fe 41 3c 77 30 e8 bc 8f 62 6f 3b
       0.001010942 0.01184056 -0.028343422 0.0036527251
000080 63 c4 82 bd cc ed e9 bd 3d 16 48 bd 6f 13 29 3d
       -0.06385114 -0.11422309 -0.048849333 0.0412783
000090 75 c9 ae 3d 99 83 db 3c 4c 05 20 be d0 c8 17 be
       0.08534519 0.02679615 -0.1562702 -0.14822698
0000a0 c2 a2 43 3b aa bf e7 bd f0 79 14 be 74 88 c6 3b
       0.002985165 -0.11315854 -0.1449964 0.006058747
0000b0 9c e5 80 bd 54 28 8c bd 57 42 19 be 7e dc 0c 3e
       -0.062937945 -0.068436295 -0.14966713 0.13755986
0000c0 ab ca 30 3b 51 d7 f1 bb a1 f9 89 3d ed db c9 bc
       0.0026976268 -0.007380404 0.06737066 -0.024641002
0000d0 6e d8 3e 3e 73 5c ad ba bf 6d 2c be ff a9 b3 3c
       0.18637249 -0.0013226405 -0.1683874 0.021931646
0000e0 38 34 f7 3d 35 21 07 bd cb 03 7f be d4 37 d3 bd
       0.12070507 -0.032990653 -0.2490379 -0.10313383
0000f0 63 37 a9 bd f9 50 16 bd 37 77 83 3d 69 0b 3e bd
       -0.08262517 -0.036698315 0.06419223 -0.0463976
000100 3c 3a 57 3d 10 df ee bd e0 9f 28 bd 80 53 ce bb
       0.05254577 -0.116636395 -0.041168094 -0.006296575
000110 8a db b9 3d a0 96 2e bc 88 5c 52 3d c8 09 0f 3d
       0.09075077 -0.010656029 0.051357776 0.034921438
000120 f8 cd cc bd 00 2d 48 bb 30 2c 54 bc 40 c1 93 3b
       -0.10000223 -0.00305444 -0.012949988 0.004509121
000130 2c da f7 bd 0e b5 fc bd 24 7c 1b bd 88 f1 c8 3c
       -0.1210216 -0.12339221 -0.037960187 0.024529234
000140 e2 a5 80 bd 1c 1c 32 3d 28 a4 e7 bd c4 21 36 bd
       -0.0628164 0.04348384 -0.11310607 -0.044465795
000150 94 6c f7 bd 46 90 ce 3d 0e 59 b6 bd 14 6e c1 bd
       -0.120812565 0.10086112 -0.089037046 -0.09444824
000160 f4 4e 6f 3d 8c 2d 73 bd 98 80 d1 3c c0 a5 2e bd
       0.058424905 -0.05936961 0.025574014 -0.04263854
000170 b4 ac 45 bd 38 68 29 bd a6 f5 f5 3d a0 79 ed bc
       -0.048260406 -0.041359156 0.12009744 -0.02898866
000180 80 b5 b9 3c ae 55 ac bd 62 a8 8c bd 3c 12 4b bd
       0.022669554 -0.084147796 -0.06868054 -0.049577937
000190 da c9 f2 bd 18 95 f8 bd 16 36 fd bd 6c 2e 00 3d
       -0.118549064 -0.121378124 -0.12363832 0.03129427
0001a0 6c 09 b6 bd 00 c8 1c bb d8 bd 93 3c d0 f6 35 bd
       -0.08888516 -0.002392292 0.01803486 -0.044424832
0001b0 d6 25 eb 3d d2 72 8b 3d 90 d7 ba 3d cc 83 fd bd
       0.11481826 0.068090096 0.091231465 -0.12378654
0001c0 c0 d8 2b bb 00 19 eb 3d 88 25 5f bd 44 5e 1e 3d
       -0.0026221722 0.11479378 -0.054479152 0.038664117
0001d0 fa b0 d0 bd 80 03 2a bc 90 91 01 bc a0 72 b5 bb
       -0.101900056 -0.010376811 -0.00790824 -0.005537346
0001e0 1e eb fa bd 60 71 9b bc 68 0d a3 3d 7c 1d 30 3d
       -0.12251876 -0.01897496 0.079615414 0.04299687
0001f0 92 b9 c4 3d ec 00 18 bd 00 72 9a 3a a8 28 a1 3d
       0.09605707 -0.037110254 0.0011783242 0.07869083
000200 20 70 57 bc b0 43 9a 3c 16 90 e5 bd 40 1a 01 bd
       -0.013149291 0.018831104 -0.11209123 -0.031519175
000210 b0 ba ca 3d 08 3a eb 3d 18 a5 1f 3d c8 e0 89 bd
       0.09898889 0.11485678 0.038975805 -0.06732327
000220 b2 0a cb 3d 6c 95 30 3d 38 25 d5 bd 90 e3 09 bc
       0.09914149 0.04311125 -0.104074895 -0.0084160715
000230 86 f7 85 bd 10 83 8c bc 2c e3 74 bd d0 77 b4 3d
       -0.06541352 -0.01715234 -0.05978696 0.08811915
000240 e8 fe 93 bc 50 26 e6 3c b8 d8 c7 bd cc 20 46 bd
       -0.018065885 0.02809444 -0.09758133 -0.04837112
000250 0c c5 6a bd a8 e4 18 3d a0 d3 d5 bd 0c b8 43 bd
       -0.057316825 0.03732744 -0.10440755 -0.047782943
000260 1e 87 fe bd 00 af 95 bb c8 ff 15 3d da de dd bd
       -0.12428115 -0.0045679808 0.036620885 -0.10833521
000270 28 86 d5 bc 28 df d2 bd 28 aa f9 bd 78 6b d0 bc
       -0.026064947 -0.1029647 -0.12190658 -0.02544187
000280 1c 1c 64 bd a8 66 dc bc c0 ff 5b 3d 48 0e a5 3d
       -0.05569087 -0.026904419 0.0537107 0.080593646
000290 c8 32 fe 3c ec 43 8e bd f0 46 bd 3c e8 c6 95 3c
       0.031030074 -0.06946549 0.023105115 0.018283322
0002a0 88 2e fa 3d a0 8b 0e 3d f0 a1 93 bc 54 55 8f bd
       0.122159064 0.034801126 -0.018021554 -0.06998697
0002b0 30 e9 46 bc 80 29 41 bc 64 90 dd bd 30 01 3c bd
       -0.012140557 -0.0117896795 -0.10818556 -0.04589957
0002c0 40 71 45 3d 50 f1 77 3c e0 b4 b6 3c f8 55 31 3d
       0.048203707 0.015133217 0.022303045 0.043294877
0002d0 34 8b 5d 3d 78 b6 bd bc 3c f2 98 3d a0 d0 b9 3b
       0.054087833 -0.023158297 0.074680775 0.005670622
0002e0 70 81 5d bd d8 8a 69 3d b6 d4 fc 3d 24 71 14 3d
       -0.05407852 0.057017177 0.12345259 0.03624071
0002f0 be f3 ab 3d b8 03 81 3c 6c 3e 5a bd 60 a7 bb 3c
       0.083960995 0.015748844 -0.053282186 0.022906959
000300 f8 25 17 bd 98 b8 06 bd 7c b2 a1 bd 1a ce ce 3d
       -0.036901444 -0.032890886 -0.07895371 0.100979045
000310 28 ec b7 bd 40 b0 dc 3d 70 df 0b bd 9a b6 ec 3d
       -0.0898059 0.107758045 -0.034148633 0.11558266
000320 08 c7 97 bc 06 26 fd 3d 76 7e ff bd 00 50 29 b8
       -0.018527523 0.12360768 -0.124752924 -4.0367246e-05
000330 a2 60 f3 bd 9c 19 79 bd 00 03 86 bb f0 ab b3 3d
       -0.118836656 -0.06081544 -0.004089713 0.08773029
000340 00 86 50 bd 72 5f dc 3d 38 03 c6 3c 80 df 10 bb
       -0.050909042 0.10760392 0.024171457 -0.0022105873
000350 82 f8 fe 3d 82 bb 98 bd 58 5c c8 bc 40 87 9f 3d
       0.12449743 -0.07457639 -0.024458095 0.07789469
000360 94 68 b7 bd 4c 6d f4 bd ca c5 c4 3d fa ea cd bd
       -0.089554936 -0.11934909 0.09608038 -0.10054584
000370 e0 54 07 3c 58 d0 e5 3d f8 9e 95 3d d8 30 2a 3d
       0.008259982 0.11221379 0.073057115 0.041550487
000380 10 a3 ba 3c 84 ac 3a bd 98 9b 96 bc 88 0d ec bd
       0.022782832 -0.04557468 -0.01838474 -0.115260184
000390 e0 c4 da 3b f4 86 8a 3d 5e 95 b3 3d ee 53 9d bd
       0.0066763014 0.067640215 0.08768724 -0.07682024
0003a0 a0 09 58 bd a0 7b ac bc a0 ec 92 3c b0 22 49 3d
       -0.052743554 -0.021055043 0.017935097 0.049105346
0003b0 00 dc ca bb b0 66 d4 bc a2 41 f7 bd bc 38 e0 bd
       -0.006190777 -0.025927871 -0.12073065 -0.10948321
0003c0 c0 1d 37 bd d0 38 25 bd 80 aa 08 bd bc 3b 29 3d
       -0.044706106 -0.040337384 -0.033365726 0.041316733
0003d0 28 a2 ec bd 38 51 99 3d 5c b6 7b bd 38 f9 7d bd
       -0.11554366 0.07486194 -0.06145321 -0.06200525
0003e0 f8 4c 95 3d ec 6f 21 3d d8 38 76 bd 40 91 7d bb
       0.07290071 0.039413378 -0.060112804 -0.0038691312
0003f0 e0 d8 70 bc c0 27 f2 bb 88 ad 4f bd 20 aa c4 3b
       -0.0147001445 -0.0073899925 -0.0507026 0.006001726

conv1.nn.0.bias f4 [64]
000000 77 7e 91 3c 04 29 d9 3d 50 8d 1c 3d 2c 9b 77 3d
       0.017760498 0.10603526 0.038220704 0.060450718
000010 3a c8 2c 3d 0b b9 ca bd cd 49 e0 3d 84 c9 7d 3d
       0.04218314 -0.098985754 0.109515764 0.06195976
000020 15 44 43 be a8 94 51 be 09 e6 92 3d e5 14 3f bd
       -0.1906894 -0.20466864 0.07172782 -0.046650786
000030 b8 58 c2 bc 34 9d 90 bc 11 2e df bd 46 64 b4 3d
       -0.023723945 -0.017653085 -0.10897458 0.08808188
000040 9d 18 85 3d 23 cf 39 be ee 31 24 bd 80 89 be 3d
       0.06498835 -0.18145423 -0.04008668 0.0930357
000050 70 ab 1b 3c e6 2a cc 3d 40 ae c0 3d 40 2d 51 bd
       0.009501323 0.0996912 0.094082355 -0.051068544
000060 ad c4 90 bd 1e 1b d8 3c 50 1d 75 3d e0 37 15 be
       -0.07068763 0.026380118 0.059842408 -0.14572096
000070 b4 2f f7 3d 8e a7 4d 3d 0c e3 99 bd aa 30 b1 3d
       0.120696455 0.05020862 -0.07514009 0.0865186
000080 07 05 ab bc a4 61 c8 bb 43 b1 bc bd 1b ca a0 3c
       -0.02087642 -0.0061151553 -0.092134975 0.019627621
000090 a8 fe ee 3d 53 07 d8 3d e0 8b 9f 3c 32 54 0c 3e
       0.116696656 0.10548272 0.019475877 0.13703993
0000a0 a4 15 59 3e 2c fc ea 3d a0 e4 82 3c b9 d9 59 be
       0.21199661 0.11473879 0.015978158 -0.21274461
0000b0 c6 05 ba bd 81 1b f6 bd 3e b6 94 3d b1 08 cc 3c
       -0.090831324 -0.12016965 0.072613224 0.024906488
0000c0 d8 aa 22 bd 5b 9f e0 3c f4 1c 05 be 12 67 a9 bd
       -0.03971371 0.027419737 -0.12999326 -0.08271612
0000d0 00 00 eb b7 a8 38 af bc 62 af ee 3c 8c 43 1c 3e
       -2.8014183e-05 -0.02138932 0.029136363 0.15260142
0000e0 3e d6 cb bd 80 40 b0 bd 67 ca 93 3d d0 39 39 3d
       -0.09952973 -0.086060524 0.072163396 0.04522115
0000f0 35 b9 8e bd a1 2c c7 3d 2e 7d 18 bd 0e 16 7c 3b
       -0.06968919 0.09725309 -0.037228756 0.0038465294

conv1.nn.2.weight f4 [64, 64]
000000 75 bb 8c 3c 20 78 22 3c 08 c6 89 3c 88 0c dc bd
       0.01717923 0.009916335 0.016818061 -0.10744578
000010 bb 03 be bd a0 c2 85 bd 03 c9 50 bc 04 4a 4e bd
       -0.09278055 -0.065312624 -0.012743237 -0.050363556
000020 ee 84 64 3b ac cd 84 3b b7 60 81 3d 1b 26 3a 3d
       0.0034869271 0.0040528383 0.06317275 0.045446496
000030 08 cb 81 3d 8f 64 17 be ae e7 1b bc 70 2b 83 3d
       0.06337553 -0.14784454 -0.009515686 0.064047694
000040 2a 08 67 3d d5 b4 0b bc 09 8d 36 bd 80 a0 49 3d
       0.05640427 -0.008527 -0.044568095 0.04922533
000050 ba 07 fa bd ff b8 3a bd 5b a4 fb bc 7a bc a0 bd
       -0.12208505 -0.045586582 -0.03071802 -0.07848449
000060 5e 05 cf bc 9c 58 02 3e d4 9b cc 3d c0 f7 eb bd
       -0.025271114 0.12729114 0.09990659 -0.11521864
000070 fc 88 2e bd cf cc 9a 3c 65 1d c7 3b 71 a4 91 bd
       -0.042611107 0.018896488 0.006076502 -0.07111443
000080 d4 b8 3a be b6 15 b2 bc f7 0f 7e bd 16 55 d2 3c
       -0.18234569 -0.021738868 -0.062026944 0.025675338
000090 f5 2f 07 be ca 7b f1 3d f8 ce d1 3d 63 98 fb 3d
       -0.13201888 0.11791189 0.10244554 0.12284925
0000a0 30 e7 8a 3d 34 67 96 3d d8 a5 56 3d bd bf ad bd
       0.06782377 0.07343903 0.052404255 -0.08483837
0000b0 78 b2 d5 3c 60 51 6d 3d 0c 77 26 3d 98 5d 85 3c
       0.026086077 0.057938933 0.040640876 0.01627998
0000c0 58 f5 f3 3c 31 ee e5 bc 17 c0 0b be 40 8b c2 bd
       0.029780075 -0.02806768 -0.13647495 -0.09499216
0000d0 48 4f b6 3d 00 4f eb ba 68 29 cd 3c d3 5a 46 be
       0.089018404 -0.0017952621 0.025044158 -0.19370584
0000e0 ac fc 05 3d b6 b0 ab bd b6 69 97 3d 7a 06 a5 bd
       0.03271167 -0.08383314 0.0739321 -0.08057876
0000f0 7f f8 c2 bd df e0 d9 3d 3c 57 14 3d 29 8f 7a bd
       -0.09520053 0.10638594 0.036216006 -0.061171684
000100 b4 20 bf bd d8 11 be 3d d0 da fe bc 0e bd a5 bd
       -0.093324095 0.09280747 -0.031110197 -0.080927
000110 2e 29 e3 bb 63 ac 84 3d c0 b5 c9 3d bc 92 a0 bd
       -0.0069323992 0.06478193 0.09849119 -0.07840487
000120 a5 82 cc 3d 4b 7b b5 bd 90 d8 70 bd bd 9e e1 3d
       0.09985856 -0.08861407 -0.05880028 0.11016605
000130 e8 f5 eb 3d 70 8b 61 bb cb 57 2c ba 0c 8e 90 3d
       0.11521512 -0.0034415387 -0.00065743615 0.07058343
000140 5f 59 f2 3d c5 7e 4c 3d 47 3c 94 3c 1a f6 d8 3d
       0.118334524 0.049925584 0.018095149 0.10593815
000150 10 26 38 3c bf 65 f6 3c 88 82 05 3d f9 d4 7b bd
       0.011239544 0.030077813 0.032595187 -0.061482403
000160 90 f4 4c 3d 63 21 d2 3d 08 b2 f5 bd cd 91 8e 3d
       0.05003792 0.10260274 -0.119968474 0.06961403
000170 c8 d9 3a bd eb ce 05 be c4 38 d6 bd 16 14 5a 3c
       -0.04561785 -0.13067214 -0.10460046 0.013310453
000180 ae 01 80 3d 1e 36 37 3d a6 89 9d 3d 8c 30 17 bd
       0.062503204 0.044729345 0.0769227 -0.036911532
000190 b6 99 2f be 00 a8 3d 3d 40 e5 f0 3d 18 45 6a bd
       -0.1714848 0.046302795 0.11762476 -0.0571948
0001a0 f4 97 c2 bc 28 ef ac 3c cc 6e 5d bd d2 c7 2b bd
       -0.023754098 0.021110132 -0.054060742 -0.04193861
0001b0 c8 87 0d 3d d7 1b c5 bd 6d 76 18 bd 8b b1 8e bc
       0.03455332 -0.09624451 -0.037222315 -0.017418643
0001c0 a0 ba f2 bb d6 06 4d bc ef 4d e0 bd f4 2e bd bd
       -0.0074075013 -0.012513837 -0.10952365 -0.09237471
0001d0 c0 31 c5 bb 18 d2 d7 bc fa 4d 8b bd 61 d2 ba 3d
       -0.0060178936 -0.026345298 -0.06801982 0.09122158
0001e0 40 5d 8a bd 32 1e d1 3d 39 5c 8f 3d 1e cb 9b 3d
       -0.06756067 0.102108374 0.07000012 0.07607101
0001f0 ad e1 91 3d 57 89 64 3d 47 64 b5 bd 91 93 b4 3d
       0.07123122 0.05579504 -0.08857017 0.088172086
000200 5d 49 a5 bd e8 16 d1 3c a0 dd e0 bc 00 aa 62 3c
       -0.080706336 0.025523618 -0.027449429 0.0138344765
000210 43 f8 a3 3c 30 df 9f 3d 6d eb 3b bd 60 d5 08 bd
       0.020015841 0.078062415 -0.045878816 -0.033406615
000220 eb c2 5c bd 79 8e 64 bd 40 28 69 bd b2 64 d2 3d
       -0.053896826 -0.055799935 -0.05692315 0.10273112
000230 d2 9d 85 bd ba ad 95 3d 80 9b 08 be 60 94 ed 3b
       -0.065242425 0.07308526 -0.13340569 0.0072503537
000240 46 5b 80 bd ab 5d 2d be d8 4c 1e 3d 3f 61 9b bd
       -0.06267409 -0.16930263 0.038647503 -0.075869076
000250 90 bf ac bc 44 9f c3 bd 26 85 8d 3d 8a 97 79 bd
       -0.021087438 -0.09551862 0.06910162 -0.060935535
000260 69 13 09 be 22 6f bd bd a4 20 c6 bd af 9a da bb
       -0.1338631 -0.092497125 -0.096741945 -0.0066712718
000270 00 51 5b 3c 7d 65 25 be 0b 91 bd bd 97 83 ed 3a
       0.013386011 -0.16151996 -0.092561804 0.0018120882
000280 26 d4 95 3c b4 29 d3 bd 95 49 31 bb 24 5f 62 bc
       0.018289637 -0.103106886 -0.0027051915 -0.013816629
000290 c5 74 a0 3d 0c 70 a2 3d 28 6a fd bc 0e 37 50 3d
       0.07834772 0.079315275 -0.030934408 0.050833754
0002a0 28 db 20 be 3c c5 d0 3d f0 45 c8 3c 07 cf 87 bd
       -0.15708601 0.101938695 0.024447411 -0.06631284
0002b0 f0 ac 44 bd f5 80 db bd 4c b0 f3 3d 04 da 41 3d
       -0.04801649 -0.10717956 0.1189886 0.047327057
0002c0 a0 14 5d bc a2 b4 8b 3d 02 34 2b be b6 42 fd 3d
       -0.013493687 0.06821562 -0.16719058 0.1236624
0002d0 9c c4 41 3d d6 e9 f2 3d 90 9a 7e bd 08 8b a2 bd
       0.047306642 0.11861007 -0.06215912 -0.07936674
0002e0 fc d4 16 3d b8 c1 59 3c 92 15 de bd ea 6f b3 3d
       0.03682421 0.013290815 -0.10843958 0.0876158
0002f0 21 12 f0 bc a4 89 1b bd c8 6d 9b 3c bc b5 6b 3d
       -0.02930552 -0.03797306 0.018973246 0.057546362
000300 c2 89 23 bd f6 3b a8 3d 68 a6 d3 3c 6e f6 d7 bd
       -0.039926298 0.08214562 0.025836185 -0.105450496
000310 e6 51 af 3c 5f 37 bc 3c da 0f 2c 3d 00 27 0f ba
       0.021401357 0.022975622 0.042007305 -0.00054608285
000320 72 c6 4e ba 19 de d5 bd 46 4a de 3d 0c 75 ed bd
       -0.0007887847 -0.104427524 0.1085401 -0.115945905
000330 94 cf 87 3d fe 19 d7 bd d6 67 c0 3d 4a a4 ea bc
       0.06631389 -0.105030045 0.09394805 -0.028642792
000340 72 46 f0 bd ca 48 12 3d 31 23 bd bd de 75 01 be
       -0.117321864 0.03571395 -0.09235228 -0.12642619
000350 40 6a 7c bd b4 c8 6a bd 26 98 98 3d 4f 96 d7 bc
       -0.061624765 -0.05732031 0.07450895 -0.02631679
000360 20 ef 02 be 17 a0 5d 3c bc 6f b7 3d d8 28 68 3d
       -0.12786531 0.013526938 0.089568585 0.056679577
000370 6c c7 ea bd 6d 16 d8 bd 22 10 14 bc 1b d3 a0 bd
       -0.11463818 -0.105511524 -0.0090370495 -0.07852765
000380 ea d5 53 be 81 dd cd bc f2 8f a3 ba 36 0a 84 3d
       -0.2068707 -0.025130035 -0.0012478812 0.0644726
000390 8b 42 e5 3b fe 9d 6c 3d 8c 09 0a bd e3 6e 9a 3d
       0.006996458 0.05776786 -0.03370051 0.07540681
0003a0 7c 9d d9 3d 8c 28 0e 3d 14 a4 ca bd c6 c0 23 bd
       0.10625741 0.034706637 -0.09894577 -0.039978765
0003b0 4c f3 26 3d a1 30 88 3d e8 7d 79 bd a1 21 b9 3d
       0.04075937 0.066499 -0.06091109 0.09039617
0003c0 fc dd 07 bd 28 cc 1d 3d dd 9c 44 be 88 06 e2 bd
       -0.033170685 0.038524777 -0.19200464 -0.11036402
0003d0 24 ea 2c bd 70 bc 59 bc 0a a0 f6 3d b6 68 f4 3d
       -0.04221548 -0.013289556 0.12042244 0.119340345
0003e0 dc 1c 95 bd dd b6 3b 3d b0 01 de 3d d8 db 93 3c
       -0.07280895 0.04582869 0.108401656 0.018049166
0003f0 92 1d 24 3d a9 c7 0c 3d 12 ff 1a bd 36 f2 c7 bc
       0.040067263 0.0343701 -0.03784091 -0.024407487

conv1.nn.2.bias f4 [64]
000000 c0 d2 02 be 5e 9e d5 3c ff a0 de bd e4 c0 5c 3d
       -0.12775707 0.026076492 -0.10870551 0.053894892
000010 e9 28 27 3e 30 1a ad bd 06 23 c5 3d 3f 08 c5 bd
       0.163242 -0.084522605 0.09625821 -0.096207134
000020 c4 b8 8f 3d 73 90 bf bd f6 b3 12 3e be 16 9d 3e
       0.07017663 -0.093537234 0.14326462 0.30681413
000030 03 82 c9 3d 25 a9 30 3c a0 e1 31 3e 6c ef ba bd
       0.09839251 0.010782515 0.17371225 -0.09127697
000040 f7 13 fb 3d 0f a3 85 3a 23 a6 26 3d 09 10 e2 3d
       0.12259667 0.001019569 0.040685784 0.11038215
000050 2b cd 0d be 4b 41 ab bd f1 bf 03 be c0 5b f9 3d
       -0.13847797 -0.08362063 -0.12866189 0.12175703
000060 a3 30 b3 3c c8 e9 2f be 5a 72 5c bd 9b 93 5b 3d
       0.021873778 -0.17179024 -0.05381999 0.053607564
000070 9d 1f 55 bd 95 78 20 bd c8 53 2b be b1 0c f5 3b
       -0.052032102 -0.039177496 -0.16731179 0.0074783196
000080 2c 1a 2d be a6 1a 2f 3e bd ae 3a 3d a9 58 34 be
       -0.16904515 0.1710001 0.0455768 -0.17611946
000090 66 e8 dd bd 14 83 8c bd 22 3c e7 3d 17 3e d4 3e
       -0.10835342 -0.06860939 0.11290766 0.4145362
0000a0 a8 c2 a8 3d 0e a9 9b 3d 93 37 c6 bc dc 07 94 bd
       0.08240253 0.07600604 -0.024196422 -0.072280616
0000b0 2f d4 3a bd 76 18 74 bd 4d 70 1b be 0f 0b ee 3d
       -0.04561251 -0.05959364 -0.15179558 0.11623203
0000c0 59 f9 2a 3d e0 7c 01 be 09 0f a4 bd 3f aa 90 3c
       0.041741703 -0.12645292 -0.0801068 0.017659305
0000d0 84 7e b1 bd f6 f7 a8 bc b6 d8 b3 bd 1e 3a f1 bd
       -0.08666709 -0.02062605 -0.08781569 -0.11778663
0000e0 7b 7b 5a be 48 ec 38 3e 68 0a 0c be 4d 92 47 be
       -0.21336167 0.18058884 -0.13675845 -0.19489403
0000f0 57 08 08 3e bd f8 80 bd bf 20 4e bd fd eb 25 be
       0.13284431 -0.06297443 -0.050324198 -0.16203304

conv1.lin.weight f4 [64, 7]
000000 41 8b bd be ad fc 35 3f 37 1c 98 3e 72 da f8 3d
       -0.37020305 0.7108868 0.29709026 0.1215104
000010 ed 72 ba 3e d9 3f a4 be 55 07 d2 3e a6 5c 8a be
       0.36415806 -0.32079962 0.4102122 -0.2702381
000020 6a ef 26 bf a7 d5 28 be e3 29 2b be d7 e2 99 be
       -0.65209067 -0.16487752 -0.16715197 -0.30055878
000030 c4 12 a0 3e 52 0b 36 3c 61 b3 ba be 48 29 51 3e
       0.31264317 0.011111097 -0.3646498 0.20425904
000040 97 ff 9b bc 2e 25 89 bc c6 61 97 3d 5b d9 aa 3e
       -0.019042773 -0.016741361 0.07391696 0.33368954
000050 b1 d8 0e 3e 6c 41 d4 3d 2b 34 95 bd b0 54 45 3e
       0.13949849 0.10364041 -0.07285341 0.19270587
000060 0a 94 0a be ec d6 a4 be 38 28 44 be cf b5 8d be
       -0.13533035 -0.32195222 -0.19155967 -0.2767777
000070 e6 14 68 3d 0f be 3f 3d 3f b5 68 3e 7d a4 58 be
       0.056660555 0.046812113 0.2272539 -0.21156497
000080 3f f6 a1 3e e4 36 3c 3e e6 10 12 bf 75 06 82 3d
       0.31633183 0.18380314 -0.57057035 0.06348888
000090 4a a3 a0 3d 8e 45 b8 bd 87 43 cd bd 9e a8 8f be
       0.07843645 -0.089976415 -0.100226454 -0.28058332
0000a0 3b 10 70 be d1 8d b9 bc b9 75 1a bf 7d eb 10 3f
       -0.23443691 -0.022650631 -0.6033588 0.56609327
0000b0 87 fa 5b 3e 73 bd c8 3e 2f a1 a3 bf 37 5f 5b 3e
       0.21482287 0.39207038 -1.2783564 0.2142304
0000c0 78 89 80 3e a5 67 f9 3c 8c 56 8b be 34 a7 fc be
       0.2510488 0.03044493 -0.27214468 -0.49346316
0000d0 71 09 f0 3c 56 c7 fe 3d 4e 91 c8 be 6b ea 55 3e
       0.029301377 0.12440364 -0.3917336 0.20890205
0000e0 94 ed 34 3f 4d 32 cb 3e 40 3d 08 3f d9 b5 d7 3e
       0.70675015 0.39686814 0.5321846 0.42130926
0000f0 e0 82 b7 be 3a e0 9d 3e 08 6e 10 be ee 94 d0 3e
       -0.35842037 0.30835134 -0.14104474 0.40738624
000100 a5 db 12 bf 17 c6 c9 be 4c 0e c8 be 76 3b ba bd
       -0.573664 -0.39408943 -0.39073408 -0.090933725
000110 4f 3c 7f be 05 2e 09 be 6e e3 f1 3d c6 a3 b9 3e
       -0.2492535 -0.13396461 0.11810957 0.36257762
000120 e9 9e 04 3f b9 ef 86 3b 68 2a de 3e 5d 92 c5 be
       0.5180498 0.0041179326 0.43391728 -0.3858823
000130 e3 0e 96 bd fb 24 1b be c4 95 a9 be 84 f3 c0 bd
       -0.07327058 -0.15150826 -0.33122075 -0.09421447
000140 4a 33 96 be 6b 9f cd 3d 32 49 ce 3c f1 f7 27 be
       -0.29336005 0.10040172 0.025181387 -0.16403176
000150 55 12 92 be 36 22 01 3e 6d 06 9e 3e f6 8a f7 be
       -0.2852961 0.12610707 0.30864277 -0.48348206
000160 ef 58 73 3e bd 36 b9 be b3 e1 ff bd 66 06 98 3e
       0.23764394 -0.36174574 -0.124942206 0.29692382
000170 18 b3 0b 3e 5e 81 0c 3e 63 9f 93 3e dc b5 c1 bd
       0.13642538 0.13721225 0.2883254 -0.09458515
000180 9f 40 3d bc 4b 9d 5e 3c d2 cf d6 3d dd d0 d7 3c
       -0.011551051 0.013587306 0.10488857 0.026344711
000190 3e f8 e2 3d e1 4e 64 3e 4d de 2a be a8 1a 3f be
       0.11082505 0.22295715 -0.16686364 -0.18662512
0001a0 f9 89 78 bc 0d 5e 89 be 68 07 98 be 0b 35 9d 3d
       -0.015169614 -0.26829568 -0.2969315 0.07676133
0001b0 27 3d 49 3e 9d 7e 19 be 37 0b 20 be 05 30 39 3e
       0.19652234 -0.14989705 -0.15629278 0.18084724
0001c0 73 af 27 be 2f 0e b6 3e b9 b1 44 3e 4a 64 c8 be
       -0.16375522 0.35557696 0.19208421 -0.39139014
0001d0 f8 21 9d be 2d f1 9f be 30 b9 fd bd a1 e8 19 3e
       -0.3068998 -0.3123869 -0.12388837 0.15030147
0001e0 51 f8 72 3c 88 b0 06 bf 0a 21 14 be 85 9f a4 be
       0.014829711 -0.52613115 -0.14465728 -0.32152954
0001f0 3f 75 38 3e 50 01 f4 ba f2 2f 7e bd 78 53 74 bd
       0.18013476 -0.0018616114 -0.062057443 -0.059649915
000200 64 cb 5a be 87 e0 5b 3e 86 a8 09 3e 2c 9d 51 be
       -0.2136665 0.21472369 0.13443193 -0.20470113
000210 ba 5d d3 bc a8 87 a5 be 41 c9 55 3a 61 4b 18 3e
       -0.025801528 -0.3233006 0.00081552943 0.14872505
000220 a9 7f 61 3e ad 87 0f be 86 18 63 be ea 48 ac 3e
       0.22021355 -0.140166 -0.22177324 0.3364938
000230 79 0b 0f be ac 6d 1d 3f 32 38 32 be d1 04 17 be
       -0.1396922 0.6149547 -0.1740425 -0.14747931
000240 c3 04 52 be 6c 6c a8 be 68 51 1a 3e c2 31 a5 be
       -0.20509629 -0.3289522 0.15070117 -0.32264525
000250 b7 e4 25 3f 5e 90 da 3e 19 fc a7 bb f8 ee 42 3e
       0.64802116 0.42688268 -0.005126488 0.19036472
000260 c6 c2 c7 3e 20 f6 1b 3d 83 cd a4 3e 0b 50 30 bd
       0.39015788 0.03807652 0.32188043 -0.043045085
000270 35 a2 76 ba c6 29 93 3e 6d f5 b7 3e 81 06 0e be
       -0.0009408326 0.28742808 0.35929433 -0.13869669
000280 08 5a ae be ac e1 7d 3f 01 62 e5 bd 39 43 cd be
       -0.34053063 0.9917247 -0.112003334 -0.4009035
000290 1c 48 1f 3e a7 f1 c6 3d 73 92 a3 be a1 c6 23 be
       0.15554851 0.0971406 -0.3194767 -0.1599374
0002a0 aa a8 c3 bc 5a 08 67 3f 40 df a8 3e 63 b2 0b 3e
       -0.023884136 0.9024712 0.32982826 0.13642268
0002b0 ae 20 36 3e 43 dc a8 3e 06 2e 39 3f d8 67 ae 3b
       0.17785904 0.32980546 0.7233585 0.0053224377
0002c0 bd bf 57 3f eb f1 e6 3e 5d 8b 58 3d 09 37 de 3d
       0.84276944 0.45106444 0.052867282 0.10850341
0002d0 5b 52 93 bb 51 b8 41 3f 92 61 98 3d e8 26 4c be
       -0.0044959015 0.7567187 0.07440485 -0.19936717
0002e0 f9 6a 9d 3d ae af 0b be bf bc 68 be 54 0e 53 3e
       0.07686419 -0.13641235 -0.22728251 0.20610934
0002f0 ca 5c 56 3e 23 93 ce 3e c4 02 1a bf 0a df 48 3d
       0.20933834 0.4034663 -0.6016047 0.04904083
000300 75 c2 8b be 41 9e cd be 53 43 ac bd a1 d9 15 3e
       -0.27296796 -0.401598 -0.084112786 0.146338
000310 d6 1b b9 3d 2b 51 fb bd 65 39 d4 be 03 2e a9 be
       0.090385124 -0.12271341 -0.4145004 -0.33042917
000320 dc ba 81 bd a8 3e 03 bd 12 40 54 be 71 01 12 bf
       -0.06334469 -0.032042176 -0.20727566 -0.5703345
000330 65 19 0f be ef 5f b4 be fa 76 2f 3e 7e 33 ce be
       -0.13974531 -0.35229442 0.1713523 -0.4027366
000340 5a 63 8e bc 24 6f 23 bc 28 3b db 3e 88 2e 77 bf
       -0.017381359 -0.009975228 0.4281857 -0.96555376
000350 e8 bc 68 3d dc 62 56 3e 32 6a 93 3e 85 73 f7 be
       0.05682078 0.2093615 0.28791958 -0.48330322
000360 01 7a a2 3d f8 9b 36 3e b3 8d ae bc 8d 64 c0 3d
       0.07933427 0.17832935 -0.021307802 0.093941785
000370 fe 59 62 3e 85 77 b5 3c de 59 84 3d 6d 78 05 be
       0.22104642 0.022151718 0.06462453 -0.1303422
000380 1a b6 aa 3d b3 0a 06 be aa be 07 bf 04 e5 9a 3e
       0.08335514 -0.13090019 -0.53025305 0.3025285
000390 1a 58 6b 3c 1d 27 b2 bd 97 0a 36 be f2 2c 8e be
       0.014364267 -0.086988665 -0.17777477 -0.27768666
0003a0 d7 c7 6e be 0a 28 b8 3e 2e 54 b6 3d f9 0a ac 3e
       -0.2331842 0.35968047 0.08902775 0.3360212
0003b0 a3 15 32 be f9 e3 54 bd ae ba 8d be 6a 33 9c bd
       -0.17391066 -0.051975224 -0.27681488 -0.07626994
0003c0 c2 43 1e 3e 9e 18 9d be 1d c0 d8 3c 2b ae a6 3e
       0.15455535 -0.30682844 0.026458794 0.32554755
0003d0 c3 bd 59 be 23 24 c1 be 2d 2a cb 3e ef 2a 9b bd
       -0.21263795 -0.37722883 0.39680615 -0.07576548
0003e0 f5 03 39 be e6 7a da be a1 e7 6a bd ad 4a ae 3e
       -0.18067916 -0.4267189 -0.057349805 0.34041348
0003f0 da 72 17 be 80 2f 27 3d 9a 1c de 3e d0 56 82 be
       -0.14789906 0.040816784 0.43381196 -0.25456858

conv1.lin.bias f4 [64]
000000 92 af 39 be e5 70 8d 3e 7e de 4b be b3 5d b1 3e
       -0.18133381 0.27625194 -0.19909093 0.346418
000010 73 10 da bd c5 cc 86 3e a5 0e 70 3e fd 7e de 3d
       -0.10647669 0.26328102 0.23443086 0.10864065
000020 2c 1f 69 3e 18 52 95 3d b4 14 68 bb 91 3d b3 3e
       0.22765797 0.07291049 -0.003541273 0.3500791
000030 0b 86 ae 3d d5 b0 76 3e fd 2c 50 3c a5 e0 a4 bd
       0.085216604 0.24090894 0.012706039 -0.0805066
000040 fd e0 82 3e d6 d3 cc 3c a8 89 0e 3e 75 db 5f be
       0.25562277 0.025003355 0.13919699 -0.2186106
000050 ff 39 83 be d8 5d 83 3e 79 be 93 be 29 33 ff 3e
       -0.25630185 0.25657535 -0.28856257 0.4984372
000060 00 85 b5 3e 0f 28 27 3c e7 1f 38 bd 31 d6 00 3e
       0.35453033 0.010202422 -0.0449523 0.12581708
000070 0e 36 7a 3e f0 67 48 3e 66 05 64 3e 50 2e 6d be
       0.24434683 0.19570899 0.22267684 -0.23162198
000080 11 7e 38 be 17 01 92 3e 0b 44 ba be cd f0 88 3e
       -0.1801684 0.28516456 -0.36380038 0.26746216
000090 95 8b 2d be 07 16 2a 3e 8e 50 5b be 91 fd 1c be
       -0.16947778 0.16609965 -0.21417448 -0.15331103
0000a0 94 ab 8b 3e fc 89 4b be 71 7c 26 be fd 06 9c 3e
       0.2727934 -0.19876856 -0.16258408 0.30474082
0000b0 a1 da 4a 3e 82 92 8a be 6e a3 55 bc ea d1 a2 be
       0.19809963 -0.27064902 -0.013039453 -0.31800777
0000c0 f7 fb be be ca 78 b9 be 1e 33 1c be f8 cb a2 be
       -0.3730161 -0.36224967 -0.15253875 -0.3179624
0000d0 c5 73 82 3e e4 0f 56 bc b7 fa 0d be 11 4b a7 be
       0.2547895 -0.013065312 -0.13865171 -0.3267446
0000e0 5e bb 91 be 5d 0f 95 3e a4 a9 e1 3d 92 6a 51 be
       -0.28463262 0.29113284 0.110186845 -0.2045081
0000f0 49 c9 e5 3e 98 3a 17 bd a9 b1 9f bc 6e aa 19 3d
       0.4488013 -0.036921114 -0.019493895 0.03751605

conv2.nn.0.weight f4 [64, 64]
000000 76 11 c9 3c 0a 35 b7 3d a0 26 bc bd a1 83 e9 bc
       0.024544459 0.08945663 -0.09187055 -0.028505148
000010 96 74 e6 bc ec 2d 0c 3e b5 05 0c 3d 26 61 30 be
       -0.028131764 0.13689393 0.03418513 -0.17224559
000020 ff 35 eb bd ab 12 4d bd b8 eb cd 3d 32 1f e7 3c
       -0.11484908 -0.05006663 0.100547254 0.028213117
000030 90 10 f1 3d 33 2d c8 3c 7c a3 04 bf 35 db 3e 3e
       0.11770737 0.024435615 -0.5181196 0.18638308
000040 9a 7b ca bd 84 b1 c3 bb 12 5c ac bd 20 0d cf be
       -0.098868564 -0.0059720892 -0.084159985 -0.404397
000050 60 50 e1 3c a6 f6 29 bc 11 66 05 be 67 5a 79 bd
       0.027504146 -0.010373747 -0.13027216 -0.06087723
000060 58 13 10 3d 32 98 a3 3d e0 f6 8f bc 84 6c 5a bd
       0.035174698 0.07988013 -0.017573774 -0.053326145
000070 f1 f2 93 bd c1 a2 57 3c a2 73 85 bd 75 c6 e3 bd
       -0.07224072 0.013161362 -0.06516196 -0.11121837
000080 c9 4e dd bd d4 be d3 3d 8e 9d a4 3d 7b a0 7b 3d
       -0.10806043 0.10339132 0.08037864 0.061432343
000090 5b de b1 bd 45 ea e3 3c 0c 56 bb bd ef 84 3d 3e
       -0.08684989 0.02782167 -0.091472715 0.18507741
0000a0 96 a7 cc 3d 47 26 90 3d 89 65 b1 3d 12 de 19 3d
       0.09992902 0.07038551 0.086619444 0.0375653
0000b0 f4 1e ba bd 53 0f b9 bd 90 57 d4 3d c4 08 56 bd
       -0.09087935 -0.09036126 0.10368264 -0.052254453
0000c0 4d ce b7 bb c8 71 8c bd b5 ce d9 3d 66 3d 9a 3d
       -0.0056093098 -0.068576396 0.10635129 0.07531242
0000d0 b5 b2 eb 3d 2b df 96 3d 2f d3 01 3c f5 77 d9 3d
       0.11508695 0.07366785 0.007923885 0.10618583
0000e0 66 28 53 be 3d 1f d6 bd 84 00 79 3d bf fc 61 3e
       -0.2062088 -0.10455177 0.060791507 0.22069071
0000f0 f1 74 77 3d 1e 34 06 3d e4 3f c7 be c2 e9 1e bd
       0.06041426 0.032764547 -0.38915932 -0.038797148
000100 74 3e f0 bd fd 30 f7 3c 9c 85 28 be 15 2a ab 3d
       -0.11730662 0.030174727 -0.16457218 0.08357636
000110 37 82 87 bc b1 4d f5 3e 2c 07 b2 bc 15 0a 85 3e
       -0.016541583 0.47910836 -0.021731935 0.25984254
000120 49 03 a7 3c d6 38 21 bd 73 5b c1 bc 00 f0 71 3c
       0.020387309 -0.039360844 -0.023603177 0.014766693
000130 aa 1b 2b 3e d6 a9 1a be 80 95 70 bd e5 a2 da 3d
       0.16709772 -0.1510385 -0.058736324 0.10675601
000140 29 16 d0 3d e5 b1 80 3e 5d 66 44 3d c8 fa 5d 3d
       0.10160477 0.25135723 0.047949184 0.05419424
000150 db b6 89 bc 5e f9 2e bd 90 76 8c bd f8 18 21 bc
       -0.016810825 -0.042718284 -0.068585515 -0.009832613
000160 2c c8 19 3c e8 cc 66 bd c1 0f 10 bf b8 de 16 3d
       0.009386104 -0.056347758 -0.5627404 0.036833495
000170 63 82 02 be 9a 0f d8 3d 3f d7 93 bc 05 bc 1b bd
       -0.12745051 0.10549851 -0.018046973 -0.038021106
000180 29 32 86 bc 04 c5 ec bd 8e bc f1 3d 02 4b d0 bd
       -0.01638134 -0.11561015 0.11803542 -0.101705566
000190 5e 30 9f bc 29 2f 82 3d 06 66 2d 3d 36 34 f0 3d
       -0.019432243 0.06356651 0.042333625 0.117287084
0001a0 d8 8c b6 3c f0 94 3f 3d bc e7 ea bd 1f 70 41 3c
       0.022283956 0.046772897 -0.11469981 0.011806517
0001b0 60 99 85 3e 66 7a a1 3d c1 c3 89 bd 1d 84 9d 3d
       0.26093578 0.07884674 -0.0672679 0.07691214
0001c0 8c 2e cc 3e f3 5f cf 3d 4c 6f 45 be 9c 58 51 bc
       0.39879262 0.10125723 -0.19280738 -0.012777474
0001d0 9a 05 d1 3d bb 73 06 be a4 96 5f be 26 be b7 bc
       0.102061465 -0.13130085 -0.21834809 -0.022429537
0001e0 3f 3f cf be 84 2b b5 3b 32 1c fc 3d 25 e2 97 bd
       -0.4047794 0.005528869 0.12310065 -0.074161805
0001f0 57 db 09 be 12 3d e0 bb e8 69 8b be 64 86 44 be
       -0.13462578 -0.0068432176 -0.27229238 -0.19191891
000200 10 fb 99 3e 46 9d 2c 3e 37 8f 58 3d ee 6f 11 be
       0.30074358 0.1685687 0.052870955 -0.14202854
000210 2d 2c 2f be 2a 24 87 3e 2f 6f 31 be 71 e6 03 bd
       -0.17106695 0.26394778 -0.1732757 -0.032202188
000220 87 b4 a0 3c 16 da ed 3d ee 8d b1 3c fb 38 97 3d
       0.019617332 0.11613862 0.021674123 0.07383915
000230 41 d6 d5 3d d2 4e aa be f0 6d f1 3c 90 fc 8e 3e
       0.10441256 -0.3326326 0.029471368 0.27927065
000240 11 f8 fb bd e6 98 e8 3b d3 8a b5 be 48 9d 5e 3e
       -0.12303174 0.007098305 -0.35457477 0.21739686
000250 82 51 77 bd ca fc 26 ba 46 b7 1e be 55 6e f5 3d
       -0.060380466 -0.0006370066 -0.15499601 0.11983935
000260 5f de ac 3d 8c d4 a1 3c 9d d9 04 bf e7 18 cf bd
       0.084408514 0.01975467 -0.5189455 -0.101121716
000270 5e 50 d8 bb b1 d7 f0 3c a2 cb 9a 3d 7d d9 0f be
       -0.0066013774 0.029399725 0.07558371 -0.14047809
000280 46 d7 b2 3d c5 6f 26 3e 0f b3 26 3e 62 97 dc bc
       0.087324664 0.16253574 0.16279243 -0.026927654
000290 b0 b1 14 3e d3 6c 09 bd 68 aa 4a bd ff 44 99 3d
       0.14520907 -0.03355105 -0.04947892 0.07483863
0002a0 b6 8c 3e 3e 90 87 9d 3d 7e 94 4d bd c6 73 5f bd
       0.18608364 0.07691872 -0.05019044 -0.05455377
0002b0 3c 7b e2 bd 66 aa 3b 3e ef 98 aa 3c 43 13 97 3d
       -0.11058661 0.1832672 0.020824878 0.07376721
0002c0 fe a3 84 3e 88 5e 1a 3d 71 5d 25 be 95 6a 2e bb
       0.25906366 0.03768781 -0.16148926 -0.002661382
0002d0 90 1f af 3d 90 88 ec bd 3c d7 aa be cf 64 c5 bd
       0.08550942 -0.11549485 -0.33367336 -0.09638368
0002e0 a2 7d 8e be 38 7d 8a bd 2e df 8c 3d ed a3 f4 3c
       -0.27830225 -0.06762165 0.06878506 0.029863322
0002f0 d9 89 69 bd 73 96 3f bd c4 69 09 3f a4 af 3f be
       -0.057016227 -0.04677434 0.5367701 -0.18719345
000300 a9 8c 04 3e e8 4f a6 3d 81 ac 71 3e dd e2 7f bd
       0.12944283 0.0812071 0.23600961 -0.062472213
000310 a5 f4 0e 3c 7a d8 d1 3c a9 87 e1 bd 6e fe 89 be
       0.00872532 0.02561592 -0.11012203 -0.26951927
000320 11 1b f5 bd 9b 53 bb 3d 05 85 16 be bc c4 b8 3d
       -0.11968053 0.09146806 -0.1469918 0.09021899
000330 88 0e 47 be d9 ea 18 bf a1 40 59 be 0c da 29 3d
       -0.19439137 -0.5973335 -0.2121606 0.04146771
000340 29 9a 10 be db ce f3 be a2 f5 26 bd 51 0f 5f bd
       -0.14121307 -0.47618756 -0.040761597 -0.054457966
000350 72 9a 3a bd 0c 6b e7 bc 7c 35 06 3d 68 0b 11 bd
       -0.045557447 -0.028249286 0.03276585 -0.03541127
000360 f9 de b4 bc b3 27 9c 3c 69 ec 12 3e 8f f0 21 3e
       -0.022078978 0.019061899 0.14347996 0.15814422
000370 c3 ad c7 bd b3 a9 e0 bd ab ac 8f be 9e f0 ed bc
       -0.09749939 -0.109698676 -0.28061423 -0.0290454
000380 e8 90 54 3c 81 ae 8b 3c f8 9d 27 bd 5a 63 00 bd
       0.0129740015 0.017050983 -0.040922135 -0.03134475
000390 b3 39 11 3c db c4 5a bd d8 8f 97 bc ff e6 bd 3e
       0.008863854 -0.053410392 -0.018501207 0.370903
0003a0 49 d6 f4 3d 8c 8a 39 bd 72 a5 4e 3d 45 30 48 be
       0.11954934 -0.045298144 0.05045075 -0.19549663
0003b0 a5 85 c7 bb 15 17 f2 bd b1 70 f0 3d 2b d8 ba 3d
       -0.0060889297 -0.11820809 0.11740244 0.09123262
0003c0 b0 62 a4 bd f5 fd 84 bc bd 09 3e 3d cb 38 1c bc
       -0.08026636 -0.016234377 0.046396006 -0.009535025
0003d0 32 d9 4b 3d 83 7a 21 3d 27 72 3a be 7e 01 17 3c
       0.04976768 0.039423477 -0.18207608 0.009216664
0003e0 fb 19 8e 3d 09 e8 a2 bd 82 e0 8b 3d 46 55 9c 3d
       0.06938549 -0.079544134 0.06829931 0.07633452
0003f0 70 fd ce bd 77 07 a7 bc 7a 12 70 3e ef 57 c9 bd
       -0.10106933 -0.020389302 0.23444548 -0.09831225

conv2.nn.0.bias f4 [64]
000000 1a 90 28 3e 7a 95 98 3d af a7 37 bb d4 78 13 3c
       0.1646122 0.074503854 -0.0028023531 0.009000976
000010 19 f1 dd bd fb 50 36 3e 5e 80 b9 3e 7a aa 8e bd
       -0.10837001 0.17804329 0.3623075 -0.069661096
000020 1c 44 ab 3e 27 78 53 bd 06 b6 4c be e6 b5 68 3d
       0.334504 -0.051628258 -0.19991311 0.056814097
000030 43 13 c9 bc 3d 24 43 be 4d a7 b7 bd 74 99 84 bd
       -0.024545318 -0.19056793 -0.08967457 -0.06474581
000040 aa 0e fd bd 35 f6 29 be 71 44 55 be a2 a8 92 bc
       -0.123563126 -0.16597827 -0.2082689 -0.017902676
000050 3a db f5 3d 1d 5b fb bd 7a 02 e7 bd 19 77 99 bd
       0.12004705 -0.12273238 -0.11279769 -0.07493419
000060 74 6b 68 3d 03 52 61 bd 69 8c a9 3c ee 15 bb bd
       0.0567431 -0.055009853 0.020696836 -0.09135042
000070 39 cf d9 3d 72 40 27 3e 04 de df bd 83 e8 00 3f
       0.10635228 0.16333178 -0.10931018 0.50354785
000080 ec 1c 24 bd 5a 3c 30 be aa 00 3b be 35 31 05 3d
       -0.040066645 -0.17210522 -0.18261972 0.03251763
000090 28 6c 22 be 47 a9 c1 bd 5a 52 8f be bb 4b 8a 3e
       -0.15861571 -0.09456115 -0.27992517 0.27010903
0000a0 9a b3 7c bd ed ea 2a bc 72 ea 9a 3e 61 18 ee bd
       -0.06169472 -0.010431987 0.30256993 -0.11625744
0000b0 6e 4e 10 3c 0f 8d bf 3d 7a c2 b4 3d 8a dc dc 3e
       0.008807762 0.09353077 0.08826156 0.43137008
0000c0 99 d6 29 3d 55 f2 7d 3c ae 24 39 be 03 55 8c 3d
       0.041464422 0.015499671 -0.18080398 0.06852152
0000d0 cc 71 95 bc bd db b2 bd 26 fc e3 bd 9d 83 40 3b
       -0.01824274 -0.08733318 -0.11132078 0.0029375323
0000e0 12 8b 1e 3d 68 47 27 3d f8 9f 13 bd 87 7b c4 3e
       0.038706847 0.040839583 -0.03604123 0.38375494
0000f0 f6 3e 9f 3e 18 a6 a3 3d 93 a9 4e bd 27 0e ca 3d
       0.31102723 0.07990664 -0.050454687 0.098659806

conv2.nn.2.weight f4 [64, 64]
000000 ce 26 d6 3d 95 aa dc bd 01 96 10 3d 6f ba 05 be
       0.1045662 -0.107747234 0.035299305 -0.130594
000010 50 ef 12 3d 0b a0 47 be eb 18 3c 3e d0 97 ca 3d
       0.035872757 -0.19494645 0.1836888 0.09892237
000020 f0 a7 f4 bd 24 bd 55 bd ad cd bf 3d b5 b0 a1 bd
       -0.11946094 -0.05218233 0.093654014 -0.07895032
000030 e7 ed 0d be b0 6b c4 3d bd 80 85 3c 6f dc 85 bc
       -0.13860284 0.09590852 0.016296739 -0.016340462
000040 30 b3 08 3d fe f2 aa bd 92 2a fb bd 6d dc 9b 3d
       0.03337401 -0.08347128 -0.12263979 0.07610402
000050 18 98 da 3c 15 9d d1 ba 50 3a 3c bd b0 ea 61 3c
       0.026683852 -0.0015992249 -0.04595405 0.013788864
000060 f9 b4 f1 3d d5 70 fd bd c0 c2 02 3b 9e ca 8d 3c
       0.11802096 -0.123750366 0.0019952506 0.01730853
000070 17 cb e7 bd a1 00 af bd 9b 2a ad bd 97 f4 32 be
       -0.11318033 -0.08545042 -0.08455392 -0.17476116
000080 d7 64 01 3d 9f 9f 45 3c e6 ae 8d 3d 48 2f c6 bd
       0.03159031 0.012061982 0.06918125 -0.09676987
000090 86 76 9a bd 46 57 71 bd 25 c9 e1 bd b7 94 26 3e
       -0.07542138 -0.05892112 -0.110246934 0.16267668
0000a0 d8 68 97 bc 5a c2 e2 3d 32 04 c5 bd cc dd 99 bd
       -0.01848261 0.11072226 -0.09619941 -0.075130075
0000b0 14 ec 05 3e e4 68 af bc bc 25 84 bc 4a 88 01 3e
       0.13078338 -0.02141232 -0.016131274 0.12649646
0000c0 28 dc 90 bd fd b7 d7 bd 7f 44 e0 bd 80 f5 ba 3c
       -0.070732415 -0.1053314 -0.109505646 0.022822142
0000d0 8d 37 6d 3c 7f 63 b9 3e 50 db b4 bc 85 74 e4 3c
       0.014478576 0.36208722 -0.022077233 0.027887592
0000e0 ee 18 02 3e f8 6e 41 bd 1e 19 29 3e a8 63 1e 3e
       0.12704822 -0.04722497 0.16513488 0.15467703
0000f0 93 d1 86 bc 42 47 2a 3d 10 5f 4c 3c 99 69 b1 3d
       -0.016457355 0.041571863 0.012473837 0.08662719
000100 be 93 f3 bd c9 36 ad bd ce 72 f9 3d 2e 83 72 be
       -0.11893414 -0.08457715 0.121801004 -0.23682854
000110 e3 c8 2a 3d 67 ec fc bd d7 7b f5 3d 20 fe 97 bd
       0.041695487 -0.12349778 0.11986511 -0.07421517
000120 5e ec 01 3a 2e eb c7 3d 17 47 d9 3d 13 db 65 bd
       0.0004956181 0.09761654 0.106092624 -0.05611713
000130 44 1b 6f be fa ab 8c 3d 82 9f 95 3c d8 c9 70 bd
       -0.23350245 0.068687394 0.018264536 -0.058786243
000140 85 a5 73 bd 16 8c c8 3a 6a ad 90 3b 63 6e ac 3c
       -0.059484024 0.0015300538 0.004415204 0.02104873
000150 66 33 7e bd ce c2 89 bc 6e 22 62 bc 78 58 51 bd
       -0.062060736 -0.016816523 -0.013802154 -0.05110976
000160 f6 37 81 3d 67 85 0a 3e 78 71 1f bd 86 a6 3c 3e
       0.06309502 0.13527451 -0.03892657 0.18422899
000170 56 8e 9a 3d 61 6d a7 bd d4 fb 68 bd 79 b5 d8 be
       0.0754668 -0.08175159 -0.056880787 -0.42325953
000180 8d 10 f0 bc f3 eb 94 3d cb e3 ef bd 6d 55 cd bd
       -0.029304767 0.07271566 -0.1171337 -0.10026059
000190 01 45 a8 3d 79 1c 4c bd 2c 66 79 bd 49 cc 22 3e
       0.082162865 -0.04983184 -0.060888454 0.15898241
0001a0 04 5c 48 3d da 73 bc 3d f3 b2 92 bd cd 87 21 bd
       0.048915878 0.092017844 -0.07163038 -0.03943615
0001b0 ac c9 f1 3c eb 43 02 3d 54 40 6c 3d dc 8b 1c 3d
       0.02951511 0.031803053 0.057678536 0.038219318
0001c0 6a 42 c2 3d 02 6c e0 3d 50 96 bb 3d 9e bc 2e bc
       0.09485324 0.10958101 0.09159529 -0.010665087
0001d0 09 cc c0 3c 3b c6 07 3f 95 f4 09 bd 40 54 01 3c
       0.023534792 0.5303685 -0.033680517 0.007893622
0001e0 ed 82 f1 3d dd ab 53 bd 9d a8 09 3d b1 36 e3 3d
       0.1179255 -0.051677573 0.033608068 0.11094416
0001f0 e4 c7 c8 bd 28 06 90 bd 99 f2 31 bc 5c 34 ae bd
       -0.09803751 -0.07032424 -0.010861062 -0.085060805
000200 70 82 e1 bc e0 da 4f bd 16 14 ac 3d 88 9f 8f 3e
       -0.027528018 -0.050745845 0.084022686 0.280514
000210 02 28 d0 3c dc b1 1e 3e b6 8f 1a be db 2e d7 3a
       0.025409702 0.15497535 -0.15093884 0.0016417162
000220 e4 6b 08 be b4 24 b1 3b 8a e5 85 bb 19 5a 22 3d
       -0.13322407 0.0054059867 -0.004086201 0.039636705
000230 11 b9 22 be 4e 10 da 3d 29 8a 56 3d cc 9f ec 3d
       -0.1589091 0.10647641 0.052377854 0.11553916
000240 bc c6 fd 3c a1 5a af bd 56 1d d8 bd a2 12 a8 3d
       0.030978553 -0.08562208 -0.105524704 0.08206679
000250 b3 c7 08 3d c1 40 ae 3d 02 0d 43 3d 4e 0d 3f 3c
       0.033393573 0.085084446 0.047619827 0.011660887
000260 90 0f 62 bd 62 ee 84 bc cb c3 3e 3d f8 74 cc bc
       -0.055190623 -0.016226951 0.04657344 -0.024958119
000270 25 81 ce bd 88 99 12 be 2d cd 8d 3d a5 9c be 3d
       -0.10083226 -0.1431638 0.069239 0.09307221
000280 6e 8a 80 bc d5 17 32 bd 32 9a a0 ba 12 7a 23 3b
       -0.015691008 -0.04347976 -0.0012252985 0.0024944586
000290 d5 2b 0e 3e 7d a6 a4 bc 78 7d f2 3d 39 d7 32 be
       0.13883908 -0.020098919 0.118403375 -0.17464913
0002a0 e8 69 f3 3d 62 8f 86 bd bc 3e 43 3e 06 3d 71 3d
       0.118854344 -0.06570317 0.190669 0.058896087
0002b0 9c c5 26 be 39 9f de bd 92 52 ad bd 15 ba 5f 3d
       -0.1628632 -0.10870213 -0.08463015 0.05462082
0002c0 28 18 e1 3d 30 a6 f2 bd 50 37 2c 3d d2 41 d0 bb
       0.109909356 -0.11848104 0.042044938 -0.0063555026
0002d0 e2 fe c0 bc 25 eb ad bd 5b 5f b6 bd 58 ca 97 bd
       -0.023559038 -0.08492116 -0.08904906 -0.07411641
0002e0 f1 57 82 bd 72 d2 2d bd 75 86 68 3d 2d c2 aa 3d
       -0.0636443 -0.042437024 0.056768853 0.08337817
0002f0 c3 a5 7a bd 68 d1 34 3d 19 73 93 bd be b0 15 3d
       -0.06119324 0.044145018 -0.071996875 0.036545508
000300 96 7e e4 bd 93 9d 38 3d 05 72 ac 3d 81 ab ed 3d
       -0.11156957 0.04507215 0.08420185 0.116049774
000310 6e 5d 35 3a f5 e6 5d 3e 6a 73 5d 3e b8 44 a1 3c
       0.0006918524 0.21670134 0.21626058 0.019686088
000320 15 f4 e0 3d 3a 15 17 3d d6 26 08 be 9e 21 02 be
       0.10984055 0.036885478 -0.13296065 -0.12708136
000330 57 a3 46 be 97 4a 1b 3c e4 69 0b 3d 85 38 60 bd
       -0.19398247 0.009478233 0.034036532 -0.0547414
000340 cb 30 7d 3d 57 f0 74 3d cc 9c e7 bd 82 45 48 bd
       0.06181411 0.05979952 -0.113092035 -0.048894413
000350 69 1f ea bc 9a 48 43 be f0 5f c4 3c 88 a7 e9 3c
       -0.02857943 -0.19070664 0.023971528 0.028522268
000360 6d 58 bf bd ce eb 9c 3d 59 19 92 3d e4 99 f7 3c
       -0.09343038 0.07662164 0.07133741 0.030224748
000370 02 58 d4 bd a8 c1 d7 3c 77 f3 d4 3d 97 0c 92 3e
       -0.10368349 0.02633746 0.10398 0.2852523
000380 ae 7e fc 3c a2 3a 80 3c 0d 09 2e 3d 7d 9b bb ba
       0.030822124 0.015652958 0.0424891 -0.0014313307
000390 07 5f 0f 3d b7 60 9f 3d ff 20 ef 3d 80 3c 1b be
       0.035002735 0.07782119 0.116762154 -0.15159798
0003a0 82 5b c1 3d 98 1d cb 3d 78 12 9d 3d 6d dc ba bd
       0.09441282 0.09917754 0.07669538 -0.09124074
0003b0 54 1a 70 bd aa 38 05 3e 34 ad fc 3c b7 f8 9e bb
       -0.05861886 0.13009897 0.030844308 -0.0048514265
0003c0 62 7e 5e 3d d3 7b d4 bb 1c e7 32 3d e9 6e 71 bb
       0.054319747 -0.0064844876 0.043677434 -0.003683979
0003d0 1c 61 a3 bc 0f fa 36 3d fc bb e6 bd 96 58 ad 3c
       -0.019943766 0.04467207 -0.11266324 0.021160405
0003e0 60 05 00 3e 78 0d 8e bc 68 eb 04 be a1 18 6c bc
       0.1250205 -0.017340407 -0.12980425 -0.014410169
0003f0 01 b6 90 bc 51 1f f1 bd f8 31 aa 3d 55 04 1e 3d
       -0.017664911 -0.11773551 0.08310312 0.03857835

conv2.nn.2.bias f4 [64]
000000 c4 35 9d 3d 6b c9 26 3e 56 08 1b bd 7b 1f 8e bd
       0.076762706 0.16287772 -0.037849747 -0.06939598
000010 fa 17 f6 bd dd 56 c2 be ea 9c 97 be d1 e1 9c be
       -0.12016292 -0.37956896 -0.29611903 -0.30641034
000020 98 18 44 bd fd 5c a1 3c 36 79 07 3e 80 8a a1 3e
       -0.047875017 0.01969766 0.13229832 0.3155098
000030 a1 a9 82 be a9 19 21 be c5 df e7 bd 99 c5 80 be
       -0.25520042 -0.15732445 -0.113219775 -0.25150755
000040 e1 ce 18 3c 3d 82 71 be cc dd 96 be 24 74 7f 3e
       0.0093266675 -0.23584838 -0.29466093 0.24946648
000050 c3 eb c1 3b 72 25 86 bd 82 5f 8f bc 74 35 8b 3e
       0.0059179976 -0.06550111 -0.017501596 0.2718922
000060 32 50 11 be ac 8d 5c be bb 08 8f 3d 20 8b 0e be
       -0.14190748 -0.21538419 0.06984087 -0.1392026
000070 94 d2 7d 3e af d8 71 be 57 9a 1f be 78 07 d3 bd
       0.2478736 -0.23617814 -0.1558622 -0.10304159
000080 7e 62 19 3e a2 fc 9e bc e2 ee 39 be d7 94 b4 be
       0.14978978 -0.019407574 -0.18157533 -0.35269806
000090 81 c2 8e be c5 d5 05 be 41 7b e3 bd 75 c3 03 3e
       -0.2788277 -0.13069828 -0.11107493 0.1286753
0000a0 34 3f 07 be f0 30 1d 3e b4 03 a8 bd 32 80 13 3d
       -0.13207704 0.153507 -0.08203831 0.03601093
0000b0 96 22 a2 3e 3b d7 38 be 78 7b 86 3d 5d 5d 76 be
       0.31667012 -0.18050854 0.065665185 -0.24059053
0000c0 f6 44 9e be b1 5f 67 3a 6f da 7a bc 00 29 88 be
       -0.30911988 0.000882621 -0.015310868 -0.2659378
0000d0 63 d9 64 be 25 d9 9a 3d c2 c6 db 3e 1c 18 7c be
       -0.22348551 0.07560948 0.42925078 -0.24618572
0000e0 11 a7 85 bd 1b f4 25 be 49 5d 14 be 4c 04 e1 bd
       -0.06526006 -0.162064 -0.1448871 -0.10987148
0000f0 46 f5 b2 bd d7 86 4a 3e bf 3a 01 3d e0 73 5f be
       -0.087381884 0.19778 0.031550165 -0.21821547
