checkpoints/D/model_D_epoch_80.pth (torch, 78688 bytes, 15 tensors)

node_embedding.weight f4 [1, 64]
0.26987877 -0.0822707 -0.32370183 -0.7237673 1.4309955 -1.558727 -0.078930825 0.9620442
-0.3407012 1.0447774 0.86863005 -0.6639691 1.1441301 -1.5090147 -1.7656457 -0.11129586
1.9229945 0.5907302 1.362358 -1.9187399 1.1016622 -0.25770882 -0.715002 -0.4089558
-0.85587865 -0.47652337 -1.3183845 0.7375067 1.5914203 0.47415242 0.59167117 -0.5618794
0.9051314 -2.6672022 -0.15687443 1.8677468 1.680226 1.292534 -1.2032472 0.13332911
0.4098126 2.08445 -0.96991986 -1.4506074 0.06673678 0.28597283 0.28068438 0.88538134
0.82412726 -0.71923006 3.4340005 -0.64683133 -0.28017947 1.5785153 -0.83776903 0.8191047
0.28740364 -1.116045 -0.022126686 -0.19552071 -0.85622704 1.1034511 1.5121652 1.4935908
00000000: 8d2d 8a3e 8a7d a8bd 3fbc a5be d048 39bf
00000010: dc2a b73f 5e84 c7bf 7ca6 a1bd 8748 763f
00000020: 6370 aebe 44bb 853f 8a5e 5e3f e1f9 29bf
00000030: db72 923f 6527 c1bf ae00 e2bf 15ef e3bd
00000040: af24 f63f 183a 173f bf61 ae3f 4599 f5bf
00000050: 4403 8d3f 69f2 83be 5f0a 37bf a862 d1be
00000060: dd1a 5bbf dffa f3be d3c0 a8bf 3dcd 3c3f
00000070: a9b3 cb3f 1bc4 f23e c377 173f 54d7 0fbf
00000080: b1b6 673f 71b3 2ac0 b1a3 20be 5412 ef3f
00000090: a511 d73f c171 a53f 0104 9abf 6d87 083e
000000a0: f5d2 d13e a167 0540 ab4c 78bf 81ad b9bf
000000b0: 4bad 883d 086b 923e ddb5 8f3e 5aa8 623f
000000c0: 01fa 523f 761f 38bf aac6 5b40 bd96 25bf
000000d0: af73 8fbe ca0c ca3f 0878 56bf d8b0 513f
000000e0: 9226 933e 90da 8ebf 0643 b5bc 9536 48be
000000f0: b231 5bbf e33d 8d3f a18e c13f fc2d bf3f

conv1.nn.0.weight f4 [64, 64]
-0.07123019 0.060122225 -0.16008492 0.20650153 -0.07688491 0.1978775 -0.10734377 -0.0298312
-0.25162953 -0.11007039 0.019615253 0.15364511 0.078549944 0.114320055 0.034750227 0.08758555
-0.07866811 -0.04484502 0.09725004 0.12515289 -0.02480409 0.14086965 0.074328735 -0.8355414
0.13187468 -1.6830319 -0.017905505 0.019456264 0.0313717 0.043226942 -0.033991005 0.15607452
-0.045647465 0.03641373 0.1046809 0.056710523 0.10177015 0.039903566 -0.0061147986 -0.16555877
0.038839523 -0.078291595 0.00463429 0.15660915 0.07769359 -0.25003597 -0.14653079 0.15174627
0.05400153 0.14296514 0.08606245 0.12718987 -0.03016181 0.016913803 -0.016951472 0.024984768
0.1298089 0.118111104 -0.1958186 0.05012678 -0.43863752 -0.013928203 0.076323695 -0.04421431
0.05254577 -0.116636395 -0.041168094 -0.006296575 0.09075077 -0.010656029 0.051357776 0.034921438
-0.10000223 -0.00305444 -0.012949988 0.004509121 -0.1210216 -0.12339221 -0.037960187 0.024529234
-0.0628164 0.04348384 -0.11310607 -0.044465795 -0.120812565 0.10086112 -0.089037046 -0.09444824
0.058424905 -0.05936961 0.025574014 -0.04263854 -0.048260406 -0.041359156 0.12009744 -0.02898866
0.022669554 -0.084147796 -0.06868054 -0.049577937 -0.118549064 -0.121378124 -0.12363832 0.03129427
-0.08888516 -0.002392292 0.01803486 -0.044424832 0.11481826 0.068090096 0.091231465 -0.12378654
-0.0026221722 0.11479378 -0.054479152 0.038664117 -0.101900056 -0.010376811 -0.00790824 -0.005537346
-0.12251876 -0.01897496 0.079615414 0.04299687 0.09605707 -0.037110254 0.0011783242 0.07869083
-0.034772567 -0.0054529556 -0.13364391 -0.00763318 0.075115934 0.13868247 0.015093479 -0.09143439
0.07665974 0.018968815 -0.12790057 0.015490874 -0.08940313 0.006673636 -0.03596864 0.08578804
-0.042065185 0.0039022504 -0.12172296 -0.024558289 -0.08144579 0.014087105 -0.08051604 -0.068564266
-0.10040512 0.019552777 0.060457725 -0.1324632 -0.05004947 -0.12706758 -0.14598909 -0.0015033656
-0.080022186 -0.0031056453 0.07800187 0.05668592 0.0071486467 -0.09334424 0.04694774 -0.004513618
0.09797988 0.010808019 0.0058398386 -0.046157453 -0.038226277 -0.036556315 -0.13190833 -0.069992505
0.023642372 0.03902653 -0.0016620684 0.067209214 0.0935294 -0.047321375 0.098560356 -0.017873766
-0.078309424 0.08086801 0.09098189 0.060507018 0.060016327 -0.008237864 -0.077669114 -0.0011263096
-0.036901444 -0.032890886 -0.07895371 0.100979045 -0.0898059 0.107758045 -0.034148633 0.11558266
-0.018527523 0.12360768 -0.124752924 -4.0367246e-05 -0.118836656 -0.06081544 -0.004089713 0.08773029
-0.050909042 0.10760392 0.024171457 -0.0022105873 0.12449743 -0.07457639 -0.024458095 0.07789469
-0.089554936 -0.11934909 0.09608038 -0.10054584 0.008259982 0.11221379 0.073057115 0.041550487
0.022782832 -0.04557468 -0.01838474 -0.115260184 0.0066763014 0.067640215 0.08768724 -0.07682024
-0.052743554 -0.021055043 0.017935097 0.049105346 -0.006190777 -0.025927871 -0.12073065 -0.10948321
-0.044706106 -0.040337384 -0.033365726 0.041316733 -0.11554366 0.07486194 -0.06145321 -0.06200525
0.07290071 0.039413378 -0.060112804 -0.0038691312 -0.0147001445 -0.0073899925 -0.0507026 0.006001726
00000000: 22e1 91bd b942 763d 4ded 23be 2375 533e
00000010: d675 9dbd 66a0 4a3e 0dd7 dbbd 9060 f4bc
00000020: 96d5 80be 966c e1bd 2bb0 a03c 2555 1d3e
00000030: cbde a03d a220 ea3d 4156 0e3d 0e60 b33d
00000040: bf1c a1bd 69af 37bd 072b c73d 1428 003e
00000050: f231 cbbc 2240 103e aa39 983d 0be6 55bf
00000060: 280a 073e 976d d7bf 91ae 92bc be62 9f3c
00000070: 9d7f 003d bc0e 313d 273a 0bbd 00d2 1f3e
00000080: d6f8 3abd 9026 153d f162 d63d 4b49 683d
00000090: de6c d03d ec71 233d a65e c8bb 3d88 29be
000000a0: 3116 1f3d 5857 a0bd 3edb 973b 265e 203e
000000b0: d11d 9f3d b704 80be 2b0c 16be 6063 1b3e
000000c0: b530 5d3d 7465 123e 8341 b03d 103e 023e
000000d0: e615 f7bc d18e 8a3c d0dd 8abc dbac cc3c
000000e0: a0ec 043e 3ce4 f13d ac84 48be bd51 4d3d
000000f0: 1995 e0be 1e33 64bc 994f 9c3d 101a 35bd
00000100: 3c3a 573d 10df eebd e09f 28bd 8053 cebb
00000110: 8adb b93d a096 2ebc 885c 523d c809 0f3d
00000120: f8cd ccbd 002d 48bb 302c 54bc 40c1 933b
00000130: 2cda f7bd 0eb5 fcbd 247c 1bbd 88f1 c83c
00000140: e2a5 80bd 1c1c 323d 28a4 e7bd c421 36bd
00000150: 946c f7bd 4690 ce3d 0e59 b6bd 146e c1bd
00000160: f44e 6f3d 8c2d 73bd 9880 d13c c0a5 2ebd
00000170: b4ac 45bd 3868 29bd a6f5 f53d a079 edbc
00000180: 80b5 b93c ae55 acbd 62a8 8cbd 3c12 4bbd
00000190: dac9 f2bd 1895 f8bd 1636 fdbd 6c2e 003d
000001a0: 6c09 b6bd 00c8 1cbb d8bd 933c d0f6 35bd
000001b0: d625 eb3d d272 8b3d 90d7 ba3d cc83 fdbd
000001c0: c0d8 2bbb 0019 eb3d 8825 5fbd 445e 1e3d
000001d0: fab0 d0bd 8003 2abc 9091 01bc a072 b5bb
000001e0: 1eeb fabd 6071 9bbc 680d a33d 7c1d 303d
000001f0: 92b9 c43d ec00 18bd 0072 9a3a a828 a13d
00000200: ae6d 0ebd b5ae b2bb f3d9 08be c11f fabb
00000210: 62d6 993d c702 0e3e a44a 773c f441 bbbd
00000220: c8ff 9c3d 7d64 9b3c 5ef8 02be 6fcd 7d3c
00000230: fd18 b7bd 84ae da3b da53 13bd a4b1 af3d
00000240: 8b4c 2cbd e6bc 7f3b e349 f9bd 772e c9bc
00000250: 0dcd a6bd 9acd 663c 98e5 a4bd 6c6b 8cbd
00000260: 33a1 cdbd 252d a03c 85a2 773d 6fa4 07be
00000270: ac00 4dbd 011e 02be 2a7e 15be 940c c5ba
00000280: ace2 a3bd 1588 4bbb 72bf 9f3d 7f2f 683d
00000290: 323f ea3b 442b bfbd 464c 403d f9e6 93bb
000002a0: ada9 c83d 1e14 313c 1e5c bf3b 990f 3dbd
000002b0: 2893 1cbd 13bc 15bd fa12 07be 3b58 8fbd
000002c0: a6ad c13c 48da 1f3d c3d9 d9ba fca4 893d
000002d0: 588c bf3d 0fd4 41bd 03da c93d 016c 92bc
000002e0: b160 a0bd 219e a53d b754 ba3d 35d6 773d
000002f0: aed3 753d 1bf8 06bc fc10 9fbd aea0 93ba
00000300: f825 17bd 98b8 06bd 7cb2 a1bd 1ace ce3d
00000310: 28ec b7bd 40b0 dc3d 70df 0bbd 9ab6 ec3d
00000320: 08c7 97bc 0626 fd3d 767e ffbd 0050 29b8
00000330: a260 f3bd 9c19 79bd 0003 86bb f0ab b33d
00000340: 0086 50bd 725f dc3d 3803 c63c 80df 10bb
00000350: 82f8 fe3d 82bb 98bd 585c c8bc 4087 9f3d
00000360: 9468 b7bd 4c6d f4bd cac5 c43d faea cdbd
00000370: e054 073c 58d0 e53d f89e 953d d830 2a3d
00000380: 10a3 ba3c 84ac 3abd 989b 96bc 880d ecbd
00000390: e0c4 da3b f486 8a3d 5e95 b33d ee53 9dbd
000003a0: a009 58bd a07b acbc a0ec 923c b022 493d
000003b0: 00dc cabb b066 d4bc a241 f7bd bc38 e0bd
000003c0: c01d 37bd d038 25bd 80aa 08bd bc3b 293d
000003d0: 28a2 ecbd 3851 993d 5cb6 7bbd 38f9 7dbd
000003e0: f84c 953d ec6f 213d d838 76bd 4091 7dbb
000003f0: e0d8 70bc c027 f2bb 88ad 4fbd 20aa c43b

conv1.nn.0.bias f4 [64]
-0.13227345 0.10603526 0.014362739 0.060450718 0.052635826 -0.12635702 0.20941322 0.06195976
-0.16427827 -0.18895367 0.06472685 0.09544499 -0.023723945 -0.09361369 -0.06253502 0.08128205
0.04695873 -0.15010364 -0.04566018 0.06408432 0.009501323 0.049044237 0.09230221 0.011547861
-0.10465068 0.0022671914 0.059842408 -0.08917451 0.120696455 -0.055995215 -0.096193716 0.14141221
-0.12967071 0.12641726 0.0015856783 0.06543107 0.04601676 0.105478615 0.019475877 0.012436193
0.1937394 0.11473879 0.015978158 -0.0223886 -0.120799296 -0.058471084 0.07203189 0.023007711
-0.03971371 0.010299091 -0.14586239 -0.08271612 -2.8014183e-05 -0.02138932 0.08650585 0.060331244
-0.09952973 0.028776998 0.08434124 0.02733695 0.046591133 0.18072389 -0.060007267 -0.0068549225
00000000: b172 07be 0429 d93d b251 6b3c 2c9b 773d
00000010: aa98 573d bc63 01be 6b70 563e 84c9 7d3d
00000020: 9038 28be 127d 41be 838f 843d aa78 c33d
00000030: b858 c2bc 89b8 bfbd 5c12 80bd 3477 a63d
00000040: cc57 403d c5b4 19be 2b06 3bbd a43e 833d
00000050: 70ab 1b3c 9ce2 483d f108 bd3d 3d33 3d3c
00000060: 1953 d6bd 2995 143b 501d 753d 20a1 b6bd
00000070: b42f f73d 3d5b 65bd 3601 c5bd 5dce 103e
00000080: 66c8 04be 8773 013e 89d6 cf3a ba00 863d
00000090: 127c 3c3d 2c05 d83d e08b 9f3c 2dc1 4b3c
000000a0: 9f63 463e 2cfc ea3d a0e4 823c 4c68 b7bc
000000b0: 9f65 f7bd 607f 6fbd 7585 933d ab7a bc3c
000000c0: d8aa 22bd 85bd 283c f35c 15be 1267 a9bd
000000d0: 0000 ebb7 a838 afbc fb29 b13d e51d 773d
000000e0: 3ed6 cbbd bdbd eb3c 1abb ac3d bdf1 df3c
000000f0: 58d6 3e3d af0f 393e 2eca 75bd 429f e0bb

conv1.nn.2.weight f4 [64, 64]
-0.054694265 0.009916335 0.048473064 -0.10744578 -0.02045191 -0.047701642 -0.09794501 -0.050363556
-0.032166097 0.07500145 0.06542356 0.08380121 0.06337553 -0.04364106 0.11009169 0.08626351
0.064622715 0.016781043 -0.039868373 0.055801492 -0.12208505 0.040470205 -0.0014588599 -0.0329144
0.038444787 0.12959756 0.09990659 -0.09911556 -0.042611107 0.09806412 -0.0026962734 -0.0013135092
-0.13397218 0.024313398 -0.083401866 0.0891624 -0.24713816 0.12562178 0.10244554 0.0036325795
-0.053033233 0.07343903 0.052404255 -0.05094206 0.027952451 0.10926276 0.040640876 0.038866013
0.029780075 -0.030681685 -0.06300006 -0.09499216 0.089018404 -0.0017952621 -0.005772578 0.02012166
0.03271167 -0.14377256 0.025760751 -0.08057876 -0.19559278 0.14438517 0.036216006 -0.06303467
-0.08988707 0.09280747 -0.008526935 -0.080927 0.014841865 0.074754305 0.10416205 -0.07840487
0.07471396 -0.097218 -0.061048977 0.022652932 0.11521512 -0.030002605 -0.016673326 0.077273525
0.1273775 0.054512274 0.02132579 0.11064054 0.011239544 0.03669719 0.031133244 -0.057916127
0.041075666 0.09854544 -0.119968474 0.04629034 -0.04561785 -0.17422673 -0.10035783 -0.031151833
0.060025074 0.031040594 0.10494319 -0.08145754 -0.051891323 0.0503028 0.11762476 -0.014111384
-0.09499118 0.021110132 -0.054060742 -0.061242294 0.03455332 -0.115966216 -0.036275566 -0.028038733
-0.0074075013 -0.007048089 -0.095486306 -0.09237471 -0.0060178936 -0.026345298 -0.061789345 -0.031205708
-0.06756067 -0.05249796 0.10314547 0.07536473 0.06986805 0.0032856422 -0.08494338 0.033977136
-0.26379085 0.025523618 -0.00041008045 0.0138344765 0.030625336 -0.14696524 0.067748174 -0.033406615
-0.12062146 -0.3412097 -0.047415078 0.102081895 -0.065242425 -0.07085083 -0.24436335 -0.027300313
-0.06267409 -0.20416005 0.033108123 -0.21413714 -0.021087438 0.06154269 0.06910162 -0.24875276
-0.080348335 -0.15998346 -0.096741945 0.095358275 0.013386011 -0.29462388 -0.1371763 0.17578025
-0.097779766 0.016732354 0.073453024 0.00104733 0.12372852 0.079315275 -0.030934408 0.110545546
0.09618131 0.101938695 0.024447411 0.005005719 -0.04801649 -0.20526586 0.1189886 0.047327057
-0.013493687 0.07252278 -0.5379513 0.1236624 0.047306642 0.11861007 0.08923954 -0.0038608173
0.03682421 0.03434291 -0.10843958 0.08800428 0.17691019 0.07271423 0.049065202 0.057546362
0.0044429796 0.08214562 0.0003597131 -0.105450496 0.11943948 0.021800905 0.06713672 -0.00054608285
-0.03367229 -0.070370495 0.10691255 -0.025439749 0.06631389 -0.29325354 0.15281245 -0.019461155
-0.114101276 0.050143935 -0.09147474 -0.12124417 -0.061624765 -0.06394281 0.037971564 -0.035506327
-0.074262425 -0.0058024237 0.089568585 0.12279057 -0.11463818 -0.056359112 0.048980158 -0.17341504
-0.202805 0.07960542 0.015200896 0.07308199 0.094593875 0.060382124 -0.03370051 0.11686278
0.022506993 0.034706637 -0.09894577 -0.04099593 0.045000196 0.102947675 -0.061084744 0.0846919
-0.033170685 0.04156349 -0.16901964 -0.11036402 -0.04221548 -0.013289556 0.18619671 0.078997225
-0.07280895 0.053078488 0.13249587 0.01887271 0.18025553 0.031151481 -0.038500197 -0.049553253
00000000: 1807 60bd 2078 223c b18b 463d 880c dcbd
00000010: c48a a7bc cc62 43bd 6597 c8bd 044a 4ebd
00000020: 99c0 03bd 5c9a 993d cafc 853d f89f ab3d
00000030: 08cb 813d f8c0 32bd c177 e13d ecaa b03d
00000040: ea58 843d 6678 893c 054d 23bd 1b90 643d
00000050: ba07 fabd 16c4 253d 3737 bfba 40d1 06bd
00000060: 4878 1d3d 39b5 043e d49b cc3d 19fd cabd
00000070: fc88 2ebd d7d5 c83d f6b3 30bb 0e2a acba
00000080: 0130 09be e42c c73c 99ce aabd c79a b63d
00000090: c911 7dbe ffa2 003e f8ce d13d 9210 6e3b
000000a0: 6039 59bd 3467 963d d8a5 563d 9fa8 50bd
000000b0: 8afc e43c 27c5 df3d 0c77 263d f831 1f3d
000000c0: 58f5 f33c 2858 fbbc 2d06 81bd 408b c2bd
000000d0: 484f b63d 004f ebba e527 bdbb 2ed6 a43c
000000e0: acfc 053d 1d39 13be 3608 d33c 7a06 a5bd
000000f0: 7949 48be b5d9 133e 3c57 143d 5218 81bd
00000100: b616 b8bd d811 be3d 8fb4 0bbc 0ebd a5bd
00000110: 4b2b 733c c918 993d ea52 d53d bc92 a0bd
00000120: a203 993d 3b1a c7bd 7e0e 7abd a492 b93c
00000130: e8f5 eb3d 06c8 f5bc 8096 88bc 9541 9e3d
00000140: 3f6f 023e 4348 5f3d 6cb3 ae3c 8297 e23d
00000150: 1026 383c cb4f 163d 250b ff3c 7639 6dbd
00000160: f53e 283d 31d2 c93d 08b2 f5bd f19a 3d3d
00000170: c8d9 3abd 7e68 32be 6888 cdbd 2132 ffbc
00000180: dadc 753d d848 fe3c 75ec d63d 36d3 a6bd
00000190: ff8b 54bd 4f0a 4e3d 40e5 f03d 6f33 67bc
000001a0: bc8a c2bd 28ef ac3c cc6e 5dbd 33d9 7abd
000001b0: c887 0d3d b27f edbd b095 14bd 7cb1 e5bc
000001c0: a0ba f2bb a8f3 e6bb 538e c3bd f42e bdbd
000001d0: c031 c5bb 18d2 d7bc d316 7dbd 1da3 ffbc
000001e0: 405d 8abd 1a08 57bd ef3d d33d d358 9a3d
000001f0: fb16 8f3d ee53 573b cbf6 adbd 9c2b 0b3d
00000200: 980f 87be e816 d13c 1100 d7b9 00aa 623c
00000210: fce1 fa3c 0e7e 16be 8ebf 8a3d 60d5 08bd
00000220: 6208 f7bd 0ab3 aebe 5036 42bd 5010 d13d
00000230: d29d 85bd 3d1a 91bd 633a 7abe e8a4 dfbc
00000240: 465b 80bd 550f 51be 629c 073d c446 5bbe
00000250: 90bf acbc 3014 7c3d 2685 8d3d 0bb9 7ebe
00000260: ab8d a4bd b4d2 23be a420 c6bd 334b c33d
00000270: 0051 5b3c f1d8 96be f277 0cbe bdff 333e
00000280: c240 c8bd 4a12 893c 8a6e 963d 9046 893a
00000290: 6165 fd3d 0c70 a23d 286a fdbc b465 e23d
000002a0: b5fa c43d 3cc5 d03d f045 c83c 0407 a43b
000002b0: f0ac 44bd 3731 52be 4cb0 f33d 04da 413d
000002c0: a014 5dbc d386 943d 2db7 09bf b642 fd3d
000002d0: 9cc4 413d d6e9 f23d 38c3 b63d c405 7dbb
000002e0: fcd4 163d 27ab 0c3d 9215 debd 973b b43d
000002f0: f227 353e 33eb 943d 98f8 483d bcb5 6b3d
00000300: 6a96 913b f63b a83d e097 bc39 6ef6 d7bd
00000310: b09c f43d d097 b23c fa7e 893d 0027 0fba
00000320: f5eb 09bd 681e 90bd f8f4 da3d 0567 d0bc
00000330: 94cf 873d 5425 96be de7a 1c3e 006d 9fbc
00000340: eead e9bd ba63 4d3d 1c57 bbbd dd4e f8bd
00000350: 406a 7cbd 73f4 82bd 1288 1b3d 156f 11bd
00000360: e616 98bd 4222 bebb bc6f b73d 9f79 fb3d
00000370: 6cc7 eabd d0d8 66bd 6b9f 483d b693 31be
00000380: 1dac 4fbe 2b08 a33d 2e0d 793c 03ac 953d
00000390: 6fba c13d 3f53 773d 8c09 0abd c155 ef3d
000003a0: 9660 b83c 8c28 0e3d 14a4 cabd 59eb 27bd
000003b0: 2052 383d 3bd6 d23d ff33 7abd f272 ad3d
000003c0: fcdd 07bd 7a3e 2a3d 7c13 2dbe 8806 e2bd
000003d0: 24ea 2cbd 70bc 59bc 5aaa 3e3e 4cc9 a13d
000003e0: dc1c 95bd d468 593d ffac 073e f19a 9a3c
000003f0: e894 383e 6431 ff3c 62b2 1dbd 5af8 4abd

conv1.nn.2.bias f4 [64]
0.08991517 0.071820185 -0.00021204118 0.23390354 -0.016643079 -0.08650216 -0.00038581307 -0.15655763
0.114107296 -0.05916896 0.13369799 0.22091381 0.00022845264 -0.036605418 0.34490576 -0.10391961
0.11777388 0.0309613 -0.03219598 -0.033298194 -0.085611574 -0.0741225 -0.20060158 0.11998652
0.060974628 -0.21664552 -0.053543646 -0.013311262 -0.15033534 0.15960875 -0.12948845 -0.025392907
-0.16352963 0.16299495 0.35254243 -0.06692616 -0.11210607 -0.101786636 0.1258088 0.21435806
-0.103310764 0.106461845 -0.0922564 0.106754065 -0.068307035 0.020976057 -0.12054871 -0.18684055
0.06819335 -0.07192892 -0.10543541 0.006183102 -0.120435946 -0.04436494 -0.15895067 0.045528293
-0.16954353 0.11851528 0.0350648 -0.22302869 0.137312 0.07597594 -0.08223832 -0.23457763
00000000: 7225 b83d 7616 933d 5f57 5eb9 6984 6f3e
00000010: 1157 88bc 0b28 b1bd f446 cab9 a550 20be
00000020: 16b1 e93d 275b 72bd 20e8 083e 3b37 623e
00000030: ca8c 6f39 90ef 15bd 7d97 b03e ced3 d4bd
00000040: 6f33 f13d 8da2 fd3c efdf 03bd b063 08bd
00000050: 1f55 afbd 8acd 97bd 806a 4dbe 7ebb f53d
00000060: 88c0 793d 53d8 5dbe 9550 5bbd 7b17 5abc
00000070: 82f1 19be 7a70 233e 9f98 04be c904 d0bc
00000080: 5074 27be 26e8 263e 7180 b43e 9510 89bd
00000090: de97 e5bd 8375 d0bd 06d4 003e ae80 5b3e
000000a0: 9894 d3bd ab08 da3d ecf0 bcbd e0a1 da3d
000000b0: 8fe4 8bbd fbd5 ab3c 3ee2 f6bd 2153 3fbe
000000c0: f5a8 8b3d 784f 93bd 85ee d7bd 9e9b ca3b
000000d0: 1fa7 f6bd 03b8 35bd f7c3 22be e07b 3a3d
000000e0: d29c 2dbe 24b8 f23d 1ca0 0f3d a261 64be
000000f0: 849b 0c3e 4699 9b3d 906c a8bd 1e35 70be

conv1.lin.weight f4 [64, 7]
-0.6140494 1.1096702 0.36237136 0.027175758 0.22684093 -0.69320625 0.48180896 -0.5499655
0.63319576 -0.2489579 -0.2802422 -1.043255 0.24304074 -0.004341055 -0.7389664 1.2485983
0.5292387 -0.118226044 -0.25850457 0.6593521 0.38921314 0.10364041 -0.07285341 0.19270587
-0.13533035 -0.32195222 -0.19155967 -0.2767777 0.23984809 0.5544338 0.10958974 -0.33943874
0.36908188 0.13179044 -0.6017844 0.06348888 0.07843645 -0.089976415 -0.100226454 -0.28058332
-0.23443691 -0.022650631 -0.1649154 0.46780095 -0.41096216 0.09853396 -0.039596986 0.109777674
0.5156178 -0.28949508 -0.48863608 -0.35751447 0.061894838 0.031469665 -0.545132 0.24542935
0.5577752 1.6888502 0.30830258 0.43470377 -0.13747995 0.5453497 -0.54092145 0.6652379
-0.6633326 -0.24914521 -0.21291062 -0.06974908 -0.3442684 -0.41638282 0.23663585 -0.219357
0.6428008 -0.17260467 0.3754486 -0.45769823 -0.21217117 -0.15150826 -0.33122075 -0.09421447
-0.29336005 0.10040172 0.025181387 -0.16403176 -0.2872797 -0.10082491 0.46139094 -0.54189694
0.27600896 -0.434326 -0.016081532 0.29692382 0.13642538 0.13721225 0.2883254 -0.09458515
-0.011551051 0.013587306 0.10488857 0.026344711 0.11082505 0.22295715 -0.16686364 -0.18662512
-0.015169614 -0.5593044 0.61935794 0.3784049 0.48576477 -0.07447197 0.037772313 0.089846194
-0.3721912 -0.32392475 0.1321806 -0.3353767 -0.450821 -0.45205837 -0.051850297 0.012932784
-0.26613954 -0.5041873 -0.1521086 -0.5146051 0.012837142 -0.06753723 -0.086983696 -0.96171325
-0.3434416 0.19086105 -0.0053936867 -0.21532582 -0.05898108 -0.3233006 0.00081552943 0.14872505
0.22021355 -0.140166 -0.22177324 0.3364938 -0.22629622 -0.4719342 -0.097229004 -0.0898361
-0.38802803 -0.40978518 0.043534372 -0.48395342 0.935302 0.65098596 -0.33405605 0.34421626
0.276154 -0.01134269 0.32188043 -0.043045085 -0.0009408326 0.28742808 0.35929433 -0.13869669
-0.34053063 1.0158186 0.6771972 -0.23881066 0.07919485 0.15931806 -0.83653986 -0.12367866
0.057863727 0.19027194 -0.11647188 0.047869 0.06114083 0.1965442 0.13771595 0.012407086
0.1762781 0.042392906 0.025070665 0.2186415 -0.0041159345 0.8671487 0.07440485 -0.19936717
0.07686419 -0.13641235 -0.22728251 0.20610934 0.20933834 0.5436683 -0.5541375 -0.03701586
-0.35897616 -0.46868742 -0.015750965 0.043734074 0.09813909 0.3491029 -0.69288665 -0.48004496
-0.15360418 -0.13053237 -0.3496749 -0.6774957 0.37992656 -0.61409795 0.0017491509 -0.53287977
0.0065087355 -0.027943507 0.63737386 -0.8827495 0.2520413 0.13754413 0.19130969 -0.33635983
0.02179357 0.17832935 -0.021307802 0.093941785 0.22104642 0.022151718 0.06462453 -0.1303422
0.08511769 -0.7153906 -0.514994 0.3082639 -0.08986513 0.0010263765 0.037489213 -0.27768666
-0.2331842 0.35968047 0.08902775 0.3360212 -0.17391066 -0.051975224 -0.27681488 -0.07626994
0.15455535 -0.30682844 0.026458794 0.32554755 -0.21263795 -0.29068136 0.32457152 0.066803604
-0.12988164 -0.67059416 -0.17661786 0.118775405 -0.21868397 0.7795286 0.4245124 -0.6270407
00000000: 5732 1dbf ac09 8e3f bd88 b93e b29f de3c
00000010: fd48 683e f775 31bf aaaf f63e 8aca 0cbf
00000020: 1e19 223f d2ee 7ebe e87b 8fbe 6189 85bf
00000030: acdf 783e 693f 8ebb e72c 3dbf 12d2 9f3f
00000040: 307c 073f 7f20 f2bd b65a 84be 4dcb 283f
00000050: f246 c73e 6c41 d43d 2b34 95bd b054 453e
00000060: 0a94 0abe ecd6 a4be 3828 44be cfb5 8dbe
00000070: bd9a 753e 60ef 0d3f 9670 e03d eaca adbe
00000080: 4df8 bc3e 13f4 063e 8b0e 1abf 7506 823d
00000090: 4aa3 a03d 8e45 b8bd 8743 cdbd 9ea8 8fbe
000000a0: 3b10 70be d18d b9bc 95df 28be 9b83 ef3e
000000b0: a269 d2be 2ccc c93d 7330 22bd 1ed3 e03d
000000c0: 87ff 033f b338 94be 822e fabe 230c b7be
000000d0: 7185 7d3d 56e6 003d c58d 0bbf d551 7b3e
000000e0: 5bca 0e3f 3e2c d83f d6d9 9d3e 7e91 de3e
000000f0: 8bc7 0cbe 0a9c 0b3f d479 0abf 084d 2a3f
00000100: 2ad0 29bf ec1f 7fbe 3e05 5abe 9bd8 8ebd
00000110: f343 b0be 2130 d5be ab50 723e 1f9f 60be
00000120: 988e 243f 47bf 30be cd3a c03e 6c57 eabe
00000130: 6643 59be fb24 1bbe c495 a9be 84f3 c0bd
00000140: 4a33 96be 6b9f cd3d 3249 ce3c f1f7 27be
00000150: 5316 93be 4a7d cebd 6f3b ec3e c2b9 0abf
00000160: 0c51 8d3e fa5f debe 6bbd 83bc 6606 983e
00000170: 18b3 0b3e 5e81 0c3e 639f 933e dcb5 c1bd
00000180: 9f40 3dbc 4b9d 5e3c d2cf d63d ddd0 d73c
00000190: 3ef8 e23d e14e 643e 4dde 2abe a81a 3fbe
000001a0: f989 78bc 932e 0fbf 3e8e 1e3f 49be c13e
000001b0: 29b6 f83e c384 98bd 24b7 1a3d 4801 b83d
000001c0: d88f bebe 77d9 a5be 5a5a 073e 7fb6 abbe
000001d0: 03d2 e6be 3274 e7be fa60 54bd 07e4 533c
000001e0: 7143 88be 6b12 01bf 5bc2 1bbe 29bd 03bf
000001f0: e052 523c f650 8abd 8224 b2bd d732 76bf
00000200: 94d7 afbe 1471 433e 86bd b0bb 5f7e 5cbe
00000210: 2596 71bd a887 a5be 41c9 553a 614b 183e
00000220: a97f 613e ad87 0fbe 8618 63be ea48 ac3e
00000230: 32ba 67be 5ca1 f1be 0020 c7bd fdfb b7bd
00000240: 9cab c6be 5dcf d1be 1951 323d bec8 f7be
00000250: f46f 6f3f 04a7 263f 6509 abbe 1d3d b03e
00000260: 0f64 8d3e b1d6 39bc 83cd a43e 0b50 30bd
00000270: 35a2 76ba c629 933e 6df5 b73e 8106 0ebe
00000280: 085a aebe 5806 823f cc5c 2d3f c88a 74be
00000290: e930 a23d 4624 233e 7a27 56bf 3d4b fdbd
000002a0: 8402 6d3d a6d6 423e cf88 eebd 4912 443d
000002b0: cf6e 7a3d e242 493e 6905 0d3e 1747 4b3c
000002c0: 3f82 343e 2fa4 2d3d ff60 cd3c 8fe3 5f3e
000002d0: f6de 86bb 75fd 5d3f 9261 983d e826 4cbe
000002e0: f96a 9d3d aeaf 0bbe bfbc 68be 540e 533e
000002f0: ca5c 563e d92d 0b3f f5db 0dbf f19d 17bd
00000300: b9cb b7be ccf7 efbe 2b08 81bc 8022 333d
00000310: 26fd c83d 9ebd b23e 0561 31bf 74c8 f5be
00000320: 6a4a 1dbe 47aa 05be 9708 b3be 5c70 2dbf
00000330: bc85 c23e 8635 1dbf c443 e53a cf6a 08bf
00000340: 3b47 d53b c8e9 e4bc ef2a 233f dffb 61bf
00000350: 8f0b 813e 5ed8 0c3e b0e6 433e 5b37 acbe
00000360: 6e88 b23c f89b 363e b38d aebc 8d64 c03d
00000370: fe59 623e 8577 b53c de59 843d 6d78 05be
00000380: 2f52 ae3d d723 37bf a6d6 03bf c4d4 9d3e
00000390: 360b b8bd 7b87 863a 4a8e 193d f22c 8ebe
000003a0: d7c7 6ebe 0a28 b83e 2e54 b63d f90a ac3e
000003b0: a315 32be f9e3 54bd aeba 8dbe 6a33 9cbd
000003c0: c243 1e3e 9e18 9dbe 1dc0 d83c 2bae a63e
000003d0: c3bd 59be 30d4 94be 3d2e a63e 54d0 883d
000003e0: b1ff 04be 0fac 2bbf 50db 34be 8540 f33d
000003f0: b1ee 5fbe 308f 473f b059 d93e bd85 20bf

conv1.lin.bias f4 [64]
-0.08265487 0.34111452 -0.032223184 0.346418 -0.1923446 0.26328102 0.16998796 -0.007009755
0.12982649 0.0043079234 -0.06080494 0.3500791 0.04346656 0.24090894 0.012706039 -0.09617943
0.20023264 -0.081720464 0.042354062 -0.2186106 -0.32341623 0.25070038 -0.28856257 0.47837955
0.2595828 -0.023721999 -0.0449523 0.079846986 0.16008466 0.10440276 0.17467882 -0.23162198
-0.27933377 0.28516456 -0.36380038 0.13579969 -0.30562338 0.13383175 -0.21417448 -0.17572315
0.19713077 -0.2069521 -0.16258408 0.30474082 0.17742483 -0.21928604 -0.06625688 -0.3444161
-0.42367026 -0.36224967 -0.3044505 -0.3179624 0.16473225 -0.120057665 -0.13865171 -0.38531715
-0.29461077 0.29113284 0.09339007 -0.21614495 0.450805 -0.11011226 -0.028981805 -0.1082897
00000000: f546 a9bd 90a6 ae3e 75fc 03bd b35d b13e
00000010: fcf5 44be c5cc 863e 5311 2e3e 16b2 e5bb
00000020: 3cf1 043e 7b29 8d3b 9a0e 79bd 913d b33e
00000030: fe09 323d d5b0 763e fd2c 503c b9f9 c4bd
00000040: c909 4d3e 0f5d a7bd 747b 2d3d 75db 5fbe
00000050: d096 a5be cd5b 803e 79be 93be 2aee f43e
00000060: 09e8 843e a354 c2bc e71f 38bd d186 a33d
00000070: 3ced 233e 1dd1 d53d 01df 323e 502e 6dbe
00000080: d604 8fbe 1701 923e 0b44 babe 130f 0b3e
00000090: ab7a 9cbe 310b 093e 8e50 5bbe c5f0 33be
000000a0: a6dc 493e 40eb 53be 717c 26be fd06 9c3e
000000b0: dbae 353e 858c 60be b0b1 87bd 4f57 b0be
000000c0: 4feb d8be ca78 b9be f0e0 9bbe f8cb a2be
000000d0: 92af 283e cbe0 f5bd b7fa 0dbe 4a48 c5be
000000e0: 39d7 96be 5d0f 953e 4b43 bf3d 1a55 5dbe
000000f0: eacf e63e 8982 e1bd 406b edbc fdc6 ddbd

conv2.nn.0.weight f4 [64, 64]
0.11335792 0.119694956 0.014084409 -0.019694056 -0.0069853906 -0.6070777 0.030947017 -0.1427552
-0.10385802 -0.14006026 0.10049853 -0.011349702 -0.23856544 -0.09195032 0.22474755 0.288854
-0.0353057 0.20355165 -0.2741575 -0.7017472 0.012116501 0.02384284 -0.05172001 -0.12585747
0.12354817 0.06773175 -0.09627601 -0.07466343 -0.17736618 0.0028736016 -0.30678558 -0.07095776
-0.08777734 0.055370755 0.0043595782 0.06913266 -0.076226085 -0.1304733 -0.09212088 0.29291463
0.080894105 0.052983873 0.068079725 0.14567731 -0.61105543 -0.031558637 0.092213355 -0.083312765
-0.8304319 -0.00023072133 -0.003244415 0.0648619 0.13211963 0.18737903 0.001808698 0.19623868
0.116085105 -0.13870057 0.07696827 -0.17047662 0.0792744 -0.0541279 -0.082899295 -0.0134578245
-0.06053976 -0.03198446 -0.23839521 0.17102076 -0.005028995 0.29908797 -0.038309604 0.467736
0.13572496 -0.33223104 -0.08236959 -0.17207065 0.54931575 -0.5644053 -0.1461145 -0.074376695
0.03989848 0.47444716 -0.032285713 -0.12375682 -0.05174356 -0.22289063 -0.00090405624 0.041988004
-0.11005585 -0.07426504 0.07071817 0.05873643 -0.09926257 0.07051383 0.008049444 -0.26639304
-0.21767578 -0.07670001 -0.014197742 -0.16310142 -0.09953301 0.025244683 -0.019881533 -0.056238648
0.042116735 0.058000896 -0.028628543 -0.051464126 0.37234053 -0.07999727 0.06811442 0.101407304
0.09959136 0.16082013 -0.08535317 -0.030799102 0.21595751 -0.18115848 0.105403036 -0.04006045
0.09736283 -0.02411298 0.15431044 -0.1376719 -0.38976127 0.0064719226 -0.029794272 -0.008398588
0.0193852 0.040989295 0.32207656 -0.16676752 -0.08558502 0.7938433 -0.16722739 -0.13546142
-0.09193536 0.94782764 -0.08321431 -0.012254895 0.08660329 0.2819631 -0.07989671 -0.05486975
0.31958184 -0.065800376 0.0232644 0.24991266 -0.11981494 0.13370046 -0.15652996 0.13078459
0.046137817 0.030163031 0.16222422 0.0123586655 0.0677619 -0.22130144 0.27107733 -0.057493716
-0.023722274 0.103706755 0.1921227 -0.021843657 -0.06207638 0.7599283 -0.05062577 0.2294286
0.1339864 0.06667153 0.024099125 -0.2119067 -0.22881392 0.19313268 -0.115152754 0.044718407
0.40345895 -0.18159929 0.40482536 -0.028636275 0.087380596 -0.27037835 -0.16340743 -0.23289664
-0.062047545 0.013194824 0.022875847 0.12134039 -0.50694114 -0.035207424 -0.028872343 -0.019223774
0.028750299 0.016687289 0.24426611 -0.028273724 0.028026912 0.77638406 -0.14091843 -0.07629226
-0.26756322 0.6879842 -0.29734334 0.03053499 0.13308853 0.3835852 0.064085305 0.003813598
-0.007682148 -0.29278994 0.014676718 0.2729178 -0.11873867 0.04357032 -0.0054652183 0.0887617
-0.050607678 -0.17835388 0.28793 0.13664871 0.013026974 -0.25664884 0.19074133 0.023423446
-0.1027718 -0.15521544 0.1798802 -0.11632127 -0.024965776 0.20990531 -0.0006461266 0.15851755
0.09518426 0.01086749 0.0763102 -0.1212896 0.20838974 -0.026793668 -0.04194622 0.08021748
0.29170677 -0.21091825 0.2953637 -0.055228595 0.04877934 -0.061569724 -0.16826533 -0.019111529
-0.07560273 0.09671283 -0.111972764 0.17967796 -0.06628681 0.01706508 0.050205864 -0.010537742
00000000: 3228 e83d a122 f53d 4bc2 663c 6e55 a1bc
00000010: b4e5 e4bb 7269 1bbf 9984 fd3c 6b2e 12be
00000020: 83b3 d4bd f56b 0fbe 2cd2 cd3d 1af4 39bc
00000030: 804a 74be 7350 bcbd 3924 663e ace4 933e
00000040: b69c 10bd d86f 503e 5f5e 8cbe b4a5 33bf
00000050: 4a84 463c 0f52 c33c 5cd8 53bd c8e0 00be
00000060: d306 fd3d f2b6 8a3d 5b2c c5bd 24e9 98bd
00000070: 7b9f 35be 0953 3c3b 0013 9dbe 4d52 91bd
00000080: 9bc4 b3bd 72cc 623d cbda 8e3b 6d95 8d3d
00000090: 6c1c 9cbd cb9a 05be dfa9 bcbd e8f8 953e
000000a0: cfab a53d 9e05 593d 626d 8b3d 6f2c 153e
000000b0: 216e 1cbf a143 01bd 5bda bc3d e29f aabd
000000c0: 2f97 54bf c9ed 71b9 40a0 54bb 51d6 843d
000000d0: 5e4a 073e 4ae0 3f3e d611 ed3a cbf2 483e
000000e0: 07be ed3d 8607 0ebe 8aa1 9d3d 6c91 2ebe
000000f0: 9e5a a23d 38b5 5dbd 1bc7 a9bd 357e 5cbc
00000100: 8af8 77bd 2302 03bd e01d 74be 1120 2f3e
00000110: 45ca a4bb 0f22 993e 88ea 1cbd 187b ef3e
00000120: 7cfb 0a3e 301a aabe 63b1 a8bd 4a33 30be
00000130: f59f 0c3f de7c 10bf 0a9f 15be cf52 98bd
00000140: 976c 233d bdea f23e 063e 04bd 3774 fdbd
00000150: 0ef1 53bd 713d 64be 30fe 6cba 9dfb 2b3d
00000160: f664 e1bd 4518 98bd b0d4 903d 9c95 703d
00000170: 2d4a cbbd 8e69 903d d1e1 033c ab64 88be
00000180: 66e6 5ebe e514 9dbd a59d 68bc 0f04 27be
00000190: f6d7 cbbd f0cd ce3c 99de a2bc 7f5a 66bd
000001a0: 9982 2c3d 5992 6d3d 6886 eabc 0ccc 52bd
000001b0: 6ba3 be3e 9cd5 a3bd 937f 8b3d a2ae cf3d
000001c0: 8ef6 cb3d 08ae 243e a5cd aebd 664e fcbc
000001d0: f723 5d3e 9c81 39be 8cdd d73d 6d16 24bd
000001e0: 2a66 c73d 9688 c5bc 8e03 1e3e ddf9 0cbe
000001f0: ca8e c7be 6c12 d43b 1e13 f4bc 3b9a 09bc
00000200: b6cd 9e3c 64e4 273d 38e7 a43e 1bc5 2abe
00000210: 3347 afbd 5139 4b3f a83d 2bbe 66b6 0abe
00000220: 9b48 bcbd d5a4 723f 446c aabd c1c8 48bc
00000230: 115d b13d 785d 903e e3a0 a3bd 1abf 60bd
00000240: 3ba0 a33e 59c2 86bd fc94 be3c 1be9 7f3e
00000250: 8961 f5bd c6e8 083e 6449 20be 65ec 053e
00000260: 02fb 3c3d 7618 f73c 1b1e 263e 007c 4a3c
00000270: c0c6 8a3d d89c 62be a6ca 8a3e 887e 6bbd
00000280: 3755 c2bc 3564 d43d d0bb 443e 78f1 b2bc
00000290: cd43 7ebd a98a 423f f85c 4fbd 55ef 6a3e
000002a0: bb33 093e 158b 883d 876b c53c 12fe 58be
000002b0: 324e 6abe 93c4 453e 35d5 ebbd a62a 373d
000002c0: 2c92 ce3e 2af5 39be 4545 cf3e 9f96 eabc
000002d0: 99f4 b23d 086f 8abe 4754 27be 757c 6ebe
000002e0: 9125 7ebd 1a2f 583c 2166 bb3c 4f81 f83d
000002f0: e5c6 01bf a935 10bd b185 ecbc 2d7b 9dbc
00000300: bf85 eb3c c8b3 883c e520 7a3e 4c9e e7bc
00000310: b298 e53c 1bc1 463f ec4c 10be 1e3f 9cbd
00000320: 0cfe 88be bc1f 303f 633d 98be 8424 fa3c
00000330: 5c48 083e 4865 c43e 283f 833d 8fed 793b
00000340: 87ba fbbb 90e8 95be 9e76 703c e2bb 8b3e
00000350: 432d f3bd cb76 323d 9315 b3bb b2c8 b53d
00000360: ff49 4fbd 66a2 36be 906b 933e a4ed 0b3e
00000370: 176f 553c 7a67 83be b251 433e 87e2 bf3c
00000380: 057a d2bd ccf0 1ebe 8432 383e d939 eebd
00000390: 0785 ccbc 6bf1 563e d260 29ba 6d52 223e
000003a0: f7ef c23d 8f0d 323c 8648 9c3d af66 f8bd
000003b0: 1f64 553e 657e dbbc cdcf 2bbd 1049 a43d
000003c0: 975a 953e f4fa 57be e939 973e 6137 62bd
000003d0: d8cc 473d 8930 7cbd bf4d 2cbe c88f 9cbc
000003e0: 9bd5 9abd 6011 c63d fa51 e5bd 80fd 373e
000003f0: 61c1 87bd 11cc 8b3c aaa4 4d3d 7ea6 2cbc

conv2.nn.0.bias f4 [64]
0.16602127 -0.009794223 0.052124944 0.10061115 -0.1322026 0.012860982 0.19448349 0.010496197
-0.07648712 -0.070924334 -0.15487146 -0.03809391 -0.04972357 0.030198593 -0.1273246 -0.26072595
-0.20216985 -0.033948056 0.32096884 0.0034157766 0.09018335 -0.07442771 -0.26164708 -0.04985994
-0.022426577 -0.030304514 0.014320645 0.27782762 0.042978123 0.17103088 -0.032223735 0.036000088
0.114888825 -0.2027347 0.079788856 0.22452904 -0.093169555 0.1049077 0.008018172 0.13256826
0.16545679 0.049775146 -0.18027537 -0.06635589 0.010357702 -0.084554486 0.16149263 -0.044208307
-0.009882429 -0.10732021 -0.17457531 -0.013975352 -0.02091808 0.2332341 0.07044639 -0.033875864
0.24524468 0.07403882 -0.073727824 0.14971425 0.11266843 0.15763728 -0.0707909 0.029338358
00000000: 7b01 2a3e f377 20bc f780 553d 380d ce3d
00000010: 1e60 07be deb6 523c ae26 473e 3ef8 2b3c
00000020: 47a5 9cbd c740 91bd a096 1ebe 5c08 1cbd
00000030: f1aa 4bbd 0a63 f73c 6161 02be df7d 85be
00000040: 9d05 4fbe 1e0d 0bbd 0756 a43e 39db 5f3b
00000050: 0cb2 b83d 8e6d 98bd 9bf6 85be f039 4cbd
00000060: f1b7 b7bc 2c41 f8bc 23a1 6a3c 6c3f 8e3e
00000070: d409 303d b822 2f3e 09fd 03bd d474 133d
00000080: d54a eb3d af99 4fbe 5768 a33d f1ea 653e
00000090: aecf bebd d9d9 d63d a75e 033c f9bf 073e
000000a0: 816d 293e 06e1 4b3d 1b9a 38be 99e5 87bd
000000b0: 5ab3 293c e72a adbd 535e 253e c513 35bd
000000c0: e9e9 21bc b3ca dbbd dfc3 32be e0f8 64bc
000000d0: 655c abbc ebd4 6e3e 3246 903d 6bc1 0abd
000000e0: 6c21 7b3e aaa1 973d 9dfe 96bd b14e 193e
000000f0: b5be e63d ab6b 213e d2fa 90bd ff56 f03c

conv2.nn.2.weight f4 [64, 64]
0.14236847 -0.15919659 -0.6815851 -0.2551085 0.08899147 -0.12270101 0.125202 0.12032145
-0.18379243 -0.09254657 0.12081593 -0.017559437 -0.07311348 0.06608223 -0.024966912 0.04325549
0.29777384 -0.052493755 0.19584846 0.12774672 0.09336072 -0.061849788 -0.057458445 0.054895613
0.06458066 -0.15880467 -0.18441062 -0.06339643 -0.11336448 0.08136135 -0.1061985 0.020114262
-0.012561717 -0.02406701 0.081423104 -0.1287455 -0.057223935 -0.0025125775 -0.13453247 -0.0032456242
0.005700744 0.1640282 -0.0412333 -0.1350791 0.19289531 -0.058531206 -0.06480142 -0.17394714
-0.06179576 -0.067204036 -0.08493493 0.14572807 -0.0042591584 0.29247192 0.025115797 0.043948725
0.23763314 -0.06189963 0.11273248 0.17062211 0.02259327 -0.04046709 0.036400605 0.08830116
-0.1029652 -0.13284008 -0.61823106 -0.38879174 0.006921163 -0.0958898 0.111922815 0.06192545
-0.027766516 0.08727837 0.10093092 0.014042867 -0.051181786 0.064436175 -0.0043808133 0.02315284
0.2512255 -0.102288954 0.40520167 0.029112304 0.03951399 -0.08328572 0.0057955505 0.011897573
0.04305522 0.12182759 -0.22848098 0.09046468 0.060410544 0.052064918 -0.078241855 -0.060407214
-0.11697248 0.049948003 -0.14106084 -0.09965217 0.084670685 0.08083164 -0.04958486 0.008476933
0.03435234 0.1288803 0.08615496 -0.047005575 0.14117077 0.04643594 0.06625775 -0.28149116
0.10563391 0.16946056 0.111077905 0.08042094 0.038224462 0.3316149 -0.011042347 0.043369032
0.12937477 -0.07584551 -0.02882588 0.15328224 -0.029039836 -0.14819747 0.0211479 -0.08535636
-0.030826878 -0.049042027 0.15549247 0.11614358 -0.11421844 0.030212969 -0.09423833 0.20618324
-0.11017193 -0.023881149 0.0017169445 0.027143411 -0.08555762 0.15912206 0.04400385 0.10929683
0.1287783 -0.013561678 -0.028835785 0.060870007 -0.017777555 0.05595356 0.05891093 -0.04125223
-0.042169612 0.15985449 0.14094464 -0.06636241 -0.111309715 -0.15054785 0.00029583633 -0.24517246
0.028067803 -0.017268151 0.0019722374 0.017787209 0.09730895 -0.1426283 -0.004755253 -0.07145178
0.10165922 -0.05884472 0.104083695 0.09444982 -0.096852474 -0.091117784 -0.09022516 0.15559864
0.1727212 -0.16046011 0.013126552 0.012393136 0.045237675 -0.12303388 -0.16718404 -0.095457196
0.009567989 -0.03927669 0.08329441 0.059821077 -0.08765193 0.05257038 -0.06425566 0.08641905
-0.14379463 -0.04384936 -0.013590447 -0.16335204 -0.25879025 -0.05089329 0.14074498 -0.19170092
0.12697335 -0.0020639831 -0.11712243 -0.07332596 0.0046636704 -0.0077643073 0.010518122 0.056598123
-0.062451895 -0.11862085 0.14090177 -0.10941534 0.011701911 -0.14362887 -0.07078624 -0.010750318
-0.16718954 0.20511703 0.23458424 -0.22256109 -0.14105804 0.13911352 -0.011734629 -0.10441651
0.043338828 0.035776887 0.08630489 -0.00319262 -0.014488089 0.05906939 -0.028120957 -0.051801227
0.092908315 0.04982998 0.050726324 -0.1467412 -0.07106749 0.091471896 0.070867725 0.15201795
0.15708187 -0.03637578 0.053110503 0.04217575 -0.058290523 0.13481814 -0.1844543 -0.0028616004
0.16875966 0.026165094 -0.08841045 0.066592254 -0.042566974 -0.22115707 0.046057623 -0.012888276
00000000: 0ac9 113e 6e04 23be 5c7c 2ebf 959d 82be
00000010: 2941 b63d ab4a fbbd f434 003e 186b f63d
00000020: 1534 3cbe 0e89 bdbd 586e f73d cfd8 8fbc
00000030: 85bc 95bd 1f56 873d 6987 ccbc ab2c 313d
00000040: d075 983e b103 57bd 808c 483e 09d0 023e
00000050: e833 bf3d 3456 7dbd 8c59 6bbd 39da 603d
00000060: dd42 843d b19d 22be 23d6 3cbe fdd5 81bd
00000070: a32b e8bd c8a0 a63d 997e d9bd aac6 a43c
00000080: a9cf 4dbc 2e28 c5bc 28c1 a63d dcd5 03be
00000090: a563 6abd 0eaa 24bb e1c2 09be 8ab4 54bb
000000a0: 4fcd ba3b 02f7 273e 40e4 28bd 2d52 0abe
000000b0: 5986 453e 6bbe 6fbd 9bb6 84bd 331f 32be
000000c0: 8d1d 7dbd 45a2 89bd 5df2 adbd bd39 153e
000000d0: 6990 8bbb e1be 953e a5bf cd3c 9403 343d
000000e0: 1a56 733e 778a 7dbd 49e0 e63d 90b7 2e3e
000000f0: 8515 b93c d2c0 25bd cd18 153d 3dd7 b43d
00000100: 6bdf d2bd 3b07 08be 6444 1ebf b60f c7be
00000110: ecca e23b df61 c4bd ca37 e53d 8aa5 7d3d
00000120: 9b76 e3bc 01bf b23d dfb4 ce3d 0e14 663c
00000130: fea3 51bd 1df7 833d ed8c 8fbb 06ab bd3c
00000140: a1a0 803e df7c d1bd 9876 cf3e ed7c ee3c
00000150: 6cd9 213d b491 aabd 9ae8 bd3b 0aee 423c
00000160: ac5a 303d be80 f93d ebf6 69be 8c45 b93d
00000170: 0c71 773d 0642 553d 443d a0bd 8e6d 77bd
00000180: 458f efbd 4796 4c3d 4172 10be 7016 ccbd
00000190: d367 ad3d 0f8b a53d 7f19 4bbd d6e2 0a3c
000001a0: 0ab5 0c3d 33f9 033e 0372 b03d eb88 40bd
000001b0: 128f 103e 9d33 3e3d 25b2 873d 9c1f 90be
000001c0: 9756 d83d 1287 2d3e d07c e33d bcb3 a43d
000001d0: 4191 1c3d 6ec9 a93e f6ea 34bc baa3 313d
000001e0: d27a 043e e454 9bbd 4024 ecbc 05f6 1c3e
000001f0: f3e4 edbc 14c1 17be 5c3e ad3c 51cf aebd
00000200: a688 fcbc 4be0 48bd 6b39 1f3e afdc ed3d
00000210: 5ceb e9bd 3081 f73c 0700 c1bd b321 533e
00000220: d2a1 e1bd 66a2 c3bc 190b e13a dc5b de3c
00000230: d538 afbd e5f0 223e 623d 343d 04d7 df3d
00000240: 75de 033e cd31 5ebc 0639 ecbc d452 793d
00000250: 3ca2 91bc 8f2f 653d 964c 713d 19f8 28bd
00000260: 0bba 2cbd e5b0 233e cb53 103e 04e9 87bd
00000270: 59f6 e3bd 3729 1abe 7b1a 9b39 7d0e 7bbe
00000280: 73ee e53c f075 8dbc a740 013b 7bb6 913c
00000290: ea49 c73d 270d 12be f4d1 9bbb 5055 92bd
000002a0: b632 d03d 2907 71bd d529 d53d e86e c13d
000002b0: 975a c6bd f69b babd f8c7 b8bd 4055 1f3e
000002c0: d4dd 303e a84f 24be c010 573c 940c 4b3c
000002d0: 244b 393d 30f9 fbbd 4b32 2bbe 107f c3bd
000002e0: 0ec3 1c3c 98e0 20bd 4296 aa3d f206 753d
000002f0: db82 b3bd 0a54 573d 7998 83bd 79fc b03d
00000300: e63e 13be 639b 33bd 77aa 5ebc c245 27be
00000310: 2880 84be 7c75 50bd 741f 103e 3f4d 44be
00000320: 4d05 023e e443 07bb e2dd efbd ec2b 96bd
00000330: b4d1 983b bb6b febb 3454 2c3c 6fd3 673d
00000340: 8fcd 7fbd 7def f2bd 8e48 103e 2615 e0bd
00000350: 5fb9 3f3c 7213 13be 60f8 90bd 1a22 30bc
00000360: bc33 2bbe 330a 523e da36 703e 0ee7 63be
00000370: 8571 10be c673 0e3e 9a42 40bc 53d8 d5bd
00000380: 0e84 313d c98a 123d 9ec0 b03d 463b 51bb
00000390: 735f 6dbc bff2 713d ec5d e6bc 862d 54bd
000003a0: b746 be3d 851a 4c3d 68c6 4f3d 5343 16be
000003b0: d58b 91bd 9e55 bb3d 1923 913d 98aa 1b3e
000003c0: 12da 203e c5fe 14bd 668a 593d 7bc0 2c3d
000003d0: 0bc2 6ebd c40d 0a3e 97e1 3cbe b089 3bbb
000003e0: 55cf 2c3e 2e58 d63c 8a10 b5bd 8561 883d
000003f0: b55a 2ebd 0077 62be eba6 3c3d 5929 53bc

conv2.nn.2.bias f4 [64]
-0.04079465 0.01094739 -0.013614984 -0.014000114 0.034846194 -0.18529211 -0.27107266 -0.10758998
0.16697755 0.16429782 0.019060038 0.20637472 -0.012545031 -0.16613895 -0.06086606 -0.1448668
-0.059834547 0.020410806 -0.047133453 0.09643145 0.002559821 0.028532913 -0.058627084 0.07183671
-0.11104869 0.017876208 0.05157602 0.094168365 0.12111159 -0.14865847 -0.09501028 0.007983426
-0.058320932 0.04960745 0.00919755 -0.23205897 -0.19167821 0.10026855 -0.12003552 -0.014211002
-0.11275929 0.13094743 0.042099833 0.002479446 0.083875656 -0.1516613 -0.044045668 -0.043337665
-0.11145913 0.111807056 0.036115494 -0.1312674 -0.018293446 -0.03772317 -0.08066473 -0.065382436
0.052690703 0.07926953 0.13884509 -0.08182204 -0.10037507 0.12807891 0.03173831 -0.20456284
00000000: 4a18 27bd af5c 333c 6211 5fbc bc60 65bc
00000010: e2ba 0e3d 37bd 3dbe 09ca 8abe 2358 dcbd
00000020: 2afc 2a3e b03d 283e cc23 9c3c e553 533e
00000030: ac89 4dbc 5420 2abe b14e 79bd f657 14be
00000040: 1215 75bd 9034 a73c 020f 41bd da7d c53d
00000050: abc2 273b dbbd e93c f422 70bd 201f 933d
00000060: 7f6d e3bd 2071 923c 6041 533d 58db c03d
00000070: 5a09 f83d ed39 18be c094 c2bd eacc 023c
00000080: eee1 6ebd 2e31 4b3d 52b1 163c dea0 6dbe
00000090: 4b47 44be 9959 cd3d 2fd5 f5bd 43d5 68bc
000000a0: 58ee e6bd 1517 063e e070 2c3d 337e 223b
000000b0: 00c7 ab3d 1a4d 1bbe 3b69 34bd d682 31bd
000000c0: af44 e4bd 19fb e43d d7ed 133d f66a 06be
000000d0: 23dc 95bc 9c83 1abd 8d33 a5bd 3ae7 85bd
000000e0: 35d2 573d 1058 a23d 682d 0e3e 5092 a7bd
000000f0: 7291 cdbd 1e27 033e 0800 023d ec78 51be

conv2.lin.weight f4 [64, 7]
-0.02652205 -0.69545436 -1.0615027 -0.5696581 -0.2609374 0.3601831 -0.14332879 -0.20414488
0.2740014 -0.24930026 0.06315419 -0.20423423 -0.16947939 0.15128115 -0.40458307 0.23234576
-0.21340476 0.121534444 0.2124609 0.4060416 -0.20345391 -0.39484575 0.005574277 -0.13890937
-0.7075103 -1.0253131 0.07529622 0.29530013 -0.5151837 -0.57975984 0.3303729 0.2693616
0.5084649 0.3215776 0.28850463 0.23774204 1.3400685 0.10924275 0.7911857 -0.4247273
-0.17457908 -0.496555 0.4776819 -0.6687015 0.09696615 0.34890783 0.135056 0.124884464
0.051054932 0.7812064 0.8749674 -0.013651205 0.30078155 -0.10511573 -0.032598585 0.16841887
-0.06640238 0.1647968 0.08054673 0.06736315 -0.33846444 0.061818715 0.094608925 -1.4535561
1.1473233 -0.077366225 0.4677518 0.40377328 0.19026987 -0.95592827 0.3627646 -0.42826468
-0.25892165 0.13329366 -0.2523006 0.21410716 -0.11807016 -0.24275078 -0.8641077 -0.07371167
-1.3214906 -0.3728257 0.32563943 -0.09120035 0.9786313 1.628238 0.07100799 0.35412636
-0.65697676 0.16281544 0.103493355 -0.6353116 0.98438644 0.6260021 0.6046729 -0.121332906
0.4366075 -0.45621917 -0.48508388 0.3957337 -0.5011719 0.28773254 0.15018943 0.11722988
0.6231236 -0.04202069 -1.1018221 -0.33586147 -0.025362644 -0.08438903 0.4731246 -0.7933381
-0.15806855 -0.3210684 -0.13272578 -0.07477034 -0.1249657 0.019750396 -0.057635907 0.67882144
-0.008536525 -0.7671799 0.22632942 0.08767181 0.06995575 0.6720931 0.14418165 0.30023268
-0.29817536 -0.0246647 0.45055434 -0.0845432 -0.17488658 0.18091731 1.7316848 0.20325376
-0.7921436 0.6170413 0.22323868 0.29051784 0.66647357 -0.4238454 0.38491857 0.21259378
0.56671447 0.032267027 0.26439202 -0.63191944 0.15719171 0.59575707 0.088383704 0.21108688
-0.0003733841 -0.27925432 0.3908546 -0.06496681 0.04703249 -0.23265807 -0.036503498 0.18205345
0.06254728 0.44371462 1.3283653 -0.5575614 0.31093147 -0.67818946 -0.23966146 0.44862798
-0.077635065 -1.3859817 -0.3667755 -0.3259824 -0.13205376 -0.2059751 -0.12697597 -0.29705054
-0.1781043 -0.20763363 -0.31926408 -0.0376066 -0.42132157 -0.121343024 0.12237642 1.1394957
0.38404012 0.5504244 -0.40779784 -0.2777532 -0.63714945 -0.35935122 -0.80896175 -0.8239157
0.2897426 -0.24755718 0.5202776 -0.16642465 0.023295555 1.1702989 -0.2110433 -1.0115477
0.19871178 -0.5170764 0.33305925 0.41088057 0.06606924 0.023099849 -0.072416134 -0.220869
0.093382925 0.35696572 -0.865963 1.3490065 0.2284708 0.07925277 -0.2886378 -0.7525159
0.475609 -0.0032592888 -0.14002807 0.39735195 -0.096980646 0.5833519 0.2573748 -0.17285047
0.43944776 -0.10298261 0.2748444 0.2593527 0.07906406 -0.046977766 -0.29632336 0.8823393
0.44366908 0.32022515 -0.010105461 0.08773026 -0.38772503 0.09441992 -1.0334495 0.67875737
-0.1434638 0.31245947 0.033541426 0.33712268 -0.33026102 -0.13666967 -1.6448374 -0.2351521
-0.16705061 -0.39555788 0.16101219 -0.33944657 0.02226478 0.55236614 0.22928952 0.19953957
00000000: c544 d9bc 4c09 32bf 52df 87bf 1dd5 11bf
00000010: 9699 85be eb69 b83e c8c4 12be 5b0b 51be
00000020: e949 8c3e 9148 7fbe fc56 813d c722 51be
00000030: 018c 2dbe 72e9 1a3e 8325 cfbe 0cec 6d3e
00000040: c786 5abe 0de7 f83d 5a8f 593e afe4 cf3e
00000050: 3956 50be 3929 cabe 6da8 b63b 423e 0ebe
00000060: 651f 35bf 763d 83bf e834 9a3d 9431 973e
00000070: 14e3 03bf 246b 14bf a326 a93e c3e9 893e
00000080: c12a 023f d2a5 a43e e1b6 933e a672 733e
00000090: 5d87 ab3f aaba df3d 258b 4a3f db75 d9be
000000a0: dcc4 32be 753c febe b992 f43e 0630 2bbf
000000b0: 3096 c63d 0ca4 b23e 1f4c 0a3e 6dc3 ff3d
000000c0: fa1e 513d 25fd 473f ddfd 5f3f 4ea9 5fbc
000000d0: 0a00 9a3e ea46 d7bd 1886 05bd ff75 2c3e
000000e0: f9fd 87bd 7ec0 283e aff5 a43d b1f5 893d
000000f0: 364b adbe 9f35 7d3d 53c2 c13d 200e babf
00000100: 7ddb 923f 2f72 9ebd 2a7d ef3e 5fbb ce3e
00000110: 1bd6 423e b7b7 74bf 48bc b93e 8245 dbbe
00000120: 6191 84be 227e 083e 8b2d 81be e83e 5b3e
00000130: c5ce f1bd a993 78be 2a36 5dbf 25f6 96bd
00000140: 9b26 a9bf 03e3 bebe 36ba a63e 40c7 babd
00000150: 9587 7a3f 1a6a d03f a36c 913d 0d50 b53e
00000160: a12f 28bf 17b9 263e 53f4 d33d c8a3 22bf
00000170: c000 7c3f ac41 203f d8cb 1a3f 637d f8bd
00000180: 058b df3e 8f95 e9be ea5c f8be 9c9d ca3e
00000190: cd4c 00bf ae51 933e 42cb 193e 3816 f03d
000001a0: 0785 1f3f e31d 2cbd 8208 8dbf 09f6 abbe
000001b0: 52c5 cfbc 28d4 acbd 633d f23e 3518 4bbf
000001c0: b9dc 21be 1463 a4be 44e9 07be 3121 99bd
000001d0: 04ee ffbd 95cb a13c a113 6cbd 3ec7 2d3f
000001e0: c8dc 0bbc e765 44bf e6c2 673e 478d b33d
000001f0: f644 8f3d 4b0e 2c3f 5ba4 133e 19b8 993e
00000200: 71aa 98be a00d cabc 0faf e63e fc24 adbd
00000210: 7815 33be 6342 393e d9a7 dd3f c121 503e
00000220: ecc9 4abf 6bf6 1d3f ae98 643e c1be 943e
00000230: 039e 2a3f 4402 d9be 0c14 c53e 2fb2 593e
00000240: 3314 113f 6e2a 043d 645e 873e 79c5 21bf
00000250: ddf6 203e 8983 183f 8402 b53d 2927 583e
00000260: c4c2 c3b9 6cfa 8ebe 181e c83e 520d 85bd
00000270: 24a5 403d eb3d 6ebe b184 15bd 386c 3a3e
00000280: ca18 803d 902e e33e e007 aa3f 58bc 0ebf
00000290: 6932 9f3e d39d 2dbf d069 75be 91b2 e53e
000002a0: 22ff 9ebd d967 b1bf 00ca bbbe 2ae7 a6be
000002b0: 1a39 07be 23eb 52be fd05 02be 0217 98be
000002c0: f960 36be e99d 54be 9576 a3be 6109 1abd
000002d0: 76b7 d7be b182 f8bd 7da0 fa3d ffda 913f
000002e0: e8a0 c43e 9de8 0c3f e1ca d0be ab35 8ebe
000002f0: 3a1c 23bf e2fc b7be 1e18 4fbf 24ec 52bf
00000300: 2459 943e a17f 7dbe ea30 053f 396b 2abe
00000310: 52d6 be3c 5bcc 953f bc1b 58be 657a 81bf
00000320: 1a7b 4b3e 1e5f 04bf be86 aa3e f05e d23e
00000330: 4f4f 873d e53b bd3c e94e 94bd 7c2b 62be
00000340: 8c3f bf3d 36c4 b63e c0af 5dbf 3fac ac3f
00000350: 40f4 693e 474f a23d 55c8 93be e2a4 40bf
00000360: 0683 f33e cb99 55bb 8563 0fbe b771 cb3e
00000370: ca9d c6bd 8d56 153f a1c6 833e b7ff 30be
00000380: 4cff e03e 8ce8 d2bd 68b8 8c3e e1c9 843e
00000390: 56ec a13d c26b 40bd b2b7 97be fde0 613f
000003a0: 9828 e33e 8df4 a33e 6091 25bc ecab b33d
000003b0: e583 c6be 3b5f c13d 1348 84bf 0bc3 2d3f
000003c0: 2de8 12be b0fa 9f3e bc62 093d 589b ac3e
000003d0: f917 a9be 22f3 0bbe 088a d2bf b6cb 70be
000003e0: 510f 2bbe 9086 cabe 61e0 243e f1cb adbe
000003f0: a164 b63c de67 0d3f dfca 6a3e 1a54 4c3e

conv2.lin.bias f4 [64]
-0.14944823 0.28699303 0.12879093 -0.012679859 0.00019468805 -0.13198128 0.0440748 0.032444205
-0.019046552 0.06941707 0.1701187 0.15552802 -0.059077807 -0.19618896 -0.19379327 0.36985618
-0.17972143 -0.059977684 -0.30383888 -0.07426427 -0.2711475 0.15692881 0.13197516 0.06544191
0.14342684 -0.23290646 -0.072639175 0.08841074 0.049917493 0.049995273 0.23175769 -0.052500535
-0.26818982 -0.05410617 -0.056505628 0.11346625 0.18748608 0.012025844 0.10629354 0.058045812
0.32901877 0.316369 0.16842629 -0.21840623 -0.28800142 0.18045017 0.06518905 -0.08751638
-0.07029996 0.3108093 -0.11073927 -0.3928963 0.17133449 0.16999562 -0.16926676 0.03829976
0.23645538 -0.07039164 -0.3062828 0.050923325 -0.28207922 -0.056378324 -0.219484 -0.008493313
00000000: f508 19be c0f0 923e c5e1 033e 2fbf 4fbc
00000010: 2d25 4c39 1a26 07be c787 343d 37e4 043d
00000020: 8407 9cbc 892a 8e3d 9933 2e3e bd42 1f3e
00000030: 92fb 71bd c2e5 48be be71 46be ca5d bd3e
00000040: e508 38be 29ab 75bd c590 9bbe de17 98bd
00000050: d8d3 8abe f2b1 203e 7f24 073e 6806 863d
00000060: 7cde 123e 087f 6ebe d9c3 94bd b110 b53d
00000070: 4976 4c3d d8c7 4c3d e351 6d3e cd0a 57bd
00000080: 2d50 89be 6e9e 5dbd 7272 67bd fe60 e83d
00000090: 5afc 3f3e 0c08 453c 6db0 d93d 72c1 6d3d
000000a0: 2675 a83e 1efb a13e f177 2c3e e2a5 5fbe
000000b0: ec74 93be eec7 383e d681 853d ca3b b3bd
000000c0: 6df9 8fbd 6622 9f3e 45cb e2bd b429 c9be
000000d0: 4f72 2f3e 5513 2e3e 4454 2dbe 36e0 1c3d
000000e0: 5c21 723e 7e29 90bd 19d1 9cbe fa94 503d
000000f0: b06c 90be f5ec 66bd 6ac0 60be 8927 0bbc
