checkpoints/D/model_D_epoch_96.pth (torch, 78688 bytes, 15 tensors)

node_embedding.weight f4 [1, 64]
000000 18 12 61 3e c0 0e 10 be 03 61 b4 be cd a1 68 bf
       0.21979558 -0.14068127 -0.35230264 -0.9087189
000010 b3 e0 bd 3f 3a 71 cd bf cb 4f f4 bd 46 e9 8c 3f
       1.4834198 -1.6050179 -0.11929282 1.1008689
000020 37 d9 9a be ef 59 90 3f 4f b3 6a 3f 83 26 34 bf
       -0.30243847 1.1277446 0.91679853 -0.70371264
000030 eb 43 9c 3f 4a 08 c8 bf a5 0e e0 bf b1 83 7b 3c
       1.2208227 -1.562753 -1.7504469 0.015351222
000040 ac cf 00 40 f5 2d 32 3f 18 e4 be 3f 05 52 01 c0
       2.0126753 0.69601375 1.4913359 -2.020631
000050 2d e8 98 3f 5b 49 a4 be 4b e8 60 bf 1c fd e9 be
       1.1945854 -0.32087216 -0.8785445 -0.4570092
000060 f9 df 70 bf c1 08 01 bf 65 f6 b0 bf d3 48 46 3f
       -0.94091755 -0.5040398 -1.3825194 0.7745487
000070 c6 68 db 3f f8 60 12 3f 51 9e 29 3f 70 7f 11 bf
       1.7141349 0.5717921 0.66257197 -0.5683508
000080 6f 7d 85 3f 3f 6f 2d c0 6c 31 3b be b5 9a 00 40
       1.0428904 -2.709915 -0.18280572 2.0094426
000090 e8 c9 e7 3f 6b 05 a5 3f f5 a8 a9 bf 3e 31 32 3e
       1.8108492 1.2892278 -1.3254687 0.17401597
0000a0 db 00 f5 3e 15 f0 08 40 d5 a7 86 bf df 7d c1 bf
       0.47852215 2.1396534 -1.0519968 -1.5116538
0000b0 5d 47 a7 3d 4e 45 67 3e f4 9a a7 3e e0 3f 68 3f
       0.08167908 0.22585031 0.32735407 0.90722466
0000c0 11 c1 62 3f 3f c9 50 bf 6d 6a 63 40 98 72 22 bf
       0.88575846 -0.8155708 3.5533707 -0.63456106
0000d0 56 3a 90 be 32 ce da 3f 08 9a 4c bf cf a8 57 3f
       -0.28169507 1.7094176 -0.79922533 0.84241956
0000e0 c9 36 9e 3e 97 df 8b bf 95 48 a8 bd f6 ee 93 be
       0.30901173 -1.0927609 -0.08216969 -0.2889325
0000f0 11 03 47 bf bd d7 96 3f c3 a8 c8 3f ae e2 d6 3f
       -0.77739054 1.1784588 1.5676502 1.6787927

conv1.nn.0.weight f4 [64, 64]
000000 21 93 b8 3d 42 8c e6 bc fc 00 17 3d 6d 20 0e 3e
       0.090124376 -0.028143052 0.036866173 0.13879557
000010 63 de e2 bd ec 36 04 3e 86 8c e4 bd e6 79 d9 bc
       -0.11077573 0.12911576 -0.11159615 -0.026547384
000020 5a d6 84 bb 8d 06 f1 bd 9d d8 93 3c 65 fe aa 3d
       -0.004053873 -0.117688276 0.018047625 0.08349303
000030 fe b7 82 3d ec ac 35 3d db c2 0c bd 52 3b 05 be
       0.0638275 0.044354364 -0.034365516 -0.1301091
000040 6b fa d3 bd 1e f3 75 bd 0a 0b b6 3d a9 1b 65 3d
       -0.10350498 -0.060046308 0.08888824 0.055934582
000050 86 a8 0c bd 1b db f6 3c 66 8b 91 3b 1e 5a f9 bc
       -0.034340404 0.030133775 0.0044416664 -0.030438479
000060 2a 52 84 3d 09 86 85 bd 77 26 b4 bd 1e 9d 85 3b
       0.06460984 -0.06519706 -0.08796399 0.0040775677
000070 c1 d8 52 3c cd 6d c2 3c ae 69 e6 bc b2 a0 b0 3d
       0.012869061 0.023733998 -0.028126564 0.086244
000080 14 9f 5c bd 75 13 0a bd d9 59 1b 3d 3c 77 03 3d
       -0.053862646 -0.033709962 0.037927482 0.032096133
000090 ad 1b 91 3d 69 f0 71 3c c7 26 9b bd b4 2b f3 bd
       0.07085357 0.014766791 -0.075757556 -0.1187357
0000a0 16 cd a4 3c 60 18 d8 bd ee 43 85 bd f1 cd b1 3d
       0.020117324 -0.10551524 -0.06507097 0.08681858
0000b0 fd de f3 bb c6 b4 3f bd 50 cc d0 bd 12 fb bd 3d
       -0.0074423538 -0.04680326 -0.101952195 0.092764035
0000c0 7f 8f 03 3d 02 e9 96 3d 61 9c 8c 3d a2 85 66 3d
       0.03211927 0.073686615 0.068657644 0.056279786
0000d0 b0 5b 9d bd 9b 36 47 3b 83 d3 b2 bd 2b fd 56 bc
       -0.07683504 0.0030397538 -0.08731749 -0.013121883
0000e0 b1 ca c6 3d 14 79 43 3d b4 04 05 be 66 a5 96 bc
       0.09706629 0.04772289 -0.12990075 -0.018389415
0000f0 24 b4 21 3d c9 d0 3d bd ed 6c 86 3d 6a 94 85 bd
       0.039478436 -0.04634169 0.06563745 -0.06522448
000100 3c 3a 57 3d 10 df ee bd e0 9f 28 bd 80 53 ce bb
       0.05254577 -0.116636395 -0.041168094 -0.006296575
000110 8a db b9 3d a0 96 2e bc 88 5c 52 3d c8 09 0f 3d
       0.09075077 -0.010656029 0.051357776 0.034921438
000120 f8 cd cc bd 00 2d 48 bb 30 2c 54 bc 40 c1 93 3b
       -0.10000223 -0.00305444 -0.012949988 0.004509121
000130 2c da f7 bd 0e b5 fc bd 24 7c 1b bd 88 f1 c8 3c
       -0.1210216 -0.12339221 -0.037960187 0.024529234
000140 e2 a5 80 bd 1c 1c 32 3d 28 a4 e7 bd c4 21 36 bd
       -0.0628164 0.04348384 -0.11310607 -0.044465795
000150 94 6c f7 bd 46 90 ce 3d 0e 59 b6 bd 14 6e c1 bd
       -0.120812565 0.10086112 -0.089037046 -0.09444824
000160 f4 4e 6f 3d 8c 2d 73 bd 98 80 d1 3c c0 a5 2e bd
       0.058424905 -0.05936961 0.025574014 -0.04263854
000170 b4 ac 45 bd 38 68 29 bd a6 f5 f5 3d a0 79 ed bc
       -0.048260406 -0.041359156 0.12009744 -0.02898866
000180 80 b5 b9 3c ae 55 ac bd 62 a8 8c bd 3c 12 4b bd
       0.022669554 -0.084147796 -0.06868054 -0.049577937
000190 da c9 f2 bd 18 95 f8 bd 16 36 fd bd 6c 2e 00 3d
       -0.118549064 -0.121378124 -0.12363832 0.03129427
0001a0 6c 09 b6 bd 00 c8 1c bb d8 bd 93 3c d0 f6 35 bd
       -0.08888516 -0.002392292 0.01803486 -0.044424832
0001b0 d6 25 eb 3d d2 72 8b 3d 90 d7 ba 3d cc 83 fd bd
       0.11481826 0.068090096 0.091231465 -0.12378654
0001c0 c0 d8 2b bb 00 19 eb 3d 88 25 5f bd 44 5e 1e 3d
       -0.0026221722 0.11479378 -0.054479152 0.038664117
0001d0 fa b0 d0 bd 80 03 2a bc 90 91 01 bc a0 72 b5 bb
       -0.101900056 -0.010376811 -0.00790824 -0.005537346
0001e0 1e eb fa bd 60 71 9b bc 68 0d a3 3d 7c 1d 30 3d
       -0.12251876 -0.01897496 0.079615414 0.04299687
0001f0 92 b9 c4 3d ec 00 18 bd 00 72 9a 3a a8 28 a1 3d
       0.09605707 -0.037110254 0.0011783242 0.07869083
000200 20 70 57 bc b0 43 9a 3c 16 90 e5 bd 40 1a 01 bd
       -0.013149291 0.018831104 -0.11209123 -0.031519175
000210 b0 ba ca 3d 08 3a eb 3d 18 a5 1f 3d c8 e0 89 bd
       0.09898889 0.11485678 0.038975805 -0.06732327
000220 b2 0a cb 3d 6c 95 30 3d 38 25 d5 bd 90 e3 09 bc
       0.09914149 0.04311125 -0.104074895 -0.0084160715
000230 86 f7 85 bd 10 83 8c bc 2c e3 74 bd d0 77 b4 3d
       -0.06541352 -0.01715234 -0.05978696 0.08811915
000240 e8 fe 93 bc 50 26 e6 3c b8 d8 c7 bd cc 20 46 bd
       -0.018065885 0.02809444 -0.09758133 -0.04837112
000250 0c c5 6a bd a8 e4 18 3d a0 d3 d5 bd 0c b8 43 bd
       -0.057316825 0.03732744 -0.10440755 -0.047782943
000260 1e 87 fe bd 00 af 95 bb c8 ff 15 3d da de dd bd
       -0.12428115 -0.0045679808 0.036620885 -0.10833521
000270 28 86 d5 bc 28 df d2 bd 28 aa f9 bd 78 6b d0 bc
       -0.026064947 -0.1029647 -0.12190658 -0.02544187
000280 1c 1c 64 bd a8 66 dc bc c0 ff 5b 3d 48 0e a5 3d
       -0.05569087 -0.026904419 0.0537107 0.080593646
000290 c8 32 fe 3c ec 43 8e bd f0 46 bd 3c e8 c6 95 3c
       0.031030074 -0.06946549 0.023105115 0.018283322
0002a0 88 2e fa 3d a0 8b 0e 3d f0 a1 93 bc 54 55 8f bd
       0.122159064 0.034801126 -0.018021554 -0.06998697
0002b0 30 e9 46 bc 80 29 41 bc 64 90 dd bd 30 01 3c bd
       -0.012140557 -0.0117896795 -0.10818556 -0.04589957
0002c0 40 71 45 3d 50 f1 77 3c e0 b4 b6 3c f8 55 31 3d
       0.048203707 0.015133217 0.022303045 0.043294877
0002d0 34 8b 5d 3d 78 b6 bd bc 3c f2 98 3d a0 d0 b9 3b
       0.054087833 -0.023158297 0.074680775 0.005670622
0002e0 70 81 5d bd d8 8a 69 3d b6 d4 fc 3d 24 71 14 3d
       -0.05407852 0.057017177 0.12345259 0.03624071
0002f0 be f3 ab 3d b8 03 81 3c 6c 3e 5a bd 60 a7 bb 3c
       0.083960995 0.015748844 -0.053282186 0.022906959
000300 f8 25 17 bd 98 b8 06 bd 7c b2 a1 bd 1a ce ce 3d
       -0.036901444 -0.032890886 -0.07895371 0.100979045
000310 28 ec b7 bd 40 b0 dc 3d 70 df 0b bd 9a b6 ec 3d
       -0.0898059 0.107758045 -0.034148633 0.11558266
000320 08 c7 97 bc 06 26 fd 3d 76 7e ff bd 00 50 29 b8
       -0.018527523 0.12360768 -0.124752924 -4.0367246e-05
000330 a2 60 f3 bd 9c 19 79 bd 00 03 86 bb f0 ab b3 3d
       -0.118836656 -0.06081544 -0.004089713 0.08773029
000340 00 86 50 bd 72 5f dc 3d 38 03 c6 3c 80 df 10 bb
       -0.050909042 0.10760392 0.024171457 -0.0022105873
000350 82 f8 fe 3d 82 bb 98 bd 58 5c c8 bc 40 87 9f 3d
       0.12449743 -0.07457639 -0.024458095 0.07789469
000360 94 68 b7 bd 4c 6d f4 bd ca c5 c4 3d fa ea cd bd
       -0.089554936 -0.11934909 0.09608038 -0.10054584
000370 e0 54 07 3c 58 d0 e5 3d f8 9e 95 3d d8 30 2a 3d
       0.008259982 0.11221379 0.073057115 0.041550487
000380 10 a3 ba 3c 84 ac 3a bd 98 9b 96 bc 88 0d ec bd
       0.022782832 -0.04557468 -0.01838474 -0.115260184
000390 e0 c4 da 3b f4 86 8a 3d 5e 95 b3 3d ee 53 9d bd
       0.0066763014 0.067640215 0.08768724 -0.07682024
0003a0 a0 09 58 bd a0 7b ac bc a0 ec 92 3c b0 22 49 3d
       -0.052743554 -0.021055043 0.017935097 0.049105346
0003b0 00 dc ca bb b0 66 d4 bc a2 41 f7 bd bc 38 e0 bd
       -0.006190777 -0.025927871 -0.12073065 -0.10948321
0003c0 c0 1d 37 bd d0 38 25 bd 80 aa 08 bd bc 3b 29 3d
       -0.044706106 -0.040337384 -0.033365726 0.041316733
0003d0 28 a2 ec bd 38 51 99 3d 5c b6 7b bd 38 f9 7d bd
       -0.11554366 0.07486194 -0.06145321 -0.06200525
0003e0 f8 4c 95 3d ec 6f 21 3d d8 38 76 bd 40 91 7d bb
       0.07290071 0.039413378 -0.060112804 -0.0038691312
0003f0 e0 d8 70 bc c0 27 f2 bb 88 ad 4f bd 20 aa c4 3b
       -0.0147001445 -0.0073899925 -0.0507026 0.006001726

conv1.nn.0.bias f4 [64]
000000 a0 eb 7f bd 04 29 d9 3d 50 8d 1c 3d 2c 9b 77 3d
       -0.06248057 0.10603526 0.038220704 0.060450718
000010 2a 11 d4 3d b7 d6 ad ba b7 69 aa 3d 84 c9 7d 3d
       0.10354836 -0.0013262843 0.08320945 0.06195976
000020 3f 93 4b be b4 cd 0b be 8e bd 80 3d c9 72 48 bd
       -0.19880389 -0.13652688 0.06286155 -0.048937593
000030 b8 58 c2 bc b1 3c 05 be 54 2d ed bd 44 e2 b7 3d
       -0.023723945 -0.13011433 -0.11580911 0.089787036
000040 d4 67 62 3d 77 6a 88 be 3b 34 2b bd 1c f7 2f 3e
       0.0552748 -0.26643726 -0.041797858 0.17184108
000050 70 ab 1b 3c 21 28 fc 3c 11 b0 c3 3d 08 00 a4 bd
       0.009501323 0.030780854 0.095550664 -0.080078185
000060 7e a9 a7 bd eb d0 ee 3c 50 1d 75 3d 3b 43 29 be
       -0.08186625 0.029152354 0.059842408 -0.16529553
000070 b4 2f f7 3d fb 71 ea bc 2e fb 0c bd e1 9c 8f 3d
       0.120696455 -0.028618803 -0.03441923 0.07012344
000080 7b 47 09 be ac 90 f5 bc 53 55 de bd 7c 04 b9 3c
       -0.13406174 -0.029976211 -0.10856118 0.022585146
000090 c5 30 10 3e 9e 66 d5 3d e0 8b 9f 3c d0 38 c9 3c
       0.14081104 0.10419963 0.019475877 0.024563223
0000a0 a7 13 bd 3d 2c fc ea 3d a0 e4 82 3c 05 c3 2a be
       0.09232264 0.11473879 0.015978158 -0.16675957
0000b0 c6 05 ba bd 0f 60 0f bd 47 00 96 3d 40 d5 8e 3c
       -0.090831324 -0.035003718 0.07324272 0.01743567
0000c0 d8 aa 22 bd a1 1b 65 3d d1 2c a7 bd 12 67 a9 bd
       -0.03971371 0.055934552 -0.08162845 -0.08271612
0000d0 00 00 eb b7 a8 38 af bc d6 96 aa 3d 13 9e ff 3c
       -2.8014183e-05 -0.02138932 0.08329551 0.031203305
0000e0 3e d6 cb bd c7 bb 1e 3d bb 9e 87 3d d0 39 39 3d
       -0.09952973 0.038753297 0.06622072 0.04522115
0000f0 0c a0 29 be 52 dc 89 3d 7a df 1a bd b4 e1 63 bb
       -0.1656496 0.06731476 -0.03781078 -0.003477198

conv1.nn.2.weight f4 [64, 64]
000000 e4 8e 97 3d 20 78 22 3c 08 c6 89 3c 88 0c dc bd
       0.07400301 0.009916335 0.016818061 -0.10744578
000010 a8 9e 9a bd f2 b4 5f bd 55 6e ad 3c 04 4a 4e bd
       -0.075497925 -0.054615922 0.021170774 -0.050363556
000020 c3 a6 5e bc 88 29 e3 3c a2 59 81 3d 7a ce 39 3d
       -0.013589564 0.027729765 0.06315924 0.045362927
000030 08 cb 81 3d 81 fc 04 be 1f ba 2e bb 3f 1c 89 3d
       0.06337553 -0.12986948 -0.002666123 0.06694841
000040 c1 f8 6d 3d a0 80 6f 3a 5f 0d 2d bd 09 27 54 3d
       0.05809856 0.0009136293 -0.04224908 0.05179504
000050 ba 07 fa bd d2 9b dc bc d6 e3 f4 bc 04 aa 85 bd
       -0.12208505 -0.02692977 -0.029893797 -0.065265685
000060 73 13 13 bc e9 37 03 3e d4 9b cc 3d f1 94 e8 bd
       -0.008976805 0.12814297 0.09990659 -0.11356533
000070 fc 88 2e bd 7f 0b 5c 3d 76 99 25 3d c6 86 6c bd
       -0.042611107 0.0537219 0.040429555 -0.057745717
000080 b2 5a 1f be 6f cb d0 bc 8d ee 53 bd 86 ce 51 3d
       -0.15561941 -0.02548763 -0.05174117 0.051222347
000090 58 d5 52 be 7e 2b f5 3d f8 ce d1 3d fa dc df bd
       -0.20589197 0.11971186 0.10244554 -0.1093082
0000a0 da d7 ee 3d 34 67 96 3d d8 a5 56 3d 4f 9c 55 bd
       0.11662264 0.07343903 0.052404255 -0.05215102
0000b0 78 b2 d5 3c d7 56 65 3d 0c 77 26 3d ad 90 33 3c
       0.026086077 0.05599102 0.040640876 0.010959786
0000c0 58 f5 f3 3c 29 c3 d6 bc 21 00 bf bd 40 8b c2 bd
       0.029780075 -0.026216106 -0.093261965 -0.09499216
0000d0 48 4f b6 3d 00 4f eb ba b0 8d b4 3c c4 b4 84 bd
       0.089018404 -0.0017952621 0.022040218 -0.06479791
0000e0 ac fc 05 3d ee d7 ae bd b6 69 97 3d 7a 06 a5 bd
       0.03271167 -0.08537279 0.0739321 -0.08057876
0000f0 2f 0a d3 bd dd b4 ec 3d 3c 57 14 3d 52 18 81 bd
       -0.10304677 0.115579344 0.036216006 -0.06303467
000100 18 bf c0 bd d8 11 be 3d d0 da fe bc 0e bd a5 bd
       -0.09411448 0.09280747 -0.031110197 -0.080927
000110 16 b0 f3 3c be 02 1c 3d 82 dd fd 3d bc 92 a0 bd
       0.02974705 0.038088553 0.12395765 -0.07840487
000120 3e a3 69 3d fa ff 10 be 28 fb 78 bd 74 04 e3 3d
       0.057040446 -0.14160147 -0.060786396 0.11084834
000130 e8 f5 eb 3d de 56 10 bc bf 75 f2 bb cb 46 94 3d
       0.11521512 -0.008809773 -0.0073992903 0.07240065
000140 84 e6 f9 3d dc f5 39 3d 19 7f ac 3c 98 a5 db 3d
       0.122021705 0.045400485 0.021056699 0.10724944
000150 10 26 38 3c 52 61 ec 3b c7 70 07 3d 82 cf 7a bd
       0.011239544 0.00721375 0.033066537 -0.06123305
000160 a7 be 42 3d d5 ae d2 3d 08 b2 f5 bd 30 23 a9 3d
       0.0475451 0.10287253 -0.119968474 0.082586646
000170 c8 d9 3a bd 1a 40 06 be 09 53 db bd 05 c4 88 3c
       -0.04561785 -0.1311039 -0.10709197 0.016695032
000180 52 4f 4d 3d 14 40 f2 3c 50 e9 98 3d 6f 68 21 bd
       0.050124474 0.02957157 0.07466376 -0.039406236
000190 c6 db 34 bd 18 fc 43 3d 40 e5 f0 3d 87 b4 56 bc
       -0.044154905 0.047847837 0.11762476 -0.0131045645
0001a0 a0 78 9f bc 28 ef ac 3c cc 6e 5d bd e3 2b d0 bc
       -0.019466698 0.021110132 -0.054060742 -0.025411552
0001b0 c8 87 0d 3d 78 52 b1 bd 04 11 14 bd 18 b0 8e bc
       0.03455332 -0.08658308 -0.03614904 -0.017417952
0001c0 a0 ba f2 bb aa 22 46 bc 68 88 f9 bd f4 2e bd bd
       -0.0074075013 -0.0120932255 -0.121842206 -0.09237471
0001d0 c0 31 c5 bb 18 d2 d7 bc ef 3a 86 bd 0c 6f b5 3d
       -0.0060178936 -0.026345298 -0.065542094 0.08859071
0001e0 40 5d 8a bd 9e 77 62 3d a8 c3 9b 3d 1e cb 9b 3d
       -0.06756067 0.055289857 0.07605678 0.07607101
0001f0 34 4b 5d 3d b7 81 82 3d f0 0a b8 bd 9c d1 1b 3d
       0.054026797 0.063723974 -0.08986461 0.038041696
000200 e8 b5 f6 bc e8 16 d1 3c a0 dd e0 bc 00 aa 62 3c
       -0.030116037 0.025523618 -0.027449429 0.0138344765
000210 e8 c0 57 3d 72 a5 cb 3c 40 72 45 3c 60 d5 08 bd
       0.052674204 0.024859164 0.012051165 -0.033406615
000220 ba 31 5d bd 39 f4 84 bd e2 a3 46 bd b2 64 d2 3d
       -0.0540025 -0.06491894 -0.048496135 0.10273112
000230 d2 9d 85 bd 40 9a bd 3d 56 5b 11 be 60 94 ed 3b
       -0.065242425 0.092579365 -0.14194998 0.0072503537
000240 46 5b 80 bd 52 b1 b9 bd d8 4c 1e 3d ab 85 e1 bd
       -0.06267409 -0.09067024 0.038647503 -0.11011823
000250 90 bf ac bc a6 e2 e3 bd 26 85 8d 3d c4 c9 38 bd
       -0.021087438 -0.11127214 0.06910162 -0.045114294
000260 d9 ae 15 be 22 6f bd bd a4 20 c6 bd 60 3a f6 3b
       -0.1461748 -0.092497125 -0.096741945 0.007514283
000270 00 51 5b 3c 24 43 e9 bd 4c 11 e6 bd a4 a2 01 3d
       0.013386011 -0.11389759 -0.11233768 0.031649247
000280 13 64 b9 3a 52 be cf bd c0 3c f0 bc 7b 8c 00 bd
       0.0014144204 -0.101437226 -0.029325843 -0.031383973
000290 ba 11 85 3d 0c 70 a2 3d 28 6a fd bc 30 54 cd 3d
       0.06497522 0.079315275 -0.030934408 0.10025823
0002a0 ac 70 f9 bd 3c c5 d0 3d f0 45 c8 3c b7 0b d5 bc
       -0.121796936 0.101938695 0.024447411 -0.026006563
0002b0 f0 ac 44 bd f1 d2 c6 bd 4c b0 f3 3d 04 da 41 3d
       -0.04801649 -0.09708203 0.1189886 0.047327057
0002c0 a0 14 5d bc a2 b4 8b 3d fc 82 e2 bd b6 42 fd 3d
       -0.013493687 0.06821562 -0.110601395 0.1236624
0002d0 9c c4 41 3d d6 e9 f2 3d 90 9a 7e bd d3 5f 76 bd
       0.047306642 0.11861007 -0.06215912 -0.06014998
0002e0 fc d4 16 3d 4c e1 6a bd 92 15 de bd ea 6f b3 3d
       0.03682421 -0.057343766 -0.10843958 0.0876158
0002f0 ac d4 50 3d 20 25 95 3b c8 6d 9b 3c bc b5 6b 3d
       0.05098407 0.004551545 0.018973246 0.057546362
000300 a1 5d 47 3d f6 3b a8 3d 68 a6 d3 3c 6e f6 d7 bd
       0.048673276 0.08214562 0.025836185 -0.105450496
000310 46 c2 02 3e 05 cd 69 3c ac 4a be 3d 00 27 0f ba
       0.12769422 0.014270072 0.09291586 -0.00054608285
000320 0d fa d1 bb fb c5 cd bd ff 2c db 3d fb cf de bd
       -0.006407982 -0.100475274 0.10701942 -0.10879513
000330 94 cf 87 3d cf 3b c0 bd 79 3d c9 3d 4a 58 e0 bc
       0.06631389 -0.093864076 0.09826178 -0.02738585
000340 93 e2 ed bd 81 a5 2c 3d 2c a3 bb bd 1b 7f 0b be
       -0.11615481 0.042150024 -0.09161982 -0.13622706
000350 40 6a 7c bd 83 26 09 bd e1 a2 a1 3d 96 43 ba bc
       -0.061624765 -0.033483993 0.07892395 -0.022737306
000360 a5 cb 11 be e6 61 64 3c bc 6f b7 3d 9f 63 aa 3d
       -0.1423784 0.013939356 0.089568585 0.083197825
000370 6c c7 ea bd cc 90 d3 bd 7a af 0a 3b 37 66 9c bd
       -0.11463818 -0.10330352 0.002116172 -0.076366834
000380 f3 c6 01 be 58 e8 0b bd c2 c0 d7 ba 24 24 b5 3d
       -0.1267355 -0.034157127 -0.0016460645 0.08844784
000390 f9 e6 cf 3c b6 83 71 3d 8c 09 0a bd 94 09 ef 3d
       0.025378691 0.0589635 -0.03370051 0.11671749
0003a0 ff 03 ef 3d 8c 28 0e 3d 14 a4 ca bd 5d 6f f4 3b
       0.11670684 0.034706637 -0.09894577 0.0074595646
0003b0 4c f3 26 3d 17 d4 c4 3d 10 6f 81 bd 21 aa f7 3d
       0.04075937 0.096107654 -0.063200116 0.120929964
0003c0 fc dd 07 bd b5 e7 22 3d 64 ad 00 be 88 06 e2 bd
       -0.033170685 0.039771754 -0.12566143 -0.11036402
0003d0 24 ea 2c bd 70 bc 59 bc 71 45 fc 3d e3 54 c5 3d
       -0.04221548 -0.013289556 0.123179324 0.096353315
0003e0 dc 1c 95 bd 1b 59 a7 bc c0 18 d5 3d d8 db 93 3c
       -0.07280895 -0.020428231 0.10405111 0.018049166
0003f0 af 27 1a 3d 9f 26 3a 3d 39 78 24 bd d0 1a 60 bd
       0.0376355 0.04544699 -0.040153716 -0.05471307

conv1.nn.2.bias f4 [64]
000000 1e d9 67 bd bf c2 98 3c e4 6b 02 be d1 fb aa 3c
       -0.056603543 0.01864755 -0.1273647 0.020872029
000010 c2 44 c5 3d 7c 93 5f bd ff 26 24 3e dc 64 31 bd
       0.09632255 -0.05458401 0.16030501 -0.043309078
000020 c6 26 a0 bc 53 cb a3 3c 2d 64 49 3d f2 1a 16 3e
       -0.019549739 0.019994413 0.0491678 0.14658716
000030 6f c0 f9 3d 47 e5 df ba 15 57 bf 3d 93 be 3b bd
       0.12194907 -0.001708188 0.093427815 -0.045836043
000040 d9 9e c4 3d 1b 18 e1 3c bc fd 12 3d 0b ca 8e bb
       0.0960061 0.027477315 0.03588651 -0.0043575815
000050 33 36 b8 bd bf e3 c2 bc df f7 1a be 4b ad 0a 3e
       -0.08994713 -0.023790238 -0.15133618 0.13542669
000060 ca b5 9c bc 37 d9 14 be ff d4 bb bb a3 9e ed 3d
       -0.019129653 -0.14535986 -0.005732178 0.11602523
000070 97 d1 b2 bd 9c 2b 03 bc bf bb 0a be 91 f1 ed bc
       -0.08731382 -0.008006003 -0.13548182 -0.029045852
000080 d6 99 e5 bd 0c 0b 8d 3c ec d5 1d 3c bd e8 96 bd
       -0.112109825 0.017217182 0.0096335225 -0.0736861
000090 b5 8f ca bd a1 94 7e bd 9d a7 e7 3d 23 ab fe 3e
       -0.09890691 -0.062153462 0.113112666 0.49739942
0000a0 7a 00 42 be 6e 1c ee bc 2b c2 5e bd bf 83 29 3e
       -0.18945494 -0.02906629 -0.05438439 0.16554163
0000b0 1d 42 f2 bc 5f c4 56 bd d1 a8 cd bd 36 8d b3 3d
       -0.02957254 -0.052433368 -0.10041965 0.08767168
0000c0 22 30 b6 3d 88 a5 a8 bd b2 55 eb bd 50 27 a9 3c
       0.08895899 -0.082346976 -0.114909545 0.020648628
0000d0 62 18 16 be 40 2e 28 3c 32 c9 d9 bd 98 43 b7 bc
       -0.14657739 0.010264933 -0.10634078 -0.022371098
0000e0 a6 c5 e6 bd ff 48 cb 3d 66 ca 08 be 25 8e 5e be
       -0.11268167 0.09926032 -0.13358459 -0.21733911
0000f0 02 84 c4 3a c6 78 af bd d6 ed 69 bd ae 7f b4 bd
       0.0014992955 -0.085679576 -0.057111584 -0.088134155

conv1.lin.weight f4 [64, 7]
000000 c2 95 98 be 28 d1 e4 3e 7e 9b a8 3e dd 5a 02 3c
       -0.29801756 0.44690824 0.3293113 0.007956234
000010 45 3d cd 3e 0b 72 f3 be c0 9a 73 3e aa 15 40 bf
       0.40085807 -0.47547945 0.23789501 -0.75033057
000020 36 55 9a 3e 04 3d b8 bd 4c 01 21 be 32 94 6c be
       0.30143136 -0.08996013 -0.15723151 -0.23103407
000030 61 83 b8 3e eb 70 8e bd 17 ed f5 3d d1 7b b2 be
       0.36037734 -0.06955131 0.12008112 -0.3486009
000040 9c 20 2c be 3d 0e 2a be 38 79 68 bc 85 75 45 3f
       -0.16809314 -0.16606994 -0.014189057 0.77132446
000050 32 36 42 3f 6c 41 d4 3d 2b 34 95 bd b0 54 45 3e
       0.75863945 0.10364041 -0.07285341 0.19270587
000060 0a 94 0a be ec d6 a4 be 38 28 44 be cf b5 8d be
       -0.13533035 -0.32195222 -0.19155967 -0.2767777
000070 42 5f 28 3e 59 d2 83 3e 4f 74 9d 3e 3a 4c 8f be
       0.16442588 0.2574642 0.307528 -0.27987844
000080 e5 d0 ab 3e 0f f6 d4 3d df 3b e3 be 75 06 82 3d
       0.3355781 0.103984945 -0.44381616 0.06348888
000090 4a a3 a0 3d 8e 45 b8 bd 87 43 cd bd 9e a8 8f be
       0.07843645 -0.089976415 -0.100226454 -0.28058332
0000a0 3b 10 70 be d1 8d b9 bc 87 78 34 3c ff 8a 11 3f
       -0.23443691 -0.022650631 0.011015064 0.56852716
0000b0 0c 78 40 be f8 68 4c bc e3 a8 56 bd b2 fb 84 3e
       -0.18795794 -0.012476198 -0.052407157 0.25973278
0000c0 b3 67 d4 3e bd c9 af bd 62 e9 30 be bd 6d 07 bf
       0.41485366 -0.085834004 -0.17276528 -0.5290182
0000d0 d9 e4 4e bc d5 fb a4 3d f6 da 0a be d0 2f 64 3e
       -0.012627804 0.08055846 -0.1356009 0.22283864
0000e0 74 b2 d8 3e e1 78 60 3f fb 8b aa 3e 70 bf fb 3e
       0.4232365 0.87684447 0.33309922 0.49169493
0000f0 39 0f 74 3c ba 59 f3 3e 60 54 96 be d8 a7 a7 3e
       0.0148962075 0.47529393 -0.29361248 0.32745242
000100 9d 48 73 3d 2d 24 43 be b9 d1 65 be 9b 53 4b 3d
       0.05939542 -0.19056769 -0.22443284 0.04964028
000110 60 90 d8 bd 20 4a 13 be 50 a8 d6 3e d1 f6 3f 3d
       -0.10574412 -0.14383745 0.41925287 0.04686624
000120 d9 76 b3 3e fc 4c b1 3a eb 9a df 3e 67 4a ae be
       0.3505161 0.0013526971 0.4367288 -0.3404114
000130 f4 63 c3 3b fb 24 1b be c4 95 a9 be 84 f3 c0 bd
       0.005962843 -0.15150826 -0.33122075 -0.09421447
000140 4a 33 96 be 6b 9f cd 3d 32 49 ce 3c f1 f7 27 be
       -0.29336005 0.10040172 0.025181387 -0.16403176
000150 56 d1 c1 3d dc 10 4b be d9 c1 09 3e bf 84 da be
       0.09463756 -0.1983065 0.13452853 -0.42679402
000160 c7 dd 9e 3e 59 c8 04 bf 00 66 be bd 66 06 98 3e
       0.31028578 -0.51868206 -0.09296799 0.29692382
000170 18 b3 0b 3e 5e 81 0c 3e 63 9f 93 3e dc b5 c1 bd
       0.13642538 0.13721225 0.2883254 -0.09458515
000180 9f 40 3d bc 4b 9d 5e 3c d2 cf d6 3d dd d0 d7 3c
       -0.011551051 0.013587306 0.10488857 0.026344711
000190 3e f8 e2 3d e1 4e 64 3e 4d de 2a be a8 1a 3f be
       0.11082505 0.22295715 -0.16686364 -0.18662512
0001a0 f9 89 78 bc 15 03 56 bf 7c c2 9f 3f 58 ee 8d 3e
       -0.015169614 -0.8359845 1.2481227 0.27720904
0001b0 7b 3f ad 3d 2e 8b 94 be 53 24 26 3d 12 72 ed 3d
       0.084593736 -0.29012436 0.040561985 0.11594023
0001c0 6f 34 8c be b6 4f 20 3e 8e 11 43 3e 3e 82 a6 be
       -0.27383754 0.15655407 0.19049665 -0.32521242
0001d0 d7 5f 9a be a3 82 94 be 1a bf 05 3d 7b 83 2e 3e
       -0.30151245 -0.29005918 0.03265295 0.17042343
0001e0 62 6c 55 be c6 e3 c7 be 30 43 91 bc e2 02 6f be
       -0.20842126 -0.39040965 -0.017732233 -0.23340943
0001f0 1e 6b c1 3c 41 60 a5 bd 3e bf c3 bd 7c 22 dd bc
       0.023610648 -0.080749996 -0.09557961 -0.026993982
000200 04 b3 43 be 9c e8 31 3e 10 b6 72 3d 44 17 91 be
       -0.19111258 0.1737389 0.05925566 -0.28338063
000210 5c d0 b5 bd a8 87 a5 be 41 c9 55 3a 61 4b 18 3e
       -0.08877632 -0.3233006 0.00081552943 0.14872505
000220 a9 7f 61 3e ad 87 0f be 86 18 63 be ea 48 ac 3e
       0.22021355 -0.140166 -0.22177324 0.3364938
000230 6b 1c 2c be de 75 88 bd 7d b1 0a be bb 8f d5 bd
       -0.16807716 -0.066631064 -0.13544269 -0.10427805
000240 47 3e a0 be 0c f9 a3 be 3b bb 1e 3e 59 71 92 3d
       -0.31297514 -0.32025945 0.1550111 0.071505256
000250 9b ce c7 3e dc 42 c0 3e 11 7b b6 be 0a c7 ba 3e
       0.39024815 0.3755101 -0.35640767 0.3647998
000260 7f f4 af 3e c2 af 46 be 83 cd a4 3e 0b 50 30 bd
       0.34366223 -0.19402984 0.32188043 -0.043045085
000270 35 a2 76 ba c6 29 93 3e 6d f5 b7 3e 81 06 0e be
       -0.0009408326 0.28742808 0.35929433 -0.13869669
000280 08 5a ae be bd 47 15 3f 5e 8c 88 3e 09 78 19 3c
       -0.34053063 0.5831259 0.26669592 0.0093669975
000290 d6 67 81 3e dc 2e a8 3e e7 9a 8a bf 51 43 f9 3d
       0.25274533 0.3284825 -1.0828522 0.12171043
0002a0 fe ee e7 3b 74 4e a4 3e 7a 6c 38 be fe fd d8 3d
       0.0070780506 0.32091105 -0.1801013 0.1059532
0002b0 69 5a 3c 3e 6c db a0 3e 34 0c 79 3e 28 ee a7 bd
       0.18393864 0.31417406 0.24321061 -0.081997216
0002c0 3e 05 e3 bd 43 da 3b 3e e6 25 1e 3d 0e 42 af 3d
       -0.11084984 0.18344979 0.03861036 0.08557521
0002d0 9c 76 de bc b4 5f 79 3e 92 61 98 3d e8 26 4c be
       -0.027156167 0.24352914 0.07440485 -0.19936717
0002e0 f9 6a 9d 3d ae af 0b be bf bc 68 be 54 0e 53 3e
       0.07686419 -0.13641235 -0.22728251 0.20610934
0002f0 ca 5c 56 3e 74 0b 4e 3e 00 5e 04 3f a2 0c 1f 3e
       0.20933834 0.20121557 0.5170593 0.15532163
000300 62 84 4e be c2 61 c5 be 0a f5 d5 bb 8c 4b 1e 3d
       -0.20167688 -0.38551146 -0.006529455 0.038646266
000310 87 ec 10 3d 28 c9 78 3d 3c 74 95 be 1e e7 84 be
       0.03538182 0.060738713 -0.29190242 -0.25957578
000320 64 67 1d bd 6d 5c 59 bd f1 36 00 be 9e 67 01 bf
       -0.03842868 -0.05306666 -0.12520958 -0.5054873
000330 60 cc 97 bc 66 a9 14 bf 74 2c f3 3d 13 b5 00 bf
       -0.01853007 -0.5807098 0.11873713 -0.502763
000340 b0 8b 14 3e 7b 62 7b bc 8e b5 d4 3e e9 e9 4a be
       0.14506412 -0.015343304 0.41544765 -0.19815792
000350 d1 81 a1 3e b0 0e 84 3e df 12 ac 3e a5 33 e7 be
       0.31544355 0.25792456 0.33608148 -0.4515659
000360 24 3e 6f 3d f8 9b 36 3e b3 8d ae bc 8d 64 c0 3d
       0.05840887 0.17832935 -0.021307802 0.093941785
000370 fe 59 62 3e 85 77 b5 3c de 59 84 3d 6d 78 05 be
       0.22104642 0.022151718 0.06462453 -0.1303422
000380 2c d4 9a 3c 2b bc 87 be 66 9f b9 be 95 f3 73 3e
       0.0189 -0.26510748 -0.36254424 0.23823388
000390 c9 88 8b bc 01 ae 02 3d f1 95 37 be f2 2c 8e be
       -0.017032998 0.031904224 -0.17928292 -0.27768666
0003a0 d7 c7 6e be 0a 28 b8 3e 2e 54 b6 3d f9 0a ac 3e
       -0.2331842 0.35968047 0.08902775 0.3360212
0003b0 a3 15 32 be f9 e3 54 bd ae ba 8d be 6a 33 9c bd
       -0.17391066 -0.051975224 -0.27681488 -0.07626994
0003c0 c2 43 1e 3e 9e 18 9d be 1d c0 d8 3c 2b ae a6 3e
       0.15455535 -0.30682844 0.026458794 0.32554755
0003d0 c3 bd 59 be 15 9f c4 be 91 16 84 3e 39 fa 8d 3d
       -0.21263795 -0.3840262 0.25798467 0.06932492
0003e0 8f 01 d4 bc 3e d9 c0 be c6 7d cc bd e0 0f 85 3e
       -0.02587965 -0.37665743 -0.09984927 0.25988674
0003f0 4f 68 94 3c f8 6c 0b 3e 7d 36 92 3e 4c 27 85 be
       0.018116144 0.13615787 0.28557196 -0.26006544

conv1.lin.bias f4 [64]
000000 47 52 10 be 29 92 88 3e cf d0 84 bd b3 5d b1 3e
       -0.14093886 0.2667401 -0.064851396 0.346418
000010 d7 20 0c be c5 cc 86 3e 23 5f 13 3e 65 2d 0e 3e
       -0.13684402 0.26328102 0.1439176 0.13884504
000020 8b 34 4d 3e d6 a2 af 3d ba 6a 91 bc 91 3d b3 3e
       0.20039575 0.0857598 -0.017751087 0.3500791
000030 72 d9 f6 3d d5 b0 76 3e fd 2c 50 3c bb 39 1d 3d
       0.12053193 0.24090894 0.012706039 0.038385134
000040 52 e1 91 3e b2 54 05 3d 5a e3 30 3e 75 db 5f be
       0.28492218 0.032551475 0.17274228 -0.2186106
000050 14 40 66 be d0 a2 36 3e 79 be 93 be a3 5c e5 3e
       -0.22485381 0.17835546 -0.28856257 0.4479724
000060 97 0c a6 3e 3c f5 2d bd e7 1f 38 bd af 49 e6 3d
       0.3243148 -0.0424702 -0.0449523 0.11244523
000070 d8 94 91 3e 42 52 4f 3e 3f 0e 7d 3e 50 2e 6d be
       0.2843387 0.20246223 0.24712466 -0.23162198
000080 e3 ec 0d be 17 01 92 3e 0b 44 ba be 30 6a 94 3e
       -0.13859896 0.28516456 -0.36380038 0.28987265
000090 56 59 2f be 19 8a 11 3e 8e 50 5b be 67 a3 fc bd
       -0.17123923 0.14212836 -0.21417448 -0.12335854
0000a0 41 8d 85 3e c9 f9 1f be 71 7c 26 be fd 06 9c 3e
       0.2608433 -0.15622629 -0.16258408 0.30474082
0000b0 7b bf 42 3e f9 57 84 be 81 7b 3b bc 70 e8 a2 be
       0.19018357 -0.25848368 -0.01144302 -0.3181796
0000c0 8c 84 b8 be ca 78 b9 be 1f ff 32 be f8 cb a2 be
       -0.36038625 -0.36224967 -0.17480133 -0.3179624
0000d0 4b 6f 74 3e 93 68 78 3c b7 fa 0d be 1f c7 b9 be
       0.2387058 0.015161651 -0.13865171 -0.3628473
0000e0 b8 70 8e be 5d 0f 95 3e b2 11 12 3d c7 f6 52 be
       -0.27820373 0.29113284 0.035661407 -0.2060195
0000f0 f6 9e de 3e 15 31 01 bd 31 a8 b7 3c 89 29 a5 3d
       0.43480653 -0.03154095 0.022419067 0.08064563

conv2.nn.0.weight f4 [64, 64]
000000 0c 7d cf bd c5 fa c7 3d 5b a7 14 3d 0f 13 8f bd
       -0.10131273 0.09764627 0.036292415 -0.06986057
000010 31 85 8c bd 1b 00 c6 be f8 36 28 3d 22 ec dd bd
       -0.06861342 -0.38671955 0.041068047 -0.108360544
000020 f5 fd 17 be e1 1b 63 3c 4a 8d e6 3d 99 fc 95 bd
       -0.1484297 0.013861627 0.112574175 -0.0732357
000030 a9 96 0b be 45 9e 8a be 68 95 e0 3d 04 c3 36 bd
       -0.13631691 -0.27073875 0.10965997 -0.044619575
000040 6e 81 d5 bd 3c 1c 55 3d c8 b3 c2 bd 7b 4d c1 be
       -0.104250774 0.05202888 -0.09506947 -0.37754425
000050 4c 01 b6 3c 80 15 09 be f7 de aa bd 82 ec 81 bd
       0.022217415 -0.13387108 -0.083433084 -0.063439384
000060 e9 36 0d 3d 70 26 8f 3d 01 bf df 3d 03 0f af bd
       0.034476195 0.06989753 0.10925103 -0.08547785
000070 af 2d 88 bd d9 96 ba bc 47 c1 70 be c8 17 e1 bd
       -0.066493385 -0.022777008 -0.2351123 -0.10990864
000080 a4 77 cb bd a3 f0 ab 3e 48 cb 19 be 42 d3 c3 3d
       -0.09934929 0.3358203 -0.15018952 0.095617786
000090 21 17 0b bd 43 d7 ab bb f9 a7 6f bd 39 9d 0f 3e
       -0.033957604 -0.005244167 -0.0585098 0.1402482
0000a0 0b c5 42 3e c7 b3 bf 3d a4 52 b2 3d 1e 81 8d 3d
       0.19020478 0.09360462 0.08707169 0.06909393
0000b0 34 2b e1 be 2e 5e 9d bd 3e 43 cb 3d 2a 78 87 bd
       -0.43978274 -0.07683979 0.09924935 -0.06614716
0000c0 fe b9 6a bf 03 30 56 bc 6d a6 d3 3c 81 49 9e 3d
       -0.9169005 -0.01307297 0.025836194 0.077288635
0000d0 52 ed 39 3e 87 c6 83 3d a7 28 12 3c 79 e7 c6 3d
       0.18156937 0.064343505 0.008920825 0.09712119
0000e0 ef cd 46 3e f2 5e e0 bd b3 58 d4 3c 91 90 2b be
       0.19414495 -0.109556094 0.025921201 -0.16754366
0000f0 e8 7f 6b 3d 62 5a 97 3c c4 02 9a bd ea 15 2f 3d
       0.057495028 0.018475715 -0.07520059 0.04274551
000100 58 7e af be 19 09 80 bb b6 3e 76 be e9 78 18 bd
       -0.3427608 -0.0039073345 -0.2404736 -0.037224684
000110 e9 32 ca bd b3 e5 f1 be 45 b5 41 bc 95 31 22 3e
       -0.098729916 -0.4724556 -0.011823003 0.15839227
000120 ce d6 8f 3d 82 9d e4 be 95 65 fc ba 2b d1 89 bc
       0.070233926 -0.4465142 -0.0019256348 -0.016823372
000130 56 cf ee 3d b6 b7 54 bf f3 b7 85 bc 9e ae 14 bd
       0.1166064 -0.8309282 -0.016323065 -0.03629934
000140 21 bc 65 3d ed c4 45 3e e7 19 93 bc 70 fc 22 bf
       0.056087617 0.19313402 -0.017956687 -0.6366644
000150 07 bc 12 bd 04 e4 97 bd ba 40 92 bd a3 bc 61 bc
       -0.035823848 -0.074165374 -0.07141252 -0.013777885
000160 2a 50 12 bc e7 e1 71 bd 6a 67 ad bc 16 68 59 bc
       -0.008930245 -0.059053328 -0.021167476 -0.013269445
000170 a6 af db bd 6d ae ff 3c 12 c4 bb bd f0 8e 90 bd
       -0.10726862 0.031211102 -0.09168257 -0.07058513
000180 f7 4c 1f bd e0 bc 2f 3e 00 a6 f1 bc 56 dd e0 bd
       -0.03889176 0.17161894 -0.0294981 -0.109797165
000190 16 9a 81 3d 16 e5 59 3c b6 e4 19 3e 01 42 5f 3e
       0.06328218 0.013299247 0.15028653 0.21802522
0001a0 6e 94 1a 3e 14 19 20 3d 2a ac 00 be 13 64 88 bd
       0.15095684 0.039086416 -0.12565675 -0.06659713
0001b0 f4 64 aa bd c6 6f 90 3c e1 a6 7b bc 3c 6c bb 3d
       -0.083200365 0.017631423 -0.015359611 0.091515034
0001c0 e2 60 8e bf 10 bf 34 3e bc 4c 77 be 67 fe 05 bd
       -1.1123316 0.1765101 -0.24150366 -0.03271332
0001d0 47 30 cd 3d c0 f2 1f 3c b0 6d e8 bd 19 d9 cd bc
       0.10018974 0.009762466 -0.11349046 -0.025127934
0001e0 25 fb 9a 3d 2b 04 15 3d 1b 0c 8b 3d b1 9b a2 be
       0.07567433 0.036380928 0.06789418 -0.31759408
0001f0 9c db 46 be eb d5 79 3d fd 69 bf bd 2b 6a a5 bc
       -0.19419712 0.060995024 -0.093463875 -0.020192226
000200 80 6b 45 3f 47 4b 03 3e e7 d7 27 be f6 67 04 bf
       0.77117157 0.12821685 -0.16390954 -0.5172113
000210 3d f4 be bd ec 27 74 3e 17 55 0d be 1b 28 16 be
       -0.093239285 0.23843354 -0.1380199 -0.14663737
000220 59 0f e5 3d 81 3a 30 bd e4 30 5f bd cd 0f 1b 3e
       0.11184568 -0.043024544 -0.054489985 0.15142746
000230 e6 3e 54 be 9a a3 10 bf 41 b4 d6 bd 3a c6 9a be
       -0.20727119 -0.56499636 -0.104835995 -0.3022936
000240 0d 66 a9 be aa 07 c1 bd 63 48 1f be d6 ad 45 3d
       -0.3308567 -0.0942529 -0.15554957 0.048261486
000250 af 34 21 3e 5c ae 18 3b 22 ea 19 be dd 9c eb 3d
       0.15742753 0.0023297286 -0.15030721 0.11504529
000260 31 4a be 3d 70 38 9b bd 4c f7 6a 3d dc b4 e0 3b
       0.09291495 -0.07579124 0.057364747 0.0068574976
000270 a0 ff c9 3d fb 09 15 3c fc 67 5b 3e 58 26 46 be
       0.0986321 0.009096618 0.21426386 -0.19350564
000280 3e af 39 bd 2b 3c fa 3d de 89 c6 be 8c 6b 98 bc
       -0.04533314 0.122185074 -0.3877706 -0.01860597
000290 6e 0d 69 3d 4d fb 50 3d ce bc 85 bd 90 25 65 3e
       0.056897573 0.05102091 -0.06530152 0.2237761
0002a0 5a 3c 02 3e 1c 42 8d 3d e7 40 b8 bc 3c 55 ba bd
       0.12718335 0.06897375 -0.022491885 -0.090982884
0002b0 d6 13 1b be c0 cc 41 3e 6f 71 47 3b dd 26 92 3d
       -0.15144286 0.18925762 0.0030432602 0.07136319
0002c0 a7 ec ee 3d 2d 62 09 bb d9 84 11 be 94 b3 74 bd
       0.116662316 -0.0020963058 -0.14210834 -0.05974157
0002d0 49 44 82 3d 8d fe 45 be 26 2d 83 bd 8d 8e 39 bd
       0.063606806 -0.19335385 -0.06405096 -0.045301963
0002e0 c7 23 36 be 0b 17 96 bc 48 30 20 3e 35 89 87 ba
       -0.17787085 -0.018321535 0.15643418 -0.0010340573
0002f0 d7 57 af bc b0 8b 23 bd b3 1f 34 bd 44 8d 8e 3b
       -0.02140419 -0.03992814 -0.043975543 0.0043503363
000300 43 0e 87 be d7 da cc 3d 0f 17 4c 3d db 2d e3 bd
       -0.26378068 0.10002678 0.049826678 -0.110927306
000310 42 73 26 3d 95 2e cb 3d 6e ea 01 be 91 d3 bc bd
       0.040637262 0.09920994 -0.12687084 -0.092200406
000320 e2 98 8c bd 59 3e 28 bd fb 49 01 be 2c 6a a1 bb
       -0.068650976 -0.041075084 -0.12625878 -0.0049259868
000330 de 31 f0 3d 5f b3 0a be 69 00 cc be 67 b2 75 3d
       0.117282614 -0.13544987 -0.39844063 0.05998459
000340 4f 05 8e bd c0 d7 be bd 21 ce ee 3d 69 04 08 3e
       -0.06934606 -0.09318495 0.1166041 0.13282932
000350 f4 01 01 3e fc ec 61 be bb 7c 24 bb 1a d0 a2 3d
       0.12598401 -0.22063059 -0.002509876 0.079498485
000360 73 15 a6 bd a4 83 ad 3b 18 46 a5 3d d4 3d 25 3e
       -0.0810956 0.005295234 0.0807001 0.16136867
000370 a5 8f 05 be 70 07 d1 bd de 8b 85 bd 90 ea 03 be
       -0.13043077 -0.10206497 -0.06520818 -0.12882447
000380 fc a9 00 bf 17 a0 a2 be 3c 48 98 3d a0 90 8f bc
       -0.50259376 -0.31762764 0.074356526 -0.017525017
000390 3e d5 99 3d 9e f7 6b 3e 22 60 d6 bd 94 00 83 3e
       0.07511376 0.23043677 -0.10467555 0.2558638
0003a0 85 4b c1 3c bd 5d 11 bc 89 9e 95 3c 5e 2c 87 bd
       0.02359558 -0.008872447 0.018264072 -0.06600259
0003b0 4a 10 9a 3e c3 59 b1 bc 67 82 98 3c 33 b0 10 3e
       0.30090553 -0.021649247 0.018616868 0.14129715
0003c0 24 ec 2e 3d a2 37 2b be df 53 5c 3e 29 fa f1 bc
       0.04270567 -0.16720441 0.2151637 -0.029538231
0003d0 ec d4 8c 3c 95 5f b8 be aa 43 21 3d ce 79 7e 3d
       0.017191373 -0.36010423 0.03937117 0.06212788
0003e0 e5 30 4b be 1a 72 21 3d 8c 8d 06 3d 6f 59 06 3d
       -0.1984287 0.039415456 0.032849833 0.032800134
0003f0 93 46 bc bd bf 6e 8d 3d a2 fd e0 3d 5b 9d 00 bd
       -0.091931485 0.06905889 0.109858766 -0.031400066

conv2.nn.0.bias f4 [64]
000000 f2 b6 fb 3d 44 0e 30 3e 48 ed da bd 38 b2 a3 3e
       0.122907534 0.17192942 -0.10689789 0.31971908
000010 5f 0f cc 3d ea a3 d0 bd 65 b8 47 3e 53 cc 86 bd
       0.09963869 -0.10187514 0.19503935 -0.065819405
000020 57 2a 46 3c b3 02 af 38 5a 5a 1e be a4 53 85 bc
       0.012095056 8.345153e-05 -0.15464154 -0.016275235
000030 e4 ff 16 be cd c8 34 be 0d af b0 bd df 57 45 bd
       -0.14746052 -0.17654724 -0.08627138 -0.048179504
000040 f0 b9 4f be c1 44 34 bf 3c 64 5f be 2a c2 1c 3b
       -0.20285773 -0.7041741 -0.2181558 0.0023919442
000050 49 b5 85 bd f7 84 aa 3d da f5 40 bd 6f e9 e0 bd
       -0.06528718 0.08326142 -0.047109462 -0.10982024
000060 e2 44 8f 3d 14 5e 83 3c e1 e9 c2 bd 17 56 cf bd
       0.0699556 0.01603607 -0.09517265 -0.10123842
000070 a3 68 96 3d 3e 00 bf 3c cf 0c 47 3e 0a bf 08 bd
       0.073441766 0.023315545 0.1943848 -0.033385314
000080 26 0f b8 bb cd e1 e6 3d 46 78 08 be e4 94 79 3e
       -0.00561704 0.11273537 -0.1332713 0.24373204
000090 2b 50 48 3e f0 6c 92 3e 09 b3 0e 3e b8 a7 c2 3d
       0.19561832 0.28598738 0.13935484 0.09504646
0000a0 74 e3 fb 3c b0 40 06 bc 31 b2 0d be e1 a7 25 3e
       0.030748107 -0.008194134 -0.13837506 0.16177322
0000b0 13 91 41 3e f0 b2 99 be 7d e4 ee bc 95 9a ec 3d
       0.18902998 -0.3001933 -0.029161686 0.11552922
0000c0 5c d0 2f 3e 28 46 26 3d 18 46 cc bc 16 f1 c3 3b
       0.17169327 0.04059425 -0.024935767 0.0059796674
0000d0 1c 4e 94 3d 01 28 af be c7 e6 7d bd 53 30 5f 3c
       0.07241461 -0.34210208 -0.061987665 0.013622361
0000e0 ce a1 30 bc e9 39 20 3d e7 05 25 bd 08 8f cb 3e
       -0.010780765 0.039117727 -0.040288832 0.39757562
0000f0 52 6d 9f 3d 5e 26 aa 3d 38 1d c3 3e d8 e7 09 bc
       0.07784523 0.08308099 0.3810823 -0.008417092

conv2.nn.2.weight f4 [64, 64]
000000 e9 bd 0c 3e 18 96 36 bd 48 7f 38 be 73 14 12 be
       0.1374432 -0.044576734 -0.18017304 -0.14265613
000010 68 a2 30 3f 3a bb a1 b9 39 b3 01 3e d3 b7 e1 3d
       0.6899781 -0.00030847808 0.12666024 0.1102139
000020 5e 5c ec bd 02 ef 87 bd 7d a5 c6 3d 55 fd b4 bd
       -0.11541055 -0.06637384 0.09699533 -0.08837382
000030 99 d2 bb bd 4a e2 a5 3d 08 82 e1 3b 6b 96 10 bd
       -0.09171028 0.08099802 0.006881956 -0.0352997
000040 25 56 87 3c 49 70 00 bd 91 fb 10 be 3a 37 8d 3d
       0.01652057 -0.031357083 -0.14158465 0.06895299
000050 54 dc 7e 3c 78 f7 c7 be 0e 1a 8f bd 70 f9 c2 3b
       0.01555546 -0.3905599 -0.069873914 0.0059501454
000060 a0 35 f6 3c 7c da d9 bd b8 f3 37 bc 74 63 d0 3d
       0.030054867 -0.10637376 -0.011227541 0.10175219
000070 34 b5 ce bd 8d 90 a6 bd 94 4b 0d be b4 df 59 3d
       -0.100931555 -0.081330396 -0.13798362 0.053191856
000080 58 9a 29 bc 6c 7d ce ba e1 7d 2e 3d 4e cf aa bd
       -0.01035174 -0.0015753931 0.042600516 -0.083403215
000090 58 f4 72 bd 51 87 8b b9 eb 50 b9 bb 1c 9b 0d 3e
       -0.059315056 -0.00026612965 -0.005655398 0.13828701
0000a0 1a dc 7c bd 77 d1 ce 3d 71 54 2d 3d 66 6d c6 bd
       -0.061733343 0.10098546 0.042316858 -0.09688835
0000b0 fe ad 37 3e 72 a2 ac be 44 51 73 bc e6 c5 80 3d
       0.17937467 -0.33717686 -0.014850918 0.06287746
0000c0 2a 0a 96 bd 88 15 18 be 8a bb d0 bd 77 ff 15 3d
       -0.073261574 -0.14851964 -0.1019202 0.036620583
0000d0 2a cc 9b bc 1a d7 6e 3e 03 34 e9 bc c7 c9 32 3d
       -0.019018251 0.23324242 -0.028467184 0.04364946
0000e0 e3 be b7 3d b3 77 98 bd 62 05 c7 3d cb c2 14 3e
       0.089719556 -0.07444706 0.097178236 0.14527433
0000f0 21 a4 a1 3c e6 0a 20 3d 17 15 00 3f cd 97 b5 3d
       0.019731583 0.039072894 0.5003218 0.08866844
000100 8c 7f cc bd ee 65 ed 3a 9f 16 1b bc a8 19 62 be
       -0.09985265 0.0018112042 -0.0094658425 -0.220801
000110 06 08 d9 3e 20 2f b4 bc f4 e4 cc 3d 98 09 62 bd
       0.42388934 -0.021995127 0.10004607 -0.05518493
000120 40 e5 a1 3c 70 50 52 3d 07 b8 a6 3d 68 da 25 bd
       0.019762635 0.051346242 0.08140569 -0.04049149
000130 11 5d c8 bd d5 c3 65 3d c2 8b 2a 3d 51 18 8d bd
       -0.09783376 0.056094963 0.04163719 -0.068894036
000140 d5 6d 2e bd 4d 87 c6 3c 25 74 b0 3c 84 7b 5e 3d
       -0.042585213 0.024234438 0.021539757 0.054317012
000150 4b fb 9a bd d8 10 ef be e8 75 15 bd 1c 1b 58 bd
       -0.075674616 -0.46692538 -0.036489397 -0.05276023
000160 29 e6 48 bc 53 ef e1 3d 29 5a ae 3a 23 c3 2d 3e
       -0.012261906 0.110319756 0.0013302016 0.1696897
000170 40 f2 ac 3d 16 7d a7 bd 7d c2 ce bd af 0d b9 ba
       0.08444643 -0.08178155 -0.100956894 -0.0014118458
000180 62 9c af bd 7d 6c 7d 3d 04 57 f4 bd 4a 20 9f bd
       -0.085747495 0.06187104 -0.119306594 -0.077698305
000190 48 2e 8d 3d ba f6 8d 3d 38 89 2c 3b 12 5d 50 3e
       0.06893593 0.06931825 0.0026326906 0.20348004
0001a0 f1 3f 82 bd 90 3b 94 3d 30 01 d8 3d d1 b5 62 bd
       -0.06359852 0.07237923 0.105471015 -0.055349175
0001b0 ed d3 ad 3d 3d 93 b9 be 1b 39 7b 3d e4 85 44 bc
       0.08487687 -0.36245146 0.061333757 -0.011994813
0001c0 6a d9 b3 3d 24 30 9f 3d 83 f7 8e 3d b9 9b 64 3d
       0.08781703 0.07772854 0.06980803 0.05581257
0001d0 e9 b1 45 bb 1a 97 84 3e 94 66 24 bd bc f9 bf 3c
       -0.0030165857 0.2589653 -0.04013689 0.023434512
0001e0 7c 04 9b 3c 19 cb d1 bd f9 e2 6a bd 8c be 76 3d
       0.018923037 -0.10243816 -0.057345364 0.060240313
0001f0 0a 8d 8c bd 4e b0 ce bd 9e dc 0f 3f 41 40 c6 bd
       -0.068628386 -0.10092221 0.5619601 -0.09680224
000200 df 1f 80 bc 23 77 3f bd af e7 a2 3d ac 3a 17 3d
       -0.015640197 -0.046744477 0.079543464 0.03692119
000210 ef 9e c4 38 44 0a 15 be 55 ee c2 bd 1e 85 38 bc
       9.375612e-05 -0.14554697 -0.095181145 -0.011262206
000220 75 b8 03 be 42 ce 71 bd dd 3a 84 3d e5 e4 80 3c
       -0.12863334 -0.059034593 0.0645654 0.015734145
000230 64 77 7b bd d1 45 d0 3d e8 1c c1 ba c4 8d f1 3d
       -0.061393157 0.101695664 -0.0014733346 0.11794618
000240 93 ba 7d bb be 6d 3d be 07 f7 a3 bd 40 0f 9c 3c
       -0.0038715943 -0.18498895 -0.08006101 0.01905024
000250 14 fc 2f 3d 83 18 6e 3e cc fb 8b 3d 80 18 01 3c
       0.04296501 0.23251538 0.06835136 0.007879376
000260 7d 93 4b bd d5 d7 96 bd 14 89 9a 3d 8c ab da bd
       -0.049701203 -0.073653854 0.07545677 -0.10677251
000270 7b 68 d8 bd e7 5d 01 be f1 e3 8f 3c 0b 98 ba bc
       -0.10566803 -0.12633477 0.017564746 -0.022777578
000280 12 ca 35 bd 68 cc 14 bd 85 7d 66 bb cf 87 8f bc
       -0.044382162 -0.03632775 -0.003517003 -0.017520813
000290 79 32 ca 3d f6 a7 90 bd ff 54 13 bd 29 63 ab bd
       0.09872908 -0.07063286 -0.03596973 -0.08368523
0002a0 fb 88 19 3e 16 84 b1 bd 7a 55 3b 3d 28 ca 7c 3b
       0.1499366 -0.086677715 0.045735814 0.0038572643
0002b0 1e 41 01 be b3 e3 ad 3c f6 ec b6 bd a3 73 5d 3e
       -0.12622496 0.02122674 -0.089319155 0.21626143
0002c0 18 19 df 3d a1 bf f6 bd 1f a6 50 3c e1 fc 4d 3d
       0.10893458 -0.12048269 0.012734919 0.050289992
0002d0 75 9a 74 3c 03 bb f6 3b 0d f7 b3 bd de 75 bd bd
       0.014929404 0.0075296178 -0.087873556 -0.09250997
0002e0 63 4f 34 bd 0d 6e 83 bd 06 70 df 3d ee 10 84 3c
       -0.04402102 -0.06417475 0.10910039 0.016121354
0002f0 ac 5d b6 bd e9 bb 6d 3d a3 1a 06 3d a7 de 16 3d
       -0.08904585 0.058040533 0.032740247 0.03683343
000300 73 0f d8 bd 3e 44 16 3e de d9 7e bd 83 e9 85 be
       -0.10549822 0.1467447 -0.062219493 -0.26154718
000310 23 b2 cd 3e a2 49 e8 bd 00 71 f9 3d 74 a4 f6 3c
       0.4017497 -0.11342169 0.12179756 0.030107714
000320 77 e9 d7 3d 6d a8 f9 3c f8 ce 81 bd 62 67 f6 bd
       0.10542577 0.03047582 -0.06338304 -0.120314375
000330 05 45 71 bd d5 c4 64 bc 69 b8 83 3d 3d 2f 94 bd
       -0.058903713 -0.013962944 0.06431658 -0.072355725
000340 f3 07 06 3d cb 93 0e 3d 3e 28 01 be ee 21 93 bd
       0.032722425 0.034808915 -0.12613007 -0.07184206
000350 1f 7f c2 bc d2 de 98 3d a0 fc 90 3c a0 f0 c0 3c
       -0.023742257 0.074643746 0.017698586 0.023552239
000360 ae d5 1f be f3 20 61 3d 1e ae a9 3d 9a e6 cb 3d
       -0.15608856 0.054963063 0.08285163 0.09956093
000370 80 be df bd 6f 92 3e 3d cb 4f aa 3b 47 8c 6a 3d
       -0.10925007 0.04652637 0.0051975003 0.057262685
000380 72 8e 66 bc 7a 93 ec 3c 96 3d 41 3d ba 90 4b bc
       -0.014072048 0.028878916 0.047177874 -0.012424642
000390 93 d0 2e bc 3d 5d 9e 3d 50 6c ac 3d 33 17 11 3e
       -0.010669845 0.077326275 0.084190965 0.14169006
0003a0 95 66 de 3d e7 ba 8d 3d 7d c8 cd 3d 29 5b 2a be
       0.1085941 0.069204144 0.10048006 -0.16636337
0003b0 55 12 b6 bc dc f8 c3 bd 57 a4 e5 3c bd 83 36 3e
       -0.022225538 -0.095689505 0.028032465 0.17823692
0003c0 22 27 32 3d ab e6 88 bc 94 ac 8b 3d 64 fd e9 bc
       0.04349435 -0.016711554 0.06820026 -0.028563209
0003d0 f0 39 03 bd 58 ad 21 3e 3d bc e5 bd 74 22 83 3c
       -0.032037675 0.15788782 -0.11217544 0.01600764
0003e0 0b a0 44 3d 59 f5 fa bb 79 d5 82 bd f6 e5 57 bc
       0.04800419 -0.0076586423 -0.06388373 -0.013177386
0003f0 1a 11 40 bd 71 17 fe bd f0 ab ac 3e c7 2c 1b 3d
       -0.04689131 -0.12406815 0.33724928 0.0378845

conv2.nn.2.bias f4 [64]
000000 79 4d 45 be 29 a0 71 bd be b8 d2 ba 14 a6 2f be
       -0.19267835 -0.05899063 -0.0016076786 -0.17153198
000010 ee d1 25 3e 40 f2 e9 be 62 fd c5 bd d9 b5 a1 be
       0.16193363 -0.45692635 -0.096674696 -0.3158405
000020 22 c3 14 3e f9 2b 0b 3e 56 4d 04 bc cd ad 08 3e
       0.14527562 0.13590993 -0.008075079 0.1334755
000030 07 51 11 3d 6e 4e 00 bd ab 93 02 be 07 45 91 be
       0.035477664 -0.031324796 -0.12751643 -0.28372976
000040 66 23 8b 3d 8b 2f 5a be 3f 57 81 be c3 bc ae 3c
       0.06793861 -0.21307199 -0.25261876 0.021330243
000050 62 88 91 3e 12 f0 43 3c 24 a8 ac 3e 14 24 c2 3d
       0.28424364 0.011959093 0.3372203 0.094795376
000060 fb 23 8b bd 80 2f 0d 3d 18 3b b6 bd 4b a2 67 3d
       -0.06793972 0.034469128 -0.0889799 0.05655126
000070 f4 ad 50 3e 0f 2b 30 3d 60 9d 5e be df 2e 2d 3e
       0.20378858 0.043009814 -0.21739721 0.16912411
000080 8b 90 df bd 00 13 57 3d 86 23 b8 bd 60 a8 95 be
       -0.10916241 0.052508354 -0.089911506 -0.29230022
000090 b1 12 d3 3c d8 34 9a be fb 8b 95 3c 44 e8 50 3e
       0.025765749 -0.30118442 0.018255224 0.20401102
0000a0 55 00 c1 bd 1e 43 a5 3d 51 14 b0 3d a1 fb 3c be
       -0.094238915 0.08069442 0.08597625 -0.18455364
0000b0 79 86 b6 3c aa 75 60 be 05 48 da bd 91 f6 0d 3b
       0.022280918 -0.21919885 -0.10658268 0.0021661858
0000c0 6c c1 11 be 50 b7 b2 3d 31 4e ee bd 05 c0 ea bd
       -0.14233941 0.0872637 -0.116360076 -0.11462406
0000d0 9f 19 7c be ca 71 d7 3d f2 81 fe 3e ef 07 8a bd
       -0.24619149 0.105197504 0.49708515 -0.067397945
0000e0 0c b8 99 3e 22 b9 07 be 99 21 73 be 5c e3 9f be
       0.3002323 -0.13254216 -0.23743285 -0.3122815
0000f0 1c 62 85 be 09 9a 02 bd 9e 30 c2 bd ab 37 b5 bc
       -0.26051414 -0.03188518 -0.09481929 -0.022121271
