checkpoints/D/model_D_epoch_30.pth (torch, 698407 bytes, 7 tensors)

embedding.weight f4 [500, 300]
0	0x3f002b32	0.5006591
1	0xbe1eb9e3	-0.15500598
2	0xbf08ea32	-0.53482354
3	0xbf1d70be	-0.61500156
4	0x3fdba973	1.7161087
5	0xbfb33892	-1.4001639
6	0xbe841d87	-0.25803778
7	0x3f9d9535	1.2311159
8	0xbf116449	-0.5679365
9	0x3fadc5d1	1.3575994
10	0x3f65a5b6	0.8970598
11	0xbebac4e6	-0.36478347
12	0x3fadf8fd	1.359161
13	0xbfc81c9c	-1.5633731
14	0xbfcd9236	-1.6060245
15	0xbd39c261	-0.04535139
16	0x4000798e	2.007419
17	0x3ee60049	0.44922093
18	0x3fd64512	1.6739829
19	0xc0040a24	-2.063119
20	0x3fae9d00	1.3641663
21	0xbe82da84	-0.2555734
22	0xbf5107d5	-0.81652576
23	0xbe9eceab	-0.3101705
24	0xbf677a26	-0.9042076
25	0xbee75ff6	-0.451904
26	0xbf9e1802	-1.2351077
27	0x3f7211e0	0.94558525
28	0x3fdd3675	1.7282244
29	0x3f349bd6	0.70550287
30	0x3f61a303	0.8813936
31	0xbf4c244a	-0.7974287
32	0x3fa8d520	1.319004
33	0xc02dbc99	-2.714636
34	0x3e2c1a5d	0.16806932
35	0x40117b9c	2.2731695
36	0x3fc932ca	1.5718625
37	0x3fc67740	1.5505142
38	0xbf9ad944	-1.2097554
39	0x3ded7dd9	0.11596269
40	0x3f5fb193	0.8738033
41	0x40112ea3	2.2684715
42	0xbf79ec75	-0.9762643
43	0xbfa4428f	-1.2832812
44	0x3d5ad905	0.053429622
45	0x3e15192e	0.14560387
46	0x3e0abb74	0.1354807
47	0x3f5db5e8	0.8660569
48	0x3f5e9a2f	0.86954015
49	0xbf3e68c0	-0.74378586
50	0x4064d0b8	3.5752392
51	0xbeb878f8	-0.36029792
52	0xbec0743f	-0.3758869
53	0x3fd4c09f	1.6621283
54	0xbf316a24	-0.6930258
55	0x3f3a9a05	0.72891265
56	0x3e99fd90	0.30076265
57	0xbf931f46	-1.1493919
58	0x3e1d3d3d	0.15355392
59	0xbeb74650	-0.35795832
60	0xbf617c85	-0.88080627
61	0x3fa4b670	1.2868176
62	0x3ffe76c4	1.9879994
63	0x3fc93897	1.5720395
64	0x3f086b7f	0.53289026
65	0x40275c16	2.6149955
66	0xbf72f7c4	-0.9490931
67	0x3ec3aa14	0.38215697
68	0x3f4f333f	0.8093757
69	0xbe91334d	-0.28359452
70	0xbf8a1768	-1.0788393
71	0xbd15a33c	-0.036532626
72	0x3fbc4d47	1.4711083
73	0x3f2c58c3	0.6732294
74	0x3fc594cf	1.5436038
75	0xbe3ed207	-0.18634807
76	0x3f2104b0	0.6289778
77	0x3fcc6b6c	1.5970283
78	0x3efa4b0b	0.48885378
79	0x3f007a3c	0.50186515
80	0x3fb061d3	1.3779854
81	0x3efb32e0	0.49062252
82	0x3fbb3a02	1.4627078
83	0x3fdef3d0	1.7418156
84	0x3f7cdb53	0.9877216
85	0x3dd8f281	0.10593129
86	0x3fce7fc0	1.6132736
87	0x3f98c8aa	1.1936238
88	0xbf8ebf8c	-1.1152205
89	0xbdd65c8b	-0.1046687
90	0x3f4d6c96	0.80243814
91	0x3f9c4681	1.2209016
92	0xbff4085d	-1.9065052
93	0xbed472b5	-0.41493765
94	0x3e049088	0.1294576
95	0xc04c9066	-3.1963134
96	0x3e2ee7ec	0.17080659
97	0xbc8971f7	-0.016777975
98	0x3f89a1c9	1.0752498
99	0x3fff0d33	1.9925903
100	0x3f8ffbc5	1.1248709
101	0xbf2ab4eb	-0.6668231
102	0x3f521861	0.8206845
103	0xbf1c6afb	-0.6110074
104	0xc013de29	-2.3104346
105	0xc0177b6d	-2.3669083
106	0x3f92a6cc	1.1457152
107	0x3e68a8bf	0.22720622
108	0x3f2c9161	0.6740933
109	0xbec979ce	-0.39350742
110	0xbf42ab1e	-0.76042354
111	0x3f02c491	0.51081187
112	0x3ea1ff70	0.31640196
113	0x3ed4abb9	0.41537264
114	0x3e67e661	0.22646476
115	0xbbabfe58	-0.005248826
116	0x3f372090	0.7153406
117	0x3e1ae461	0.15126182
118	0x3e88c687	0.26713964
119	0x3db5dd3a	0.08880086
120	0x3f4276ae	0.7596234
121	0xbfd397bf	-1.6530684
122	0x3d32cb40	0.043650866
123	0xbf57b783	-0.8426439
124	0xbe6474af	-0.22310136
125	0x3fcfbc52	1.6229346
126	0x3fa8cf39	1.3188239
127	0x3e650d15	0.22368272
128	0xbf04bbce	-0.5184907
129	0xbf1bbb28	-0.6083245
130	0x3f7ef53a	0.99592936
131	0x3f4c779f	0.7987003
132	0x3e0cab0b	0.13737123
133	0x3e650f99	0.22369231
134	0x3f1ff104	0.62477136
135	0x3f31da70	0.69473934
136	0x3ffa6473	1.9561905
137	0xbffceafa	-1.9759209
138	0xbe03c5ee	-0.12868473
139	0x3fa7bdc0	1.3104782
140	0xbe28c16b	-0.16480033
141	0xbf32bc6e	-0.6981877
142	0x3f8eaa7f	1.1145781
143	0xbff77523	-1.9332622
144	0x3ea2133f	0.3165531
145	0xbc932739	-0.017963039
146	0x3ec288cb	0.3799499
147	0xbec51cfe	-0.38498682
148	0xbeda41a4	-0.42628205
149	0x3f4f50f6	0.8098291
150	0xbf2f1d45	-0.68404037
151	0xbf7819e4	-0.96914506
152	0xbe14e875	-0.145418
153	0x3f01de7b	0.50730103
154	0x3f4306b4	0.76182103
155	0xbf1f3206	-0.62185705
156	0x3f0f6314	0.56010556
157	0x3f49632a	0.7866694
158	0x3dcd79ab	0.10032972
159	0xbf03c757	-0.51476043
160	0xbf02d42b	-0.5110499
161	0xbfc5823f	-1.5430373
162	0x3f98d859	1.1941024
163	0xbf051f93	-0.52001303
164	0xbf620754	-0.8829243
165	0x3fb010f9	1.375518
166	0x3bc415c7	0.0059840414
167	0x3e165782	0.14681819
168	0xbf46f508	-0.7771764
169	0x401d1f49	2.4550345
170	0xbf8ef809	-1.1169444
171	0xbf2bce8e	-0.6711205
172	0x3ec89ba8	0.39181256
173	0xbf344ba0	-0.70427895
174	0xbf50627f	-0.81400293
175	0xbe8824e1	-0.26590636
176	0x3f87d243	1.0611042
177	0x3fcfc84b	1.6233
178	0xbf804e38	-1.002387
179	0x3f0f1009	0.5588384
180	0x3fb421ea	1.407285
181	0x3e870f4c	0.26378858
182	0x3e38b64a	0.18038288
183	0xbf0bac16	-0.5455946
184	0xbfa510b4	-1.2895722
185	0xbf6d6afd	-0.92741376
186	0x3fa40210	1.281313
187	0xbf0b84d0	-0.5449953
188	0xbcc5ca40	-0.024144292
189	0xbd89931b	-0.06717511
190	0x3e94a900	0.29035187
191	0x3eed8045	0.46386924
192	0xbfbb6cbe	-1.464256
193	0x3f271a97	0.6527495
194	0xbfced8ec	-1.6159949
195	0xbf83ed6c	-1.030683
196	0x3e5b4d93	0.21416311
197	0x3f062ac3	0.52409
198	0x3f3b752e	0.73225677
199	0x3f4de2fc	0.80424476
200	0xbe1a1916	-0.15048632
201	0xbfde77ce	-1.7380311
202	0x3f8d8e55	1.1059061
203	0xbf385512	-0.72004807
204	0xbe843412	-0.25820976
205	0xbfa00cc3	-1.2503895
206	0x3dc4d296	0.096104786
207	0x3fbaa2f1	1.4580976
208	0x3fbc0ed5	1.4692026
209	0x3f0b992f	0.54530615
210	0xbef2c544	-0.47416127
211	0xbfc54c29	-1.5413867
212	0x3ef1ba9d	0.47212687
213	0x3f466467	0.7749695
214	0x3ea224a3	0.31668577
215	0x3e0d8d4c	0.13823432
216	0xbf51c0c7	-0.8193478
217	0x3e75d0bc	0.24005407
218	0x3f236399	0.6382385
219	0xc006c4bd	-2.105758
220	0x3ef84a0d	0.48493996
221	0xbf879492	-1.0592215
222	0x3f22c483	0.63581103
223	0xbfa38d7b	-1.2777551
224	0x3e29fa47	0.1659938
225	0x3eb75a44	0.35811055
226	0x3fbd613c	1.4795299
227	0x3fb609b1	1.4221708
228	0xbf63c0f4	-0.889663
229	0xbef62779	-0.4807699
230	0x3d984679	0.074353166
231	0xbf07fad0	-0.53117085
232	0x3e88ef55	0.26745096
233	0x40045bb6	2.0680976
234	0x3f2c4b5a	0.6730248
235	0xbee960c2	-0.45581633
236	0xbf67c79f	-0.9053897
237	0x3f7ea176	0.9946512
238	0x3e0c3614	0.13692504
239	0x3f4f6f9e	0.8102969
240	0xbf1f9af2	-0.623458
241	0x3f665889	0.89978844
242	0x3f40790a	0.7518469
243	0xbe98718d	-0.29774132
244	0x3fa0d9dc	1.2566485
245	0x3fdf0797	1.7424191
246	0xbf42b030	-0.7605009
247	0xbf9109ec	-1.1331153
248	0x3f82d6bb	1.022178
249	0xbdb862e4	-0.09003237
250	0x3fb27bcc	1.394403
251	0x3eea3f6f	0.4575152
252	0xbde7250c	-0.11286363
253	0xbee1d7ba	-0.441099
254	0xbec9f632	-0.39445645
255	0xbf3212e3	-0.6956007

conv1.bias f4 [64]
0	0xbcbddb2e	-0.023175802
1	0xba95a7de	-0.0011417826
2	0x3d60602f	0.054779228
3	0xbc6b6277	-0.014366738
4	0xbd3f1fcc	-0.046661183
5	0xbdf3be35	-0.119015135
6	0x3b86ea15	0.00411726
7	0xbe021de4	-0.12706715
8	0xbade2e4c	-0.0016951053
9	0xbdcb72e0	-0.0993402
10	0xbd0cb8fb	-0.0343561
11	0xbd97face	-0.07420884
12	0x3d9df8d3	0.07713475
13	0x3d7af921	0.061272744
14	0x3d4234ce	0.04741364
15	0xbea4725b	-0.32118496
16	0xbd237ccb	-0.039913934
17	0xbd0ec1cd	-0.03485279
18	0xbd66e9f0	-0.056375444
19	0xbe42772d	-0.18990774
20	0xbe39e0da	-0.1815218
21	0x3c513066	0.012767887
22	0x3d21e200	0.03952217
23	0xbd87851b	-0.06617185
24	0xbc9c3e2a	-0.01907261
25	0xbd5da9b3	-0.054116916
26	0xbe551858	-0.20810068
27	0xbc804f10	-0.0156627
28	0xbe007a14	-0.12546569
29	0xbdb4dcc8	-0.08831173
30	0xbc46513f	-0.0121043315
31	0xbdf48945	-0.119402446
32	0xbdb970ee	-0.09054743
33	0x3d9a943a	0.07547803
34	0xbcc09142	-0.023506764
35	0xbe0980ee	-0.13428089
36	0xbe13d332	-0.14436033
37	0xbd8d95b6	-0.06913321
38	0x3da7be1c	0.08190557
39	0xbbd96dca	-0.0066354023
40	0xbda77cfc	-0.08178136
41	0xbd47f8f2	-0.048821397
42	0x3df19a30	0.11796987
43	0x3c00ab31	0.007853315
44	0x3d725940	0.059167147
45	0xbddc5733	-0.107588194
46	0x3ce1c5cc	0.027560137
47	0xbdfdf296	-0.12399785
48	0xbdc6159f	-0.09672093
49	0xbd6d8fcd	-0.057998467
50	0xbdf62cbd	-0.12020252
51	0x3c773a34	0.01508956
52	0xbe032009	-0.12805189
53	0xbd8ef91e	-0.06981109
54	0xbd22575e	-0.0396341
55	0x3d54e68a	0.05197767
56	0x3d227919	0.03966627
57	0xbe483734	-0.19552308
58	0xbe458860	-0.19290304
59	0x3d0cd893	0.03438623
60	0xbc26bfa1	-0.010177524
61	0xbe54204c	-0.20715445
62	0xbd7e8aca	-0.06214408
63	0xbd02ab0b	-0.0319014

conv1.lin.weight f4 [64, 300]
0	0xbdf02129	-0.11725075
1	0x3dd5ee48	0.10445839
2	0x3ba4902b	0.005022069
3	0x3e7d36e8	0.24727976
4	0x3e2c7ebc	0.1684522
5	0x3d7606cf	0.060065087
6	0xbef01c9d	-0.4689683
7	0xbe65011d	-0.22363706
8	0x3d446000	0.047943115
9	0xbec075e5	-0.37589946
10	0x3da53d50	0.08068335
11	0x3e18d6fa	0.14925757
12	0xbe557f76	-0.20849404
13	0x3dba80ee	0.09106623
14	0x3db120cf	0.08648836
15	0xbeb23714	-0.34807646
16	0x3cac5649	0.021037238
17	0xbd8eaf93	-0.06967082
18	0x3e087b27	0.13328229
19	0xbd5638c7	-0.05230024
20	0xbe4f2f74	-0.20232946
21	0x3c86a1c9	0.016434567
22	0xbe3bbac5	-0.18332966
23	0x3d888fab	0.066680275
24	0x3e9d7cd5	0.30759302
25	0x3d9a1e9c	0.075253695
26	0xbd0e1cee	-0.03469556
27	0xbd560a24	-0.052255765
28	0x3d1f7414	0.03892906
29	0xbe2792b1	-0.16364552
30	0x3e8ccd6d	0.27500477
31	0x3e422a80	0.18961525
32	0xbce15ee8	-0.027511075
33	0xbd3a6c53	-0.045513462
34	0x3ea2d324	0.31801713
35	0x3e2a7e3e	0.1664972
36	0x3cdfdda4	0.027327366
37	0x3de84a5a	0.113423064
38	0x3db97358	0.09055203
39	0xbd4b8c43	-0.04969431
40	0xbe33d01a	-0.17559853
41	0x3e463267	0.19355164
42	0xbeb6e9e1	-0.3572531
43	0xbcd1a257	-0.025590105
44	0x3e5fe000	0.21862793
45	0x3d7fc9e7	0.06244841
46	0x3d1797cc	0.03701
47	0xbd31e22d	-0.04342859
48	0x3bd26c22	0.006421582
49	0xbe5cdc6e	-0.21568462
50	0x3d465552	0.04842121
51	0xbd5c3c7e	-0.053768627
52	0x3d7b8d7a	0.06141422
53	0xbe9a6567	-0.3015549
54	0x3eab7ae4	0.33492196
55	0xbd26fb9f	-0.04076731
56	0xbd8bae51	-0.068203576
57	0xbe10b7c7	-0.14132605
58	0x3dca65bc	0.098826855
59	0x3d30a402	0.04312516
60	0xbe0536bc	-0.13009161
61	0xbeb26cd3	-0.3484865
62	0xbe8824ab	-0.26590475
63	0xbea27be2	-0.3173514
64	0x3d58b02b	0.052902382
65	0xbcde528e	-0.027138975
66	0x3c61b2e3	0.01377556
67	0xbea621e1	-0.32447723
68	0xbd862d1e	-0.06551574
69	0xbee4f560	-0.44718456
70	0x3be3ebc4	0.0069555957
71	0xbe7cf7ab	-0.24703853
72	0x3d2de3c5	0.042453546
73	0x3d6a0aa9	0.057139073
74	0x3e3f2b93	0.18668966
75	0xbdace727	-0.08442526
76	0xbb95ee6c	-0.0045755412
77	0xbee573ba	-0.44814855
78	0x3e5e2530	0.21693873
79	0x3e09591d	0.134129
80	0x3e94791d	0.28998652
81	0xbea769f4	-0.32698023
82	0x3eaa2bc4	0.33236516
83	0xbe9a52f9	-0.30141428
84	0x3e7315ee	0.23738834
85	0x3e01445d	0.12623735
86	0xbca5c774	-0.020236708
87	0x3d27edca	0.040998258
88	0xbea11d37	-0.31467602
89	0x3da136b5	0.07871763
90	0xbe6c5438	-0.23079002
91	0xbed8d521	-0.42350104
92	0x3e391c31	0.1807716
93	0xbe954e2d	-0.29161206
94	0xbea10248	-0.31447053
95	0xbead4c2b	-0.33847174
96	0x3ec38a5d	0.381915
97	0x3d50add4	0.050947025
98	0x3e702b18	0.23453939
99	0x3e965869	0.29364327
100	0xbe818f32	-0.25304562
101	0x3eaed936	0.34150094
102	0xbd98de0a	-0.074642256
103	0xbc860e7c	-0.016364329
104	0x3e1f367d	0.1554813
105	0xbdb5e907	-0.08882337
106	0xbdb1da7e	-0.08684252
107	0x3e1ded9f	0.15422677
108	0xbe8817a4	-0.26580536
109	0x3e8ce4db	0.27518353
110	0x3dc4a291	0.096013196
111	0x3dc63a7d	0.096791245
112	0xbe0daab3	-0.13834648
113	0xbe205729	-0.15658249
114	0x3e4fb6ae	0.2028453
115	0xbdff0a5c	-0.12453148
116	0x3d7599e1	0.059961203
117	0xbeb1699d	-0.3465089
118	0xbdd3418d	-0.10315237
119	0xbd3548b0	-0.044258773
120	0x3e384331	0.17994381
121	0xbd0b271d	-0.03397285
122	0xbdda2df0	-0.10653293
123	0x3e0b6d87	0.13616
124	0xbe20609c	-0.15661854
125	0x3d1d7408	0.038440734
126	0x3ebf80c9	0.37402943
127	0xbce0914a	-0.02741303
128	0x3e01cac0	0.12674999
129	0x3e115bcb	0.14195172
130	0x3e332b05	0.1749688
131	0xbe965402	-0.29360968
132	0x3e89dab7	0.2692468
133	0x3c7f2299	0.015572214
134	0x3e8416b5	0.25798574
135	0xbd84acc6	-0.064782664
136	0xbe49c82b	-0.19705264
137	0xbd5bd06a	-0.053665556
138	0x3e8f0273	0.27931556
139	0x3e752ae9	0.2394215
140	0xbdb4fdad	-0.08837447
141	0xba1705f4	-0.000576108
142	0x3e37d581	0.17952539
143	0x3ea2f672	0.31828648
144	0x3e6799e3	0.22617297
145	0xbea56943	-0.3230687
146	0x3e8c73f3	0.27432212
147	0x3e19573a	0.1497468
148	0x3e94ef81	0.29088977
149	0x3e892a81	0.2679024
150	0x3dd4393b	0.10362478
151	0xbe24b413	-0.16084318
152	0xbed492f3	-0.41518363
153	0x3e4a86d5	0.19777997
154	0xbd1f6ebc	-0.038923964
155	0x3e92e80f	0.28692672
156	0xbe46b6c5	-0.19405659
157	0x3d3257a4	0.043540612
158	0x3e0b9375	0.13630469
159	0xbdc6bb47	-0.09703689
160	0x3cdd5763	0.027019208
161	0xbd0a1970	-0.033715665
162	0xbe57d767	-0.21078263
163	0x3d296fe1	0.04136646
164	0xbe4dc967	-0.2009636
165	0xbe4fc359	-0.20289363
166	0x3e3927cb	0.18081586
167	0x3f01b237	0.5066256
168	0xbe489033	-0.19586258
169	0xbd3be177	-0.045869317
170	0xbdf170a4	-0.117890626
171	0xbe635eb2	-0.22204092
172	0xbdb136d8	-0.08653039
173	0x3dd98e12	0.10622801
174	0xbc6722c9	-0.0141074145
175	0x3bf82dbf	0.0075738127
176	0x3e0675ce	0.13130876
177	0x3e254d16	0.16142687
178	0x3e7a6c63	0.24455409
179	0x3dce6601	0.100780495
180	0x3e19975b	0.14999144
181	0x3d55439f	0.05206644
182	0x3deb6500	0.114938736
183	0x3d3c8d1c	0.04603301
184	0x3defc7c1	0.11708022
185	0xbe80c403	-0.25149545
186	0xbde8be13	-0.11364379
187	0xbea9df75	-0.33178297
188	0x3d98d49e	0.074624285
189	0x3d5f59d1	0.054529015
190	0x3d8aa803	0.06770327
191	0x3e50dea0	0.20397425
192	0xbdf5249f	-0.119698755
193	0x3da8e6e6	0.082471654
194	0x3e402743	0.18764977
195	0x3e23dfff	0.16003416
196	0x3cb0e301	0.021592619
197	0x3dffa12b	0.12481912
198	0x3d91227e	0.07086657
199	0x3e7b709f	0.2455468
200	0x3debda8d	0.11516295
201	0x3e1cef8d	0.15325756
202	0x3eed7567	0.46378633
203	0x3e362f34	0.17791444
204	0xbdf0a384	-0.11749938
205	0x3e35f3f9	0.1776885
206	0x3e1c74e7	0.1527897
207	0xbd5e0a3f	-0.05420899
208	0x3e2d33e9	0.16914333
209	0x3e7a7cd8	0.24461687
210	0x3ea10868	0.31451726
211	0x3e1e4cab	0.15458934
212	0xbb8f75d6	-0.004378061
213	0xbe4e78d3	-0.20163278
214	0x3ccd7c6c	0.025083743
215	0xbe15aa2d	-0.14615698
216	0x3e5a6e13	0.21331052
217	0xbea39312	-0.31948143
218	0x3ee35a7e	0.44404978
219	0xbb35ed66	-0.0027759909
220	0x3e970167	0.29493257
221	0x3dedc4e0	0.116098166
222	0x3e6c27ee	0.23062107
223	0x3dcc3a2f	0.09972035
224	0x3d39277c	0.04520367
225	0x3e6010c7	0.218814
226	0x3d025525	0.03181948
227	0x3d96f2a9	0.073705025
228	0x3e198921	0.14993717
229	0x3e996da4	0.29966462
230	0x3c948c6d	0.018133366
231	0xbed44196	-0.41456288
232	0xbd53e3fd	-0.0517311
233	0xbe7419b7	-0.23837934
234	0xbe2000ec	-0.15625352
235	0x3e02930e	0.1275141
236	0xbda8daaf	-0.082448356
237	0x3d6dc4f2	0.05804915
238	0x3e95e20e	0.2927403
239	0x3e56b77c	0.20968431
240	0x3d426557	0.047459926
241	0x3e30a690	0.17251039
242	0x3e5749c6	0.21024236
243	0xbd850d26	-0.064966485
244	0xbe1be85d	-0.15225358
245	0x3e3305e0	0.1748271
246	0x3ec45a09	0.3834994
247	0xbdcc7a2d	-0.09984241
248	0xbdb355db	-0.0875661
249	0xbdc6f333	-0.09714355
250	0xbdbdcb9e	-0.092673525
251	0xbeb5a4c4	-0.3547727
252	0x3de5e817	0.11225908
253	0x3e8a67de	0.2703237
254	0x3d5f51c6	0.054521345
255	0x3e3d66b5	0.18496211

conv2.bias f4 [64]
0	0xbd423386	-0.047412418
1	0x3d7cfcd5	0.061764557
2	0xbd3c9a6b	-0.046045702
3	0xbdbea6bf	-0.09309148
4	0x3b7a31aa	0.0038176575
5	0xbca6fc2f	-0.020383922
6	0xbc50e5cf	-0.012750103
7	0xbce9331f	-0.02846676
8	0xbd2f5ead	-0.0428149
9	0xbdf5d423	-0.120033525
10	0x3ddd972c	0.10819849
11	0xbd643341	-0.055712942
12	0x3ab0f1d2	0.0013499802
13	0xbcc0dec2	-0.02354372
14	0x3da66749	0.08125169
15	0xbd8f4c2a	-0.06996949
16	0xbd6cfe10	-0.05785948
17	0xbcc8a601	-0.02449322
18	0xbcb4e3c7	-0.022081269
19	0x3ce48cbe	0.027899142
20	0x3d69a92f	0.05704611
21	0x3b858699	0.004074883
22	0xbd77a8bf	-0.060463663
23	0xbd501829	-0.05080429
24	0xbd929f3c	-0.07159278
25	0xbcd34839	-0.025791274
26	0xbd3b44e7	-0.045720007
27	0xbd356dc1	-0.044294123
28	0xbbe404b1	-0.006958567
29	0xbd4aa666	-0.049475096
30	0x3d0be5af	0.03415459
31	0x3dcd69c0	0.10029936
32	0x3d8ce2f5	0.06879226
33	0x3cc7c2d7	0.024384899
34	0x3d2ae83c	0.041725382
35	0x3d7b2f8b	0.061324637
36	0x3d7a0b3a	0.061045863
37	0xbd6bff86	-0.057616733
38	0x3ce2eebe	0.027701732
39	0x3d19c2cc	0.03753929
40	0x3d7eef3b	0.062239867
41	0x3ce7f654	0.0283157
42	0xbdb06f6b	-0.08615001
43	0xbd848d41	-0.064722545
44	0x3ddffb44	0.10936597
45	0xbd2dc254	-0.042421654
46	0xbd7fa58b	-0.062413733
47	0xbde3c8a2	-0.11122252
48	0x3cf8a0d9	0.030350136
49	0x3d7d820d	0.061891604
50	0x3d69d2c5	0.05708577
51	0xbd25ae41	-0.040449385
52	0x3d86c3a2	0.06580283
53	0x3d223a6b	0.039606493
54	0xbc03f859	-0.008054816
55	0xb9e073ec	-0.00042810978
56	0xbd93e6a6	-0.07221727
57	0x3d91b699	0.07114906
58	0xbda9f536	-0.082987234
59	0x3b57e12a	0.0032940605
60	0x3ddd10fd	0.10794256
61	0xbd8e690c	-0.0695363
62	0x3db2adee	0.08724581
63	0x3ca1b500	0.019739628

conv2.lin.weight f4 [64, 64]
0	0x3e1dc1ea	0.15406004
1	0x3d8de019	0.06927509
2	0xbd580981	-0.05274344
3	0x3e8f5850	0.27997065
4	0xbf13c78d	-0.57726365
5	0xbe5bf252	-0.21479157
6	0xbebb1c45	-0.36545005
7	0xbe2da50d	-0.16957493
8	0x3e8132ad	0.25233975
9	0x3eca4a57	0.39509842
10	0xbf0d8c79	-0.5529247
11	0xbec5d6d4	-0.38640463
12	0x3e5001fd	0.20313258
13	0x3e257551	0.16158034
14	0x3ba383a7	0.0049900594
15	0xbe3022c0	-0.17200756
16	0x3ef3d4af	0.47623202
17	0xbeaba355	-0.3352305
18	0x3e85f5ae	0.26164
19	0xbe64b755	-0.2233556
20	0xbe883d6c	-0.2660936
21	0x3e40e7ba	0.18838397
22	0x3d0c9278	0.03431937
23	0x3dd6df24	0.104917794
24	0x3e52831f	0.20557831
25	0xbf132d1f	-0.57490724
26	0xbeb3da30	-0.351274
27	0xbd8fffc4	-0.07031205
28	0xbd8ac2fe	-0.06775473
29	0xbe59d9c0	-0.21274471
30	0xbe992637	-0.29911968
31	0xbdd5d1d6	-0.10440414
32	0xbcaeb8b8	-0.021328315
33	0x3ebefb95	0.37301317
34	0xbe657ad1	-0.22410132
35	0x3cc0dff1	0.023544284
36	0xbec2b2aa	-0.38026935
37	0xbe0eda55	-0.13950475
38	0x3e894d13	0.26816615
39	0x3d362ef3	0.044478368
40	0xbea04c1e	-0.31308073
41	0xbeaf91dd	-0.34290972
42	0x3e6ac0c2	0.22925094
43	0x3db7bd6a	0.08971675
44	0x3d080da9	0.033216152
45	0xbdee9479	-0.11649413
46	0x3dca25b9	0.09870476
47	0x3d0786fc	0.033087716
48	0xbd20ff87	-0.03930619
49	0xbde9eb68	-0.11421853
50	0x3e5e23f5	0.21693404
51	0x3efa8cb1	0.48935464
52	0xbdfd0687	-0.123547606
53	0x3e966f0c	0.29381597
54	0xbe916996	-0.28400868
55	0x3ecfd47e	0.40591806
56	0x3ebec2b2	0.37257916
57	0xbd3e2237	-0.04641935
58	0xbe993043	-0.29919633
59	0x3eb55fef	0.35424754
60	0xbeb89567	-0.36051485
61	0xbe225fa5	-0.15856798
62	0xbe4c99c7	-0.19980536
63	0xbdbe4848	-0.0929113
64	0x3d8b7538	0.06809467
65	0x3e2d5497	0.169268
66	0x3defd860	0.11711192
67	0xbebb46ae	-0.36577362
68	0x3a6bc5bb	0.0008994003
69	0xbe41afe8	-0.18914759
70	0x3eb600e5	0.35547557
71	0xbe1ed07a	-0.15509215
72	0x3d335901	0.043786053
73	0xbeabd340	-0.33559608
74	0x3e2ffe81	0.1718693
75	0x3e543a46	0.20725355
76	0x3e86d467	0.26333925
77	0x3b3e7c33	0.0029065728
78	0x3e9d7a78	0.307575
79	0x3e68cf35	0.22735293
80	0xbe76745c	-0.24067825
81	0xbc577d92	-0.013152497
82	0x3e62566d	0.22103281
83	0xbe86d021	-0.26330665
84	0xbdfa4318	-0.12219828
85	0x3ec721ec	0.38893068
86	0x3e83a7fb	0.25714096
87	0xbe33b17e	-0.17548177
88	0xbe39cce2	-0.18144563
89	0x3e287f1a	0.16454735
90	0xbe65fde5	-0.22460134
91	0xbe39b00f	-0.18133567
92	0xbea5771c	-0.32317436
93	0xbe1f8c3f	-0.15580843
94	0x3ea74623	0.32670698
95	0xbe089ecb	-0.13341825
96	0xbec48384	-0.38381588
97	0x3c6f05b5	0.014588763
98	0x3cf69b4a	0.030103344
99	0xbe2fdaeb	-0.17173354
100	0xbe6c2f31	-0.23064877
101	0xbd3b2c2f	-0.045696434
102	0x3e6157ab	0.22006099
103	0x3e94b224	0.2904216
104	0xbe1719f2	-0.14755991
105	0x3eaff4ad	0.3436636
106	0x3dfe7df6	0.12426369
107	0x3ef7f244	0.48427022
108	0x3e93f659	0.28898886
109	0xbd3405d4	-0.04395087
110	0x3dc8293c	0.0977349
111	0x3e8ffd9e	0.28123182
112	0xbcf5ae98	-0.02999048
113	0xbecc4695	-0.398976
114	0x3dd6f4a7	0.104958825
115	0xbd7984a7	-0.060917523
116	0xbf1fa2f8	-0.62358046
117	0xbe030175	-0.12793525
118	0xbc22c3f2	-0.009934412
119	0x3e3afcf5	0.18260558
120	0xbd273035	-0.04081746
121	0xbea63168	-0.3245957
122	0xbed8a056	-0.42309827
123	0xbbf4dc3d	-0.0074725435
124	0x3e4cfdaf	0.20018648
125	0xbdd0cbe4	-0.10195139
126	0xbe196e20	-0.14983416
127	0x3ee5e1a6	0.4489872
128	0xbeb46ea1	-0.35240653
129	0xbeaf3b3c	-0.3422488
130	0xbe5e41ce	-0.2170479
131	0x3cf2fd92	0.029661927
132	0x3e87aba2	0.26498133
133	0x3e856573	0.26053962
134	0x3e96bc21	0.29440406
135	0x3ebf3b2e	0.37349838
136	0x3dbd33a5	0.09238366
137	0xbd92c76b	-0.07166942
138	0x3d99892b	0.07496866
139	0x3edb11c2	0.42786986
140	0xbe447781	-0.19186212
141	0x3b1af0b2	0.0023642
142	0xbebfa542	-0.3743077
143	0x3e52f0cc	0.20599669
144	0xbd2c409d	-0.042053808
145	0x3df9f8ed	0.12205682
146	0xbed30952	-0.41218048
147	0xbd61386e	-0.054985456
148	0xbb345aa8	-0.0027519856
149	0xbc396aba	-0.0113169495
150	0xbe1b5e98	-0.15172803
151	0x3ed74307	0.42043325
152	0x3d855b83	0.06511595
153	0x3ec582ad	0.3857626
154	0x3e0f5512	0.13997295
155	0xbddbe9f1	-0.1073798
156	0x3db82c2c	0.089928
157	0x3e2f2224	0.17102867
158	0x3e9d960e	0.30778545
159	0x3e5d3c87	0.2160512
160	0x3eb66221	0.3562174
161	0x3d2affb6	0.04174777
162	0xbea9baeb	-0.3315042
163	0x3e102746	0.14077482
164	0x3ecd35fe	0.40080255
165	0x3c93c734	0.018039323
166	0x3c42e9c8	0.011896558
167	0xbef651e6	-0.4810936
168	0x3dcda245	0.10040716
169	0xbe6eaa6a	-0.23307195
170	0xbe8a603b	-0.27026543
171	0xbe8790e3	-0.26477727
172	0xbee2294e	-0.44172138
173	0x3e0a91cb	0.13532178
174	0xbcfe2111	-0.031021627
175	0xbd7f1973	-0.06228013
176	0xbda500ce	-0.08056794
177	0x3eed2587	0.46317694
178	0xbe7bd1af	-0.24591707
179	0xbeac3f6f	-0.33642146
180	0x3ed338e7	0.4125435
181	0x3e07dc2d	0.13267584
182	0x3df6bec2	0.12048103
183	0xbe920e40	-0.28526497
184	0xbdef168c	-0.11674222
185	0x3ead4a74	0.33845866
186	0x3eb72da1	0.35777
187	0xbe9217bc	-0.28533733
188	0x3e102276	0.14075646
189	0x3e77640f	0.24159263
190	0x3ede7063	0.4344512
191	0xbca29f6d	-0.01985141
192	0xbe944087	-0.2895548
193	0xbe8813ff	-0.26577756
194	0xbedf58c5	-0.43622413
195	0x3ec3aff4	0.3822018
196	0xbdf7ca3f	-0.12099122
197	0x3e9d6cf1	0.30747178
198	0xbe73723c	-0.23774046
199	0x3e983f7e	0.2973594
200	0xbe3b71f7	-0.18305193
201	0xbcf96378	-0.030442938
202	0xbd9d66e3	-0.0768564
203	0x3b69536e	0.0035602706
204	0x3dcce92f	0.10005414
205	0xbde4963a	-0.11161466
206	0xbda7f058	-0.08200139
207	0x3e27838c	0.16358775
208	0x3dd5ebf9	0.10445399
209	0x3e4bb309	0.19892515
210	0x3eadc909	0.3394244
211	0x3e6f6890	0.23379731
212	0x3d036263	0.03207625
213	0xbe5f6107	-0.21814357
214	0xbe32b25d	-0.17450853
215	0x3f084708	0.53233385
216	0x3eba0117	0.36328956
217	0xbd7e4ffb	-0.062087994
218	0xbda8523d	-0.08218811
219	0xbd90f419	-0.07077808
220	0x3ef27086	0.47351474
221	0x3e4644bd	0.19362159
222	0xbe98f7c4	-0.2987653
223	0x3e893c2a	0.26803714
224	0x3eac0322	0.3359614
225	0xbec6ffb0	-0.3886695
226	0xbec09c8b	-0.37619433
227	0x3d41f421	0.04735196
228	0x3ec5ba61	0.38618758
229	0x3eef7777	0.46770832
230	0xbe7884cc	-0.24269408
231	0xbf15c097	-0.58496994
232	0x3e848e5f	0.2588987
233	0xbdc124af	-0.09430825
234	0xbd7a783d	-0.061149824
235	0xbeb4649e	-0.35233015
236	0xbf06ba1d	-0.52627736
237	0xbe0c874d	-0.13723488
238	0xbefc4ac8	-0.49275804
239	0xbe3d7e79	-0.18505277
240	0x3e8fd5c9	0.28092793
241	0x3e139f62	0.14416268
242	0x3dc3dc28	0.09563476
243	0xbc768adc	-0.015047755
244	0x3ebacdf5	0.36485258
245	0xbec104ab	-0.37698874
246	0x3e887eea	0.26659328
247	0x3d0b4ad6	0.034006916
248	0x3dcdf8e0	0.10057235
249	0x3e4f1ceb	0.20225875
250	0x3eb57051	0.35437253
251	0xbced01dd	-0.028931553
252	0xbcd2ecfe	-0.025747772
253	0x3ea163a9	0.31521347
254	0x3e01ae2c	0.12664098
255	0x3e05a661	0.1305175

fc.weight f4 [6, 64]
0	0x3f320f86	0.69554937
1	0xbdfef19b	-0.12448426
2	0xbf0f98c5	-0.5609248
3	0x3f23d63d	0.63998777
4	0x3f157615	0.58383304
5	0x3f6d47a6	0.9268745
6	0xbcb53d89	-0.022124069
7	0x3f93541c	1.1510043
8	0xbeaa01dc	-0.33204544
9	0xbb85239a	-0.004063082
10	0xbf220c25	-0.6329978
11	0xbcf5da2f	-0.030011265
12	0x3e959c9a	0.2922104
13	0xbf3bff1a	-0.7343613
14	0xbe9eb982	-0.31000906
15	0xbf2d961e	-0.67807186
16	0xbe517e3a	-0.20458308
17	0x3eb8cf86	0.36095828
18	0xbe28648a	-0.16444603
19	0xbdaf174a	-0.08549364
20	0xbe56b16a	-0.20966116
21	0x3f188fb0	0.5959425
22	0xbebaf79d	-0.3651704
23	0xbe04fff6	-0.12988266
24	0xbdd37116	-0.10324304
25	0xbd386779	-0.045020554
26	0x3ed3f72d	0.41399518
27	0x3f3c95a3	0.7366583
28	0xbe7f0bd1	-0.24906851
29	0xbe96e218	-0.2946937
30	0x3ed85489	0.42251995
31	0x3a022d82	0.00049658876
32	0x3e13f103	0.14447407
33	0x3d1d6b05	0.03843214
34	0x3e19078b	0.14944284
35	0x3f56f478	0.8396678
36	0xbe8f2891	-0.27960637
37	0xbf013a51	-0.5047961
38	0x3e9ac347	0.3022711
39	0x3f068814	0.5255139
40	0xbe15e1bf	-0.14636897
41	0x3eedc27b	0.4643744
42	0x3dd826ea	0.10554297
43	0xbeae9fea	-0.3410638
44	0x3f1095b1	0.5647841
45	0xbe7b2bbb	-0.245284
46	0xbef48a0f	-0.4776158
47	0x3c2557c3	0.010091725
48	0x3e8233ee	0.25430244
49	0xbc69241e	-0.014229802
50	0x3ef7a2ab	0.48366293
51	0xbe2f72cd	-0.17133637
52	0x3e5f0056	0.21777472
53	0xbe99fe0c	-0.30076635
54	0x3e179985	0.14804657
55	0xbf2e48b7	-0.68079704
56	0x3dd6f131	0.10495222
57	0xbf535af3	-0.8256065
58	0x3e2f7979	0.17136182
59	0x3ebbc744	0.36675465
60	0xbed19b71	-0.40938905
61	0x3e448520	0.19191408
62	0x3e6c194b	0.23056524
63	0x3d5eb2ab	0.05436961
64	0xbf274ef2	-0.65354836
65	0xbf9a3863	-1.2048458
66	0x3fac7270	1.3472424
67	0x3f33898f	0.7013177
68	0xbeb21144	-0.34778798
69	0xbf1b17d1	-0.60583216
70	0xbd16f519	-0.036854837
71	0xbebb7662	-0.36613756
72	0x3efb27e2	0.49053866
73	0x3f2f8ac7	0.6857113
74	0xbe415b37	-0.18882452
75	0x3f21d784	0.63219476
76	0xbd239418	-0.039936155
77	0x3fd5c382	1.6700289
78	0xbf471137	-0.7776064
79	0x3f897cec	1.0741248
80	0x3eb848a1	0.3599291
81	0xbee660e5	-0.449958
82	0x3f146c36	0.57977617
83	0x3d761420	0.060077786
84	0xbf1a8340	-0.6035652
85	0xbf569c7d	-0.8383253
86	0x3fd88f68	1.6918764
87	0x3f00f742	0.50377285
88	0x3f180ffe	0.593994
89	0x3dfe9c9a	0.12432213
90	0x3c35ba2c	0.01109175
91	0xbd3f4989	-0.046700988
92	0x3e0a063f	0.13478945
93	0x3eeb1f30	0.45922232
94	0xbed68634	-0.41899264
95	0xbf09ea4d	-0.5387314
96	0xbe878270	-0.26466703
97	0xbede6126	-0.43433493
98	0xbe997ed4	-0.29979575
99	0xbfb1ae93	-1.3881401
100	0xbe8cd9ad	-0.27509823
101	0x3f79ce18	0.975801
102	0xbe93316e	-0.2874865
103	0xbf2bcd5b	-0.6711022
104	0x3e0332ae	0.12812302
105	0xbed0c424	-0.40774643
106	0x3efa2b99	0.48861387
107	0x3f4f08d6	0.8087286
108	0xbf98bf9c	-1.1933475
109	0x3e2bb60f	0.16768669
110	0x3f92c6ec	1.1466956
111	0x3f44fe7c	0.7695081
112	0xbe017760	-0.12643194
113	0xbefd3b23	-0.4945918
114	0xbf505bcd	-0.81390077
115	0x3cec5600	0.028849602
116	0xbfcc6522	-1.5968363
117	0xbf005c9e	-0.5014132
118	0xbe8e5217	-0.27797005
119	0x3ee98810	0.4561162
120	0x3f12820b	0.5722968
121	0xbe9dd820	-0.30828953
122	0x3f3f6582	0.74764264
123	0xbd725359	-0.059161518
124	0xbf9c764b	-1.22236
125	0xbf0a6cc9	-0.5407224
126	0xbee7709f	-0.4520311
127	0xbef93aa2	-0.48677546
128	0xbfad323c	-1.3530955
129	0x3ec6d6c4	0.38835728
130	0x3ec82fe2	0.39099032
131	0xbd830589	-0.0639754
132	0xbfd90e4b	-1.6957487
133	0xbf8f55b2	-1.1198027
134	0x3e7fae6f	0.24968885
135	0xbff73091	-1.9311696
136	0x3f817bae	1.0115869
137	0xbe49f42a	-0.19722047
138	0x4018a604	2.3851328
139	0x3b913c3e	0.0044322303
140	0xbe8ef486	-0.27920932
141	0x3f5a55c4	0.8528712
142	0x3e1805cd	0.14845963
143	0xbf5c298e	-0.8600091
144	0x3b9bf38d	0.004759258
145	0xbfa3d65f	-1.2799796
146	0x3f940540	1.1564102
147	0x3f0eaa93	0.55729026
148	0xbefdd3b4	-0.4957558
149	0xbf617483	-0.8806841
150	0x3ea2b676	0.31779832
151	0x3f630ff5	0.88696223
152	0x3f45588b	0.7708823
153	0xbdf9ea13	-0.12202849
154	0xbfaefe0f	-1.3671283
155	0xbfc96c63	-1.5736202
156	0x3df20a9b	0.11818429
157	0x3dcfccf2	0.10146512
158	0xbdb80224	-0.08984783
159	0x3e7783ec	0.24171418
160	0x3d539055	0.051651318
161	0xbfa8d5bc	-1.3190227
162	0x3e826fcf	0.25475928
163	0xbfb40a5b	-1.406566
164	0x3f9af629	1.2106372
165	0x3f5fa070	0.87354183
166	0x3ea788bb	0.32721505
167	0xbf14b072	-0.58081734
168	0x3fcfc2ac	1.6231284
169	0xbf2f498d	-0.68471605
170	0xbf5d6926	-0.8648857
171	0xbeb626e3	-0.35576543
172	0x3f81b25c	1.0132556
173	0xbf99ec86	-1.2025306
174	0xbf282ed8	-0.6569648
175	0xbf27728e	-0.6540917
176	0x3de67b36	0.11253969
177	0xbf8c7c0f	-1.097536
178	0x3d9559f4	0.07292548
179	0xbe5634ba	-0.20918551
180	0xbe5fef70	-0.21868682
181	0xbf4835b1	-0.78206927
182	0xbe71553f	-0.23567675
183	0x3f8a2524	1.0792584
184	0xbf310bd6	-0.69158685
185	0x3f5e0be4	0.86736894
186	0x3eba271d	0.36357966
187	0x3e2dbbbf	0.1696615
188	0x3ec0b4b8	0.37637877
189	0xbfbc167d	-1.4694363
190	0xbe06bfb8	-0.13159072
191	0xbf62f53d	-0.88655454
192	0x3f587562	0.8455411
193	0x3f876725	1.0578352
194	0xbf82c8fa	-1.0217583
195	0xc00214f0	-2.032528
196	0x3f90b89f	1.1306342
197	0x3f0a1ff6	0.5395502
198	0x3e9e7ed8	0.3095615
199	0x3f939ece	1.1532838
200	0xbf364a7b	-0.712074
201	0x3c3509d7	0.011049709
202	0xbf901cb9	-1.1258765
203	0xbc83dcd9	-0.01609652
204	0x3d72ec2e	0.05930727
205	0xbf172a12	-0.5904857
206	0x3f6e0d34	0.92988896
207	0x3e0e5a44	0.13901621
208	0x3de63b33	0.1124176
209	0x3f35d9ca	0.71035445
210	0xbf282c7a	-0.65692866
211	0xbcbc6472	-0.022997115
212	0x3f97e97b	1.1868128
213	0x3f5a2fe2	0.85229313
214	0xbf1c2bdf	-0.6100444
215	0xc0026c53	-2.0378616
216	0xbfd358b7	-1.6511449
217	0x3e374ade	0.17899653
218	0xbedd4de7	-0.43223497
219	0x3f93f55c	1.1559253
220	0x3ed02963	0.40656576
221	0xbfc8592d	-1.5652214
222	0x3f715da5	0.94283515
223	0xbe825c41	-0.2546101
224	0x3e343180	0.17597008
225	0x3ecbeb83	0.3982812
226	0xbeacf2a4	-0.3377887
227	0x3faafde6	1.3358734
228	0xbfb1baac	-1.3885093
229	0xbee5d471	-0.44888642
230	0x3e04bbbf	0.12962244
231	0x3f82e39f	1.0225714
232	0xbea595af	-0.32340762
233	0x3fa986a3	1.3244213
234	0xbd550498	-0.052006334
235	0xbf771f58	-0.965322
236	0xbf80ae75	-1.005324
237	0x3f56e954	0.8394978
238	0x3d60cdb9	0.054883692
239	0x3bb62124	0.00555815
240	0xbea9d9ee	-0.3317408
241	0x3fb47480	1.4098053
242	0xbef046d8	-0.4692905
243	0x3ebbd958	0.36689258
244	0x3f4a4fd7	0.79028076
245	0x3fa7f8aa	1.3122761
246	0x3fa04307	1.2520455
247	0xbf036f7f	-0.51342005
248	0xbf9e6393	-1.2374138
249	0x3eb5e107	0.35523245
250	0xbf37a3ec	-0.717345
251	0xbf002712	-0.50059617
252	0x3f65bd22	0.8974172
253	0x3f2a2619	0.6646438
254	0x3dacb182	0.084322944
255	0x40097b8e	2.1481662

fc.bias f4 [6]
0	0xbd54287f	-0.051796433
1	0xbe225706	-0.1585351
2	0x3c3ed619	0.011647725
3	0x3d173f5d	0.036925662
4	0x3d5d30a0	0.05400145
5	0xbe06cac0	-0.1316328
