checkpoints/D/model_D_epoch_114.pth (torch, 78709 bytes, 15 tensors)

node_embedding.weight f4 [1, 64]
00000000: 279c 4f3e 9897 11be be9d b6be 28f6 6dbf
00000010: 6871 b83f b4bb d1bf 770c 00be 18e1 863f
00000020: 09bc 99be 9d7e 8d3f 34e0 6a3f 2057 39bf
00000030: 948b 943f f291 cabf 6c77 e3bf a1fd db3c
00000040: 5852 0040 fb2a 263f 1351 bb3f ad5a 02c0
00000050: b6f2 953f 61bb abbe 70d6 66bf e384 ecbe
00000060: 88b2 75bf 6993 04bf 78a4 b4bf 85e5 403f
00000070: 1bd4 d43f 6006 113f 0fbe 2b3f 8cba 15bf
00000080: 565e 803f 4fed 2ec0 5464 45be 656f fd3f
00000090: 9380 e63f fbff 983f 4213 acbf 588d 253e
000000a0: 7908 ef3e c653 0940 d523 89bf 1f59 c5bf
000000b0: 5650 a33d 133c 5c3e 572e 993e 9550 5e3f
000000c0: b3d4 673f a193 59bf 18d2 5e40 f71e 28bf
000000d0: 33b1 92be 3737 d93f c8a2 51bf 6e88 433f
000000e0: be62 913e ebda 8fbf d79f c9bd c96a a3be
000000f0: 4d1b 49bf af3c 953f ba77 c83f 2c7f d23f
0.20274411 -0.14217985 -0.35667223 -0.9295373 1.4409609 -1.6385407 -0.12504755 1.0537443
-0.30026272 1.1054264 0.91748357 -0.7239857 1.1605096 -1.5825789 -1.777082 0.026854338
2.0050259 0.64909333 1.4634117 -2.0367844 1.1714694 -0.33541396 -0.90170956 -0.46195135
-0.9597554 -0.5178743 -1.4112692 0.7535022 1.662723 0.5665035 0.6708688 -0.5848777
1.0028789 -2.7332342 -0.19276553 1.979962 1.8007988 1.1953119 -1.3443377 0.161672
0.46686152 2.1457381 -1.071406 -1.5417823 0.07974307 0.21507291 0.29918167 0.8684171
0.9055893 -0.8499089 3.481573 -0.6567225 -0.28650817 1.6969975 -0.8188901 0.7638005
0.28395647 -1.1238683 -0.0984494 -0.31917408 -0.7855728 1.1659144 1.5661538 1.644506

conv1.nn.0.weight f4 [64, 64]
00000000: 2193 b83d 428c e6bc fc00 173d 6d20 0e3e
00000010: 63de e2bd ec36 043e 868c e4bd e679 d9bc
00000020: 5ad6 84bb 8d06 f1bd 9dd8 933c 65fe aa3d
00000030: feb7 823d ecac 353d dbc2 0cbd 523b 05be
00000040: 6bfa d3bd 1ef3 75bd 0a0b b63d a91b 653d
00000050: 86a8 0cbd 1bdb f63c 668b 913b 1e5a f9bc
00000060: 2a52 843d 0986 85bd 7726 b4bd 1e9d 853b
00000070: c1d8 523c cd6d c23c ae69 e6bc b2a0 b03d
00000080: 149f 5cbd 7513 0abd d959 1b3d 3c77 033d
00000090: ad1b 913d 69f0 713c c726 9bbd b42b f3bd
000000a0: 16cd a43c 6018 d8bd ee43 85bd f1cd b13d
000000b0: fdde f3bb c6b4 3fbd 50cc d0bd 12fb bd3d
000000c0: 7f8f 033d 02e9 963d 619c 8c3d a285 663d
000000d0: b05b 9dbd 9b36 473b 83d3 b2bd 2bfd 56bc
000000e0: b1ca c63d 1479 433d b404 05be 66a5 96bc
000000f0: 24b4 213d c9d0 3dbd ed6c 863d 6a94 85bd
00000100: 3c3a 573d 10df eebd e09f 28bd 8053 cebb
00000110: 8adb b93d a096 2ebc 885c 523d c809 0f3d
00000120: f8cd ccbd 002d 48bb 302c 54bc 40c1 933b
00000130: 2cda f7bd 0eb5 fcbd 247c 1bbd 88f1 c83c
00000140: e2a5 80bd 1c1c 323d 28a4 e7bd c421 36bd
00000150: 946c f7bd 4690 ce3d 0e59 b6bd 146e c1bd
00000160: f44e 6f3d 8c2d 73bd 9880 d13c c0a5 2ebd
00000170: b4ac 45bd 3868 29bd a6f5 f53d a079 edbc
00000180: 80b5 b93c ae55 acbd 62a8 8cbd 3c12 4bbd
00000190: dac9 f2bd 1895 f8bd 1636 fdbd 6c2e 003d
000001a0: 6c09 b6bd 00c8 1cbb d8bd 933c d0f6 35bd
000001b0: d625 eb3d d272 8b3d 90d7 ba3d cc83 fdbd
000001c0: c0d8 2bbb 0019 eb3d 8825 5fbd 445e 1e3d
000001d0: fab0 d0bd 8003 2abc 9091 01bc a072 b5bb
000001e0: 1eeb fabd 6071 9bbc 680d a33d 7c1d 303d
000001f0: 92b9 c43d ec00 18bd 0072 9a3a a828 a13d
00000200: 2070 57bc b043 9a3c 1690 e5bd 401a 01bd
00000210: b0ba ca3d 083a eb3d 18a5 1f3d c8e0 89bd
00000220: b20a cb3d 6c95 303d 3825 d5bd 90e3 09bc
00000230: 86f7 85bd 1083 8cbc 2ce3 74bd d077 b43d
00000240: e8fe 93bc 5026 e63c b8d8 c7bd cc20 46bd
00000250: 0cc5 6abd a8e4 183d a0d3 d5bd 0cb8 43bd
00000260: 1e87 febd 00af 95bb c8ff 153d dade ddbd
00000270: 2886 d5bc 28df d2bd 28aa f9bd 786b d0bc
00000280: 1c1c 64bd a866 dcbc c0ff 5b3d 480e a53d
00000290: c832 fe3c ec43 8ebd f046 bd3c e8c6 953c
000002a0: 882e fa3d a08b 0e3d f0a1 93bc 5455 8fbd
000002b0: 30e9 46bc 8029 41bc 6490 ddbd 3001 3cbd
000002c0: 4071 453d 50f1 773c e0b4 b63c f855 313d
000002d0: 348b 5d3d 78b6 bdbc 3cf2 983d a0d0 b93b
000002e0: 7081 5dbd d88a 693d b6d4 fc3d 2471 143d
000002f0: bef3 ab3d b803 813c 6c3e 5abd 60a7 bb3c
00000300: f825 17bd 98b8 06bd 7cb2 a1bd 1ace ce3d
00000310: 28ec b7bd 40b0 dc3d 70df 0bbd 9ab6 ec3d
00000320: 08c7 97bc 0626 fd3d 767e ffbd 0050 29b8
00000330: a260 f3bd 9c19 79bd 0003 86bb f0ab b33d
00000340: 0086 50bd 725f dc3d 3803 c63c 80df 10bb
00000350: 82f8 fe3d 82bb 98bd 585c c8bc 4087 9f3d
00000360: 9468 b7bd 4c6d f4bd cac5 c43d faea cdbd
00000370: e054 073c 58d0 e53d f89e 953d d830 2a3d
00000380: 10a3 ba3c 84ac 3abd 989b 96bc 880d ecbd
00000390: e0c4 da3b f486 8a3d 5e95 b33d ee53 9dbd
000003a0: a009 58bd a07b acbc a0ec 923c b022 493d
000003b0: 00dc cabb b066 d4bc a241 f7bd bc38 e0bd
000003c0: c01d 37bd d038 25bd 80aa 08bd bc3b 293d
000003d0: 28a2 ecbd 3851 993d 5cb6 7bbd 38f9 7dbd
000003e0: f84c 953d ec6f 213d d838 76bd 4091 7dbb
000003f0: e0d8 70bc c027 f2bb 88ad 4fbd 20aa c43b
0.090124376 -0.028143052 0.036866173 0.13879557 -0.11077573 0.12911576 -0.11159615 -0.026547384
-0.004053873 -0.117688276 0.018047625 0.08349303 0.0638275 0.044354364 -0.034365516 -0.1301091
-0.10350498 -0.060046308 0.08888824 0.055934582 -0.034340404 0.030133775 0.0044416664 -0.030438479
0.06460984 -0.06519706 -0.08796399 0.0040775677 0.012869061 0.023733998 -0.028126564 0.086244
-0.053862646 -0.033709962 0.037927482 0.032096133 0.07085357 0.014766791 -0.075757556 -0.1187357
0.020117324 -0.10551524 -0.06507097 0.08681858 -0.0074423538 -0.04680326 -0.101952195 0.092764035
0.03211927 0.073686615 0.068657644 0.056279786 -0.07683504 0.0030397538 -0.08731749 -0.013121883
0.09706629 0.04772289 -0.12990075 -0.018389415 0.039478436 -0.04634169 0.06563745 -0.06522448
0.05254577 -0.116636395 -0.041168094 -0.006296575 0.09075077 -0.010656029 0.051357776 0.034921438
-0.10000223 -0.00305444 -0.012949988 0.004509121 -0.1210216 -0.12339221 -0.037960187 0.024529234
-0.0628164 0.04348384 -0.11310607 -0.044465795 -0.120812565 0.10086112 -0.089037046 -0.09444824
0.058424905 -0.05936961 0.025574014 -0.04263854 -0.048260406 -0.041359156 0.12009744 -0.02898866
0.022669554 -0.084147796 -0.06868054 -0.049577937 -0.118549064 -0.121378124 -0.12363832 0.03129427
-0.08888516 -0.002392292 0.01803486 -0.044424832 0.11481826 0.068090096 0.091231465 -0.12378654
-0.0026221722 0.11479378 -0.054479152 0.038664117 -0.101900056 -0.010376811 -0.00790824 -0.005537346
-0.12251876 -0.01897496 0.079615414 0.04299687 0.09605707 -0.037110254 0.0011783242 0.07869083
-0.013149291 0.018831104 -0.11209123 -0.031519175 0.09898889 0.11485678 0.038975805 -0.06732327
0.09914149 0.04311125 -0.104074895 -0.0084160715 -0.06541352 -0.01715234 -0.05978696 0.08811915
-0.018065885 0.02809444 -0.09758133 -0.04837112 -0.057316825 0.03732744 -0.10440755 -0.047782943
-0.12428115 -0.0045679808 0.036620885 -0.10833521 -0.026064947 -0.1029647 -0.12190658 -0.02544187
-0.05569087 -0.026904419 0.0537107 0.080593646 0.031030074 -0.06946549 0.023105115 0.018283322
0.122159064 0.034801126 -0.018021554 -0.06998697 -0.012140557 -0.0117896795 -0.10818556 -0.04589957
0.048203707 0.015133217 0.022303045 0.043294877 0.054087833 -0.023158297 0.074680775 0.005670622
-0.05407852 0.057017177 0.12345259 0.03624071 0.083960995 0.015748844 -0.053282186 0.022906959
-0.036901444 -0.032890886 -0.07895371 0.100979045 -0.0898059 0.107758045 -0.034148633 0.11558266
-0.018527523 0.12360768 -0.124752924 -4.0367246e-05 -0.118836656 -0.06081544 -0.004089713 0.08773029
-0.050909042 0.10760392 0.024171457 -0.0022105873 0.12449743 -0.07457639 -0.024458095 0.07789469
-0.089554936 -0.11934909 0.09608038 -0.10054584 0.008259982 0.11221379 0.073057115 0.041550487
0.022782832 -0.04557468 -0.01838474 -0.115260184 0.0066763014 0.067640215 0.08768724 -0.07682024
-0.052743554 -0.021055043 0.017935097 0.049105346 -0.006190777 -0.025927871 -0.12073065 -0.10948321
-0.044706106 -0.040337384 -0.033365726 0.041316733 -0.11554366 0.07486194 -0.06145321 -0.06200525
0.07290071 0.039413378 -0.060112804 -0.0038691312 -0.0147001445 -0.0073899925 -0.0507026 0.006001726

conv1.nn.0.bias f4 [64]
00000000: a0eb 7fbd 0429 d93d 508d 1c3d 2c9b 773d
00000010: 2a11 d43d 365a b83b 724c ab3d 84c9 7d3d
00000020: 6ad4 60be f574 0dbe 8ebd 803d 7d19 81bd
00000030: b858 c2bc 114b 40be a960 f5bd da28 b33d
00000040: d467 623d 772e 9fbe fabd 7ebd 0508 413e
00000050: 70ab 1b3c 4600 19bc 11b0 c33d c853 f6bd
00000060: a706 bbbd ebd0 ee3c 501d 753d f176 31be
00000070: b42f f73d a00a ebbc 1ea5 43bd e19c 8f3d
00000080: 41c1 2cbe ac90 f5bc 5355 debd 09df 2dbc
00000090: 6266 153e 9e66 d53d e08b 9f3c 9fd7 cf3c
000000a0: a713 bd3d 2cfc ea3d a0e4 823c 05c3 2abe
000000b0: fe89 e1bd cbb0 2abd 4700 963d 40d5 8e3c
000000c0: d8aa 22bd 1074 653d f542 d4bd 1267 a9bd
000000d0: 0000 ebb7 a838 afbc 7cbb 1d3d 139e ff3c
000000e0: 3ed6 cbbd 759d 4f3d bb9e 873d d039 393d
000000f0: 9825 5ebe aaa5 893d 7adf 1abd b4e1 63bb
-0.06248057 0.10603526 0.038220704 0.060450718 0.10354836 0.0056259884 0.0836419 0.06195976
-0.2195603 -0.13814147 0.06286155 -0.0630369 -0.023723945 -0.18778636 -0.11981327 0.08748026
0.0552748 -0.31090137 -0.062192895 0.18850715 0.009501323 -0.009338444 0.095550664 -0.12027699
-0.09132128 0.029152354 0.059842408 -0.17330529 0.120696455 -0.02869159 -0.04776489 0.07012344
-0.16870596 -0.029976211 -0.10856118 -0.010612258 0.14589837 0.10419963 0.019475877 0.02537137
0.09232264 0.11473879 0.015978158 -0.16675957 -0.11012648 -0.04167251 0.07324272 0.01743567
-0.03971371 0.05601889 -0.103643335 -0.08271612 -2.8014183e-05 -0.02138932 0.038508877 0.031203305
-0.09952973 0.050687272 0.06622072 0.04522115 -0.21694028 0.06721051 -0.03781078 -0.003477198

conv1.nn.2.weight f4 [64, 64]
00000000: e48e 973d 2078 223c 08c6 893c 880c dcbd
00000010: a89e 9abd 7d4d a6bd 556e ad3c 044a 4ebd
00000020: 7ef4 0dbd a006 543c a259 813d 7ace 393d
00000030: 08cb 813d 7b7c 0abe 1fba 2ebb 3f1c 893d
00000040: c1f8 6d3d f07a b3bc 5f0d 2dbd 0927 543d
00000050: ba07 fabd 2f8f 2bbd d6e3 f4bc 04aa 85bd
00000060: 7313 13bc e937 033e d49b cc3d f194 e8bd
00000070: fc88 2ebd 7f0b 5c3d e85d 293d c686 6cbd
00000080: 1f1d 2ebe 6fcb d0bc 8dee 53bd 70da 123d
00000090: 0544 69be 7e2b f53d f8ce d13d fadc dfbd
000000a0: dad7 ee3d 3467 963d d8a5 563d 4f9c 55bd
000000b0: 78b2 d53c d756 653d 0c77 263d ad90 333c
000000c0: 58f5 f33c 29c3 d6bc 6b0d bfbd 408b c2bd
000000d0: 484f b63d 004f ebba b08d b43c c4b4 84bd
000000e0: acfc 053d 3c1a b4bd b669 973d 7a06 a5bd
000000f0: c22c ffbd ddb4 ec3d 3c57 143d 5218 81bd
00000100: 18bf c0bd d811 be3d d0da febc 0ebd a5bd
00000110: 16b0 f33c 25a0 ec3c 82dd fd3d bc92 a0bd
00000120: 741b 543d 9374 13be 28fb 78bd 7404 e33d
00000130: e8f5 eb3d 82ea 19bc bf75 f2bb cb46 943d
00000140: 84e6 f93d 94b8 353d 137d ac3c 98a5 db3d
00000150: 1026 383c 1c0d 353b c770 073d 4997 7abd
00000160: 0bba 423d d5ae d23d 08b2 f5bd 3023 a93d
00000170: c8d9 3abd 1a40 06be 0953 dbbd 05c4 883c
00000180: ec24 3d3d 1440 f23c 50e9 983d f834 36bd
00000190: 5dd2 34bd 18fc 433d 40e5 f03d 6922 57bc
000001a0: a078 9fbc 28ef ac3c cc6e 5dbd e32b d0bc
000001b0: c887 0d3d 7852 b1bd 0411 14bd 18b0 8ebc
000001c0: a0ba f2bb aa22 46bc 2cf0 f9bd f42e bdbd
000001d0: c031 c5bb 18d2 d7bc ef3a 86bd 0c6f b53d
000001e0: 405d 8abd ff67 613d a8c3 9b3d 1ecb 9b3d
000001f0: 344b 5d3d b781 823d f00a b8bd 9cd1 1b3d
00000200: e8b5 f6bc e816 d13c a0dd e0bc 00aa 623c
00000210: e8c0 573d f59a cb3c 4072 453c 60d5 08bd
00000220: ba31 5dbd 1bf7 84bd e2a3 46bd b264 d23d
00000230: d29d 85bd 409a bd3d 565b 11be 6094 ed3b
00000240: 465b 80bd 52b1 b9bd d84c 1e3d ff87 e1bd
00000250: 90bf acbc 81e5 e3bd 2685 8d3d c4c9 38bd
00000260: 36b0 15be 226f bdbd a420 c6bd 603a f63b
00000270: 0051 5b3c 2443 e9bd 2d14 e6bd a4a2 013d
00000280: bba3 b83a 52be cfbd c03c f0bc 1792 00bd
00000290: e70e 853d 0c70 a23d 286a fdbc 3054 cd3d
000002a0: ac70 f9bd 3cc5 d03d f045 c83c b70b d5bc
000002b0: f0ac 44bd f1d2 c6bd 4cb0 f33d 04da 413d
000002c0: a014 5dbc a2b4 8b3d fc82 e2bd b642 fd3d
000002d0: 9cc4 413d d6e9 f23d 909a 7ebd d35f 76bd
000002e0: fcd4 163d c7e6 6abd 9215 debd ea6f b33d
000002f0: acd4 503d 2025 953b c86d 9b3c bcb5 6b3d
00000300: a15d 473d f63b a83d 68a6 d33c 6ef6 d7bd
00000310: 46c2 023e 3aad 353c af49 be3d 0027 0fba
00000320: 86c3 cfbb a2a6 f8bd ff2c db3d fbcf debd
00000330: 94cf 873d cf3b c0bd 793d c93d 4a58 e0bc
00000340: 93e2 edbd 81a5 2c3d 2ca3 bbbd 2e5c 14be
00000350: 406a 7cbd b71e 26bd e1a2 a13d 9643 babc
00000360: d804 17be e661 643c bc6f b73d 9f63 aa3d
00000370: 6cc7 eabd cc90 d3bd abe1 84bc 3766 9cbd
00000380: c82b 16be 58e8 0bbd c2c0 d7ba 6a98 953d
00000390: d7bd 393b b683 713d 8c09 0abd 9409 ef3d
000003a0: ff03 ef3d 8c28 0e3d 14a4 cabd 5d6f f43b
000003b0: 4cf3 263d 86ce c43d 106f 81bd 21aa f73d
000003c0: fcdd 07bd b5e7 223d 64ad 00be 8806 e2bd
000003d0: 24ea 2cbd 70bc 59bc 7145 fc3d e354 c53d
000003e0: dc1c 95bd e784 0abd c018 d53d d8db 933c
000003f0: af27 1a3d 9f26 3a3d 3978 24bd d01a 60bd
0.07400301 0.009916335 0.016818061 -0.10744578 -0.075497925 -0.081202485 0.021170774 -0.050363556
-0.034656994 0.012941033 0.06315924 0.045362927 0.06337553 -0.13524048 -0.002666123 0.06694841
0.05809856 -0.021909207 -0.04224908 0.05179504 -0.12208505 -0.041884597 -0.029893797 -0.065265685
-0.008976805 0.12814297 0.09990659 -0.11356533 -0.042611107 0.0537219 0.04134932 -0.057745717
-0.17003296 -0.02548763 -0.05174117 0.03585285 -0.22779854 0.11971186 0.10244554 -0.1093082
0.11662264 0.07343903 0.052404255 -0.05215102 0.026086077 0.05599102 0.040640876 0.010959786
0.029780075 -0.026216106 -0.09328731 -0.09499216 0.089018404 -0.0017952621 0.022040218 -0.06479791
0.03271167 -0.08794066 0.0739321 -0.08057876 -0.12459709 0.115579344 0.036216006 -0.06303467
-0.09411448 0.09280747 -0.031110197 -0.080927 0.02974705 0.028884957 0.12395765 -0.07840487
0.051783994 -0.14399938 -0.060786396 0.11084834 0.11521512 -0.00939429 -0.0073992903 0.07240065
0.122021705 0.04436548 0.021055734 0.10724944 0.011239544 0.0027626222 0.033066537 -0.061179433
0.047540706 0.10287253 -0.119968474 0.082586646 -0.04561785 -0.1311039 -0.10709197 0.016695032
0.04617779 0.02957157 0.07466376 -0.04448411 -0.04414593 0.047847837 0.11762476 -0.013130763
-0.019466698 0.021110132 -0.054060742 -0.025411552 0.03455332 -0.08658308 -0.03614904 -0.017417952
-0.0074075013 -0.0120932255 -0.12204012 -0.09237471 -0.0060178936 -0.026345298 -0.065542094 0.08859071
-0.06756067 0.05503082 0.07605678 0.07607101 0.054026797 0.063723974 -0.08986461 0.038041696
-0.030116037 0.025523618 -0.027449429 0.0138344765 0.052674204 0.024854163 0.012051165 -0.033406615
-0.0540025 -0.06492444 -0.048496135 0.10273112 -0.065242425 0.092579365 -0.14194998 0.0072503537
-0.06267409 -0.09067024 0.038647503 -0.11012267 -0.021087438 -0.11127759 0.06910162 -0.045114294
-0.14618 -0.092497125 -0.096741945 0.007514283 0.013386011 -0.11389759 -0.11234317 0.031649247
0.0014086881 -0.101437226 -0.029325843 -0.031389322 0.06496983 0.079315275 -0.030934408 0.10025823
-0.121796936 0.101938695 0.024447411 -0.026006563 -0.04801649 -0.09708203 0.1189886 0.047327057
-0.013493687 0.06821562 -0.110601395 0.1236624 0.047306642 0.11861007 -0.06215912 -0.06014998
0.03682421 -0.057348993 -0.10843958 0.0876158 0.05098407 0.004551545 0.018973246 0.057546362
0.048673276 0.08214562 0.025836185 -0.105450496 0.12769422 0.011088664 0.09291398 -0.00054608285
-0.006340447 -0.12141158 0.10701942 -0.10879513 0.06631389 -0.093864076 0.09826178 -0.02738585
-0.11615481 0.042150024 -0.09161982 -0.14488289 -0.061624765 -0.040556636 0.07892395 -0.022737306
-0.14747941 0.013939356 0.089568585 0.083197825 -0.11463818 -0.10330352 -0.016220888 -0.076366834
-0.14665139 -0.034157127 -0.0016460645 0.07304461 0.0028341913 0.0589635 -0.03370051 0.11671749
0.11670684 0.034706637 -0.09894577 0.0074595646 0.04075937 0.09609704 -0.063200116 0.120929964
-0.033170685 0.039771754 -0.12566143 -0.11036402 -0.04221548 -0.013289556 0.123179324 0.096353315
-0.07280895 -0.03381815 0.10405111 0.018049166 0.0376355 0.04544699 -0.040153716 -0.05471307

conv1.nn.2.bias f4 [64]
00000000: b2db 8fbd bfdc 373c 486d 02be 1175 3dba
00000010: bc90 d03d 7c93 5fbd 1066 383e dc64 31bd
00000020: 768b 0bbd 09fe 4c3c f65a 933b afcd 393e
00000030: 21f1 023e 71b6 b1bc 1557 bf3d 93be 3bbd
00000040: 3b72 c83d 1b18 e13c 100e 593d 0bca 8ebb
00000050: 3336 b8bd bfe3 c2bc dff7 1abe 4bad 0a3e
00000060: 69ba 9cbc 6b64 15be 97be d93b 7ea9 c83d
00000070: cbb2 b3bd 7f39 09bd bfbb 0abe 91f1 edbc
00000080: 67b4 b9bd 183c a9bc 3577 09bd 7148 d4bd
00000090: b227 19be bcde 9bbd eb8a d73d c60c 053f
000000a0: d165 62be 29b0 63bd 00b9 5ebd f18f 3b3e
000000b0: 1d42 f2bc 5fc4 56bd d1a8 cdbd 3d62 803d
000000c0: 2230 b63d 88a5 a8bd 5486 12be 5027 a93c
000000d0: 6218 16be 402e 283c 32c9 d9bd a502 3cbc
000000e0: c724 1dbe ff48 cb3d 29ca 14be cd8f 5ebe
000000f0: 3ab4 b7bc 697b afbd cab3 63bd ae7f b4bd
-0.070243254 0.011222064 -0.12737 -0.0007227222 0.10183856 -0.05458401 0.18007684 -0.043309078
-0.034068547 0.012511739 0.0044969274 0.18144868 0.12787296 -0.02169344 0.093427815 -0.045836043
0.09787413 0.027477315 0.052991927 -0.0043575815 -0.08994713 -0.023790238 -0.15133618 0.13542669
-0.019131856 -0.14589088 0.0066450345 0.09797953 -0.087743364 -0.0335021 -0.13548182 -0.029045852
-0.09067612 -0.020658538 -0.03356095 -0.103653796 -0.14956549 -0.076108426 0.105245434 0.51972616
-0.22109152 -0.05558792 -0.05437565 0.18316628 -0.02957254 -0.052433368 -0.10041965 0.062687375
0.08895899 -0.082346976 -0.14309055 0.020648628 -0.14657739 0.010264933 -0.10634078 -0.01147524
-0.1534606 0.09926032 -0.14530243 -0.21734543 -0.022424806 -0.085684605 -0.055591382 -0.088134155

conv1.lin.weight f4 [64, 7]
00000000: a851 b2be 1ad3 dd3e 319b b13e 4479 2b3c
00000010: bff6 d33e a49a 13bf fb27 0a3e 4506 5fbf
00000020: 83dc af3e 12f3 b3bd 193d 5cbe 2765 59be
00000030: ebfb ce3e 9b19 b7bd 65ac d93d 3748 99be
00000040: 73b8 85be 89e8 2abe 1256 52bd 8fbb 4b3f
00000050: b4bb 493f 6c41 d43d 2b34 95bd b054 453e
00000060: 0a94 0abe ecd6 a4be 3828 44be cfb5 8dbe
00000070: 02d2 093e 9d29 873e 4f14 a13e 4daf b3be
00000080: 89e5 b93e 5989 9e3d 9baa f9be 7506 823d
00000090: 4aa3 a03d 8e45 b8bd 8743 cdbd 9ea8 8fbe
000000a0: 3b10 70be d18d b9bc b704 e53c fa0a 353f
000000b0: 8460 98be d586 bebc 26f8 e2bd ab4f 983e
000000c0: 4dee df3e 82d5 c6bd 66c5 37be 1407 14bf
000000d0: 567b 8abd da50 813c 7540 29be 6f12 553e
000000e0: c5ce dd3e 2c17 673f 1bff b33e 4569 f53e
000000f0: f20e 0a3d 22dd 013f ea36 a6be e923 a73e
00000100: 2f7a 4c3d 406c 3fbe 4e25 63be e6ba 823d
00000110: c5ab 09be ab81 01be c6e6 e53e 513d 76bc
00000120: c07b ae3e 340e 54bc f6af ed3e 592b b1be
00000130: e509 163d fb24 1bbe c495 a9be 84f3 c0bd
00000140: 4a33 96be 6b9f cd3d 3249 ce3c f1f7 27be
00000150: 5dd7 723d a291 7cbe b02b e13d 8485 f2be
00000160: 38af 973e 33a2 1abf 4c80 14be 6606 983e
00000170: 18b3 0b3e 5e81 0c3e 639f 933e dcb5 c1bd
00000180: 9f40 3dbc 4b9d 5e3c d2cf d63d ddd0 d73c
00000190: 3ef8 e23d e14e 643e 4dde 2abe a81a 3fbe
000001a0: f989 78bc f70a 78bf 1b50 a23f 361a 933e
000001b0: 86b7 c73d 9dda a4be 6680 c63d 13f8 ab3d
000001c0: d797 95be f43e 693d 18a3 1a3e 898e b3be
000001d0: 556e a7be 5c9e 97be 6c25 b73b ef8e 163e
000001e0: d6ad 9cbe 6eaf f3be 6b23 cbbb a1ee 7cbe
000001f0: 7811 19bd 5eb6 0fbe 9f37 d7bd 85a1 a4bd
00000200: 3e36 4abe 5c32 1e3e f0b8 693d d6f9 afbe
00000210: 8ae6 0ebe a887 a5be 41c9 553a 614b 183e
00000220: a97f 613e ad87 0fbe 8618 63be ea48 ac3e
00000230: 75db 29be a6b7 febd a200 35be 5a08 ebbd
00000240: e4d5 aebe 7c7b bdbe 08f2 123e 5f62 0f3e
00000250: c13d e03e fe8d cf3e 4f73 bcbe 6079 bc3e
00000260: d054 b83e ad63 68be 83cd a43e 0b50 30bd
00000270: 35a2 76ba c629 933e 6df5 b73e 8106 0ebe
00000280: 085a aebe 9ec2 0f3f a687 973e 29b6 f63c
00000290: 8bf8 5e3e 181c a53e 77aa 94bf d10c 213e
000002a0: e2f0 28bd d875 ac3e b6ef 31be 7ca3 a03d
000002b0: cdb7 2d3e 829d a43e 87e8 7c3e 28ee a7bd
000002c0: 3e05 e3bd 43da 3b3e e625 1e3d 0e42 af3d
000002d0: 9c76 debc b45f 793e 9261 983d e826 4cbe
000002e0: f96a 9d3d aeaf 0bbe bfbc 68be 540e 533e
000002f0: ca5c 563e eba9 3c3e 7ccc ee3e 92c7 3b3e
00000300: 4480 45be 43a5 d0be 8e60 61bb 0775 5cbb
00000310: 2fd3 e2bc e04d a43d 5356 9dbe a525 a1be
00000320: 2ad6 f2bd 9df1 a3bd 62bc 1abe 6b37 f0be
00000330: 6f94 1b3c da7c 1ebf f359 033e 665d 0bbf
00000340: 8020 323e dbec 933c b30c e63e c9b8 7fbe
00000350: 16c9 ae3e 7b89 7e3e f168 bc3e 3077 ebbe
00000360: 48e7 8f3d f89b 363e b38d aebc 8d64 c03d
00000370: fe59 623e 8577 b53c de59 843d 6d78 05be
00000380: 0f53 2c3d eaa0 abbe 9748 c5be 027b 3a3e
00000390: 8b36 c03b bc53 32bd 1436 7bbe f22c 8ebe
000003a0: d7c7 6ebe 0a28 b83e 2e54 b63d f90a ac3e
000003b0: a315 32be f9e3 54bd aeba 8dbe 6a33 9cbd
000003c0: c243 1e3e 9e18 9dbe 1dc0 d83c 2bae a63e
000003d0: c3bd 59be c017 c3be 2b6a 343e 5de9 0d3d
000003e0: acc1 fbbc 49ad d5be b179 1abe 2d9e 823e
000003f0: bdef df3c 2068 073e 1e52 903e 8b03 8ebe
-0.34827924 0.4332512 0.34688714 0.010465924 0.4139919 -0.5765784 0.13491814 -0.8711894
0.34347925 -0.08786596 -0.21507682 -0.21229993 0.40426573 -0.08940431 0.10628585 -0.29937908
-0.26117286 -0.16690268 -0.051351614 0.79583067 0.7880204 0.10364041 -0.07285341 0.19270587
-0.13533035 -0.32195222 -0.19155967 -0.2767777 0.13459018 0.26398936 0.31460807 -0.3509468
0.36307934 0.07741041 -0.48762974 0.06348888 0.07843645 -0.089976415 -0.100226454 -0.28058332
-0.23443691 -0.022650631 0.02795635 0.70719874 -0.29761136 -0.023257652 -0.11082487 0.29748282
0.43736497 -0.09708692 -0.17946395 -0.578233 -0.06761806 0.015785623 -0.16528495 0.20807813
0.43321815 0.9026973 0.35155568 0.47931877 0.03370566 0.50728047 -0.3246377 0.32644585
0.04992121 -0.18693638 -0.221822 0.06383304 -0.13444431 -0.1264712 0.4490263 -0.015029267
0.3407879 -0.012942839 0.4642331 -0.34603384 0.03663053 -0.15150826 -0.33122075 -0.09421447
-0.29336005 0.10040172 0.025181387 -0.16403176 0.059287418 -0.2466493 0.10994661 -0.4736749
0.2962587 -0.60403746 -0.14502066 0.29692382 0.13642538 0.13721225 0.2883254 -0.09458515
-0.011551051 0.013587306 0.10488857 0.026344711 0.11082505 0.22295715 -0.16686364 -0.18662512
-0.015169614 -0.9689173 1.2680696 0.28730935 0.09751801 -0.3219804 0.09692459 0.08396926
-0.29217407 0.056944802 0.15101278 -0.35069683 -0.32701364 -0.29613006 0.005589178 0.14702962
-0.30601376 -0.4759478 -0.0061992905 -0.24700405 -0.037370175 -0.14034411 -0.10508656 -0.0803862
-0.19747254 0.15448898 0.057061136 -0.34370297 -0.13955131 -0.3233006 0.00081552943 0.14872505
0.22021355 -0.140166 -0.22177324 0.3364938 -0.16587622 -0.12437372 -0.17676023 -0.11476202
-0.3414756 -0.37008274 0.1435014 0.1400237 0.43797114 0.4053802 -0.36806723 0.36811352
0.36002207 -0.22694273 0.32188043 -0.043045085 -0.0009408326 0.28742808 0.35929433 -0.13869669
-0.34053063 0.5615634 0.2959568 0.030116158 0.21774499 0.32247996 -1.1614522 0.15727545
-0.04124535 0.33683658 -0.17376599 0.07843682 0.16964646 0.3215142 0.24698077 -0.081997216
-0.11084984 0.18344979 0.03861036 0.08557521 -0.027156167 0.24352914 0.07440485 -0.19936717
0.07686419 -0.13641235 -0.22728251 0.20610934 0.20933834 0.18424194 0.46640384 0.18337849
-0.1928721 -0.40751085 -0.0034389826 -0.003363909 -0.02768859 0.08022666 -0.30729923 -0.31474033
-0.11857255 -0.080050685 -0.15110925 -0.4691728 0.009495839 -0.6190926 0.12827282 -0.5443939
0.1739521 0.018057277 0.44931564 -0.24972834 0.3413779 0.24857132 0.36798814 -0.4598937
0.07026535 0.17832935 -0.021307802 0.093941785 0.22104642 0.022151718 0.06462453 -0.1303422
0.0420714 -0.33521205 -0.38531944 0.18210986 0.005865877 -0.043536887 -0.24532348 -0.27768666
-0.2331842 0.35968047 0.08902775 0.3360212 -0.17391066 -0.051975224 -0.27681488 -0.07626994
0.15455535 -0.30682844 0.026458794 0.32554755 -0.21263795 -0.38104057 0.17618625 0.03464638
-0.030731998 -0.4173377 -0.15085484 0.25511304 0.027335996 0.13223314 0.2818765 -0.27737078

conv1.lin.bias f4 [64]
00000000: 7540 21be ec9f 883e 5306 94bd b35d b13e
00000010: b46b 35be c5cc 863e daf1 143e 912d c43d
00000020: 95c1 503e e4c8 833d e124 7fbc 913d b33e
00000030: 39ba 753d d5b0 763e fd2c 503c e42e 493d
00000040: 246c 8e3e 380e 63bc ac53 163e 75db 5fbe
00000050: 6257 7cbe a26f 263e 79be 93be 5aac e23e
00000060: 619a a43e 3cf5 2dbd e71f 38bd c5e0 bf3d
00000070: 6e15 6d3e 6df4 4e3e 53b8 833e 502e 6dbe
00000080: 42c0 31be 1701 923e 0b44 babe 1d6e 873e
00000090: f06d 38be 823f 663d 8e50 5bbe 8cbc 07be
000000a0: 8d0e 803e 645c 19be 717c 26be fd06 9c3e
000000b0: 22f4 433e 60d9 88be 1455 21bd 883e b7be
000000c0: 7c45 acbe ca78 b9be f629 7bbe f8cb a2be
000000d0: af8d 773e 3a85 033c b7fa 0dbe 9064 e3be
000000e0: 639e 9abe 5d0f 953e 990a dc3c c7f6 52be
000000f0: 3deb d93e 1a07 2dbd 8bcb ca3c 780d 443d
-0.15747245 0.2668451 -0.07227769 0.346418 -0.17716867 0.26328102 0.14545384 0.095790036
0.20386346 0.06434801 -0.015572757 0.3500791 0.05999205 0.24090894 0.012706039 0.049116984
0.2781688 -0.0138583705 0.14680356 -0.2186106 -0.24642709 0.16253522 -0.28856257 0.4427212
0.32149032 -0.0424702 -0.0449523 0.09369043 0.23152706 0.20210429 0.25726566 -0.23162198
-0.17358497 0.28516456 -0.36380038 0.26451197 -0.18010688 0.05621291 -0.21417448 -0.13255519
0.250111 -0.1497665 -0.16258408 0.30474082 0.19136098 -0.26728344 -0.039387777 -0.35789895
-0.33646762 -0.36224967 -0.24527726 -0.3179624 0.24175142 0.008027369 -0.13865171 -0.4441266
-0.30198964 0.29113284 0.026860522 -0.2060195 0.42562285 -0.0422431 0.02475526 0.047864407

conv2.nn.0.weight f4 [64, 64]
00000000: 5589 9dbd df6e b53d da37 c83d d9c8 20be
00000010: 55de 9cbd 0a6f cabe 9797 2d3d f70a e5bd
00000020: 5c6e 4dbe 51c5 b53d 9ff7 003e 1cf7 bebd
00000030: 2b47 03be 1437 38be a390 373d 2d9d a8bd
00000040: 9b81 21be 1810 163d 5219 c9bd 04a2 bbbe
00000050: 4db0 503c 5ad9 47be 459f 9ebd 45be 9dbd
00000060: a8fd a03b 5306 1f3d 14a0 c73d bcf4 e2bd
00000070: f0b1 8abd e1ef ebbc 1b90 95be 0797 d0bd
00000080: 47a7 12bd d1da b53e 024b 5abe 323b e73d
00000090: 0e87 e2bc d8d8 d8bc c796 76bd d05b e93d
000000a0: 1017 3f3e c4ef d13d 0680 e63d 9b41 bd3d
000000b0: 0ecc d5be bca8 e5bd 0ce3 f53d d109 82bd
000000c0: 26c9 6dbf 38e2 edbc bb29 e13c dff4 003e
000000d0: 2248 3c3e e9fd ff3b a728 123c 318d d73d
000000e0: 4cc7 583e 3aa0 d0bd 6539 ab3c 1928 7abe
000000f0: 4a69 583c ee8c f63b c402 9abd 0cfb 433d
00000100: 8d92 febe 6897 f5ba 95f4 8fbe a9ab 50bd
00000110: 0bd7 0bbe bc4a fbbe 616f 3dbc 28bd 233e
00000120: cce6 8b3d e8ab e6be 590b 65bb 7894 493c
00000130: b0ed b43d f33b 66bf 9d46 2bbd 4a02 bbbd
00000140: e153 2e3d 4b92 503e c724 cdbc 15aa 31bf
00000150: 609d 71bd f613 9ebd cc2e 9abd feb3 fdbb
00000160: 36e2 ad3a eb28 81bd c45d 14bc 522c e4bc
00000170: 5c7e dabd f911 343d bcab b8bd b399 83bd
00000180: af00 12bd 15f1 503e cc99 15bd 6f69 fdbd
00000190: d82c 6c3d 0088 2cbd e40f 2b3e 9575 493e
000001a0: f8bf 123e 8935 223d 0fcd 18be 3c45 9dbd
000001b0: 7d13 b4bd 36d0 9b3c 6595 a43c e11c 763d
000001c0: 0ab2 87bf 2c1e 3f3e 5659 95be ac78 41bd
000001d0: 9017 be3d 52a6 e63c b06d e8bd 9ea9 173c
000001e0: 6544 9e3d 4219 a9bc 8e31 673d 1154 a3be
000001f0: 9b86 78be c83b 393d fd69 bfbd 16e4 0fbb
00000200: f235 173f 4584 063e 303c 68be 6294 04bf
00000210: 17c1 dcbd 0c52 5a3e c5f3 11be a406 18be
00000220: 0cae d83d 7b06 5ebd 45ed 2dbd 4574 663e
00000230: 92f9 85be 25f8 28bf a5dc f8bd da4c a6be
00000240: c610 a1be 0580 d9bd 47c9 5fbe f1d2 233c
00000250: 8210 4f3e 53ea dfba c5d4 19be 7053 ec3d
00000260: a9b2 d93d 3b47 52be 2e15 483d eefe 973b
00000270: db55 0a3e ec30 f03c b3d5 593e ab50 49be
00000280: c6a5 ddbd b4cd 083e e080 c6be fb39 63bc
00000290: c3c3 703d ce64 303d 7fd6 51bd 5108 603e
000002a0: 7de6 033e 57d3 b43d 8923 06bd 53a9 55bd
000002b0: f7a9 26be 0ccd 3e3e c0dd 2d3d 2634 3bbc
000002c0: 00ba 293e fd3f 103c 1807 2bbe 995b 33be
000002d0: 2a10 803d 4200 45be 262d 83bd 9758 5f3c
000002e0: 7bb0 30be 00c8 9b3d 8e15 f03d 8bb9 abbc
000002f0: b93a 1cbc 1391 6dbd b31f 34bd ff6c 923b
00000300: fbec 6abe 5c91 c53d a29f 083d 3b5b b7bd
00000310: 2cf6 0d3d 2855 bb3d f005 07be 211f acbd
00000320: 457e 74bd 5b76 22bd 27ee 09be 9c74 6fbc
00000330: 8f5d fe3d 2ba5 1bbe cc4a d9be ac99 653d
00000340: 6357 92bd 518a dabd 7251 ff3d d8a9 db3d
00000350: 147f 343e 5962 5abe 865f 06bc f4cd b23d
00000360: a031 9cbd 4d59 77bb 2a8d a83d da24 283e
00000370: 0edd 1fbe f412 c2bd ad3f 78bd 934f 02be
00000380: b1a4 15bf 8d62 b9be 7922 983d baec adbc
00000390: ad8b 9d3d 5877 8d3e 46a7 e6bd 93c5 863e
000003a0: 731d bd3c 9439 43bb f5ca 113c da96 8bbd
000003b0: 5757 9d3e 7136 c1bc 347f 783c 3527 043e
000003c0: dd54 763d 5536 22be ae5e 7a3e ddb0 51bd
000003d0: 76b4 953c 25e1 bbbe aa43 213d 7441 8b3d
000003e0: 5e05 51be 4a63 893c dd1c e03c a483 0a3d
000003f0: 8134 babd 0b30 8b3d 6947 dc3d 9add 07bd
-0.0769221 0.088590376 0.09776278 -0.15701617 -0.07659594 -0.3953784 0.042380895 -0.11183732
-0.2006163 0.08875526 0.1259446 -0.09324476 -0.12820117 -0.1798976 0.04481567 -0.08233104
-0.15772097 0.036636442 -0.098192826 -0.36647046 0.012737346 -0.19516507 -0.07745222 -0.07702307
0.0049130507 0.03882439 0.09747329 -0.11081836 -0.0677222 -0.028800907 -0.29211506 -0.10185056
-0.03580406 0.35518506 -0.21317676 0.112905875 -0.02765229 -0.026470587 -0.060202386 0.11394465
0.18661141 0.1025081 0.11254887 0.09241029 -0.41757244 -0.11213824 0.120061964 -0.063495286
-0.92885053 -0.029038534 0.027485719 0.12593411 0.18386891 0.007812251 0.008920825 0.10524977
0.21169776 -0.10186811 0.020901391 -0.24429359 0.013208697 0.0075241243 -0.07520059 0.04784684
-0.49721184 -0.0018737139 -0.2811629 -0.050944958 -0.13656251 -0.49080455 -0.011562199 0.15990126
0.068311304 -0.4505303 -0.003494939 0.012303464 0.08834398 -0.89935225 -0.04181539 -0.09131296
0.042560462 0.20368306 -0.02504195 -0.6940015 -0.058987975 -0.07718651 -0.07528457 -0.007742404
0.0013266269 -0.063066326 -0.009055559 -0.027853165 -0.106686324 0.043962453 -0.09017131 -0.064258
-0.035645183 0.20404465 -0.036523625 -0.123736255 0.057659954 -0.042121887 0.1670528 0.1967376
0.14331043 0.039601836 -0.14921974 -0.07679221 -0.087927796 0.019020181 0.020090768 0.060086135
-1.0601208 0.18663853 -0.2916972 -0.047234222 0.09281838 0.02815548 -0.11349046 0.0092567485
0.07727889 -0.020641927 0.056443743 -0.31900075 -0.24270098 0.045223027 -0.093463875 -0.0021956018
0.5906669 0.13136394 -0.2267921 -0.51788914 -0.107790165 0.21320361 -0.14253147 -0.14846283
0.10580072 -0.0542054 -0.042462606 0.22505291 -0.2616697 -0.6600364 -0.121514596 -0.32480508
-0.3145811 -0.10620121 -0.21854125 0.009999023 0.20221141 -0.0017083384 -0.15022571 0.11539352
0.1062978 -0.20534985 0.048848324 0.0046385443 0.13509314 0.029320203 0.21272926 -0.19659679
-0.108226344 0.1335972 -0.387702 -0.013868804 0.058780443 0.043064885 -0.05122995 0.21878172
0.12880893 0.088293724 -0.032748733 -0.052163433 -0.16275774 0.18632907 0.042447805 -0.011426007
0.1657486 0.0088043185 -0.16701925 -0.1751541 0.06253083 -0.1923838 -0.06405096 0.013631961
-0.17254822 0.07606506 0.11722861 -0.020962497 -0.009535485 -0.05799968 -0.043975543 0.0044685598
-0.22941963 0.09646866 0.033355363 -0.08952948 0.034658596 0.09147102 -0.13185859 -0.08404375
-0.059690733 -0.039663654 -0.13469754 -0.014615204 0.12420189 -0.15199725 -0.42439878 0.056054756
-0.07145574 -0.10670913 0.12466706 0.107257545 0.17626601 -0.21326579 -0.0082014855 0.08730689
-0.07626653 -0.0037742436 0.0823005 0.16420308 -0.1561167 -0.09476271 -0.0606076 -0.12725668
-0.58454424 -0.36208 0.0742845 -0.021231044 0.07692657 0.27630115 -0.112623736 0.26322612
0.023085332 -0.0029788958 0.008898486 -0.06815882 0.30730698 -0.02358553 0.015167046 0.12905581
0.060139526 -0.15841039 0.2445018 -0.05119406 0.018274527 -0.3669521 0.03937117 0.067995936
-0.20412204 0.016770978 0.027357513 0.03381695 -0.090920456 0.06796273 0.10755808 -0.03317032

conv2.nn.0.bias f4 [64]
00000000: f4a6 233e c110 4e3e a1af fdbd 1e3d ac3e
00000010: 90f7 bf3d cc36 e6bd 3306 423e 53cc 86bd
00000020: a6fb 97bc c514 8ebc 5a5a 1ebe a453 85bc
00000030: e4ff 16be 3f82 13be 0daf b0bd dd79 a3bd
00000040: f0b9 4fbe 34ad 3abf 3c64 5fbe 2ac2 1c3b
00000050: 771b 1cbe 46c8 933d 8b39 a4bd 7251 14be
00000060: be6a 753d 3f8c 283c 37d4 c0bd 1756 cfbd
00000070: 1c7f 813d 0f01 bf3c aeaa 563e d264 85bd
00000080: 8fc8 1bbc 5d34 263e fd78 07be 6423 813e
00000090: ade3 4c3e 34a4 a03e 2c45 133e 1e14 c03d
000000a0: c13c 023c 4331 dcbb 31b2 0dbe e418 493e
000000b0: 9f32 563e 1242 a5be 3822 93bc 4f1d 293e
000000c0: 8579 753e 0250 d93c 029d 2fbd 52d9 303d
000000d0: d496 603d cc9c ccbe c7e6 7dbd 92b6 ccbb
000000e0: cea1 30bc e939 203d e705 25bd 92c5 cc3e
000000f0: 525e b73d 0fa5 2d3d d7f0 d03e 6235 59bc
0.15981656 0.20123579 -0.12387014 0.3364038 0.09373391 -0.112409204 0.18947677 -0.065819405
-0.018552613 -0.017343888 -0.15464154 -0.016275235 -0.14746052 -0.14405154 -0.08627138 -0.07982228
-0.20285773 -0.72920537 -0.2181558 0.0023919442 -0.15244852 0.072159335 -0.08018788 -0.14484194
0.05991625 0.0102873435 -0.09415477 -0.10123842 0.06323072 0.023315934 0.20963547 -0.065133706
-0.009508266 0.16230913 -0.13229747 0.25222313 0.20008726 0.31375277 0.14381856 0.09378837
0.007949055 -0.0067197396 -0.13837506 0.19638401 0.20917748 -0.3227697 -0.017960653 0.16515087
0.23972137 0.026527409 -0.042874344 0.043176003 0.05483134 -0.39963377 -0.061987665 -0.00624735
-0.010780765 0.039117727 -0.040288832 0.39994484 0.08953537 0.04239374 0.40808746 -0.013257356

conv2.nn.2.weight f4 [64, 64]
00000000: 497b 263e 776d 0fbd 1f82 2fbe 1601 28be
00000010: 9699 323f 7c1e ee3b 9c3f 053e d3b7 e13d
00000020: 46c4 ebbd d0b0 6ebd 7da5 c63d 55fd b4bd
00000030: 99d2 bbbd 36c8 af3d 0882 e13b 565d dfbc
00000040: 2556 873c 42ce f2bc 91fb 10be 3a37 8d3d
00000050: 1369 7e3d a251 b7be 1954 c2bd 8eb6 f53b
00000060: 4344 243c cefb dbbd aa28 37bc 7463 d03d
00000070: 43c5 c4bd 8d90 a6bd 718f 1fbe c9da ad3d
00000080: b287 93bc 96e7 b0bc 1f93 2e3d 3104 a5bd
00000090: 758f 84bd 1519 dcba 69fa 07bc 54ba 0d3e
000000a0: 2fe7 bebd 8f36 5d3d 7154 2d3d 385f c3bd
000000b0: b70a 533e c856 d5be 8a1a 73bc 2326 383d
000000c0: d181 b0bd 7791 17be f5ec cebd 4307 163d
000000d0: 87d5 d8bc 752f 753e 0334 e9bc 8bab 463d
000000e0: e3be b73d b377 98bd 6205 c73d 9b52 293e
000000f0: 9230 f53c bd42 3f3d 167e 073f fc6c d13d
00000100: aeac b4bd aa35 553c 9b97 a9b9 13ad 7abe
00000110: d2f9 d33e 9b86 c6bc 5eab cd3d 9809 62bd
00000120: 2ed8 a33c d0b3 433d 07b8 a63d 68da 25bd
00000130: 115d c8bd a905 5d3d c28b 2a3d 9637 8fbd
00000140: d56d 2ebd 9ac5 a43c 2574 b03c 847b 5e3d
00000150: e357 b8bc 530a dfbe 8cbf 82bd 4b4c 55bd
00000160: 583c 23bd dbfa df3d 3221 c83a 23c3 2d3e
00000170: c993 a63d 167d a7bd e2fd fbbd 60f0 f73c
00000180: 9bd0 c2bd cc2e 3f3d 9d51 f4bd 1c72 95bd
00000190: 3d7d 643d c5e9 883d 4c36 4dbb 6632 5c3e
000001a0: cce3 dcbd 4992 2c3d 3001 d83d 1414 6fbd
000001b0: 21cb dd3d 3c9b e4be f846 7b3d 5328 c9bc
000001c0: 310e ab3d 72d1 9b3d 2777 903d be64 653d
000001d0: 3ff3 76bc d98b 823e 9466 24bd a204 e13c
000001e0: 7c04 9b3c 19cb d1bd f9e2 6abd fbb5 9f3d
000001f0: fd85 8dbd 58e1 cebd b883 153f 8398 bcbd
00000200: 6c05 d3ba 49d2 04bd 22da d23d e223 293d
00000210: 7a7b ab3c 2efd 4ebe a9d4 aebd 1e85 38bc
00000220: c5c2 03be d019 85bd dd3a 843d e5e4 803c
00000230: 6477 7bbd 2fc4 c23d e81c c1ba f92c e73d
00000240: 93ba 7dbb 31a9 3fbe 07f7 a3bd 400f 9c3c
00000250: 0ae5 0f3d 8b0d 863e 68e0 823d ead0 013c
00000260: 7597 39bd 06c3 96bd 1ce0 993d 8cab dabd
00000270: 31e7 d7bd e75d 01be 05e0 38bc 6fa1 5cbd
00000280: e9ac 44bd 7ee7 c9bc 3982 66bb 380d aabc
00000290: 435d c83d 4451 54bd 032f 00bd 9818 83bd
000002a0: 28cc 123e 9787 ebbd 7a55 3b3d 04fc 18bc
000002b0: 1746 fabd e9da 9e3d 21ee b6bd 57c1 663e
000002c0: a48d a13d 4648 debd ed78 453c a843 4e3d
000002d0: f0bd f03c b4af 153c 0df7 b3bd de8b abbd
000002e0: 634f 34bd 0d6e 83bd 0670 df3d 09e4 213c
000002f0: 5d71 f5bd 4d54 9f3d 87c9 f43c 8a89 093d
00000300: 2c67 ccbd 4e0d 2d3e 435e 26bd 39b5 93be
00000310: f2d1 d03e cf53 c2bd d30b 013e 74a4 f63c
00000320: 622f d83d f448 b93c f8ce 81bd 6267 f6bd
00000330: 0545 71bd 1cd6 c8bc 69b8 833d c28d b4bd
00000340: f307 063d a081 153c 3e28 01be ee21 93bd
00000350: 1238 743c 09d0 ea3d 4df1 15bc 9b2a c93c
00000360: 9dd8 2fbe 3cd8 5d3d 3b44 a93d 9ae6 cb3d
00000370: 489c e0bd 6f92 3e3d 6f31 c5bc f3e3 b53d
00000380: 46a9 afbc 70aa 1a3d 2d50 413d b3a7 39bc
00000390: 034c 88bc 3f2e 9d3d 5bea 8a3d 19a6 273e
000003a0: c43b ab3d 54be faba 7dc8 cd3d c6c4 30be
000003b0: 26e2 12bc 8e02 f6bd 39ce e53c 7978 2f3e
000003c0: 3bd8 40bd f72c 7abc 0486 8c3d e5cd e8bc
000003d0: bbed f3bc 3ffc 223e 3dbc e5bd f694 cd3c
000003e0: 0ba0 443d 59f5 fabb 79d5 82bd 2729 7ebb
000003f0: b0dd 51bd 7728 f7bd 737e ba3e 5373 2f3d
0.16257967 -0.035016503 -0.17139481 -0.16406664 0.69765604 0.0072668176 0.13012546 0.1102139
-0.115120456 -0.05827409 0.09699533 -0.08837382 -0.09171028 0.08583109 0.006881956 -0.027266186
0.01652057 -0.029639367 -0.14158465 0.06895299 0.062111925 -0.35804468 -0.094886966 0.007498569
0.0100260405 -0.10741387 -0.011179129 0.10175219 -0.09607937 -0.081330396 -0.15582062 0.084889956
-0.01800904 -0.021594804 0.042620774 -0.0805744 -0.06472675 -0.0016792143 -0.0082994485 0.1384061
-0.093214385 0.05400711 0.042316858 -0.09539646 0.20609556 -0.4166777 -0.01483787 0.044958245
-0.086185105 -0.14801584 -0.1010379 0.03662802 -0.026469005 0.23943885 -0.028467184 0.04850344
0.089719556 -0.07444706 0.097178236 0.16535418 0.029930387 0.046694506 0.52926767 0.10225865
-0.088219985 0.013013283 -0.00032347147 -0.24480085 0.41401535 -0.024234107 0.10042451 -0.05518493
0.020000543 0.047778904 0.08140569 -0.04049149 -0.09783376 0.053960476 0.04163719 -0.06993024
-0.042585213 0.020113755 0.021539757 0.054317012 -0.022502845 -0.43562564 -0.06384191 -0.05207471
-0.03985247 0.10936519 0.0015268682 0.1696897 0.081336565 -0.08178155 -0.12304284 0.030265987
-0.095124446 0.04667549 -0.11929629 -0.07297155 0.0557835 0.06685213 -0.003131288 0.215036
-0.10785636 0.042131696 0.105471015 -0.058368757 0.108297594 -0.44649684 0.061346978 -0.02455536
0.08352316 0.07608308 0.070539765 0.05600428 -0.015072643 0.2549732 -0.04013689 0.02746803
0.018923037 -0.10243816 -0.057345364 0.07798382 -0.06910322 -0.10101575 0.5840411 -0.09208777
-0.0016099638 -0.032427106 0.10295512 0.041293986 0.020932902 -0.20213768 -0.085366555 -0.011262206
-0.12867267 -0.06499064 0.0645654 0.015734145 -0.061393157 0.09510075 -0.0014733346 0.11287875
-0.0038715943 -0.18716885 -0.08006101 0.01905024 0.035130538 0.26182207 0.06390458 0.007923344
-0.045310456 -0.073614165 0.075134486 -0.10677251 -0.10542143 -0.12633477 -0.011283879 -0.053864893
-0.048016462 -0.024646517 -0.0035172834 -0.020758256 0.09783413 -0.051835313 -0.031294834 -0.06401175
0.14335692 -0.11500471 0.045735814 -0.009337429 -0.122204 0.077565975 -0.08932138 0.22534691
0.07888344 -0.10853629 0.012052757 0.05035749 0.029387444 0.009136129 -0.087873556 -0.08376287
-0.04402102 -0.06417475 0.10910039 0.009881028 -0.11984513 0.07779751 0.029881252 0.033578433
-0.09980616 0.16899607 -0.04061724 -0.288492 0.40785176 -0.094886415 0.12602167 0.030107714
0.105559126 0.022617795 -0.06338304 -0.120314375 -0.058903713 -0.024516158 0.06431658 -0.08816101
0.032722425 0.009125143 -0.12613007 -0.07184206 0.014905946 0.11465461 -0.009151769 0.024556449
-0.17172475 0.054161295 0.08264967 0.09956093 -0.10967308 0.04652637 -0.024071423 0.088813685
-0.02144302 0.037760198 0.047195602 -0.0113314865 -0.016637808 0.07674836 0.06782981 0.16371955
0.08361009 -0.0019130209 0.10048006 -0.17262563 -0.008965051 -0.12012206 0.028052436 0.171358
-0.047081213 -0.0152695095 0.06861499 -0.02841849 -0.029776445 0.15916537 -0.11217544 0.025095444
0.04800419 -0.0076586423 -0.06388373 -0.0038781853 -0.05123681 -0.12068265 0.36424598 0.04283459

conv2.nn.2.bias f4 [64]
00000000: f096 4cbe f0f3 8bbd 9cea 5c3b 9075 39be
00000010: 6557 293e f718 ecbe dd56 c4bd a160 a4be
00000020: 21a2 173e 5aa8 103e d70d 82bc 61be 043e
00000030: 50e4 203d ab98 f5bc 8d45 06be 0c12 92be
00000040: b777 7f3d 0bdc 53be a144 83be 3e1c a13c
00000050: d6e7 923e 5de1 a03b 4926 af3e 08ae bb3d
00000060: e370 9dbd fc06 253d 9729 b0bd 698e 663d
00000070: 08a8 563e 6671 533d 6358 63be 10a6 353e
00000080: 328f e4bd a266 783d 5bc8 b0bd 7bfd 95be
00000090: 7bd8 183d 0904 9abe 52ac 713c 0cf7 503e
000000a0: c058 c0bd 7e6f ad3d a617 b13d 5138 4bbe
000000b0: e068 943c 0323 67be 55c2 dfbd 7537 bb3b
000000c0: 03cc 0dbe 4969 bb3d 53cf e9bd d47b e7bd
000000d0: 6780 80be 7fa3 df3d c084 003f 1271 81bd
000000e0: 324b 9d3e 4906 0cbe b31f 6fbe 854f a5be
000000f0: 781e 87be c70d 06bd 9013 b9bd a648 60bc
-0.19979453 -0.06833637 0.0033709174 -0.18111253 0.16537245 -0.46112797 -0.0958688 -0.32104972
0.14807941 0.14126721 -0.01587574 0.12963249 0.039280236 -0.029980024 -0.13112469 -0.28529394
0.06237003 -0.20689408 -0.25638297 0.019666787 0.28692502 0.004909678 0.34208897 0.09164053
-0.07687547 0.040289864 -0.08601683 0.056288157 0.20962536 0.051621817 -0.22201686 0.17739129
-0.11160125 0.060644753 -0.08631965 -0.29294953 0.037315827 -0.30081204 0.014750557 0.20406741
-0.09391928 0.08468531 0.08647089 -0.19845702 0.018116415 -0.2257195 -0.10925738 0.005713398
-0.13847356 0.09150941 -0.11416497 -0.11302915 -0.25097963 0.10919856 0.5020256 -0.063203946
0.30721432 -0.13674273 -0.23351936 -0.3228723 -0.26390433 -0.032727983 -0.090369344 -0.013689196

conv2.lin.weight f4 [64, 7]
00000000: 0c40 80bf e071 793f a60f 3e3e a032 09be
00000010: 1722 1b3f 3c9d 513e b01d bb3d 61f6 a83d
00000020: 8e9c edbe 660e 89be ffbf 46be df13 0ebe
00000030: 29ba 62be eb8c 1b3e 2f3e 983e dbb7 b9bf
00000040: 3861 73bf 1f05 d73c 6beb af3e 97d1 1a3e
00000050: f366 94be 0b61 70bf c71e f8bd 113b 2dbf
00000060: c768 52be 63f4 65bf 4574 15bb 8b26 143e
00000070: 5926 9ebe e809 47be 2740 973e ee54 133e
00000080: cba1 5f3e 61f8 ae3e 7349 a33e cba8 e43e
00000090: 0e6f 983f cec5 d03d 0b79 103f a3e0 e6bd
000000a0: 7e38 a8be dbd0 25bf cd8b d23e a75a 00bf
000000b0: 8057 8c3e 6b50 a93e 5230 913c a6e3 57bc
000000c0: 1472 45bb e970 223f 0bcf 5f3f 70ae b43c
000000d0: 30d4 343e abfd d1be d6d5 7c3d d623 2f3b
000000e0: d1c4 10be 334e f53e f15a b63e adc7 303e
000000f0: b81a f3be bb83 65bc 0d17 323d 0605 29bf
00000100: 8cba 2a3f ae4a 93bd 3eca 0f3f 14a3 073f
00000110: 7edd 903d d1b4 2abf 7644 fd3e b0cd 1fbf
00000120: e4b6 01be c06f 1b3e af0a 28be 8c0d a73e
00000130: e025 f4be 92c5 0ebe 9b54 bfbf a458 14be
00000140: ae33 8dbf cef8 27be 4107 123d bda0 cdbd
00000150: c9f3 223f 4f17 9a3f 7042 e9be 8c34 f33e
00000160: 3ea8 a9be 0d3c bf3e 4c44 56be de5c 5fbf
00000170: 12fb 693f 7b75 a03e 5183 223f 6a34 76bc
00000180: ef4f 073f 364d dabe 7395 ecbe 7f91 463f
00000190: 4df4 65be e395 903e b5b2 e43d cc07 8fbd
000001a0: 846d 1f3f fd88 40bf 195d 453e 9e70 e2be
000001b0: a2da b0be 50a8 8cbe 7682 c33e 4c39 e8be
000001c0: 1f94 c8be 1c9e 0fbf f89b d9be 6275 c8bd
000001d0: 0e3f db3e 104f 00bf bccf 573d 1532 e53e
000001e0: 63a3 583e 6be2 6dbe 1d79 e63d dd48 4b3e
000001f0: 43e6 65be de99 0c3f 2886 77be e723 3f3d
00000200: a098 4fbe d08e c7bd 2734 df3e ac34 b2bd
00000210: 1423 0a3f 3d28 da3c 0e0f 9a3f 13a7 7a3e
00000220: b084 1cbf b862 063f 7d3a 603e 3bd4 8f3e
00000230: ef01 2c3c 2087 12bf 13c3 91bc 34c7 233d
00000240: f60f 123f cbdf 1d3c 273b 3b3f d0f4 45bf
00000250: 3128 a43f c4f6 f83e 29a9 46be b38e 0c3e
00000260: 9e62 0b3e 5bde 85be ac1a dc3d 856d 30bf
00000270: c1e9 a33d bc06 1bbe 7f33 953d 5eb1 743e
00000280: 9300 083d 18d3 943d d12b 0e3f faf6 bcbe
00000290: d8e1 b73d 9106 1abe b7fa 34bd 3e90 a03e
000002a0: 8053 dcbe ded6 92bf 7c04 47bf 7c0a a0be
000002b0: b439 a9be 3f58 2dbe 5073 f33d e0d2 74bf
000002c0: fba1 363f 2827 533e 15a3 a63d 417c 8e3e
000002d0: 6fc0 dbbc 5c19 3f3e 609f c53e feda 7e3f
000002e0: bc44 ab3e 0a02 6b3e 8021 b6be b782 f1be
000002f0: 25cc 9bbd c35a 30be 4b1b 28bd 2bb6 82bd
00000300: 1d7f e13c e748 e8be 883b 243e ce0b 9f3c
00000310: 3900 043f cd1f e73c 469f 47bf 460b 23bf
00000320: e554 cebd bbc5 01bf 0fe5 0e3e 1933 abbd
00000330: 7117 8c3e d059 903d b8cc 48bd 5291 acbe
00000340: 6cb9 e93d 1c92 363e dd64 8abf 501d a63f
00000350: 72ae e53d d020 943d f8ac b6bd d48d babe
00000360: 4dff 7c3e 396d 25be db54 713d 8ba9 093f
00000370: 6860 503d 6378 d43e b632 203e 2bde 7ebe
00000380: cf87 4c3d 2e99 673e d172 863c 09c6 da3e
00000390: 7567 903e 2388 ad3e 826e e7bc 5095 3d3f
000003a0: 9e36 603e 4dd3 a03e c563 1dbc 65fd a9be
000003b0: a370 12be 46d2 26be 007a 6bbf e64f 853e
000003c0: 94ef 6ebe b96f 4ebe ee36 4fbf b47e 1f3e
000003d0: 0507 263e dc51 cc3d 0007 9cbe 199c e4bd
000003e0: 7240 113d 0950 8abd fac0 813e f650 73be
000003f0: 990c ce3d 1cd1 373d 5bc9 293d cbd4 233e
-1.0019546 0.97439384 0.18560657 -0.13398218 0.6059889 0.20470136 0.09136522 0.08250118
-0.46408504 -0.26768798 -0.19409178 -0.13874768 -0.22141327 0.15190475 0.29734942 -1.4509233
-0.9507022 0.02624756 0.34359297 0.15119015 -0.28984794 -0.93898076 -0.12115245 -0.67668253
-0.20547782 -0.8982603 -0.0022804898 0.14467828 -0.30888632 -0.19437373 0.29541132 0.14387867
0.21839063 0.34173873 0.31891975 0.4466003 1.1908891 0.10193978 0.56434697 -0.11273315
-0.328556 -0.64771813 0.41122285 -0.50138324 0.27410507 0.33069167 0.017723236 -0.013176834
-0.003012781 0.6345354 0.874253 0.022055835 0.17659068 -0.41013846 0.061727367 0.002672424
-0.1413758 0.47911224 0.35616258 0.1726367 -0.47481322 -0.014008458 0.043479014 -0.6602329
0.666909 -0.071919784 0.5616797 0.5298321 0.07073496 -0.66682154 0.49466294 -0.6242323
-0.12667423 0.15179348 -0.16410325 0.32627523 -0.47685146 -0.13942555 -1.4947695 -0.14486939
-1.1031396 -0.16403505 0.03565145 -0.10040424 0.63653237 1.2038363 -0.455585 0.47501028
-0.3313617 0.37350503 -0.2092449 -0.8725108 0.9139873 0.3133963 0.6348162 -0.015027145
0.52856344 -0.42637032 -0.4620777 0.7756576 -0.22456475 0.28239354 0.11166898 -0.06983909
0.6227648 -0.7520903 0.19273795 -0.44226545 -0.34541804 -0.27472162 0.3818547 -0.45356214
-0.39175507 -0.5610063 -0.42501807 -0.09788014 0.42821544 -0.5012064 0.052688345 0.44764772
0.21156077 -0.23230903 0.11253569 0.19852014 -0.22451119 0.5492228 -0.2417227 0.0466651
-0.20273066 -0.09744036 0.43594477 -0.087014526 0.53959775 0.026630515 1.2035844 0.24477796
-0.61139965 0.5249438 0.21897312 0.28091606 0.010498508 -0.57237434 -0.017793214 0.039984897
0.57055604 0.009635876 0.73137134 -0.7732668 1.2824765 0.48625767 -0.19400467 0.1372631
0.13611838 -0.26146206 0.10747275 -0.68917114 0.080035694 -0.15139288 0.07285213 0.23895785
0.033203673 0.072668254 0.5553561 -0.36907178 0.08978623 -0.15041567 -0.044184413 0.31360048
-0.43032455 -1.1471822 -0.7774122 -0.31258 -0.33051836 -0.16928194 0.118872285 -0.9563427
0.7134091 0.20620406 0.08136574 0.27829173 -0.026825158 0.18662018 0.38598156 0.99552906
0.33450878 0.22949997 -0.35572433 -0.4717004 -0.07607297 -0.17222123 -0.041041654 -0.06382402
0.027526433 -0.4536812 0.16038334 0.019414809 0.5156284 0.028213406 -0.77977407 -0.63689077
-0.10074786 -0.5069234 0.13954566 -0.083593555 0.27361634 0.070483804 -0.04902336 -0.3370462
0.114123195 0.17829174 -1.0812031 1.2977695 0.112149134 0.07232821 -0.0891971 -0.3643633
0.24706765 -0.16154946 0.058918815 0.5377433 0.05087319 0.41498098 0.15644345 -0.24889438
0.049934205 0.22617027 0.01641217 0.42729214 0.2820393 0.33892927 -0.028250936 0.7405596
0.21895835 0.3141121 -0.009606306 -0.33201137 -0.1430078 -0.1629115 -0.9198303 0.2603752
-0.2333358 -0.20159806 -0.8094319 0.15575677 0.16213615 0.09976551 -0.3047409 -0.11162586
0.03546185 -0.06753547 0.25342542 -0.23761353 0.100609966 0.044877157 0.041451793 0.15999143

conv2.lin.bias f4 [64]
00000000: a7d7 c8be 6e6e 613e cba1 a23c 8f97 ae3d
00000010: 80dc 533d 34a2 d5bd b61f 843d 18a6 c6bb
00000020: ea68 6e3d e512 4e3d 64de 813d 5631 433e
00000030: 8e19 11be 071f 6abe 4f3a 8abe c185 643e
00000040: 8c23 31be e1e7 9ebe f497 b3be 728d ebbd
00000050: 0543 d4be 1ada 8b3d c407 ff3d fc66 09bd
00000060: 31f4 fd3d b6e7 3dbe a7a5 6e3d 3550 853d
00000070: 92a9 3dbd e10a 44bd dd07 323e af51 04bd
00000080: 4d8c 90be ad4c 00be 83b0 f53d 8ecb 1a3e
00000090: 3662 4c3e 91a9 963d 0abf 4f3e c6d0 e83c
000000a0: 4d85 c23e d262 9b3e fd36 db3d ef66 9cbe
000000b0: 7cde 91be 721d 2c3e 085f 0dbd b516 5cbe
000000c0: a0e1 b1bc fa93 7b3e 2ccc 1fbe 93a3 5abe
000000d0: 5083 053e 6ff6 2f3e 0722 30be 52d3 b0bc
000000e0: 8298 2d3e ca74 11bd b7fa d9be c314 e0bc
000000f0: 1893 35be 7a53 33bd d52a 2abe 58ab 54bd
-0.3922703 0.22014782 0.01985254 0.08525001 0.051723957 -0.104313284 0.06451361 -0.0060622804
0.058205523 0.050310988 0.06341246 0.19061789 -0.14169905 -0.22863398 -0.2699761 0.22316648
-0.17298716 -0.31036285 -0.3507687 -0.11501588 -0.41457382 0.06828709 0.12452653 -0.03354548
0.124000914 -0.18545422 0.058263447 0.06509439 -0.046304293 -0.047861937 0.17385812 -0.032304462
-0.2823204 -0.1252925 0.119965576 0.15116712 0.1995934 0.07356561 0.2028772 0.028419863
0.37992325 0.3034883 0.107038476 -0.30547282 -0.28490055 0.16808107 -0.034514457 -0.21493037
-0.021714032 0.24568167 -0.15605229 -0.21351461 0.13038373 0.1718385 -0.1720048 -0.02158514
0.16952708 -0.03551177 -0.42574093 -0.02735365 -0.17731893 -0.04378078 -0.16617902 -0.05192122
