checkpoints/D/model_D_epoch_40.pth (torch, 78688 bytes, 15 tensors)

node_embedding.weight f4 [1, 64]
00000000: 3f13 6e3e c0a8 c3bd 457b a7be b157 43bf
00000010: 7fdd c03f 85d1 c1bf 588e a1bd a653 8a3f
00000020: ea44 adbe 1693 8d3f e800 6f3f 48fc 26bf
00000030: 6126 9d3f 8ba7 c1bf 6134 dbbf 5e03 afbd
00000040: 1bd5 ff3f 5344 303f 2f40 be3f 24c3 f4bf
00000050: 1c21 963f 43ac 74be bec2 3bbf 3ef6 d3be
00000060: f50c 56bf 6dd3 debe a72c a5bf 93d6 4e3f
00000070: 4e7f d73f 0877 0c3f 91d1 253f 1a05 08bf
00000080: fdbe 803f 8c85 2ac0 207e 20be 597d fd3f
00000090: 739b e33f b29d ae3f 0aaa 98bf 4909 243e
000000a0: cef5 fb3e 9d9c 0840 2639 76bf 0257 b7bf
000000b0: 4141 6a3d 4366 8e3e 8bef ae3e 6486 6a3f
000000c0: b9f0 5f3f af3f 38bf 1d74 6340 2ba8 1ebf
000000d0: 297e 93be 4b35 d63f d793 4ebf 3a6c 603f
000000e0: 6ac2 ad3e 8951 8abf b45f d4bc dc70 2fbe
000000f0: a9f3 55bf a536 963f f90d c83f 2e09 ce3f
0.2324953 -0.09553671 -0.32711235 -0.7630568 1.5067595 -1.5142065 -0.07888478 1.0806777
-0.3384164 1.1060512 0.9336076 -0.652287 1.2277337 -1.5129255 -1.712536 -0.08545564
1.998691 0.68854254 1.4863337 -1.9122052 1.1728854 -0.23893838 -0.7334403 -0.41398805
-0.8361352 -0.4352068 -1.2904252 0.80796164 1.6835725 0.5486913 0.647729 -0.53132784
1.0058285 -2.664401 -0.15673113 1.9803878 1.7781814 1.3641875 -1.1926892 0.16019167
0.49210972 2.134559 -0.9618095 -1.4323428 0.057191137 0.27812394 0.34167132 0.91611314
0.8747669 -0.71972173 3.553962 -0.61975354 -0.2880719 1.6735014 -0.80694336 0.8766514
0.3393739 -1.0806133 -0.025924541 -0.17132896 -0.8357492 1.1735426 1.5629264 1.6096551

conv1.nn.0.weight f4 [64, 64]
00000000: c251 e8bb e257 8c3d 71dd c9bc ce76 313e
00000010: 4980 b4bd 9a77 273e a491 d5bd 18fb debc
00000020: e7f0 24be d57f e6bd 6cc5 8f3c 8f69 f33d
00000030: b5a0 9b3d 5cee a23d c44b ed39 e2fd 0b3e
00000040: 1e9d a9bd 37f1 49bd e14a c33d 3ca2 b93d
00000050: e7c9 b5bc d2c2 dc3d b0ad 213d 22db 38bf
00000060: 0732 c73d 6387 3dbf 1fd4 58bd 6f1e 693c
00000070: 9806 db3c da95 4b3d 4c1c 1abd 7a73 f83d
00000080: 21bd 4bbd 623f c93a 87b1 983d cbfc 533d
00000090: 4002 bf3d fd68 0b3d d0d4 27bd a544 3abe
000000a0: 2ced 143d 072d a1bd 6a91 f6bc b7b7 f93d
000000b0: 2a2d cd3d f76d 77be a5b9 1abe 8956 0b3e
000000c0: 2180 463d 0abe de3d 583e a23d d79b bc3d
000000d0: d6db 5a3d 8514 823c 2df4 53bd 8eba 933c
000000e0: f376 f03d dace aa3d 0d36 26be 10d2 5e3c
000000f0: d04c b3be 9320 c6bc 6f4e a23d 3ccf 46bd
00000100: 3c3a 573d 10df eebd e09f 28bd 8053 cebb
00000110: 8adb b93d a096 2ebc 885c 523d c809 0f3d
00000120: f8cd ccbd 002d 48bb 302c 54bc 40c1 933b
00000130: 2cda f7bd 0eb5 fcbd 247c 1bbd 88f1 c83c
00000140: e2a5 80bd 1c1c 323d 28a4 e7bd c421 36bd
00000150: 946c f7bd 4690 ce3d 0e59 b6bd 146e c1bd
00000160: f44e 6f3d 8c2d 73bd 9880 d13c c0a5 2ebd
00000170: b4ac 45bd 3868 29bd a6f5 f53d a079 edbc
00000180: 80b5 b93c ae55 acbd 62a8 8cbd 3c12 4bbd
00000190: dac9 f2bd 1895 f8bd 1636 fdbd 6c2e 003d
000001a0: 6c09 b6bd 00c8 1cbb d8bd 933c d0f6 35bd
000001b0: d625 eb3d d272 8b3d 90d7 ba3d cc83 fdbd
000001c0: c0d8 2bbb 0019 eb3d 8825 5fbd 445e 1e3d
000001d0: fab0 d0bd 8003 2abc 9091 01bc a072 b5bb
000001e0: 1eeb fabd 6071 9bbc 680d a33d 7c1d 303d
000001f0: 92b9 c43d ec00 18bd 0072 9a3a a828 a13d
00000200: 5a5f 0ebd d431 b2bb 62d6 08be 7399 fabb
00000210: 1dde 993d fafe 0d3e b088 773c 303a bbbd
00000220: 2f07 9d3d 8d83 9b3c 86f4 02be 9890 7d3c
00000230: 4111 b7bd cf34 da3b 0e63 13bd d1b3 af3d
00000240: 0c3d 2cbd e85a 803b 1f42 f9bd e34c c9bc
00000250: 4ec5 a6bd 5d0a 673c 2eed a4bd cf64 8cbd
00000260: c9a8 cdbd c50e a03c 5193 773d 91a0 07be
00000270: 2bf1 4cbd 201a 02be 4f7a 15be 6df3 c6ba
00000280: e5da a3bd 857b 4cbb ddb7 9f3d f83e 683d
00000290: f2ba ea3b 8923 bfbd 123d 403d 416f 93bb
000002a0: 72b1 c83d 1f52 313c 6be2 be3b cd1e 3dbd
000002b0: 8783 1cbd 80ac 15bd 240f 07be 7a50 8fbd
000002c0: cbcc c13c 14cb 1f3d a0e9 d7ba 669d 893d
000002d0: 2484 bf3d 89c4 41bd 6dd2 c93d 564d 92bc
000002e0: f258 a0bd 8b96 a53d 915c ba3d 02c7 773d
000002f0: 34e3 753d 20ba 06bc 3509 9fbd 32b0 91ba
00000300: f825 17bd 98b8 06bd 7cb2 a1bd 1ace ce3d
00000310: 28ec b7bd 40b0 dc3d 70df 0bbd 9ab6 ec3d
00000320: 08c7 97bc 0626 fd3d 767e ffbd 0050 29b8
00000330: a260 f3bd 9c19 79bd 0003 86bb f0ab b33d
00000340: 0086 50bd 725f dc3d 3803 c63c 80df 10bb
00000350: 82f8 fe3d 82bb 98bd 585c c8bc 4087 9f3d
00000360: 9468 b7bd 4c6d f4bd cac5 c43d faea cdbd
00000370: e054 073c 58d0 e53d f89e 953d d830 2a3d
00000380: 10a3 ba3c 84ac 3abd 989b 96bc 880d ecbd
00000390: e0c4 da3b f486 8a3d 5e95 b33d ee53 9dbd
000003a0: a009 58bd a07b acbc a0ec 923c b022 493d
000003b0: 00dc cabb b066 d4bc a241 f7bd bc38 e0bd
000003c0: c01d 37bd d038 25bd 80aa 08bd bc3b 293d
000003d0: 28a2 ecbd 3851 993d 5cb6 7bbd 38f9 7dbd
000003e0: f84c 953d ec6f 213d d838 76bd 4091 7dbb
000003f0: e0d8 70bc c027 f2bb 88ad 4fbd 20aa c43b
-0.0070898244 0.068527 -0.024641724 0.17330477 -0.08813531 0.16354218 -0.10428169 -0.02721934
-0.16107522 -0.11254851 0.017550193 0.11885368 0.07599012 0.0795562 0.00045260612 0.13671067
-0.08281921 -0.049302306 0.095357664 0.09064147 -0.022191001 0.107793465 0.039472282 -0.7220937
0.09726339 -0.7403471 -0.05293667 0.014228447 0.026736543 0.049703456 -0.037624642 0.121314004
-0.049740914 0.0015353973 0.07455736 0.051754754 0.09326601 0.03403567 -0.04097444 -0.18190248
0.036358997 -0.078699164 -0.030098636 0.12193244 0.1001838 -0.24163042 -0.1510988 0.1360723
0.048462037 0.10876091 0.079220474 0.092094116 0.05343231 0.015878925 -0.051746536 0.018033292
0.11741438 0.08340235 -0.16231556 0.0135998875 -0.3501954 -0.024185454 0.07925116 -0.048537478
0.05254577 -0.116636395 -0.041168094 -0.006296575 0.09075077 -0.010656029 0.051357776 0.034921438
-0.10000223 -0.00305444 -0.012949988 0.004509121 -0.1210216 -0.12339221 -0.037960187 0.024529234
-0.0628164 0.04348384 -0.11310607 -0.044465795 -0.120812565 0.10086112 -0.089037046 -0.09444824
0.058424905 -0.05936961 0.025574014 -0.04263854 -0.048260406 -0.041359156 0.12009744 -0.02898866
0.022669554 -0.084147796 -0.06868054 -0.049577937 -0.118549064 -0.121378124 -0.12363832 0.03129427
-0.08888516 -0.002392292 0.01803486 -0.044424832 0.11481826 0.068090096 0.091231465 -0.12378654
-0.0026221722 0.11479378 -0.054479152 0.038664117 -0.101900056 -0.010376811 -0.00790824 -0.005537346
-0.12251876 -0.01897496 0.079615414 0.04299687 0.09605707 -0.037110254 0.0011783242 0.07869083
-0.034758903 -0.005438069 -0.1336303 -0.007647687 0.07513068 0.13866797 0.015108272 -0.09141958
0.07667386 0.018983627 -0.12788591 0.015476368 -0.08938838 0.0066591273 -0.035983138 0.08579219
-0.042050406 0.003917087 -0.12170815 -0.024572795 -0.08143102 0.014101592 -0.08053051 -0.06855165
-0.10041959 0.019538293 0.060443226 -0.13244845 -0.050034683 -0.12705278 -0.14597438 -0.0015178748
-0.08000735 -0.0031201553 0.07798741 0.056700677 0.007163399 -0.0933295 0.04693324 -0.0044993465
0.0979947 0.010822802 0.005825331 -0.046171952 -0.03821137 -0.036541462 -0.1318937 -0.069977716
0.023657223 0.03901203 -0.0016472824 0.067194745 0.09351376 -0.04730657 0.09854589 -0.017859142
-0.07829465 0.080853544 0.09099687 0.060492523 0.06003113 -0.008223087 -0.07765428 -0.0011115132
-0.036901444 -0.032890886 -0.07895371 0.100979045 -0.0898059 0.107758045 -0.034148633 0.11558266
-0.018527523 0.12360768 -0.124752924 -4.0367246e-05 -0.118836656 -0.06081544 -0.004089713 0.08773029
-0.050909042 0.10760392 0.024171457 -0.0022105873 0.12449743 -0.07457639 -0.024458095 0.07789469
-0.089554936 -0.11934909 0.09608038 -0.10054584 0.008259982 0.11221379 0.073057115 0.041550487
0.022782832 -0.04557468 -0.01838474 -0.115260184 0.0066763014 0.067640215 0.08768724 -0.07682024
-0.052743554 -0.021055043 0.017935097 0.049105346 -0.006190777 -0.025927871 -0.12073065 -0.10948321
-0.044706106 -0.040337384 -0.033365726 0.041316733 -0.11554366 0.07486194 -0.06145321 -0.06200525
0.07290071 0.039413378 -0.060112804 -0.0038691312 -0.0147001445 -0.0073899925 -0.0507026 0.006001726

conv1.nn.0.bias f4 [64]
00000000: 52a2 c7bd 0429 d93d 8c8e 6b3c 2c9b 773d
00000010: 1c35 a53d bd2b fdbd e950 3e3e 84c9 7d3d
00000020: 8358 29be e410 29be 838f 843d d262 223d
00000030: b858 c2bc b647 25bd 105e a6bd 2f66 b63d
00000040: cc57 403d c5b4 19be fddd 2ebd a43e 833d
00000050: 70ab 1b3c dd27 1b3d 6792 c43d 3d33 3d3c
00000060: 38d9 f4bd 3f8e eb3c 501d 753d 5724 25bd
00000070: b42f f73d f69b b9bd f270 f9bd 5658 fc3d
00000080: 1beb d3bd 2dfe cc3d e439 07bd f0b5 c23c
00000090: 5fbc 813d 2c05 d83d e08b 9f3c d660 8f3c
000000a0: 93ce 363e 2cfc ea3d a0e4 823c cd85 23bd
000000b0: c605 babd 6b2a 5abd 7585 933d ab7a bc3c
000000c0: d8aa 22bd b350 913c 03d0 87bd 1267 a9bd
000000d0: 0000 ebb7 a838 afbc 1c1c d83d 43da c73d
000000e0: 3ed6 cbbd aee0 6dbc 77ff bb3d d039 393d
000000f0: 20e2 17bd dc83 363e 87e7 14bd 429f e0bb
-0.09747757 0.10603526 0.014377248 0.060450718 0.080667704 -0.12361858 0.18585552 0.06195976
-0.16537671 -0.1651035 0.06472685 0.039645024 -0.023723945 -0.040351592 -0.0812341 0.08906209
0.04695873 -0.15010364 -0.042692173 0.06408432 0.009501323 0.037879813 0.095982365 0.011547861
-0.11955494 0.028754352 0.059842408 -0.04031786 0.120696455 -0.0906295 -0.12179746 0.12321536
-0.10347577 0.10009418 -0.033014193 0.023768395 0.06334757 0.105478615 0.019475877 0.01750223
0.1785224 0.11473879 0.015978158 -0.039922524 -0.090831324 -0.05326311 0.07203189 0.023007711
-0.03971371 0.017738676 -0.06631472 -0.08271612 -2.8014183e-05 -0.02138932 0.105522364 0.09758427
-0.09952973 -0.0145189 0.091795854 0.04522115 -0.037080884 0.17823738 -0.036353614 -0.0068549225

conv1.nn.2.weight f4 [64, 64]
00000000: 4685 36bb 2078 223c fc7b 463d 880c dcbd
00000010: 191d 18bd cc67 43bd aa89 3b3d 044a 4ebd
00000020: e9ff b93b f13a 873d cafc 853d 0b10 a93d
00000030: 08cb 813d 6ac7 c8bd 5af2 903d de82 8f3d
00000040: ea58 843d 6678 893c 054d 23bd 1b90 643d
00000050: ba07 fabd 8bcc 173c c26f f4bc 40d1 06bd
00000060: 5e46 ef3c 6387 033e d49b cc3d 945a babd
00000070: fc88 2ebd 133a a53d e3f5 513d 5818 c5bc
00000080: 3e0b 8dbd bc84 03bd 4312 85bd 0e75 9a3d
00000090: d44f fabd ffa2 003e f8ce d13d d44b 29bd
000000a0: fc0f cb3d 3467 963d d8a5 563d 9cf3 a5bd
000000b0: 78b2 d53c c9d9 cc3d 0c77 263d f831 1f3d
000000c0: 58f5 f33c 49e4 d5bc fffc 42bd 408b c2bd
000000d0: 484f b63d 004f ebba 2da8 313d 2510 303c
000000e0: acfc 053d 4110 b6bd 278a 903c 7a06 a5bd
000000f0: c4df a5bd cdc8 063e 3c57 143d 5218 81bd
00000100: 1f9b 8fbd d811 be3d faea 0bbc 0ebd a5bd
00000110: 1a3f 183d 7838 973d 5b7e 123e bc92 a0bd
00000120: b15b e43d 1639 96bd 7e0e 7abd b3b5 973d
00000130: e8f5 eb3d 3654 7fbc 7220 0bbc fa52 943d
00000140: 3f6f 023e 4348 5f3d 6cce ae3c 8297 e23d
00000150: 1026 383c 03b5 4a3d 250b ff3c 7639 6dbd
00000160: 5f2e 4c3d 4f16 d23d 08b2 f5bd a1c5 9e3d
00000170: c8d9 3abd 947c 10be 931d bebd e0d2 5d3c
00000180: 0ce9 873d 1bb0 1e3d 22a3 ce3d 6f86 21bd
00000190: 7e3e bcbc 4f0a 4e3d 40e5 f03d 6f33 67bc
000001a0: fd73 4cbd 28ef ac3c cc6e 5dbd 7d6e ebbc
000001b0: c887 0d3d 91e7 9ebd b095 14bd 7cb1 e5bc
000001c0: a0ba f2bb 37d8 e7bb 46cc c6bd f42e bdbd
000001d0: c031 c5bb 18d2 d7bc e6f6 8abd d86d b13c
000001e0: 405d 8abd 8f93 1f3d ef3d d33d 1ecb 9b3d
000001f0: 6809 a43d 44b7 693d 8159 b8bd 9c2b 0b3d
00000200: d601 6cbe e816 d13c 5c0e dfb9 00aa 623c
00000210: 56bf cabb 5ede 35be 4e83 8f3d 60d5 08bd
00000220: d286 ddbd a019 64be 5036 42bd fa98 f43d
00000230: d29d 85bd 0b65 253d 5027 28be 6094 ed3b
00000240: 465b 80bd 550f 51be d84c 1e3d c446 5bbe
00000250: 90bf acbc 3f19 14bd 2685 8d3d 0bb9 7ebe
00000260: 4102 66bd 226f bdbd a420 c6bd 89e9 cd3d
00000270: 0051 5b3c 8e71 73be e0a3 00be ee63 013e
00000280: 6fda 96bd fce5 b2bb 9d60 6b3d 222d 1e3d
00000290: 12e7 0d3e 0c70 a23d 286a fdbc b465 e23d
000002a0: f1af 8f3d 3cc5 d03d f045 c83c 54e4 3f3d
000002b0: f0ac 44bd c9ad 3fbe 4cb0 f33d 04da 413d
000002c0: a014 5dbc d386 943d 32e8 93be b642 fd3d
000002d0: 9cc4 413d d6e9 f23d 9949 553d cb04 23bb
000002e0: fcd4 163d 18ea 543d 9215 debd ea6f b33d
000002f0: e5d3 103e 7f59 113d 98f8 483d bcb5 6b3d
00000300: 59ac 033d f63b a83d 506f c439 6ef6 d7bd
00000310: 5a93 023e 5554 ab3c 3297 833d 0027 0fba
00000320: 8370 dfbc 75c1 38bd f8f4 da3d 41de 63bd
00000330: 94cf 873d 0e1c 29be c65e 0e3e 1d93 debc
00000340: eead e9bd ba63 4d3d 0573 bbbd dd4e f8bd
00000350: 406a 7cbd 71aa 213c b365 8b3d 156f 11bd
00000360: d15f c4bd 657a 633c bc6f b73d 2024 fa3d
00000370: 6cc7 eabd a94f b4bd f396 143d 04da e7bd
00000380: 337a fcbd 1565 3a3d 7ca1 e53c 5cc2 ca3d
00000390: 084f 163e 3f53 773d 8c09 0abd c155 ef3d
000003a0: accc a93d 8c28 0e3d 14a4 cabd 11e9 adbc
000003b0: 4cf3 263d 75ec 0f3e ff33 7abd f272 ad3d
000003c0: fcdd 07bd 2058 2a3d 60c8 11be 8806 e2bd
000003d0: 24ea 2cbd 70bc 59bc abd4 263e 932f d83d
000003e0: dc1c 95bd 3ecc 363d 76ab 073e d8db 933c
000003f0: e0ac eb3d 1ed7 683d 62b2 1dbd 5af8 4abd
-0.0027850433 0.009916335 0.048458084 -0.10744578 -0.037137125 -0.04770641 0.045785584 -0.050363556
0.005676259 0.06603039 0.06542356 0.08255013 0.06337553 -0.0980366 0.07077475 0.07007383
0.064622715 0.016781043 -0.039868373 0.055801492 -0.12208505 0.009265075 -0.029838447 -0.0329144
0.029208358 0.12844615 0.09990659 -0.09099308 -0.042611107 0.080677174 0.051259886 -0.02405946
-0.0688691 -0.032109007 -0.06497624 0.07541858 -0.12222257 0.12562178 0.10244554 -0.04133208
0.09915158 0.07343903 0.052404255 -0.081031054 0.026086077 0.10002477 0.040640876 0.038866013
0.029780075 -0.026109831 -0.047604557 -0.09499216 0.089018404 -0.0017952621 0.043373276 0.010746037
0.03271167 -0.08889819 0.017644001 -0.08057876 -0.080993205 0.13162537 0.036216006 -0.06303467
-0.07012009 0.09280747 -0.0085399095 -0.080927 0.037169553 0.073838174 0.14306013 -0.07840487
0.11150301 -0.07335107 -0.061048977 0.07407703 0.11521512 -0.015584042 -0.008491622 0.07242389
0.1273775 0.054512274 0.021338664 0.11064054 0.011239544 0.049489032 0.031133244 -0.057916127
0.04984891 0.10258161 -0.119968474 0.077525385 -0.04561785 -0.14110023 -0.092829846 0.013539046
0.06636247 0.038742166 0.10089709 -0.039434846 -0.022979017 0.0503028 0.11762476 -0.014111384
-0.049915303 0.021110132 -0.054060742 -0.028739208 0.03455332 -0.077590115 -0.036275566 -0.028038733
-0.0074075013 -0.0070753354 -0.09706931 -0.09237471 -0.0060178936 -0.026345298 -0.067853734 0.021658823
-0.06756067 0.038959082 0.10314547 0.07607101 0.080096066 0.05705954 -0.090014465 0.033977136
-0.23047575 0.025523618 -0.00042544573 0.0138344765 -0.00618736 -0.17760608 0.07007466 -0.033406615
-0.108167306 -0.222754 -0.047415078 0.119432405 -0.065242425 0.040379565 -0.16421247 0.0072503537
-0.06267409 -0.20416005 0.038647503 -0.21413714 -0.021087438 -0.03615689 0.06910162 -0.24875276
-0.056154493 -0.092497125 -0.096741945 0.10054309 0.013386011 -0.23773786 -0.12562513 0.12635776
-0.07365882 -0.005459545 0.057465184 0.03861726 0.13857678 0.079315275 -0.030934408 0.110545546
0.0701598 0.101938695 0.024447411 0.04684861 -0.04801649 -0.18718638 0.1189886 0.047327057
-0.013493687 0.07252278 -0.28888088 0.1236624 0.047306642 0.11861007 0.05207214 -0.0024874683
0.03682421 0.05198106 -0.10843958 0.0876158 0.14143331 0.03548574 0.049065202 0.057546362
0.032146785 0.08214562 0.00037466967 -0.105450496 0.12751523 0.020914236 0.064253226 -0.00054608285
-0.02727533 -0.04510637 0.10691255 -0.05563188 0.06631389 -0.16514608 0.1390334 -0.027169758
-0.114101276 0.050143935 -0.091527976 -0.12124417 -0.061624765 0.009867297 0.06806507 -0.035506327
-0.09588588 0.013884162 0.089568585 0.122139215 -0.11463818 -0.088042565 0.03627677 -0.1132088
-0.12327995 0.045506556 0.028031103 0.09900352 0.14678586 0.060382124 -0.03370051 0.11686278
0.08290991 0.034706637 -0.09894577 -0.021229299 0.04075937 0.14055045 -0.061084744 0.0846919
-0.033170685 0.04158795 -0.14236593 -0.11036402 -0.04221548 -0.013289556 0.16292064 0.10555949
-0.07280895 0.044628374 0.13249001 0.018049166 0.11507583 0.056845777 -0.038500197 -0.049553253

conv1.nn.2.bias f4 [64]
00000000: 87ab b63c 7059 ce3d 07b7 93bc a267 693e
00000010: 6d58 b83d 36e6 aabd 043d 6d3d 3521 e6bd
00000020: cc4d ba3d 7226 e8bc fdde f63d d298 503e
00000030: 2740 ee3b 90ef 15bd 9cc3 b33e 5caa 93bd
00000040: 3b67 943d 38b1 423d 66a9 053c 49a2 dfbc
00000050: cf09 82bd 0e07 88bd 23fd 23be f7bf e03d
00000060: 55b8 d0bb 88b1 2dbe 2137 cabc d2ef b4bb
00000070: 2665 01be f8ca b33d f97c 09be b9f2 3c3b
00000080: d7c9 36be d298 113e 7586 9a3e 3aab 82bd
00000090: 5429 13be 4251 96bd cd24 163e fcd1 783e
000000a0: 55ef 9cbd fe26 293d 0a00 6bbd 3689 cd3d
000000b0: 7055 84bc 7e59 a83c 4fb5 e9bd a946 4abd
000000c0: c293 a73d 784f 93bd 2d63 b7bd ec64 a93c
000000d0: 4668 c8bd e09b 93bc 9937 06be e5da 8c3c
000000e0: d29c 2dbe 9521 e93d 459a 693d b8f4 3fbe
000000f0: 55e5 e43d cfe3 c83c afe0 64bd f94c 49be
0.022298587 0.100756526 -0.01803161 0.22793439 0.09001241 -0.083446905 0.057919517 -0.112368025
0.0909687 -0.028338645 0.120542504 0.20370796 0.007270831 -0.036605418 0.35110176 -0.07210228
0.07246252 0.04753229 0.0081580635 -0.027299063 -0.06349527 -0.066419706 -0.16014533 0.109741144
-0.0063696303 -0.16962254 -0.02468449 -0.005521753 -0.12636241 0.087789476 -0.1342658 0.0028831197
-0.17850433 0.14218453 0.30180708 -0.06380315 -0.14371234 -0.073397174 0.14662476 0.24298853
-0.076628365 0.04129695 -0.057373084 0.100359365 -0.016154021 0.020550486 -0.11411535 -0.049383793
0.081824794 -0.07192892 -0.08954463 0.020678006 -0.097855136 -0.018018663 -0.13107146 0.01719422
-0.16954353 0.113833584 0.05703189 -0.18745697 0.11176554 0.02452269 -0.055878337 -0.19658269

conv1.lin.weight f4 [64, 7]
00000000: 021b e9be b162 633f e19d 9e3e d404 8bba
00000010: 2b84 7a3e d8b6 fbbe c128 b73e 5f1f 01bf
00000020: c607 403e d88a 6cbe 3327 92bd 1786 0dbf
00000030: 58e9 903e f484 ddbc 366b 24bf 7da7 8d3f
00000040: d55a 083f a45d d7bb d95e 90be fac8 073f
00000050: 471c af3e 6c41 d43d 2b34 95bd b054 453e
00000060: 0a94 0abe ecd6 a4be 3828 44be cfb5 8dbe
00000070: 5b8c 883e f4bc 1c3f a4f2 233e c6a1 95be
00000080: 7101 b93e e5cd 233e 5c9c f3be 7506 823d
00000090: 4aa3 a03d 8e45 b8bd 8743 cdbd 9ea8 8fbe
000000a0: 3b10 70be d18d b9bc b6b5 08be 3e5a cf3e
000000b0: 2991 cabe 4298 9a3d 5bcb 99bc 7731 c43d
000000c0: ed0f ec3e e3aa 2fbe fab8 8abe e881 a4be
000000d0: 26ec 7d3d 7b72 af3d 9e9d c9be 10bb 5b3e
000000e0: fb75 013f 7b4c c53f 6add 933e 370c de3e
000000f0: de52 5fbe 280a f43e bf5e a6be 344f 003f
00000100: deff d9be f673 60be 01fb 5bbe 2292 08bd
00000110: 9fa4 91be 8373 a4be 4066 413e 1c37 0fbe
00000120: 1bd4 163f 333e adbd c28f c63e a76e b2be
00000130: 31a4 cabd fb24 1bbe c495 a9be 84f3 c0bd
00000140: 4a33 96be 6b9f cd3d 3249 ce3c f1f7 27be
00000150: 8194 25be 9f43 4dbe db88 b63e 00bc eabe
00000160: 07d8 9b3e fb94 c7be ff7d 4d3c 6606 983e
00000170: 18b3 0b3e 5e81 0c3e 639f 933e dcb5 c1bd
00000180: 9f40 3dbc 4b9d 5e3c d2cf d63d ddd0 d73c
00000190: 3ef8 e23d e14e 643e 4dde 2abe a81a 3fbe
000001a0: f989 78bc b465 f1be 1a18 0e3f e88d a83e
000001b0: 8289 d93e 4bbd 44bd 24a8 743c 09f9 823d
000001c0: 4e69 b7be 3738 27be a929 163e 5273 8bbe
000001d0: 07ee 9fbe 3349 94be ea8f f23c ac9d 0a3e
000001e0: 2a38 2ebe cc9b c5be 8d46 f8bc 21c5 98be
000001f0: 58de e53d bce7 2cbc b65b 323d eb9f 23bf
00000200: 45a5 89be 2afb 513e 8c85 d13d 1652 46be
00000210: 2ce5 06bd a887 a5be 41c9 553a 614b 183e
00000220: a97f 613e ad87 0fbe 8618 63be ea48 ac3e
00000230: 7af9 2cbe fdda a7be d8af f9bc da82 b9bd
00000240: 7c03 92be bcfd a8be 4936 de3d ebde 9dbe
00000250: 3ca0 353f 0a77 103f 690c bbbe 07c1 8c3e
00000260: 3930 843e 9622 cbbc 83cd a43e 0b50 30bd
00000270: 35a2 76ba c629 933e 6df5 b73e 8106 0ebe
00000280: 085a aebe f44a 653f 4de5 143f 5737 86be
00000290: c4e8 0e3e d77a fd3d 5d02 32bf 714c dcbd
000002a0: 8402 6d3d a6d6 423e cf88 eebd 4912 443d
000002b0: cf6e 7a3d e242 493e 6905 0d3e 2ced abbb
000002c0: 5c0c 523d 576f 6f3b 68be 443d 33a5 9c3e
000002d0: ba30 2f3d 455b 363f 9261 983d e826 4cbe
000002e0: f96a 9d3d aeaf 0bbe bfbc 68be 540e 533e
000002f0: ca5c 563e 07c9 003f aa8c 02bf d08f 70bc
00000300: 4be3 85be 1118 d0be c094 623d 548f 003e
00000310: e33a 373e f0a0 b93e fdc1 04bf 6327 d1be
00000320: 4f53 b5bd a568 07be 1a81 5bbe 159f 09bf
00000330: 881f 8c3e ba6d 0bbf 5670 8f3d dba7 f0be
00000340: 6484 5c3d b0cc b1bc 7dcd 143f 0031 39bf
00000350: cfc5 7c3e f383 473e 9787 883e df25 afbe
00000360: 40bb f93c f89b 363e b38d aebc 8d64 c03d
00000370: fe59 623e 8577 b53c de59 843d 6d78 05be
00000380: 5437 193e 2619 08bf ba58 e2be 2d5a 993e
00000390: 395d 96bc 5aeb 313d 68d8 13bd f22c 8ebe
000003a0: d7c7 6ebe 0a28 b83e 2e54 b63d f90a ac3e
000003b0: a315 32be f9e3 54bd aeba 8dbe 6a33 9cbd
000003c0: c243 1e3e 9e18 9dbe 1dc0 d83c 2bae a63e
000003d0: c3bd 59be 9815 6bbe bb4c b43e ff8d 5c3e
000003e0: 40f1 51bd caf1 08bf 2f3d d2bd 1b1c 083e
000003f0: d96b f5bd 4fb2 0a3f e87d d23e 756f dbbe
-0.45528418 0.88822466 0.30979827 -0.0010606297 0.2446448 -0.49162936 0.3577328 -0.50438493
0.18752965 -0.2309984 -0.07136383 -0.5528273 0.28303027 -0.027040936 -0.6422609 1.1066738
0.532636 -0.006572442 -0.28197363 0.5304104 0.3420126 0.10364041 -0.07285341 0.19270587
-0.13533035 -0.32195222 -0.19155967 -0.2767777 0.26669583 0.6122582 0.16010529 -0.29224986
0.36133912 0.15996511 -0.4758023 0.06348888 0.07843645 -0.089976415 -0.100226454 -0.28058332
-0.23443691 -0.022650631 -0.13350567 0.40498537 -0.39563873 0.07548572 -0.018773725 0.09579747
0.461059 -0.17155032 -0.2709425 -0.3213036 0.061992787 0.08566757 -0.39378065 0.21458077
0.5057065 1.5413965 0.28879863 0.43368694 -0.21808955 0.47664 -0.3249416 0.50120854
-0.42578024 -0.21919236 -0.21482469 -0.033342488 -0.28445908 -0.32119378 0.18886662 -0.13985866
0.589174 -0.08459129 0.38781554 -0.34850046 -0.09894598 -0.15150826 -0.33122075 -0.09421447
-0.29336005 0.10040172 0.025181387 -0.16403176 -0.16169931 -0.20045327 0.35651287 -0.45846558
0.30438253 -0.3898085 0.012542247 0.29692382 0.13642538 0.13721225 0.2883254 -0.09458515
-0.011551051 0.013587306 0.10488857 0.026344711 0.11082505 0.22295715 -0.16686364 -0.18662512
-0.015169614 -0.47147906 0.55505526 0.32920766 0.42487723 -0.048032086 0.014932666 0.06395156
-0.3582253 -0.16330038 0.1466433 -0.2723642 -0.31236288 -0.28962097 0.02960964 0.1353671
-0.17013612 -0.38595426 -0.030307079 -0.29837897 0.11224049 -0.010553297 0.043544494 -0.6391589
-0.26883903 0.20505968 0.1023055 -0.19367251 -0.0329334 -0.3233006 0.00081552943 0.14872505
0.22021355 -0.140166 -0.22177324 0.3364938 -0.16892043 -0.32784262 -0.030479357 -0.09058161
-0.28518283 -0.33006084 0.10850198 -0.30834135 0.70947623 0.5643164 -0.36532906 0.27491018
0.2581804 -0.024796765 0.32188043 -0.043045085 -0.0009408326 0.28742808 0.35929433 -0.13869669
-0.34053063 0.89567494 0.58162385 -0.26214096 0.1395598 0.123769455 -0.69534856 -0.107567675
0.057863727 0.19027194 -0.11647188 0.047869 0.06114083 0.1965442 0.13771595 -0.005246779
0.051281318 0.003653487 0.048033148 0.30594787 0.04277108 0.71233016 0.07440485 -0.19936717
0.07686419 -0.13641235 -0.22728251 0.20610934 0.20933834 0.50306743 -0.50995886 -0.014682725
-0.26149973 -0.4064336 0.05531764 0.12554675 0.17893557 0.36255598 -0.518585 -0.40850362
-0.088537805 -0.13223512 -0.21435967 -0.53758365 0.27367806 -0.54464304 0.07003848 -0.47003064
0.053837195 -0.021704048 0.5812605 -0.72340393 0.24684833 0.19483928 0.26665947 -0.3420858
0.030484796 0.17832935 -0.021307802 0.093941785 0.22104642 0.022151718 0.06462453 -0.1303422
0.14962512 -0.53163373 -0.44208318 0.2995161 -0.018354999 0.04343734 -0.036095053 -0.27768666
-0.2331842 0.35968047 0.08902775 0.3360212 -0.17391066 -0.051975224 -0.27681488 -0.07626994
0.15455535 -0.30682844 0.026458794 0.32554755 -0.21263795 -0.22957456 0.3521479 0.21538542
-0.051255465 -0.5349394 -0.10265576 0.13291971 -0.11983461 0.5417833 0.41111684 -0.42858472

conv1.lin.bias f4 [64]
00000000: 8cb3 fbbd c8b6 a63e 519d f7bc b35d b13e
00000010: 61be ecbd c5cc 863e 4b51 2b3e 7ec3 dd3d
00000020: eb5b 0a3e 6bc3 843d 5ef4 203b 913d b33e
00000030: dc47 fc3d d5b0 763e fd2c 503c 843b 85bd
00000040: 7cc6 8c3e 91f9 8e3c 707a 253e 75db 5fbe
00000050: 9292 81be c8ac 8a3e 79be 93be b400 f33e
00000060: 09e8 843e 95db b53c e71f 38bd 1c58 183e
00000070: aae3 803e ad8b 333e c77a 6b3e 502e 6dbe
00000080: 7382 39be 1701 923e 0b44 babe 6822 7e3e
00000090: 6669 55be 3bce 523e 8e50 5bbe 72c0 16be
000000a0: 7fb7 8c3e 4c64 22be 717c 26be fd06 9c3e
000000b0: e644 293e 0dfe 68be 389d b7bb 75c3 a0be
000000c0: 1703 c0be ca78 b9be c70f 3dbe f8cb a2be
000000d0: 778b 203e 4fce d5bc b7fa 0dbe dbe4 a7be
000000e0: cd50 7bbe 5d0f 953e fc31 b23d 1a55 5dbe
000000f0: 8156 f23e 0058 29bd 4f1f 8a3c b415 003c
-0.12290105 0.32561326 -0.030226381 0.346418 -0.115597494 0.26328102 0.1673023 0.10828303
0.13511626 0.064825855 0.0024559717 0.3500791 0.123183936 0.24090894 0.012706039 -0.06505492
0.27495182 0.017452987 0.16159987 -0.2186106 -0.25307137 0.27084947 -0.28856257 0.47461474
0.2595828 0.022199431 -0.0449523 0.14877361 0.25173694 0.17533751 0.22996055 -0.23162198
-0.18116169 0.28516456 -0.36380038 0.24817812 -0.20840988 0.20586483 -0.21417448 -0.1472185
0.27483746 -0.15858573 -0.16258408 0.30474082 0.16530189 -0.22753163 -0.0056034587 -0.31399122
-0.37502357 -0.36224967 -0.1846305 -0.3179624 0.15678202 -0.026099352 -0.13865171 -0.3279179
-0.24542542 0.29113284 0.0870094 -0.21614495 0.47331622 -0.04134369 0.016860632 0.007817674

conv2.nn.0.weight f4 [64, 64]
00000000: 2e97 273d f7cd b63d 002d 393c fe50 c6bc
00000010: 7ab8 bcbc 4798 ddbe 2185 b33c 0fab 01be
00000020: 01ef 6abd b324 f0bc 9096 d23d 8c4c 613c
00000030: 2c97 57be 38c7 fdbd 81d9 553e c82a 973e
00000040: 0af6 afbd 0a41 5d3e bb31 33be 09b2 2abf
00000050: c0f2 95bb 076f 7c3c 5641 62bd a536 9abd
00000060: 3dec 903d a2df a23d 00d8 06bd ade6 49bd
00000070: 57ef cebd c3a1 483c 7440 70be edc7 c6bd
00000080: 8876 f8bd ea6c 863d ac13 25bc abc5 b43d
00000090: 9ab0 89bd 544d 0e3c 7e15 d9bd 8288 a13e
000000a0: 59ac da3d 5fcf b23d c898 c93d ac55 2c3e
000000b0: 734c 10bf 3625 55bd 3dce cd3d 95db a5bd
000000c0: b96c 46bf 3a67 1ebc 5d12 a93d 9493 913d
000000d0: ebbf 263e ee69 bf3d a9df 3abc a781 ef3d
000000e0: f08d f23d 4354 cebd c3f7 a93d bc37 e3bd
000000f0: ea50 af3d 1ad5 b6bb 00ec 9cbd 852c 813c
00000100: 92e4 bebd 60ba c2bc 94a4 34be 4a00 0e3e
00000110: 7343 463c 26a2 593e 4a30 0cbd 9035 e13e
00000120: 0ac3 f43d 8a68 5dbe 38d9 8bbc 9e91 96bd
00000130: 563e 073f ef61 e4be f32c ddbd 4899 bebc
00000140: 309e b83d d984 d43e a988 cdbc ddda 1bbe
00000150: 05a3 2ebd da73 24be 3c6b dfbc 0604 9f3c
00000160: 42cb 56bc 08bd 50bd 7440 663d e112 463d
00000170: 1d50 ddbd 350f 923d a4a7 7c3c 07da 3abe
00000180: 1468 25be b1e7 bebc e4c3 e5bc f34e 08be
00000190: e58c 013b ce33 b63d c643 963c 1192 c6bd
000001a0: 0931 963d c2c2 173d 5803 77bd 815f 32bd
000001b0: 31f9 ae3e 9dba 0fbd 6029 f23c 2fd4 dd3d
000001c0: 2ee7 9e3d e681 243e 09ca e1bd 5383 edbc
000001d0: 9057 4f3e b63a 19be 2082 8cbd 6e34 efbb
000001e0: 407c e93d 4971 9c3d 6563 f73d d73a 17be
000001f0: 44d1 62be a459 463d ef6a fbbc faf8 77bb
00000200: 03ed 343d ed8f 6e3d 60f5 953e a3a4 34be
00000210: 488a 4abd 5edc 2d3f 21b6 45be b4de f5bd
00000220: 1615 94bc 2d68 1d3f 9c48 adbd 3c3b a2bc
00000230: 39ff b43d 5d7f 613e c09b b1bd 09c6 14bd
00000240: 3cd9 a13e 3337 98bd d928 1f3d 17a6 8b3e
00000250: c4b3 66bd af64 1a3e c7e8 1ebe fd3c b93d
00000260: 46ef 3bbc 4ac6 973c c6d4 2e3e e1e1 be3c
00000270: ee13 933d 4260 0abe aa36 933e 5779 45bd
00000280: 478a 15bc a284 453d 733e 373e 6e51 94bd
00000290: d8ae c43c 5745 333f e255 7fbd 76f1 4e3e
000002a0: c4f9 363e 4bbb 853d 58dd 183d f06f 25be
000002b0: b710 26be 0cae 263e a454 03be 48d1 7b3d
000002c0: f45b d93e 423d 33be 3027 ac3e b8be d03c
000002d0: bc90 f23d bb1e 01be ffb8 03be bfd6 24be
000002e0: 2f48 c9bc 0b0e e83b 3011 7fbc 718c 4c3e
000002f0: a3bf ccbe 00b0 9bbd fc16 98bc a350 7ebd
00000300: 8668 283d ca0e 923d b8a2 7b3e 7f2c c4bd
00000310: de74 243c c30a 3e3f 4862 13be beff c2bc
00000320: e711 d4bd 41b4 d73e cd78 6bbe 1ce7 e8bc
00000330: 9c00 313e a8f3 a83e 1c9a 9b3d 23c3 8abb
00000340: f96a a8bd 9e0a 7ebe cb7b 343d 3f87 6d3e
00000350: bd54 71bd 6599 bfbc d5b9 97bc 4b67 bb3d
00000360: 0c1e c3bd cf96 133d 00ed 8e3e 7d5f 213e
00000370: c8bb 04bc 0377 44be 8a8f 323e ea44 46bd
00000380: ef24 ddbd 47b2 e8bd 4254 473e 7809 83bd
00000390: 9cb9 343d 2086 2f3e e2f6 a9bb e201 f83d
000003a0: b3c6 fb3d 09f1 7e3c 851d 813d 4cd7 1abe
000003b0: 90ce 403e c412 90bc 03b7 80bd 8ad3 6f3c
000003c0: aeff 7f3e 4f0a 6abe 46a1 763e 9c07 90bc
000003d0: 76e3 c83d 2148 9abc c03d 29be b82c 86bb
000003e0: d89d 76bd 7caf b73d 925b bcbd 087b 0d3e
000003f0: 863f 3bbe ea7b 7abb 6038 4e3d a76b 06bd
0.04091566 0.089260034 0.011302233 -0.024208542 -0.023037184 -0.4328024 0.021914067 -0.1266291
-0.057356838 -0.029314375 0.10282624 0.01375116 -0.21053761 -0.123915136 0.20883752 0.29524827
-0.0859185 0.21606842 -0.1749944 -0.6667791 -0.004576057 0.01540733 -0.05523809 -0.07529954
0.07076309 0.07952811 -0.032920837 -0.049292255 -0.10104244 0.012245598 -0.23462087 -0.097061016
-0.12131983 0.065637425 -0.010075491 0.08826765 -0.06723137 0.008685429 -0.105998024 0.3154946
0.10677404 0.08730959 0.09843594 0.16829556 -0.5636665 -0.05203744 0.100491025 -0.080985226
-0.7750965 -0.009668166 0.08255456 0.071082264 0.16284148 0.09346376 -0.011405864 0.11694651
0.11843479 -0.100746654 0.0829921 -0.11094615 0.08560355 -0.005579603 -0.07662201 0.015768299
-0.0932094 -0.023770511 -0.17640907 0.13867298 0.012101042 0.21253261 -0.03422574 0.43986177
0.11951263 -0.2162191 -0.017071351 -0.07351993 0.5282949 -0.44605967 -0.10799589 -0.02326645
0.09014547 0.41507605 -0.025089579 -0.15220208 -0.042635936 -0.16059819 -0.027272813 0.019411098
-0.013109984 -0.050961524 0.05621381 0.048357848 -0.10806296 0.07131807 0.015420828 -0.18247233
-0.16152984 -0.023303838 -0.02804751 -0.13311367 0.0019767818 0.088966 0.018342864 -0.09695829
0.073335715 0.03705097 -0.060305923 -0.04354811 0.34174493 -0.035090078 0.029560745 0.108314864
0.07758938 0.16065177 -0.11024863 -0.028993284 0.20248246 -0.14963803 -0.06860757 -0.0072999513
0.11400652 0.07638795 0.12079505 -0.1476854 -0.22150141 0.04842533 -0.030690638 -0.003783761
0.044171344 0.058242727 0.2928877 -0.17640929 -0.04944828 0.6791438 -0.19307758 -0.12005368
-0.01807646 0.61487085 -0.08461115 -0.019803636 0.08837742 0.22021241 -0.08672285 -0.036321674
0.3161105 -0.074324034 0.038857315 0.27275154 -0.05632378 0.1507747 -0.15518485 0.09044836
-0.011470621 0.018527169 0.17073354 0.023301067 0.07181536 -0.13513282 0.28752643 -0.04821142
-0.009127206 0.04822219 0.17894916 -0.07242094 0.024009153 0.7002768 -0.062337764 0.20209298
0.17868716 0.06529864 0.037320465 -0.16155982 -0.16217314 0.16277331 -0.12825257 0.061478883
0.42452967 -0.17503837 0.33623648 0.025481567 0.11844012 -0.12609379 -0.12863539 -0.16097544
-0.024570553 0.007081752 -0.015568063 0.19975449 -0.39989957 -0.07601929 -0.018565647 -0.06208862
0.041115306 0.07131727 0.24573791 -0.095787995 0.010037629 0.7423517 -0.1439296 -0.023803588
-0.10354977 0.4212971 -0.229953 -0.028430514 0.17285389 0.32998395 0.075977534 -0.004234688
-0.082235284 -0.24808738 0.04406337 0.23196124 -0.058918703 -0.023388574 -0.018521229 0.09150561
-0.09527215 0.036032494 0.27915192 0.15759082 -0.008101411 -0.19186024 0.17437568 -0.048405565
-0.1079806 -0.11362129 0.19465736 -0.063982904 0.044122323 0.17141008 -0.0051869014 0.12109734
0.12293758 0.015560397 0.063044585 -0.15121192 0.18828797 -0.017587073 -0.06284907 0.014637837
0.24999878 -0.22855495 0.24084958 -0.017581753 0.0980901 -0.018833222 -0.16527462 -0.0040946864
-0.060209125 0.08969018 -0.09197153 0.13816464 -0.18285951 -0.0038220831 0.050346732 -0.03281751

conv2.nn.0.bias f4 [64]
00000000: 9fb9 fa3d 2770 213d ca83 953d 7422 7d3d
00000010: b54e 49be ced6 893d 59dc 0e3e 0e60 d3ba
00000020: 50a6 8bbc b776 5cbd a096 1ebe 58ea e5bc
00000030: 2c34 8ebc 02dd 11bd 1b60 02be 4534 4cbd
00000040: 1da4 1abe d62a c4bd f13b 493e e60a 103d
00000050: 05b1 803c 8e6d 98bd 9259 18be c980 17bd
00000060: 984e 96ba f4f9 e93c 51fc 76bd 603e 923e
00000070: 0fd8 923d e916 ea3d d31f b6ba 214e a63c
00000080: 3d78 153e 11a8 1cbe b0bf 1dbd add0 1f3e
00000090: a0c0 5abd c63a de3d fc1f 2fbc 17f4 133e
000000a0: 9b6a c73d 805b 3f3d 30b5 1bbe 4c09 48bd
000000b0: a77e 453d 2ec0 8cbd a3ed bc3d 02e5 9dbc
000000c0: 0e20 57bc 6f1e adbd 3d10 a4bd 066e 1d3a
000000d0: f381 253c d897 0a3e 677e c73c 1de8 b0bd
000000e0: 3506 183d 9fee 923d c6e5 65bd a056 543d
000000f0: 2684 253e 4214 163e 6b23 61bd 447a 9b3c
0.12242436 0.039413597 0.073005274 0.061800435 -0.1965893 0.06730424 0.13951243 -0.0016126649
-0.017047077 -0.053824153 -0.15487146 -0.028065845 -0.017358862 -0.03561116 -0.12731974 -0.049854536
-0.15101667 -0.09578483 0.19651772 0.035166644 0.01570941 -0.07442771 -0.14877918 -0.036988053
-0.0011467515 0.02856157 -0.06029922 0.28563213 0.07170116 0.11430151 -0.0013894982 0.020300927
0.14596649 -0.15298487 -0.038512886 0.15606947 -0.053406358 0.10851054 -0.010688778 0.14448582
0.0973713 0.04671812 -0.15205836 -0.04883699 0.04821649 -0.06872593 0.09225013 -0.019274238
-0.013130201 -0.0845307 -0.0801091 0.00060054695 0.010101783 0.13534486 0.024352266 -0.08638022
0.037115294 0.071744196 -0.056127332 0.051840425 0.16163692 0.14656165 -0.054965418 0.0189792

conv2.nn.2.weight f4 [64, 64]
00000000: e25e 083e ec00 07be 0283 1ebf d8af 59be
00000010: 18f6 fa3d 487e b0bd 1e0e d83d 1ac9 f53d
00000020: 8c4a 08be f573 bebd 586e f73d 87f6 dbbc
00000030: ba19 62bd ee12 9c3d 8a50 ccbc 5dd6 d1bc
00000040: a1a8 6c3d f9ac 82bd dfa5 c23d 1f87 0d3e
00000050: 93a5 113d 3456 7dbd f832 21bd 8937 143d
00000060: ea73 9c3d 8fcd 2ebe 7dff 11be 7060 e3bc
00000070: 4860 e5bd b253 09bc ee20 bebd 6186 123d
00000080: 82a2 15bc 0289 65ba 32a1 9c3d 5e22 d4bd
00000090: c49c 44bd 1e45 e5bc 05c3 dcbd 7b5e e03c
000000a0: 139b 2cbc b725 083e c417 19bd 1759 f5bd
000000b0: bff4 2b3e b7a3 6bbd c373 06bc a9df e5bd
000000c0: c8f8 6ebd 066b debd dfe6 ccbd bb82 703d
000000d0: 5553 923c 3a0f 863e b0f2 aebc e92b 113d
000000e0: 6117 1d3e 3334 80bd 9bbb c93d f0e8 0b3e
000000f0: 7b6e 2d3c bf54 0a3d 0f87 1f3d 4c97 ab3d
00000100: 58c8 cdbd 27bd adbd ff57 0dbf 5022 acbe
00000110: ad37 653d f7b6 42bd c8b0 ce3d a4e5 523d
00000120: 6025 873c fd20 c83d dfb4 ce3d 2c13 ab3b
00000130: 23e5 72bd c7d0 8d3d e6c1 90bb f8e0 fcbc
00000140: 1c2b acbb 20e2 123c 5c16 983e 3e1c 023d
00000150: be78 3cbd b491 aabd a092 9cba 9be2 fcbc
00000160: 32bb 0f3d 14c9 c83d adb3 1dbe 503b df3d
00000170: c489 9e3d 5979 37bc 102c 91bd 2d06 843c
00000180: 586a a2bd 43d8 853d f44b 00be 7eeb a8bd
00000190: 11b3 bc3d 10e9 783d 5827 78bd 447d 5c3d
000001a0: 755b 2b3d 6e10 d93d 31f8 ca3d f57a 6cbd
000001b0: 4db9 c33d 5727 353d fa26 9e3d 4332 56be
000001c0: 6114 c93d 7f54 fc3d ffc7 c13d f513 803d
000001d0: 75bd 2c3d ed95 963e d49e 09bd 2264 033d
000001e0: 82de f03c 896d 9cbd 31d9 31bd 573c fa3d
000001f0: 0375 46bd 2871 97bd e729 593c 3c16 b2bd
00000200: 5119 09bd e395 85bd 82b6 123e c14c a63d
00000210: a42c 85bd f128 1c3c 2601 dcbd 50d3 3d3e
00000220: 49fe febd 1941 32bd 190b e13a c101 153d
00000230: 7033 a8bd 34a0 093e e572 343d 5c13 aa3d
00000240: 6ec4 953d 4783 b4bd 1eec 2cbc 8e44 6b3d
00000250: 93d6 c53c 8f2f 653d 02a2 373d 5dc1 a1bc
00000260: fa8d 24bd 60c0 773d b5c3 013e ce31 94bd
00000270: fdf4 eebd 0cef 27be 203f 333d 426f a33c
00000280: 1f49 04bd cd1b 16bd c699 b93b 6a2e a83a
00000290: d3b3 cd3d 9202 e2bd ab26 b2bc 7806 96bd
000002a0: f5f4 c13d 8b4e a0bd 4bf4 c13d ac70 793d
000002b0: c8bc 03be 2d7c a9bd 1ee8 b8bd a58c 1c3e
000002c0: 23da 093e aeb3 febd c07a af3c 4b69 2f3d
000002d0: eb10 07bb 0210 78bd 0c5b babd cb6c c1bd
000002e0: 29e5 5d3c f89f 20bd e65d 8e3d 05b0 913d
000002f0: ef4e 6fbd e4df ed3c 644c 57bd d2ab 4f3d
00000300: 7af3 ecbd f961 113d 562f e9bc 19b5 47be
00000310: 88e9 1ebe d09f e7bc 4daa 043e 7d3e 843b
00000320: abb7 db3d c562 8c3b e2dd efbd 5e83 a0bd
00000330: 494b f33b cc34 333c 499b 2c3c b574 b5bd
00000340: 9e2e 213d 9583 0abd bbcf a23d 2472 7fbd
00000350: 495d 43bc 7213 13be f1b2 603c c6bd 943b
00000360: 6e5f d0bd edf9 4e3e 64ed 433e 3d50 fabd
00000370: fb2c f3bd 0247 5f3d 2040 793d 58a4 b93d
00000380: 8cf5 de3c 7689 ac3c a41d 773d 1d7a 69bc
00000390: a0dd 47bc 2644 023d cef0 383c 9397 4cbd
000003a0: f671 393d 2358 aa3d 545b 723d 6c74 cfbd
000003b0: e64e 28bd 9780 c43d 4678 323d 394c fb3d
000003c0: 7b1c 9c3d caef 3bbc 8bea 603d 4bef 00bd
000003d0: b82d 98bc e277 e63d 709c 04be aed6 083c
000003e0: c2c1 2f3e 7a05 d63c 5d2d d2bd 0f04 b5bb
000003f0: 4930 42bc c5fc 07be 6ada 6d3d 1bad aa3c
0.13317445 -0.13183945 -0.6191865 -0.21258485 0.1225397 -0.08617836 0.10549568 0.12001248
-0.13309687 -0.09299461 0.12081593 -0.026850952 -0.055200316 0.07620798 -0.024940748 -0.025614912
0.057778005 -0.06380648 0.09504294 0.13821076 0.035558295 -0.061849788 -0.03935525 0.036185775
0.07639296 -0.17070602 -0.14257617 -0.027755946 -0.11200005 -0.008381771 -0.092836246 0.035772685
-0.009132983 -0.00087560725 0.07647933 -0.103581175 -0.048001066 -0.02798706 -0.107793845 0.027388802
-0.010535019 0.13295637 -0.03737618 -0.11979883 0.16792582 -0.057529178 -0.008206311 -0.112243004
-0.058342725 -0.10860257 -0.10004973 0.058718424 0.017862001 0.26183492 -0.021355957 0.035442267
0.1534095 -0.06259956 0.09850236 0.13663077 0.010585423 0.033772226 0.03894716 0.08378467
-0.10047978 -0.084833436 -0.55212396 -0.33619928 0.0559613 -0.04753777 0.10092312 0.051488534
0.016497314 0.09771917 0.10093092 0.0052207913 -0.059300553 0.06924587 -0.0044176457 -0.030868992
-0.0052541625 0.008965045 0.2970456 0.031765215 -0.046013586 -0.08328572 -0.0011945553 -0.030869773
0.035090633 0.098039776 -0.15400572 0.10899985 0.077411205 -0.011198365 -0.070884824 0.016116226
-0.0793044 0.06535389 -0.12528974 -0.082480416 0.09213842 0.06076914 -0.060584396 0.0538304
0.041835267 0.10598837 0.0991062 -0.05773445 0.09556828 0.04422697 0.07722278 -0.20917611
0.0981834 0.12320804 0.09461974 0.062538065 0.042172868 0.2941126 -0.033598736 0.032077916
0.029402975 -0.0763808 -0.04342002 0.1221854 -0.048451435 -0.0739463 0.013254619 -0.08695647
-0.03347141 -0.06522729 0.14327434 0.081201084 -0.06502655 0.009531246 -0.107424065 0.1853764
-0.12450845 -0.043519113 0.0017169445 0.036378626 -0.08212936 0.13440019 0.044054884 0.08304474
0.073128566 -0.08814102 -0.010554342 0.057438426 0.024150169 0.05595356 0.044832237 -0.019745523
-0.040174462 0.060486197 0.12672313 -0.07236062 -0.116678216 -0.16399783 0.043761373 0.019950513
-0.032296296 -0.036647607 0.005664083 0.0012831215 0.100440644 -0.110356465 -0.021746954 -0.073254526
0.0947055 -0.07827481 0.09470423 0.060898468 -0.12864983 -0.08275638 -0.09028648 0.15288027
0.13462119 -0.12436615 0.021420836 0.042825025 -0.002060945 -0.06056214 -0.09099397 -0.09444579
0.013543406 -0.039215058 0.069515035 0.07113651 -0.058424886 0.029037423 -0.052563086 0.05070097
-0.11569877 0.035493825 -0.028464954 -0.19502677 -0.15518773 -0.028274447 0.1295559 0.0040357695
0.10728391 0.004284235 -0.11712243 -0.07837556 0.007424746 0.010937881 0.01053507 -0.08860151
0.0393511 -0.033816893 0.07949778 -0.062364712 -0.011924096 -0.14362887 0.013714538 0.0045392243
-0.10174452 0.20212527 0.19133526 -0.122223355 -0.11873814 0.054511078 0.06085217 0.09064549
0.027216695 0.02106164 0.060331002 -0.0142503055 -0.012198836 0.031803273 0.011287881 -0.04994924
0.045274697 0.08317592 0.05916913 -0.101296276 -0.04109087 0.09594839 0.043571733 0.12270398
0.0762262 -0.011470744 0.054911178 -0.031478208 -0.018576488 0.112533346 -0.12950301 0.008351965
0.17163756 0.026125658 -0.102625586 -0.0055241655 -0.011852332 -0.13280018 0.058069624 0.020834496

conv2.nn.2.bias f4 [64]
00000000: 9d06 5abd 4486 453c 0e05 fabc ca4a efbc
00000010: 4668 4b3d 7089 31be 4477 7bbe c760 dcbd
00000020: e5cb 213e 3799 1e3e 2907 313d ad17 353e
00000030: 0e2b 393c e59e 0bbe ca0b 8dbd 51b7 11be
00000040: dbfa d0bc 874f b83c da8d 86bc c5c5 a03d
00000050: 1ad1 ae3c fba2 003d e911 3fbd f47a 9d3d
00000060: 1d6b 9dbd 887c a43c 0930 3e3d 95fe fd3d
00000070: 7b5b f53d 513a cabd 113d c5bd 5b23 c03c
00000080: 54c8 93bd 2450 c43c ca88 983b 31a2 5cbe
00000090: 3b48 36be aa35 753d e4f1 edbd f677 893a
000000a0: c247 06be 87d8 ec3d 7184 843d 7b1f 31bc
000000b0: 3769 913d 7cfa 19be 7c20 a7bd 2646 afbc
000000c0: 6814 eabd cbac fb3d b0f9 b63c bd87 f4bd
000000d0: 4913 aabc 30ed 08bd 0804 b2bd 29e3 45bd
000000e0: bc9a 8a3d d955 af3d 62f8 1c3e 8f3c a5bd
000000f0: 8f96 debd 6602 cc3d cfeb 153c e612 33be
-0.053228963 0.012055937 -0.030519988 -0.029210467 0.04965999 -0.17337584 -0.24557215 -0.10760646
0.15800436 0.15488134 0.04321972 0.17684813 0.011301769 -0.13634832 -0.06887014 -0.14230086
-0.025510242 0.02249886 -0.016425062 0.078502215 0.021339942 0.03140543 -0.04664794 0.07689467
-0.07686446 0.020078912 0.04643253 0.12402073 0.11980339 -0.09874404 -0.09630788 0.023454359
-0.07215944 0.023963995 0.0046549784 -0.21546246 -0.17800991 0.05986563 -0.116184026 0.0010488022
-0.13113311 0.11564737 0.06470574 -0.010810728 0.07100146 -0.15036958 -0.08160493 -0.021395754
-0.114296734 0.12288817 0.022335857 -0.119399525 -0.020761149 -0.033429325 -0.08692175 -0.04831234
0.067677945 0.08561296 0.15329126 -0.08068191 -0.108685605 0.09961395 0.009150459 -0.17487678

conv2.lin.weight f4 [64, 7]
00000000: cce2 53bd 8866 86be 7b5b 04bf aa00 c2be
00000010: 2dda a7bd c09a 933e 3734 75be a9c7 45be
00000020: 7df6 b43e 9ece 82be 17c9 ab3d 2da0 61be
00000030: 3003 2dbe 9451 403e b883 c8be 575e e03e
00000040: 2566 8abe fca8 393e f4e4 563e 0260 c53e
00000050: 1fdf 60be 6598 99be 0ddf 9cbe 2d92 aebd
00000060: 9d2d 08bf 49d4 4fbf 001c c53d c61f 7f3e
00000070: df55 f2be 3f2c 8f3d 5ff6 aa3e 4e9d ba3e
00000080: 28f8 f43e 652e c63e 727f 8c3e 7540 423e
00000090: 7ae6 af3f 61d6 cb3d f781 383f 0a4b b1be
000000a0: 8bd9 75be 362c b4be 7463 ea3e cbc4 4cbf
000000b0: 1981 3f3e dd91 9d3e c5f0 2c3e b3b8 233e
000000c0: eb39 283e b5ec 483f 36c4 243f e64a adbc
000000d0: c167 873e 5e6f 2ebe bba5 98bc 6258 233e
000000e0: d98b 29bd cbfd 4abd c782 1f3e e948 373d
000000f0: 7a8b 6dbe 1b66 dc3d 462d 3b3e b432 7ebf
00000100: d912 843f 7135 c8bd 4f66 113f 6f33 873e
00000110: bcc8 183e c775 33bf 733d c03e b45f fdbe
00000120: 5baf 5cbe 9f59 043e 700c 40be 680b 933e
00000130: c368 4cbd 3363 7abe 8151 f9be 732b 4f3d
00000140: 7b8e 3bbf 81e3 3bbe 08b5 d13e 791a 22bc
00000150: 51cb 7a3f bf80 b53f c5cf 973d fb56 b83e
00000160: b307 0cbf d31a 4b3e 195f ce3d a4ec c6be
00000170: a729 8f3f 07dc 103f b650 183f 5c91 8dbd
00000180: 0cd7 f13e 3a1d 98be 46a3 e5be bd97 b63e
00000190: fd2c 0ebf c8fa 973e 791a 223e 553e 8e3d
000001a0: 6626 1c3f 464e 9cbd 5f7b 54bf 0b3d 94be
000001b0: d664 6cbd 1d8f 29be 9d92 043f a744 34bf
000001c0: a71f 32be 86b4 07be 747b a6be 5022 f3bd
000001d0: b630 3fbd 00a1 883d 8f03 36be dd2f 2c3f
000001e0: 36e7 44bd a26a 1bbf 9603 4d3e cded 073e
000001f0: 1b6a 4d3d 37a8 2e3f fa33 133e 4c55 db3e
00000200: 3968 9fbe 2f3f 9bbd cce9 9e3e 9e63 e6bd
00000210: 27d6 51bd 08b5 363e 18a3 ef3f 7d0e 4b3e
00000220: 426b 33bf b61a 123f 9d07 693e 2a78 8d3e
00000230: 1b44 353f 2dfa a3be cb4a 983e ba1d 143e
00000240: 500f f43e ed49 993d 2849 c33e bec4 15bf
00000250: 3aac 473d 125d 083f 598d c43d f0fd 0c3e
00000260: b504 253d 58d0 82be 9623 e53e 5498 d4bb
00000270: 47e1 2c3d 4154 0dbe 9daa fb3d e5b4 a43e
00000280: 68ed 073e 5483 b23e 4626 973f 99af b2be
00000290: e9bd c23e 0b27 f2be a1f8 b1be 651d c03e
000002a0: 6d50 e9bd d9a7 3dbf ebaf b7be 03f1 76be
000002b0: ceed e9bc d9ff 3dbe d7b7 4cbd 3388 78be
000002c0: f971 b63d 35af 65be 2d0b 8abe ff64 cdbb
000002d0: 132c 48be e0f0 b4bd b780 eb3d 6a3d 893f
000002e0: 5cd2 ce3e 6ad9 fc3e 488d a0be 4f76 04bf
000002f0: 7c18 ccbe 68a1 d5be 641f 2abf 57b2 10bf
00000300: 25ac 9c3e 2aa0 82be 2f32 f43e 09dd 45be
00000310: 4959 473c 7808 8f3f 1f87 a8bd 8a64 3bbf
00000320: b72b 0c3e e1e9 c7be 5c0f 9c3e b299 ea3e
00000330: e1f3 e7bc 5039 d03d 96de e7bd a2bc 5dbe
00000340: 695c 0d3e 5143 dc3e feae 4bbf b5d5 ae3f
00000350: ccfe 823e e50d 043e 613c 79be ef6a 3cbf
00000360: 9765 da3e 3bee 92bc c361 e1bd d590 cf3e
00000370: 2d33 a8bd 328a f03e cbd1 963e 954e d5bd
00000380: 1d60 a03e 0923 0b3d 2cbf 493e eb7e 8b3e
00000390: b3c8 4b3e 0b5a aa3d 7975 f3bd 8949 4d3f
000003a0: e447 803e 0035 a03e 8f17 69bc a93c fd3c
000003b0: 3897 abbe 133f d33d 6fc3 54bf 1f83 2b3f
000003c0: a530 f9bd 067b aa3e c3df cabd 0ea6 af3e
000003d0: 6976 84be 72d7 88be c0dc a6bf 047f 25be
000003e0: 0bcb 2cbe e1f1 9dbe f4e9 7c3e 6da4 66be
000003f0: 655a 3cbd dd46 613f e496 843e 4b25 293e
-0.051729962 -0.262501 -0.5170209 -0.37891132 -0.081959106 0.28829002 -0.239457 -0.19314446
0.35344306 -0.2554826 0.08387964 -0.22033758 -0.16895747 0.1878112 -0.39162993 0.43821976
-0.27031055 0.18130869 0.20985776 0.3854981 -0.21960114 -0.2999908 -0.30638924 -0.085239746
-0.531946 -0.81183296 0.09624481 0.24914464 -0.4733114 0.06990861 0.3339109 0.3644814
0.47845578 0.3870727 0.27440983 0.18969901 1.3742211 0.09952999 0.7207331 -0.34627563
-0.24008767 -0.3518998 0.45779002 -0.7998778 0.1870159 0.30775347 0.16888721 0.15988426
0.16428344 0.78486186 0.64361894 -0.021153878 0.26446345 -0.1703467 -0.018633714 0.15951684
-0.041393135 -0.049558442 0.15577231 0.044747267 -0.23197737 0.107616626 0.18278989 -0.99296117
1.0318252 -0.09775818 0.56796736 0.26406428 0.14920324 -0.7010159 0.37546882 -0.49487078
-0.21551268 0.12924813 -0.18754745 0.2871964 -0.049904596 -0.24451904 -0.48694995 0.050578546
-0.7326428 -0.18348505 0.40958428 -0.009894007 0.97966486 1.4179915 0.07412676 0.3600386
-0.5469925 0.19834451 0.10076732 -0.38852417 1.1184586 0.56585735 0.59498155 -0.06912491
0.4723438 -0.29709798 -0.4485113 0.35662642 -0.55537397 0.29683518 0.15830411 0.06945483
0.6099609 -0.07632117 -0.8300075 -0.28952822 -0.057713352 -0.165585 0.51786214 -0.70417255
-0.17394887 -0.13252458 -0.32516062 -0.11871779 -0.046677314 0.06671333 -0.17774795 0.67260534
-0.048072062 -0.60709584 0.20020899 0.13274308 0.05015002 0.68225425 0.14375296 0.42838514
-0.31134203 -0.07580411 0.31037748 -0.11249469 -0.051229622 0.17842495 1.8721647 0.19829746
-0.7008554 0.5707201 0.2275681 0.2763074 0.70807046 -0.32026806 0.29744563 0.14464465
0.47667933 0.07484803 0.3814175 -0.5850333 0.048748232 0.53267014 0.095972724 0.13768744
0.040287692 -0.2554958 0.44753712 -0.0064878855 0.04220703 -0.13801672 0.12288401 0.32169262
0.13274157 0.3486582 1.1808555 -0.34899595 0.38035515 -0.47295412 -0.3476 0.37522426
-0.11392293 -0.7408424 -0.35876402 -0.24115376 -0.028555777 -0.1855463 -0.04998001 -0.24270706
0.08908457 -0.22430117 -0.2696165 -0.006268143 -0.19548063 -0.08835006 0.1149916 1.0721867
0.40394866 0.49384624 -0.3135779 -0.51743025 -0.3986243 -0.41724706 -0.6645415 -0.56522125
0.30600086 -0.2551282 0.47694537 -0.193226 0.012167283 1.117446 -0.08228897 -0.73200285
0.13688551 -0.39045623 0.30480468 0.45820385 -0.028314533 0.101671815 -0.11321752 -0.21653989
0.13804783 0.43020108 -0.7956389 1.3658968 0.2558502 0.12895925 -0.24339439 -0.7360067
0.42655632 -0.017935863 -0.11004975 0.40540186 -0.08212886 0.46980435 0.29456934 -0.10415379
0.3132333 0.03396896 0.19701833 0.27245268 0.1990078 0.083179556 -0.118876405 0.8019033
0.25054848 0.31290436 -0.014226808 0.030912714 -0.33513808 0.10314765 -0.8311071 0.6699695
-0.12167481 0.33296984 -0.099059604 0.34306377 -0.2587159 -0.26726872 -1.3036118 -0.16161734
-0.1687433 -0.308486 0.24698621 -0.22523661 -0.045984644 0.87998754 0.2589637 0.16518132

conv2.lin.bias f4 [64]
00000000: 9f1e 5bbe d831 a33e a2c2 0f3e 92fb a4bc
00000010: 8f08 ba3d 98a1 00be dcd3 003e a228 113d
00000020: 2118 803d 3969 853d 72bc 603e dba9 583e
00000030: d28a 62bd 8cdf 37be a7c6 17be 274e b03e
00000040: 1b20 8cbe 323f fabc ceb0 9cbe 5c1f a2bd
00000050: c07d 8ebe 7235 333e 671b 743e 51a2 693d
00000060: 5dfc 1c3e 685a 46be 911f 37bd 2c32 df3d
00000070: 68fe f03c c936 b13d 9cac 6c3e fc46 15bd
00000080: ba6a 87be 9a67 6ebd 9f63 74bd bca5 383e
00000090: 3010 5b3e 6240 4fbc f8bb 243e 11a6 983d
000000a0: fc18 b13e 9189 ae3e 8a5a 753e d67f 47be
000000b0: c3f2 8abe 4c86 473e 0a0e e33d c233 edbd
000000c0: 06ba 6ebd ea54 a53e cd17 c5bd 7820 8fbe
000000d0: 18cd 403e 1697 e23d 55be 20be 2564 f23c
000000e0: f4a7 713e f35f a5bd c091 99be d0c5 1e3d
000000f0: 6508 8dbe 4a0f 27bc a91f 4dbe a789 0b3d
-0.213984 0.31873965 0.1403909 -0.02013949 0.09083664 -0.12561643 0.12580818 0.03543914
0.06254602 0.0651421 0.21946886 0.21158545 -0.05530817 -0.1795637 -0.14821874 0.34434626
-0.27368245 -0.030547712 -0.3060364 -0.079161376 -0.27830315 0.17500857 0.23838578 0.057039563
0.15330644 -0.19370425 -0.04470784 0.108982414 0.029418185 0.086530276 0.2311272 -0.03644465
-0.26448613 -0.05820427 -0.05966532 0.18031973 0.21392894 -0.012649627 0.1608733 0.0745355
0.34589374 0.3408933 0.23960319 -0.1948236 -0.27138337 0.19484824 0.11086662 -0.11582138
-0.058282875 0.32291347 -0.0962368 -0.2795446 0.18828237 0.110639736 -0.15697606 0.029588768
0.23599225 -0.080749415 -0.2999401 0.038762867 -0.27545467 -0.010196516 -0.20031609 0.034066822
