checkpoints/D/model_D_epoch_66.pth (torch, 78688 bytes, 15 tensors)

node_embedding.weight f4 [1, 64]
0.20006199 -0.11726238 -0.34837875 -0.8823761 1.550704 -1.5660003 -0.16060834 1.1446809
-0.30903265 1.1477218 0.9612337 -0.6653666 1.249639 -1.5267924 -1.6921988 0.009457332
2.046768 0.74749815 1.5308479 -1.996979 1.2222748 -0.29316607 -0.834271 -0.43984085
-0.9136593 -0.47405222 -1.3381613 0.8393662 1.7362133 0.6165804 0.68189704 -0.54174757
1.080923 -2.6655042 -0.15805644 2.046088 1.8374218 1.3876777 -1.287826 0.18880504
0.5185027 2.1658378 -1.0087683 -1.464875 0.0699847 0.21334381 0.37838966 0.920539
0.9096447 -0.7701119 3.6279953 -0.59593445 -0.29536957 1.7519525 -0.7689596 0.89391476
0.34762174 -1.0491731 -0.061458193 -0.24245709 -0.75989705 1.2154452 1.6189073 1.7002863
00000000: 0ddd 4c3e 4227 f0bd b35e b2be 66e3 61bf
00000010: 787d c63f b372 c8bf 8376 24be e784 923f
00000020: 8739 9ebe 8ce8 923f 6913 763f 7755 2abf
00000030: 2cf4 9f3f ef6d c3bf f899 d8bf edf2 1a3c
00000040: 3ffe 0240 0a5c 3f3f d3f2 c33f 029d ffbf
00000050: 8073 9c3f dd19 96be c992 55bf d232 e1be
00000060: 93e5 69bf f9b6 f2be df48 abbf b4e0 563f
00000070: 3d3c de3f 37d8 1d3f ce90 2e3f f8af 0abf
00000080: af5b 8a3f 9f97 2ac0 8cd9 21be 1bf3 0240
00000090: a330 eb3f 6c9f b13f 7bd7 a4bf 1c56 413e
000000a0: 98bc 043f 169d 0a40 521f 81bf 0681 bbbf
000000b0: 2354 8f3d cd76 5a3e 4abc c13e 72a8 6b3f
000000c0: 7ade 683f 0e26 45bf 1331 6840 298f 18bf
000000d0: ae3a 97be fb3f e03f 89da 44bf 99d7 643f
000000e0: 7afb b13e 4e4b 86bf 96bb 7bbd ac46 78be
000000f0: 9d88 42bf b593 9b3f 5b38 cf3f fba2 d93f

conv1.nn.0.weight f4 [64, 64]
0.090124376 -0.028143052 0.036866173 0.13879557 -0.11077573 0.12911576 -0.11159615 -0.026547384
-0.004053873 -0.117688276 0.018047625 0.08349303 0.0638275 0.044354364 -0.034365516 -0.1301091
-0.10350498 -0.060046308 0.08888824 0.055934582 -0.034340404 0.030133775 0.0044416664 -0.030438479
0.06460984 -0.06519706 -0.08796399 0.0040775677 0.012869061 0.023733998 -0.028126564 0.086244
-0.053862646 -0.033709962 0.037927482 0.032096133 0.07085357 0.014766791 -0.075757556 -0.1187357
0.020117324 -0.10551524 -0.06507097 0.08681858 -0.0074423538 -0.04680326 -0.101952195 0.092764035
0.03211927 0.073686615 0.068657644 0.056279786 -0.07683504 0.0030397538 -0.08731749 -0.013121883
0.09706629 0.04772289 -0.12990075 -0.018389415 0.039478436 -0.04634169 0.06563745 -0.06522448
0.05254577 -0.116636395 -0.041168094 -0.006296575 0.09075077 -0.010656029 0.051357776 0.034921438
-0.10000223 -0.00305444 -0.012949988 0.004509121 -0.1210216 -0.12339221 -0.037960187 0.024529234
-0.0628164 0.04348384 -0.11310607 -0.044465795 -0.120812565 0.10086112 -0.089037046 -0.09444824
0.058424905 -0.05936961 0.025574014 -0.04263854 -0.048260406 -0.041359156 0.12009744 -0.02898866
0.022669554 -0.084147796 -0.06868054 -0.049577937 -0.118549064 -0.121378124 -0.12363832 0.03129427
-0.08888516 -0.002392292 0.01803486 -0.044424832 0.11481826 0.068090096 0.091231465 -0.12378654
-0.0026221722 0.11479378 -0.054479152 0.038664117 -0.101900056 -0.010376811 -0.00790824 -0.005537346
-0.12251876 -0.01897496 0.079615414 0.04299687 0.09605707 -0.037110254 0.0011783242 0.07869083
-0.013149291 0.018831104 -0.11209123 -0.031519175 0.09898889 0.11485678 0.038975805 -0.06732327
0.09914149 0.04311125 -0.104074895 -0.0084160715 -0.06541352 -0.01715234 -0.05978696 0.08811915
-0.018065885 0.02809444 -0.09758133 -0.04837112 -0.057316825 0.03732744 -0.10440755 -0.047782943
-0.12428115 -0.0045679808 0.036620885 -0.10833521 -0.026064947 -0.1029647 -0.12190658 -0.02544187
-0.05569087 -0.026904419 0.0537107 0.080593646 0.031030074 -0.06946549 0.023105115 0.018283322
0.122159064 0.034801126 -0.018021554 -0.06998697 -0.012140557 -0.0117896795 -0.10818556 -0.04589957
0.048203707 0.015133217 0.022303045 0.043294877 0.054087833 -0.023158297 0.074680775 0.005670622
-0.05407852 0.057017177 0.12345259 0.03624071 0.083960995 0.015748844 -0.053282186 0.022906959
-0.036901444 -0.032890886 -0.07895371 0.100979045 -0.0898059 0.107758045 -0.034148633 0.11558266
-0.018527523 0.12360768 -0.124752924 -4.0367246e-05 -0.118836656 -0.06081544 -0.004089713 0.08773029
-0.050909042 0.10760392 0.024171457 -0.0022105873 0.12449743 -0.07457639 -0.024458095 0.07789469
-0.089554936 -0.11934909 0.09608038 -0.10054584 0.008259982 0.11221379 0.073057115 0.041550487
0.022782832 -0.04557468 -0.01838474 -0.115260184 0.0066763014 0.067640215 0.08768724 -0.07682024
-0.052743554 -0.021055043 0.017935097 0.049105346 -0.006190777 -0.025927871 -0.12073065 -0.10948321
-0.044706106 -0.040337384 -0.033365726 0.041316733 -0.11554366 0.07486194 -0.06145321 -0.06200525
0.07290071 0.039413378 -0.060112804 -0.0038691312 -0.0147001445 -0.0073899925 -0.0507026 0.006001726
00000000: 2193 b83d 428c e6bc fc00 173d 6d20 0e3e
00000010: 63de e2bd ec36 043e 868c e4bd e679 d9bc
00000020: 5ad6 84bb 8d06 f1bd 9dd8 933c 65fe aa3d
00000030: feb7 823d ecac 353d dbc2 0cbd 523b 05be
00000040: 6bfa d3bd 1ef3 75bd 0a0b b63d a91b 653d
00000050: 86a8 0cbd 1bdb f63c 668b 913b 1e5a f9bc
00000060: 2a52 843d 0986 85bd 7726 b4bd 1e9d 853b
00000070: c1d8 523c cd6d c23c ae69 e6bc b2a0 b03d
00000080: 149f 5cbd 7513 0abd d959 1b3d 3c77 033d
00000090: ad1b 913d 69f0 713c c726 9bbd b42b f3bd
000000a0: 16cd a43c 6018 d8bd ee43 85bd f1cd b13d
000000b0: fdde f3bb c6b4 3fbd 50cc d0bd 12fb bd3d
000000c0: 7f8f 033d 02e9 963d 619c 8c3d a285 663d
000000d0: b05b 9dbd 9b36 473b 83d3 b2bd 2bfd 56bc
000000e0: b1ca c63d 1479 433d b404 05be 66a5 96bc
000000f0: 24b4 213d c9d0 3dbd ed6c 863d 6a94 85bd
00000100: 3c3a 573d 10df eebd e09f 28bd 8053 cebb
00000110: 8adb b93d a096 2ebc 885c 523d c809 0f3d
00000120: f8cd ccbd 002d 48bb 302c 54bc 40c1 933b
00000130: 2cda f7bd 0eb5 fcbd 247c 1bbd 88f1 c83c
00000140: e2a5 80bd 1c1c 323d 28a4 e7bd c421 36bd
00000150: 946c f7bd 4690 ce3d 0e59 b6bd 146e c1bd
00000160: f44e 6f3d 8c2d 73bd 9880 d13c c0a5 2ebd
00000170: b4ac 45bd 3868 29bd a6f5 f53d a079 edbc
00000180: 80b5 b93c ae55 acbd 62a8 8cbd 3c12 4bbd
00000190: dac9 f2bd 1895 f8bd 1636 fdbd 6c2e 003d
000001a0: 6c09 b6bd 00c8 1cbb d8bd 933c d0f6 35bd
000001b0: d625 eb3d d272 8b3d 90d7 ba3d cc83 fdbd
000001c0: c0d8 2bbb 0019 eb3d 8825 5fbd 445e 1e3d
000001d0: fab0 d0bd 8003 2abc 9091 01bc a072 b5bb
000001e0: 1eeb fabd 6071 9bbc 680d a33d 7c1d 303d
000001f0: 92b9 c43d ec00 18bd 0072 9a3a a828 a13d
00000200: 2070 57bc b043 9a3c 1690 e5bd 401a 01bd
00000210: b0ba ca3d 083a eb3d 18a5 1f3d c8e0 89bd
00000220: b20a cb3d 6c95 303d 3825 d5bd 90e3 09bc
00000230: 86f7 85bd 1083 8cbc 2ce3 74bd d077 b43d
00000240: e8fe 93bc 5026 e63c b8d8 c7bd cc20 46bd
00000250: 0cc5 6abd a8e4 183d a0d3 d5bd 0cb8 43bd
00000260: 1e87 febd 00af 95bb c8ff 153d dade ddbd
00000270: 2886 d5bc 28df d2bd 28aa f9bd 786b d0bc
00000280: 1c1c 64bd a866 dcbc c0ff 5b3d 480e a53d
00000290: c832 fe3c ec43 8ebd f046 bd3c e8c6 953c
000002a0: 882e fa3d a08b 0e3d f0a1 93bc 5455 8fbd
000002b0: 30e9 46bc 8029 41bc 6490 ddbd 3001 3cbd
000002c0: 4071 453d 50f1 773c e0b4 b63c f855 313d
000002d0: 348b 5d3d 78b6 bdbc 3cf2 983d a0d0 b93b
000002e0: 7081 5dbd d88a 693d b6d4 fc3d 2471 143d
000002f0: bef3 ab3d b803 813c 6c3e 5abd 60a7 bb3c
00000300: f825 17bd 98b8 06bd 7cb2 a1bd 1ace ce3d
00000310: 28ec b7bd 40b0 dc3d 70df 0bbd 9ab6 ec3d
00000320: 08c7 97bc 0626 fd3d 767e ffbd 0050 29b8
00000330: a260 f3bd 9c19 79bd 0003 86bb f0ab b33d
00000340: 0086 50bd 725f dc3d 3803 c63c 80df 10bb
00000350: 82f8 fe3d 82bb 98bd 585c c8bc 4087 9f3d
00000360: 9468 b7bd 4c6d f4bd cac5 c43d faea cdbd
00000370: e054 073c 58d0 e53d f89e 953d d830 2a3d
00000380: 10a3 ba3c 84ac 3abd 989b 96bc 880d ecbd
00000390: e0c4 da3b f486 8a3d 5e95 b33d ee53 9dbd
000003a0: a009 58bd a07b acbc a0ec 923c b022 493d
000003b0: 00dc cabb b066 d4bc a241 f7bd bc38 e0bd
000003c0: c01d 37bd d038 25bd 80aa 08bd bc3b 293d
000003d0: 28a2 ecbd 3851 993d 5cb6 7bbd 38f9 7dbd
000003e0: f84c 953d ec6f 213d d838 76bd 4091 7dbb
000003f0: e0d8 70bc c027 f2bb 88ad 4fbd 20aa c43b

conv1.nn.0.bias f4 [64]
-0.06248057 0.10603526 0.038220704 0.060450718 0.10354836 -0.028612468 0.08301477 0.06195976
-0.16506726 -0.12585731 0.06286155 -0.047694318 -0.023723945 -0.036606994 -0.108999476 0.089787036
0.05805881 -0.1991485 -0.041797858 0.13889405 0.009501323 0.07080328 0.095550664 -0.079943836
-0.06450858 0.029152354 0.059842408 -0.16529045 0.120696455 -0.011105313 -0.04369807 0.07108041
-0.09776328 -0.029227447 -0.10856118 0.008476494 0.11975936 0.10419963 0.019475877 0.028048791
0.09232264 0.11473879 0.015978158 -0.16675957 -0.090831324 -0.03828554 0.07324272 0.01743567
-0.03971371 0.055934552 -0.026599184 -0.08271612 -2.8014183e-05 -0.02138932 0.08329551 0.05436235
-0.09952973 0.022989536 0.06622072 0.04522115 -0.10814578 0.067618944 -0.03781078 -0.003477198
00000000: a0eb 7fbd 0429 d93d 508d 1c3d 2c9b 773d
00000010: 2a11 d43d b264 eabc a603 aa3d 84c9 7d3d
00000020: 6407 29be bde0 00be 8ebd 803d 1e5b 43bd
00000030: b858 c2bc 37f1 15bd 1e3b dfbd 44e2 b73d
00000040: 13cf 6d3d 96ed 4bbe 3b34 2bbd 3e3a 0e3e
00000050: 70ab 1b3c 4f01 913d 11b0 c33d 98b9 a3bd
00000060: 131d 84bd ebd0 ee3c 501d 753d e641 29be
00000070: b42f f73d 0ff3 35bc bffc 32bd 9b92 913d
00000080: 1d38 c8bd 666e efbc 5355 debd fee0 0a3c
00000090: 6544 f53d 9e66 d53d e08b 9f3c 94c6 e53c
000000a0: a713 bd3d 2cfc ea3d a0e4 823c 05c3 2abe
000000b0: c605 babd 4cd1 1cbd 4700 963d 40d5 8e3c
000000c0: d8aa 22bd a11b 653d 88e6 d9bc 1267 a9bd
000000d0: 0000 ebb7 a838 afbc d696 aa3d 0eab 5e3d
000000e0: 3ed6 cbbd 8d54 bc3c bb9e 873d d039 393d
000000f0: 897b ddbd cd7b 8a3d 7adf 1abd b4e1 63bb

conv1.nn.2.weight f4 [64, 64]
0.07400301 0.009916335 0.016818061 -0.10744578 -0.075497925 -0.06281651 0.021170774 -0.050363556
-0.0051994296 0.021238344 0.06315924 0.045362927 0.06337553 -0.12975861 -0.002666123 0.06694841
0.05809856 0.0015963466 -0.04224908 0.05179504 -0.12208505 -0.03217634 -0.029893797 -0.065265685
-0.008971004 0.12814297 0.09990659 -0.11356533 -0.042611107 0.053645216 0.04121074 -0.057745717
-0.14446208 -0.02548763 -0.05174117 0.04980846 -0.20540574 0.11971186 0.10244554 -0.1093082
0.11662264 0.07343903 0.052404255 -0.05215102 0.026086077 0.055963457 0.040640876 0.010959786
0.029780075 -0.026216106 -0.09222101 -0.09499216 0.089018404 -0.0017952621 0.022040218 -0.06479791
0.03271167 -0.08407311 0.0739321 -0.08057876 -0.10289168 0.115579344 0.036216006 -0.06303467
-0.09411448 0.09280747 -0.031110197 -0.080927 0.02974705 0.05858042 0.12395765 -0.07840487
0.09260675 -0.10188335 -0.060786396 0.11084834 0.11521512 0.007923143 -0.0073992903 0.07240065
0.12202183 0.053375315 0.021056699 0.10725232 0.011239544 0.04137089 0.033066537 -0.061224975
0.048309725 0.10287253 -0.119968474 0.082586646 -0.04561785 -0.12966874 -0.105758056 0.016594596
0.080815904 0.029421695 0.07466376 -0.034967087 -0.03018889 0.047847837 0.11762476 -0.0131045645
-0.019466698 0.021110132 -0.054060742 -0.025411552 0.03455332 -0.086041674 -0.03614904 -0.017417952
-0.0074075013 -0.0120932255 -0.096389346 -0.09237471 -0.0060178936 -0.026345298 -0.065542094 0.099516496
-0.06756067 0.092675075 0.07605678 0.07607101 0.06946515 0.063723974 -0.08986461 0.038041696
-0.030116037 0.025523618 -0.027449429 0.0138344765 0.052674204 0.078062415 0.012051165 -0.033406615
-0.05165423 -0.02746789 -0.048496135 0.10273112 -0.065242425 0.092579365 -0.14194998 0.0072503537
-0.06267409 -0.09067024 0.038647503 -0.080235735 -0.021087438 -0.07840584 0.06910162 -0.045114294
-0.11581366 -0.092497125 -0.096741945 0.007514283 0.013386011 -0.11387899 -0.07989781 0.031649247
0.033706695 -0.101437226 -0.029325843 0.0008282374 0.09632736 0.079315275 -0.030934408 0.10025823
-0.121796936 0.101938695 0.024447411 -0.026006563 -0.04801649 -0.097074136 0.1189886 0.047327057
-0.013493687 0.06821562 -0.110601395 0.1236624 0.047306642 0.11861007 -0.06215912 -0.06014998
0.03682421 -0.0060618185 -0.10843958 0.0876158 0.05098407 0.004551545 0.018973246 0.057546362
0.048673276 0.08214562 0.025836185 -0.105450496 0.12769422 0.020679627 0.09291586 -0.00054608285
-0.0064850547 -0.08941006 0.10701942 -0.10879513 0.06631389 -0.093864076 0.09826178 -0.02738585
-0.11615481 0.042150024 -0.09161982 -0.1263473 -0.061624765 -0.028092166 0.07892395 -0.022737306
-0.13038136 0.013939356 0.089568585 0.083197825 -0.11463818 -0.10149398 0.023516769 -0.076366834
-0.12032925 -0.034157127 -0.0016460645 0.0952675 0.07833717 0.0589635 -0.03370051 0.11671749
0.11670684 0.034706637 -0.09894577 0.0074595646 0.04075937 0.09831862 -0.063200116 0.120929964
-0.033170685 0.039771754 -0.12566143 -0.11036402 -0.04221548 -0.013289556 0.123179324 0.09711431
-0.07280895 0.012725251 0.10405111 0.018049166 0.0376355 0.04544699 -0.040153716 -0.05471307
00000000: e48e 973d 2078 223c 08c6 893c 880c dcbd
00000010: a89e 9abd f1a5 80bd 556e ad3c 044a 4ebd
00000020: fa5f aabb 09fc ad3c a259 813d 7ace 393d
00000030: 08cb 813d 71df 04be 1fba 2ebb 3f1c 893d
00000040: c1f8 6d3d 813c d13a 5f0d 2dbd 0927 543d
00000050: ba07 fabd 57cb 03bd d6e3 f4bc 04aa 85bd
00000060: 1efb 12bc e937 033e d49b cc3d f194 e8bd
00000070: fc88 2ebd 16bb 5b3d 98cc 283d c686 6cbd
00000080: deed 13be 6fcb d0bc 8dee 53bd f503 4c3d
00000090: e255 52be 7e2b f53d f8ce d13d fadc dfbd
000000a0: dad7 ee3d 3467 963d d8a5 563d 4f9c 55bd
000000b0: 78b2 d53c f039 653d 0c77 263d ad90 333c
000000c0: 58f5 f33c 29c3 d6bc 5ede bcbd 408b c2bd
000000d0: 484f b63d 004f ebba b08d b43c c4b4 84bd
000000e0: acfc 053d 862e acbd b669 973d 7a06 a5bd
000000f0: e0b8 d2bd ddb4 ec3d 3c57 143d 5218 81bd
00000100: 18bf c0bd d811 be3d d0da febc 0ebd a5bd
00000110: 16b0 f33c 06f2 6f3d 82dd fd3d bc92 a0bd
00000120: 9ca8 bd3d 38a8 d0bd 28fb 78bd 7404 e33d
00000130: e8f5 eb3d 12d0 013c bf75 f2bb cb46 943d
00000140: 95e6 f93d 13a0 5a3d 197f ac3c 1ba7 db3d
00000150: 1026 383c 8674 293d c770 073d 0ac7 7abd
00000160: 6be0 453d d5ae d23d 08b2 f5bd 3023 a93d
00000170: c8d9 3abd e2c7 04be ae97 d8bd 64f1 873c
00000180: cf82 a53d c405 f13c 50e9 983d a639 0fbd
00000190: b14e f7bc 18fc 433d 40e5 f03d 87b4 56bc
000001a0: a078 9fbc 28ef ac3c cc6e 5dbd e32b d0bc
000001b0: c887 0d3d 9e36 b0bd 0411 14bd 18b0 8ebc
000001c0: a0ba f2bb aa22 46bc c767 c5bd f42e bdbd
000001d0: c031 c5bb 18d2 d7bc ef3a 86bd 4ecf cb3d
000001e0: 405d 8abd 6ecc bd3d a8c3 9b3d 1ecb 9b3d
000001f0: bf43 8e3d b781 823d f00a b8bd 9cd1 1b3d
00000200: e8b5 f6bc e816 d13c a0dd e0bc 00aa 623c
00000210: e8c0 573d 30df 9f3d 4072 453c 60d5 08bd
00000220: 6393 53bd 5704 e1bc e2a3 46bd b264 d23d
00000230: d29d 85bd 409a bd3d 565b 11be 6094 ed3b
00000240: 465b 80bd 52b1 b9bd d84c 1e3d a252 a4bd
00000250: 90bf acbc 3e93 a0bd 2685 8d3d c4c9 38bd
00000260: b62f edbd 226f bdbd a420 c6bd 603a f63b
00000270: 0051 5b3c 6339 e9bd 77a1 a3bd a4a2 013d
00000280: 0810 0a3d 52be cfbd c03c f0bc 121e 593a
00000290: 4747 c53d 0c70 a23d 286a fdbc 3054 cd3d
000002a0: ac70 f9bd 3cc5 d03d f045 c83c b70b d5bc
000002b0: f0ac 44bd cece c6bd 4cb0 f33d 04da 413d
000002c0: a014 5dbc a2b4 8b3d fc82 e2bd b642 fd3d
000002d0: 9cc4 413d d6e9 f23d 909a 7ebd d35f 76bd
000002e0: fcd4 163d 38a2 c6bb 9215 debd ea6f b33d
000002f0: acd4 503d 2025 953b c86d 9b3c bcb5 6b3d
00000300: a15d 473d f63b a83d 68a6 d33c 6ef6 d7bd
00000310: 46c2 023e 5268 a93c ac4a be3d 0027 0fba
00000320: 9580 d4bb 9f1c b7bd ff2c db3d fbcf debd
00000330: 94cf 873d cf3b c0bd 793d c93d 4a58 e0bc
00000340: 93e2 edbd 81a5 2c3d 2ca3 bbbd 3061 01be
00000350: 406a 7cbd 8b21 e6bc e1a2 a13d 9643 babc
00000360: b182 05be e661 643c bc6f b73d 9f63 aa3d
00000370: 6cc7 eabd 13dc cfbd 3da6 c03c 3766 9cbd
00000380: 2f6f f6bd 58e8 0bbd c2c0 d7ba 9b1b c33d
00000390: 3d6f a03d b683 713d 8c09 0abd 9409 ef3d
000003a0: ff03 ef3d 8c28 0e3d 14a4 cabd 5d6f f43b
000003b0: 4cf3 263d 465b c93d 106f 81bd 21aa f73d
000003c0: fcdd 07bd b5e7 223d 64ad 00be 8806 e2bd
000003d0: 24ea 2cbd 70bc 59bc 7145 fc3d dee3 c63d
000003e0: dc1c 95bd 927d 503c c018 d53d d8db 933c
000003f0: af27 1a3d 9f26 3a3d 3978 24bd d01a 60bd

conv1.nn.2.bias f4 [64]
-0.0694445 0.059274253 -0.094453566 0.06129673 0.10511553 -0.05458401 0.09573197 -0.028447801
-0.019549739 0.019994413 0.048757154 0.083050214 0.13307154 0.04070817 0.10679118 -0.016001381
0.10108345 0.027477315 0.028939763 -0.0043575815 -0.08595871 -0.023790238 -0.1161281 0.13735874
-0.0325544 -0.13725072 0.023273675 0.11728376 -0.08679895 -0.0070899487 -0.13548182 -0.006623181
-0.07796691 0.030884076 0.056834683 -0.0736861 -0.09571234 -0.04776158 0.11072296 0.440505
-0.13459346 0.021043971 -0.042634986 0.10160261 -0.016154021 -0.052433368 -0.10041965 0.09824171
0.08895899 -0.020425398 -0.07126747 0.020648628 -0.118854865 0.010264933 -0.10477596 -0.02783627
-0.17997487 0.109739445 -0.10801733 -0.17180686 0.016449504 -0.055288054 -0.021552244 -0.088134155
00000000: eb38 8ebd 8fc9 723d df70 c1bd 4812 7b3d
00000010: d046 d73d 7c93 5fbd 200f c43d 5d0b e9bc
00000020: c626 a0bc 53cb a33c 95b5 473d 3b16 aa3d
00000030: e843 083e 9cbd 263d 56b5 da3d 5415 83bc
00000040: d704 cf3d 1b18 e13c 1513 ed3c 0bca 8ebb
00000050: 1f0b b0bd bfe3 c2bc 92d4 edbd c5a7 0c3e
00000060: c357 05bd 748b 0cbe 6fa8 be3c 7832 f03d
00000070: a6c3 b1bd cd52 e8bb bfbb 0abe 4507 d9bb
00000080: 1ead 9fbd 9a00 fd3c 7ccb 683d bde8 96bd
00000090: d504 c4bd a6a1 43bd b8c2 e23d df89 e13e
000000a0: ded2 09be 6864 ac3c 06a2 2ebd 0715 d03d
000000b0: 7055 84bc 5fc4 56bd d1a8 cdbd f332 c93d
000000c0: 2230 b63d 2a53 a7bc aef4 91bd 5027 a93c
000000d0: 2e6a f3bd 402e 283c c794 d6bd e408 e4bc
000000e0: 554b 38be 13bf e03d 3138 ddbd 23ee 2fbe
000000f0: 1cc1 863c ba75 62bd 558e b0bc ae7f b4bd

conv1.lin.weight f4 [64, 7]
-0.20137207 0.47749043 0.23731957 0.035287563 0.35388047 -0.28246066 0.30552197 -0.5390758
0.30570436 -0.102688864 -0.067200825 -0.2383541 0.34119123 -0.050424207 0.11769054 -0.15353003
-0.019711323 -0.15100582 -0.005700305 0.72736603 0.7050166 0.10364041 -0.07285341 0.19270587
-0.13533035 -0.32195222 -0.19155967 -0.2767777 0.13304217 0.24447691 0.29106244 -0.23610221
0.29259315 0.16096242 -0.37240517 0.06348888 0.07843645 -0.089976415 -0.100226454 -0.28058332
-0.23443691 -0.022650631 -0.07356012 0.5278743 -0.10270341 -0.08431578 -0.12481582 0.1670029
0.312326 -0.019212889 -0.13884339 -0.40569293 0.020503804 0.099414624 -0.2235103 0.17427056
0.41814086 0.8405094 0.3066573 0.43209967 -0.20959604 0.43147016 -0.24235184 0.32403976
0.060374506 -0.18098879 -0.24104126 0.011053202 -0.111050196 -0.17584832 0.39580128 0.17579545
0.3670478 0.040363252 0.441427 -0.23079406 0.02208877 -0.15150826 -0.33122075 -0.09421447
-0.29336005 0.10040172 0.025181387 -0.16403176 0.10835406 -0.21761942 0.14375232 -0.4352164
0.27383062 -0.4336899 -0.081950754 0.29692382 0.13642538 0.13721225 0.2883254 -0.09458515
-0.011551051 0.013587306 0.10488857 0.026344711 0.11082505 0.22295715 -0.16686364 -0.18662512
-0.015169614 -0.6321376 1.1734735 0.23622556 0.12167801 -0.26729506 0.03971049 0.15406574
-0.25765443 0.26364464 0.22630236 -0.25425017 -0.22965348 -0.19789484 0.09648209 0.22935656
-0.12553549 -0.3186264 0.0028683962 -0.18194811 0.14101556 -0.006590371 -0.052086808 -0.061973423
-0.12988478 0.20408972 0.08438141 -0.24956594 -0.014792646 -0.3233006 0.00081552943 0.14872505
0.22021355 -0.140166 -0.22177324 0.3364938 -0.11185447 -0.06131119 -0.034004375 -0.10264996
-0.23450325 -0.27853325 0.1435172 -0.07756387 0.31419122 0.3070776 -0.34527883 0.25346857
0.31824702 -0.19226319 0.32188043 -0.043045085 -0.0009408326 0.28742808 0.35929433 -0.13869669
-0.34053063 0.60270655 0.20227957 -0.03969709 0.25298557 0.29002658 -0.8188616 0.050983824
0.07092558 0.2591715 -0.20967789 0.12579432 0.19963348 0.3158396 0.23784834 -0.081997216
-0.11084984 0.18344979 0.03861036 0.08557521 -0.027156167 0.24352914 0.07440485 -0.19936717
0.07686419 -0.13641235 -0.22728251 0.20610934 0.20933834 0.2260568 0.49703148 0.10652489
-0.16926208 -0.32046765 0.073188506 0.1406443 0.056535173 0.052917827 -0.2983112 -0.30380398
-0.06311754 -0.08154834 -0.16025007 -0.40834126 0.028102286 -0.43870792 0.13630445 -0.43589583
0.042375557 0.01655434 0.35904658 -0.17253464 0.28933936 0.25084084 0.2979305 -0.3896055
0.06702078 0.17832935 -0.021307802 0.093941785 0.22104642 0.022151718 0.06462453 -0.1303422
0.014048395 -0.22983724 -0.28675014 0.3204399 0.022984136 0.0662647 -0.116263956 -0.27768666
-0.2331842 0.35968047 0.08902775 0.3360212 -0.17391066 -0.051975224 -0.27681488 -0.07626994
0.15455535 -0.30682844 0.026458794 0.32554755 -0.21263795 -0.3467168 0.26681575 0.1768735
-0.050440226 -0.3279066 -0.059896134 0.21939005 -0.016383883 0.15290691 0.27165717 -0.2622515
00000000: 7b34 4ebe a079 f43e e703 733e b189 103d
00000010: d22f b53e af9e 90be 606d 9c3e df00 0abf
00000020: 4885 9c3e 8a4e d2bd 96a0 89bd 1913 74be
00000030: 9eb0 ae3e 9d89 4ebd bd07 f13d fa36 1dbe
00000040: a479 a1bc 45a1 1abe a0c9 babb a934 3a3f
00000050: f87b 343f 6c41 d43d 2b34 95bd b054 453e
00000060: 0a94 0abe ecd6 a4be 3828 44be cfb5 8dbe
00000070: 353c 083e 2858 7a3e 2306 953e c7c4 71be
00000080: c5ce 953e 55d3 243e e4ab bebe 7506 823d
00000090: 4aa3 a03d 8e45 b8bd 8743 cdbd 9ea8 8fbe
000000a0: 3b10 70be d18d b9bc b0a6 96bd c522 073f
000000b0: 2a56 d2bd c0ad acbd 709f ffbd cf02 2b3e
000000c0: 32e9 9f3e 5964 9dbc f62c 0ebe fcb6 cfbe
000000d0: 98f7 a73c e599 cb3d e2df 64be fb73 323e
000000e0: 8f16 d63e a02b 573f 3002 9d3e 2b3c dd3e
000000f0: 58a0 56be a8e9 dc3e 152b 78be 8ae8 a53e
00000100: 424b 773d 2055 39be 85d3 76be 7d18 353c
00000110: 496e e3bd 9511 34be 77a6 ca3e b903 343e
00000120: b0ed bb3e f053 253d b802 e23e 4755 6cbe
00000130: 82f3 b43c fb24 1bbe c495 a9be 84f3 c0bd
00000140: 4a33 96be 6b9f cd3d 3249 ce3c f1f7 27be
00000150: bce8 dd3d a0d7 5ebe cf33 133e afd4 debe
00000160: 8733 8c3e 9a0c debe ccd5 a7bd 6606 983e
00000170: 18b3 0b3e 5e81 0c3e 639f 933e dcb5 c1bd
00000180: 9f40 3dbc 4b9d 5e3c d2cf d63d ddd0 d73c
00000190: 3ef8 e23d e14e 643e 4dde 2abe a81a 3fbe
000001a0: f989 78bc c5d3 21bf 6134 963f 1de5 713e
000001b0: 5232 f93d e6da 88be 77a7 223d 69c3 1d3e
000001c0: 48eb 83be 6efc 863e cebb 673e 142d 82be
000001d0: 482a 6bbe f2a4 4abe 6798 c53d 72dc 6a3e
000001e0: 608c 00be 0023 a3be b4fb 3b3b 9b50 3abe
000001f0: 6266 103e 0af4 d7bb fa58 55bd d8d7 7dbd
00000200: 8400 05be e5fc 503e 29d0 ac3d 378e 7fbe
00000210: db5c 72bc a887 a5be 41c9 553a 614b 183e
00000220: a97f 613e ad87 0fbe 8618 63be ea48 ac3e
00000230: f513 e5bd 7121 7bbd 2c48 0bbd 243a d2bd
00000240: 9f21 70be e99b 8ebe 2cf6 123e ced9 9ebd
00000250: acdd a03e 4639 9d3e 63c8 b0be a2c6 813e
00000260: 46f1 a23e a4e0 44be 83cd a43e 0b50 30bd
00000270: 35a2 76ba c629 933e 6df5 b73e 8106 0ebe
00000280: 085a aebe fa4a 1a3f 6022 4f3e 6a99 22bd
00000290: 5387 813e 5d7e 943e eaa0 51bf 6ad4 503d
000002a0: 6e41 913d 20b2 843e cdb5 56be 3ad0 003e
000002b0: b86c 4c3e bab5 a13e 848e 733e 28ee a7bd
000002c0: 3e05 e3bd 43da 3b3e e625 1e3d 0e42 af3d
000002d0: 9c76 debc b45f 793e 9261 983d e826 4cbe
000002e0: f96a 9d3d aeaf 0bbe bfbc 68be 540e 533e
000002f0: ca5c 563e 6f7b 673e e97a fe3e b929 da3d
00000300: 0a53 2dbe 5614 a4be dbe3 953d 0f05 103e
00000310: 6d91 673d 5dc0 583d 3fbc 98be 328c 9bbe
00000320: c543 81bd d102 a7bd 9818 24be 1b12 d1be
00000330: c436 e63c 539e e0be 6593 0b3e bd2d dfbe
00000340: fe91 2d3d f89c 873c f4d4 b73e ecac 30be
00000350: 4a24 943e 366e 803e 598a 983e 5f7a c7be
00000360: 3142 893d f89b 363e b38d aebc 8d64 c03d
00000370: fe59 623e 8577 b53c de59 843d 6d78 05be
00000380: 3d2b 663c 745a 6bbe ead0 92be b310 a43e
00000390: 3a49 bc3c c9b5 873d cc1b eebd f22c 8ebe
000003a0: d7c7 6ebe 0a28 b83e 2e54 b63d f90a ac3e
000003b0: a315 32be f9e3 54bd aeba 8dbe 6a33 9cbd
000003c0: c243 1e3e 9e18 9dbe 1dc0 d83c 2bae a63e
000003d0: c3bd 59be dd84 b1be 139c 883e 541e 353e
000003e0: 699a 4ebd 60e3 a7be a655 75bd c9a7 603e
000003f0: 7e37 86bc a193 1c3e a616 8b3e d445 86be

conv1.lin.bias f4 [64]
-0.15860896 0.29332423 -0.05820417 0.346418 -0.070546746 0.26328102 0.085471615 0.17286442
0.18942586 0.103282444 0.026457982 0.3500791 0.14615563 0.24090894 0.012706039 0.035471056
0.32027173 0.07867882 0.20823002 -0.2186106 -0.20058443 0.21089153 -0.28856257 0.46341145
0.33183765 -0.0424702 -0.0449523 0.17493954 0.3052382 0.24516177 0.2631699 -0.23162198
-0.10575758 0.28516456 -0.36380038 0.31674823 -0.1467819 0.23160928 -0.21417448 -0.113855235
0.3001586 -0.12887123 -0.16258408 0.30474082 0.17579916 -0.29703584 0.034396302 -0.30729568
-0.34040675 -0.36224967 -0.10511071 -0.3179624 0.18040021 0.053532023 -0.13865171 -0.30972606
-0.23907277 0.29113284 0.051373415 -0.2060195 0.45592207 0.0037324305 0.067645855 0.100268096
00000000: 636a 22be 982e 963e 7f67 6ebd b35d b13e
00000010: d07a 90bd c5cc 863e be0b af3d 5f03 313e
00000020: daf8 413e bf85 d33d 69be d83c 913d b33e
00000030: d2a9 153e d5b0 763e fd2c 503c 194a 113d
00000040: a8fa a33e 5c22 a13d 403a 553e 75db 5fbe
00000050: 0166 4dbe f3f3 573e 79be 93be 4444 ed3e
00000060: a0e6 a93e 3cf5 2dbd e71f 38bd 5a23 333e
00000070: 2e48 9c3e b00b 7b3e 35be 863e 502e 6dbe
00000080: 6e97 d8bd 1701 923e 0b44 babe d32c a23e
00000090: ff4d 16be fc2a 6d3e 8e50 5bbe ef2c e9bd
000000a0: 63ae 993e d2f6 03be 717c 26be fd06 9c3e
000000b0: b204 343e 1515 98be 23e3 0c3d dc55 9dbe
000000c0: cb49 aebe ca78 b9be 4944 d7bd f8cb a2be
000000d0: d5ba 383e 6544 5b3d b7fa 0dbe 6a94 9ebe
000000e0: 7ecf 74be 5d0f 953e ee6c 523d c7f6 52be
000000f0: 9e6e e93e cb9b 743b e989 8a3d 5c59 cd3d

conv2.nn.0.weight f4 [64, 64]
-0.057607718 0.08747788 0.005966293 -0.005371483 -0.036306977 -0.36919898 0.036685668 -0.120993644
-0.09311112 -0.0323285 0.11180584 -0.017234186 -0.1311307 -0.23027013 0.17310408 0.095281325
-0.09767782 0.054981556 -0.093106866 -0.3628158 0.019747183 -0.07989674 -0.07372063 -0.06887668
0.036808837 0.078831844 0.08111445 -0.053393226 -0.08018516 0.0009153554 -0.21644092 -0.08477738
-0.124721676 0.21262242 -0.06210022 0.10465485 -0.054621205 0.022468071 -0.085073106 0.16774212
0.15465757 0.08133252 0.09318302 0.05675019 -0.4610847 -0.06445315 0.07337733 -0.06192907
-0.7985637 -0.020103531 0.03748721 0.06765955 0.1700735 0.07013311 0.008741792 0.10416811
0.1662299 -0.10831403 0.025921201 -0.118386775 0.087872066 0.026939731 -0.069457226 0.020678902
-0.15991344 -0.0066600777 -0.17479868 0.07618941 -0.023523845 -0.418733 -0.0203898 0.13913512
0.09906754 -0.3362746 -0.007335279 -0.008776301 0.15738457 -0.7163938 0.114611015 0.059683368
0.08907175 0.21777903 0.049949206 -0.5547555 -0.030516045 -0.0829341 -0.063200705 -0.0050262627
0.0045379596 -0.057019297 -0.07303265 0.03810573 -0.11788644 0.058757473 -0.07399846 -0.06908085
-0.037801143 0.03199267 0.038093675 -0.09634126 0.033467837 0.07457725 0.08815399 0.27363896
0.10954148 0.039244145 -0.09138084 -0.022710944 -0.07920693 0.051960006 -0.04812908 0.10342392
-1.0997925 0.1535831 -0.13418636 -0.027440824 0.097786315 0.009793047 -0.1143241 -0.016498176
0.032631468 0.068888105 0.07209599 -0.30283216 -0.13886617 0.069394805 -0.08136364 -0.030508634
0.8168777 0.1239063 -0.09609286 -0.50907606 -0.066097245 0.27680683 -0.11797834 -0.120869994
0.1260698 -0.03319377 -0.036074165 0.027563332 -0.14300314 -0.45849365 -0.051566016 -0.27288032
-0.27984384 -0.038413044 -0.08966994 0.08232075 0.055273604 -0.003199452 -0.14904957 0.12126528
0.041584503 0.07375928 0.09243255 -0.006402271 0.037210267 0.017019195 0.2002867 -0.18376672
0.010576474 0.0907055 -0.39858824 -0.023446493 0.04938243 0.03709821 -0.0938225 0.19956475
0.11691725 0.043662876 -0.00015824071 -0.087803245 -0.14435695 0.18860933 -0.037415814 0.095567025
0.04540498 -0.021214988 -0.11274694 0.03611616 0.07494663 -0.21528465 -0.063468896 -0.13674307
-0.17535663 -0.073290244 0.15643418 0.04082878 -0.038967807 -0.037813835 -0.07170038 0.013046585
-0.22794427 0.096389644 0.08051562 -0.12916936 0.04755143 0.10916443 -0.12653147 -0.10107306
-0.07870244 -0.05226534 -0.11510617 0.0036237934 0.11557426 -0.10433834 -0.37250325 0.06502649
-0.09507081 -0.07683115 0.06627524 0.16791114 -0.012149131 -0.22342053 0.003500315 0.054456882
-0.09824969 0.02525465 0.08061459 0.14614223 -0.11564488 -0.111551456 -0.098480985 -0.12198336
-0.35356858 -0.2551288 0.07956838 -0.017326923 0.063856155 0.10979635 -0.08512908 0.2376762
0.020151265 -0.043445308 0.026136603 -0.05859706 0.2909391 -0.0382422 0.018960685 0.12498571
0.046182908 -0.17999397 0.15225783 0.03198161 0.008370627 -0.32388017 0.057986114 0.04041745
-0.18149914 0.055294823 0.032849833 0.03970514 -0.098634966 0.06960781 0.09268666 -0.033405863
00000000: 12f6 6bbd 9a27 b33d e580 c33b 4403 b0bb
00000010: a0b6 14bd a607 bdbe b643 163d 84cb f7bd
00000020: 0bb1 bebd e46a 04bd 76fa e43d b52e 8dbc
00000030: 2047 06be efcb 6bbe 3242 313e db22 c33d
00000040: 4f0b c8bd 5734 613d d0ae bebd fec2 b9be
00000050: d8c4 a13c e7a0 a3bd d7fa 96bd 380f 8dbd
00000060: ddc4 163d 9772 a13d 551f a63d dbb2 5abd
00000070: 1e38 a4bd 76f4 6f3a b0a2 5dbe c39f adbd
00000080: 146e ffbd b1b9 593e cd5c 7ebd 4855 d63d
00000090: 7cba 5fbd f60e b83c cf3a aebd 97c4 2b3e
000000a0: 8e5e 1e3e aa91 a63d bdd6 be3d e372 683d
000000b0: 4b13 ecbe 0300 84bd db46 963d 56a9 7dbd
000000c0: ac6e 4cbf 29b0 a4bc 308c 193d 1791 8a3d
000000d0: bf27 2e3e f3a1 8f3d bc39 0f3c 1756 d53d
000000e0: 2c38 2a3e bfd3 ddbd b358 d43c c474 f2bd
000000f0: 45f6 b33d b6b0 dc3c 973f 8ebd cd66 a93c
00000100: 59c0 23be c83c dabb 6dfe 32be 3209 9c3d
00000110: 14b5 c0bc 2c64 d6be 8308 a7bc 7079 0e3e
00000120: ece3 ca3d 2f2c acbe c85c f0bb 79ca 0fbc
00000130: 6c29 213e 9665 37bf 2eb9 ea3d 8c76 743d
00000140: 406b b63d 7701 5f3e 8a97 4c3d 7504 0ebf
00000150: c9fc f9bc 5ad9 a9bd 5f6f 81bd 59b3 a4bb
00000160: 2ab3 943b 118d 69bd 2492 95bd c114 1c3d
00000170: 726e f1bd adab 703d 818c 97bd 437a 8dbd
00000180: 5fd5 1abd bf0a 033d 1d08 1c3d 914e c5bd
00000190: 9215 093d f5bb 983d 148a b43d 681a 8c3e
000001a0: 4957 e03d 78be 203d e125 bbbd 4d0c babc
000001b0: 3e37 a2bd 04d4 543d 0023 45bd eccf d33d
000001c0: 00c6 8cbf e344 1d3e 2668 09be 94cb e0bc
000001d0: 3144 c83d 0473 203c c122 eabd 2f27 87bc
000001e0: 93a8 053d 3515 8d3d 10a7 933d d10c 9bbe
000001f0: ef32 0ebe dd1e 8e3d fba1 a6bd 3eed f9bc
00000200: e61e 513f 96c2 fd3d 55cc c4bd cf52 02bf
00000210: fe5d 87bd a0b9 8d3e a19e f1bd b08a f7bd
00000220: 7118 013e 31f6 07bd 81c2 13bd 7fcc e13c
00000230: 6a6f 12be aebf eabe e336 53bd f8b6 8bbe
00000240: b147 8fbe ff56 1dbd e0a4 b7bd c897 a83d
00000250: 9366 623d e6ad 51bb 73a0 18be ee59 f83d
00000260: 8354 2a3d 1b0f 973d 474d bd3d 24ca d1bb
00000270: cb69 183d d76b 8b3c f517 4d3e 582d 3cbe
00000280: f248 2d3c cec3 b93d c213 ccbe dc12 c0bc
00000290: 3b45 4a3d 4bf4 173d 0326 c0bd b45a 4c3e
000002a0: 5072 ef3d d8d7 323d 6bed 25b9 30d2 b3bd
000002b0: 4fd2 13be ce22 413e 5341 19bd a5b8 c33d
000002c0: 93fa 393d 0ecb adbc dee7 e6bd 8aee 133d
000002d0: 9e7d 993d 9473 5cbe fbfb 81bd 6006 0cbe
000002e0: b090 33be 3219 96bd 4830 203e 143c 273d
000002f0: b59c 1fbd aee2 1abd a6d7 92bd 58c1 553c
00000300: 396a 69be ef67 c53d 60e5 a43d f944 04be
00000310: 4ac5 423d 9a91 df3d 7791 01be 64ff cebd
00000320: bf2e a1bd 2e14 56bd c9bc ebbd 2a7d 6d3b
00000330: 33b2 ec3d 57af d5bd bfb8 bebe 9c2c 853d
00000340: 7cb4 c2bd a659 9dbd 50bb 873d e6f0 2b3e
00000350: 260d 47bc 5ac8 64be 8a65 653b 2e0e 5f3d
00000360: 2237 c9bd d7e2 ce3c 4319 a53d 4fa6 153e
00000370: 39d7 ecbd 1775 e4bd 66b0 c9bd 69d2 f9bd
00000380: f106 b5be 3ea0 82be bff4 a23d 31f1 8dbc
00000390: 04c7 823d e9dc e03d 2858 aebd 6461 733e
000003a0: 4414 a53c b5f3 31bd 6e1c d63c 7903 70bd
000003b0: f8f5 943e daa3 1cbd 7053 9b3c 82f8 ff3d
000003c0: 4a2a 3d3d 5750 38be 7ae9 1b3e 26ff 023d
000003d0: f424 093c 9fd3 a5be d982 6d3d c58c 253d
000003e0: e9da 39be d37c 623d 8c8d 063d dba1 223d
000003f0: 2101 cabd 8a8e 8e3d 81d2 bd3d 96d4 08bd

conv2.nn.0.bias f4 [64]
0.08964325 0.11365076 -0.08905376 0.28530937 0.08471271 -0.10187514 0.16052434 -0.065819405
0.012095056 0.026036361 -0.15464154 -0.016275235 -0.14746052 -0.18746682 -0.08627138 -0.048179504
-0.20285773 -0.6337513 -0.2181558 0.0023919442 -0.040053148 0.082935855 0.017979627 -0.10800631
0.08655685 0.052998945 -0.09517265 -0.10123842 0.08232285 0.02155969 0.16383943 -0.033385314
0.008536662 0.00543044 -0.1332713 0.24174942 0.18412283 0.25514913 0.1270232 0.087939024
0.07393878 -0.0018736417 -0.13837506 0.11448118 0.13841923 -0.21963824 -0.028600778 0.010125044
0.050663557 0.0540901 -0.023111654 0.0059796674 0.07353526 -0.24337159 -0.061987665 0.036371063
-0.010780765 0.039117727 -0.040288832 0.37860167 0.06332024 0.11071426 0.31338885 -0.0018363285
00000000: e196 b73d bbc1 e83d d161 b6bd 1214 923e
00000010: db7d ad3d eaa3 d0bd 7e60 243e 53cc 86bd
00000020: 572a 463c 354a d53c 5a5a 1ebe a453 85bc
00000030: e4ff 16be 4df7 3fbe 0daf b0bd df57 45bd
00000040: f0b9 4fbe 863d 22bf 3c64 5fbe 2ac2 1c3b
00000050: c50e 24bd 46da a93d 034a 933c 6a32 ddbd
00000060: b844 b13d 6c15 593d e1e9 c2bd 1756 cfbd
00000070: e298 a83d f29d b03c 86c5 273e 0abf 08bd
00000080: 5bdd 0b3c d5f1 b13b 4678 08be 298d 773e
00000090: b28a 3c3e e8a2 823e 5f12 023e 6019 b43d
000000a0: 376d 973d fc94 f5ba 31b2 0dbe 1c75 ea3d
000000b0: c5bd 0d3e d9e8 60be 2e4c eabc 83e3 253c
000000c0: 9784 4f3d 958d 5d3d a754 bdbc 16f1 c33b
000000d0: a899 963d 6736 79be c7e6 7dbd d3f9 143d
000000e0: cea1 30bc e939 203d e705 25bd 14d8 c13e
000000f0: 0bae 813d 28be e23d 8174 a03e f6b0 f0ba

conv2.nn.2.weight f4 [64, 64]
0.1181896 -0.08152454 -0.18577275 -0.09046801 0.6344365 -0.00030847808 0.12914185 0.1102139
-0.11541055 -0.06648807 0.09699533 -0.08837382 -0.09171028 0.09153743 0.006881956 -0.0352997
0.01652057 -0.015636403 -0.14158465 0.06895299 0.014084209 -0.4432283 -0.024932807 0.005783406
0.058888502 -0.10684966 -0.011227541 0.10175219 -0.10747585 -0.081329465 -0.10481703 0.053191856
-9.7229975e-05 0.008832445 0.042600516 -0.08892036 -0.053504534 -0.004727727 -0.024146833 0.114608124
-0.017940246 0.12620418 0.042316858 -0.103458375 0.14286625 -0.13424614 -0.014856484 0.08013021
-0.08005289 -0.1302283 -0.101920545 0.036620583 -0.0015226776 0.19666864 -0.028467184 0.029678855
0.089719556 -0.07444706 0.097178236 0.12160093 -0.014323808 0.017768694 0.4155925 0.080501825
-0.10818984 -0.03365069 -0.01127279 -0.16125633 0.40717626 -0.021995127 0.11347317 -0.05518493
0.019762635 0.05103732 0.08140569 -0.04049149 -0.09783376 0.070461534 0.04163719 -0.068894036
-0.042585213 0.050726566 0.021539757 0.054317012 -0.07997691 -0.52832633 0.005276746 -0.052836657
0.019856252 0.11012195 0.0013302016 0.1696897 0.08680772 -0.08177804 -0.06821073 -0.0014118458
-0.06957847 0.069497705 -0.119306594 -0.07860764 0.08597691 0.067963295 -0.006049309 0.15902899
0.027062612 0.09340569 0.105471015 -0.05877533 0.054715753 -0.12339319 0.061330732 0.020239728
0.08448118 0.09534947 0.06980786 0.05581257 0.01895365 0.22531612 -0.04013689 0.014206259
0.018923037 -0.10243816 -0.057345364 0.055148825 -0.081032276 -0.1018071 0.49344397 -0.096342
-0.027345262 -0.040857363 0.066466056 0.0043175924 -0.029668236 -0.14554697 -0.110889845 -0.011262206
-0.12863334 -0.059255082 0.0645654 0.015734145 -0.061393157 0.114441864 -0.0014733346 0.11794618
-0.0038715943 -0.138731 -0.08006101 0.01905024 0.04668791 0.16965728 0.047683004 0.007872673
-0.053058892 -0.07373086 0.07545677 -0.10677251 -0.10499338 -0.12633522 0.05502802 -0.022777578
-0.035464313 -0.038040873 -0.003517003 -0.014384767 0.10187498 -0.09435401 -0.025576312 -0.100744635
0.11838203 -0.07859397 0.045735814 0.036957245 -0.11182913 -0.09467649 -0.089319244 0.19955787
0.10934929 -0.118660055 0.012734841 0.050289992 -0.0029275776 0.026284259 -0.087873556 -0.0924803
-0.04402102 -0.06417475 0.10910039 0.043706592 -0.052330382 0.04474971 0.025460787 0.03928927
-0.11406435 0.10822612 -0.087079294 -0.2223129 0.3590783 -0.11342169 0.1172386 0.030107714
0.10542577 0.030276608 -0.06338304 -0.120314375 -0.058903713 0.018306721 0.06431658 -0.072355725
0.032722425 0.065183654 -0.12613007 -0.07184206 -0.021172069 -0.002434926 0.030851513 0.023460815
-0.12426106 0.054841388 0.08285163 0.09956093 -0.107421406 0.046525426 0.073548935 0.057262685
0.013757169 0.02470427 0.047177874 -0.012057853 -0.004130364 0.080242336 0.09261075 0.050368663
0.07610272 0.096204445 0.10048006 -0.14458877 -0.021799019 -0.0010774203 0.028030483 0.19280922
0.04378245 -0.013326534 0.068200454 -0.028563209 -0.029730305 0.12947555 -0.11217544 0.01129606
0.04800419 -0.0076586423 -0.06388373 -0.011906297 -0.026484525 -0.14347227 0.24856853 0.045542262
00000000: 640d f23d 57f6 a6bd 363b 3ebe 4b47 b9bd
00000010: 6e6a 223f 3abb a1b9 c33d 043e d3b7 e13d
00000020: 5e5c ecbd e62a 88bd 7da5 c63d 55fd b4bd
00000030: 99d2 bbbd fa77 bb3d 0882 e13b 6b96 10bd
00000040: 2556 873c ea17 80bc 91fb 10be 3a37 8d3d
00000050: 74c1 663c d2ee e2be e33f ccbc ba82 bd3b
00000060: 1235 713d ffd3 dabd b8f3 37bc 7463 d03d
00000070: 4c1c dcbd 1090 a6bd 50aa d6bd b4df 593d
00000080: f2e7 cbb8 f6b5 103c e17d 2e3d e11b b6bd
00000090: 9227 5bbd 0ceb 9abb 94cf c5bc aab7 ea3d
000000a0: 6cf7 92bc ab3b 013e 7154 2d3d fce1 d3bd
000000b0: 884b 123e d277 09be 9c68 73bc 4f1b a43d
000000c0: c5f2 a3bd 915a 05be b8bb d0bd 77ff 153d
000000d0: 9594 c7ba 8163 493e 0334 e9bc 1221 f33c
000000e0: e3be b73d b377 98bd 6205 c73d e909 f93d
000000f0: 68ae 6abc a78f 913c 8ac8 d43e 24de a43d
00000100: a392 ddbd 4ed5 09bd 82b1 38bc 6120 25be
00000110: 6879 d03e 202f b4bc 9f64 e83d 9809 62bd
00000120: 40e5 a13c 820c 513d 07b8 a63d 68da 25bd
00000130: 115d c8bd 234e 903d c28b 2a3d 5118 8dbd
00000140: d56d 2ebd a9c6 4f3d 2574 b03c 847b 5e3d
00000150: efca a3bd 6540 07bf 8ee8 ac3b 406b 58bd
00000160: 94a9 a23c 9e87 e13d 295a ae3a 23c3 2d3e
00000170: 3fc8 b13d 3f7b a7bd 11b2 8bbd af0d b9ba
00000180: 287f 8ebd d054 8e3d 0457 f4bd 0bfd a0bd
00000190: aa14 b03d 5730 8b3d 4839 c6bb 7fd8 223e
000001a0: 69b2 dd3c 7b4b bf3d 3001 d83d 67be 70bd
000001b0: a01d 603d 92b5 fcbd ef35 7b3d c9cd a53c
000001c0: 7804 ad3d 9546 c33d 6cf7 8e3d b99b 643d
000001d0: af44 9b3c 45b9 663e 9466 24bd 5ec1 683c
000001e0: 7c04 9b3c 19cb d1bd f9e2 6abd bce3 613d
000001f0: 40f4 a5bd 3e80 d0bd b0a4 fc3e f44e c5bd
00000200: 2c03 e0bc 0d5a 27bd 5b1f 883d 977a 8d3b
00000210: cd0a f3bc 440a 15be 371a e3bd 1e85 38bc
00000220: 75b8 03be 75b5 72bd dd3a 843d e5e4 803c
00000230: 6477 7bbd 7f60 ea3d e81c c1ba c48d f13d
00000240: 93ba 7dbb 800f 0ebe 07f7 a3bd 400f 9c3c
00000250: d23b 3f3d a3ba 2d3e 414f 433d 62fc 003c
00000260: 4854 59bd 3500 97bd 1489 9a3d 8cab dabd
00000270: c506 d7bd 055e 01be 1065 613d 0b98 babc
00000280: 0743 11bd bfd0 1bbd 857d 66bb 16ae 6bbc
00000290: d4a3 d03d ad3c c1bd 6a85 d1bc 3453 cebd
000002a0: 4772 f23d e0f5 a0bd 7a55 3b3d 7b60 173d
000002b0: ac06 e5bd bfe5 c1bd 02ed b6bd e658 4c3e
000002c0: 85f2 df3d 0b04 f3bd cba5 503c e1fc 4d3d
000002d0: 9adc 3fbb 1652 d73c 0df7 b3bd 5066 bdbd
000002e0: 634f 34bd 0d6e 83bd 0670 df3d af05 333d
000002f0: 6258 56bd 794b 373d 2493 d03c c9ed 203d
00000300: 929a e9bd a8a5 dd3d a156 b2bd fea5 63be
00000310: 1cd9 b73e a249 e8bd cb1a f03d 74a4 f63c
00000320: 77e9 d73d a606 f83c f8ce 81bd 6267 f6bd
00000330: 0545 71bd faf7 953c 69b8 833d 3d2f 94bd
00000340: f307 063d 027f 853d 3e28 01be ee21 93bd
00000350: 0c71 adbc 4893 1fbb 50bc fc3c e530 c03c
00000360: 957c febd 5da1 603d 1eae a93d 9ae6 cb3d
00000370: c1ff dbbd 7291 3e3d d3a0 963d 478c 6a3d
00000380: c065 613c 9c60 ca3c 963d 413d 4d8e 45bc
00000390: 0158 87bb 1856 a43d b4aa bd3d 5f4f 4e3d
000003a0: bedb 9b3d d606 c53d 7dc8 cd3d 140f 14be
000003b0: db93 b2bc 3a38 8dba 2fa0 e53c c86f 453e
000003c0: 3a55 333d 8957 5abc aeac 8b3d 64fd e9bc
000003d0: f88c f3bc 3d95 043e 3dbc e5bd 1c13 393c
000003e0: 0ba0 443d 59f5 fabb 79d5 82bd a112 43bc
000003f0: 13f6 d8bc 65ea 12be c088 7e3e 868a 3a3d

conv2.nn.2.bias f4 [64]
-0.17255835 -0.042141993 -0.01128571 -0.14669035 0.15301102 -0.42738006 -0.104890965 -0.29725906
0.12975128 0.09758371 0.017261809 0.13943684 0.025998022 -0.028180398 -0.11422116 -0.26803666
0.07378874 -0.21686248 -0.2265523 0.028571403 0.25689217 0.03310124 0.30496803 0.101755
-0.040519495 0.03146978 -0.089909464 0.058156367 0.18060055 0.022814047 -0.19412878 0.13850346
-0.10518419 0.033569776 -0.093027405 -0.27184537 -0.00593422 -0.29281354 0.023453303 0.19487387
-0.09741477 0.06760928 0.07705455 -0.13160573 0.03384464 -0.2022807 -0.09558824 -0.0022564835
-0.16556053 0.07587292 -0.11471002 -0.11870386 -0.23550761 0.07920327 0.45995998 -0.077084005
0.27404842 -0.08608545 -0.23384239 -0.27153206 -0.25169888 -0.0129036475 -0.09610041 -0.03972395
00000000: 23b3 30be 159d 2cbd b3e7 38bc ff35 16be
00000010: ecae 1c3e 8fd1 dabe 13d1 d6bd 5732 98be
00000020: 85dd 043e f8d9 c73d a368 8d3c 88c8 0e3e
00000030: cef9 d43c 94da e6bc c9ec e9bd 1a3c 89be
00000040: 8d1e 973d 3311 5ebe 53fd 67be 930e ea3c
00000050: 5f87 833e 2a95 073d c524 9c3e ed64 d03d
00000060: c5f7 25bd 75e6 003d 7422 b8bd 5f35 6e3d
00000070: 5aef 383e 86e4 ba3c b2c9 46be dad3 0d3e
00000080: cf6a d7bd 7680 093d 2785 bebd 512f 8bbe
00000090: d873 c2bb a8eb 95be 2421 c03c 048d 473e
000000a0: 6581 c7bd bc76 8a3d c7ce 9d3d a7c3 06be
000000b0: ada0 0a3d ac22 4fbe c4c3 c3bd 83e1 13bb
000000c0: b388 29be 4363 9b3d 16ed eabd 021b f3bd
000000d0: e828 71be 5335 a23d e07f eb3e 38de 9dbd
000000e0: 1350 8c3e 924d b0bd 6174 6fbe 4006 8bbe
000000f0: adde 80be d269 53bc 4bd0 c4bd 95b5 22bd

conv2.lin.weight f4 [64, 7]
-0.8049166 0.81961584 0.10540809 -0.14847939 0.5919188 0.21615656 -0.0054468936 0.11167488
-0.5150309 -0.27864054 -0.044470023 -0.08748562 -0.17640597 0.173767 0.090527475 -0.8377623
-0.64545363 0.058282416 0.31389773 0.09465736 -0.20560195 -0.77662826 -0.11488528 -0.84866
-0.19488584 -0.90578014 0.011177608 0.17583509 -0.36842272 -0.12789375 0.2607121 0.19717191
0.41699505 0.3606357 0.30112544 0.38536933 1.2754284 0.07997567 0.59159213 -0.16015571
-0.25791034 -0.45075235 0.4320414 -0.4531609 0.32105768 0.36647844 0.08911902 0.02034867
0.059081577 0.61425865 0.8327969 -0.0035613342 0.19512175 -0.39602262 0.033603866 0.063728616
-0.16647804 0.2466078 0.3117815 0.120840415 -0.39679298 -0.0066300845 0.1169495 -0.7041198
0.64281607 -0.08160658 0.5188122 0.50855273 0.07255851 -0.6048305 0.5388205 -0.44005227
-0.25702325 0.18729267 -0.22177142 0.30709407 -0.25071353 -0.245524 -0.91515315 -0.037929565
-0.63665944 -0.2160659 0.1294576 -0.07902862 0.66023606 1.3326062 -0.17843929 0.486701
-0.3503953 0.37242934 -0.15064067 -0.78245074 1.2296069 0.35221887 0.5734592 -0.05380009
0.51098067 -0.3977214 -0.48786253 0.70319605 -0.18426816 0.28189394 0.1348422 -0.11132529
0.6376657 -0.5854831 -0.26218694 -0.46276087 -0.42708936 -0.21512981 0.38356593 -0.5252268
-0.19429387 -0.3189853 -0.37463742 -0.12565854 0.0470016 0.021947695 -0.19123213 0.40364665
0.22041257 -0.2700304 0.16306897 0.21430829 -0.2989548 0.4981856 -0.033056583 -0.21400088
-0.33947304 -0.10138736 0.43210363 -0.12087144 0.20397747 0.12705778 1.284576 0.24127015
-0.60179883 0.49341437 0.26724035 0.30199534 0.03224903 -0.00014211993 0.04215455 0.03528204
0.53864944 -0.040525038 0.66402125 -0.63976234 1.1490498 0.51247644 -0.1372181 0.09189771
0.14787719 -0.28853616 0.14163473 -0.6633114 0.13121352 -0.11080607 0.13082528 0.27757633
0.060733043 0.043269403 0.6648253 -0.25442517 0.19798675 -0.13473858 -0.14904195 0.29443437
-0.42894176 -0.4918977 -0.42614585 -0.29850614 -0.15448698 -0.20841709 0.17197578 -0.47163802
0.74457026 -0.029793028 -0.00749466 0.2150809 -0.032898054 0.17168218 0.38312638 1.0414897
0.37636206 0.33519876 -0.2792884 -0.619617 -0.025129713 -0.31266248 0.01432928 -0.057192136
0.008870346 -0.1997489 0.2319444 0.038508605 0.34187987 0.2549393 -0.39402723 -0.36263075
-0.025708394 -0.43509382 0.10709823 0.06389839 0.40678814 0.07529703 -0.00023739615 -0.25086856
0.211565 0.2683002 -0.9694061 1.22563 0.21533702 0.1159438 -0.08510688 -0.46331412
0.25850472 -0.060311515 0.061410293 0.50760907 0.07048966 0.41553134 0.19656508 -0.25051644
0.09084142 0.024161518 0.11692033 0.36747104 0.32134855 0.30089095 0.0012036999 0.59064686
0.15899035 0.38950038 -0.02657702 -0.30123267 -0.22439997 -0.11593667 -0.8081488 0.4015403
-0.34198618 -0.2220312 -0.70850885 0.20826672 0.14376366 0.14840871 -0.44715062 -0.07412502
0.03221554 -0.0870988 0.2866218 -0.18611167 0.103579864 0.08858935 0.04812944 0.22196914
00000000: 040f 4ebf 58d2 513f 32e0 d73d fb0a 18be
00000010: fe87 173f 2558 5d3e db7b b2bb cdb5 e43d
00000020: 11d9 03bf f9a9 8ebe 3326 36bd a92b b3bd
00000030: c4a3 34be faef 313e 7866 b93d 9777 56bf
00000040: 733c 25bf 8bb9 6e3d 34b7 a03e b8db c13d
00000050: 5189 52be 1cd1 46bf f948 ebbd c841 59bf
00000060: 2790 47be 35e1 67bf 4922 373c 1d0e 343e
00000070: e7a1 bcbe 94f6 02be 0e7c 853e 6fe7 493e
00000080: 6080 d53e 3ea5 b83e 1d2d 9a3e 214f c53e
00000090: 3d41 a33f 49ca a33d 9572 173f dcff 23be
000000a0: d30c 84be 03c9 e6be 8834 dd3e b504 e8be
000000b0: ac61 a43e 10a3 bb3e 0884 b63d 41b2 a63c
000000c0: 86ff 713d 0e40 1d3f 2d32 553f 4665 69bb
000000d0: ffcd 473e 7ac3 cabe 35a4 093d 2684 823d
000000e0: 3879 2abe c186 7c3e d3a1 9f3e 2e7b f73d
000000f0: 7328 cbbe 2e41 d9bb 3883 ef3d 3241 34bf
00000100: 988f 243f 5a21 a7bd e0d0 043f 8330 023f
00000110: 8e99 943d 2cd6 1abf 24f0 093f 884e e1be
00000120: 8d98 83be a6c9 3f3e 0c18 63be 6f3b 9d3e
00000130: 865d 80be a56a 7bbe 7a47 6abf 085c 1bbd
00000140: 1dfc 22bf 6140 5dbe 8890 043e c2d9 a1bd
00000150: 3b05 293f d792 aa3f cab8 36be e030 f93e
00000160: 0367 b3be 0faf be3e 8c41 1abe b14e 48bf
00000170: c263 9d3f 0856 b43e 39ce 123f 7c5d 5cbd
00000180: a1cf 023f 24a2 cbbe 1ec9 f9be a804 343f
00000190: cbb0 3cbe 6754 903e 1314 0a3e 83fe e3bd
000001a0: 0f3e 233f 38e2 15bf 5e3d 86be feee ecbe
000001b0: 75ab dabe fd4a 5cbe c162 c43e 4375 06bf
000001c0: f9f4 46be 0b52 a3be 7ad0 bfbe a2ac 00be
000001d0: c084 403d a7cb b33c 5bd2 43be c6aa ce3e
000001e0: d5b3 613e 6d41 8abe 8dfb 263e a273 5b3e
000001f0: 9b10 99be 2f12 ff3e 5766 07bd 0c23 5bbe
00000200: 69cf adbe 2da4 cfbd b03c dd3e 728b f7bd
00000210: 78df 503e 6f1b 023e fd6c a43f 860f 773e
00000220: 7d0f 1abf cfa0 fc3e bad3 883e 229f 9a3e
00000230: 8f17 043d 0706 15b9 40aa 2c3d e683 103d
00000240: eee4 093f 95fd 25bd 4cfd 293f 77c7 23bf
00000250: 1014 933f a831 033f e782 0cbe de34 bc3d
00000260: 1e6d 173e 03bb 93be b208 113e c7ce 29bf
00000270: d65c 063e 4bee e2bd 10f7 053e 7c1e 8e3e
00000280: 36c3 783d 423b 313d fe31 2a3f 0444 82be
00000290: 0abd 4a3e e9f8 09be 749e 18be 1ac0 963e
000002a0: 419e dbbe 04da fbbe ca2f dabe ccd5 98be
000002b0: d631 1ebe 4a6b 55be 6b1a 303e 8a7a f1be
000002c0: 289c 3e3f 8210 f4bc c495 f5bb 2b3e 5c3e
000002d0: 1cc0 06bd 74cd 2f3e 2429 c43e 894f 853f
000002e0: 87b2 c03e 2c9f ab3e e4fe 8ebe 389f 1ebf
000002f0: d4dc cdbc 4c15 a0be 5bc5 6a3c 4d42 6abd
00000300: ed54 113c fa8a 4cbe d582 6d3e 33bb 1d3d
00000310: e10a af3e 6787 823e f0bd c9be bdaa b9be
00000320: 699a d2bc 9ec4 debe 5156 db3d 29dd 823d
00000330: 8946 d03e 5435 9a3d 8bed 78b9 d871 80be
00000340: 7fa4 583e a55e 893e 002b 78bf 72e1 9c3f
00000350: 4f81 5c3e f173 ed3d 844c aebd 8237 edbe
00000360: bb5a 843e 3509 77bd 5c89 7b3d abf2 013f
00000370: e25c 903d 86c0 d43e 5b48 493e b143 80be
00000380: 110b ba3d 60ee c53c ed73 ef3d 2a25 bc3e
00000390: cc87 a43e 610e 9a3e 77c5 9d3a a234 173f
000003a0: 5ece 223e 986c c73e 0db8 d9bc 2b3b 9abe
000003b0: 1bc9 65be 3470 edbd d7e2 4ebf b196 cd3e
000003c0: d018 afbe 265c 63be d660 35bf df43 553e
000003d0: c836 133e 74f8 173e edf0 e4be dcce 97bd
000003e0: 71f4 033d db60 b2bd 18c0 923e 0f94 3ebe
000003f0: ae21 d43d 556e b53d 6023 453d e14b 633e

conv2.lin.bias f4 [64]
-0.3529657 0.30946836 0.067022815 0.074880116 0.08907567 -0.15099831 0.12103937 0.03144383
0.105723135 0.060168475 0.111457944 0.1911259 -0.15234281 -0.20398565 -0.25392842 0.21621723
-0.25792116 -0.24800254 -0.27640742 -0.10671499 -0.38520786 0.060601264 0.19083324 0.009421852
0.16176648 -0.13891853 0.072806574 0.1310571 -0.0549986 0.08296948 0.15031825 -0.0121359425
-0.24621256 -0.094267145 0.11300792 0.23430541 0.22501624 0.035604097 0.21460824 0.034420718
0.35812765 0.24661085 0.14615792 -0.2846834 -0.28341404 0.21744654 0.025064714 -0.14759132
-0.045420155 0.2883076 -0.12304339 -0.25646612 0.17673531 0.15612648 -0.17025127 -0.038872093
0.17238204 -0.05860153 -0.3854417 -0.012323751 -0.16048954 -0.026106788 -0.16617902 0.029425494
00000000: ecb7 b4be a372 9e3e 4243 893d bf5a 993d
00000010: 4e6d b63d 4d9f 1abe 7de3 f73d 3fcb 003d
00000020: 5f85 d83d 3873 763d 1044 e43d 82b6 433e
00000030: c1ff 1bbe 9de1 50be e802 82be 0d68 5d3e
00000040: 3e0e 84be 61f4 7dbe 4685 8dbe 648d dabd
00000050: f739 c5be 0839 783d ca69 433e 1d5e 1a3c
00000060: 1da6 253e a940 0ebe 9d1b 953d d533 063e
00000070: 3646 61bd e7eb a93d 07ed 193e d5d5 46bc
00000080: 251f 7cbe 220f c1bd b270 e73d c2ed 6f3e
00000090: a86a 663e 9ad5 113d 43c2 5b3e bdfc 0c3d
000000a0: 825c b73e 8e87 7c3e 6caa 153e 06c2 91be
000000b0: a51b 91be 4eaa 5e3e 8454 cd3c 2e22 17be
000000c0: 7c0a 3abd 0e9d 933e 2cfe fbbd 874f 83be
000000d0: 1afa 343e 9fdf 1f3e 5956 2ebe 5838 1fbd
000000e0: eb84 303e 2808 70bd 9d58 c5be 8fe9 49bc
000000f0: 5f57 24be e7dd d5bc d52a 2abe bc0d f13c
