run_results/gcod/checkpoints/model_D_best.pth (torch, 78604 bytes, 15 tensors)

node_embedding.weight f4 [1, 64]
000000 7d 72 92 3e 5d a8 b1 bd 3f e5 bf be c0 fb 4e bf
       0.28602973 -0.08674691 -0.37479588 -0.8085289
000010 f7 07 9f 3f c8 a6 cf bf a7 6a 2f be 23 62 50 3f
       1.2424306 -1.6222773 -0.17130528 0.81399745
000020 57 bd d6 be 23 14 62 3f 70 b4 3d 3f 0b fc 2e bf
       -0.4194133 0.88311976 0.7410345 -0.6835334
000030 10 04 64 3f 23 d2 c0 bf cf c3 d9 bf 78 dc f4 bd
       0.890687 -1.5064129 -1.7012881 -0.119561136
000040 ea 92 da 3f 1f c1 ea 3e 0e 11 9f 3f e9 5d 02 c0
       1.7076085 0.45850465 1.242708 -2.0369818
000050 9a 96 5e 3f 5a c6 88 be 2a 01 3c bf e9 a8 a7 be
       0.8694855 -0.2671383 -0.73439276 -0.32746056
000060 b2 a5 5a bf c2 69 ef be 2e 1b b1 bf 6a 7d 08 3f
       -0.8540908 -0.46760374 -1.383642 0.53316367
000070 60 d9 a9 3f 9e a8 c3 3e 7d 54 c7 3e e9 da 24 bf
       1.3269463 0.38214582 0.38931647 -0.6439653
000080 0a 34 64 3f 63 74 28 c0 ce 59 85 be e7 d7 d8 3f
       0.89141905 -2.6321037 -0.26045078 1.6940888
000090 37 d1 af 3f d7 a2 90 3f 8e a9 9b bf be 84 df 3d
       1.3735722 1.1299695 -1.2161119 0.109139904
0000a0 f9 75 9c 3e 45 e4 ed 3f d9 87 8a bf 60 96 b4 bf
       0.30558756 1.8585287 -1.0822707 -1.4108391
0000b0 7d 65 21 3d bf 85 80 3e 18 7c 2e 3e 85 54 51 3f
       0.039403427 0.2510204 0.17039526 0.8176959
0000c0 51 11 24 3f c5 9b 4b bf 14 8e 4f 40 0e d4 21 bf
       0.6408892 -0.7953456 3.2430468 -0.63214195
0000d0 39 68 99 be 18 ca a7 3f 54 f5 76 bf 25 43 38 3f
       -0.29962328 1.3108549 -0.9646809 0.71977454
0000e0 1e 8a 62 3e 39 09 83 bf 6f 43 03 bc 1d 09 3e be
       0.22123 -1.023719 -0.008011683 -0.18558164
0000f0 eb af 48 bf 7a aa 5d 3f a1 1e a9 3f f4 b1 a9 3f
       -0.7839343 0.8658825 1.3212472 1.3257432

conv1.nn.0.weight f4 [64, 64]
000000 e7 a6 15 3e 7d 8a e8 bd 5f a7 fe 3d 52 37 6b 3e
       0.1461445 -0.113545395 0.12434267 0.22970322
000010 ab 91 1d be 72 6d 61 3e da 5e 80 3c 17 8d 26 bd
       -0.15387599 0.22014406 0.015670229 -0.040661898
000020 c7 ab 85 be c4 74 2f be e8 01 07 bb b1 5d 33 3e
       -0.26107618 -0.17134386 -0.0020600501 0.17516209
000030 bb d7 f0 3c 44 d2 09 3e 61 42 66 3d 92 9a 9f 3e
       0.029399743 0.13459116 0.056215648 0.31172615
000040 3b 61 0b be b5 0c e4 bd 68 e6 96 3d 0a 7b 16 3e
       -0.13611309 -0.11135236 0.07368165 0.14695373
000050 6c ee 6b bd 15 ed 03 be ce 7c c5 3d 32 63 bf be
       -0.057600424 -0.12883408 0.09642945 -0.37380368
000060 aa ee 08 3d 2a c1 e6 3a bb 06 3c 3b d0 cb 31 bd
       0.033430733 0.0017605175 0.0028690535 -0.04340726
000070 12 35 1e bd 35 f6 f0 bb 72 97 1d bd 13 5f 38 3e
       -0.03862483 -0.007353569 -0.038474508 0.18005018
000080 11 6d 8a bd ac b7 67 3d 5c ce 0e 3e af 02 05 3b
       -0.06759084 0.056571648 0.13945907 0.002029579
000090 81 9b 01 3d 4c 09 58 bc 3d 54 7a 3c 39 c4 be bd
       0.03164244 -0.01318581 0.015278873 -0.0931477
0000a0 0a 8a 3a bd fe 29 29 be 8c 77 e7 3c 9f f1 34 3e
       -0.0455418 -0.16519925 0.028255247 0.17670296
0000b0 c4 8b 87 bc 96 17 25 be e3 43 e2 bd 6a d8 b7 3d
       -0.016546138 -0.16122279 -0.110481046 0.089768246
0000c0 e4 cd 0b bc 46 b9 2a 3e 48 cb 2a 3d 3e 42 17 3e
       -0.008532975 0.16672239 0.04169777 0.14771363
0000d0 a0 a5 b3 3e ee bf 23 bd 71 49 04 3c 75 74 7f bd
       0.350873 -0.03997796 0.00807415 -0.06236692
0000e0 77 8d 6a 3c 0f 8f 0d 3e e6 86 09 bd 2a 03 9c 3d
       0.014315954 0.13824104 -0.033575915 0.07617791
0000f0 54 c8 e5 be a7 fe ae bd 31 0e cc 3c 46 ec 9e bd
       -0.448794 -0.08544665 0.02490911 -0.07759909
000100 c4 7c 56 3d 98 21 ee bd 24 41 28 bd 08 96 cd bb
       0.05236508 -0.11627501 -0.041077748 -0.0062739886
000110 ce 7c b9 3d e4 37 2e bc 10 9f 51 3d 0c ab 0e 3d
       0.09057008 -0.010633443 0.051177084 0.03483109
000120 80 10 cc bd 88 6f 47 bb b8 6e 53 bc 84 62 93 3b
       -0.099640846 -0.0030431468 -0.012904815 0.004497828
000130 b4 1c f7 bd 96 f7 fb bd 68 1d 1b bd 10 34 c8 3c
       -0.120660216 -0.12303083 -0.03786984 0.024438888
000140 26 47 80 bd 60 bd 31 3d b0 e6 e6 bd 08 c3 35 bd
       -0.062635705 0.043393493 -0.11274469 -0.04437545
000150 1c af f6 bd ce d2 cd 3d 52 fa b5 bd 9c b0 c0 bd
       -0.12045118 0.100499734 -0.088856354 -0.094086856
000160 7c 91 6e 3d 14 70 72 bd 20 c3 d0 3c 04 47 2e bd
       0.058244213 -0.059188917 0.025483668 -0.042548195
000170 3c ef 44 bd 7c 09 29 bd 2e 38 f5 3d 28 bc ec bc
       -0.048079714 -0.04126881 0.11973606 -0.028898314
000180 c4 56 b9 3c f2 f6 ab bd a6 49 8c bd c4 54 4a bd
       0.02262438 -0.083967105 -0.06849985 -0.049397245
000190 62 0c f2 bd a0 d7 f7 bd 9e 78 fc bd 60 9f ff 3c
       -0.11818768 -0.12101674 -0.123276934 0.031203926
0001a0 b0 aa b5 bd 44 69 1c bb 1c 5f 93 3c 14 98 35 bd
       -0.08870447 -0.0023866454 0.017989688 -0.044334486
0001b0 5e 68 ea 3d 16 14 8b 3d d4 78 ba 3d 54 c6 fc bd
       0.11445688 0.067909405 0.091050774 -0.123425156
0001c0 04 7a 2b bb 88 5b ea 3d 10 68 5e bd 88 ff 1d 3d
       -0.0026165256 0.114432395 -0.05429846 0.03857377
0001d0 82 f3 cf bd c4 a4 29 bc d4 32 01 bc e4 13 b5 bb
       -0.10153867 -0.010354225 -0.0078856535 -0.005526053
0001e0 a6 2d fa bd a4 12 9b bc ac ae a2 3d c0 be 2f 3d
       -0.12215738 -0.018929787 0.07943472 0.042906523
0001f0 1a fc c3 3d 30 a2 17 bd 44 13 9a 3a ec c9 a0 3d
       0.09569569 -0.03701991 0.0011755009 0.078510135
000200 b8 b7 12 bd 77 01 18 bc e5 07 ad bd b0 77 89 bb
       -0.03581974 -0.009277693 -0.084487714 -0.004195176
000210 3a fe 96 3d 71 27 11 3e b6 af 80 3c 91 23 bd bd
       0.073727086 0.14175202 0.015708786 -0.092352994
000220 a6 ae 9c 3d e4 e9 8d 3c 65 ee 03 be 3d 90 9a 3c
       0.07650499 0.017323442 -0.12883909 0.018867606
000230 9c bb b9 bd 1d 68 25 3c fd d1 04 bd 24 d8 85 3d
       -0.09068987 0.010095623 -0.032426823 0.06535366
000240 2d 09 31 bd 83 95 41 3b 86 43 fb bd fa 7c ac bc
       -0.04322164 0.0029538579 -0.122687384 -0.021055687
000250 7b 36 a9 bd fd 40 5f 3c 9b 7b 9d bd ce 4c b3 bb
       -0.082623444 0.013626334 -0.076895915 -0.0054718023
000260 3e d8 c5 bd 1b 37 b2 3c ad 80 82 3d 88 92 08 be
       -0.096603855 0.021754792 0.06372199 -0.13337147
000270 5d 6f 51 bd 67 27 03 be 9e c1 17 be 92 02 fa 3a
       -0.051131595 -0.12808 -0.14819953 0.0019074252
000280 ad f3 a5 bd fa 45 b6 39 56 e5 a5 3d ad 91 62 3d
       -0.08103118 0.00034765882 0.08100383 0.05531471
000290 e5 ad b7 3b 83 ae c0 bd 3d b2 4d 3d f6 c7 ab bb
       0.0056054466 -0.094082855 0.05021881 -0.005242343
0002a0 bd 2c c5 3d a5 be 1f 3c b8 8b 17 3c 18 90 2e bd
       0.09627674 0.009750043 0.00924962 -0.042617887
0002b0 1f c1 1f bd ff 54 0c bd 55 85 06 be f8 28 92 bd
       -0.039002534 -0.034260746 -0.131368 -0.071367204
0002c0 4f 37 ac 3c bf 7d 2d 3d 90 84 41 bb 8f 4c 90 3d
       0.021022467 0.04235625 -0.0029528476 0.070458524
0002d0 8a c4 0f 3d 45 5a 48 bd d4 2b d0 3d 67 36 99 bc
       0.035099544 -0.048914213 0.101646096 -0.018702699
0002e0 4a 8d a2 bd 64 45 ac 3d aa af ba 3d ea 35 82 3d
       -0.07937105 0.08411673 0.091155365 0.063579395
0002f0 c6 2a 79 3d 41 7a 1d bc 9e ce a0 bd 13 2d 16 bb
       0.060831808 -0.009611667 -0.07851909 -0.002291505
000300 3c c7 16 bd dc 59 06 bd c0 53 a1 bd a2 10 ce 3d
       -0.0368111 -0.03280054 -0.07877302 0.10061766
000310 6c 8d b7 bd c8 f2 db 3d b4 80 0b bd 22 f9 eb 3d
       -0.08962521 0.10739666 -0.034058288 0.11522128
000320 4c 68 97 bc 8e 68 fc 3d fe c0 fe bd 44 f1 28 b8
       -0.01848235 0.1232463 -0.12439154 -4.0279017e-05
000330 2a a3 f2 bd 24 5c 78 bd 44 a4 85 bb 34 4d b3 3d
       -0.11847527 -0.060634747 -0.00407842 0.0875496
000340 88 c8 4f bd fa a1 db 3d c0 45 c5 3c c4 80 10 bb
       -0.05072835 0.10724254 0.024081111 -0.0022049407
000350 0a 3b fe 3d c6 5c 98 bd e0 9e c7 bc 84 28 9f 3d
       0.124136046 -0.0743957 -0.02436775 0.077713996
000360 d8 09 b7 bd d4 af f3 bd 52 08 c4 3d 82 2d cd bd
       -0.089374244 -0.11898771 0.095718995 -0.100184456
000370 24 f6 06 3c e0 12 e5 3d 3c 40 95 3d 1c d2 29 3d
       0.008237395 0.11185241 0.07287642 0.04146014
000380 54 44 ba 3c c8 4d 3a bd dc 3c 96 bc 10 50 eb bd
       0.02273766 -0.045484334 -0.018339567 -0.1148988
000390 68 07 da 3b 38 28 8a 3d a2 36 b3 3d 32 f5 9c bd
       0.006653715 0.06745952 0.08750655 -0.07663955
0003a0 28 4c 57 bd e4 1c ac bc e4 8d 92 3c 38 65 48 3d
       -0.052562863 -0.02100987 0.017889924 0.048924655
0003b0 88 1e ca bb 38 a9 d3 bc 2a 84 f6 bd 44 7b df bd
       -0.0061681904 -0.025837526 -0.12036927 -0.10912183
0003c0 04 bf 36 bd 14 da 24 bd c4 4b 08 bd 00 dd 28 3d
       -0.04461576 -0.040247038 -0.03327538 0.041226387
0003d0 b0 e4 eb bd 7c f2 98 3d e4 f8 7a bd c0 3b 7d bd
       -0.11518228 0.07468125 -0.061272517 -0.06182456
0003e0 3c ee 94 3d 30 11 21 3d 60 7b 75 bd c8 d3 7c bb
       0.07272002 0.039323032 -0.059932113 -0.003857838
0003f0 68 1b 70 bc 48 6a f1 bb 10 f0 4e bd a8 ec c3 3b
       -0.014654972 -0.007367406 -0.05052191 0.0059791394

conv1.nn.0.bias f4 [64]
000000 aa f7 1b be 8c 6b d8 3d 29 a2 32 3c b4 dd 76 3d
       -0.15231195 0.10567388 0.01090292 0.060270026
000010 9b 6f 57 3d 6b e8 06 be 54 ad 34 3d 0c 0c 7d 3d
       0.05259667 -0.13174598 0.04411061 0.061779067
000020 4d 28 26 be 88 29 a0 be e4 4c 81 3e f2 cd 1d 3e
       -0.16226311 -0.31281686 0.25253975 0.15410593
000030 40 9b c1 bc e7 61 b9 bd 5d c1 01 3d 7b 52 c4 3d
       -0.0236336 -0.090518765 0.031678546 0.095860444
000040 b6 e1 63 3d 32 e0 eb bd 62 12 61 bd 5d bf 5f 3d
       0.055635177 -0.11517371 -0.05494917 0.054625858
000050 b4 4c 1b 3c 55 de fb bb 12 c8 87 3d 7c 64 80 3e
       0.009478737 -0.007686416 0.06629957 0.25076663
000060 eb d4 83 bc e2 21 bc 3c d8 5f 74 3d 87 3c e3 3c
       -0.016092738 0.022965375 0.059661716 0.027738823
000070 3c 72 f6 3d c2 e3 27 3e f8 35 25 be 67 2d b6 3d
       0.12033507 0.16395476 -0.16133869 0.088953786
000080 c0 a0 82 bc ab 04 89 3e 9b 91 99 bd 63 9b 04 be
       -0.015945792 0.26761374 -0.07498475 -0.129499
000090 4c 61 bc 3d 32 58 d4 3d 24 2d 9f 3c b4 29 69 bd
       0.091982454 0.103683844 0.019430704 -0.056924537
0000a0 0b e9 1d 3e d2 c5 2a 3e e4 85 82 3c ac 28 53 bd
       0.1542093 0.16677025 0.015932985 -0.05155246
0000b0 2b 50 f7 bd 5f b7 01 be 63 7d 3c 3d 09 f1 e8 3c
       -0.12075838 -0.12667607 0.046018016 0.028435247
0000c0 1c 4c 22 bd b4 ce b3 bd 57 dd 8e be 56 08 a9 bd
       -0.039623365 -0.0877966 -0.27903244 -0.08253543
0000d0 88 42 ea b7 ec d9 ae bc 69 b2 20 3d 06 0f 17 3e
       -2.7925955e-05 -0.021344148 0.039232645 0.14751825
0000e0 c6 18 cb bd 04 1a df bd 68 ab 4b 3d ec dd f0 3c
       -0.099168345 -0.10893634 0.049724013 0.029402696
0000f0 d6 27 ca 3d 1a 41 1a 3d da 5b 82 bd 64 a6 0e bc
       0.09870879 0.037659742 -0.063651755 -0.008706663

conv1.nn.2.weight f4 [64, 64]
000000 35 be 8d 3d 64 19 22 3c 4c 67 89 3c 10 4f db bd
       0.06921045 0.009893749 0.016772889 -0.10708439
000010 bb 4f 74 bd 9a 3e 89 bd e8 18 6b be 8c 8c 4d bd
       -0.05964635 -0.067013934 -0.2295872 -0.050182864
000020 37 9f 38 bc 13 36 7f bc 6a 54 b1 3c 06 26 a9 3c
       -0.0112684285 -0.015576857 0.021646697 0.020648014
000030 4c 6c 81 3d cd a1 77 be 72 a8 ad be f4 57 8f 3d
       0.06319484 -0.24182816 -0.33917576 0.069991976
000040 47 0c 84 3d 91 48 94 3c 16 ff 22 bd d0 72 60 3d
       0.06447654 0.018101009 -0.03979405 0.054796994
000050 42 4a f9 bd 9b 93 26 be 57 80 e4 bc ed ff 93 3d
       -0.12172367 -0.16267245 -0.027893228 0.07226548
000060 a1 51 c0 3d 5c 23 03 3e 5c de cb 3d 64 ad fc bd
       0.093905695 0.12806457 0.09954521 -0.12337759
000070 40 2a 2e bd c1 27 fb 3d 90 6e 53 bc a5 7a 8e be
       -0.04252076 0.12263442 -0.012904778 -0.27827945
000080 c5 87 10 be d4 1b cd 3d f5 d3 9a bd a6 ae 2a 3e
       -0.14114292 0.100150734 -0.07559959 0.16668186
000090 bc cd 6d 3e 08 38 ff 3d 80 11 d1 3d 3f 28 2d be
       0.23223013 0.12461859 0.10208416 -0.16909884
0000a0 2b f5 f7 3d 78 08 96 3d 60 e8 55 3d 41 f7 af bd
       0.12107309 0.07325834 0.052223563 -0.08592082
0000b0 00 f5 d4 3c bb 33 23 3e 50 18 26 3d 01 86 de bb
       0.025995731 0.15937702 0.04055053 -0.006790877
0000c0 e0 37 f3 3c 74 5d 42 bc a4 d6 6f be c8 cd c1 bd
       0.02968973 -0.011863101 -0.23421723 -0.09463078
0000d0 8c f0 b5 3d 88 91 ea ba b5 0b f7 3c 96 6a 6f bd
       0.08883771 -0.0017896155 0.03015695 -0.058451258
0000e0 f0 9d 05 3d cf 58 a2 bd fa 0a 97 3d be a7 a4 bd
       0.032621324 -0.07927095 0.073751405 -0.08039807
0000f0 ae 66 5f be 9b e3 13 3e 80 f8 13 3d 83 1d 85 bd
       -0.21816513 0.14442293 0.03612566 -0.064997695
000100 6e 26 99 bd 1c b3 bd 3d 0d 7f 60 3a 52 5e a5 bd
       -0.07478033 0.09262678 0.0008563854 -0.08074631
000110 c1 e6 2a 3d 11 db 9b 3d cf 70 28 3e 00 34 a0 bd
       0.04172397 0.07610143 0.16449283 -0.07822418
000120 eb cb b8 bd fd 99 55 be f6 af cd be 61 19 bc bd
       -0.09023269 -0.20859523 -0.4017331 -0.09184528
000130 70 38 eb 3d 95 63 96 bd 42 5a 7b bd 1b 33 94 3d
       0.11485374 -0.073432125 -0.061365373 0.0723631
000140 fb a1 02 3e a2 21 41 3d c1 38 af 3c 10 1d e1 3d
       0.12757103 0.047151215 0.021389367 0.10991871
000150 54 c7 37 3c 46 2d 65 3d fe 4f fe 3c 28 23 5e be
       0.011216957 0.05595138 0.031044003 -0.21693099
000160 10 f2 1c bc 42 b3 de 3d 90 f4 f4 bd c4 9a ae ba
       -0.009579197 0.108740345 -0.11960709 -0.001332127
000170 0c 7b 3a bd 0d fe fb bd 1f 56 01 be 2f 56 91 be
       -0.045527503 -0.12304316 -0.12630509 -0.28386065
000180 ee b8 43 3d 63 aa 81 3d 89 ba 22 3d 33 1c 1a be
       0.047783785 0.06331327 0.039728675 -0.1504982
000190 3a 13 9e be 60 49 4d 3d c8 27 f0 3d 49 78 06 3c
       -0.30874044 0.050118804 0.11726338 0.008207389
0001a0 a5 63 88 be 00 cb 6c 3d 54 b1 5c bd e1 0e 0e bd
       -0.26638523 0.057810783 -0.05388005 -0.03468216
0001b0 0c 29 0d 3d ac 7c f6 bd c5 f8 13 bd 98 1e e8 3a
       0.034462973 -0.12035498 -0.036125917 0.0017709313
0001c0 28 fd f1 bb 73 54 03 be 60 46 b2 bd 38 d0 bc bd
       -0.007384915 -0.12825184 -0.08704829 -0.09219402
0001d0 48 74 c4 bb a0 14 d7 bc 0b c8 85 bd 87 b1 80 bd
       -0.005995307 -0.026254952 -0.06532296 -0.06283861
0001e0 84 fe 89 bd 9e bf d6 3d 94 05 d1 3d 25 25 9b 3d
       -0.06737998 0.10485767 0.10206142 0.07575444
0001f0 52 86 c4 3d 29 98 77 3d 16 4c bc bd f5 a5 e1 3c
       0.09595932 0.060447846 -0.091942 0.027544955
000200 ca 98 53 bd 70 59 d0 3c 28 20 e0 bc 88 ec 61 3c
       -0.051659383 0.025433272 -0.027359083 0.013789304
000210 70 03 57 3d 74 80 9f 3d 1e 7f b8 bd a4 76 08 bd
       0.052493513 0.07788172 -0.09008621 -0.03331627
000220 c5 8a 31 bd e1 42 9b 3c d8 78 41 bd 71 b6 4c 3d
       -0.04334523 0.018952789 -0.047234386 0.049978677
000230 16 3f 85 bd ee 3e 69 3d f1 43 10 be e8 d6 ec 3b
       -0.06506173 0.05694478 -0.14088418 0.0072277673
000240 14 f9 7f bd 45 8d e5 bd 1c ee 1d 3d 30 c3 59 bd
       -0.0624934 -0.11208586 0.038557157 -0.05316466
000250 d4 60 ac bc a9 a0 f3 bd 6a 26 8d 3d 90 5d a0 bd
       -0.021042265 -0.11895878 0.068920925 -0.07830346
000260 96 51 0d be 66 10 bd bd 2c 63 c5 bd 16 2e 24 bd
       -0.13800654 -0.092316434 -0.09638056 -0.040083013
000270 88 93 5a 3c 0a f2 0e be d0 bf b3 bd 39 2a 94 bb
       0.013340838 -0.13959518 -0.0877682 -0.004521635
000280 e7 18 e6 bc b1 d3 7e bd a9 d9 ff bd c9 52 41 bd
       -0.028088046 -0.062213603 -0.12492687 -0.04719809
000290 7c b8 8d 3d 50 11 a2 3d b0 ac fc bc b8 96 cc 3d
       0.06919953 0.07913458 -0.030844063 0.09989685
0002a0 80 6c 2f be c4 07 d0 3d 78 88 c7 3c bc 08 7a bc
       -0.17131233 0.10157731 0.024357066 -0.0152608715
0002b0 78 ef 43 bd 9a 0a b7 bd d4 f2 f2 3d 8c 1c 41 3d
       -0.047835797 -0.08937569 0.11862722 0.047146365
0002c0 28 57 5c bc a8 be aa 3c 1b aa 11 be 3e 85 fc 3d
       -0.013448514 0.020842865 -0.14225046 0.123301014
0002d0 24 07 41 3d 5e 2c f2 3d 18 dd 7d bd 30 64 a7 bd
       0.04712595 0.118248686 -0.06197843 -0.08173406
0002e0 40 76 16 3d fc b3 ba 3c 1a 58 dd bd 2e 11 b3 3d
       0.036733866 0.022790901 -0.1080782 0.08743511
0002f0 b6 04 37 bd 64 c6 94 3b 0c 0f 9b 3c 44 f8 6a 3d
       -0.044682227 0.0045402516 0.018928073 0.05736567
000300 7c 28 52 3d 3a dd a7 3d 97 e9 63 3d f6 38 d7 bd
       0.05130814 0.081964925 0.05564269 -0.10508911
000310 82 d7 cf 3d ca 15 bc 3c e5 41 af 3c 44 c8 0e ba
       0.10148527 0.022959609 0.021393726 -0.0005446712
000320 26 f2 97 bd 30 32 ba bd 92 af 8a 3e 71 6b c6 be
       -0.07419233 -0.09091604 0.27087075 -0.38753846
000330 d8 70 87 3d fe 64 c4 be 02 cc 05 bf 68 bd dc bc
       0.0661332 -0.383583 -0.52264416 -0.026945785
000340 d7 46 e8 bd 97 99 61 3d b1 84 ba bd 06 d9 f7 bd
       -0.11341637 0.055078115 -0.0910734 -0.12101941
000350 c8 ac 7b bd 4d e9 fa 3c 42 81 96 3d a8 fd e4 bd
       -0.061444074 0.030628825 0.07348873 -0.111811936
000360 d4 b2 47 3d a2 e3 62 3c 00 11 b7 3d 6f e9 b4 bd
       0.04875453 0.013848217 0.08938789 -0.088335864
000370 f4 09 ea bd 61 dc 5b be c8 c9 97 3d f7 2b f0 be
       -0.1142768 -0.21470787 0.074115336 -0.46908543
000380 6d 54 4e be 8f e0 e0 bb 9c 5b 9a bc 01 a8 12 bd
       -0.20149393 -0.006862707 -0.01884251 -0.035804752
000390 70 5a 16 bd 3d 1c 77 3d d0 aa 09 bd 47 47 ef 3d
       -0.03670734 0.060329664 -0.033610165 0.11683517
0003a0 de 98 0a be d0 c9 0d 3d 9c e6 c9 bd c3 3c 07 be
       -0.13534877 0.03461629 -0.098584384 -0.13206773
0003b0 90 94 26 3d 96 d0 30 3e b5 dd 79 bd 2d 9b d8 3d
       0.040669024 0.17267069 -0.061002452 0.105764724
0003c0 40 7f 07 bd 7d cc bd bc 8a 9a de be 10 49 e1 bd
       -0.03308034 -0.023168797 -0.4347728 -0.11000264
0003d0 68 8b 2c bd f8 fe 58 bc 1b a9 e9 3d a3 04 85 bc
       -0.042125136 -0.013244383 0.114092074 -0.016237563
0003e0 20 be 94 bd a4 e7 48 3d 38 44 dd 3d c6 5a 8f 3c
       -0.07262826 0.049049035 0.10804027 0.017499339
0003f0 a9 c8 4f 3d 0b 53 4a 3d 7d c8 1d bd 58 5d 5f bd
       0.050728474 0.049395602 -0.03852128 -0.05453238

conv1.nn.2.bias f4 [64]
000000 6d 3f 86 3d 1a f1 df 3d b1 39 06 be 45 91 b7 3d
       0.06555066 0.10934658 -0.13107945 0.08963255
000010 3e 28 35 3e a0 b7 09 be e4 89 66 3e e1 6c cf bd
       0.17691132 -0.13448954 0.22513539 -0.10128189
000020 a4 d5 0c bd 97 0f 0d be 94 b1 dc 3e d1 80 d6 3d
       -0.03438343 -0.13775478 0.4310423 0.104737885
000030 4a 7f 9d bd 69 8e 94 bc d4 4c 04 3e 21 8b ff bd
       -0.07690294 -0.018134313 0.12919933 -0.124777086
000040 33 a7 14 3e 22 3e af 3c b5 ea 10 3e 3f 52 d1 bd
       0.14516906 0.021391932 0.14152034 -0.10220765
000050 7d 87 8b 3e 96 0a 40 bd c6 43 36 be 13 ab 31 be
       0.27251807 -0.046885096 -0.17799291 -0.17350416
000060 87 8a ce bd cd 90 5e be 62 73 93 bd f6 7c 73 3d
       -0.10085016 -0.21734925 -0.07199742 0.059445344
000070 84 a7 f6 bd 05 d3 d0 3e c1 84 8c be 62 6e c0 bc
       -0.1204367 0.40785995 -0.27445033 -0.023490135
000080 80 1d f2 be 77 46 8b bd 54 19 38 3c 49 91 fe bc
       -0.47288132 -0.068005495 0.011236507 -0.031075137
000090 d8 8c 3c be 41 47 3d be 87 cf ee bd b4 57 ae 3e
       -0.18413103 -0.18484212 -0.116606764 0.34051287
0000a0 a7 64 eb be c0 44 c8 3e f1 20 3f 3e 74 a0 2f be
       -0.4597523 0.39114952 0.1866491 -0.17151052
0000b0 68 df 52 bd d2 4f 21 3d c8 5d 04 be ea 3e 8d bd
       -0.051482588 0.039382763 -0.129264 -0.068967655
0000c0 62 81 ce 3c 92 51 2e bd 93 cd 3c be e6 d3 46 bd
       0.025208179 -0.04255826 -0.18437795 -0.048541926
0000d0 ce 61 eb bd 76 fe 3b bd e3 e8 a4 3c a0 c2 79 be
       -0.11493264 -0.04589697 0.02013058 -0.2439065
0000e0 99 96 1e be be c8 3a 3e 4e f0 14 3e a8 e5 6d be
       -0.15487136 0.1824064 0.14544794 -0.23232138
0000f0 98 da 3d be c8 39 af 3d 69 dd 08 be 64 1e fe bc
       -0.18540418 0.08555943 -0.13365711 -0.03102035

conv1.lin.weight f4 [64, 7]
000000 1d 8d 29 bf 73 93 84 3f 9c f6 c3 3e bc d9 eb bd
       -0.66230947 1.0357498 0.38274086 -0.11516139
000010 3a 59 b3 3e 31 6f 71 bf 82 c8 35 3f d4 01 e1 be
       0.35029012 -0.9431029 0.71009076 -0.43946707
000020 cc 36 fd bf 19 11 da bd 4b ef 2d bf a2 a8 cf bf
       -1.9782348 -0.10647792 -0.6794326 -1.6223338
000030 fe 6d 92 3e dd a2 c3 3d 1a 73 c0 be 71 3d 42 3e
       0.28599542 0.09552548 -0.37587816 0.1896875
000040 48 6a be bc 6a c2 ae bc 37 be 71 3d b0 5e a4 3e
       -0.023244038 -0.021332938 0.059019294 0.3210349
000050 ac 3f f4 3d f4 83 d3 3d 6f d5 94 bd 38 97 44 3e
       0.11926207 0.103279024 -0.07267272 0.1919831
000060 4e 35 0a be 30 78 a4 be c0 6a 43 be 13 57 8d be
       -0.13496897 -0.32122946 -0.1908369 -0.27605495
000070 c3 c7 8c 3e 13 3a 37 be 46 eb 06 3e 3c 2c fa be
       0.27496156 -0.17893247 0.13175687 -0.48861873
000080 b6 c2 6f 3e 87 6d b9 bd 00 1e 36 bf b9 a7 81 3d
       0.2341412 -0.09054094 -0.71139526 0.06330819
000090 8e 44 a0 3d d2 e6 b7 bd 0f 86 cc bd e2 49 8f be
       0.07825576 -0.08979572 -0.09986507 -0.27986056
0000a0 c3 52 6f be 15 2f b9 bc 54 f8 eb bd f7 df 87 3f
       -0.23371415 -0.022605458 -0.11521974 1.0615224
0000b0 9c 1e d6 bc ba 07 26 3e 49 a2 5e be 56 7c a8 bd
       -0.026137643 0.16213885 -0.21741594 -0.0822684
0000c0 f0 85 40 3f d8 f4 a3 be 34 9f 76 bd 6e 89 2f bf
       0.7520437 -0.32022738 -0.06021042 -0.68569076
0000d0 94 40 45 3e 34 fe 3c 3e f7 7f d4 be e1 20 01 be
       0.19262916 0.18456346 -0.4150388 -0.12610199
0000e0 4d 7c c1 bc e6 25 b1 3f 53 bb 1e 3f cd 6e 1e 3e
       -0.023618842 1.3839691 0.62004584 0.15471955
0000f0 b3 fb fa bd 07 d6 58 3f 29 4c c4 be 5d ad a6 3e
       -0.12255039 0.8470158 -0.38339356 0.3255414
000100 fe 4b 73 bf bb 88 14 bf b7 1d ad be f4 16 24 bc
       -0.9503783 -0.58021134 -0.33811733 -0.010015238
000110 4c a5 e8 be da fd 16 bf ba 86 f9 3e 97 33 4d bf
       -0.45438612 -0.58981097 0.487356 -0.80156845
000120 f2 34 8f 3f fd 43 89 be 15 ae c7 3e aa bd 23 bf
       1.1188033 -0.26809683 0.39000002 -0.6396128
000130 0d 5d 09 be 3f c6 1a be 08 37 a9 be 0c 36 c0 bd
       -0.13414402 -0.15114687 -0.33049798 -0.093853086
000140 8e d4 95 be f3 e1 cc 3d ba 8b cd 3c 35 99 27 be
       -0.2926373 0.10004034 0.02509104 -0.16367038
000150 67 e2 d6 be 87 27 68 be 52 16 e7 3e fd d2 14 bf
       -0.41969606 -0.22671328 0.45134217 -0.5813444
000160 69 9f 6e 3e bc 3e 1a bf 76 a6 08 bf aa a7 97 3e
       0.23302998 -0.60251975 -0.53379 0.29620105
000170 5c 54 0b 3e a2 22 0c 3e a7 40 93 3e 64 f8 c0 bd
       0.136064 0.13685086 0.28760263 -0.09422377
000180 e3 e1 3c bc d3 df 5d 3c 5a 12 d6 3d 65 13 d7 3c
       -0.011528465 0.013542133 0.10452719 0.026254365
000190 c6 3a e2 3d 69 91 63 3e 91 7f 2a be ec bb 3e be
       0.110463664 0.22223438 -0.16650225 -0.18626374
0001a0 81 cc 77 bc 60 c4 44 bf c9 60 16 3f 2c 3e 07 3f
       -0.015124441 -0.76862144 0.5874143 0.5282924
0001b0 f2 9a 03 3f 3c 2d 26 be fc 5a ba 3d df e3 23 3e
       0.514083 -0.16228193 0.09099385 0.16004895
0001c0 09 96 bb be fe 89 30 bf 2a ac cb 3d 1e ed c1 be
       -0.36637905 -0.6896056 0.09944947 -0.3787622
0001d0 be e5 cb be c1 2a 11 bf 22 47 51 be 17 63 ed bd
       -0.39823717 -0.5670586 -0.20437291 -0.115911655
0001e0 8f c4 ec 3e 5b 55 64 bf de b8 9f bd 6f 03 d7 be
       0.46243712 -0.8919274 -0.077989325 -0.41994807
0001f0 2c 3b 83 bd 9b e3 b2 be 9b 7c b0 bd ee 5a df be
       -0.064077705 -0.34939274 -0.086175166 -0.4362406
000200 46 02 51 bf c3 aa 9c 3e c4 90 7b 3d 9c d9 98 be
       -0.81644094 0.3059903 0.061417356 -0.29853523
000210 1c e1 9d be ec 28 a5 be c9 0b 55 3a a5 ec 17 3e
       -0.30835807 -0.32257783 0.00081270613 0.14836366
000220 31 c2 60 3e f1 28 0f be 0e 5b 62 be 2e ea ab 3e
       0.21949078 -0.13980462 -0.22105047 0.33577102
000230 4f 75 ba be ab 4e da 3e 43 65 dd be 41 26 92 be
       -0.36417624 0.42638144 -0.4324132 -0.2854481
000240 dc 81 04 bf af 67 1c bf 01 59 db 3d 9b a1 90 bf
       -0.5176065 -0.6109571 0.107103355 -1.1299318
000250 f8 da 36 3f 4b 72 3e 3f 0d 22 47 be f4 1f 90 3e
       0.7142787 0.7439315 -0.19446583 0.28149378
000260 b4 3f 09 3f 84 43 02 be c7 6e a4 3e 4f f1 2f bd
       0.5361283 -0.12721068 0.32115766 -0.04295474
000270 bd e4 75 ba 0a cb 92 3e b1 96 b7 3e c5 a7 0d be
       -0.0009380093 0.28670532 0.35857156 -0.1383353
000280 4c fb ad be 98 d1 5d 3f a0 ee 6d 3f 4f a6 41 be
       -0.33980787 0.8664794 0.9294224 -0.18911098
000290 c3 64 82 3d 94 63 7a 3e 3f bb a2 bf d0 16 25 be
       0.06366875 0.24452049 -1.2713393 -0.16121984
0002a0 b9 47 af 3b 83 7f 14 3e a3 da 8f 3c 40 33 82 3c
       0.005349126 0.14501767 0.017560309 0.015893579
0002b0 17 91 03 3c 02 ff 11 bc a0 e9 85 3f dd 76 d6 bc
       0.008030198 -0.008910896 1.0461922 -0.026179725
0002c0 bc 9d ef 3d be d3 1e bd 8b 9a 01 3d 25 52 05 3e
       0.11700007 -0.03877615 0.031641524 0.13019617
0002d0 38 e9 1a 3c fb 2f 59 3f d6 02 98 3d 70 69 4b be
       0.009455018 0.8483884 0.07422416 -0.1986444
0002e0 3d 0c 9d 3d f2 50 0b be 47 ff 67 be dc 50 52 3e
       0.0766835 -0.13605097 -0.22655974 0.20538658
0002f0 52 9f 55 3e be 7a 5b 3e b7 ed b0 be 1b 8a 7d bc
       0.20861557 0.21433541 -0.34556362 -0.015474821
000300 a2 cc 32 bf 1b 1a 59 bf 31 eb 1a be 60 b0 22 3c
       -0.69843495 -0.8480546 -0.15128781 0.009929746
000310 46 a1 7b 3d 53 f2 e8 be 4c ec 4f bf bf b5 78 bf
       0.0614331 -0.4549738 -0.81219935 -0.9715232
000320 08 a9 00 bf 10 5e 09 bf 47 f2 4c bf d5 cf 7e bf
       -0.5025792 -0.53659153 -0.80057186 -0.99535877
000330 0e 82 cb 3e ea ee 4b bf 11 37 b5 3c cc 67 11 bf
       0.3974766 -0.7966143 0.022120984 -0.56799006
000340 c4 0c 51 3d 49 b8 2b be 52 b9 8b 3e 2c b4 8a bf
       0.051037565 -0.16769518 0.27289826 -1.0836234
000350 9c e5 dc bd 4c 35 72 3d 3e e4 69 3d 79 89 f2 be
       -0.10785982 0.05913286 0.057102434 -0.47370508
000360 f5 15 92 bd 3c 3d 36 3e f7 2e ae bc 8a d3 bf 3d
       -0.07133094 0.17796797 -0.021262629 0.0936652
000370 86 9c 61 3e c9 18 b5 3c 22 fb 83 3d b1 19 05 be
       0.22032365 0.022106545 0.06444384 -0.12998082
000380 8c 98 3c be eb 9b 8d bd f2 2d 59 bf 40 e3 ac 3e
       -0.18417567 -0.069145046 -0.8483573 0.33767128
000390 69 55 34 3e 4b ce 2e 3d 06 d7 47 be 36 ce 8d be
       0.17610706 0.042677205 -0.19515619 -0.2769639
0003a0 5f 0a 6e be 4e c9 b7 3e 72 f5 b5 3d 3d ac ab 3e
       -0.23246144 0.3589577 0.088847056 0.33529845
0003b0 e7 b6 31 be 81 26 54 bd f2 5b 8d be ae d4 9b bd
       -0.17354928 -0.051794533 -0.2760921 -0.07608925
0003c0 06 e5 1d 3e e2 b9 9c be a5 02 d8 3c 6f 4f a6 3e
       0.15419397 -0.30610567 0.026368449 0.32482478
0003d0 4b 00 59 be d5 e8 32 bf 74 35 95 3f 1e e5 bb be
       -0.21191518 -0.69886523 1.1656938 -0.3669824
0003e0 d6 02 21 be 16 fe 83 bf d3 c2 b5 be 6f f1 24 3e
       -0.15723738 -1.0311916 -0.35500202 0.16107725
0003f0 7b 24 fa be de 14 0f bf 50 11 00 3f a5 d4 30 bf
       -0.48855957 -0.55891216 0.50026417 -0.6907447

conv1.lin.bias f4 [64]
000000 86 1d 84 bd 45 7d ae 3e ba 4f 59 be f7 fe b0 3e
       -0.06450944 0.34079948 -0.2122182 0.34569523
000010 cd 4a b9 be 09 6e 86 3e 5a 00 95 3d 05 a5 21 be
       -0.3618988 0.26255825 0.07275458 -0.15785606
000020 5d e6 3c 3d 52 8c 1a be dc fd 3a be d5 de b2 3e
       0.04611813 -0.1509259 -0.18260902 0.34935632
000030 2c b7 51 be 5d f3 75 3e 85 6f 4f 3c d0 da c1 bd
       -0.20480031 0.24018617 0.012660866 -0.09465563
000040 67 4d 52 bc e6 0c 57 be d5 33 9b bd fd 1d 5f be
       -0.012835837 -0.21001014 -0.075782456 -0.21788783
000050 13 89 0a bf e2 7b 74 3e bd 5f 93 be 3e 1c 0f 3f
       -0.5411541 0.23875383 -0.2878398 0.5590247
000060 55 45 8a 3e e6 77 b5 bc 2b c1 37 bd fa 26 02 be
       0.2700602 -0.022151899 -0.044861954 -0.12710181
000070 5d 6e c9 bd ee 91 b3 3c 89 f8 81 bc d8 70 6c be
       -0.09835503 0.02192017 -0.015865581 -0.23089921
000080 23 2e 95 be 5b a2 91 3e 4f e5 b9 be be b6 d2 bc
       -0.29136762 0.2844418 -0.3630776 -0.025721904
000090 2b 80 19 bf b7 32 ce bc 16 93 5a be a8 91 4d be
       -0.59961194 -0.025170667 -0.21345171 -0.20075095
0000a0 da 53 c5 3d e6 11 da be b5 1d 26 be 41 a8 9b 3e
       0.09635134 -0.4259178 -0.1622227 0.30401805
0000b0 62 fc 1a 3e 84 56 72 be ed a3 37 be ef da cd be
       0.15135339 -0.23665816 -0.17933626 -0.40206096
0000c0 63 86 18 bf 0e 1a b9 be 5f 1c f4 be 3c 6d a2 be
       -0.5958006 -0.3615269 -0.47677895 -0.31723964
0000d0 9e ae 0f 3e f5 40 c0 be fb 9b 0d be b8 5d f4 be
       0.14031455 -0.37549558 -0.13829033 -0.47727752
0000e0 d1 a3 b7 be a1 b0 94 3e 5f ab db 3d b4 3b 55 be
       -0.3586717 0.29041007 0.10726046 -0.20823556
0000f0 7b e3 cc 3e 92 a0 aa be 99 96 5c be d5 20 8a be
       0.40017304 -0.3332563 -0.21541823 -0.26978174

conv2.nn.0.weight f4 [64, 64]
000000 32 ce eb bd 77 e1 23 3e a2 ae 0f 3e 22 fd c0 bd
       -0.11513938 0.16003977 0.14031461 -0.09423281
000010 17 68 19 3d 94 2e 4b bf 13 67 17 bc ad 14 ab be
       0.037452783 -0.7936795 -0.009240883 -0.33414212
000020 5e 96 85 bd c0 8e 1b bd 82 1a d4 3d 74 bb 72 bd
       -0.06522821 -0.037977934 0.103566185 -0.0592608
000030 90 2b 6e be d8 d8 03 3e 99 e8 63 3e 9e 36 9a 3e
       -0.23258805 0.12875688 0.22256698 0.30119795
000040 0a c1 c9 3d 0b ab 2d 3e c2 ea f1 bd 13 04 21 bf
       0.098512724 0.16959779 -0.118123546 -0.6289684
000050 fe 2a a8 bd ca b5 17 3e 11 fb 4e bd e8 56 8f be
       -0.08211325 0.14815441 -0.050532404 -0.27995992
000060 f8 f3 a2 bd 41 04 1a be 74 2b 09 3e cb 25 36 be
       -0.079566896 -0.15040685 0.13395482 -0.17787854
000070 9f c2 49 be 75 e2 43 bd cf af ac be 0f f2 1f be
       -0.19703148 -0.047823388 -0.3372788 -0.15619682
000080 55 eb f6 bc c8 2b 9d be af 52 36 3e b2 b4 83 3d
       -0.030141512 -0.30697465 0.17804979 0.06430949
000090 2d dd 09 be 09 3a bb be 3c 47 94 be 69 de eb 3d
       -0.13463278 -0.36567715 -0.28960598 0.11517031
0000a0 af af 23 3e 7c 3c 18 3e 07 65 c1 3c 77 f4 4b 3e
       0.15984987 0.14866823 0.023607744 0.19917475
0000b0 ba fc 88 bf 54 ad 88 bd 39 2a b3 bd 0a 82 74 be
       -1.0702126 -0.06673685 -0.08748288 -0.23877731
0000c0 00 36 e3 be fd f7 09 be 1e e9 47 3e 3d 2f cc 3d
       -0.44377136 -0.13473506 0.19522521 0.099699475
0000d0 f7 d4 52 3d 2e 6f 04 3e 33 cd e2 3d 87 92 dc ba
       0.05147263 0.12933037 0.11074295 -0.0016828337
0000e0 40 bb 80 3e ee e6 0d 3c 18 08 0f be 67 02 59 3d
       0.2514286 0.008661015 -0.13967931 0.052980807
0000f0 ff 7f 6d 3d 37 7b 57 bd 91 43 43 bf cf 51 be bc
       0.057983395 -0.05260774 -0.76274973 -0.023232369
000100 37 6c 2a 3d 6a e7 5b 3b 7b 40 aa 3d 1f 94 8f be
       0.041607108 0.0033554682 0.0831308 -0.28042695
000110 4c fd 9b bd 8d 36 e0 3e 43 22 c4 bd 6a 5d 60 3e
       -0.07616672 0.4379162 -0.095768474 0.21910635
000120 58 ab ea 3c 07 bf 71 be 85 0c 4f bd b8 bf 9b bd
       0.028646156 -0.23608027 -0.05054905 -0.07604927
000130 a7 df d8 3e 4c 5f 1a bf 2e 24 db be 70 42 81 3e
       0.42358133 -0.6030166 -0.4280104 0.25246
000140 f2 e5 08 3f da f9 0e 3f 0f 36 0b bd db 75 14 bf
       0.5347587 0.55849993 -0.0339871 -0.57992333
000150 f1 0f 13 3e 22 8e a4 3d 99 e9 1f bd 76 2f e3 3d
       0.1436155 0.08034922 -0.039041135 0.11093037
000160 2f 00 d1 3d 5c 5d 0a 3f 97 ff a8 bd 57 39 47 3e
       0.10205113 0.54048705 -0.08251875 0.19455467
000170 02 ec e8 bd df 95 ad 3d 1c 74 59 be 7f 2c 02 be
       -0.1137314 0.08475851 -0.21235698 -0.12712286
000180 51 f2 dc bd 09 1a 91 3e d8 54 a6 3e e7 b5 24 bd
       -0.10788406 0.28340176 0.32486606 -0.040212538
000190 3e df b7 bd 3f c2 74 3e 0b aa 11 bd b7 b7 2d be
       -0.08978127 0.23902224 -0.035562556 -0.16964613
0001a0 36 52 08 3d c7 76 26 3e 4b b8 01 be 36 13 2f 3d
       0.033281527 0.16256247 -0.12667958 0.04274293
0001b0 3e 9b d8 bc 0b ee 52 be 1a 1b 84 bd 2a 8c 36 3d
       -0.026441213 -0.20598619 -0.06450482 0.044567265
0001c0 77 58 14 bf f3 f2 d4 3c ba 08 97 be 8f 12 12 3d
       -0.57947487 0.025994753 -0.29498845 0.03566223
0001d0 3b 58 6a 3e d3 b3 2c be 74 62 b3 3d 3b 5f 37 bd
       0.2288522 -0.16865472 0.08759013 -0.044768553
0001e0 cb c1 40 3e b6 9f f0 3c be 82 f8 bd 5d ec a6 be
       0.18823926 0.029373031 -0.12134312 -0.32602206
0001f0 c6 11 f3 bd b1 6a ec 39 84 f3 03 bf ff ce 03 3d
       -0.118686244 0.0004509292 -0.5154345 0.03217983
000200 34 1c 4c bd e7 21 e4 3d 51 ac b2 3d 49 3c bb be
       -0.049831584 0.11139279 0.08724273 -0.3656943
000210 9a 1f 50 be de 83 bc 3e 87 10 da bc bb 7f 12 be
       -0.20324555 0.36819357 -0.026619209 -0.14306538
000220 62 c3 32 bd cb 96 7b be 5e 99 9b bb d1 00 37 bd
       -0.043643363 -0.24569242 -0.0047485074 -0.044678513
000230 a4 99 36 3e fc 6c c4 be e7 26 09 bf 4d ca a8 3c
       0.17832047 -0.38364398 -0.53574985 0.020604277
000240 f7 c8 36 3e 40 cd 1e 3e bb 3d d8 bd 8e 5e d6 3e
       0.178501 0.15507984 -0.10558649 0.41869015
000250 95 8d 76 bd 89 cf 2e 3e ae 07 02 be 15 d3 79 3e
       -0.060193617 0.17071356 -0.12698242 0.24396928
000260 60 8d d0 be 55 80 c6 3f 8f c7 c6 3d 1c a7 8c 3d
       -0.4073286 1.5507914 0.097060315 0.06867811
000270 2e 60 df bd e9 91 11 3d 64 34 2d 3e 0d 39 12 3e
       -0.10907017 0.03553954 0.16914517 0.14279576
000280 7f c4 f3 bc 74 5e ce 3e 8d 53 a8 3d fc 1a 2e be
       -0.029756783 0.40306437 0.08219061 -0.17002481
000290 7e b7 a5 3c 87 f9 cf 3e 2e 87 f1 bd ba b7 b1 3e
       0.020229097 0.40620062 -0.117933616 0.34710485
0002a0 ff 9a 3f be bf ad f3 3d 16 62 d6 be 96 75 d6 bd
       -0.1871147 0.11898374 -0.4187171 -0.104716465
0002b0 f5 ca 7d 3e 58 66 c6 3c ec 52 2a 3d 08 90 1b 3d
       0.24784453 0.024218723 0.041582987 0.037979156
0002c0 f9 a7 fc 3e a2 88 b9 bc d5 e6 08 bf 08 0d 4c bc
       0.49346903 -0.02264816 -0.5347722 -0.012454279
0002d0 64 8e 03 3e 2a 97 9a be 76 c4 27 be 8e 39 56 bd
       0.12847286 -0.30193454 -0.16383538 -0.052300982
0002e0 88 eb 1f bd f5 db 0e be a7 4c 48 bc 77 d7 96 3c
       -0.03904298 -0.13951094 -0.012225307 0.018413289
0002f0 9e 9a 04 3d 40 2b 08 3e b2 db 27 3e 15 54 6f 3c
       0.032374017 0.13297749 0.16392401 0.014607449
000300 03 d5 d9 3c 67 a4 b4 bb 4f 78 b3 bc a6 4c 47 bd
       0.02659083 -0.0055127623 -0.021907954 -0.048657082
000310 fc 7a db 3c 2f 39 4d 3f 8f 2d 6e be 11 1d 9e 3d
       0.026792042 0.8016538 -0.23259567 0.07720388
000320 f2 bd 07 3d 7d fa 42 3f 9e 85 dd be e3 be 41 3c
       0.03314013 0.76163465 -0.43266004 0.011825296
000330 f6 13 55 3e 1f 57 20 3f 0b bb d5 bd e1 6e ea bd
       0.20808396 0.62632936 -0.10436066 -0.1144693
000340 06 28 c3 be 8e b5 30 be fe a5 f2 bd b6 ef c3 3e
       -0.38116473 -0.17256758 -0.11848067 0.38268822
000350 69 e4 8e be ad e3 2c be e4 0f 8b 3c b0 0c 8c 3e
       -0.27908638 -0.16883726 0.01697535 0.2735343
000360 fb 98 da bd 1f 52 bf 3e 98 73 4f 3e 0a 4f 82 3d
       -0.1067371 0.3736734 0.2025894 0.06362732
000370 ff bc 5e be 52 f9 cf bd 37 4d a8 3e a9 ee 7a bd
       -0.21751784 -0.10154976 0.3287141 -0.06126276
000380 fa 86 fc bd 08 5a 81 bf b4 6b 44 38 13 79 cf bc
       -0.12330432 -1.01056 4.6830348e-05 -0.025326287
000390 2a c2 26 bc 69 26 90 3e 0e 1e 17 3c 37 7d 85 3e
       -0.010178128 0.28154305 0.009223474 0.26072094
0003a0 76 fa 38 3d 81 f7 61 ba 0c 29 83 3d 49 d2 00 bf
       0.045160733 -0.000861995 0.064043134 -0.5032087
0003b0 bc 0c 21 3f a3 52 29 3e b0 8e 6d 3d 83 1e 4f 3f
       0.62910056 0.1653543 0.057997406 0.8090593
0003c0 10 88 b6 3e a8 f6 25 be 8c 9a 2d 3e 18 ad cd bc
       0.35650682 -0.16207373 0.16953486 -0.025106952
0003d0 75 5e 50 3d 80 07 8d be e3 49 83 be 9b 5e 51 3d
       0.05087133 -0.27544785 -0.2564231 0.051115613
0003e0 ba b2 8c be 35 2c 83 3c c8 56 80 3d 42 84 26 bc
       -0.27480108 0.01601229 0.06266552 -0.010163369
0003f0 00 cb 35 bb 80 2c 07 3e 7e 5a 67 3f 61 29 20 be
       -0.0027739406 0.13200569 0.90372455 -0.15640785

conv2.nn.0.bias f4 [64]
000000 e2 9a 4f 3e ba af c2 bd b4 66 89 3e f2 a5 36 3d
       0.20273927 -0.095061734 0.2683617 0.04459185
000010 d8 43 4f 3e d3 be aa 3d 4c 60 f8 3d e6 1a 2f 3e
       0.20240724 0.08337178 0.12127742 0.17100105
000020 84 b7 d8 bb 44 04 05 be 92 2f 03 3f 4c c3 85 bd
       -0.0066136736 -0.12989908 0.5124446 -0.065313905
000030 85 d0 68 3e c6 5c 04 bf ae e1 c5 bd 17 8b df bd
       0.22735794 -0.5170406 -0.096621856 -0.10915201
000040 d8 5f bb bd 79 20 02 3f 3a 7a c6 be 1d 6b a6 3d
       -0.0914914 0.508308 -0.38765126 0.08125899
000050 82 76 a5 bd ca 24 0e be b4 57 8b be 17 b4 87 3e
       -0.08079244 -0.13881221 -0.2721535 0.26504585
000060 6b a2 19 3e 8c fa 97 be 6a db 90 3c 23 48 dc 3c
       0.15003364 -0.2968334 0.01768275 0.026889866
000070 7a 41 63 3d 45 df 65 3e c4 81 a3 3d 77 e3 dd 3e
       0.055482365 0.22448452 0.07983735 0.43337604
000080 7f 89 8d 3e 89 b4 8d be 06 f4 34 3e 03 d5 2a 3e
       0.27643964 -0.276768 0.17671213 0.1668282
000090 a2 f7 1f bb fc a4 b3 3d 98 fd 3e be 7d 50 ea 3e
       -0.0024409075 0.08771703 -0.18651426 0.45764533
0000a0 4c 92 59 3d f1 94 04 3e 79 17 a4 3e 87 15 a6 bd
       0.053118035 0.12947442 0.32049158 -0.08109575
0000b0 94 44 92 3e 74 67 16 be dc 07 84 3d 03 45 bb 3d
       0.28567946 -0.14687902 0.064468116 0.09144022
0000c0 36 b8 9b 3d a1 27 4b bf 58 86 84 bd 88 49 02 3f
       0.07603495 -0.79357344 -0.064709365 0.5089345
0000d0 b5 9b 4b 3e f2 f2 a5 3e 33 15 bf 3e f0 07 48 3e
       0.19883616 0.32411915 0.3732086 0.19534278
0000e0 8a 07 3f 3e 2e 4c 52 bd 21 c2 8e bd d6 71 63 3e
       0.1865522 -0.05134218 -0.06970621 0.22211394
0000f0 d4 85 26 3e f2 48 fa 3a 3f b1 0f 3f ae 24 ce 3d
       0.16261989 0.0019095226 0.5612983 0.1006559

conv2.nn.2.weight f4 [64, 64]
000000 b1 b6 1a 3e bf 05 cd bd a9 da 1e be 1d fd e0 be
       0.15108754 -0.100108616 -0.155131 -0.4394311
000010 2e 60 bb bd 01 a6 78 be cb 43 4f 3e 1d ed 8e be
       -0.09149204 -0.24282075 0.20240705 -0.27915278
000020 54 b5 08 be 86 e1 81 bd 49 6b ac 3d c7 81 c0 bc
       -0.13350421 -0.06341843 0.084189005 -0.023499383
000030 f9 1f 07 be 84 9f 56 3d a0 15 08 bd d1 e9 a4 3e
       -0.1319579 0.05239822 -0.03322375 0.32209638
000040 d3 da 8d 3e 3c 10 88 3e 24 0c 93 be 1e 1a 76 be
       0.27706012 0.26574886 -0.287202 -0.240334
000050 98 79 01 bd 68 d1 8c bd 9e 3a 80 3d 51 69 26 bb
       -0.0316101 -0.068758786 0.0626118 -0.0025392363
000060 a4 c7 0b bd 52 8a 48 be f5 a5 2e bd 8c 69 12 be
       -0.03412594 -0.19584015 -0.042638738 -0.14298075
000070 8a e9 f2 bd b5 f5 86 3e 30 f5 dd bb 19 f5 99 3d
       -0.1186095 0.26359335 -0.0067736134 0.07517452
000080 93 05 8c bd ca e3 5b bc 1c 9c 8c 3e 3e 39 0c be
       -0.06837001 -0.013421008 0.27462852 -0.13693711
000090 da 17 c5 bd 3f 0a a7 3d f7 09 da 3d 7a ed 9c be
       -0.0962369 0.08156251 0.10646432 -0.3064993
0000a0 b5 0b f4 bd 92 a7 c9 3d 14 ac cf be 54 97 32 be
       -0.119162954 0.098464146 -0.40560973 -0.1744054
0000b0 ea 3e 45 3e eb 77 95 be 50 a1 cf bd 6b 62 90 be
       0.19262281 -0.29193053 -0.1013819 -0.28200087
0000c0 f9 c9 88 bc 48 0c 27 be 53 db 45 bd 06 02 f1 3e
       -0.01669787 -0.16313279 -0.048304867 0.47071856
0000d0 8f 49 dd bd 84 03 e1 3e 3b 8b f1 38 0f 25 89 be
       -0.10805046 0.43947995 0.00011517709 -0.26786086
0000e0 33 37 61 3e 7b 57 fd 3d 31 18 44 be 3b 40 5b 3e
       0.21993713 0.12370201 -0.19149853 0.2141122
0000f0 4d 32 3f 3d a0 66 95 3d 7b c6 1e bd 41 f9 29 3e
       0.04667883 0.07294965 -0.038763504 0.16598989
000100 d5 30 19 be 93 28 a0 bd 8c 9f dc ba 56 49 16 bf
       -0.14960034 -0.07820239 -0.0016832217 -0.5870565
000110 fd 89 b6 be 84 48 dc be b9 eb 15 3e 3a 00 9c be
       -0.35652152 -0.43024075 0.14640702 -0.30468923
000120 2c bc ba 3a 4f c0 88 3c f1 3a 14 3e 42 b3 09 3c
       0.0014246753 0.016693262 0.1447561 0.008404555
000130 82 87 8d bd 68 bd 50 3d 9c dd 2a bd bb 33 2e 3e
       -0.06910612 0.050961882 -0.04171525 0.17011921
000140 b9 8c 48 be 81 9e da 3e ec e4 71 bd e0 9f 1f be
       -0.19584931 0.42699054 -0.059056208 -0.15588331
000150 10 43 b9 be 66 56 7b bd c1 a6 6b 3e 57 de 5f 3d
       -0.36183977 -0.061361693 0.2301283 0.0546554
000160 cd b5 34 be 26 f1 70 3e 67 ce 81 be 3e dd 09 be
       -0.17647476 0.23529491 -0.25352785 -0.13463303
000170 42 b1 12 3d 68 ee 3b 3e 57 11 9a bd d0 01 9f be
       0.035813577 0.18352664 -0.075228386 -0.3105607
000180 df a7 4c be 86 de c1 3d 99 54 55 3d c7 f7 41 be
       -0.19985913 0.09466271 0.05208263 -0.18942176
000190 00 e0 fd 3d f0 5e 28 3e 73 2b 9e 3d 25 2a 50 be
       0.1239624 0.16442466 0.07723131 -0.20328577
0001a0 7f a1 9f be 58 8b d5 bd 2b c5 95 be b2 9a 9d bc
       -0.311779 -0.10426968 -0.2925199 -0.019238804
0001b0 a6 61 d7 3d 51 cf b4 3e 69 3c d3 3c 53 4e 2b be
       0.10516672 0.3531442 0.025785642 -0.16729097
0001c0 1f 23 30 be a1 09 01 3e c1 87 71 bc c2 9e a2 3e
       -0.17200898 0.1260133 -0.014741839 0.31761748
0001d0 c0 e1 64 3c 39 ad 18 3f e6 8d c7 bd 04 5f a2 be
       0.013969839 0.59639317 -0.09743862 -0.31713116
0001e0 54 08 48 3e 3e 8e c3 3d 50 0a ef bd 68 f4 94 3e
       0.19534427 0.09548615 -0.11671889 0.29092717
0001f0 8e c2 83 3a 06 79 a5 bd 0a 69 9b be 85 a7 19 bc
       0.0010052489 -0.08079724 -0.30353576 -0.009378319
000200 e1 8b a3 3d 47 bb 95 bc 0f 5e 26 3c e3 49 04 3e
       0.07985664 -0.018277777 0.010154261 0.1291881
000210 85 53 ee 3d 31 3c 94 b9 d8 7d b7 3c 9e 6b 06 bb
       0.11637024 -0.00028273606 0.022398874 -0.0020510922
000220 c5 f4 be bd f5 12 d8 bd 88 f9 0a 3e c1 03 93 3d
       -0.0932403 -0.10550491 0.13571751 0.071784504
000230 f1 68 45 bc 1a ae ff 3d 33 8c af 3e f1 2c ed 3e
       -0.012048946 0.12484379 0.3428665 0.4632335
000240 3a 44 17 3f bb 99 6f be ca 98 75 3d 78 92 15 3f
       0.5908848 -0.23398487 0.059960164 0.5842662
000250 85 db a5 3e 87 6b 44 3d 67 4c 18 3e 5a 91 33 be
       0.32394043 0.04795411 0.14872895 -0.17535916
000260 5d c9 d9 bd 27 88 c6 3c af c5 b1 3c eb ed 36 bd
       -0.1063411 0.024234844 0.021700708 -0.04466049
000270 7e c1 41 be 3c 7c 5a be 54 f4 e7 3c 95 55 5c be
       -0.18921468 -0.21336454 0.028314747 -0.21517022
000280 1b 52 7b bd 65 fd 67 be 52 25 b0 be 23 4c 35 3d
       -0.0613576 -0.22655256 -0.34403473 0.044262063
000290 3c a9 35 3e c5 c5 1b be eb 11 f4 3d a6 d3 4d be
       0.17740339 -0.15212162 0.1191748 -0.20100269
0002a0 0b a8 a7 3e 3c 6d 0c bd ac b5 4b 3e 98 9b 6e 3e
       0.32745394 -0.03428386 0.19893521 0.23301542
0002b0 6e 4c 82 bd 97 99 5b bf 39 08 53 be c1 ab c2 3c
       -0.06362234 -0.85781235 -0.20608605 0.02376354
0002c0 d9 b4 2a 3e 62 fd a4 be 49 16 07 3f fa 3d d7 3d
       0.1667055 -0.32224566 0.5276838 0.10509868
0002d0 d4 3b 8c bb 11 3b 8c 3d 2c f8 0f bc 16 9a 9e be
       -0.004279593 0.068472035 -0.008787196 -0.30976933
0002e0 1e b0 1c bf 11 41 44 bd 93 3f f4 bd 7f fc e1 ba
       -0.61206234 -0.047913615 -0.11926188 -0.0017241387
0002f0 cb 91 25 be ea 37 85 bd 07 d4 a2 be d8 ba 8b bc
       -0.16168897 -0.065048054 -0.3180239 -0.017056867
000300 bc 1d 81 bd 92 2c 44 bd 09 a0 6e be 65 29 22 be
       -0.063044995 -0.047894068 -0.23303236 -0.15836103
000310 32 30 5e 3c 4a 0b f9 bd a1 4f 31 3e a1 7f 36 be
       0.013561295 -0.12160356 0.17315532 -0.17822124
000320 4b a4 25 3e ad a7 c3 bd 96 1c 96 bd 09 7b 78 bd
       0.16175954 -0.09553466 -0.07329671 -0.06066421
000330 0a f7 f8 bd 85 b0 c5 3c fb 31 1d 3c 14 a4 bf bd
       -0.12156494 0.024132023 0.009594436 -0.09357467
000340 eb 4e 98 3e c4 41 71 3e 74 b8 a4 be b6 ae 2c 3d
       0.2974771 0.23560244 -0.32171977 0.042158805
000350 50 8b bb bd f3 6c 19 be 86 09 40 bb e2 1b 29 3d
       -0.09157431 -0.14982967 -0.0029302551 0.041286357
000360 42 1d 7c be 2c 97 0e 3e 54 52 02 3d e9 8b ed bd
       -0.24620536 0.13924855 0.031816795 -0.11598951
000370 39 c7 00 be e3 89 b4 3e 90 2e 34 3c 2e 20 b0 be
       -0.12575997 0.3526145 0.0109974295 -0.3439955
000380 71 58 b8 bd a4 d3 38 3d 63 01 43 bd 0d 42 14 bc
       -0.09001244 0.04512371 -0.047608744 -0.009048951
000390 43 1b 65 3c f7 b4 aa 3d bd 7c 03 3e a2 b0 4d be
       0.0139835505 0.083352976 0.12840553 -0.20086911
0003a0 29 0c 1d be 0d b0 01 be 13 85 25 3e 88 88 4c 3d
       -0.1533667 -0.12664814 0.16164045 0.049934894
0003b0 a8 18 93 bd 68 23 65 3d a8 fb 6f 3d e8 f5 2e be
       -0.07182437 0.05594197 0.058589607 -0.17085993
0003c0 65 be 14 be 31 3a b5 bc 1c e3 22 3e 06 27 2c 3e
       -0.14525755 -0.022122474 0.15906948 0.16811761
0003d0 83 72 13 bd 9e ca 88 3e 7e e9 ae be ab 98 47 be
       -0.03599788 0.26717085 -0.34162515 -0.19491832
0003e0 e7 2f ba 3e 7d 67 1e 3d b7 af 4f be 3f 22 9f 3d
       0.36364672 0.038672913 -0.20281874 0.07770204
0003f0 03 78 34 3b 42 91 18 be cf 36 35 3e 22 3a dc bc
       0.0027537353 -0.14899161 0.17696689 -0.026883189

conv2.nn.2.bias f4 [64]
000000 e8 0c 2c bd f0 f4 1c bd 5c b3 d9 3c 00 dc ef bb
       -0.042004496 -0.038319528 0.026574783 -0.007319927
000010 9e 05 89 3c 85 e0 34 be e7 02 70 be ed 8d ee bd
       0.016726311 -0.17663772 -0.23438607 -0.11648164
000020 3d 08 42 3e 16 7b 2f 3e 6e 43 26 3d 46 f3 73 3e
       0.18948455 0.17136797 0.04059165 0.2382327
000030 90 80 1a bd 8d 8b 54 be 1c 9f 41 bd cb fd 0d be
       -0.037720263 -0.2075636 -0.04727088 -0.13866346
000040 f3 99 51 bd 59 67 cc 3c f0 64 84 bd 05 ef c3 3d
       -0.051172208 0.024951624 -0.06464565 0.09567074
000050 2d b0 03 b9 32 a0 e2 3c 52 7d bd bd cc 0f bd 3d
       -0.00012558764 0.027664278 -0.092524186 0.09231529
000060 16 c5 c4 bd a3 1b ab 3c de 1f 77 3d ae b3 9d 3d
       -0.09607904 0.020887202 0.060333125 0.07700287
000070 e8 ae 00 3e 35 1e 11 be 80 2f d5 bd e3 11 31 3d
       0.12566721 -0.1417168 -0.104094505 0.04322995
000080 97 8c 80 bc 3f 7b ea 3a cc 03 0d 3d ec ae 59 be
       -0.015692038 0.0017889513 0.03442745 -0.21258134
000090 7d 07 45 be 48 3e ed 3d 4f 68 c4 bd a8 43 a6 bb
       -0.19241138 0.11584145 -0.09590208 -0.005073983
0000a0 39 52 e9 bd 2a c1 0f 3e f9 72 77 3d f6 d5 89 3a
       -0.11392636 0.1403853 0.06041238 0.0010516036
0000b0 fa ff c5 3d 01 e6 eb bd 6e 97 38 3b cd 38 20 bd
       0.09667964 -0.11518479 0.002816643 -0.03911667
0000c0 f2 d9 01 be c7 f4 05 3e 4f 58 09 bc 73 71 19 be
       -0.12680796 0.13081656 -0.008382871 -0.14984684
0000d0 a0 3a fe bc 36 77 a7 bc 0c 22 e8 bd d0 6c 92 bd
       -0.031033814 -0.020442586 -0.11334619 -0.071496606
0000e0 3e df 1d 3c 40 22 cb 3d 97 4e 0c 3e 10 fa 19 be
       0.009635745 0.09918642 0.13701855 -0.15036798
0000f0 18 52 ad bd 96 6c 29 3e 94 4d 04 3d c5 7b 53 be
       -0.08462924 0.16545328 0.032300547 -0.20652683
