run_results/2905-1755/checkpoints/D/model_D_epoch_50.pth (torch, 698407 bytes, 7 tensors)

embedding.weight f4 [500, 300]
0.5848303 -0.19802266 -0.47521886 -0.46526724 1.7699095 -1.4059736 -0.23546475 1.1168444
-0.5772429 1.3118259 0.9695647 -0.3185821 1.3246654 -1.5319207 -1.5808758 -0.10593012
1.9865646 0.4196443 1.7369518 -2.13394 1.4227129 -0.34818202 -0.80188733 -0.3104066
-0.8297733 -0.56703645 -1.2312374 0.88535273 1.635219 0.68339 0.9641406 -0.88446265
1.4242772 -2.738639 0.26035365 2.3264778 1.4368887 1.6436094 -1.3023057 0.1327058
0.82039577 2.2506006 -1.037616 -1.199766 0.018561449 0.22303954 0.0931168 0.8736604
0.87860763 -0.77078843 3.5233214 -0.34304366 -0.36190093 1.5664896 -0.69067025 0.66654253
0.2217529 -1.1792374 0.23658654 -0.49849495 -0.96277577 1.3352824 1.9790478 1.5090147
0.40752417 2.6345782 -1.0185857 0.38941574 0.85044986 -0.2534265 -1.139969 0.0018053992
1.4639407 0.772946 1.6618892 -0.19915906 0.616709 1.5878153 0.5897267 0.46681988
1.2683325 0.54446024 1.4558028 1.6155479 1.098885 0.062337164 1.5486807 1.2391307
-1.0329841 -0.08280774 0.8162692 1.1380426 -1.8715531 -0.6102395 0.07336432 -3.2308228
0.18713216 -0.0884483 1.0279717 2.081076 1.1467854 -0.803433 0.8334873 -0.6663578
-2.3721611 -2.4696577 1.1455818 0.24513896 0.50451756 -0.3967123 -0.79847383 0.51978093
0.2259917 0.46653697 0.20934558 0.06780186 0.68862826 0.13977472 0.21658632 0.105776876
0.7128187 -1.6372445 0.0350124 -0.8809897 -0.27433047 1.6850091 1.1870514 0.19426787
-0.48162672 -0.59516096 1.0147487 0.68669194 0.15875337 0.16108523 0.6750025 0.66453785
1.9817022 -1.9868728 -0.10191137 1.4194478 -0.23842742 -0.6592322 1.0658028 -1.975571
0.3467261 0.03693374 0.36489612 -0.4400601 -0.39127964 0.97636276 -0.7482133 -0.9742685
-0.21883652 0.4727993 0.68615484 -0.625473 0.59538186 0.76808864 -0.039846726 -0.56302524
-0.48206028 -1.4950453 1.2737315 -0.5626962 -0.83522224 1.3828702 0.046428047 0.20016852
-0.6884323 2.3528361 -1.1244017 -0.7626165 0.3697569 -0.6520684 -0.8358378 -0.24604814
1.0299315 1.6756276 -1.0994303 0.61573565 1.4623989 0.08303589 0.25587556 -0.5957781
-1.3500055 -0.8756204 1.3288435 -0.6183299 -0.04878691 -0.0446737 0.35531962 0.55197275
-1.488891 0.64124024 -1.6127517 -1.0578411 0.1521535 0.5841671 0.8294029 0.90424895
-0.15316607 -1.6832789 1.1072325 -0.7281484 -0.27561045 -1.3060708 0.21347444 1.4297639
1.392131 0.5313117 -0.4620342 -1.5004249 0.4524582 0.8532176 0.30352592 0.114886396
-0.8025738 0.32412153 0.6527152 -2.071595 0.41511515 -1.1206518 0.6909425 -1.2995442
0.1701326 0.47871503 1.4092174 1.5143878 -0.95486003 -0.52149415 0.18266977 -0.58404046
0.24881351 2.0845814 0.6917798 -0.41300085 -0.9752327 1.0444909 0.12885453 0.7723956
-0.67521566 0.8557666 0.7550979 -0.36696488 1.2573377 1.8040558 -0.7850103 -1.0564715
0.97420275 -0.10527642 1.2625471 0.37838677 -0.10903996 -0.36964896 -0.27231696 -0.63749546
00000000: 70b7 153f 74c6 4abe e34f f3be 8237 eebe
00000010: 658c e23f f1f6 b3bf ac1d 71be c2f4 8e3f
00000020: 31c6 13bf e9e9 a73f 6435 783f 311d a3be
00000030: a38e a93f fa15 c4bf 235a cabf e4f1 d8bd
00000040: c047 fe3f 9edb d63e 7054 de3f 7992 08c0
00000050: 751b b63f ea44 b2be 7d48 4dbf 9ded 9ebe
00000060: 066c 54bf 4d29 11bf 3099 9dbf 7aa6 623f
00000070: db4e d13f a6f2 2e3f ebd1 763f 256c 62bf
00000080: b74e b63f dd45 2fc0 134d 853e 03e5 1440
00000090: f8eb b73f cb61 d23f f4b1 a6bf 07e4 073e
000000a0: 7505 523f d709 1040 9ad0 84bf ef91 99bf
000000b0: 2e0e 983c 7a64 643e 05b4 be3d 35a8 5f3f
000000c0: 6eec 603f 6452 45bf 197e 6140 6ba3 afbe
000000d0: 144b b9be bb82 c83f c4cf 30bf 88a2 2a3f
000000e0: 3113 633e 40f1 96bf be43 723e bb3a ffbe
000000f0: 7978 76bf 89ea aa3f 7051 fd3f 6527 c13f
00000100: 02a7 d03e ee9c 2840 0461 82bf 8061 c73e
00000110: 15b7 593f 1ec1 81be 81ea 91bf 25a3 ec3a
00000120: 6962 bb3f cadf 453f c9b8 d43f 5af0 4bbe
00000130: a4e0 1d3f 883d cb3f 54f8 163f 0403 ef3e
00000140: b858 a23f bf61 0b3f bf57 ba3f 46ca ce3f
00000150: 44a8 8c3f 4155 7f3d 2b3b c63f d69b 9e3f
00000160: d338 84bf 1b97 a9bd 05f7 503f 61ab 913f
00000170: 0d8f efbf a838 1cbf 0840 963d cdc5 4ec0
00000180: 939f 3f3e 6224 b5bd 9494 833f 5930 0540
00000190: ddc9 923f c9ad 4dbf 6c5f 553f 6d96 2abf
000001a0: 7dd1 17c0 df0e 1ec0 6da2 923f b505 7b3e
000001b0: 1028 013f e01d cbbe c868 4cbf 5d10 053f
000001c0: 5e6a 673e efdd ee3e b05e 563e b4db 8a3d
000001d0: f149 303f 1b21 0f3e cec8 5d3e 8ca1 d83d
000001e0: 497b 363f 3a91 d1bf 2a69 0f3d 8a88 61bf
000001f0: 0b75 8cbe 61ae d73f 4df1 973f 28ee 463e
00000200: c797 f6be 785c 18bf 49e3 813f 0bcb 2f3f
00000210: 3e90 223e 87f3 243e f7cc 2c3f 271f 2a3f
00000220: 6ba8 fd3f d951 febf e9b6 d0bd 77b0 b53f
00000230: 5126 74be 71c3 28bf 3a6c 883f 83df fcbf
00000240: 1586 b13e d547 173d aad3 ba3e 8f4f e1be
00000250: ce55 c8be e9f2 793f e88a 3fbf a969 79bf
00000260: ae16 60be c012 f23e d8a7 2f3f 001f 20bf
00000270: f26a 183f 75a1 443f 5236 23bd 6c22 10bf
00000280: 9bd0 f6be a55d bfbf a209 a33f dc0c 10bf
00000290: 20d1 55bf e401 b13f 562b 3e3d faf8 4c3e
000002a0: 193d 30bf de94 1640 65ec 8fbf d63a 43bf
000002b0: c750 bd3e f4ed 26bf 77f9 55bf 0bf4 7bbe
000002c0: ccd4 833f f77a d63f 22ba 8cbf daa0 1d3f
000002d0: e32f bb3f b80e aa3d 1f02 833e ea84 18bf
000002e0: fbcc acbf a928 60bf 8b17 aa3f de4a 1ebf
000002f0: c8d4 47bd c5fb 36bd 74ec b53e 164e 0d3f
00000300: fb93 bebf 5228 243f a66e cebf 5667 87bf
00000310: 21ce 1b3e fa8b 153f c053 543f dc7c 673f
00000320: 91d7 1cbe af75 d7bf cbb9 8d3f ef67 3abf
00000330: d01c 8dbe 542d a7bf 0b99 5a3e 8102 b73f
00000340: 5931 b23f 0b04 083f bf8f ecbe ec0d c0bf
00000350: 9aa8 e73e 786c 5a3f c067 9b3e 8f49 eb3d
00000360: 7a75 4dbf 42f3 a53e 5818 273f 0395 04c0
00000370: f989 d43e 8571 8fbf 9ce1 303f 7757 a6bf
00000380: 3e37 2e3e 231a f53e 3c61 b43f 76d7 c13f
00000390: b571 74bf a480 05bf c90d 3b3e ad83 15bf
000003a0: f8c8 7e3e c869 0540 7b18 313f d974 d3be
000003b0: daa8 79bf e1b1 853f 71f2 033e b8bb 453f
000003c0: efda 2cbf 8513 5b3f 194e 413f d2e2 bbbe
000003d0: 71f0 a03f 4deb e63f 6ff6 48bf 753a 87bf
000003e0: 5a65 793f 2a9b d7bd 259b a13f e9bb c13e
000003f0: 5850 dfbd a142 bdbe 216d 8bbe e732 23bf

conv1.bias f4 [64]
-0.054944456 -0.020861851 0.048434258 -0.029540448 -0.04456398 -0.1309833 0.009978251 -0.14923374
-0.022219375 -0.1365825 -0.055483874 -0.07609319 0.062916934 0.049931683 0.01923472 -0.3696398
-0.08610397 -0.040191654 -0.098139524 -0.22567378 -0.19897346 -6.740506e-05 0.019302154 -0.06697558
-0.02399851 -0.06203348 -0.23200184 -0.026697807 -0.13046616 -0.08337175 -0.005859297 -0.14204004
-0.09113961 0.057420585 -0.034801412 -0.16246615 -0.16731349 -0.09143626 0.057613924 -0.010288799
-0.08508841 -0.052684676 0.09739001 0.0058346316 0.052618798 -0.1264343 0.0053399685 -0.15388283
-0.13309081 -0.05906615 -0.1728556 -0.012355419 -0.17378324 -0.10098592 -0.033859067 0.038461074
0.023019176 -0.21599592 -0.22942647 0.010512111 -0.0150687285 -0.22596975 -0.062235624 -0.034907144
00000000: 700d 61bd 79e6 aabc 0063 463d cffe f1bc
00000010: b888 36bd 7c20 06be d17b 233c bbd0 18be
00000020: 6805 b6bc 48dc 0bbe 0f43 63bd bfd6 9bbd
00000030: 98da 803d 2a85 4c3d 2292 9d3c 6e41 bdbe
00000040: 4757 b0bd 01a0 24bd 60fd c8bd 0717 67be
00000050: b3bf 4bbe d15b 8db8 8d1f 9e3c 7e2a 89bd
00000060: 8698 c4bc d116 7ebd e491 6dbe 5cb5 dabc
00000070: ec98 05be cfbe aabd 58ff bfbb f272 11be
00000080: 67a7 babd d931 6b3d ed8b 0ebd 875d 26be
00000090: 3a54 2bbe ef42 bbbd 94fc 6b3d 5a92 28bc
000000a0: d542 aebd e3cb 57bd 6a74 c73d 7030 bf3b
000000b0: cf86 573d fe77 01be e7fa ae3b 7693 1dbe
000000c0: f548 08be 59ef 71bd 0f01 31be 626e 4abc
000000d0: 3cf4 31be b5d1 cebd ceaf 0abd 5c89 1d3d
000000e0: b692 bc3c 092e 5dbe c6ee 6abe fd3a 2c3c
000000f0: d4e2 76bc 9d64 67be c8ea 7ebd cbfa 0ebd

conv1.lin.weight f4 [64, 300]
-0.09889224 0.072207384 0.012689597 0.33996022 0.24310172 0.13673183 -0.43901473 -0.26041332
0.11155541 -0.43130878 0.1548122 0.18729815 -0.27276158 0.13298966 0.07125107 -0.43122762
0.01748002 -0.046589196 0.19007906 -0.02561412 -0.28337353 -0.055204097 -0.16633087 0.074126616
0.31006163 0.054854766 -0.11816527 -0.0016154824 0.023541931 -0.17322935 0.27681363 0.2544769
-0.019516412 -0.07458862 0.34685683 0.27816004 -0.02106892 0.11158262 0.09568349 0.024884002
-0.13700527 0.18970022 -0.39951363 -0.010066152 0.33827516 0.067391545 0.06922738 -0.06594721
0.023389816 -0.23186548 0.11352299 -0.068457246 -0.05960842 -0.40417925 0.40283796 -0.055562157
0.008690052 -0.2053388 0.14464578 0.04512834 -0.13312052 -0.38576695 -0.29259375 -0.32195166
0.024661833 -0.01920985 0.06438454 -0.2961185 -0.089447394 -0.48785755 0.037786223 -0.28277296
0.07008586 0.041808307 0.23968561 -0.09285288 0.022405148 -0.49974272 0.35882124 0.14825471
0.35725915 -0.37585363 0.34724897 -0.37186354 0.256636 0.15048875 -0.0202551 0.05336093
-0.36709088 0.058718897 -0.27988988 -0.42320645 0.22315083 -0.35686365 -0.29916987 -0.38829404
0.4589765 0.07034079 0.29054952 0.2794712 -0.33956394 0.41613367 -0.09219134 -0.16151126
0.17634769 -0.08304352 0.006596123 0.14477612 -0.31748042 0.27095047 0.13863315 0.11551672
-0.17170088 -0.18589497 0.2974308 -0.16403711 0.07547629 -0.3505956 -0.15398306 -0.03219845
0.28640315 -0.0139189325 -0.096741855 0.16650462 -0.16496134 0.019898834 0.443139 -0.0074422415
0.14152913 0.21510652 0.24119528 -0.31357712 0.2905946 0.03430479 0.21387833 -0.07141291
-0.21723562 -0.054318324 0.334875 0.27630386 -0.08958687 -0.011160729 0.26547316 0.39858058
0.3136739 -0.36566633 0.32957983 0.082322076 0.31349596 0.22334431 0.21923931 -0.142177
-0.49394363 0.16323858 0.035079107 0.26304558 -0.13493288 0.022055889 0.19093421 -0.09384739
0.009390404 -0.0688643 -0.23866616 0.1224026 -0.113336615 -0.1862093 0.16636512 0.5872534
-0.17751603 -0.0035243982 -0.15726408 -0.29331303 -0.14777975 0.11882999 0.0014792216 0.076715134
0.10275654 0.14827779 0.28399703 0.15964343 0.17294891 0.053535797 0.12702629 0.036021255
0.17884433 -0.25518885 -0.15989318 -0.38134357 0.067879975 -0.029829016 -0.040054627 0.23637347
-0.086481504 0.10970897 0.19144197 0.26369095 0.04829119 0.072682135 0.10868083 0.32044685
0.17767 0.14000678 0.4763976 0.17635763 -0.10480042 0.21815401 0.18592773 -0.07093874
0.2764701 0.22336262 0.33365804 0.1820922 0.022999689 -0.2773265 0.048314165 -0.1144764
0.23018946 -0.33047205 0.50414616 0.015716316 0.3283613 0.16461037 0.2508186 0.10621718
-0.001981636 0.24249639 0.08707706 0.07034716 0.11246751 0.3673831 -0.011924823 -0.4824812
-0.0667362 -0.3320619 -0.17771895 0.1409922 -0.12109717 0.05108314 0.30067793 0.20600344
0.079189606 0.13813668 0.15350582 -0.09047748 -0.19454381 0.15608959 0.32767197 -0.13491727
-0.13098654 -0.05777686 -0.08559429 -0.45131758 0.14938742 0.31925872 -0.04083408 0.23209725
00000000: 0488 cabd 77e1 933d 07e8 4f3c 440f ae3e
00000010: a8ef 783e 6e03 0c3e 8ac6 e0be e554 85be
00000020: 2a77 e43d 81d4 dcbe 1787 1e3e 16cb 3f3e
00000030: 68a7 8bbe 712e 083e 15ec 913d dec9 dcbe
00000040: 4232 8f3c 50d4 3ebd 16a4 423e b4d4 d1bc
00000050: 5616 91be b11d 62bd a452 2abe b2cf 973d
00000060: 66c0 9e3e 64af 603d a200 f2bd 98be d3ba
00000070: 02db c03c 0963 31be 84ba 8d3e cc4a 823e
00000080: e2e0 9fbc ebc1 98bd 3897 b13e fe6a 8e3e
00000090: ba98 acbc 6e85 e43d b5f5 c33d 89d9 cb3c
000000a0: 1c4b 0cbe c640 423e 0d8d ccbe 80ec 24bc
000000b0: 6732 ad3e 9404 8a3d 16c7 8d3d 550f 87bd
000000c0: 009c bf3c 256e 6dbe be7e e83d 5033 8cbd
000000d0: f527 74bd 95f0 cebe c740 ce3e 2595 63bd
000000e0: b860 0e3c 5644 52be 061e 143e 7fd8 383d
000000f0: bf50 08be 3f83 c5be d9ce 95be d9d6 a4be
00000100: 9d07 ca3c fa5d 9dbc 0bdc 833d d89c 97be
00000110: 3230 b7bd 77c8 f9be bac5 1a3d 9ec7 90be
00000120: 2d89 8f3d 303f 2b3d 2570 753e a729 bebd
00000130: 008b b73c 47de ffbe 6bb7 b73e 15d0 173e
00000140: acea b63e e36f c0be 9eca b13e e664 bebe
00000150: cb65 833e b919 1a3e 06ee a5bc fe90 5a3d
00000160: 56f3 bbbe 3a83 703d ba4d 8fbe 84ae d8be
00000170: a781 643e d5b6 b6be cb2c 99be 7ace c6be
00000180: f8fe ea3e d50e 903d e8c2 943e d916 8f3e
00000190: 53db adbe 790f d53e d0ce bcbd 3563 25be
000001a0: 7d94 343e b912 aabd 4a24 d83b 3140 143e
000001b0: cb8c a2be 05ba 8a3e d9f5 0d3e 0894 ec3d
000001c0: 5bd2 2fbe 405b 3ebe da48 983e 58f9 27be
000001d0: 5093 9a3d 4481 b3be bcad 1dbe 86e2 03bd
000001e0: 6fa3 923e 3c0c 64bc 9820 c6bd 3080 2a3e
000001f0: a0eb 28be e102 a33c 1de3 e23e 0cde f3bb
00000200: 03ed 103e e244 5c3e e5fb 763e 2e8d a0be
00000210: d1c8 943e 2e83 0c3d ec02 5b3e ef40 92bd
00000220: 0473 5ebe e47c 5ebd bc74 ab3e b377 8d3e
00000230: 5279 b7bd 7edb 36bc 19ec 873e c112 cc3e
00000240: de99 a03e 9e38 bbbe b0be a83e 7a98 a83d
00000250: 8b82 a03e 5fb4 643e 4580 603e d996 11be
00000260: 2ee6 fcbe 0428 273e 1caf 0f3d e9ad 863e
00000270: d82b 0abe 8dae b43c 4284 433e 0f33 c0bd
00000280: 36da 193c ba08 8dbd e764 74be 37ae fa3d
00000290: 071d e8bd a7ad 3ebe 9e5b 2a3e 3d56 163f
000002a0: c3c6 35be 97f9 66bb d609 21be 202d 96be
000002b0: 9353 17be 235d f33d 71e2 c13a d31c 9d3d
000002c0: 0572 d23d 22d6 173e 0f68 913e 9179 233e
000002d0: 8519 313e 5a48 5b3d 2e13 023e 068b 133d
000002e0: f822 373e 1da8 82be 0abb 23be 773f c3be
000002f0: a804 8b3d fb5b f4bc 5210 24bd e30b 723e
00000300: 371d b1bd 19af e03d 5d09 443e 8002 873e
00000310: fccc 453d 5fda 943d 0e94 de3d 9c11 a43e
00000320: 20ef 353e f05d 0f3e 63ea f33e 1897 343e
00000330: 9aa1 d6bd c463 5f3e d763 3e3e 5548 91bd
00000340: 7d8d 8d3e 2cb9 643e 3ad5 aa3e 6176 3a3e
00000350: d869 bc3c bdfd 8dbe 13e5 453d 9a72 eabd
00000360: c9b6 6b3e a233 a9be b90f 013f 81bf 803c
00000370: f91e a83e 9f8f 283e 4c6b 803e 6588 d93d
00000380: 56de 01bb f950 783e 7555 b23d 2c12 903d
00000390: 5e55 e63d a319 bc3e 5560 43bc c707 f7be
000003a0: fdac 88bd 0404 aabe f5fb 35be 4260 103e
000003b0: cb01 f8bd 8e3c 513d 75f2 993e 91f2 523e
000003c0: 292e a23d b473 0d3e a130 1d3e 424c b9bd
000003d0: 7e36 47be f3d5 1f3e 9fc4 a73e c127 0abe
000003e0: 5621 06be 6ea7 6cbd 0f4c afbd 1913 e7be
000003f0: 04f9 183e e175 a33e a341 27bd e7aa 6d3e

conv2.bias f4 [64]
-0.039497413 0.02390691 -0.02482155 -0.0734453 0.012184271 -0.01813607 -0.040699232 -0.018135127
-0.046574194 -0.0922248 0.09248201 -0.032278504 0.0044974857 -0.011328901 0.053594053 -0.04096613
-0.046674043 -0.017314292 -0.035030723 0.0130934585 0.051223435 -7.578394e-05 -0.034163028 -0.041883916
-0.06847366 -0.021204906 -0.019753259 -0.03278078 -0.015850859 -0.02943484 0.013414399 0.08463599
0.03356498 0.038621273 0.022176815 0.055698637 0.058260124 -0.057408445 0.0046669296 0.023994694
0.04137977 0.02173662 -0.0539522 -0.032979295 0.092630446 -0.028424604 -0.028043678 -0.07249093
0.031385045 0.061249025 0.04864939 -0.04845508 0.035663594 0.032308534 -0.02270398 -0.0058239307
-0.040675636 0.04663199 -0.06706619 0.0071970415 0.07470056 -0.06057669 0.07275111 0.011484685
00000000: 0ac8 21bd 6dd8 c33c 9056 cbbc 7d6a 96bd
00000010: 89a0 473c 1892 94bc 3db4 26bd 1e90 94bc
00000020: 95c4 3ebd 5be0 bcbd 3567 bd3d 7736 04bd
00000030: a55f 933b db9c 39bc 7085 5b3d 1acc 27bd
00000040: 482d 3fbd b4d6 8dbc 607c 0fbd f285 563c
00000050: aacf 513d 31ee 9eb8 88ee 0bbd 788e 2bbd
00000060: eb3b 8cbd e9b5 adbc 96d1 a1bc 2445 06bd
00000070: a9d9 81bc 5521 f1bc 11c8 5b3c a255 ad3d
00000080: 6f7b 093d 5731 1e3d 27ac b53c 4124 643d
00000090: 2ba2 6e3d 1e25 6bbd 0bed 983b 8590 c43c
000000a0: d57d 293d ff10 b23c fbfc 5cbd 4c15 07bd
000000b0: 08b5 bd3d b7da e8bc dbbb e5bc 2076 94bd
000000c0: 9b8d 003d 42e0 7a3d 9544 473d d578 46bd
000000d0: fd13 123d f455 043d b2fd b9bc acd6 bebb
000000e0: 7f9b 26bd 2f01 3f3d 005a 89bd 29d5 eb3b
000000f0: 9bfc 983d 431f 78bd 89fe 943d 432a 3c3c

conv2.lin.weight f4 [64, 64]
0.20700407 0.107547745 -0.01880127 0.30532178 -0.6318034 -0.28196383 -0.42164895 -0.18963145
0.32188067 0.5019662 -0.61039823 -0.44690847 0.28055665 0.21776831 0.043349396 -0.21428558
0.54330724 -0.3617511 0.28435606 -0.2657875 -0.33889267 0.20037013 0.08234228 0.08659401
0.21942662 -0.6429095 -0.40531868 -0.0446774 -0.06797709 -0.2394384 -0.38203183 -0.13202627
-0.04822209 0.42728505 -0.23806131 0.047694057 -0.39117777 -0.13881701 0.31657818 0.06733512
-0.35882786 -0.3559795 0.2649053 0.12937652 0.102436274 -0.1725756 0.15226811 -0.021227784
-0.037118338 -0.148478 0.29671356 0.553653 -0.08908694 0.3582576 -0.32674283 0.45651078
0.42326683 -0.08766308 -0.30362412 0.40649638 -0.42647627 -0.18146552 -0.22355333 -0.10592076
0.097554326 0.21726601 0.15714431 -0.42116055 0.0085029835 -0.19422172 0.3547978 -0.23772687
0.033385444 -0.3530502 0.19795194 0.17714424 0.2771194 0.031293757 0.4026506 0.27799678
-0.2603069 -0.09041082 0.23311049 -0.2999594 -0.14908634 0.4644512 0.28580564 -0.21584684
-0.23711753 0.14248042 -0.21344505 -0.18844081 -0.39360315 -0.18846785 0.3186468 -0.15665703
-0.4451718 0.028903754 0.107337296 -0.2300071 -0.23930904 -0.11555452 0.32818455 0.33078316
-0.19251573 0.42794484 0.18531433 0.5341358 0.30902922 -0.017723633 0.117243454 0.3434464
-0.042978585 -0.4583648 0.106924355 -0.038009 -0.71163553 -0.13328013 -0.020648671 0.17457296
-0.03997372 -0.33477408 -0.4817067 0.007521834 0.20101257 -0.116709776 -0.21133675 0.50910974
-0.409616 -0.3884378 -0.28376502 0.06517 0.28039265 0.28039172 0.33076108 0.44607443
0.068275616 -0.14941451 0.11897102 0.51038367 -0.2518653 -0.044852253 -0.48334 0.22488984
-0.06867912 0.2149924 -0.47202048 -0.006807083 0.030940698 -0.064007476 -0.2175396 0.45151263
0.06594723 0.44545764 0.16112138 -0.12985818 0.11216132 0.20599487 0.35131642 0.2650494
0.40548286 0.021321725 -0.37096646 0.16501199 0.42587885 0.0039077406 -0.0826871 -0.515496
0.15812583 -0.32692653 -0.32285413 -0.32138968 -0.48962957 0.16240701 -0.07332521 -0.05773121
-0.0912597 0.5387152 -0.3397958 -0.3810856 0.46832415 0.11141637 0.18417728 -0.31457183
-0.1387926 0.3670352 0.41360715 -0.3315208 0.18433547 0.259973 0.4704498 -0.025519043
-0.32284343 -0.35278067 -0.4681588 0.43146887 -0.119248204 0.3481059 -0.23644945 0.331544
-0.19686428 -0.014650393 -0.09290763 -0.009957635 0.08696156 -0.17568028 -0.14947523 0.13097078
0.10770145 0.2684542 0.36337948 0.26731685 0.084676586 -0.33155543 -0.2304006 0.575632
0.4231611 -0.051178306 -0.07559565 -0.047493827 0.5842337 0.2754056 -0.29573786 0.28377312
0.40010974 -0.433104 -0.43629554 0.0749106 0.41756168 0.5769414 -0.3189221 -0.642073
0.29725334 -0.06879583 -0.13190742 -0.4006246 -0.551727 -0.2086886 -0.52777016 -0.23338051
0.34202847 0.1746427 0.11558825 -0.038317613 0.38521343 -0.44874054 0.2558602 0.045867436
0.054186035 0.20807177 0.3849507 -0.05550597 -0.009164483 0.3564362 0.1865127 0.14300463
00000000: e0f8 533e fe41 dc3d 1f05 9abc 2353 9c3e
00000010: debd 21bf 905d 90be 5fe2 d7be bf2e 42be
00000020: 8bcd a43e db80 003f 0f43 1cbf 30d1 e4be
00000030: 1fa5 8f3e a8fe 5e3e 238f 313d ae6d 5bbe
00000040: 2f16 0b3f 7137 b9be 1e97 913e 4d15 88be
00000050: 5783 adbe d42d 4d3e 12a3 a83d 3358 b13d
00000060: 5fb1 603e b895 24bf ee85 cfbe a6ff 36bd
00000070: 9337 8bbd 572f 75be ad99 c3be e531 07be
00000080: 8784 45bd 1bc5 da3e 58c6 73be d85a 433d
00000090: 7448 c8be 0c26 0ebe 8916 a23e ffe6 893d
000000a0: 49b8 b7be f242 b6be aba1 873e 477b 043e
000000b0: 1cca d13d a8b7 30be 2cec 1b3e e4e5 adbc
000000c0: 6609 18bd 9e0a 18be d7ea 973e 34bc 0d3f
000000d0: 3773 b6bd 8a6d b73e d64a a7be c8bb e93e
000000e0: 6eb6 d83e b388 b3bd 9f74 9bbe 4b20 d03e
000000f0: 195b dabe 19d2 39be 2aeb 64be fcec d8bd
00000100: 90ca c73d fb7a 5e3e 70ea 203e 5ba2 d7be
00000110: 1950 0b3c 0fe2 46be 0fa8 b53e ac6e 73be
00000120: 2dbf 083d ffc2 b4be eab3 4a3e 4d65 353e
00000130: 98e2 8d3e e22d 003d 3828 ce3e 9855 8e3e
00000140: f246 85be 4f29 b9bd 84b4 6e3e 4794 99be
00000150: 17aa 18be 8ccc ed3e 1e55 923e f406 5dbe
00000160: f0ce 72be 63e6 113e 5791 5abe a1f6 40be
00000170: 5a86 c9be b7fd 40be ac25 a33e b36a 20be
00000180: 8fed e3be 91c7 ec3c a8d3 db3d fb86 6bbe
00000190: 6e0d 75be d9a7 ecbd ce07 a83e 695c a93e
000001a0: d822 45be 961b db3e 0ac3 3d3e 20bd 083f
000001b0: 1439 9e3e 2731 91bc 561d f03d 35d8 af3e
000001c0: 500a 30bd cbae eabe 28fb da3d 53af 1bbd
000001d0: bf2d 36bf 967a 08be 6727 a9bc 41c3 323e
000001e0: 7cbb 23bd 8267 abbe 43a2 f6be b879 f63b
000001f0: 3dd6 4d3e 8905 efbd a968 58be 0455 023f
00000200: 30b9 d1be 52e1 c6be a649 91be d977 853d
00000210: a08f 8f3e 818f 8f3e 8459 a93e de63 e43e
00000220: 16d4 8b3d 1e00 19be 14a7 f33d 81a8 023f
00000230: 7df4 80be ffb6 37bd 5778 f7be 8649 663e
00000240: a3a7 8cbd f826 5c3e abac f1be f30d dfbb
00000250: 5977 fd3c 5a16 83bd b3c2 5ebe aa2c e73e
00000260: 570f 873d 0613 e43e 01fd 243e 8bf9 04be
00000270: d6b4 e53d 52f0 523e bfdf b33e 8eb4 873e
00000280: 739b cf3e e6aa ae3c 51ef bdbe e7f8 283e
00000290: cb0c da3e 810c 803b db57 a9bd 8cf7 03bf
000002a0: bdeb 213e ea62 a7be 234d a5be 308d a4be
000002b0: bab0 fabe 064e 263e 872b 96bd 9077 6cbd
000002c0: 5ee6 babd 3de9 093f b7f9 adbe a71d c3be
000002d0: 2fc8 ef3e 442e e43d f898 3c3e 8f0f a1be
000002e0: a61f 0ebe 0aec bb3e 51c4 d33e 18bd a9be
000002f0: 70c2 3c3e 2e1b 853e ccde f03e 500d d1bc
00000300: bc4b a5be ab9f b4be 83b2 efbe 7de9 dc3e
00000310: 6738 f4bd f03a b23e ce1f 72be 23c0 a93e
00000320: ca96 49be 3408 70bc 5b46 bebd 5925 23bc
00000330: e718 b23d 88e5 33be 0910 19be 341d 063e
00000340: 9492 dc3d d472 893e e00c ba3e c1dd 883e
00000350: eb6a ad3d a2c1 a9be 23ee 6bbe 9e5c 133f
00000360: 92a8 d83e 58a0 51bd e4d1 9abd e388 42bd
00000370: 5790 153f f601 8d3e f46a 97be b64a 913e
00000380: 2fdb cc3e cfbf ddbe 2162 dfbe bb6a 993d
00000390: a5ca d53e 6eb2 133f c249 a3be e55e 24bf
000003a0: 9731 983e d4e4 8cbd bd12 07be ab1e cdbe
000003b0: fb3d 0dbf 77b2 55be f21b 07bf 4dfb 6ebe
000003c0: 5b1e af3e 89d5 323e 88b9 ec3d eef2 1cbd
000003d0: b23a c53e 52c1 e5be 1c00 833e 7edf 3b3d
000003e0: 2df2 5d3d c410 553e 4218 c53e 3a5a 63bd
000003f0: a126 16bc ce7e b63e 2ffd 3e3e ce6f 123e

fc.weight f4 [6, 64]
1.0516998 -0.22863463 -0.9589708 0.8719014 1.0095211 1.5235013 -0.16731423 1.7452118
-0.5491936 -0.04830817 -1.0573412 -0.12280001 0.4326804 -1.0790294 -0.5510695 -0.9308636
-0.35636955 0.48946732 -0.35605183 -0.22896543 -0.27589026 1.0559696 -0.6046351 -0.3302214
-0.16068758 -0.10412162 0.65193367 1.189236 -0.42221516 -0.40577897 0.7095754 0.02648738
0.20416598 0.20926395 0.19232735 1.3536962 -0.53835636 -0.82637787 0.49585715 0.8783839
-0.3210091 0.84328675 0.18141471 -0.45882776 0.7517497 -0.27818376 -0.6576412 0.063142605
0.48341048 0.14508906 0.79020256 -0.28256178 0.3704766 -0.37254217 0.17107536 -0.9776465
0.19610251 -1.2374132 0.16986766 0.5500892 -0.64550483 0.36215717 0.35770518 0.15416129
-1.1900953 -1.7260925 2.1714978 0.9986042 -0.84708434 -1.356499 -0.14621541 -0.7737592
1.1408145 1.3204966 -0.0358039 1.37366 -0.0910027 2.879066 -1.3685246 1.7762643
0.7002107 -0.72980475 1.10908 0.12152322 -0.785335 -1.5994322 2.8776684 0.7700077
0.83165044 0.3440449 -0.09338338 -0.33256957 0.24775964 0.7065415 -0.7472056 -1.0158869
-0.5865711 -0.66558397 -0.47709104 -2.2873123 -0.3315886 1.9118237 -0.660091 -1.3517586
0.31480563 -0.70765793 0.8173718 1.395392 -1.9203919 0.1890691 1.8908877 1.4473798
-0.27217507 -0.9675335 -1.4539877 0.07514151 -2.8538256 -0.8006535 -0.49686724 0.7855899
0.9314844 -0.28962302 1.5198252 -0.17200413 -1.9173125 -0.82394856 -0.7944046 -0.7444142
-2.368483 0.6958939 0.74201274 -0.01316678 -2.7939448 -2.3068047 0.5717296 -2.9771192
2.2379646 -0.320013 4.0060043 -0.008870903 -0.5761093 1.5068898 0.1302247 -1.4898572
0.09277108 -2.074802 2.102199 1.1853609 -0.646432 -1.5727783 0.6724329 1.3963088
1.0979983 -0.22502626 -2.2822595 -2.6020849 0.18815306 0.24880388 -0.19389254 0.4486786
-0.0336506 -2.2496784 0.4081994 -2.4930248 1.9772385 1.7113161 0.5980563 -1.2103254
2.9785802 -1.1127094 -1.7251763 -0.6081846 1.6188054 -2.2687283 -1.1791346 -1.3075238
0.26185426 -2.03677 0.11910746 -0.30501813 -0.45961052 -1.3893117 -0.33995 2.0704584
-1.1142935 1.6615739 0.86987317 0.25644916 0.6047085 -2.2400744 -0.2891953 -1.3637198
1.559292 2.077369 -1.8775191 -3.9412236 1.9384398 1.0224887 0.906178 2.0104845
-1.3946373 -0.008481398 -1.8210896 -0.050489713 0.16363107 -1.0273492 1.7813941 0.18895218
0.21259442 1.0854388 -1.1940951 -0.16044073 1.7673688 1.7331898 -1.0722886 -3.792731
-2.6602929 0.43418482 -0.6244978 2.0305107 0.7315063 -3.036118 1.8865949 -0.46359718
0.3365887 0.63109237 -0.6353845 2.167301 -2.6769896 -0.81738865 0.31166998 1.8787951
-0.6032957 2.593029 -0.00045017828 -1.8685422 -1.7604142 1.6041781 0.01970873 0.00044300355
-0.8265051 2.5108886 -0.93361086 0.860561 1.3301128 2.8186178 2.2085733 -0.89389575
-2.212696 0.5778375 -1.4018701 -1.1037483 1.6947349 0.9659701 0.16818392 4.1817074
00000000: 199e 863f 321f 6abe 1c7f 75bf ee34 5f3f
00000010: fd37 813f 1702 c33f 6c54 2bbe 1a63 df3f
00000020: f497 0cbf cade 45bd f556 87bf 927e fbbd
00000030: 4988 dd3e a31d 8abf e412 0dbf 144d 6ebf
00000040: 1276 b6be 769b fa3e 6d4c b6be ea75 6abe
00000050: 7d41 8dbe 032a 873f 5ec9 1abf c812 a9be
00000060: 498b 24be b73d d5bd 20e5 263f e338 983f
00000070: 962c d8be 43c2 cfbe bca6 353f 10fc d83c
00000080: e310 513e 4a49 563e 76f1 443e eb45 ad3f
00000090: b9d1 09bf 808d 53bf fde0 fd3e c4dd 603f
000000a0: 4e5b a4be a4e1 573f c7c4 393e 79eb eabe
000000b0: ab72 403f 1a6e 8ebe 2c5b 28bf e950 813d
000000c0: 9481 f73e 3a92 143e b74a 4a3f f0ab 90be
000000d0: 1caf bd3e d9bd bebe 612e 2f3e 0b47 7abf
000000e0: 19cf 483e 8e63 9ebf caf1 2d3e a5d2 0c3f
000000f0: ce3f 25bf aa6c b93e 2225 b73e 75dc 1d3e
00000100: 0b55 98bf 99f0 dcbf d2f9 0a40 86a4 7f3f
00000110: 85da 58bf c2a1 adbf 7eb9 15be 1515 46bf
00000120: 3606 923f 0806 a93f 1ca7 12bd 17d4 af3f
00000130: a05f babd 9e42 3840 d02b afbf a15c e33f
00000140: 0241 333f 7cd4 3abf 55f6 8d3f 2ae1 f83d
00000150: b70b 49bf 32ba ccbf b82b 3840 3a1f 453f
00000160: 0be7 543f a726 b03e c93f bfbd 8f46 aabe
00000170: b4b4 7d3e e7df 343f de48 3fbf 9508 82bf
00000180: 8629 16bf b663 2abf 4745 f4be 5363 12c0
00000190: fbc5 a9be a4b6 f43f b9fb 28bf 6d06 adbf
000001a0: 342e a13e 1229 35bf 473f 513f 349c b23f
000001b0: 67cf f5bf 559b 413e 9c08 f23f be43 b93f
000001c0: 885a 8bbe 47b0 77bf 451c babf cbe3 993d
000001d0: 14a5 36c0 a1f7 4cbf 6265 febe 6b1c 493f
000001e0: c375 6e3f 7849 94be a289 c23f da21 30be
000001f0: 7f6a f5bf 4bee 52bf 1a5e 4bbf ee91 3ebf
00000200: 3a95 17c0 1a26 323f 8cf4 3d3f 7ab9 57bc
00000210: fecf 32c0 b0a2 13c0 df5c 123f 1f89 3ec0
00000220: d03a 0f40 bed8 a3be 3031 8040 4457 11bc
00000230: e67b 13bf c4e1 c03f a059 053e a4b3 bebf
00000240: c4fe bd3d 8ec9 04c0 6e8a 0640 e8b9 973f
00000250: 917c 25bf cd50 c9bf 9024 2c3f 3fba b23f
00000260: 358b 8c3f 496d 66be 8a10 12c0 8f88 26c0
00000270: 32ab 403e 72c6 7e3e c48b 46be 34b9 e53e
00000280: 36d5 09bd bbfa 0fc0 83ff d03e b88d 1fc0
00000290: 2716 fd3f 680c db3f 381a 193f f1eb 9abf
000002a0: 0fa1 3e40 436d 8ebf 94d2 dcbf fcb1 1bbf
000002b0: 0435 cf3f d832 11c0 e2ed 96bf f15c a7bf
000002c0: c311 863e 715a 02c0 9dee f33d 562b 9cbe
000002d0: 1252 ebbe f7d4 b1bf ed0d aebe 6482 0440
000002e0: 2ba1 8ebf 74ae d43f 02b0 5e3f 4e4d 833e
000002f0: 2dce 1a3f 615d 0fc0 6811 94be 5f8e aebf
00000300: e196 c73f 9df3 0440 8c52 f0bf 023d 7cc0
00000310: cc1e f83f e9e0 823f 48fb 673f c7ab 0040
00000320: 7a83 b2bf 90f5 0abc 7719 e9bf 4dce 4ebd
00000330: e78e 273e 2e80 83bf b904 e43f ae7c 413e
00000340: 5ab2 593e a9ef 8a3f 1cd8 98bf 934a 24be
00000350: 2439 e23f 2ad9 dd3f c140 89bf 1bbc 72c0
00000360: 3d42 2ac0 794d de3e 16df 1fbf e3f3 0140
00000370: ff43 3b3f c24f 42c0 f17b f13f 9c5c edbe
00000380: 5b55 ac3e 458f 213f 8fa8 22bf 0fb5 0a40
00000390: cc53 2bc0 6240 51bf 3593 9f3e 5c7c f03f
000003a0: 9671 1abf 30f4 2540 e805 ecb9 642c efbf
000003b0: 4155 e1bf b555 cd3f 3474 a13c ee42 e839
000003c0: d795 53bf 66b2 2040 1f01 6fbf ba4d 5c3f
000003d0: 2341 aa3f 3c64 3440 4459 0d40 5ad6 64bf
000003e0: d09c 0dc0 29ed 133f 7b70 b3bf a047 8dbf
000003f0: 13ed d83f d149 773f 6838 2c3e 8cd0 8540

fc.bias f4 [6]
-0.05014545 -0.13134825 -0.011867869 0.01943824 0.07009224 -0.13200386
00000000: 5165 4dbd 2880 06be 7371 42bc f23c 9f3c
00000010: 858c 8f3d 052c 07be
