checkpoints/B/model_B_epoch_20.pth (torch, 698407 bytes, 7 tensors)

embedding.weight f4 [500, 300]
000000 51 80 7d 3d 49 6a 2a be 2f d7 e4 be a4 d2 24 bf
       0.06188995 -0.16642107 -0.44695422 -0.6438391
000010 87 24 d9 3f 5b 56 b4 bf 79 d8 61 be 5d 95 7f 3f
       1.6964272 -1.4088854 -0.22055234 0.99837285
000020 df 76 f5 be a6 c8 b2 3f b5 9b 71 3f f1 57 0a bf
       -0.47942254 1.3967483 0.94378215 -0.5404044
000030 20 72 b9 3f 11 c2 ba bf df 91 cb bf f5 b5 2e be
       1.4487953 -1.4590474 -1.5903891 -0.17061599
000040 c2 ab 04 40 72 48 2c 3f 1f 80 de 3f 03 7e fa bf
       2.0729833 0.6729804 1.738285 -1.9569706
000050 b0 a8 99 3f c4 c0 a7 be 31 29 1c bf 61 74 03 bf
       1.2004604 -0.32764256 -0.61000353 -0.51349455
000060 65 0a 67 bf 93 cb e0 be 5f f8 bb bf 0c 1c 4d 3f
       -0.90250236 -0.43905315 -1.4685172 0.8012092
000070 0e 16 e6 3f 03 9c 3a 3f 5d dc 1e 3f 36 83 ff be
       1.797548 0.72894305 0.62055 -0.49904794
000080 cf 90 a2 3f 8e f1 2a c0 28 3c 33 be 13 82 14 40
       1.2700442 -2.6709933 -0.17503417 2.320439
000090 09 b5 f7 3f 85 1d a6 3f 4d f6 ac bf a7 00 4d 3e
       1.9352123 1.2977759 -1.3512665 0.2001978
0000a0 a6 b4 16 3f 55 11 17 40 09 4f 5b bf eb d2 ad bf
       0.588694 2.3604329 -0.85667473 -1.3579992
0000b0 c9 04 7f 3d 5c 04 b3 3e bf 8e 71 3e f0 9d a1 3f
       0.062260423 0.34964263 0.2358961 1.2626324
0000c0 45 6f 52 3f 9d 4b 5e bf 02 c9 6e 40 fb dd 11 bf
       0.82201034 -0.86834127 3.7310185 -0.5697934
0000d0 51 ee e1 bc 04 53 e0 3f 43 da 1e bf bf fe 78 3f
       -0.027579458 1.7525334 -0.6205179 0.9726371
0000e0 19 da b2 3e fd 7b 76 bf 8f 98 ad 3d a0 ab 02 be
       0.3493202 -0.9628294 0.08476364 -0.12760782
0000f0 ed b1 6e bf f9 f1 aa 3f 79 a6 d1 3f 37 dd d1 3f
       -0.93240243 1.3355094 1.6378928 1.6395634
000100 f5 4a 73 3f b7 df 14 40 3e 52 8b bf 77 13 ca 3e
       0.9503625 2.3261545 -1.0884473 0.39467975
000110 b3 42 33 3f bb 32 c1 3b 13 8f 7a bf 41 8a 9c bd
       0.7002365 0.00589594 -0.97874564 -0.07643557
000120 f7 3e c6 3f b0 fb 02 3f 1e 26 92 3f 38 3c 6f be
       1.5487965 0.51165295 1.1417882 -0.23362815
000130 69 09 ae 3e 79 00 c8 3f 06 75 b6 3e a6 cd 33 3f
       0.33991554 1.5625144 0.35636157 0.7023567
000140 bc e4 ad 3f d2 19 02 3f a7 84 b4 3f 50 fd cf 3f
       1.3585429 0.5082065 1.4102982 1.624918
000150 75 58 82 3f d0 df ab 3d 85 42 cd 3f 0d fa aa 3f
       1.0183245 0.08392298 1.6035925 1.335756
000160 5f dc 73 bf 44 22 a6 be 8b 7a c8 3e 08 0e a0 3f
       -0.95258135 -0.32448018 0.39155993 1.2504282
000170 d0 c3 fd bf 99 1a 37 bd 48 e2 5e bd 62 ab 53 c0
       -1.9825382 -0.0447031 -0.054415017 -3.3073354
000180 e0 d4 56 3e a8 1a 55 be 5a 57 8e 3f 3b 37 e6 3f
       0.20979643 -0.2081095 1.1120408 1.7985605
000190 39 fe 86 3f 90 01 0c bf 61 73 84 3f 95 6a 2a bf
       1.0546333 -0.54689884 1.0347711 -0.6656888
0001a0 6c 39 0a c0 1d fd 09 c0 82 55 90 3f 7e 8b 08 3d
       -2.1597548 -2.1560738 1.1276095 0.033336155
0001b0 c1 be 11 3f 5c 11 0c bf a8 b3 19 bf c5 c0 37 3f
       0.5693169 -0.5471399 -0.6003976 0.7177852
0001c0 0f ab b1 3e 35 b5 18 3f 67 c5 bb 3e 94 58 d9 bd
       0.3470082 0.596515 0.36674044 -0.10612598
0001d0 f4 aa 54 3f e7 9e 1c 3e 9c 8e 44 3f fe dd 61 3e
       0.83073354 0.15294991 0.76780105 0.2205734
0001e0 dd e2 34 3f 05 c6 d6 bf 21 d3 1d be 2b cb 4b bf
       0.70658666 -1.6779181 -0.1541257 -0.79606885
0001f0 c5 49 b8 be f2 81 c1 3f 80 51 a9 3f 8d 05 7e 3e
       -0.35993782 1.5117781 1.3227997 0.24806805
000200 d0 09 b5 be 82 71 46 bf 33 46 4d 3f 3a d8 7c 3f
       -0.3535905 -0.7751695 0.8018524 0.98767436
000210 89 08 1d be c4 81 65 3e d8 7b fb 3e a5 e1 17 3f
       -0.15335287 0.22412783 0.49117923 0.5932868
000220 e5 c1 f7 3f e6 51 00 c0 5e 11 11 be e2 1e a7 3f
       1.9356047 -2.0049987 -0.14166781 1.30563
000230 9a f9 cb 3d 39 f0 88 bf ae 53 96 3f d7 99 e2 bf
       0.09959717 -1.069831 1.1744287 -1.7703198
000240 bb 61 a9 3d 70 b5 49 3c e8 c9 8c bd 80 6e a6 be
       0.08270594 0.0123113245 -0.06874448 -0.3250618
000250 da ef d7 be 7f 6a 4f 3f dc 31 5b bf 8f 3a 52 bf
       -0.4217518 0.81021875 -0.85622954 -0.82120603
000260 fe c3 1b bd 56 b1 d7 3e ad b5 9e 3f 92 90 43 bf
       -0.03802871 0.42127484 1.2399193 -0.7639247
000270 61 dd 0d 3f bc 8e 31 3f 94 21 a9 3e 6a 94 c0 be
       0.5541592 0.6935842 0.3303343 -0.3761323
000280 d3 f3 03 bf 4b 5c be bf d0 91 9d 3f c1 ad 1f bf
       -0.5154392 -1.4871916 1.2310123 -0.623745
000290 0b f4 7e bf b7 3b a4 3f 9b 35 2f be 75 7d e7 3d
       -0.9959113 1.2830724 -0.17110293 0.11303226
0002a0 e1 5a 4d bf 46 e8 24 40 49 d8 8a bf cf 86 e5 be
       -0.80216795 2.5766768 -1.0847255 -0.44829413
0002b0 59 3f 27 3f a6 9b 5f bf ba 82 54 bf 70 e6 b0 be
       0.65331036 -0.87346876 -0.8301197 -0.3455081
0002c0 24 af 84 3f c7 73 bb 3f a4 8a 60 bf 35 62 0d 3f
       1.0365949 1.4644707 -0.8771155 0.5522798
0002d0 1d 41 b7 3f f7 c0 d3 3e 46 1a 72 3b 8d 08 ba be
       1.4316746 0.41358158 0.003694193 -0.3633465
0002e0 03 71 62 bf 2d b7 41 bf 61 ff 91 3f b7 17 f3 be
       -0.8845369 -0.7567013 1.140606 -0.4747903
0002f0 78 32 7b be 64 8c aa 3b c2 13 b3 3e 6a 92 fd 3e
       -0.24530971 0.005204724 0.34976012 0.49525768
000300 96 04 d6 bf 01 54 43 3f af 11 e1 bf cd 3f 8c bf
       -1.672015 0.76300055 -1.7583522 -1.095697
000310 24 a4 c3 3e 16 37 f5 3e 89 78 d9 3e d5 a7 23 3f
       0.38211167 0.4789359 0.42474774 0.63927966
000320 e0 46 67 be ad 81 f1 bf d4 8b 51 3f 1e a7 4f bf
       -0.2258563 -1.8867699 0.81853986 -0.81114376
000330 55 43 06 bd fe e7 9f bf 5d e1 28 3e 8b 1b 95 3f
       -0.032779057 -1.2492673 0.1649222 1.164903
000340 47 2e c5 3f ec b2 00 3f 79 4e c0 be 37 81 c2 bf
       1.5404748 0.50273013 -0.3755987 -1.5195683
000350 de a6 7b 3d a2 31 5e 3f ca 99 05 bd 4f ae a8 3e
       0.061438434 0.86794484 -0.032617368 0.32945487
000360 28 3d 67 bf 26 43 92 3e 23 d1 11 3f f8 e2 da bf
       -0.9032769 0.28566855 0.5695974 -1.7100515
000370 cb 16 ba 3e 0b 2b 8e bf 4f 7f 3b 3f 90 50 9a bf
       0.36345515 -1.1106886 0.7324113 -1.2055836
000380 1f cf a0 3e 87 b8 6c 3e 98 8c db 3f df 8d 9e 3f
       0.3140802 0.23117267 1.7152281 1.2387046
000390 87 8b 27 bf f2 d8 19 bf 9b 01 cc bd a2 26 14 bf
       -0.65447277 -0.6009666 -0.09961244 -0.5787145
0003a0 97 85 b8 3e eb 3b f9 3f 5f a1 db 3e 87 55 b4 be
       0.3603942 1.947141 0.42896554 -0.35221502
0003b0 ec 43 45 bf a9 3a 8e 3f d2 63 3b 3e d9 4d 15 3f
       -0.77056766 1.1111652 0.18299797 0.5832191
0003c0 4c f0 fc be 9e 7b 4b 3f 00 c3 33 3f 18 b9 88 be
       -0.49402082 0.794855 0.7021942 -0.26703715
0003d0 57 f9 61 3f f5 53 02 40 bb 86 77 bf db 80 86 bf
       0.8827109 2.0363743 -0.9668996 -1.0508074
0003e0 0d fe 53 3f 29 19 40 be 72 aa d7 3f 79 df 21 3f
       0.82809526 -0.18759598 1.6848891 0.6323162
0003f0 f1 6d 00 be 57 ca 94 be c3 83 28 bf c6 54 28 bf
       -0.1254194 -0.29060623 -0.6582605 -0.65754354

conv1.bias f4 [64]
000000 c6 4a 73 bc 16 b2 46 3c 12 ea 19 bd 58 dd 2d bd
       -0.01484937 0.01212742 -0.037576742 -0.042447418
000010 05 82 5e bd 4d c0 dd 37 e2 90 57 bd bf 70 f6 bc
       -0.054323215 2.64348e-05 -0.052628405 -0.030083058
000020 80 dc 36 3c f2 c8 38 bd 43 89 04 bd 6e d6 13 bd
       0.01116097 -0.04511351 -0.032357465 -0.036093168
000030 dc 57 6d bd 65 be 6c bd 12 84 91 bd 5a 45 e2 bc
       -0.057945117 -0.057798762 -0.071052685 -0.02762096
000040 c8 39 91 bc 63 67 04 bd f7 20 02 bc 49 89 44 3d
       -0.017727748 -0.03232516 -0.00794243 0.047982488
000050 40 55 ac bc 3c 9d 6d bd eb 78 19 bd 4f 3a c8 bd
       -0.021036744 -0.05801128 -0.037468832 -0.097767465
000060 69 ab 73 bc af fb ad bd b5 ef 85 bd 09 13 29 bd
       -0.01487241 -0.084952705 -0.06539861 -0.04127792
000070 95 d8 7e bc 87 82 9e bd 6c 6c 64 bc 4c a0 5a bd
       -0.015554567 -0.0773974 -0.013941865 -0.053375527
000080 3b db 71 bd 11 90 c7 bc 8d 7b ff 3c c5 68 b4 bc
       -0.059046965 -0.024360688 0.031186843 -0.022022614
000090 56 26 65 bd 7e 08 80 3d ef 4e 51 bd 39 ed 1c bc
       -0.055944763 0.0625162 -0.051100668 -0.009578043
0000a0 ae ac d1 bd 82 7d 60 bd 4c 0b 4e bd bd 98 19 bd
       -0.10238014 -0.054807194 -0.050303742 -0.03749918
0000b0 95 4d 10 3d 87 10 6c bd 62 9a e3 bc 92 8e 60 bb
       0.035230238 -0.05763295 -0.027783576 -0.0034264666
0000c0 20 00 8d bb ab fc 58 bc 19 2c 20 bd 56 27 28 bd
       -0.0043029934 -0.0132438345 -0.039104555 -0.04105314
0000d0 5f 73 11 3c 8c 95 ba bd 42 ed 1a bd 9b 27 3e bd
       0.008877604 -0.09110555 -0.037823923 -0.04642449
0000e0 26 57 11 bd 4f 8b 90 3c 12 a5 c7 bc 2a 12 8a bc
       -0.0354835 0.017644553 -0.024370704 -0.016854364
0000f0 78 5f 8d bd f8 f8 90 bd b9 ee 37 bd 02 5b 3f 3c
       -0.06902975 -0.07078737 -0.044905398 0.011679413

conv1.lin.weight f4 [64, 300]
000000 9b 67 1b be 55 bd 06 3e f0 4b ab 3d 9e 41 44 3e
       -0.15176241 0.13158162 0.08364093 0.19165656
000010 c1 8e 9a 3b 9e 67 23 3d 8d de c1 bd e8 76 38 be
       0.0047167246 0.03989374 -0.09466276 -0.18014109
000020 8f 63 4a be 8a 09 d9 3d da 4f 9a be f2 a1 64 3e
       -0.19764541 0.105975226 -0.30139047 0.22327402
000030 a9 f5 7a 3c e8 c1 85 3d 3a 32 74 bd 4a 5b da 3d
       0.015317359 0.06531125 -0.059618212 0.10661943
000040 c8 7e 12 bc 47 05 37 bc 07 3e cb 3d 1f b7 2f be
       -0.00894136 -0.011170692 0.0992394 -0.17159699
000050 5a 24 d5 bd 32 20 53 be d1 b9 4a be 9f a2 d5 3c
       -0.10407324 -0.2061775 -0.19797446 0.02607852
000060 15 cb 8d 3c 90 06 38 3d 9a 30 b6 be 53 d7 ff 3c
       0.017308751 0.044928133 -0.35583955 0.031230604
000070 75 c7 8d bd 80 2b 4e bd 92 e3 29 3e 03 26 35 be
       -0.06922809 -0.050334454 0.16590717 -0.17690282
000080 fd 31 de bd 26 f3 d9 bc f7 bc 50 3d 7a 86 4c be
       -0.10849378 -0.0266052 0.05096146 -0.19973174
000090 07 05 c0 3d 03 5d 02 bd b6 35 04 3e 45 fe b0 be
       0.09375959 -0.031826984 0.12911114 -0.34568992
0000a0 c1 32 0c be fe 7b 1a 3e a1 28 58 be ae 12 83 bd
       -0.13691236 0.15086362 -0.21109249 -0.06400047
0000b0 f5 24 2c 3d f6 13 d1 3d 22 d9 87 bd 2f c2 73 3d
       0.042027432 0.10208885 -0.06633212 0.05951136
0000c0 0e cd 09 bd 7e 98 b8 3d 2f 5d b8 3d e8 ef e0 bd
       -0.03364282 0.090134606 0.09002148 -0.109832585
0000d0 30 8d 35 3e 91 b3 11 bd 5f fa 09 3e e7 0a 37 3d
       0.1772964 -0.03557164 0.13474415 0.04468813
0000e0 f8 9a 4a be 3e 35 f9 bc 09 30 5b bb 77 4d a2 3d
       -0.19785678 -0.030420896 -0.003344538 0.079249315
0000f0 be 5f 86 3d d6 ef c7 bd dc bc 3a be 2a ab 99 bd
       0.0656123 -0.09762542 -0.18236107 -0.0750335
000100 31 73 f2 3d f8 00 bf 3e 3d a6 1e be 70 b6 2b be
       0.11838377 0.37305427 -0.15493102 -0.16768813
000110 29 ac e4 bc 2c 86 09 3d 49 b5 42 be af 8d 84 be
       -0.027914124 0.033575222 -0.19014467 -0.25889346
000120 89 bd 51 3e c2 ee ae 3c c8 83 57 bd ad f2 38 3e
       0.20482458 0.021354083 -0.05261591 0.18061323
000130 f2 b3 8e 3d d5 fc 38 bd 83 cd 0a 3d 27 31 3d 3d
       0.069679156 -0.045162994 0.033887397 0.046189453
000140 db 23 6c 3d 37 77 db bd 5f 9b 98 3d 8a 29 1b be
       0.057651382 -0.10716098 0.0745151 -0.15152565
000150 a6 70 06 3d a7 4e 2a 3e fe 3c e2 bc be 2c d9 bc
       0.032822274 0.16631566 -0.027616974 -0.026510593
000160 12 00 8f 3d 06 59 9f 3d d3 43 98 be 89 73 ae bc
       0.06982435 0.07780652 -0.29739246 -0.021295326
000170 96 f1 46 be a0 8a 35 3e 8e 38 03 be df 00 58 bd
       -0.19428095 0.17728662 -0.12814543 -0.052735206
000180 31 20 9c bd c8 9d 27 be 3b bc 60 bc e7 13 8e 3b
       -0.076233275 -0.16368783 -0.013716753 0.0043358686
000190 05 05 44 be 97 35 0a 3e 7e ae 85 3e 21 11 43 be
       -0.1914254 0.13497005 0.2610969 -0.19049503
0001a0 c2 e3 0a 3e f7 1d d1 ba d2 24 14 be d5 46 aa bd
       0.13563445 -0.0015954365 -0.14467171 -0.083142914
0001b0 08 37 6a bc 4f e2 3d 3e 85 2c c2 bd d4 9c 10 bd
       -0.014295347 0.18543361 -0.09481148 -0.035305813
0001c0 09 e2 a4 3d 71 4a 1d be 96 35 04 be 4f ab 52 3c
       0.08050925 -0.15360428 -0.12911066 0.012858226
0001d0 a5 85 b6 3d b3 0a d2 bd f1 51 f8 3b 35 dd 12 be
       0.089122094 -0.10255947 0.0075781276 -0.14342196
0001e0 e7 fc 7b be ff ef 69 be 27 7d c4 3b 15 1b df bc
       -0.24608193 -0.22845457 0.0059963646 -0.027234593
0001f0 d8 45 b5 bd db 42 59 3d 75 57 25 3e d5 66 41 bc
       -0.08851212 0.053042274 0.16146643 -0.011804302
000200 cb 76 88 3d 3b 57 23 3e 7d 94 06 3e 53 e1 4e be
       0.06663283 0.15951245 0.13142581 -0.20203142
000210 d3 d4 62 3d 27 ab f7 3d f8 27 3d 3e 65 18 42 bd
       0.055378746 0.120931916 0.18472278 -0.047386546
000220 be 3e b4 be b3 69 e1 3d f6 ee a8 3d 48 7f 7a 3c
       -0.35204118 0.11006489 0.08248703 0.015289135
000230 6d e3 66 bd 77 7a b2 3d 39 11 be 3d 8b ec e6 3c
       -0.056369234 0.087147646 0.09280629 0.028188964
000240 03 8d 96 be 56 6d f2 bd ff d8 f7 3d 26 24 66 bd
       -0.29404458 -0.118372604 0.121019356 -0.056186818
000250 c5 a3 65 3e 83 42 d4 3d 6e 0e 5f 3e 92 90 be bc
       0.22425754 0.103642486 0.21782848 -0.023262296
000260 f5 fa c8 be 57 ab b9 3c ae 09 12 be 8c 63 ae bc
       -0.39253965 0.022664709 -0.14261505 -0.021287702
000270 b7 05 b6 bd e1 45 c2 3d 77 ad 03 3e ed c9 48 3d
       -0.08887809 0.094859846 0.1285914 0.049020696
000280 58 f0 10 3e 7e ab df bd 4b bf 39 be c0 a3 fd 3d
       0.14154184 -0.109213814 -0.18139379 0.123847485
000290 4f 76 7e 3e 26 be 88 3d 2e c0 f9 3e 8f 18 a8 3b
       0.24849819 0.06676893 0.48779434 0.0051298807
0002a0 60 67 f9 bd b4 a2 2a be 4b 9a a3 3d bf 0b 76 3d
       -0.1217792 -0.16663629 0.079884134 0.060069796
0002b0 dd a1 f0 bd 9f 27 9f 3d e8 a4 5b 3e 6e d7 8f 3c
       -0.11749623 0.07771229 0.21449625 0.01755878
0002c0 56 b8 0d 3b d0 b8 0d 3d bc 8e 66 3e 78 22 d0 3d
       0.0021624765 0.03460008 0.22515386 0.101628244
0002d0 e6 2f 63 bd 5a c4 a1 3d 68 70 42 bd ea ed 3a be
       -0.0554656 0.07898779 -0.04747048 -0.1825482
0002e0 d3 a1 e3 bc 5b 54 9f bb 2c 5f a8 be 5a 1a 9f be
       -0.027787125 -0.004862351 -0.3288511 -0.31074792
0002f0 10 92 51 bb 1c 6e 84 bc fa b9 27 3e c0 86 7d 3c
       -0.003197793 -0.016165785 0.16379538 0.015474021
000300 7a 4b b4 3d 39 69 69 3e 85 52 7c bd 02 d2 d9 bb
       0.088034585 0.22794046 -0.061602134 -0.0066473493
000310 1b a8 09 be b7 67 16 3e 97 f1 fa 3e f2 7a a7 3d
       -0.13443033 0.14688002 0.49012443 0.08177747
000320 54 4d 21 3d ec c3 ee 3d 10 e4 6e 3c b1 53 f5 3d
       0.039380386 0.11658463 0.0145807415 0.119788535
000330 6d e0 90 bc a3 f5 a3 bd d0 e5 90 3d 97 f5 e5 bc
       -0.01768514 -0.08005836 0.07075083 -0.028071208
000340 68 66 1d bd e3 37 21 3e e7 00 13 3e 72 8b 0f be
       -0.03842774 0.15743975 0.14355813 -0.14018038
000350 71 2e 9c 3c 12 61 04 3d 95 7f c6 bc e3 fe 7e bc
       0.019065114 0.032319136 -0.024230758 -0.015563699
000360 98 7c 4e be dd 60 36 bd c0 22 81 3e 1a 7a cd bb
       -0.20164716 -0.04452597 0.25221825 -0.006270659
000370 1d c7 34 be a7 26 32 bd 92 6f 50 3e 72 ad 46 3e
       -0.1765408 -0.043493893 0.2035506 0.19402102
000380 fe 64 b4 bd 9d 76 08 3e d0 14 49 bd 97 14 1e 3d
       -0.08808325 0.13326497 -0.049092114 0.038593855
000390 18 6a fd 3d 31 db a1 3d de 85 15 3e 3b b9 76 bd
       0.123737514 0.079031356 0.14601848 -0.060235243
0003a0 3f 23 c5 bd a3 a5 0e be a8 09 0d be ce 9a 06 3d
       -0.09625863 -0.13930373 -0.13773215 0.032862477
0003b0 14 86 8d bd 81 59 a5 3d ff a9 68 3e eb b1 1a 3e
       -0.06910339 0.08073712 0.22721098 0.15106933
0003c0 ec d8 00 be 03 64 c4 3d 4d 25 07 3e 02 f5 2e bd
       -0.12582749 0.09589388 0.13197823 -0.042714126
0003d0 77 5c 9b bd 18 a3 2d 3e d9 01 90 3e 89 5c ac bd
       -0.07585996 0.16956747 0.2812641 -0.08416087
0003e0 4e ce 9e be b0 3f 1d 3e 16 96 15 3d 27 e5 4a be
       -0.31016773 0.15356326 0.036520086 -0.19813977
0003f0 b4 fd 15 3e 67 4b db 3c d5 46 37 be 78 b0 a5 3d
       0.14647561 0.026769353 -0.17898114 0.08090299

conv2.bias f4 [64]
000000 49 bc df 3b ed 22 7b 3c 9b ee 01 3c 08 35 98 3c
       0.0068278653 0.015328151 0.007930423 0.018579975
000010 bf 63 d9 bc ac d7 26 bd bd 63 5c bd 4f 9b 35 bc
       -0.02653682 -0.040733024 -0.053806055 -0.011084392
000020 f5 43 b8 3c 02 8e 09 bd 9d b2 fe 3c 23 1c 85 bc
       0.022493342 -0.033582695 0.031091029 -0.016248768
000030 2e 46 8a bc 7e 32 c8 3a ef 30 e6 3b d7 12 34 bc
       -0.016879167 0.0015273837 0.0070248763 -0.01099082
000040 91 7a 27 bc fa 51 72 3c 41 c7 c8 bb 4a 93 c1 3c
       -0.010222093 0.014790053 -0.0061272685 0.023629803
000050 b8 8a 57 3d 70 89 02 bd 03 4e ee bc 39 fd 5d bb
       0.052622527 -0.031869352 -0.029089933 -0.0033872856
000060 8b 81 40 3c 16 79 02 3b 21 37 84 3d 73 64 95 bd
       0.011749635 0.0019908599 0.064558275 -0.0729455
000070 92 76 6a 3b 2e 7d 9e 3c 51 82 0b bc b2 2f a6 3c
       0.003577624 0.0193468 -0.008514957 0.020286415
000080 10 78 a8 bc bd ed 6c 3d 02 75 27 3c 12 bb c5 bc
       -0.020565063 0.057843912 0.010220768 -0.024137054
000090 41 5f 55 3d ff a8 7b 3c 00 2b 87 bd 1d cd d3 bc
       0.052092794 0.015360116 -0.065999985 -0.025854642
0000a0 e8 be ec bb a6 ee 6c bd 56 4c 43 3d 5d d1 25 3d
       -0.0072249062 -0.05784478 0.04768022 0.040482868
0000b0 7b 82 0e bc 69 63 15 3d 1c a2 25 bd c3 71 8b 3a
       -0.008698101 0.036471758 -0.040437803 0.0010638762
0000c0 82 35 81 bd 53 fd f2 39 da 5f 2f 3c 35 6b 3d bc
       -0.06309034 0.00046346578 0.010704005 -0.011561205
0000d0 63 59 48 3d b4 ee 93 bb 25 a6 9d bc d3 57 dc 3b
       0.04891337 -0.0045145396 -0.019244263 0.0067243367
0000e0 42 fc 63 3c d1 4d 21 3d 68 0b 34 3c ed 78 47 bc
       0.013915123 0.039380852 0.010989048 -0.012174827
0000f0 e9 49 e2 3c 64 bb a4 3c 65 e4 54 3c 71 49 e8 bc
       0.027623134 0.020108886 0.012993907 -0.028355332

conv2.lin.weight f4 [64, 64]
000000 c4 fa 5a 3c ef 96 ae bd c8 7e 7f be e1 bc ea 3d
       0.013365451 -0.08524882 -0.24950707 0.11461807
000010 55 52 bc be ac 57 fb bc b7 98 27 3e f4 70 0b bd
       -0.36781564 -0.030681454 0.1636685 -0.034043267
000020 6b df 06 bd 07 37 1f 3e 3d 03 a1 3c ff 01 2b be
       -0.03292791 0.15548335 0.019654864 -0.1669998
000030 b8 c3 00 3e 07 df b5 3d 1e dd ca 3c e5 ca 98 bd
       0.12574661 0.0888043 0.02476364 -0.07460574
000040 31 32 b2 3e 3b 2a 87 be 66 e1 43 3e 6c aa c6 bd
       0.34803918 -0.26399407 0.19128951 -0.09700474
000050 37 81 0d 3d f3 25 2d 3e 30 6f 6e 3c 08 7a 72 3e
       0.034547057 0.16909008 0.014552876 0.23679364
000060 b8 d0 81 3e 65 44 93 be fd 4c 24 be 52 44 26 be
       0.25354552 -0.28763118 -0.16044994 -0.16237
000070 d1 c3 a0 bc e3 a5 ef bd da 6b 9b 3e af ed 26 3e
       -0.019624623 -0.11701562 0.30355722 0.16301607
000080 4f 31 e8 3c 36 6d 85 3e b3 66 67 be a0 82 19 be
       0.028343825 0.26059884 -0.2259777 -0.14991236
000090 fd 03 8e be c5 37 82 be 1d 89 a4 3e cc 87 2e be
       -0.27737418 -0.25433174 0.3213586 -0.1704399
0000a0 ba d5 1f be 5f 01 34 be 67 42 cd 3e 95 35 9a be
       -0.15608874 -0.17578648 0.40089723 -0.30119005
0000b0 e4 5a 23 be 52 d5 b3 3e fa 38 45 3d 42 d6 a4 3c
       -0.15952641 0.35123688 0.04815004 0.020121697
0000c0 b3 83 88 bd 2a 0a 91 bc fb 59 51 3e 51 70 af 3e
       -0.06665745 -0.017705042 0.20444481 0.34265378
0000d0 a4 28 8c be fc b1 1c 3e 84 71 54 3d 75 ba e9 3d
       -0.27374756 0.1530227 0.05186607 0.11412517
0000e0 4b 09 c8 3e 5c c6 3b 3c 66 8a 16 be 6b 4b 8f 3e
       0.3906959 0.011460867 -0.14701232 0.27987227
0000f0 c9 06 1c be ce 9a 8e be 01 77 61 3d 85 15 4b 3d
       -0.15236963 -0.27852482 0.05504513 0.04958107
000100 2b ad 95 3c 99 1b 22 be d2 29 25 be 5f c3 59 be
       0.01827105 -0.1583084 -0.16129234 -0.21265934
000110 e2 45 26 be a9 f2 84 bc 48 3f 0d 3e ee bb 28 3d
       -0.16237596 -0.01622899 0.13793671 0.04119485
000120 fb ad 0f bc 15 04 b5 be df e9 0c 3e c5 d1 0c 3c
       -0.0087695075 -0.35354677 0.1376109 0.008594935
000130 ce b5 99 3e ec 44 04 be 23 10 a7 3e fd d9 d8 3e
       0.30021518 -0.12916917 0.326295 0.42353812
000140 93 9d 53 3b ca 2b 3d 3d 19 8d 94 3e 8d 14 0c be
       0.0032289966 0.04618434 0.290139 -0.13679715
000150 ca 49 cd 3d 78 ad b3 3e 58 dc 98 3e dc da 56 be
       0.1002384 0.35093284 0.2985561 -0.20981926
000160 97 b4 b7 bc 6d 34 f9 bd 17 c2 7c be d7 57 80 be
       -0.02242498 -0.121682025 -0.24683414 -0.25067016
000170 90 88 3e 3d ca 92 70 be c2 11 3e 3e b1 b3 b3 be
       0.046516955 -0.23493496 0.18561462 -0.3509803
000180 37 27 92 be 1d b6 8b bc 32 17 06 bc 45 1c 18 bd
       -0.28545544 -0.017054612 -0.008184241 -0.037136335
000190 4a 96 09 be e1 dd 48 3e 1d 17 2c 3e 2a 6a eb bd
       -0.13436237 0.1961589 0.16805692 -0.114948586
0001a0 30 1b 97 be 74 d3 7f 3d a6 7a 07 3e 50 7d a4 3e
       -0.2951293 0.062457517 0.1323038 0.32126856
0001b0 71 d5 de bb 1b 77 8b bd 08 92 92 bd 5f ae b1 3e
       -0.0068003465 -0.06809827 -0.071567595 0.34703347
0001c0 60 86 d5 3d 31 37 61 be 2a 10 dd bd 91 f9 09 be
       0.104260206 -0.2199371 -0.10794099 -0.13474108
0001d0 ff 90 b3 be be bb cc be 03 a5 41 3e f2 13 74 3e
       -0.3507156 -0.39986986 0.18910603 0.23835734
0001e0 1b b3 2e bd 0e f1 26 be d9 68 ab be 72 bc b7 bd
       -0.042651277 -0.16302893 -0.3347843 -0.0897149
0001f0 73 ea 2a 3c 22 89 b6 bd cf d8 de bd 1c 1f ee 3e
       0.010431874 -0.08912875 -0.10881197 0.4650811
000200 58 c3 99 bc 74 f9 3a be 6d 9d d3 3d b0 63 b0 3d
       -0.018769905 -0.18259221 0.10332761 0.08612764
000210 3b db af 3e be bf 89 3e c8 c4 fa 3e 27 96 26 3e
       0.34346947 0.269041 0.48978257 0.16268216
000220 a5 82 4c 3e a8 98 0f 3e f3 7d 79 3d 40 d6 c4 3e
       0.19971712 0.14023077 0.06091113 0.3844471
000230 06 db 05 be bd 63 8a 3e b7 24 c1 be da 31 06 3e
       -0.13071832 0.2702922 -0.37723324 0.13104954
000240 08 ce 1b be ca e2 3a bd 41 70 c7 be 0b ac 48 be
       -0.15215313 -0.04562644 -0.3895283 -0.19596879
000250 39 08 ca be e8 08 23 3c 3b 25 cb bd 5d 2d ca 3e
       -0.39459398 0.009950854 -0.099192105 0.39487734
000260 e6 e1 d9 3d 57 18 02 3f 3f 2f 7e 3e 73 24 50 be
       0.1063879 0.5081839 0.2482271 -0.20326404
000270 66 ae 9f be 06 b8 17 3e 71 28 a9 3e 60 3d 7f 3e
       -0.31187743 0.14816293 0.33038667 0.24925756
000280 83 b7 83 3e ae 06 9a 3e 59 64 cb be d8 d8 8a 3d
       0.25725946 0.3008322 -0.39724997 0.06779641
000290 1d eb f8 3e f8 4a 08 be ff 38 47 3e aa 29 87 be
       0.48616877 -0.13309848 0.19455336 -0.26398975
0002a0 84 8e 9c 3d 17 97 af 3c b5 65 a6 be 9f 8e 0b 3e
       0.0764437 0.02143435 -0.3249947 0.13628624
0002b0 ae 05 68 be 84 ef 0f be 55 98 7e 3e 68 75 11 3d
       -0.22658417 -0.14056212 0.24862798 0.035512358
0002c0 71 6d da bd 4f ad a8 3e d0 c1 8b be 3c 6e 68 be
       -0.106654055 0.32944724 -0.27296305 -0.22698301
0002d0 24 4b 74 3e ba b3 a3 3e bc 39 34 bb 2b 7c 38 be
       0.23856789 0.31973058 -0.0027500233 -0.18016116
0002e0 12 c1 91 3d 06 6e 29 3e a0 fd fa 3b ca f6 7c be
       0.07116903 0.16545877 0.007659629 -0.24703518
0002f0 38 99 a6 3e 41 d4 a4 3e 76 cd 08 3f 55 3a c6 3d
       0.32538772 0.32193187 0.5343851 0.09679095
000300 2e 15 0d 3e 87 88 cc 3c fb ad d1 be b4 37 8b 3e
       0.1377761 0.024967445 -0.4095305 0.27190936
000310 fc 65 9e be 9f 8f bc 3e dd 2b cb be dd 9c 56 3d
       -0.30937183 0.36828324 -0.39681903 0.05239569
000320 3d 45 66 bd e1 9e 95 be e2 8f 99 be 22 ac d0 bd
       -0.056218375 -0.29222777 -0.29992586 -0.10189082
000330 09 bf b2 3e 12 41 2a ba 0c 17 86 3e 22 33 74 3e
       0.34911373 -0.00064946816 0.26189458 0.2384763
000340 29 de 46 3e a3 7c 1d 3e db 5b d8 3e c3 bb 08 bd
       0.19420685 0.15379576 0.4225758 -0.03338219
000350 3f 0f 11 be 05 75 1f 3e e3 34 1c 3e 48 c4 95 3e
       -0.14165972 0.15571983 0.1525455 0.29251313
000360 09 b3 6d 3e 14 a3 cb be f1 56 06 bf 30 22 31 bd
       0.23212828 -0.39772856 -0.5247641 -0.043245494
000370 06 99 dd 3e 38 ee 21 be b6 ec a1 be a5 20 b2 3d
       0.4328081 -0.1581353 -0.3162591 0.08697633
000380 56 96 13 3d 3e 91 5f be e1 de 87 be 40 36 31 bc
       0.036032043 -0.21832749 -0.2653723 -0.010816157
000390 54 f5 8b 3d f2 9b c2 3c 07 a5 dc be 5f 8f ba be
       0.06833902 0.023756001 -0.43094656 -0.36437508
0003a0 aa 4b 27 be 94 04 f0 3d 85 43 3e 3e 3c 76 e3 bd
       -0.16337457 0.11719623 0.18580444 -0.11106536
0003b0 2b 46 79 be 98 b4 7a bd e0 00 58 be 65 a8 a8 bd
       -0.24343173 -0.061207384 -0.21094084 -0.08235244
0003c0 77 b2 f4 3e 2f 99 45 be 24 49 d9 3d 08 0f 64 3e
       0.47792408 -0.19296716 0.106096536 0.22271359
0003d0 fa 4b c0 3b 54 a1 25 be 5b 71 90 3e 45 20 82 3e
       0.005868432 -0.16174823 0.28211483 0.25415245
0003e0 cd 94 11 3e ca ed 16 be 06 97 a7 3d 03 82 2f 3e
       0.14216919 -0.14739147 0.08183102 0.1713944
0003f0 00 87 5a be 0a d2 a0 bc d2 f7 fa bd f3 ce d0 3d
       -0.21340561 -0.019631404 -0.12254299 0.101957224

fc.weight f4 [6, 64]
000000 6f d1 a8 3e 93 e2 64 3e 88 ff 66 bf 38 f2 4a 3f
       0.32972285 0.22352056 -0.9023366 0.79275846
000010 38 7a 67 3f 9b 1c 38 3f d3 6e 72 bd fb aa c5 3f
       0.90420866 0.7191865 -0.05918772 1.5442804
000020 e8 94 db be 44 e6 c5 3e 07 14 aa be 6c 3e e4 3d
       -0.42887044 0.3865224 -0.33218405 0.111447185
000030 d6 ad 84 3e c3 ab 97 bf 5f e6 5d be d9 9b 05 bf
       0.25913876 -1.1849293 -0.21669911 -0.5219093
000040 80 9b cf bd 13 4a 94 3d 2d 68 3b bf f1 7d 55 3b
       -0.10137081 0.07240691 -0.73205835 0.0032576288
000050 3e cc 0b bf 67 66 e4 3e fa ed 27 bf 34 c7 d6 be
       -0.54608524 0.44609377 -0.655975 -0.41948855
000060 bf c4 93 bf 79 78 20 bb 73 50 9a bd 7d 64 4f 3f
       -1.1544417 -0.002448587 -0.07534876 0.8101271
000070 d2 5f 54 bd 5a 53 ce be 76 a6 17 3f a7 f9 5a be
       -0.051849194 -0.40297967 0.59238374 -0.21384297
000080 67 93 0b bc 0a c1 c1 3d 2f 8c 9d 3e cf 71 96 3f
       -0.00851903 0.094606474 0.30771014 1.1753482
000090 02 38 25 bf 16 e1 5e bf 6b 90 58 3f f0 64 a6 3f
       -0.64538586 -0.87062204 0.84595364 1.2999554
0000a0 d8 2b ab 3e ea 19 0c 3f e9 2c 14 bf 0e 3d 84 bf
       0.33431888 0.5472704 -0.5788103 -1.0331132
0000b0 49 b4 46 3f 37 55 cc bc 29 33 51 bc a8 c8 6d 3f
       0.77618843 -0.024942977 -0.012768545 0.928843
0000c0 d1 d9 68 3f b3 e9 cb be 34 84 92 3e 30 a8 f5 3e
       0.9095736 -0.39826736 0.28616488 0.4797988
0000d0 f9 32 ae 3e 96 0f 99 be d3 33 40 3f ef aa cc be
       0.34023264 -0.29894704 0.7507908 -0.39974162
0000e0 b1 8b 2b bf 55 43 e1 be 48 77 65 3e 10 9f de 3d
       -0.6701003 -0.43996683 0.22408783 0.108701825
0000f0 fa c6 76 bf d0 94 13 bf 31 ea cb 3e fa 61 4b 3f
       -0.96397364 -0.57648945 0.3982711 0.79446375
000100 2b 8d 09 be 84 47 4f bf c5 55 99 3e 3f 46 38 bf
       -0.13432758 -0.809685 0.2994825 -0.7198219
000110 69 fe d4 3e c1 86 24 bc 69 d9 71 3e a1 b2 2c be
       0.4160035 -0.010041893 0.23618092 -0.16865017
000120 43 dc 1c 3e 40 56 10 3f 26 31 2b bf 04 e8 1d 3f
       0.15318398 0.5638161 -0.6687187 0.6168215
000130 45 7a 93 3d 1f 09 35 3f 42 20 5c bf e0 31 c3 3e
       0.072010554 0.7071704 -0.8598672 0.3812399
000140 37 fc 04 3f ab b8 0f 3e 14 ec d4 3d 87 b3 9b bc
       0.5194735 0.14035289 0.10396591 -0.019006504
000150 03 e9 02 bf 7d 1a fa be da ae 11 3f 2e 08 3f 3f
       -0.511368 -0.48848334 0.5690743 0.74621856
000160 20 24 1a 3f 7c 70 79 bd 48 f7 08 bf c1 0f 80 bd
       0.6021137 -0.06089829 -0.5350232 -0.06253005
000170 47 24 46 3d 6b 51 17 3e 6e d4 d8 be f8 c8 27 bf
       0.04837444 0.14777152 -0.4234957 -0.6554103
000180 fc 9f 0c be e1 3e f9 be c9 5c 7d bf d0 55 48 bf
       -0.13732904 -0.48680785 -0.98969704 -0.7825594
000190 82 fd f8 3c 81 0b 6f 3f c5 ec 3f 3e 3e 27 e9 3d
       0.03039432 0.9337693 0.18742664 0.11384438
0001a0 ff 41 b2 bd 50 da 09 3e f9 b0 03 bf 5e 0c 36 3f
       -0.08703994 0.13462186 -0.51441914 0.7111262
0001b0 1d da 8a bf f8 a0 af 3e d4 28 68 3f 9b 86 c8 3d
       -1.0847813 0.34302497 0.906873 0.09791299
0001c0 76 5d d1 bd 6d 3e 93 3d 73 ca 1a bf fa 59 eb 3d
       -0.102229044 0.07189641 -0.60465163 0.11491771
0001d0 fc 62 0c bf 48 72 5d be 8c 55 03 3e e3 3f d6 3e
       -0.5483854 -0.21625626 0.12825602 0.41845617
0001e0 2a 07 9b 3e 0a 70 bc be 1f 41 49 3e 90 02 07 3e
       0.30278903 -0.3680423 0.19653748 0.13184571
0001f0 5e 82 30 bf 94 f1 b7 bd 5a 20 49 bf 5c 90 49 3b
       -0.68948925 -0.08981624 -0.7856499 0.003075621
000200 28 89 1d bf 68 16 36 3e 88 49 05 3e 45 53 ba be
       -0.6153741 0.17781985 0.13016331 -0.36391655
000210 10 8f f3 be fe ae d9 be b7 fe c4 3d a6 1c e6 be
       -0.47570086 -0.4251632 0.096188955 -0.44943732
000220 69 b5 02 3f fa a6 82 be 71 7a df 3e 9f d4 1d 3d
       0.5105806 -0.25518018 0.43648103 0.03853285
000230 5d 5e 38 be b7 7c 73 3e 81 e4 8d 3e 52 92 6f be
       -0.18004747 0.23778044 0.27713397 -0.2339566
000240 76 06 06 be d7 70 ba be 89 9d 14 3f 6e 89 7c 3e
       -0.13088402 -0.36414215 0.5805288 0.246618
000250 4c 30 4b be e5 ae c0 be 3a 78 d0 bd 8e 04 0c 3f
       -0.19842643 -0.37633434 -0.101791814 0.5469445
000260 29 3c 2f 3e 9e 9c d6 bc 00 0e 02 bf 89 9b 01 bf
       0.17112793 -0.026197728 -0.5080261 -0.5062795
000270 1a 56 c3 3d a4 ec 25 3b 05 62 4e be 51 ec 30 3e
       0.09537907 0.002531805 -0.20154579 0.17277648
000280 fa 4c 31 3e f5 eb a1 3e ad 2d a5 3e d1 b1 97 be
       0.1731452 0.31625333 0.3226141 -0.2962785
000290 5f f0 aa bd 1d 6d 89 3e 7f e1 19 be a0 49 ef be
       -0.083466284 0.2684106 -0.15027426 -0.4673586
0002a0 af db 28 3e 32 40 ac be 67 7c 0c be 8d 4a a1 3e
       0.16490053 -0.33642727 -0.1371933 0.3150219
0002b0 94 1e 66 3e 79 ba fb bd 2d 50 a5 be 2b 8d e3 be
       0.22472602 -0.12291426 -0.32287732 -0.4444364
0002c0 b5 0b bc be d7 7a a3 be c1 44 68 3e ea 99 83 be
       -0.36727682 -0.31929657 0.22682478 -0.25703365
0002d0 87 ce 0e 3e 72 83 ae bd 44 7a 14 3d 0b 76 a2 3e
       0.13945971 -0.08521165 0.036249414 0.31730685
0002e0 82 e4 51 bd 43 a7 b9 3e 55 72 98 bc a5 06 77 3d
       -0.051243313 0.36260423 -0.018609205 0.06030907
0002f0 71 3f 46 3f b2 91 27 be d4 f4 22 be 91 38 ce be
       0.77440554 -0.16364172 -0.15913707 -0.40277532
000300 80 5b aa 3e 07 d3 c4 3e 76 cd 1a 3d 53 73 fc be
       0.33272934 0.3844225 0.0377936 -0.49306735
000310 d4 12 b2 bd 46 d6 2c 3e 87 5e 2d 3e 9e e0 2c bd
       -0.086949974 0.16878614 0.1693059 -0.0422064
000320 98 ab c0 be 39 a8 89 3d 3c 6b 89 3e 43 20 b4 3c
       -0.37630916 0.06721539 0.26839626 0.02198804
000330 a2 63 9f bd 7f 92 0e bc 6c 89 2a 3f 04 86 f6 3b
       -0.07782675 -0.00870192 0.6661594 0.0075233
000340 2a 79 6a 3d 8e 61 3f be 0f fe 9b 3e 5d a8 b0 3d
       0.057244457 -0.18689558 0.3046727 0.08625863
000350 85 be 40 3d 8e 25 5e 3e 61 30 89 bb 0f e0 15 bf
       0.047056694 0.21694013 -0.0041866754 -0.5854501
000360 62 59 42 be 13 3c 47 3e 9f d4 a1 be 46 b4 2a 3d
       -0.1897941 0.1945651 -0.3160753 0.04167583
000370 0e ac 48 3e 9e 64 d3 be 01 3d f7 3e 84 43 74 be
       0.19596884 -0.41287702 0.4828873 -0.2385388
000380 2c fc c9 3d 7e ce 21 bf ca 38 bf be fd 94 de 3e
       0.09862551 -0.6320571 -0.37348014 0.43473044
000390 7d d7 c4 be 0c ac a5 be c9 ff c1 bc 07 cc d4 3d
       -0.38445655 -0.32357824 -0.023681538 0.10390478
0003a0 56 28 de 3d 02 bc 05 3f 6d 11 40 be fb 6b 49 bf
       0.10847537 0.5224 -0.18756647 -0.7868039
0003b0 b4 be 94 3d 00 89 dc be fd 54 ca be aa 0a 14 bf
       0.07262936 -0.43073273 -0.39517966 -0.5782877
0003c0 e2 c4 2e bd 7f 74 be 3e bd ff c8 3e 76 1d ae 3d
       -0.04266823 0.37198254 0.39257613 0.08501713
0003d0 2d 71 84 bd e4 32 90 3e 00 c4 29 3f 24 df 86 be
       -0.06466899 0.28163826 0.663147 -0.26342118
0003e0 22 c4 a9 be 93 b9 54 3c 7a b9 42 be be 10 03 be
       -0.3315745 0.0129836975 -0.19016066 -0.12799355
0003f0 07 6c 1b 3f 13 d2 8c bd 91 8d a6 bd 67 8b e7 3e
       0.6071171 -0.06876006 -0.081324704 0.45223543

fc.bias f4 [6]
000000 9e c7 6b bd 67 6d b8 bc da 67 9a bd d7 89 0f 3c
       -0.057563417 -0.022513105 -0.07539339 0.008760891
000010 20 14 9d 3b f3 64 b4 bc
       0.004793659 -0.022020793
