checkpoints/B/model_B_epoch_108.pth (torch, 78709 bytes, 15 tensors)

node_embedding.weight f4 [1, 64]
0.16127591 -0.08604479 -0.3052667 -0.8866649 1.5331728 -1.476995 0.006042407 1.147185
-0.34059212 1.1441221 0.94714063 -0.65090966 1.2350616 -1.4360116 -1.5853891 -0.115436986
2.0457616 0.76026857 1.5395266 -1.9327582 1.2091953 -0.27556038 -0.79571503 -0.45959017
-0.83335054 -0.393524 -1.301789 0.83180517 1.7401897 0.6004326 0.67913306 -0.44838688
1.0554832 -2.6479464 -0.110154316 2.0232499 1.8422902 1.3974217 -1.2154199 0.18973781
0.5144624 2.181724 -0.99173796 -1.4144284 0.069672346 0.24655245 0.39119127 0.9174109
0.88991934 -0.70662594 3.6359143 -0.5356101 -0.31219742 1.750926 -0.69475895 0.91392547
0.36632162 -1.0026748 -0.013528373 -0.22128144 -0.8433159 1.1969949 1.5864397 1.7080059
00000000: 8325 253e 4038 b0bd eb4b 9cbe 79fc 62bf
00000010: 023f c43f 2c0e bdbf 62ff c53b f5d6 923f
00000020: 1762 aebe 9872 923f cf77 723f 04a2 26bf
00000030: 8016 9e3f 3acf b7bf 08ee cabf 3a6a ecbd
00000040: c2ed 0240 f6a0 423f 350f c53f 9f64 f7bf
00000050: e9c6 9a3f 4016 8dbe fbb3 4bbf 674f ebbe
00000060: 7656 55bf fa7b c9be 06a1 a6bf 2ff1 543f
00000070: 89be de3f f3b5 193f aadb 2d3f f792 e5be
00000080: 131a 873f f477 29c0 9698 e1bd ed7c 0140
00000090: 2ad0 eb3f b7de b23f e192 9bbf a14a 423e
000000a0: cfb3 033f 5ea1 0b40 8ae2 7dbf fd0b b5bf
000000b0: 60b0 8e3d 3f78 7c3e 394a c83e 71db 6a3f
000000c0: c1d1 633f 70e5 34bf d2b2 6840 be1d 09bf
000000d0: 57d8 9fbe 581e e03f b9db 31bf 05f7 693f
000000e0: 828e bb3e a657 80bf 1ca6 5dbc 9a97 62be
000000f0: 8de3 57bf 2137 993f 7510 cb3f f09f da3f

conv1.nn.0.weight f4 [64, 64]
0.15051985 -0.08341761 0.06199466 0.15798569 -0.104213715 0.14755556 -0.25768316 -0.024156785
0.12162964 -0.115577504 0.038841564 0.10292786 0.07213275 0.061893523 -0.016470144 0.074286945
-0.105478376 -0.06730481 0.09252603 0.0741286 -0.038872667 0.06972946 0.023034474 0.10286348
0.07532763 0.11078692 -0.06908993 0.00053595164 0.009907359 -0.003097839 -0.011498005 0.10217921
-0.054297384 -0.014882813 0.045694686 0.028359618 0.07421247 0.014993483 -0.05738313 -0.09474011
0.010321093 -0.11864479 -0.046151906 0.105557635 -0.12318265 -0.08086928 -0.08535313 0.095875815
0.02612512 0.09239434 0.0708112 0.07414682 0.07607395 0.0090478705 -0.06960755 -0.010047332
0.117684714 0.06616038 -0.15559255 0.0012486683 0.02101959 -0.047942054 0.059226986 -0.060168575
0.05254577 -0.116636395 -0.041168094 -0.006296575 0.09075077 -0.010656029 0.051357776 0.034921438
-0.10000223 -0.00305444 -0.012949988 0.004509121 -0.1210216 -0.12339221 -0.037960187 0.024529234
-0.0628164 0.04348384 -0.11310607 -0.044465795 -0.120812565 0.10086112 -0.089037046 -0.09444824
0.058424905 -0.05936961 0.025574014 -0.04263854 -0.048260406 -0.041359156 0.12009744 -0.02898866
0.022669554 -0.084147796 -0.06868054 -0.049577937 -0.118549064 -0.121378124 -0.12363832 0.03129427
-0.08888516 -0.002392292 0.01803486 -0.044424832 0.11481826 0.068090096 0.091231465 -0.12378654
-0.0026221722 0.11479378 -0.054479152 0.038664117 -0.101900056 -0.010376811 -0.00790824 -0.005537346
-0.12251876 -0.01897496 0.079615414 0.04299687 0.09605707 -0.037110254 0.0011783242 0.07869083
-0.013149291 0.018831104 -0.11209123 -0.031519175 0.09898889 0.11485678 0.038975805 -0.06732327
0.09914149 0.04311125 -0.104074895 -0.0084160715 -0.06541352 -0.01715234 -0.05978696 0.08811915
-0.018065885 0.02809444 -0.09758133 -0.04837112 -0.057316825 0.03732744 -0.10440755 -0.047782943
-0.12428115 -0.0045679808 0.036620885 -0.10833521 -0.026064947 -0.1029647 -0.12190658 -0.02544187
-0.05569087 -0.026904419 0.0537107 0.080593646 0.031030074 -0.06946549 0.023105115 0.018283322
0.122159064 0.034801126 -0.018021554 -0.06998697 -0.012140557 -0.0117896795 -0.10818556 -0.04589957
0.048203707 0.015133217 0.022303045 0.043294877 0.054087833 -0.023158297 0.074680775 0.005670622
-0.05407852 0.057017177 0.12345259 0.03624071 0.083960995 0.015748844 -0.053282186 0.022906959
-0.036901444 -0.032890886 -0.07895371 0.100979045 -0.0898059 0.107758045 -0.034148633 0.11558266
-0.018527523 0.12360768 -0.124752924 -4.0367246e-05 -0.118836656 -0.06081544 -0.004089713 0.08773029
-0.050909042 0.10760392 0.024171457 -0.0022105873 0.12449743 -0.07457639 -0.024458095 0.07789469
-0.089554936 -0.11934909 0.09608038 -0.10054584 0.008259982 0.11221379 0.073057115 0.041550487
0.022782832 -0.04557468 -0.01838474 -0.115260184 0.0066763014 0.067640215 0.08768724 -0.07682024
-0.052743554 -0.021055043 0.017935097 0.049105346 -0.006190777 -0.025927871 -0.12073065 -0.10948321
-0.044706106 -0.040337384 -0.033365726 0.041316733 -0.11554366 0.07486194 -0.06145321 -0.06200525
0.07290071 0.039413378 -0.060112804 -0.0038691312 -0.0147001445 -0.0073899925 -0.0507026 0.006001726
00000000: e021 1a3e dad6 aabd 1dee 7d3d 00c7 213e
00000010: 006e d5bd ce18 173e 0cef 83be 73e4 c5bc
00000020: f618 f93d e6b3 ecbd 5518 1f3d d8cb d23d
00000030: 56ba 933d 1084 7d3d 65ec 86bc c123 983d
00000040: 0c05 d8bd 1bd7 89bd 4a7e bd3d bcd0 973d
00000050: f238 1fbd 52ce 8e3d cbb2 bc3c 17aa d23d
00000060: 5f45 9a3d 41e4 e23d 057f 8dbd 1b7f 0c3a
00000070: 7a52 223c 1d05 4bbb 2162 3cbc 5543 d13d
00000080: ef66 5ebd 0bd7 73bc 5a2a 3b3d 6e52 e83c
00000090: b5fc 973d 3aa7 753c 930a 6bbd 1a07 c2bd
000000a0: cd19 293c 0afc f2bd c809 3dbd 9a2e d83d
000000b0: 2f47 fcbd cb9e a5bd 9fcd aebd 8a5a c43d
000000c0: 5904 d63c 3e39 bd3d 7605 913d 4ada 973d
000000d0: a9cc 9b3d 853d 143c 678e 8ebd 919d 24bc
000000e0: af04 f13d 187f 873d a753 1fbe 5baa a33a
000000f0: 4631 ac3c e35e 44bd ff97 723d 5373 76bd
00000100: 3c3a 573d 10df eebd e09f 28bd 8053 cebb
00000110: 8adb b93d a096 2ebc 885c 523d c809 0f3d
00000120: f8cd ccbd 002d 48bb 302c 54bc 40c1 933b
00000130: 2cda f7bd 0eb5 fcbd 247c 1bbd 88f1 c83c
00000140: e2a5 80bd 1c1c 323d 28a4 e7bd c421 36bd
00000150: 946c f7bd 4690 ce3d 0e59 b6bd 146e c1bd
00000160: f44e 6f3d 8c2d 73bd 9880 d13c c0a5 2ebd
00000170: b4ac 45bd 3868 29bd a6f5 f53d a079 edbc
00000180: 80b5 b93c ae55 acbd 62a8 8cbd 3c12 4bbd
00000190: dac9 f2bd 1895 f8bd 1636 fdbd 6c2e 003d
000001a0: 6c09 b6bd 00c8 1cbb d8bd 933c d0f6 35bd
000001b0: d625 eb3d d272 8b3d 90d7 ba3d cc83 fdbd
000001c0: c0d8 2bbb 0019 eb3d 8825 5fbd 445e 1e3d
000001d0: fab0 d0bd 8003 2abc 9091 01bc a072 b5bb
000001e0: 1eeb fabd 6071 9bbc 680d a33d 7c1d 303d
000001f0: 92b9 c43d ec00 18bd 0072 9a3a a828 a13d
00000200: 2070 57bc b043 9a3c 1690 e5bd 401a 01bd
00000210: b0ba ca3d 083a eb3d 18a5 1f3d c8e0 89bd
00000220: b20a cb3d 6c95 303d 3825 d5bd 90e3 09bc
00000230: 86f7 85bd 1083 8cbc 2ce3 74bd d077 b43d
00000240: e8fe 93bc 5026 e63c b8d8 c7bd cc20 46bd
00000250: 0cc5 6abd a8e4 183d a0d3 d5bd 0cb8 43bd
00000260: 1e87 febd 00af 95bb c8ff 153d dade ddbd
00000270: 2886 d5bc 28df d2bd 28aa f9bd 786b d0bc
00000280: 1c1c 64bd a866 dcbc c0ff 5b3d 480e a53d
00000290: c832 fe3c ec43 8ebd f046 bd3c e8c6 953c
000002a0: 882e fa3d a08b 0e3d f0a1 93bc 5455 8fbd
000002b0: 30e9 46bc 8029 41bc 6490 ddbd 3001 3cbd
000002c0: 4071 453d 50f1 773c e0b4 b63c f855 313d
000002d0: 348b 5d3d 78b6 bdbc 3cf2 983d a0d0 b93b
000002e0: 7081 5dbd d88a 693d b6d4 fc3d 2471 143d
000002f0: bef3 ab3d b803 813c 6c3e 5abd 60a7 bb3c
00000300: f825 17bd 98b8 06bd 7cb2 a1bd 1ace ce3d
00000310: 28ec b7bd 40b0 dc3d 70df 0bbd 9ab6 ec3d
00000320: 08c7 97bc 0626 fd3d 767e ffbd 0050 29b8
00000330: a260 f3bd 9c19 79bd 0003 86bb f0ab b33d
00000340: 0086 50bd 725f dc3d 3803 c63c 80df 10bb
00000350: 82f8 fe3d 82bb 98bd 585c c8bc 4087 9f3d
00000360: 9468 b7bd 4c6d f4bd cac5 c43d faea cdbd
00000370: e054 073c 58d0 e53d f89e 953d d830 2a3d
00000380: 10a3 ba3c 84ac 3abd 989b 96bc 880d ecbd
00000390: e0c4 da3b f486 8a3d 5e95 b33d ee53 9dbd
000003a0: a009 58bd a07b acbc a0ec 923c b022 493d
000003b0: 00dc cabb b066 d4bc a241 f7bd bc38 e0bd
000003c0: c01d 37bd d038 25bd 80aa 08bd bc3b 293d
000003d0: 28a2 ecbd 3851 993d 5cb6 7bbd 38f9 7dbd
000003e0: f84c 953d ec6f 213d d838 76bd 4091 7dbb
000003f0: e0d8 70bc c027 f2bb 88ad 4fbd 20aa c43b

conv1.nn.0.bias f4 [64]
-0.08129514 0.10603526 0.038220704 0.060450718 0.0892192 -0.115970224 0.06635862 0.06195976
-0.1129854 -0.12386537 0.06662398 -0.046046782 -0.023723945 0.085411824 -0.1149865 0.094286166
0.054074977 -0.13012668 -0.040952183 0.119202085 0.009501323 0.097784504 0.09448876 0.08636478
-0.12647966 0.029494563 0.059842408 -0.12586929 0.120696455 -0.057382103 -0.07116549 -0.012868454
-0.07719185 -0.009828639 -0.13300686 -0.09097357 0.05917431 0.104454584 0.019475877 0.025131552
0.09782439 0.11473879 0.015978158 -0.12173415 -0.090831324 -0.05660848 0.07401878 0.045584615
-0.03971371 0.032867715 0.05084564 -0.08271612 -2.8014183e-05 -0.02138932 0.09505812 0.058798056
-0.09952973 0.024585634 0.077606656 0.04522115 -0.0054419274 0.04924128 -0.03725524 -0.010101794
00000000: 117e a6bd 0429 d93d 508d 1c3d 2c9b 773d
00000010: 8eb8 b63d cc81 edbd 07e7 873d 84c9 7d3d
00000020: e464 e7bd 21ad fdbd 2772 883d 8d9b 3cbd
00000030: b858 c2bc 65ec ae3d 0b7e ebbd 1b19 c13d
00000040: b97d 5d3d ee3f 05be 7abd 27bd 3920 f43d
00000050: 70ab 1b3c 3e43 c83d 5383 c13d 05e0 b03d
00000060: e283 01be 959e f13c 501d 753d e1e3 00be
00000070: b42f f73d 7f09 6bbd 36bf 91bd 35d6 52bc
00000080: c316 9ebd 4d08 21bc f332 08be 5a50 babd
00000090: c360 723d 49ec d53d e08b 9f3c afe0 cd3c
000000a0: 2758 c83d 2cfc ea3d a0e4 823c c14f f9bd
000000b0: c605 babd 4bde 67bd 2897 973d efb6 3a3d
000000c0: d8aa 22bd 4ca0 063d 8543 503d 1267 a9bd
000000d0: 0000 ebb7 a838 afbc d5ad c23d 3bd6 703d
000000e0: 3ed6 cbbd d067 c93c 3df0 9e3d d039 393d
000000f0: 3252 b2bb 39b1 493d f398 18bd ff81 25bc

conv1.nn.2.weight f4 [64, 64]
0.03858477 0.009916335 0.016818061 -0.10744578 -0.075835206 -0.093465455 -0.012637277 -0.050363556
-0.020744827 0.03583011 0.06318774 0.04523641 0.06337553 -0.12762253 -0.004853953 0.06783367
0.054123726 -0.0255529 -0.041539647 0.050419383 -0.12208505 -0.03492294 -0.029974474 -0.09313731
-0.023619924 0.12821625 0.09990659 -0.14056379 -0.042611107 0.029789126 0.03400336 -0.08404306
-0.1233821 -0.0211555 -0.08336905 0.037064753 -0.1009594 0.118998975 0.10244554 -0.1093082
0.115647584 0.07343903 0.052404255 -0.06805408 0.026086077 0.03870142 0.040640876 0.016278788
0.029780075 -0.027783507 -0.102094315 -0.09499216 0.089018404 -0.0017952621 0.018704489 -0.06571135
0.03271167 -0.11931386 0.0739321 -0.08057876 -0.1292639 0.08409726 0.036216006 -0.06303467
-0.101403184 0.09280747 -0.031110197 -0.080927 0.032054223 0.029857757 0.12322371 -0.07840487
0.08607864 -0.09830189 -0.06165819 0.11043146 0.11521512 0.010601367 -0.004436559 0.07112566
0.12363081 0.045882512 0.018531647 0.10519192 0.011239544 0.030321134 0.032239 -0.06506135
0.0481801 0.10371083 -0.119968474 0.057023507 -0.04561785 -0.14317092 -0.10062009 0.0073806066
0.048472643 0.041864783 0.024824629 -0.03786384 -0.052387163 0.047198717 0.11762476 -0.0110754715
-0.022399085 0.021110132 -0.054060742 -0.036190644 0.03455332 -0.09715917 -0.043024722 -0.017416444
-0.0074075013 -0.009699807 -0.12560901 -0.09237471 -0.0060178936 -0.026345298 -0.06790638 0.099452086
-0.06756067 0.0639607 0.1024228 0.07607101 0.049752347 0.058329754 -0.08838523 0.0262017
-0.030116037 0.025523618 -0.027449429 0.0138344765 0.052674204 0.05620459 0.012051165 -0.033406615
-0.05713117 -0.018925855 -0.047415078 0.10273112 -0.065242425 0.092579365 -0.11067952 0.0072503537
-0.06267409 -0.09067024 0.038647503 -0.06391976 -0.021087438 -0.06337913 0.06910162 -0.062835544
-0.10577768 -0.092497125 -0.096741945 0.007514283 0.013386011 -0.11180083 -0.05874191 0.049397856
0.039102748 -0.07142989 -0.029325843 0.029835492 0.11423678 0.079315275 -0.030934408 0.10025823
-0.121796936 0.101938695 0.024447411 -0.030590018 -0.04801649 -0.06673365 0.1189886 0.047327057
-0.013493687 0.06821562 -0.1362208 0.1236624 0.047306642 0.11861007 -0.06215912 -0.017411351
0.03682421 0.014719805 -0.10843958 0.0876158 0.02801029 0.004551545 0.018973246 0.057546362
0.04657577 0.08214562 0.025836185 -0.105450496 0.12578526 0.019374711 0.0895343 -0.00054608285
0.0013370847 -0.048693612 0.10537589 -0.11032299 0.06631389 -0.09155492 0.09558626 -0.028862448
-0.11843102 0.047027823 -0.09300083 -0.12555401 -0.061624765 -0.005890733 0.07414146 -0.021452786
-0.109804526 0.013927875 0.089568585 0.090184435 -0.11463818 -0.097546265 0.050193507 -0.07576655
-0.12716937 -0.024464395 -0.008750572 0.10857358 -0.02216408 0.057146285 -0.03370051 0.11380919
0.11524705 0.034706637 -0.09894577 0.00792139 0.04075937 0.10409135 -0.060623195 0.09035536
-0.033170685 0.037687745 -0.1227024 -0.11036402 -0.04221548 -0.013289556 0.11940402 0.09888884
-0.07280895 0.02779907 0.108401656 0.018049166 0.046900243 0.04247232 -0.037681714 -0.05471307
00000000: 100b 1e3d 2078 223c 08c6 893c 880c dcbd
00000010: 7d4f 9bbd d16a bfbd 950c 4fbc 044a 4ebd
00000020: 0ef1 a9bc 98c2 123d 9368 813d d049 393d
00000030: 08cb 813d 7baf 02be e90d 9fbb 61ec 8a3d
00000040: d7b0 5d3d 5154 d1bc 7a25 2abd 8e84 4e3d
00000050: ba07 fabd 5b0b 0fbd 078d f5bc c6be bebd
00000060: 927e c1bc 1f4b 033e d49b cc3d f4ef 0fbe
00000070: fc88 2ebd 5308 f43c 1b47 0b3d c51e acbd
00000080: c1af fcbd 4d4e adbc 64bd aabd 36d1 173d
00000090: cdc3 cebd bcb5 f33d f8ce d13d fadc dfbd
000000a0: a4d8 ec3d 3467 963d d8a5 563d f05f 8bbd
000000b0: 78b2 d53c 6185 1e3d 0c77 263d 185b 853c
000000c0: 58f5 f33c 3d9a e3bc d316 d1bd 408b c2bd
000000d0: 484f b63d 004f ebba 283a 993c ac93 86bd
000000e0: acfc 053d d35a f4bd b669 973d 7a06 a5bd
000000f0: c15d 04be 2f3b ac3d 3c57 143d 5218 81bd
00000100: 79ac cfbd d811 be3d d0da febc 0ebd a5bd
00000110: 4a4b 033d 4198 f43c b65c fc3d bc92 a0bd
00000120: ff49 b03d 8052 c9bd 4c8d 7cbd e429 e23d
00000130: e8f5 eb3d 5bb1 2d3c 8e60 91bb 54aa 913d
00000140: 2632 fd3d 4def 3b3d aecf 973c dd6e d73d
00000150: 1026 383c 0764 f83c 0b0d 043d e33e 85bd
00000160: 7f58 453d 5866 d43d 08b2 f5bd 7b91 693d
00000170: c8d9 3abd 669b 12be e811 cebd 04d9 f13b
00000180: 408b 463d 687a 2b3d 055d cb3c 1d17 1bbd
00000190: ec93 56bd 7153 413d 40e5 f03d e575 35bc
000001a0: 497e b7bc 28ef ac3c cc6e 5dbd a43c 14bd
000001b0: c887 0d3d 63fb c6bd b13a 30bd eeac 8ebc
000001c0: a0ba f2bb f0eb 1ebc a69f 00be f42e bdbd
000001d0: c031 c5bb 18d2 d7bc 8012 8bbd 89ad cb3d
000001e0: 405d 8abd d4fd 823d 0cc3 d13d 1ecb 9b3d
000001f0: 1ec9 4b3d 2eeb 6e3d 5103 b5bd f3a4 d63c
00000200: e8b5 f6bc e816 d13c a0dd e0bc 00aa 623c
00000210: e8c0 573d c936 663d 4072 453c 60d5 08bd
00000220: 6002 6abd 650a 9bbc 5036 42bd b264 d23d
00000230: d29d 85bd 409a bd3d f2ab e2bd 6094 ed3b
00000240: 465b 80bd 52b1 b9bd d84c 1e3d 5de8 82bd
00000250: 90bf acbc ebcc 81bd 2685 8d3d ecaf 80bd
00000260: f8a1 d8bd 226f bdbd a420 c6bd 603a f63b
00000270: 0051 5b3c d5f7 e4bd 5b9b 70bd 6855 4a3d
00000280: 342a 203d d649 92bd c03c f0bc 9069 f43c
00000290: f9f4 e93d 0c70 a23d 286a fdbc 3054 cd3d
000002a0: ac70 f9bd 3cc5 d03d f045 c83c eb97 fabc
000002b0: f0ac 44bd a7ab 88bd 4cb0 f33d 04da 413d
000002c0: a014 5dbc a2b4 8b3d 777d 0bbe b642 fd3d
000002d0: 9cc4 413d d6e9 f23d 909a 7ebd 40a2 8ebc
000002e0: fcd4 163d 562b 713c 9215 debd ea6f b33d
000002f0: d675 e53c 2025 953b c86d 9b3c bcb5 6b3d
00000300: 3cc6 3e3d f63b a83d 68a6 d33c 6ef6 d7bd
00000310: dacd 003e b7b7 9e3c c25d b73d 0027 0fba
00000320: 1e41 af3a f472 47bd 51cf d73d 05f1 e1bd
00000330: 94cf 873d 2581 bbbd bbc2 c33d f170 ecbc
00000340: f68b f2bd 3fa0 403d 3877 bebd 3b91 00be
00000350: 406a 7cbd 0d07 c1bb 7ad7 973d c1bd afbc
00000360: 32e1 e0bd be31 643c bc6f b73d 9eb2 b83d
00000370: 6cc7 eabd 56c6 c7bd b597 4d3d 7e2b 9bbd
00000380: b038 02be 8e69 c8bc 8f5e 0fbc d35b de3d
00000390: 7291 b5bc 3912 6a3d 8c09 0abd cb14 e93d
000003a0: a506 ec3d 8c28 0e3d 14a4 cabd b8c8 013c
000003b0: 4cf3 263d d92d d53d 0750 78bd 3b0c b93d
000003c0: fcdd 07bd 775e 1a3d 654b fbbd 8806 e2bd
000003d0: 24ea 2cbd 70bc 59bc 188a f43d 3b86 ca3d
000003e0: dc1c 95bd e0ba e33c b001 de3d d8db 933c
000003f0: 781a 403d 75f7 2d3d 2458 1abd d01a 60bd

conv1.nn.2.bias f4 [64]
-0.026185922 0.05536931 -0.07264404 0.09278883 0.09901667 -0.070284165 -0.0048222994 -0.05095118
0.015153279 0.019994417 -0.0041896673 0.17203277 0.015078312 0.041380912 0.06584605 -0.044248972
0.05634756 0.050771765 0.01995813 -0.026199218 -0.14219685 -0.08899484 -0.116087586 0.14575805
-0.05050111 -0.15166642 0.0062961476 0.17175846 -0.052660413 -0.05361236 -0.104496285 0.010736162
-0.14947325 0.108578086 0.050654426 -0.108268954 -0.12066674 -0.053516734 0.09151509 0.1257854
-0.0753582 0.06639414 0.0017518366 0.0018723753 -0.016154021 -0.059124667 -0.112418786 0.11153226
0.03933182 -0.021558827 0.17116308 0.017050302 -0.076997235 -0.011387545 -0.12539935 -0.071549214
-0.1414827 0.14279477 -0.086790234 -0.16249973 -0.013765355 -0.039106816 -0.020762168 -0.14425227
00000000: dc83 d6bc eeca 623d 66c6 94bd 1208 be3d
00000010: 40c9 ca3d 25f1 8fbd 6104 9ebb 2fb2 50bd
00000020: 7545 783c 55cb a33c 7a49 89bb 5c29 303e
00000030: 060b 773c 087f 293d 4bda 863d 693e 35bd
00000040: b3cc 663d 0ef6 4f3d 3b7f a33c be9f d6bc
00000050: 0d9c 11be ed42 b6bd 54bf edbd 9941 153e
00000060: 40da 4ebd 714e 1bbe ea4f ce3b 73e1 2f3e
00000070: 72b2 57bd a298 5bbd 2602 d6bd bae6 2f3c
00000080: 840f 19be 305e de3d 047b 4f3d 1dbc ddbd
00000090: 2020 f7bd 5d34 5bbd 436c bb3d e3cd 003e
000000a0: 6655 9abd a7f9 873d e29d e53a 7d6a f53a
000000b0: 7055 84bc b52c 72bd d23b e6bd 076b e43d
000000c0: 671a 213d 239c b0bc 6045 2f3e 13ad 8b3c
000000d0: bab0 9dbd d392 3abc b068 00be 6588 92bd
000000e0: d7e0 10be cb38 123e 14bf b1bd 5466 26be
000000f0: 1588 61bc 782e 20bd 6c15 aabc deb6 13be

conv1.lin.weight f4 [64, 7]
0.02890243 0.26651132 0.20124926 -0.008538647 0.36995998 -0.40690866 0.27173975 -0.27912024
-0.1839325 -0.107106015 0.053888433 -0.27164695 0.43059456 -0.021432485 -0.04647695 0.38985583
0.0025878828 -0.102915205 -0.13486172 0.6829899 0.15962721 0.10364041 -0.07285341 0.19270587
-0.13533035 -0.32195222 -0.19155967 -0.2767777 0.137971 0.007743035 0.21597938 -0.3472777
0.26939198 0.14961839 -0.44169113 0.06348888 0.07843645 -0.089976415 -0.100226454 -0.28058332
-0.23443691 -0.022650631 -0.4245702 0.45174697 -1.162721 0.21690576 -0.5007339 -0.1592121
0.45785072 0.004642464 -0.096121 -0.35059547 0.068951875 0.14142963 -0.281866 0.2113728
0.4307416 0.2911888 0.3434025 0.049120776 -0.4779129 0.5031224 -0.21849263 0.22028734
0.09153625 -0.20922469 -0.19883814 -0.006677127 -0.11282515 -0.15463625 0.4218261 0.28735304
0.42423284 -0.03436197 0.40007588 -0.24017617 -0.04526912 -0.15150826 -0.33122075 -0.09421447
-0.29336005 0.10040172 0.025181387 -0.16403176 0.05532367 -0.48479304 0.13744557 -0.45060632
0.22662242 -0.49395034 -0.025228724 0.29692382 0.13642538 0.13721225 0.2883254 -0.09458515
-0.011551051 0.013587306 0.10488857 0.026344711 0.11082505 0.22295715 -0.16686364 -0.18662512
-0.015169614 -0.06678905 -0.10632608 0.21585882 0.19883634 0.045419566 -0.086328804 0.33876884
-0.17840967 0.22948563 0.30975533 -0.2480711 -0.20450313 -0.19172113 0.03475137 0.20690507
0.109595075 -0.34343648 -0.012315074 -0.18297794 0.21160048 -0.013134475 -0.07430879 -0.10448899
-0.14201668 0.24595375 0.17920491 -0.2270344 0.05678181 -0.3233006 0.00081552943 0.14872505
0.22021355 -0.140166 -0.22177324 0.3364938 -0.17429562 0.22574455 -0.029112501 -0.07819039
-0.23074444 -0.26100057 0.12039733 0.11153577 -0.3193269 0.2295205 -0.40328985 0.198759
0.34380674 -0.07502948 0.32188043 -0.043045085 -0.0009408326 0.28742808 0.35929433 -0.13869669
-0.34053063 0.5598087 -0.13529743 -0.35808158 0.19510026 0.18723774 -0.3084575 -0.1324107
0.100804456 0.60759616 0.19980004 0.15196395 0.044720516 0.098973714 0.14098509 0.013332551
-0.29040802 0.18001875 0.14084637 0.25684652 -0.17636399 0.44272706 0.07440485 -0.19936717
0.07686419 -0.13641235 -0.22728251 0.20610934 0.20933834 0.24864833 0.18360835 0.14980838
-0.14566967 -0.3705884 0.0894668 0.13127927 0.031196693 0.13038592 -0.43406406 -0.393711
-0.11588279 -0.054497212 -0.17492546 -0.442709 0.007726716 -0.4302269 0.17159736 -0.4453212
-0.023791377 0.061140195 0.30297795 0.0018465474 0.3591984 0.25116107 0.27701986 -0.36316642
0.037718296 0.17832935 -0.021307802 0.093941785 0.22104642 0.022151718 0.06462453 -0.1303422
-0.017641902 -0.11655065 -0.32904962 0.31584248 0.029462101 0.06997678 -0.0801875 -0.27768666
-0.2331842 0.35968047 0.08902775 0.3360212 -0.17391066 -0.051975224 -0.27681488 -0.07626994
0.15455535 -0.30682844 0.026458794 0.32554755 -0.21263795 -0.4028851 0.46024716 0.13325591
-0.022515936 -0.37164712 -0.046839315 0.23711242 0.027108112 -0.06898156 0.34785742 -0.3242861
00000000: cac4 ec3c 2c74 883e 4914 4e3e aee5 0bbc
00000010: 656b bd3e 5556 d0be 7921 8b3e d9e8 8ebe
00000020: cd58 3cbe 665a dbbd 1eba 5c3d 4f15 8bbe
00000030: e476 dc3e 2e93 afbc 9d5e 3ebd 2f9b c73e
00000040: 7899 293b 35c5 d2bd 3119 0abe 6dd8 2e3f
00000050: 5175 233e 6c41 d43d 2b34 95bd b054 453e
00000060: 0a94 0abe ecd6 a4be 3828 44be cfb5 8dbe
00000070: 4548 0d3e 49b9 fd3b b329 5d3e 62ce b1be
00000080: bfed 893e 9035 193e 5725 e2be 7506 823d
00000090: 4aa3 a03d 8e45 b8bd 8743 cdbd 9ea8 8fbe
000000a0: 3b10 70be d18d b9bc 4461 d9be 614b e73e
000000b0: 0bd4 94bf 8b1c 5e3e 1930 00bf 7f08 23be
000000c0: 696b ea3e d01f 983b 16db c4bd 4081 b3be
000000d0: a436 8d3d eed2 103e be50 90be 1c72 583e
000000e0: 2a8a dc3e b316 953e 74d2 af3e de32 493d
000000f0: 00b1 f4be a1cc 003f 88bc 5fbe 0193 613e
00000100: 5c77 bb3d ff3e 56be 3a9c 4bbe cdcb dabb
00000110: df10 e7bd f758 1ebe 97f9 d73e f01f 933e
00000120: 0c35 d93e 23bf 0cbd bfd6 cc3e bef0 75be
00000130: 1d6c 39bd fb24 1bbe c495 a9be 84f3 c0bd
00000140: 4a33 96be 6b9f cd3d 3249 ce3c f1f7 27be
00000150: 139b 623d cb36 f8be 88be 0c3e dfb5 e6be
00000160: b50f 683e 0fe7 fcbe 78ac cebc 6606 983e
00000170: 18b3 0b3e 5e81 0c3e 639f 933e dcb5 c1bd
00000180: 9f40 3dbc 4b9d 5e3c d2cf d63d ddd0 d73c
00000190: 3ef8 e23d e14e 643e 4dde 2abe a81a 3fbe
000001a0: f989 78bc b3c8 88bd 7dc1 d9bd 180a 5d3e
000001b0: c19b 4b3e de09 3a3d 28cd b0bd 1c73 ad3e
000001c0: 06b1 36be 48fe 6a3e 4098 9e3e 5a06 7ebe
000001d0: 4569 51be 8b52 44be 7457 0e3d ecde 533e
000001e0: 6273 e03d e8d6 afbe 2ac5 49bc 925e 3bbe
000001f0: ccad 583e fb31 57bc 352f 98bd 53fe d5bd
00000200: d26c 11be 4ddb 7b3e 7e81 373e b57b 68be
00000210: 0b94 683d a887 a5be 41c9 553a 614b 183e
00000220: a97f 613e ad87 0fbe 8618 63be ea48 ac3e
00000230: 8d7a 32be 9429 673e 577d eebc 4822 a0bd
00000240: 4548 6cbe dea1 85be e092 f63d de6c e43d
00000250: d17e a3be 6c07 6b3e 027c cebe 7b87 4b3e
00000260: 7007 b03e 0ea9 99bd 83cd a43e 0b50 30bd
00000270: 35a2 76ba c629 933e 6df5 b73e 8106 0ebe
00000280: 085a aebe 9f4f 0f3f 698b 0abe 7856 b7be
00000290: 5dc8 473e 40bb 3f3e 24ee 9dbe ac96 07be
000002a0: 9172 ce3d 6c8b 1b3f 6298 4c3e 709c 1b3e
000002b0: dc2c 373d bbb2 ca3d 655e 103e c670 5a3c
000002c0: 5cb0 94be d656 383e 083a 103e 6381 833e
000002d0: c398 34be 1fad e23e 9261 983d e826 4cbe
000002e0: f96a 9d3d aeaf 0bbe bfbc 68be 540e 533e
000002f0: ca5c 563e ab9d 7e3e d403 3c3e 5e67 193e
00000300: 6e2a 15be c3bd bdbe 5f3a b73d 136e 063e
00000310: 3590 ff3c e383 053e a53d debe 7d94 c9be
00000320: f553 edbd 7838 5fbd a91f 33be c1aa e2be
00000330: 6430 fd3b b346 dcbe 38b7 2f3e 2401 e4be
00000340: 22e6 c2bc 246e 7a3d ed1f 9b3e d907 f23a
00000350: dae8 b73e 2f98 803e 8cd5 8d3e f3f0 b9be
00000360: 807e 1a3d f89b 363e b38d aebc 8d64 c03d
00000370: fe59 623e 8577 b53c de59 843d 6d78 05be
00000380: c085 90bc 1bb2 eebd 3179 a8be 1bb6 a13e
00000390: 815a f13c fc4f 8f3d 5839 a4bd f22c 8ebe
000003a0: d7c7 6ebe 0a28 b83e 2e54 b63d f90a ac3e
000003b0: a315 32be f9e3 54bd aeba 8dbe 6a33 9cbd
000003c0: c243 1e3e 9e18 9dbe 1dc0 d83c 2bae a63e
000003d0: c3bd 59be f546 cebe 84a5 eb3e 3d74 083e
000003e0: 5773 b8bc 8848 bebe 95da 3fbd 99cd 723e
000003f0: d511 de3c 3446 8dbd 5e1a b23e d408 a6be

conv1.lin.bias f4 [64]
-0.19521368 0.3299515 -0.028497182 0.346418 -0.08855918 0.26328102 0.2575904 0.17301196
0.1708357 0.09815715 0.011304954 0.3500791 0.12970945 0.24090894 0.012706039 -0.088572964
0.32063255 0.089642696 0.2144406 -0.2186106 -0.2168347 0.22894132 -0.28856257 0.426237
0.3113208 0.06506481 -0.0449523 0.16770595 0.3084188 0.22727409 0.2583542 -0.23162198
-0.13281755 0.28516456 -0.36380038 0.29082197 -0.14374094 0.23871368 -0.21417448 -0.11379266
0.2950206 -0.11247633 -0.16258408 0.2964584 0.178332 -0.25793973 0.041883018 -0.31195638
-0.36070183 -0.36224967 -0.097497575 -0.3179624 0.13404523 0.04908726 -0.13865171 -0.28938857
-0.21889503 0.29113284 0.098395616 -0.20387411 0.27161747 -0.01740735 0.030508723 0.10739698
00000000: 18e6 47be 67ef a83e ec72 e9bc b35d b13e
00000010: 845e b5bd c5cc 863e e4e2 833e 0c2a 313e
00000020: 8eef 2e3e 9e06 c93d 6a38 393c 913d b33e
00000030: 8ed2 043e d5b0 763e fd2c 503c be65 b5bd
00000040: f329 a43e 9796 b73d 5196 5b3e 75db 5fbe
00000050: ea09 5ebe 986f 6a3e 79be 93be bc3b da3e
00000060: 7165 9f3e b340 853d e71f 38bd 1cbb 2b3e
00000070: 12e9 9d3e 8aba 683e 0047 843e 502e 6dbe
00000080: 5301 08be 1701 923e 0b44 babe 9ee6 943e
00000090: d330 13be 5c71 743e 8e50 5bbe 200c e9bd
000000a0: f10c 973e fd59 e6bd 717c 26be 65c9 973e
000000b0: aa9c 363e ad10 84be 878d 2b3d bfb8 9fbe
000000c0: e9ad b8be ca78 b9be cfac c7bd f8cb a2be
000000d0: 2743 093e b90f 493d b7fa 0dbe bd2a 94be
000000e0: 0526 60be 5d0f 953e a483 c93d 60c4 50be
000000f0: 7211 8b3e dc99 8ebc 6eed f93c f3f2 db3d

conv2.nn.0.weight f4 [64, 64]
-0.028673844 0.083595574 -0.079566635 -0.0041204216 -0.054819334 0.008404616 0.036054205 -0.13762408
-0.14707574 -0.16353895 0.075114496 -0.0042712116 -0.5739089 -0.11795359 -0.45144618 0.17911337
-0.10048879 -0.029405715 -0.07833234 0.0648214 0.016470727 -0.13905127 -0.10895876 -0.063062415
0.037092604 0.07683873 -0.045649327 -0.054937873 -0.089454465 -0.011650159 -0.1368704 -0.06829316
-0.117957056 0.08672719 -0.026088439 0.09988433 -0.09501847 0.02672108 -0.0956857 5.7019766e-05
0.06352968 0.06428825 0.08846371 0.055640597 -0.41231382 -0.122287564 0.15604052 -0.062002946
0.037984304 -0.07199759 0.18498008 0.07070553 0.11289299 0.10097752 0.019712655 0.098539054
-0.0666502 -0.097469576 -0.09682765 0.24274325 0.09007364 0.039817892 -0.069528915 -0.010021435
0.23027629 0.014478732 0.15341996 0.13016881 0.011668352 0.12262102 -0.050039835 0.16743894
0.019317988 0.13548225 -0.04754351 -0.050606474 0.26657835 -0.17391458 0.8246647 -0.037074424
0.08555333 0.37589443 0.058922056 0.096915916 -0.039044376 -0.333345 -0.07065278 0.007937658
0.012748275 -0.05673738 -0.14482646 0.05465954 -0.11439917 0.07114291 -0.10827806 -0.04103276
-0.0923149 -0.07640378 -0.023679381 -0.06307939 -0.0038871195 0.084634624 0.08093698 0.0007594717
0.038919125 0.028841954 -0.07744248 -0.029409705 -0.33811322 0.08089192 -0.07440945 0.105007544
1.3069558 0.031068597 -0.1067049 -0.024332576 0.1013514 -0.037882995 -0.10900281 -0.015701806
-0.26381853 0.086649396 -0.047519565 -0.23783223 -0.11482196 0.07004397 -0.08138302 -0.008227098
-0.031051572 0.07743849 0.00050342584 -0.1268008 -0.07496677 -0.0038906222 -0.114915654 -0.16675942
0.021750651 -0.04913311 0.03361328 -0.021454405 -0.0371582 -0.06774854 -0.076308094 0.055433866
-0.0212617 -0.097101584 -0.0117711 0.0064691347 -0.04884839 0.061366364 -0.15791239 0.056992196
-0.07915555 0.051279265 -0.0049642595 -0.03945388 0.0037279872 -0.011533066 0.029198071 -0.033159267
0.042598147 0.020911576 -0.050401356 -0.039705772 -0.0026761633 -0.051531166 -0.09010083 0.052651715
0.024825042 0.044169404 -0.004604171 -0.027107336 -0.10889211 0.015502189 -0.027126135 0.0684893
-0.039864987 -0.07118858 -0.11114006 0.020857625 0.018128743 -0.13269927 -0.08248592 -0.12229511
-0.014002001 -0.10730618 0.019707732 0.037339944 -0.05162125 -0.044440452 -0.07170038 -0.024828238
-0.27253637 0.00060431816 0.20558587 -0.13009793 -0.056910448 0.22931239 -0.071660966 -0.05961952
-0.1771042 0.11790841 -0.21801783 -0.0075235073 0.116727106 -0.47403157 -0.17746122 0.3706106
-0.01889133 -0.050702672 0.045373347 -0.5184483 -0.09901881 -0.03404644 -0.019961614 0.04848994
-0.10342108 0.02783483 0.23910171 0.12339119 -0.06540974 -0.034311697 -0.29231203 -0.3039988
-0.18646848 0.10633865 0.2192827 -0.08834837 0.013494787 0.04612347 0.062466823 0.014811298
0.1154906 -0.0637663 0.012740172 -0.11756163 0.5266639 -0.28774527 0.024987875 0.14051375
-0.15762 -0.062478587 0.16581327 0.027135065 0.009787461 -0.041905444 0.022585839 0.02035524
0.32254013 0.06275013 -0.84135145 -0.0023416132 -0.06893366 0.040188517 0.08980197 0.07979136
00000000: 69e5 eabc 2834 ab3d d5f3 a2bd 9a04 87bb
00000010: 3d8a 60bd 84b3 093c 93ad 133d 54ed 0cbe
00000020: 069b 16be c176 27be a1d5 993d 85f5 8bbb
00000030: b2eb 12bf a791 f1bd f423 e7be 7f69 373e
00000040: 11cd cdbd 41e4 f0bc b56c a0bd 15c1 843d
00000050: 9eed 863c 7563 0ebe c525 dfbd de26 81bd
00000060: 6aee 173d a05d 9d3d cafa 3abd 8906 61bd
00000070: e733 b7bd 4fe0 3ebc c127 0cbe 49dd 8bbd
00000080: 7893 f1bd 069e b13d 6cb7 d5bc 2890 cc3d
00000090: 0b99 c2bd 2be6 da3c ddf6 c3bd 8228 6f38
000000a0: d91b 823d 8fa9 833d 762c b53d 65e7 633d
000000b0: cc1a d3be e771 fabd 16c9 1f3e cdf6 7dbd
000000c0: 6e95 1b3d 7973 93bd 6b6b 3d3e 10ce 903d
000000d0: 7134 e73d 4dcd ce3d 6f7c a13c d8ce c93d
000000e0: e67f 88bd 219e c7bd 934d c6bd b091 783e
000000f0: 8778 b83d 1618 233d 2d65 8ebd f230 24bc
00000100: 8ccd 6b3e 3438 6d3c 1f1a 1d3e f94a 053e
00000110: 9e2c 3f3c bb20 fb3d 92f6 4cbd 1d75 2b3e
00000120: c240 9e3c dcbb 0a3e fcbc 42bd bc48 4fbd
00000130: f57c 883e aa16 32be 3a1d 533f 5adb 17bd
00000140: 9636 af3d 3c75 c03e 4158 713d da7b c63d
00000150: ffec 1fbd 32ac aabe 68b2 90bd f30c 023c
00000160: 24de 503c 7465 68bd 634d 14be afe2 5f3d
00000170: 1d4a eabd 60b3 913d e3c0 ddbd f811 28bd
00000180: 980f bdbd 9679 9cbd 43fb c1bc c42f 81bd
00000190: 0bbf 7ebb eb54 ad3d 4ac2 a53d 4817 473a
000001a0: a969 1f3d f645 ec3c 2a9a 9ebd 9fec f0bc
000001b0: 2d1d adbe aaaa a53d fb63 98bd 320e d73d
000001c0: 544a a73f 9283 fe3c 1988 dabd 1c55 c7bc
000001d0: 5391 cf3d 332b 1bbd de3c dfbd 13a1 80bc
000001e0: 3913 87be 3d75 b13d e0a3 42bd 4b8a 73be
000001f0: c727 ebbd 3773 8f3d 24ac a6bd f3ca 06bc
00000200: de5f febc 1298 9e3d 56f8 033a 12d8 01be
00000210: 2e88 99bd cff9 7ebb e658 ebbd fbc2 2abe
00000220: 6c2e b23c cd3f 49bd 14ae 093d 26c1 afbc
00000230: 3233 18bd bfbf 8abd 6b47 9cbd 9f0e 633d
00000240: 042d aebc 32dd c6bd 92db 40bc 09fb d33b
00000250: 4015 48bd 4c5b 7b3d c9b3 21be a670 693d
00000260: 4e1c a2bd 350a 523d 3aab a2bb 649a 21bd
00000270: 3f51 743b 2ff5 3cbc cb30 ef3c 03d2 07bd
00000280: 657b 2e3d c14e ab3c a771 4ebd 85a2 22bd
00000290: 9262 2fbb 5812 53bd c986 b8bd 53a9 573d
000002a0: e35d cb3c faea 343d 96de 96bb 3410 debc
000002b0: d402 dfbd e5fc 7d3c a137 debc 1e44 8c3d
000002c0: 7849 23bd 51cb 91bd 669d e3bd 9cdd aa3c
000002d0: bb82 943c 51e2 07be 61ee a8bd dc75 fabd
000002e0: a668 65bc 58c3 dbbd 1c72 a13c c5f1 183d
000002f0: ce70 53bd 3107 36bd a6d7 92bd 9764 cbbc
00000300: e389 8bbe 1b6b 1e3a 1a85 523e 6438 05be
00000310: ee1a 69bd ded0 6a3e fcc2 92bd 9933 74bd
00000320: ce5a 35be f779 f13d 1140 5fbe c187 f6bb
00000330: 9f0e ef3d 44b4 f2be 65b8 35be acc0 bd3e
00000340: fec1 9abc 9bad 4fbd 67d9 393d 07b9 04bf
00000350: 60ca cabd 4874 0bbd 8a86 a3bc 639d 463d
00000360: 6ece d3bd df05 e43c 14d7 743e 85b4 fc3d
00000370: 8bf5 85bd 6c8a 0cbd eca9 95be bba5 9bbe
00000380: 98f1 3ebe 14c8 d93d a58b 603e fdef b4bd
00000390: 3d19 5d3c f7eb 3c3d 36dd 7f3d 16ab 723c
000003a0: 5686 ec3d e897 82bd 28bc 503c 27c4 f0bd
000003b0: 72d3 063f 5953 93be 5fb3 cc3c d6e2 0f3e
000003c0: 2367 21be 8ce9 7fbd f4ca 293e 5b4a de3c
000003d0: 965b 203c 0ba5 2bbd f005 b93c 08c0 a63c
000003e0: fb23 a53e 2483 803d cf62 57bf c075 19bb
000003f0: 172d 8dbd b79c 243d 18ea b73d a769 a33d

conv2.nn.0.bias f4 [64]
0.12555064 0.05981422 -0.13825767 0.3322161 -0.108716056 -0.114330865 -0.12010385 -0.078100294
-0.053173322 0.01505111 -0.17775999 0.5707222 -0.06359789 0.06498839 -0.08594502 -0.05463518
0.1646559 -0.18105099 -0.20881812 0.054708973 0.13081199 -0.12391513 0.027609173 -0.20460229
0.12775627 0.07905175 0.10793934 -0.20794815 0.026534718 -0.009829757 0.085387744 -0.31609514
-0.26578107 -0.09979289 -0.18126093 0.13759802 -0.091913 0.158095 -0.059461918 0.12966672
0.003679431 -0.100817084 -0.14857185 0.18844132 0.009210274 -0.08353371 -0.14839698 0.28919485
0.44674507 0.04957338 -0.10969049 -0.032378927 -0.12343139 -0.0049673393 -0.12827165 0.09632324
-0.01809657 -0.024201592 -0.06630286 0.4007799 0.10653278 0.11940256 0.014020756 0.091823004
00000000: 5990 003e c1ff 743d 6b93 0dbe 3b18 aa3e
00000010: 86a6 debd 4d26 eabd 02f9 f5bd 0cf3 9fbd
00000020: 45cc 59bd ee98 763c b706 36be da1a 123f
00000030: 9c3f 82bd a218 853d f103 b0bd 23c9 5fbd
00000040: 8e9b 283e 6e65 39be 6bd4 55be 8416 603d
00000050: 94f3 053e 37c7 fdbd a22c e23c 4383 51be
00000060: 8ad2 023e e2e5 a13d 4d0f dd3d 5cf0 54be
00000070: 565f d93c fd0c 21bc c5df ae3d 39d7 a1be
00000080: 7514 88be 3760 ccbd 779c 39be 7fe6 0c3e
00000090: e23c bcbd a8e3 213e 578e 73bd 5ac7 043e
000000a0: 9c22 713b 3079 cebd 3823 18be c3f6 403e
000000b0: b0e6 163c b913 abbd 61f5 17be 5911 943e
000000c0: c5bb e43e 750d 4b3d 68a5 e0bd c49f 04bd
000000d0: 99c9 fcbd 10c5 a2bb a559 03be 1e45 c53d
000000e0: 423f 94bc 6b42 c6bc cbc9 87bd 0633 cd3e
000000f0: dc2d da3d 5489 f43d 50b7 653c b30d bc3d

conv2.nn.2.weight f4 [64, 64]
0.10497493 -0.08942242 -0.07368815 -0.17513482 0.021051297 0.060973477 0.13705368 0.10333123
-0.10772636 0.014458929 0.12709925 0.21136244 -0.08292006 0.09850994 0.007287762 -0.061286543
0.046714902 -0.07341184 -0.15699314 0.104516745 0.014488761 -0.004256807 -0.024740329 0.015911244
0.08165355 -0.110908635 0.007167233 0.10645019 -0.114702955 -0.069049485 -0.07883589 0.061877515
0.0071093603 0.009797644 0.021139406 -0.08477229 -0.045017175 0.055285946 -0.071833014 -0.0014447905
-0.03335266 0.11927476 0.040119987 -0.12664561 0.11665965 -0.087969616 -0.010017705 0.051951475
-0.13929847 -0.123350404 -0.051419564 0.068277955 0.014724336 0.0024017023 -0.010981918 0.041381605
0.12147559 0.05947633 0.12298275 0.07630528 -0.023359343 0.04081547 0.07682935 0.08182861
-0.11982029 -0.083528265 0.025124963 -0.31104577 0.011105248 0.053962514 0.04697114 -0.054177433
0.022289308 0.1325715 0.1439833 0.36329663 -0.0749943 0.07779675 0.010349454 -0.07472054
0.10429198 0.028800279 -0.03092999 -0.005620508 -0.084741026 -0.01907418 -0.008322197 -0.05422384
0.03415753 0.119599484 0.017162502 0.11688987 0.08464168 -0.04701232 -0.04527669 -0.018313738
-0.07510119 0.06674626 -0.12939896 -0.0918542 0.096735455 0.109027654 -0.09750577 0.12846707
0.024936816 0.09430281 0.1440486 -0.07479031 0.01633089 0.004810534 0.06857725 -0.008315966
0.07438359 0.11314635 0.15706387 0.09108234 0.045147523 0.1001333 -0.011423882 0.029114082
-0.06798006 -0.06314836 -0.040577084 0.056369003 -0.07713073 -0.07550055 0.09321231 -0.096779056
-0.029742897 -0.0021129155 0.09280508 -0.0755038 0.048894595 -0.19289659 -0.019630956 -0.035774138
-0.12400574 -0.029731339 0.012732573 0.23438254 -0.11224895 0.11312406 0.028537955 0.12704587
-0.010324858 -0.077279314 -0.07643192 0.14798163 0.059562262 -0.027282743 0.048076116 0.0129941115
-0.043328606 -0.073162325 0.06588085 -0.17273548 -0.105837874 -0.1470625 0.06881939 -0.014498904
-0.012607508 -0.034813136 -0.00040599957 -0.0024594204 0.100366235 -0.12567069 0.011599709 -0.12854704
0.10769405 -0.07636219 0.052944567 0.031560935 -0.10908772 -0.076599054 -0.07223042 0.17064703
0.06113974 -0.13578235 0.0622538 0.05594084 0.0009924864 0.06448232 -0.099291764 -0.092012696
-0.016190214 -0.05673082 0.07592618 0.0025009287 -0.07263545 0.0435189 -0.031713434 0.041129153
-0.113744676 0.16798413 0.067457594 -0.37258202 0.0110239275 -0.11138309 0.17028132 -0.016712219
0.111467876 -0.0017615913 -0.10992577 0.24362515 -0.090786435 0.029807614 0.046873387 0.00075064244
0.015810309 -0.009531813 -0.083928004 -0.044721253 -0.0123397745 -0.12298431 0.03098728 0.036953278
-0.092741065 0.0759338 0.07340917 -0.026043748 -0.105802745 0.025569044 0.10075239 0.09710023
0.026497668 0.032854542 0.034272626 -0.01040998 -0.0053899614 0.098264374 0.04729197 -0.11972753
0.057485927 0.10666784 0.09437242 -0.13071337 -0.011619313 0.12033437 0.05073643 0.19649199
-0.03549494 -0.018160965 0.12245279 -0.0106248 -0.015472667 0.0042183516 -0.115297414 0.009468338
0.100785196 -0.0030183615 -0.032085806 -0.12509474 -0.030350922 -0.11527844 0.06689196 0.051836
00000000: 19fd d63d 1a23 b7bd d0e9 96bd 8b56 33be
00000010: c573 ac3c 53bf 793d cd57 0c3e 539f d33d
00000020: a39f dcbd 25e5 6c3c 4e26 023e 656f 583e
00000030: fed1 a9bd 94bf c93d 2ece ee3b 9907 7bbd
00000040: 2058 3f3d f258 96bd cfc2 20be e00c d63d
00000050: 4562 6d3c af7c 8bbb 3bac cabc 4c58 823c
00000060: fa39 a73d 1124 e3bd 1cdb ea3b 8f02 da3d
00000070: 62e9 eabd d169 8dbd b674 a1bd 4773 7d3d
00000080: a3f5 e83b 4c86 203c 8c2c ad3c 189d adbd
00000090: ee63 38bd 8473 623d 301d 93bd 205f bdba
000000a0: cc9c 08bd 5346 f43d db54 243d 63af 01be
000000b0: 41eb ee3d 6a29 b4bd 4d21 24bc 12cb 543d
000000c0: 42a4 0ebe 239f fcbd 529d 52bd 50d5 8b3d
000000d0: 573e 713c e165 1d3b 81ed 33bc c27f 293d
000000e0: 32c8 f83d 749d 733d 61de fb3d f145 9c3d
000000f0: 185c bfbc 1f2e 273d b558 9d3d c295 a73d
00000100: 5764 f5bd de10 abbd ded2 cd3c 6441 9fbe
00000110: c9f2 353c cc07 5d3d cf64 403d 28e9 5dbd
00000120: 1198 b63c d3c0 073e 5c70 133e 0402 ba3e
00000130: 9d96 99bd e753 9f3d c290 293c 1507 99bd
00000140: 0997 d53d 90ee eb3c e460 fdbc 3d2c b8bb
00000150: b48c adbd 7441 9cbc d359 08bc d119 5ebd
00000160: c4e8 0b3d 93f0 f43d 6098 8c3c f563 ef3d
00000170: 9e58 ad3d fe8f 40bd 0d74 39bd b106 96bc
00000180: a7ce 99bd 43b2 883d 2981 04be 0e1e bcbd
00000190: 3d1d c63d e449 df3d 1bb1 c7bd df8c 033e
000001a0: 4b48 cc3c d521 c13d 7a81 133e a92b 99bd
000001b0: 5cc8 853c afa1 9d3b 3b72 8c3d b13f 08bc
000001c0: 6c56 983d 46b9 e73d 5ad5 203e 6189 ba3d
000001d0: 9cec 383d b012 cd3d 3c2b 3bbc a880 ee3c
000001e0: 2139 8bbd ed53 81bd 2834 26bd 2fe3 663d
000001f0: b7f6 9dbd 08a0 9abd 18e6 be3d 1934 c6bd
00000200: 60a7 f3bc d778 0abb 9710 be3d bca1 9abd
00000210: b345 483d af86 45be 19d1 a0bc e787 12bd
00000220: b9f6 fdbd 238f f3bc 489c 503c fa01 703e
00000230: c7e2 e5bd 96ad e73d 6ec8 e93c 5018 023e
00000240: 9829 29bc 9e44 9ebd 5788 9cbd 7f88 173e
00000250: 8ff7 733d 0f80 dfbc 76eb 443d 41e5 543c
00000260: 5679 31bd 21d6 95bd 8aec 863d 92e1 30be
00000270: 87c1 d8bd 8d97 16be 2ef1 8c3d d08c 6dbc
00000280: b98f 4ebc 3898 0ebd 57dc d4b9 3a2e 21bb
00000290: d08c cd3d d1af 00be b50c 3e3c d6a1 03be
000002a0: b38e dc3d c863 9cbd 67dc 583d 0a46 013d
000002b0: 6269 dfbd f7df 9cbd 8bed 93bd 18be 2e3e
000002c0: aa6d 7a3d 870a 0bbe d7fd 7e3d 3922 653d
000002d0: 5116 823a 4e0f 843d 7b59 cbbd 2771 bcbd
000002e0: 57a1 84bc 945e 68bd 2f7f 9b3d 9fe6 233b
000002f0: e5c1 94bd e040 323d f2e5 01bd 0b77 283d
00000300: f8f2 e8bd 0804 2c3e 3527 8a3d 12c3 bebe
00000310: b49d 343c d11c e4bd 3a5e 2e3e 10e8 88bc
00000320: 4549 e43d 32e5 e6ba c320 e1bd df78 793e
00000330: 3dee b9bd 192f f43c 4ffe 3f3d c3c6 443a
00000340: 9f84 813c 522b 1cbc 72e2 abbd a22d 37bd
00000350: c42c 4abc 33df fbbd 09d9 fd3c 525c 173d
00000360: 07ef bdbd 2e83 9b3d 8c57 963d b359 d5bc
00000370: 1caf d8bd 2c76 d13c 4557 ce3d 7cdc c63d
00000380: a311 d93c 7c92 063d 7461 0c3d 9f8e 2abc
00000390: 469e b0bb d53e c93d 3ab5 413d b533 f5bd
000003a0: 5d76 6b3d ab74 da3d 5446 c13d bad9 05be
000003b0: ee5e 3ebc de71 f63d 01d1 4f3d 3235 493e
000003c0: 2463 11bd 4ec6 94bc 87c8 fa3d a413 2ebc
000003d0: 1281 7dbc 193a 8a3b 0d21 ecbd 1721 1b3c
000003e0: 7868 ce3d b4cf 45bb 686c 03bd d618 00be
000003f0: 7fa2 f8bc 1a17 ecbd a7fe 883d fc51 543d

conv2.nn.2.bias f4 [64]
-0.18746702 -0.018740391 -0.02412696 -0.12344507 0.1509294 -0.3510938 -0.023999901 -0.25491995
0.107546546 0.23124543 -0.0036099276 0.13042761 -0.057378147 -0.058129646 -0.12270351 -0.248274
0.08898089 -0.42972454 -0.21802089 -0.021838106 0.36276826 0.013616706 0.39432284 -0.012050678
-0.07193232 -0.036262702 -0.10244486 0.12245687 0.19291337 0.10038613 -0.25649655 0.28233162
-0.12992302 0.1002043 -0.05570742 -0.2753354 0.093299985 -0.16243777 0.054762147 0.22541854
-0.09674923 0.08857132 0.24856924 -0.19034413 -0.039682966 -0.15871795 -0.1870136 0.024613246
-0.07340638 0.08349622 -0.06894671 -0.04035264 -0.11050667 0.15526466 0.39822543 0.058577806
0.33906683 -0.14737555 -0.28403378 -0.33719894 -0.23664601 -0.08553095 -0.13397253 -0.048128083
00000000: 5bf7 3fbe 7385 99bc e7a5 c5bc c5d0 fcbd
00000010: 3d8d 1a3e 91c2 b3be 719b c4bc de84 82be
00000020: 5d41 dc3d 9acb 6c3e 8994 6cbb d18e 053e
00000030: 5905 6bbd 5a19 6ebd fa4b fbbd 8a3b 7ebe
00000040: 9d3b b63d db04 dcbe de40 5fbe d4e5 b2bc
00000050: c3bc b93e 9b18 5f3c afe4 c93e 3570 45bc
00000060: 4151 93bd 3388 14bd 9cce d1bd abca fa3d
00000070: 158b 453e 3e97 cd3d 8453 83be c58d 903e
00000080: 8a0a 05be e937 cd3d 772d 64bd c3f8 8cbe
00000090: 1014 bf3d 1656 26be 464e 603d 1ed4 663e
000000a0: 7624 c6bd e164 b53d ef88 7e3e 92e9 42be
000000b0: 9b8a 22bd f586 22be 7e80 3fbe b8a1 c93c
000000c0: 1656 96bd 1100 ab3d ef33 8dbd cf48 25bd
000000d0: 5251 e2bd b3fd 1e3e 34e4 cb3e 48ef 6f3d
000000e0: 2b9a ad3e 9ee9 16be e06c 91be 57a5 acbe
000000f0: 5553 72be da2a afbd 1830 09be f421 45bd

conv2.lin.weight f4 [64, 7]
-0.07455221 0.60101265 -0.6370473 -0.45607433 0.69580996 0.2159927 -0.31590304 0.06358695
-0.27198347 -0.22781979 -0.20988402 -0.20983201 -0.21720158 0.1214579 0.19126631 0.47643813
-1.2774106 0.0060049766 0.16971757 0.1069342 -0.075471595 0.01658234 -0.10196011 -0.49722213
-0.3037955 -0.29760334 -0.023597505 0.32111153 -0.47255638 -0.0066883103 0.121858664 0.27605343
0.34806493 0.33776987 0.22195186 0.682629 0.012355625 0.030419061 0.32043818 -0.33076155
-0.15554294 -0.13169304 0.34580022 -0.88362455 0.35586858 0.25687954 0.1446833 -0.027850691
0.39429766 0.34424412 -0.28440946 0.074858226 0.39467314 -0.2858949 0.0299716 -0.040265746
-0.062123742 -0.6253809 0.13947687 0.28750405 -0.34296894 0.003006331 0.20089819 -0.3347727
0.29556832 -0.8822743 0.40341213 0.18997197 0.1445008 -0.26408243 0.25987428 -0.66258705
-0.12015557 0.0077893212 -0.20362583 0.15522121 0.14633633 -0.18418653 0.13578023 0.107696265
-0.32121563 -0.13501945 0.13081795 0.065616384 0.79445326 -0.81100667 -0.61194944 0.22381134
-0.5490243 0.38666674 -0.21231984 -0.26625592 0.16273855 0.35684857 0.4234544 -0.08930475
0.63140607 -0.10353382 -0.5575909 0.88656324 -0.5257156 0.4109852 -0.089679345 -0.0059649944
0.34749207 -0.43094683 0.43234226 -0.76816404 -0.48948464 -0.39481372 0.39609662 -0.6242507
-0.22870436 -0.40693924 -0.3902807 -0.11262952 0.007118409 -0.03205892 -0.21495076 0.5046901
-0.26340744 -1.0471108 0.20397262 -0.037886888 -0.5136702 0.41631353 0.02131544 -0.27317557
-0.28218618 -0.19739099 0.28762922 -0.07843467 0.2149214 0.30772156 0.19465023 0.094099924
-0.5402446 0.14706573 0.3626444 0.2546435 0.39130002 -0.5792752 0.11591721 0.2054797
0.51140285 0.05494276 0.42993274 -0.20166491 0.3647934 0.76609755 0.037898313 -0.062185064
-0.15079053 -0.31480208 -0.019833578 0.14655511 -0.08293686 -0.10652052 -0.033827513 0.15135601
0.04512292 0.1825438 0.5383641 -0.27943304 0.24465364 -0.39049155 -0.36464733 0.1075422
-0.30470735 -0.32694852 -0.38162914 -0.41474932 -0.23458739 -0.16426598 0.21736823 -0.25872996
0.49608448 -0.20882504 -0.20721631 0.078760855 -0.2497295 -0.0931334 0.71848017 -0.22661535
0.34169233 0.13248825 -0.46059036 -0.41214925 -0.5315421 -0.4311565 0.00754927 -0.09166637
0.01976915 -0.16101815 0.200383 -0.26863056 0.0118776895 -0.06141933 -0.20133612 -0.32137197
-0.1823616 -0.3642368 0.21284017 0.13635136 0.18110292 -0.18269624 0.05584452 -0.21225551
0.16054378 0.25560552 -0.2719914 -0.5404856 0.46410936 0.25099736 0.00093529414 -0.42960832
0.24146493 0.2083442 -0.23915295 0.2744404 -0.10561216 0.27893043 0.23858023 0.16491249
0.13094777 -0.62267053 0.1215226 0.36899644 0.26170138 0.33102214 0.12989865 0.13862503
0.71205485 0.54479456 -0.05381717 -0.095065705 -0.3187756 -0.15821843 -0.562913 -0.65148616
-0.07542325 -0.2238969 -0.21912827 0.365066 -0.01871409 -0.18456654 -0.8749757 0.16813415
-0.2062802 -0.18195306 0.25658667 -0.11806421 0.0659089 -0.2001999 0.071308926 0.17389832
00000000: d4ae 98bd f7db 193f 8815 23bf 9382 e9be
00000010: 9a20 323f 312d 5d3e 0bbe a1be e039 823d
00000020: 6b41 8bbe 9749 69be d6eb 56be 34de 56be
00000030: 176a 5ebe ebbe f83d 51db 433e b3ef f33e
00000040: 3182 a3bf 65c5 c43b 71ca 2d3e 5100 db3d
00000050: da90 9abd b0d7 873c 76d0 d0bd e693 febe
00000060: 158b 9bbe 775f 98be 8e4f c1bc bb68 a43e
00000070: e9f2 f1be 9d29 dbbb 0991 f93d e056 8d3e
00000080: 9135 b23e 2cf0 ac3e 5947 633e c6c0 2e3f
00000090: 3f6f 4a3c 6531 f93c 7910 a43e 9459 a9be
000000a0: a646 1fbe 8ada 06be ba0c b13e 3835 62bf
000000b0: 6834 b63e b785 833e dc27 143e 2227 e4bc
000000c0: 62e1 c93e c440 b03e 1e9e 91be 454f 993d
000000d0: 9912 ca3e d160 92be 0087 f53c b2ed 24bd
000000e0: 7775 7ebd f618 20bf 06d3 0e3e bb33 933e
000000f0: a099 afbe dd05 453b 41b8 4d3e 5467 abbe
00000100: bb54 973e bbdc 61bf 098c ce3e 0388 423e
00000110: 05f8 133e d035 87be 3e0e 853e 4e9f 29bf
00000120: 2014 f6bd 903d ff3b 4a83 50be 4ff2 1e3e
00000130: 31d9 153e 659b 3cbe f909 0b3e dc8f dc3d
00000140: 6076 a4be 8a42 0abe 24f5 053e e261 863d
00000150: 4a61 4b3f 229e 4fbf b8a8 1cbf cd2e 653e
00000160: db8c 0cbf 2ff9 c53e 5f6a 59be b252 88be
00000170: efa4 263e dbb4 b63e 04cf d83e 69e5 b6bd
00000180: d4a3 213f 8a09 d4bd 47be 0ebf cff5 623f
00000190: 4c95 06bf a76c d23e cea9 b7bd 0076 c3bb
000001a0: 7bea b13e 10a5 dcbe f75b dd3e 66a6 44bf
000001b0: bb9d fabe 0625 cabe 2dcd ca3e e5ce 1fbf
000001c0: 7a31 6abe 575a d0be dfd2 c7be 4eaa e6bd
000001d0: 8b41 e93b 3750 03bd 0d1c 5cbe 5f33 013f
000001e0: 57dd 86be ba07 86bf 33de 503e 482f 1bbd
000001f0: e47f 03bf 0c27 d53e b89d ae3c abdd 8bbe
00000200: b57a 90be dd20 4abe 2344 933e 5ba2 a0bd
00000210: 5b14 5c3e ae8d 9d3e 6452 473e 76b7 c03d
00000220: 784d 0abf 6698 163e 87ac b93e a260 823e
00000230: 7a58 c83e 614b 14bf 0166 ed3d 4569 523e
00000240: 4ceb 023f a90b 613d 2520 dc3e 3f81 4ebe
00000250: 33c6 ba3e f81e 443f 433b 1b3d c4b5 7ebd
00000260: d568 1abe bd2d a1be 077a a2bc 8b12 163e
00000270: cdda a9bd 6e27 dabd b88e 0abd 12fd 1a3e
00000280: d0d2 383d c3ec 3a3e 3bd2 093f d911 8fbe
00000290: 7c86 7a3e 82ee c7be 0eb3 babe 163f dc3d
000002a0: 9a02 9cbe cc65 a7be e564 c3be 065a d4be
000002b0: ad37 70be 5735 28be c795 5e3e 4178 84be
000002c0: c9fe fd3e 3bd6 55be 8330 54be 5f4d a13d
000002d0: 17b9 7fbe b9bc bebd 51ee 373f db0d 68be
000002e0: 4cf2 ae3e 00ab 073e 80d2 ebbe 3a05 d3be
000002f0: 2513 08bf 8bc0 dcbe de5f f73b 94bb bbbd
00000300: eaf2 a13c f1e1 24be 3331 4d3e f289 89be
00000310: a49a 423c d692 7bbd 0e2b 4ebe de8a a4be
00000320: 00bd 3abe 3f7d babe c6f2 593e b19f 0b3e
00000330: 0b73 393e b914 3bbe 39bd 643d 8259 59be
00000340: 9765 243e bade 823e 7542 8bbe 445d 0abf
00000350: be9f ed3e ba82 803e 872e 753a 9ff5 dbbe
00000360: 9542 773e 2f58 553e 83e4 74be 7483 8c3e
00000370: 304b d8bd f8cf 8e3e 604e 743e d2de 283e
00000380: 2c17 063e 5667 1fbf d7e0 f83d 1aed bc3e
00000390: b9fd 853e bc7b a93e 2704 053e b8f3 0d3e
000003a0: 3a49 363f a877 0b3f 656f 5cbd cfb1 c2bd
000003b0: 8e36 a3be 0304 22be 111b 10bf ccc7 26bf
000003c0: 8177 9abd 3b45 65be 2963 60be eee9 ba3e
000003d0: 4b4e 99bc 03ff 3cbe 68fe 5fbf 5c2b 2c3e
000003e0: 1e3b 53be e751 3abe 545f 833e a6cb f1bd
000003f0: 3ffb 863d 3401 4dbe 6a0a 923d 6712 323e

conv2.lin.bias f4 [64]
-0.15853444 0.28659284 0.15636003 0.06625784 0.07540232 -0.18532565 0.087876715 -0.045282487
0.06960171 0.12183319 0.14223999 0.20127426 -0.20632854 -0.3400236 -0.12634625 0.19843638
-0.33130398 -0.11645401 -0.2730326 -0.20282838 -0.3483666 0.05276464 0.18449683 -0.038457204
0.16029346 -0.16516371 0.030113146 0.014938037 0.029818483 0.055345785 0.21630226 -0.13399723
-0.20510618 -0.1704048 0.1546876 0.19618312 0.21085264 -0.06635344 0.17819516 -0.08075514
0.36411688 0.3369126 0.19581239 -0.31463423 -0.1382682 0.22656202 -0.034399096 -0.15355688
0.08508255 0.2738911 -0.22515857 -0.29506245 0.11975675 0.13824476 -0.18209584 -0.03310945
0.19441983 -0.06945648 -0.24480575 -0.20193881 -0.2975738 -0.05064882 -0.16617915 -0.07803102
00000000: da56 22be 4cbc 923e d81c 203e 31b2 873d
00000010: 886c 9a3d 02c6 3dbe b5f8 b33d 217a 39bd
00000020: 578b 8e3d ae83 f93d 5ca7 113e d71a 4e3e
00000030: ca47 53be 9317 aebe e960 01be e832 4b3e
00000040: ada0 a9be 717f eebd eeca 8bbe 3eb2 4fbe
00000050: 1b5d b2be bc1f 583d bdec 3c3e 4d85 1dbd
00000060: f823 243e ad20 29be d8af f63c abbe 743c
00000070: e445 f43c 43b2 623d 577e 5d3e 9236 09be
00000080: 5b07 52be 997e 2ebe 6d66 1e3e 3ae4 483e
00000090: c1e9 573e 50e4 87bd cb78 363e f362 a5bd
000000a0: 876d ba3e cf7f ac3e 0b83 483e bd17 a1be
000000b0: 2e96 0dbe e0ff 673e 11e6 0cbd 043e 1dbe
000000c0: c33f ae3d 743b 8c3e f88f 66be 6d12 97be
000000d0: 0743 f53d 0990 0d3e 5577 3abe c69d 07bd
000000e0: fe15 473e 333f 8ebd 5cae 7abe 0cc9 4ebe
000000f0: 985b 98be 2375 4fbd de2a 2abe bace 9fbd
