checkpoints/B/model_B_epoch_48.pth (torch, 78688 bytes, 15 tensors)

node_embedding.weight f4 [1, 64]
0.18192597 -0.09157318 -0.34746033 -0.8316804 1.569881 -1.4943998 -0.044389635 1.1665184
-0.38122302 1.1535926 0.9559071 -0.58827156 1.2796837 -1.3981992 -1.6019973 -0.08739045
2.061573 0.76325643 1.5722204 -1.9253504 1.2337055 -0.26891267 -0.75250465 -0.5261909
-0.82059664 -0.44188178 -1.2894022 0.84861803 1.7566565 0.63726085 0.6925105 -0.47600082
1.0902401 -2.6025066 -0.11502483 2.056348 1.8631387 1.4107876 -1.2120957 0.20051876
0.53109354 2.1902874 -0.96603763 -1.3810633 0.06841824 0.2675893 0.39522487 0.93273914
0.9215493 -0.6872605 3.675461 -0.5541025 -0.2822981 1.7626946 -0.7218408 0.9210468
0.37173536 -0.97872365 -0.035116706 -0.1871435 -0.8272637 1.2313174 1.6166192 1.7129788
00000000: cd4a 3a3e b88a bbbd 52e6 b1be 02e9 54bf
00000010: dcf1 c83f 7e48 bfbf e8d1 35bd 7a50 953f
00000020: aa2f c3be eca8 933f 54b6 743f f798 16bf
00000030: adcc a33f 31f8 b2bf 3f0e cdbf c4f9 b2bd
00000040: d0f0 0340 c664 433f 853e c93f e271 f6bf
00000050: 10ea 9d3f ecae 89be 25a4 40bf 72b4 06bf
00000060: 9f12 52bf 543e e2be 220b a5bf 083f 593f
00000070: 1fda e03f 8723 233f 5e48 313f 61b6 f3be
00000080: fd8c 8b3f 788f 26c0 2392 ebbd 359b 0340
00000090: 547b ee3f b094 b43f f425 9bbf ca54 4d3e
000000a0: bff5 073f ab2d 0c40 3e4e 77bf afc6 b0bf
000000b0: dd1e 8c3d 7701 893e ea5a ca3e fec7 6e3f
000000c0: a8ea 6b3f 4ef0 2fbf c13a 6b40 a9d9 0dbf
000000d0: 6089 90be fa9f e13f 8fca 38bf b9c9 6b3f
000000e0: 1954 be3e a28d 7abf 89d6 0fbd 8ca2 3fbe
000000f0: 8ec7 53bf cf9b 9d3f 61ed ce3f e442 db3f

conv1.nn.0.weight f4 [64, 64]
0.10483454 -0.01590202 0.01515925 0.11272309 -0.10244812 0.10290572 -0.010233327 -0.021089707
-0.06394622 -0.11054971 0.028067578 0.056096163 0.072041854 0.017588176 -0.060762014 -0.011326998
-0.094264336 -0.053512957 0.09489186 0.029547019 -0.025536742 0.085314944 -0.022473129 -0.011076429
0.037341185 -0.08871098 -0.11447033 0.016812561 0.019647885 0.027261253 -0.02060791 0.0588416
-0.049677607 -0.05970957 0.008843642 0.04148714 0.080830105 0.022228653 -0.10200509 -0.108502716
0.032908898 -0.099541664 -0.09082104 0.060495432 0.004653067 -0.06993478 -0.100834295 0.095140435
0.045499213 0.047309622 0.07563856 0.029921252 -0.0055528954 0.010080346 -0.11371124 0.0010698033
0.120647065 0.021277448 -0.122411065 -0.047658626 -0.023805806 -0.03694113 0.07299868 -0.056498643
0.05254577 -0.116636395 -0.041168094 -0.006296575 0.09075077 -0.010656029 0.051357776 0.034921438
-0.10000223 -0.00305444 -0.012949988 0.004509121 -0.1210216 -0.12339221 -0.037960187 0.024529234
-0.0628164 0.04348384 -0.11310607 -0.044465795 -0.120812565 0.10086112 -0.089037046 -0.09444824
0.058424905 -0.05936961 0.025574014 -0.04263854 -0.048260406 -0.041359156 0.12009744 -0.02898866
0.022669554 -0.084147796 -0.06868054 -0.049577937 -0.118549064 -0.121378124 -0.12363832 0.03129427
-0.08888516 -0.002392292 0.01803486 -0.044424832 0.11481826 0.068090096 0.091231465 -0.12378654
-0.0026221722 0.11479378 -0.054479152 0.038664117 -0.101900056 -0.010376811 -0.00790824 -0.005537346
-0.12251876 -0.01897496 0.079615414 0.04299687 0.09605707 -0.037110254 0.0011783242 0.07869083
-0.013149291 0.018831104 -0.11209123 -0.031519175 0.09898889 0.11485678 0.038975805 -0.06732327
0.09914149 0.04311125 -0.104074895 -0.0084160715 -0.06541352 -0.01715234 -0.05978696 0.08811915
-0.018065885 0.02809444 -0.09758133 -0.04837112 -0.057316825 0.03732744 -0.10440755 -0.047782943
-0.12428115 -0.0045679808 0.036620885 -0.10833521 -0.026064947 -0.1029647 -0.12190658 -0.02544187
-0.05569087 -0.026904419 0.0537107 0.080593646 0.031030074 -0.06946549 0.023105115 0.018283322
0.122159064 0.034801126 -0.018021554 -0.06998697 -0.012140557 -0.0117896795 -0.10818556 -0.04589957
0.048203707 0.015133217 0.022303045 0.043294877 0.054087833 -0.023158297 0.074680775 0.005670622
-0.05407852 0.057017177 0.12345259 0.03624071 0.083960995 0.015748844 -0.053282186 0.022906959
-0.036901444 -0.032890886 -0.07895371 0.100979045 -0.0898059 0.107758045 -0.034148633 0.11558266
-0.018527523 0.12360768 -0.124752924 -4.0367246e-05 -0.118836656 -0.06081544 -0.004089713 0.08773029
-0.050909042 0.10760392 0.024171457 -0.0022105873 0.12449743 -0.07457639 -0.024458095 0.07789469
-0.089554936 -0.11934909 0.09608038 -0.10054584 0.008259982 0.11221379 0.073057115 0.041550487
0.022782832 -0.04557468 -0.01838474 -0.115260184 0.0066763014 0.067640215 0.08768724 -0.07682024
-0.052743554 -0.021055043 0.017935097 0.049105346 -0.006190777 -0.025927871 -0.12073065 -0.10948321
-0.044706106 -0.040337384 -0.033365726 0.041316733 -0.11554366 0.07486194 -0.06145321 -0.06200525
0.07290071 0.039413378 -0.060112804 -0.0038691312 -0.0147001445 -0.0073899925 -0.0507026 0.006001726
00000000: 7eb3 d63d f444 82bc 815e 783c 5ddb e63d
00000010: 52d0 d1bd 3cc0 d23d afa9 27bc 52c4 acbc
00000020: 3cf6 82bd e367 e2bd faed e53c 17c5 653d
00000030: ae8a 933d 1415 903c 97e1 78bd df94 39bc
00000040: a90d c1bd 6730 5bbd aa56 c23d 970c f23c
00000050: 6e32 d1bc 9ab9 ae3d 9119 b8bc e979 35bc
00000060: 12f3 183d 1aae b5bd 6c6f eabd 7fba 893c
00000070: 9af4 a03c fe52 df3c ebd1 a8bc e403 713d
00000080: bf7a 4bbd 0692 74bd ece4 103c 6bee 293d
00000090: 418a a53d dd18 b63c 0be8 d0bd ac36 debd
000000a0: 7bcb 063d 80dc cbbd 6200 babd 0fca 773d
000000b0: c178 983b f739 8fbd 3682 cebd fdd8 c23d
000000c0: 625d 3a3d bcc7 413d 64e8 9a3d 6a1d f53c
000000d0: 10f5 b5bb 0928 253c 70e1 e8bd a438 8c3a
000000e0: cf15 f73d 0b4e ae3c a7b2 fabd b135 43bd
000000f0: 6504 c3bc 954f 17bd 5580 953d 1f6b 67bd
00000100: 3c3a 573d 10df eebd e09f 28bd 8053 cebb
00000110: 8adb b93d a096 2ebc 885c 523d c809 0f3d
00000120: f8cd ccbd 002d 48bb 302c 54bc 40c1 933b
00000130: 2cda f7bd 0eb5 fcbd 247c 1bbd 88f1 c83c
00000140: e2a5 80bd 1c1c 323d 28a4 e7bd c421 36bd
00000150: 946c f7bd 4690 ce3d 0e59 b6bd 146e c1bd
00000160: f44e 6f3d 8c2d 73bd 9880 d13c c0a5 2ebd
00000170: b4ac 45bd 3868 29bd a6f5 f53d a079 edbc
00000180: 80b5 b93c ae55 acbd 62a8 8cbd 3c12 4bbd
00000190: dac9 f2bd 1895 f8bd 1636 fdbd 6c2e 003d
000001a0: 6c09 b6bd 00c8 1cbb d8bd 933c d0f6 35bd
000001b0: d625 eb3d d272 8b3d 90d7 ba3d cc83 fdbd
000001c0: c0d8 2bbb 0019 eb3d 8825 5fbd 445e 1e3d
000001d0: fab0 d0bd 8003 2abc 9091 01bc a072 b5bb
000001e0: 1eeb fabd 6071 9bbc 680d a33d 7c1d 303d
000001f0: 92b9 c43d ec00 18bd 0072 9a3a a828 a13d
00000200: 2070 57bc b043 9a3c 1690 e5bd 401a 01bd
00000210: b0ba ca3d 083a eb3d 18a5 1f3d c8e0 89bd
00000220: b20a cb3d 6c95 303d 3825 d5bd 90e3 09bc
00000230: 86f7 85bd 1083 8cbc 2ce3 74bd d077 b43d
00000240: e8fe 93bc 5026 e63c b8d8 c7bd cc20 46bd
00000250: 0cc5 6abd a8e4 183d a0d3 d5bd 0cb8 43bd
00000260: 1e87 febd 00af 95bb c8ff 153d dade ddbd
00000270: 2886 d5bc 28df d2bd 28aa f9bd 786b d0bc
00000280: 1c1c 64bd a866 dcbc c0ff 5b3d 480e a53d
00000290: c832 fe3c ec43 8ebd f046 bd3c e8c6 953c
000002a0: 882e fa3d a08b 0e3d f0a1 93bc 5455 8fbd
000002b0: 30e9 46bc 8029 41bc 6490 ddbd 3001 3cbd
000002c0: 4071 453d 50f1 773c e0b4 b63c f855 313d
000002d0: 348b 5d3d 78b6 bdbc 3cf2 983d a0d0 b93b
000002e0: 7081 5dbd d88a 693d b6d4 fc3d 2471 143d
000002f0: bef3 ab3d b803 813c 6c3e 5abd 60a7 bb3c
00000300: f825 17bd 98b8 06bd 7cb2 a1bd 1ace ce3d
00000310: 28ec b7bd 40b0 dc3d 70df 0bbd 9ab6 ec3d
00000320: 08c7 97bc 0626 fd3d 767e ffbd 0050 29b8
00000330: a260 f3bd 9c19 79bd 0003 86bb f0ab b33d
00000340: 0086 50bd 725f dc3d 3803 c63c 80df 10bb
00000350: 82f8 fe3d 82bb 98bd 585c c8bc 4087 9f3d
00000360: 9468 b7bd 4c6d f4bd cac5 c43d faea cdbd
00000370: e054 073c 58d0 e53d f89e 953d d830 2a3d
00000380: 10a3 ba3c 84ac 3abd 989b 96bc 880d ecbd
00000390: e0c4 da3b f486 8a3d 5e95 b33d ee53 9dbd
000003a0: a009 58bd a07b acbc a0ec 923c b022 493d
000003b0: 00dc cabb b066 d4bc a241 f7bd bc38 e0bd
000003c0: c01d 37bd d038 25bd 80aa 08bd bc3b 293d
000003d0: 28a2 ecbd 3851 993d 5cb6 7bbd 38f9 7dbd
000003e0: f84c 953d ec6f 213d d838 76bd 4091 7dbb
000003f0: e0d8 70bc c027 f2bb 88ad 4fbd 20aa c43b

conv1.nn.0.bias f4 [64]
-0.036692403 0.10603526 0.038220704 0.060450718 0.089804485 -0.09871528 0.07674762 0.06195976
-0.106990665 -0.118424416 0.06548561 -0.046046782 -0.023723945 0.10702011 -0.10719129 0.094260946
0.06790101 -0.11393421 -0.040952183 0.082608975 0.009501323 0.08674352 0.09448876 0.06780964
-0.121093854 0.029494563 0.059842408 -0.08528202 0.120696455 -0.014455621 -0.06173967 0.050557412
-0.07566083 -0.0015539221 -0.09078542 -0.06700409 -0.010985294 0.104454584 0.019475877 0.026008822
0.10029604 0.11473879 0.015978158 -0.1158282 -0.090831324 -0.04143214 0.07401878 0.045584615
-0.03971371 0.046375003 0.044708867 -0.08271612 -2.8014183e-05 -0.02138932 0.106511705 0.06044891
-0.09952973 -0.045666978 0.094886675 0.04522115 -0.029856661 0.063133925 -0.03725524 0.015052646
00000000: c64a 16bd 0429 d93d 508d 1c3d 2c9b 773d
00000010: 6aeb b73d 3d2b cabd db2d 9d3d 84c9 7d3d
00000020: ec1d dbbd 8088 f2bd 521d 863d 8d9b 3cbd
00000030: b858 c2bc 5c2d db3d 1b87 dbbd e20b c13d
00000040: af0f 8b3d 5756 e9bd 7abd 27bd e52e a93d
00000050: 70ab 1b3c 96a6 b13d 5383 c13d c8df 8a3d
00000060: 0e00 f8bd 959e f13c 501d 753d 57a8 aebd
00000070: b42f f73d 45d7 6cbc bce2 7cbd 4a15 4f3d
00000080: 11f4 9abd f9ac cbba b5ed b9bd 7139 89bd
00000090: aafb 33bc 49ec d53d e08b 9f3c 7410 d53c
000000a0: 0368 cd3d 2cfc ea3d a0e4 823c 5637 edbd
000000b0: c605 babd bfb4 29bd 2897 973d efb6 3a3d
000000c0: d8aa 22bd b7f3 3d3d a520 373d 1267 a9bd
000000d0: 0000 ebb7 a838 afbc cf22 da3d 4799 773d
000000e0: 3ed6 cbbd 4c0d 3bbd f253 c23d d039 393d
000000f0: f595 f4bc 5c4c 813d f398 18bd 609f 763c

conv1.nn.2.weight f4 [64, 64]
0.072718985 0.009916335 0.016818061 -0.10744578 -0.075835206 -0.06239298 0.019295197 -0.050363556
0.010779524 0.07077065 0.06319388 0.04523641 0.06337553 -0.12690756 -0.0012083653 0.06783367
0.054119285 0.007110782 -0.041539647 0.05051385 -0.12208505 -0.0023374544 -0.029974474 -0.06259238
0.0087223565 0.12821625 0.09990659 -0.11086598 -0.042611107 0.060478777 0.064936675 -0.056951888
-0.09157069 -0.019599691 -0.053209364 0.06746287 -0.09890541 0.118998975 0.10244554 -0.1093082
0.11564755 0.07343903 0.052404255 -0.049172577 0.026086077 0.06639389 0.040640876 0.016278788
0.029780075 -0.027784158 -0.0700062 -0.09499216 0.089018404 -0.0017952621 0.022891391 -0.06571135
0.03271167 -0.08483874 0.0739321 -0.08057876 -0.09708353 0.11421874 0.036216006 -0.06303467
-0.09383232 0.09280747 -0.031110197 -0.080927 0.0320763 0.06122543 0.12251474 -0.07840487
0.10595066 -0.07217488 -0.06164673 0.11043146 0.11521512 0.0112237 -0.0033737642 0.07112537
0.12379495 0.060917895 0.018531647 0.10741996 0.011239544 0.064203374 0.032239 -0.053582862
0.056851048 0.10371083 -0.119968474 0.09072723 -0.04561785 -0.12302963 -0.090614334 0.019930178
0.089411 0.04175603 0.066580504 -0.02438031 -0.0009236353 0.047198717 0.11762476 -0.011041585
-0.021066403 0.021110132 -0.054060742 -0.026135752 0.03455332 -0.07957907 -0.043024722 -0.017416444
-0.0074075013 -0.010281402 -0.083093524 -0.09237471 -0.0060178936 -0.026345298 -0.06645164 0.10030842
-0.06756067 0.09674575 0.1024228 0.07607101 0.08454067 0.060704965 -0.08838523 0.033977136
-0.030116037 0.025523618 -0.027449429 0.0138344765 0.052674204 0.078062415 0.012051165 -0.033406615
-0.022729203 0.0014842749 -0.047415078 0.10273112 -0.065242425 0.092579365 -0.11067952 0.0072503537
-0.06267409 -0.09067024 0.038647503 -0.053345352 -0.021087438 -0.049438417 0.06910162 -0.045114294
-0.086965755 -0.092497125 -0.096741945 0.007514283 0.013386011 -0.084824264 -0.051192075 0.049397856
0.06289384 -0.07142989 -0.029325843 0.029835492 0.12492226 0.079315275 -0.030934408 0.10025823
-0.121796936 0.101938695 0.024447411 0.0054772943 -0.04801649 -0.0676008 0.1189886 0.047327057
-0.013493687 0.06821562 -0.110601395 0.1236624 0.047306642 0.11861007 -0.06215912 -0.03067045
0.03682421 0.022836074 -0.10843958 0.0876158 0.032927513 0.004551545 0.018973246 0.057546362
0.049514517 0.08214562 0.025836185 -0.105450496 0.12578318 0.021551125 0.09079247 -0.00054608285
0.004369416 -0.04199064 0.10537202 -0.11032299 0.06631389 -0.09151137 0.09591653 -0.028862452
-0.11842949 0.04817424 -0.09300083 -0.12512578 -0.061624765 -0.0011580762 0.07414146 -0.020888414
-0.1086236 0.013927875 0.089568585 0.09119468 -0.11463818 -0.095189035 0.054199375 -0.07532992
-0.093254276 -0.02440937 -0.0027741638 0.11023967 0.016581833 0.057146285 -0.03370051 0.11380919
0.11524705 0.034706637 -0.09894577 0.008175326 0.04075937 0.10927061 -0.060623195 0.09035536
-0.033170685 0.037688572 -0.118606836 -0.11036402 -0.04221548 -0.013289556 0.12001409 0.09831473
-0.07280895 0.045543917 0.108401656 0.018049166 0.05170857 0.043450568 -0.037681714 -0.05471307
00000000: b1ed 943d 2078 223c 08c6 893c 880c dcbd
00000010: 7d4f 9bbd c88f 7fbd f610 9e3c 044a 4ebd
00000020: 9a9c 303c 34f0 903d cb6b 813d d049 393d
00000030: 08cb 813d 0ef4 01be 0362 9eba 61ec 8a3d
00000040: 2fac 5d3d 9001 e93b 7a25 2abd 9ce7 4e3d
00000050: ba07 fabd fa2f 19bb 078d f5bc 6f30 80bd
00000060: 37e8 0e3c 1f4b 033e d49b cc3d b40d e3bd
00000070: fc88 2ebd 98b8 773d 85fd 843d 6246 69bd
00000080: 6a89 bbbd 888f a0bc 10f2 59bd f929 8a3d
00000090: eb8e cabd bcb5 f33d f8ce d13d fadc dfbd
000000a0: 9fd8 ec3d 3467 963d d8a5 563d 2f69 49bd
000000b0: 78b2 d53c 85f9 873d 0c77 263d 185b 853c
000000c0: 58f5 f33c 9a9b e3bc 695f 8fbd 408b c2bd
000000d0: 484f b63d 004f ebba ba86 bb3c ac93 86bd
000000e0: acfc 053d efbf adbd b669 973d 7a06 a5bd
000000f0: bbd3 c6bd 84eb e93d 3c57 143d 5218 81bd
00000100: 292b c0bd d811 be3d d0da febc 0ebd a5bd
00000110: 7062 033d 84c7 7a3d 02e9 fa3d bc92 a0bd
00000120: a9fc d83d 6cd0 93bd 4881 7cbd e429 e23d
00000130: e8f5 eb3d 9ce3 373c 5f1a 5dbb 2eaa 913d
00000140: 3588 fd3d 0b85 793d aecf 973c fffe db3d
00000150: 1026 383c 0f7d 833d 0b0d 043d b479 5bbd
00000160: a5dc 683d 5866 d43d 08b2 f5bd 33cf b93d
00000170: c8d9 3abd f5f6 fbbd 0294 b9bd 9d44 a33c
00000180: 1d1d b73d 5f08 2b3d 5c5b 883d 37b9 c7bc
00000190: 1e20 72ba 7153 413d 40e5 f03d c4e7 34bc
000001a0: 7393 acbc 28ef ac3c cc6e 5dbd a51a d6bc
000001b0: c887 0d3d 5afa a2bd b13a 30bd eeac 8ebc
000001c0: a0ba f2bb 5373 28bc f02c aabd f42e bdbd
000001d0: c031 c5bb 18d2 d7bc cc17 88bd 806e cd3d
000001e0: 405d 8abd a322 c63d 0cc3 d13d 1ecb 9b3d
000001f0: a923 ad3d c5a5 783d 5103 b5bd 9c2b 0b3d
00000200: e8b5 f6bc e816 d13c a0dd e0bc 00aa 623c
00000210: e8c0 573d 30df 9f3d 4072 453c 60d5 08bd
00000220: 9832 babc 008c c23a 5036 42bd b264 d23d
00000230: d29d 85bd 409a bd3d f2ab e2bd 6094 ed3b
00000240: 465b 80bd 52b1 b9bd d84c 1e3d a880 5abd
00000250: 90bf acbc f07f 4abd 2685 8d3d c4c9 38bd
00000260: 1a1b b2bd 226f bdbd a420 c6bd 603a f63b
00000270: 0051 5b3c 58b8 adbd c8ae 51bd 6855 4a3d
00000280: 7cce 803d d649 92bd c03c f0bc 9069 f43c
00000290: 3ed7 ff3d 0c70 a23d 286a fdbc 3054 cd3d
000002a0: ac70 f9bd 3cc5 d03d f045 c83c e07a b33b
000002b0: f0ac 44bd 4a72 8abd 4cb0 f33d 04da 413d
000002c0: a014 5dbc a2b4 8b3d fc82 e2bd b642 fd3d
000002d0: 9cc4 413d d6e9 f23d 909a 7ebd 9840 fbbc
000002e0: fcd4 163d b812 bb3c 9215 debd ea6f b33d
000002f0: 00df 063d 2025 953b c86d 9b3c bcb5 6b3d
00000300: bccf 4a3d f63b a83d 68a6 d33c 6ef6 d7bd
00000310: 4ecd 003e fc8b b03c 67f1 b93d 0027 0fba
00000320: 512d 8f3b 61fe 2bbd 49cd d73d 05f1 e1bd
00000330: 94cf 873d 506a bbbd e36f c43d f370 ecbc
00000340: 298b f2bd 5a52 453d 3877 bebd f920 00be
00000350: 406a 7cbd 97ca 97ba 7ad7 973d 2e1e abbc
00000360: 0d76 debd be31 643c bc6f b73d 47c4 ba3d
00000370: 6cc7 eabd 78f2 c2bd 2a00 5e3d 9346 9abd
00000380: 19fc bebd 29f6 c7bc bfce 35bb 56c5 e13d
00000390: a0d6 873c 3912 6a3d 8c09 0abd cb14 e93d
000003a0: a506 ec3d 8c28 0e3d 14a4 cabd cdf1 053c
000003b0: 4cf3 263d 45c9 df3d 0750 78bd 3b0c b93d
000003c0: fcdd 07bd 555f 1a3d 24e8 f2bd 8806 e2bd
000003d0: 24ea 2cbd 70bc 59bc f2c9 f53d 3c59 c93d
000003e0: dc1c 95bd 428c 3a3d b001 de3d d8db 933c
000003f0: 5ecc 533d 39f9 313d 2458 1abd d01a 60bd

conv1.nn.2.bias f4 [64]
0.0065002763 0.08708627 -0.06533541 0.12473092 0.10712296 -0.03975849 0.11677181 -0.0073486543
0.023662025 0.019994417 0.034774713 0.11689509 0.037063807 0.06962609 0.10078076 0.0025242816
0.07681241 0.030232465 0.03592602 -0.026199218 -0.086459525 -0.0059897834 -0.116087586 0.15585624
-0.03702064 -0.13309959 0.015753808 0.15570493 -0.031033726 -0.016975133 -0.104496285 0.0385002
-0.12424858 0.06239072 0.057337128 -0.037071493 -0.09087786 -0.03640553 0.09969412 0.12760305
-0.058492895 0.07978024 -0.01105712 -0.0015971428 -0.016154021 -0.027448904 -0.0697514 0.13128586
0.08895899 -0.021558808 0.09301659 0.022768114 -0.076997235 0.010264933 -0.107285924 -0.038371123
-0.1414827 0.12560917 -0.048215296 -0.13363919 0.00897786 -0.037448384 -0.020762168 -0.06658336
00000000: 4500 d53b 495a b23d 92ce 85bd ed72 ff3d
00000010: 4863 db3d ccd9 22bd 0f26 ef3d fbcc f0bb
00000020: ddd6 c13c 55cb a33c ee6f 0e3d b166 ef3d
00000030: 38d0 173d 2098 8e3d 2566 ce3d 6b6e 253b
00000040: d34f 9d3d 13aa f73c 2a27 133d be9f d6bc
00000050: b111 b1bd f245 c4bb 54bf edbd c798 1f3e
00000060: f4a2 17bd 424b 08be 210e 813c 1d71 1f3e
00000070: 713a febc 6f0f 8bbc 2602 d6bd 63b2 1d3d
00000080: 0a76 febd 698d 7f3d 56da 6a3d 47d8 17bd
00000090: 2c1e babd f71d 15bd 6e2c cc3d 60aa 023e
000000a0: 3f96 6fbd d363 a33d ec28 35bc 3857 d1ba
000000b0: 7055 84bc 86dc e0bc d2d9 8ebd cd6f 063e
000000c0: 2230 b63d 199c b0bc 7b7f be3d 3284 ba3c
000000d0: bab0 9dbd 402e 283c b9b8 dbbd 0a2b 1dbd
000000e0: d7e0 10be b19f 003e 677d 45bd b6d8 08be
000000f0: e017 133c 7a63 19bd 6c15 aabc db5c 88bd

conv1.lin.weight f4 [64, 7]
-0.106729954 0.46182773 0.18325639 0.034109835 0.33865574 -0.31720284 0.3304597 -0.2513524
-0.43295252 -0.13131449 0.0655834 -0.2040761 0.36469746 0.016736796 -0.03613236 0.42657205
0.049378987 -0.03174898 0.027419899 0.5592151 0.22725014 0.10364041 -0.07285341 0.19270587
-0.13533035 -0.32195222 -0.19155967 -0.2767777 0.13806474 0.1359387 0.22914258 -0.29256
0.2953066 0.17833386 -0.37790412 0.06348888 0.07843645 -0.089976415 -0.100226454 -0.28058332
-0.23443691 -0.022650631 -0.3031933 0.34802794 -0.89328086 0.11103783 -0.36880794 -0.13373011
0.31254336 -0.020244144 -0.018497057 -0.30893517 0.08419454 0.14340667 -0.27752385 0.22294392
0.2824194 0.50435275 0.2779942 0.20022035 -0.2946966 0.36527902 -0.17106786 0.28376046
0.005396418 -0.21315561 -0.22065963 -0.0068605007 -0.09693103 -0.16744424 0.37178144 0.31880516
0.38869983 -0.02997241 0.3655361 -0.23219135 -0.0029910733 -0.15150826 -0.33122075 -0.09421447
-0.29336005 0.10040172 0.025181387 -0.16403176 0.11079154 -0.3562338 0.2023636 -0.40758017
0.27229267 -0.39264005 -0.031854287 0.29692382 0.13642538 0.13721225 0.2883254 -0.09458515
-0.011551051 0.013587306 0.10488857 0.026344711 0.11082505 0.22295715 -0.16686364 -0.18662512
-0.015169614 -0.047694054 -0.105113484 0.1911265 0.25015908 0.028152129 -0.056823537 0.2922317
-0.22528993 0.27920008 0.24541257 -0.25007343 -0.24784784 -0.15950193 0.08417287 0.19913626
0.15003832 -0.31648174 -0.00482148 -0.19136825 0.199384 -0.021584919 -0.015472701 0.047435485
-0.091524675 0.25672677 0.18621527 -0.15534402 0.029877272 -0.3233006 0.00081552943 0.14872505
0.22021355 -0.140166 -0.22177324 0.3364938 -0.08322314 0.268681 0.037937645 -0.08400464
-0.20188905 -0.21766984 0.07997594 0.029114269 -0.16427909 0.26744106 -0.3864023 0.17988873
0.33630684 -0.093345776 0.32188043 -0.043045085 -0.0009408326 0.28742808 0.35929433 -0.13869669
-0.34053063 0.39845726 -0.08851451 -0.29184136 0.21618088 0.16066952 -0.27355447 -0.16326526
0.10654532 0.5089459 0.15396148 0.14593236 0.07791266 0.14952993 0.13851406 -0.049365968
-0.11684195 0.15931976 0.09878873 0.14065538 -0.06521991 0.33507332 0.07440485 -0.19936717
0.07686419 -0.13641235 -0.22728251 0.20610934 0.20933834 0.25762132 -0.032016966 0.09833275
-0.13792112 -0.35088697 0.09985912 0.19750394 0.0770795 0.14604081 -0.35598227 -0.33689052
-0.04297732 -0.1055135 -0.1609876 -0.34142324 -0.06899742 -0.3754476 0.18969736 -0.37138963
0.019285472 0.06303355 0.275776 -0.1423689 0.29458398 0.26651803 0.2638007 -0.32729352
0.08296561 0.17832935 -0.021307802 0.093941785 0.22104642 0.022151718 0.06462453 -0.1303422
0.04559145 -0.09146489 -0.2878724 0.3200663 0.041595433 0.13888744 -0.092494294 -0.27768666
-0.2331842 0.35968047 0.08902775 0.3360212 -0.17391066 -0.051975224 -0.27681488 -0.07626994
0.15455535 -0.30682844 0.026458794 0.32554755 -0.21263795 -0.33699614 0.42200112 0.19579987
-0.009831386 -0.329725 -0.018984148 0.23819773 -0.042989645 0.069827914 0.31120414 -0.28236046
00000000: 3c95 dabd af74 ec3e 90a7 3b3e c1b6 0b3d
00000010: 4964 ad3e 6968 a2be 0432 a93e 43b1 80be
00000020: f4ab ddbe 4e77 06be 9750 863d 53f9 50be
00000030: a0b9 ba3e 9b1b 893c 87ff 13bd a767 da3e
00000040: 9f41 4a3d 380b 02bd b29f e03c b928 0f3f
00000050: 43b4 683e 6c41 d43d 2b34 95bd b054 453e
00000060: 0a94 0abe ecd6 a4be 3828 44be cfb5 8dbe
00000070: d860 0d3e 8433 0b3e 5aa4 6a3e 6dca 95be
00000080: 6d32 973e 279d 363e a67c c1be 7506 823d
00000090: 4aa3 a03d 8e45 b8bd 8743 cdbd 9ea8 8fbe
000000a0: 3b10 70be d18d b9bc 273c 9bbe b830 b23e
000000b0: 0eae 64bf cd67 e33d 65d4 bcbe 8cf0 08be
000000c0: af05 a03e 0cd7 a5bc 2487 97bc c02c 9ebe
000000d0: 306e ac3d 33d9 123e 9b17 8ebe 694b 643e
000000e0: 4799 903e 431d 013f 4155 8e3e 9006 4d3e
000000f0: 79e2 96be da05 bb3e 6a2c 2fbe 0d49 913e
00000100: 6fd4 b03b 7745 5abe 99f4 61be 0dce e0bb
00000110: c783 c6bd 8176 2bbe 235a be3e 6e3a a33e
00000120: aa03 c73e b388 f5bc 8c27 bb3e 92c3 6dbe
00000130: e205 44bb fb24 1bbe c495 a9be 84f3 c0bd
00000140: 4a33 96be 6b9f cd3d 3249 ce3c f1f7 27be
00000150: ade6 e23d 4764 b6be 6738 4f3e 59ae d0be
00000160: f269 8b3e 1e08 c9be a479 02bd 6606 983e
00000170: 18b3 0b3e 5e81 0c3e 639f 933e dcb5 c1bd
00000180: 9f40 3dbc 4b9d 5e3c d2cf d63d ddd0 d73c
00000190: 3ef8 e23d e14e 643e 4dde 2abe a81a 3fbe
000001a0: f989 78bc d75a 43bd bd45 d7bd aab6 433e
000001b0: da14 803e 4b9f e63c ccbf 68bd 659f 953e
000001c0: 67b2 66be 50f3 8e3e 6f4d 7b3e a009 80be
000001d0: d3cb 7dbe 7954 23be d362 ac3d 60ea 4b3e
000001e0: a5a3 193e e509 a2be 81fd 9dbb 0af6 43be
000001f0: 522b 4c3e dbd2 b0bc 3681 7dbc b64b 423d
00000200: 4a71 bbbd b171 833e 37af 3e3e 8112 1fbe
00000210: 2ec1 f43c a887 a5be 41c9 553a 614b 183e
00000220: a97f 613e ad87 0fbe 8618 63be ea48 ac3e
00000230: e570 aabd 8e90 893e 8164 1b3d a00a acbd
00000240: 01bc 4ebe d8e4 5ebe 6dca a33d 0c81 ee3c
00000250: c738 28be 09ee 883e 86d6 c5be c034 383e
00000260: 6930 ac3e 122c bfbd 83cd a43e 0b50 30bd
00000270: 35a2 76ba c629 933e 6df5 b73e 8106 0ebe
00000280: 085a aebe 9702 cc3e 1847 b5bd 3b6c 95be
00000290: 855e 5d3e 8d86 243e 550f 8cbe 022f 27be
000002a0: 6f34 da3d 474a 023f 14a8 1d3e 4b6f 153e
000002b0: ac90 9f3d 601e 193e a1d6 0d3e f833 4abd
000002c0: d54a efbd b824 233e bf51 ca3d f707 103e
000002d0: 0492 85bd bb8e ab3e 9261 983d e826 4cbe
000002e0: f96a 9d3d aeaf 0bbe bfbc 68be 540e 533e
000002f0: ca5c 563e f1e6 833e 3924 03bd ae62 c93d
00000300: 323b 0dbe 75a7 b3be f082 cc3d 793e 4a3e
00000310: dbdb 9d3d b98b 153e 4f43 b6be ea7c acbe
00000320: fc08 30bd 7617 d8bd efd9 24be 07cf aebe
00000330: 854e 8dbd ab3a c0be 0640 423e c826 bebe
00000340: 91fc 9d3c bc17 813d 8332 8d3e 27c9 11be
00000350: b6d3 963e 0d75 883e e310 873e 0493 a7be
00000360: e0e9 a93d f89b 363e b38d aebc 8d64 c03d
00000370: fe59 623e 8577 b53c de59 843d 6d78 05be
00000380: 1abe 3a3d f251 bbbd 0364 93be bbdf a33e
00000390: f95f 2a3d 8238 0e3e a66d bdbd f22c 8ebe
000003a0: d7c7 6ebe 0a28 b83e 2e54 b63d f90a ac3e
000003b0: a315 32be f9e3 54bd aeba 8dbe 6a33 9cbd
000003c0: c243 1e3e 9e18 9dbe 1dc0 d83c 2bae a63e
000003d0: c3bd 59be c28a acbe 8810 d83e c37f 483e
000003e0: d213 21bc b7d1 a8be a584 9bbc 1bea 733e
000003f0: e915 30bd f001 8f3d 2656 9f3e 8d91 90be

conv1.lin.bias f4 [64]
-0.17376244 0.32527223 -0.081018016 0.346418 -0.051495396 0.26328102 0.20458944 0.19116399
0.11552049 0.10796479 0.021071186 0.3500791 0.174328 0.24090894 0.012706039 -0.060159653
0.3370863 0.092612155 0.24575059 -0.2186106 -0.19276606 0.2352391 -0.28856257 0.3536867
0.31670314 0.009887422 -0.0449523 0.18567008 0.32387438 0.26343507 0.27223986 -0.23162198
-0.09815073 0.28516456 -0.36380038 0.32353368 -0.12332327 0.25176975 -0.21417448 -0.10420313
0.31164083 -0.10420505 -0.16258408 0.2964584 0.17595673 -0.23711884 0.046919256 -0.29690078
-0.32902455 -0.36224967 -0.059573058 -0.3179624 0.16263326 0.06100129 -0.13865171 -0.28238535
-0.21407674 0.29113284 0.076395005 -0.20387411 0.2789416 0.017106287 0.061363026 0.11086905
00000000: c8ee 31be 158a a63e c6ec a5bd b35d b13e
00000010: d6ec 52bd c5cc 863e e57f 513e 7ec0 433e
00000020: 0296 ec3d a51c dd3d 7b9d ac3c 913d b33e
00000030: 0a83 323e d5b0 763e fd2c 503c f869 76bd
00000040: 9396 ac3e 71ab bd3d 0ba6 7b3e 75db 5fbe
00000050: 7764 45be 85e2 703e 79be 93be 6c16 b53e
00000060: ea26 a23e dbfe 213c e71f 38bd 4c20 3e3e
00000070: ddd2 a53e f6e0 863e 0663 8b3e 502e 6dbe
00000080: 4003 c9bd 1701 923e 0b44 babe 35a6 a53e
00000090: e990 fcbd f7e7 803e 8e50 5bbe 7368 d5bd
000000a0: 638f 9f3e 7569 d5bd 717c 26be 65c9 973e
000000b0: 002e 343e 48cf 72be 682e 403d 6103 98be
000000c0: e875 a8be ca78 b9be e102 74bd f8cb a2be
000000d0: 5589 263e 7ddc 793d b7fa 0dbe d094 90be
000000e0: ef36 5bbe 5d0f 953e fc74 9c3d 60c4 50be
000000f0: 6fd1 8e3e 7c22 8c3c cc57 7b3d 500f e33d

conv2.nn.0.weight f4 [64, 64]
-0.078553505 0.08090259 -0.09295174 -0.012469948 -0.037928224 -0.02072579 0.03310916 -0.15137558
-0.13040866 -0.1391756 0.10784365 -0.009118667 -0.4402392 -0.14518116 -0.3480768 0.1675986
-0.100749254 -0.040836032 -0.0825969 -0.020504376 0.026185602 -0.052263312 -0.11258185 -0.06650943
0.039136782 0.07630889 0.022577215 -0.053536464 -0.08992267 0.008769214 -0.11876829 -0.10847234
-0.122444004 0.08701157 0.014289413 0.11374442 -0.0882345 0.027848553 -0.09396956 7.725596e-05
0.08069947 0.06762448 0.089483105 0.06650064 -0.33917478 -0.12052782 0.12875526 -0.06149215
-0.02368709 -0.073178634 0.1722006 0.07043696 0.11580137 0.080650315 0.022821547 0.098933205
-0.03878126 -0.10245909 -0.036814265 0.18922026 0.08922157 0.03641735 -0.069528915 0.021763317
0.04812163 0.0060118255 -0.025942843 0.09407227 0.040822547 0.09304408 -0.016703552 0.138987
0.076301664 0.041750558 0.006196184 -0.004892029 0.060227387 -0.023058947 0.64828163 -0.023927325
0.08689794 0.2995257 0.05418664 -0.0045553674 -0.031963073 0.07362778 -0.03687854 0.002685915
0.010163488 -0.056627624 -0.07915638 0.045398116 -0.11463288 0.085921414 0.055002872 0.09619576
-0.06266493 -0.07502659 -0.03384031 -0.080871634 0.012302297 0.07988843 0.08980741 -0.00068565883
0.060225546 0.029438809 -0.08404519 -0.01221465 -0.27786586 0.117101364 -0.024165565 0.11505311
0.9168324 0.11370518 -0.052398223 -0.024337908 0.14441971 -0.028466022 -0.10565304 -0.013031936
-0.16455664 0.08058459 0.20137118 -0.0340374 -0.121128425 0.07318502 -0.08138302 -0.015971694
0.0021048058 0.07819879 0.009796996 -0.124397434 -0.07148412 0.013954674 -0.11286619 -0.15144262
0.045899365 -0.028516283 0.04647966 -0.005671567 -0.031857394 -0.059795015 -0.059005234 0.056551576
-0.020646282 -0.08924251 -0.011247502 0.010118852 -0.0473787 0.1042531 -0.14257632 0.05710137
-0.079278685 0.05163781 0.024381235 -0.039336905 0.0041862126 -0.009447752 0.06262767 -0.01579055
0.043584965 0.073378414 -0.02599893 -0.03230754 0.020113459 -0.051165543 -0.07099019 0.052651715
0.055638757 0.045397058 -0.003615114 -0.017635513 -0.09816642 0.038504664 -0.018814148 0.06852218
-0.025631856 -0.05059626 -0.082833126 0.02085803 0.034126252 -0.12084423 -0.08329713 -0.12217464
0.01221093 -0.10708209 0.06502213 0.054684326 -0.051267788 -0.044328935 -0.07170038 -0.016062371
-0.21337079 0.07498486 0.1506598 -0.08843563 0.014582726 0.21985088 -0.11981262 0.030216994
-0.06245914 0.016290896 -0.1163911 0.0030122427 0.17516004 -0.22905499 -0.04739415 0.23548771
-0.101086594 -0.118090816 0.019537285 -0.17147408 -0.052951485 0.02245411 0.017223533 0.030751593
-0.11204713 0.019427372 0.22649556 0.11496515 -0.10311307 -0.106346786 -0.12356556 -0.09761049
-0.1400852 0.051463373 0.17745014 -0.02383569 0.087986 0.04055313 -0.022498144 0.037607905
0.09431147 -0.055824548 0.03097158 -0.053719845 0.42361975 -0.19402675 0.09001158 0.07604882
-0.057994485 -0.01768763 0.104651116 0.027143171 0.043834656 -0.013030029 0.09564658 0.02422849
0.20938806 0.04493916 -0.25752714 0.025033312 -0.07974333 0.049914923 0.08980197 -0.005529529
00000000: a9e0 a0bd 42b0 a53d 7b5d bebd c14e 4cbc
00000010: a05a 1bbd 22c9 a9bc 789d 073d 3302 1bbe
00000020: d989 05be 0c84 0ebe 22dd dc3d 7666 15bc
00000030: 0867 e1be 5faa 14be 1f37 b2be f89e 2b3e
00000040: a055 cebd af43 27bd 9028 a9bd cbf8 a7bc
00000050: 3083 d63c 0e12 56bd 5091 e6bd 1936 88bd
00000060: e44d 203d d647 9c3d daf3 b83c 0d49 5bbd
00000070: 6029 b8bd c0ac 0f3c ca3c f3bd bf26 debd
00000080: ecc3 fabd 1f33 b23d 241e 6a3c d6f2 e83d
00000090: 4ab4 b4bd a622 e43c 1d73 c0bd 7a04 a238
000000a0: c445 a53d b47e 8a3d eb42 b73d 7d31 883d
000000b0: 51a8 adbe 4ad7 f6bd 6bd8 033e 31df 7bbd
000000c0: 6e0b c2bc aede 95bd 5b55 303e 4141 903d
000000d0: 4529 ed3d fe2b a53d 41f4 ba3c 7e9d ca3d
000000e0: 19d9 1ebd 12d6 d1bd 8eca 16bd f5c2 413e
000000f0: ccb9 b63d 5c2a 153d 2d65 8ebd fc48 b23c
00000100: 301b 453d d9fe c43b 1686 d4bc f6a8 c03d
00000110: 8b35 273d e58d be3d e3d5 88bc 9c52 0e3e
00000120: 0c44 9c3d a202 2b3d 5c09 cb3b 504d a0bb
00000130: feb0 763d 1ee6 bcbc c9f5 253f 3d03 c4bc
00000140: 8cf7 b13d 6f5b 993e cff2 5d3d 3145 95bb
00000150: b6eb 02bd 29ca 963d f40d 17bd 2d06 303b
00000160: c284 263c 5ef2 67bd bd1c a2bd 60f3 393d
00000170: a5c4 eabd 91f7 af3d b14a 613d 4802 c53d
00000180: 7956 80bd 8aa7 99bd 239c 0abd 07a0 a5bd
00000190: 938f 493c 8c9c a33d f3ec b73d c9bd 33ba
000001a0: 10af 763d a829 f13c e21f acbd f51f 48bc
000001b0: 6f44 8ebe d7d2 ef3d ddf6 c5bc f7a0 eb3d
000001c0: 87b5 6a3f 43de e83d 859f 56bd 4b60 c7bc
000001d0: c3e2 133e 9331 e9bc 9f60 d8bd e783 55bc
000001e0: 8981 28be 8909 a53d 3f34 4e3e cd6a 0bbd
000001f0: 2e12 f8bd 07e2 953d 24ac a6bd 12d7 82bc
00000200: c8f0 093b b026 a03d 9483 203c 15c4 febd
00000210: 4466 92bd 25a2 643c 6426 e7bd c613 1bbe
00000220: f900 3c3d fb9a e9bc 7561 3e3d 8dd8 b9bb
00000230: e67c 02bd 9eeb 74bd 79af 71bd a0a2 673d
00000240: 6422 a9bc c7c4 b6bd 7147 38bc 8bc9 253c
00000250: 2b10 42bd a682 d53d 87ff 11be 20e3 693d
00000260: dd5c a2bd 2b82 533d 28bb c73c bc1f 21bd
00000270: 7f2c 893b beca 1abc f042 803d 2f5b 81bc
00000280: 2686 323d 6c47 963d b5fb d4bc e954 04bd
00000290: fbc4 a43c f692 51bd 4e63 91bd 53a9 573d
000002a0: 77e5 633d 44f2 393d 8ceb 6cbb 5a78 90bc
000002b0: 7a0b c9bd 11b7 1d3d 2120 9abc 5b55 8c3d
000002c0: e6f9 d1bc 063e 4fbd 6aa4 a9bd 76de aa3c
000002d0: f8c7 0b3d 2e7d f7bd b097 aabd b336 fabd
000002e0: 5a10 483c db4d dbbd 532a 853d acfc 5f3d
000002f0: 2cfe 51bd 4292 35bd a6d7 92bd 3c95 83bc
00000300: df7d 5abe aa91 993d 9046 1a3e bd1d b5bd
00000310: 63ec 6e3c 9720 613e 5260 f5bd a189 f73c
00000320: 28d5 7fbd 7c74 853c 755e eebd 0c69 453b
00000330: 275d 333e 648d 6abe 5e20 42bd b123 713e
00000340: 7d06 cfbd 99d9 f1bd a80c a03c e796 2fbe
00000350: a8e3 58bd aff1 b73c 5e18 8d3c c4ea fb3c
00000360: f778 e5bd 2726 9f3c 74ee 673e d972 eb3d
00000370: f22c d3bd 58cc d9bd f10f fdbd 02e8 c7bd
00000380: 7f72 0fbe 42cb 523d 7db5 353e 1143 c3bc
00000390: 0132 b43d 0a1b 263d 074e b8bc bf0a 1a3d
000003a0: 5f26 c13d 48a8 64bd 1cb8 fd3c 5709 5cbd
000003b0: b0e4 d83e f3ae 46be fe57 b83d 7cbf 9b3d
000003c0: a08b 6dbd a6e5 90bc 5353 d63d 5b5b de3c
000003d0: f88b 333d e77b 55bc 5be2 c33d d47a c63c
000003e0: d369 563e 2012 383d 99da 83be a912 cd3c
000003f0: 7950 a3bd 9773 4c3d 18ea b73d 0d31 b5bb

conv2.nn.0.bias f4 [64]
0.10248468 -0.056057934 -0.12937738 0.100803025 -0.07751156 -0.07881723 -0.19262783 -0.039694883
0.008852813 0.041743387 -0.12730327 0.386161 0.015020706 -0.018079732 -0.071385786 -0.03220823
-0.13544668 -0.1188953 -0.1376515 0.03196535 0.029318886 -0.07784239 -0.031935133 -0.09593292
0.05385173 0.07990486 0.03207973 -0.10176402 0.064422786 0.10333373 -0.0618455 -0.033273477
-0.13183089 -0.125322 -0.1311703 0.090699315 -0.03601813 0.029391536 -0.11383397 0.107727624
-0.027137356 -0.102792546 -0.14956354 0.13351065 0.038289502 -0.039212696 -0.13465348 0.2143803
0.0652213 0.08036005 -0.03537043 0.0075858873 -0.038615655 -0.0019646005 -0.056309436 0.0026609981
0.0018559906 0.042002633 -0.024158714 0.3027207 0.19611537 0.11650818 -0.06915327 0.043117285
00000000: 7de3 d13d 019d 65bd 817b 04be d171 ce3d
00000010: 61be 9ebd ee6a a1bd 3b40 45be 1a97 22bd
00000020: 640b 113c 1dfb 2a3d ca5b 02be e5b6 c53e
00000030: 6819 763c f21b 94bc b632 92bd c7ec 03bd
00000040: 89b2 0abe 617f f3bd 84f4 0cbe 19ee 023d
00000050: 292e f03c d56b 9fbd 6ace 02bd 7b78 c4bd
00000060: a293 5c3d 29a5 a33d 0966 033d a869 d0bd
00000070: 18f0 833d a2a0 d33d b551 7dbd c549 08bd
00000080: adfe 06be 6954 00be 8251 06be 90c0 b93d
00000090: bf87 13bd 85c6 f03c c921 e9bd 4da0 dc3d
000000a0: 294f debc e684 d2bd 2f27 19be 04b7 083e
000000b0: 74d5 1c3d 7e9d 20bd 9ae2 09be 8286 5b3e
000000c0: bf92 853d cf93 a43d 96e0 10bd 0993 f83b
000000d0: 732b 1ebd 87c0 00bb b9a4 66bd 2464 2e3b
000000e0: b644 f33a f40a 2c3d 7fe8 c5bc 35fe 9a3e
000000f0: 78d2 483e d79b ee3d 3ba0 8dbd c09b 303d

conv2.nn.2.weight f4 [64, 64]
0.10443434 -0.12015713 -0.0894073 -0.016808506 0.052371513 0.03129008 0.11291633 0.096011
-0.116443604 -0.040546626 0.13268296 0.047417868 -0.09785297 0.09333723 0.002963159 -0.027959194
0.059104126 -0.063752346 -0.12598053 0.062398244 0.012956148 -0.058788847 -0.029887538 0.008319858
0.07722486 -0.113645904 -0.007446969 -0.0040299534 -0.112995744 -0.082104 -0.083677694 0.053994328
0.02328008 0.0068422314 0.043081824 -0.08277009 -0.047014397 -0.0072920867 -0.07899753 0.06331491
-0.043417737 0.11049764 0.022640679 -0.104698315 0.10943433 -0.10278143 -0.01862888 0.024511887
-0.07802753 -0.11866075 -0.08222651 0.04124936 0.026016703 0.029902378 -0.025120432 0.03560541
0.091456436 -0.03281115 0.108752355 0.086525746 -0.020865226 0.039326105 0.034524497 0.077041365
-0.11906085 -0.07264834 0.009394824 -0.15050255 0.0424853 0.005263215 0.10093834 -0.07737675
0.018866139 0.08969674 0.12459662 0.140964 -0.10029391 0.07402873 0.007832986 -0.049389213
-0.0384914 0.04035385 0.020033939 0.009447323 -0.08259752 -0.06297951 -0.003740296 -0.05160629
0.030510513 0.1007264 0.015256933 0.056139406 0.085679896 -0.08375783 -0.053852234 -0.022031412
-0.049865074 0.065439574 -0.11997836 -0.07513866 0.09620286 0.06047763 -0.067733005 0.12698238
0.016500317 0.08223171 0.12223641 -0.058049206 0.029732445 0.009982766 0.056721896 -0.06474996
0.088632815 0.11080238 0.1127878 0.0611488 0.04986205 0.09980901 -0.03692927 0.023043241
0.008317037 -0.071943425 -0.04647827 0.063411884 -0.07833253 -0.07565084 0.05520122 -0.09738537
-0.034171112 -0.04147979 0.093005076 0.0502421 0.017892253 -0.118215635 -0.08311486 0.0007307176
-0.1267238 -0.028703758 -0.023181893 0.12820427 -0.059406303 0.114286125 0.027729413 0.12932649
0.031003525 -0.09770385 -0.11207415 0.0830357 0.049185302 0.045954254 0.04151556 0.007338091
-0.04429613 -0.07206561 0.07059209 -0.049033742 -0.107246384 -0.12349853 0.07133721 -0.0072777513
-0.027238877 -0.037678737 -0.011794245 -0.009078796 0.098659895 -0.11466816 -0.01514726 -0.06669726
0.107098766 -0.07701732 0.06158809 0.0324883 -0.11781666 -0.094686866 -0.080656275 0.13604178
0.10743321 -0.122717984 0.05236599 0.05111801 -0.009826815 0.07822993 -0.08849359 -0.093135916
-0.019105645 -0.029413376 0.10242471 0.059326686 -0.057279397 0.042752244 -0.016311856 0.039664153
-0.12024322 0.12086411 0.057133656 -0.1930574 -0.018799711 -0.08228206 0.12028561 0.019501295
0.1096295 0.04602734 -0.14360514 0.05755349 -0.06783577 0.02615337 0.04160943 -0.011680868
0.021433925 0.0106095625 -0.105763614 -0.10446887 -0.01657266 -0.123962805 0.022802208 0.023355031
-0.09482581 0.071286224 0.0796912 0.09005281 -0.10705096 0.047170077 0.10849152 0.09051958
0.034931812 0.026639534 0.042549424 -0.0035078586 -0.008376325 0.062475525 0.023021216 -0.059087355
0.059911985 0.09640402 0.090942666 -0.12109394 -0.017072123 0.047266096 0.028463878 0.13997355
0.04338843 -0.0058358917 0.080763265 -0.026231049 -0.02137834 0.04827769 -0.111096404 0.008530527
0.06958969 0.020469788 -0.09865087 -0.060650896 -0.01511629 -0.118817 0.06766885 0.044929277
00000000: ace1 d53d f114 f6bd 2d1b b7bd feb1 89bc
00000010: 8383 563d 072a 003d ad40 e73d 6aa1 c43d
00000020: fc79 eebd 3814 26bd 0bde 073e 3d39 423d
00000030: 2367 c8bd 9727 bf3d 8f31 423b ae0a e5bc
00000040: 2b17 723d 9790 82bd 0a01 01be 4d95 7f3d
00000050: 0646 543c 93cc 70bd b6d6 f4bc 0450 083c
00000060: 1128 9e3d 2fbf e8bd b405 f4bb b30d 84bb
00000070: 506a e7bd 2426 a8bd 365f abbd 2829 5d3d
00000080: deb5 be3c cc34 e03b 9176 303d 5d83 a9bd
00000090: 2b92 40bd 75f2 eebb 75c9 a1bd 3fab 813d
000000a0: ccd6 31bd 964c e23d f278 b93c 126c d6bd
000000b0: 1b1f e03d 127f d2bd 989b 98bc 27cd c83c
000000c0: e6cc 9fbd 6804 f3bd 5f66 a8bd 17f5 283d
000000d0: fb20 d53c d5f5 f43c 5dc9 cdbc fad6 113d
000000e0: 834d bb3d fc64 06bd 8eb9 de3d 6934 b13d
000000f0: 8ded aabc 6914 213d 8f69 0d3d ddc7 9d3d
00000100: 2dd6 f3bd a7c8 94bd bfec 193c 571d 1abe
00000110: 1105 2e3d 0c77 ac3b c3b8 ce3d b477 9ebd
00000120: 298d 9a3c edb2 b73d 832c ff3d de58 103e
00000130: e566 cdbd 609c 973d ed55 003c 584c 4abd
00000140: 29a9 1dbd 144a 253d 371e a43c f2c8 1a3c
00000150: e328 a9bd 67fb 80bd c11f 75bb 1e61 53bd
00000160: 2ff1 f93c a549 ce3d 37f8 793c 6ff2 653d
00000170: f178 af3d 3a89 abbd 2994 5cbd 387b b4bc
00000180: 523f 4cbd 2f05 863d 37b7 f5bd 4ce2 99bd
00000190: 0106 c53d 64b7 773d 9ab7 8abd ab07 023e
000001a0: ac2b 873c 1969 a83d 1557 fa3d 01c5 6dbd
000001b0: 7591 f33c c18e 233c 3855 683d a19b 84bd
000001c0: 1f85 b53d 5cec e23d 4afd e63d 2a77 7a3d
000001d0: 263c 4c3d ab68 cc3d 2543 17bd 2ec5 bc3c
000001e0: 2e44 083c 1357 93bd 0060 3ebd 17de 813d
000001f0: ce6c a0bd d4ee 9abd ad1a 623d fb71 c7bd
00000200: 02f7 0bbd b6e6 29bd 7279 be3d a9ca 4d3d
00000210: c692 923c 0a1b f2bd 2038 aabd a18d 3f3a
00000220: e2c3 01be 2524 ebbc f4e7 bdbc fb47 033e
00000230: 0654 73bd d80e ea3d cb28 e33c 2a6e 043e
00000240: 1bfb fd3c f518 c8bd 2287 e5bd 9f0e aa3d
00000250: 8776 493d 873a 3c3d 380c 2a3d 5e74 f03b
00000260: dc6f 35bd 2297 93bd 9692 903d 9bd7 48bd
00000270: fea3 dbbd ccec fcbd 3e19 923d 347a eebb
00000280: 1124 dfbc 0555 1abd a63c 41bc 3bbf 14bc
00000290: 330e ca3d 24d7 eabd 372c 78bc 9398 88bd
000002a0: 9956 db3d 42bb 9dbd cb43 7c3d 7412 053d
000002b0: dc49 f1bd 30eb c1bd 1e2f a5bd 894e 0b3e
000002c0: f105 dc3d 9153 fbbd b87d 563d 1e61 513d
000002d0: a600 21bc 0337 a03d 213c b5bd 0bbe bebd
000002e0: 7183 9cbc 52f4 f0bc 0cc4 d13d 8a00 733d
000002f0: cd9d 6abd fa1c 2f3d 71a0 85bc e176 223d
00000300: 1442 f6bd 9a87 f73d fb04 6a3d d7b0 45be
00000310: da01 9abc 7f83 a8bd 4d58 f63d 2ec1 9f3c
00000320: 6e85 e03d 2a87 3c3d 3a0d 13be 35bd 6b3d
00000330: 7bed 8abd 983f d63c a66e 2a3d 1d61 3fbc
00000340: 3396 af3c bbd3 2d3c 989a d8bd c6f3 d5bd
00000350: 63c3 87bc 36e0 fdbd b2cb ba3c 0d53 bf3c
00000360: 0934 c2bd 83fe 913d 2435 a33d 9c6d b83d
00000370: 893d dbbd 6935 413d cd30 de3d 5462 b93d
00000380: a914 0f3d 273b da3c 4e48 2e3d 1ae4 65bb
00000390: da3c 09bc 56e6 7f3d fd96 bc3c 9505 72bd
000003a0: 4566 753d 796f c53d 2640 ba3d 1a00 f8bd
000003b0: d6da 8bbc 189a 413d 142d e93c 3a55 0f3e
000003c0: 11b8 313d 023b bfbb 3667 a53d 7fe2 d6bc
000003d0: a121 afbc d4be 453d 8386 e3bd a0c3 0b3c
000003e0: 0a85 8e3d 42b0 a73c 7809 cabd 136d 78bd
000003f0: 51aa 77bc 5456 f3bd f795 8a3d c307 383d

conv2.nn.2.bias f4 [64]
-0.14525782 0.03783007 -0.08522199 -0.11391433 0.081576005 -0.31217182 -0.09361177 -0.23774722
0.13987505 0.24629113 -0.009740656 0.09002774 -0.03745521 -0.090678684 -0.16198877 -0.20937806
0.13267088 -0.35753772 -0.16867256 0.035352673 0.31846666 -0.026016328 0.23365559 -0.07636828
-0.04545257 -0.06411887 -0.038041502 0.17672636 0.19307852 0.114945866 -0.21475044 0.2815968
-0.10563579 0.11648551 -0.07602939 -0.24925753 -0.017624257 -0.11868773 0.07630204 0.22263905
-0.1375608 0.07774893 0.2696041 -0.123527 0.004029359 -0.116012976 -0.21726096 0.04206522
-0.018079892 0.09879146 -0.026330145 0.022531928 -0.061703417 0.13958906 0.26057217 0.10572193
0.29736972 -0.15452379 -0.14440629 -0.2934644 -0.19410765 -0.043662556 -0.14947362 -0.025349312
00000000: 77be 14be b4f3 1a3d de88 aebd eb4b e9bd
00000010: 5211 a73d fcd4 9fbe 87b7 bfbd 0274 73be
00000020: 683b 0f3e be33 7c3e 4697 1fbc 7760 b83d
00000030: a26a 19bd bfb5 b9bd 62e0 25be 3467 56be
00000040: e0da 073e 2f0f b7be 80b8 2cbe f7cd 103d
00000050: 100e a33e 3220 d5bc 6943 6f3e f966 9cbd
00000060: 792c 3abd c150 83bd 68d1 1bbd c1f7 343e
00000070: 60b6 453e bd68 eb3d 8ae7 5bbe 752d 903e
00000080: 9457 d8bd f48f ee3d 4cb5 9bbd 5e3d 7fbe
00000090: bf60 90bc 8d12 f3bd 3e44 9c3d 7efb 633e
000000a0: bddc 0cbe d53a 9f3d 8c09 8a3e b9fb fcbd
000000b0: b708 843b 3698 edbd a879 5ebe 954c 2c3d
000000c0: 481c 94bc 2d53 ca3d 51b2 d7bc e194 b83c
000000d0: b9bc 7cbd 6ff0 0e3e b769 853e bd84 d83d
000000e0: d840 983e 7c3b 1ebe 3edf 13be f740 96be
000000f0: 28c4 46be 82d7 32bd 9d0f 19be 5ca9 cfbc

conv2.lin.weight f4 [64, 7]
-0.17530927 0.47076634 -0.2380165 -0.39289778 0.5770703 0.34041545 -0.24682812 0.16262501
-0.0099494355 -0.24015188 -0.069865055 -0.2178504 -0.1259616 0.20459495 0.097766206 -0.08956794
-0.594451 0.00048773267 0.23896675 0.12526466 -0.03711551 -0.20038459 -0.23348227 -0.3378085
-0.13058291 -0.21630178 0.109322526 0.24850875 -0.3801629 -0.12572746 0.30395412 0.34118506
0.321525 0.39623815 0.27633616 0.56684655 -0.24957722 0.15228106 0.3374179 -0.21379618
-0.13170695 0.027366733 0.27976352 -0.2605414 0.34347758 0.29684165 0.14269735 -0.02142159
0.26540852 0.41368192 -0.06656999 0.09308962 0.33629575 -0.25288716 0.025572587 0.05437519
-0.014233858 -0.3965892 0.11793173 0.21646759 -0.3339602 -0.010464663 0.19873802 -0.3349395
-0.10075691 -0.48773015 0.38671044 0.23152287 0.14215839 -0.29605272 0.18450764 -0.0800842
-0.28799352 0.040871862 -0.3007489 0.18337098 0.0042555537 -0.19644867 0.044600945 0.035700068
-0.28914285 -0.027084948 0.29357183 0.10470458 0.7088722 -0.42588505 -0.39428398 0.22438097
-0.41514832 0.36770853 -0.1335368 -0.10773329 0.24292652 0.3567698 0.40427214 -7.025058e-05
0.57415867 -0.10678583 -0.4037771 0.48637748 -0.5115377 0.3387448 -0.051820748 -0.06136917
0.3542797 -0.35731977 0.25221613 -0.43997318 -0.32399914 -0.46637416 0.41826153 -0.35944423
-0.18492647 -0.3082154 -0.3696303 -0.09906014 0.028060518 0.071283504 -0.19451249 0.4921908
-0.55674493 -0.6844447 0.1664563 -0.032556638 -0.39786685 0.4505459 0.08785553 -0.25116888
-0.22685826 -0.18169178 0.29463595 -0.102958724 0.2450483 0.158126 0.23942311 0.060282666
-0.47017962 0.2989485 0.34467912 0.0854207 0.32510763 -0.09343227 0.076253206 0.17302328
0.40995762 0.073546715 0.39978963 -0.15966623 0.24172746 0.5152448 -0.13134336 0.03057206
-0.1980327 -0.22621603 0.06108935 -0.056322206 0.06926351 -0.0070744604 0.09935807 0.299265
0.17099188 0.19896646 0.23316775 -0.13856862 0.2382504 -0.31361955 -0.35962564 0.206722
-0.32255635 -0.34328952 -0.25892627 -0.29919076 -0.16966103 -0.2854722 0.17025545 -0.2392633
0.2580399 -0.18622684 -0.17946453 0.10047366 -0.23628841 -0.06534068 0.5973654 -0.25457144
0.34083515 0.2045538 -0.3837545 -0.28805333 -0.33007598 -0.28881902 0.012100281 -0.1306655
0.022124313 -0.19520707 0.35660756 -0.08838262 -0.017098928 0.048535284 -0.2620392 -0.3838594
-0.13596067 -0.35881475 0.18628852 0.2103733 0.023148611 0.054331888 0.08443771 -0.16409318
0.16543667 0.35842255 -0.3183861 0.16111419 0.29234675 0.2123442 -0.08636136 -0.29232112
0.15830246 -0.06485073 -0.064518765 0.2707823 -0.018875575 0.29639602 0.1937977 0.05759776
0.026683033 0.039796688 0.04114337 0.29993564 0.14627433 0.29941988 -0.012193512 0.20292187
0.40914965 0.40145335 -0.19905694 -0.081107795 -0.20864207 -0.07303999 -0.37787995 -0.47071418
-0.14515087 -0.22177789 -0.4424774 0.42796257 -0.030305127 -0.19323215 -0.23211558 -0.06642331
-0.19630416 -0.22834197 0.32618806 -0.120704345 0.15152213 -0.38657916 0.1029601 0.20773207
00000000: 4684 33be 4908 f13e 99ba 73be e629 c9be
00000010: e1ba 133f ef4a ae3e 83c0 7cbe 2c87 263e
00000020: f502 23bc 60ea 75be 6915 8fbd 2d14 5fbe
00000030: 14fc 00be 5781 513e a639 c83d 656f b7bd
00000040: f12d 18bf 5fb6 ff39 b3b3 743e 6145 003e
00000050: 6f06 18bd 9e31 4dbe fa15 6fbe 3cf5 acbe
00000060: 87b7 05be 377e 5dbe 7de4 df3d 1479 7e3e
00000070: b6a4 c2be b3be 00be e09f 9b3e cfaf ae3e
00000080: ed9e a43e badf ca3e ef7b 8d3e db1c 113f
00000090: 2c91 7fbe 91ef 1b3e 0ac2 ac3e 63ed 5abe
000000a0: 30de 06be 3330 e03c 2a3d 8f3e af65 85be
000000b0: 4bdc af3e a1fb 973e 411f 123e 557c afbc
000000c0: a0e3 873e 1ece d33e d955 88bd c5a5 be3d
000000d0: f52e ac3e 6d7a 81be 9a7d d13c 85b8 5e3d
000000e0: 2135 69bc bd0d cbbe 3186 f13d aea9 5d3e
000000f0: d5fc aabe fa73 2bbc fb81 4b3e 317d abbe
00000100: a459 cebd c4b7 f9be e9fe c53e 5514 6d3e
00000110: f891 113e 3994 97be 92ef 3c3e 2f03 a4bd
00000120: e373 93be 4169 273d c3fb 99be 9ac5 3b3e
00000130: 2c72 8b3b d729 49be 7baf 363d 3c3a 123d
00000140: 880a 94be 41e1 ddbc 0c4f 963e 5b6f d63d
00000150: a678 353f 9b0d dabe 97df c9be 20c4 653e
00000160: 528e d4be 4b44 bc3e dfbd 08be 45a3 dcbd
00000170: bbc1 783e 88aa b63e c2fc ce3e 7e53 93b8
00000180: 10fc 123f 87b2 dabd dfbb cebe 7806 f93e
00000190: 22f4 02bf f56f ad3e fe41 54bd 3d5e 7bbd
000001a0: 2664 b53e 9ef2 b6be 7922 813e 2a44 e1be
000001b0: 37e3 a5be 98c8 eebe 6026 d63e 1309 b8be
000001c0: 5d5d 3dbe 69ce 9dbe 2f40 bdbe 0be0 cabd
000001d0: 2cdf e53c 16fd 913d 482e 47be 6f00 fc3e
000001e0: d686 0ebf c537 2fbf 8573 2a3e 1c5a 05bd
000001f0: 34b5 cbbe f4ad e63e 9aed b33d 3599 80be
00000200: 884d 68be 690d 3abe 86da 963e 06dc d2bd
00000210: f1ed 7a3e c8eb 213e 552b 753e f5ea 763d
00000220: 62bb f0be c70f 993e c879 b03e 0cf1 ae3d
00000230: 8274 a63e 6b59 bfbd a42a 9c3d 042d 313e
00000240: f7e5 d13e a99f 963d 3ab1 cc3e 8b7f 23be
00000250: 6787 773e 15e7 033f e07e 06be 4272 fa3c
00000260: 16c9 4abe 2da5 67be d438 7a3d 1db2 66bd
00000270: 07da 8d3d e0d0 e7bb 3e7c cb3d 4339 993e
00000280: 7f18 2f3e ddbd 4b3e 87c3 6e3e efe4 0dbe
00000290: eaf7 733e be92 a0be da20 b8be efae 533e
000002a0: 1b26 a5be a5c3 afbe fc91 84be 882f 99be
000002b0: 9fbb 2dbe 6a29 92be 7257 2e3e 7001 75be
000002c0: ce1d 843e 40b2 3ebe 8dc5 37be 22c5 cd3d
000002d0: 97f5 71be 56d1 85bd f0ec 183f 3057 82be
000002e0: f281 ae3e 8d76 513e 787b c4be ba7b 93be
000002f0: b8ff a8be 16e0 93be 4240 463c 2dcd 05be
00000300: 0c3e b53c 5de4 47be 4495 b63e f201 b5bd
00000310: 0d13 8cbc efcc 463d 012a 86be 3889 c4be
00000320: 4639 0bbe 91b6 b7be 6bc2 3e3e 196c 573e
00000330: 28a2 bd3c 1d8b 5e3d aeed ac3d 0b08 28be
00000340: 3b68 293e 2983 b73e 8103 a3be 1efb 243e
00000350: 79ae 953e c270 593e 3ade b0bd 1dab 95be
00000360: 0a1a 223e 76d0 84bd 6a22 84bd faa3 8a3e
00000370: f3a0 9abc 38c1 973e e772 463e a1eb 6b3d
00000380: 6096 da3c da01 233d f385 283d 2a91 993e
00000390: f0c8 153e 904d 993e 4cc7 47bc c0ca 4f3e
000003a0: 107c d13e 4b8b cd3e 95d5 4bbe d81b a6bd
000003b0: 44a6 55be fe95 95bd 7b79 c1be 7301 f1be
000003c0: 6ea2 14be be19 63be 668c e2be e91d db3e
000003d0: 7542 f8bc a6de 45be b5af 6dbe f208 88bd
000003e0: f503 49be 7ad2 69be 1f02 a73e d733 f7bd
000003f0: 9e28 1b3e b4ed c5be bfdc d23d b7b7 543e

conv2.lin.bias f4 [64]
-0.13271905 0.30585635 0.09326009 0.068718135 0.13091333 -0.109742194 0.13954201 0.00011046207
0.09194108 0.06916468 0.12726307 0.27854186 -0.19135028 -0.30186978 -0.10032333 0.22888651
-0.27341482 -0.10219451 -0.26005328 -0.18377134 -0.36405495 0.07119135 0.32702526 -0.010128472
0.11226713 -0.15367468 0.022028122 0.14212446 0.013996517 0.14360467 0.20111586 -0.0992954
-0.20933601 -0.1631077 0.11822295 0.20383242 0.25002337 -0.029447956 0.17309938 -0.08037801
0.36542615 0.33794454 0.25408506 -0.26151088 -0.17399411 0.25431612 0.085399576 -0.12651716
0.105830714 0.3290489 -0.17499834 -0.2891874 0.20434949 0.13202468 -0.16288626 -0.016934093
0.19999476 -0.12126468 -0.22822851 -0.14082266 -0.2646122 -0.0705825 -0.16617915 0.025101224
00000000: 81e7 07be 3499 9c3e 25ff be3d 18bc 8c3d
00000010: 250e 063e 84c0 e0bd 1ae4 0e3e dfa7 e738
00000020: 9b4b bc3d 36a6 8d3d 4051 023e 0a9d 8e3e
00000030: 54f1 43be ad8e 9abe 5176 cdbd 3a61 6a3e
00000040: 07fd 8bbe 5b4b d1bd b425 85be 8e2e 3cbe
00000050: 6965 babe c5cc 913d db6f a73e e4f1 25bc
00000060: 4fec e53d e55c 1dbe 5274 b43c 1389 113e
00000070: a651 653c 1a0d 133e 51f1 4d3e 635b cbbd
00000080: 2e5c 56be b405 27be e01e f23d 72b9 503e
00000090: 1003 803e d73c f1bc f740 313e 3a9d a4bd
000000a0: 2319 bb3e 1107 ad3e 7017 823e c1e4 85be
000000b0: 832b 32be b935 823e f9e5 ae3d b78d 01be
000000c0: c6bd d83d 1979 a83e c432 33be 5f10 94be
000000d0: fe40 513e 7a31 073e a8cb 26be 5eb9 8abc
000000e0: 6dcb 4c3e 9e59 f8bd bcb4 69be d133 10be
000000f0: 407b 87be 8f8d 90bd de2a 2abe 15a1 cd3c
