checkpoints/model_A_best.pth (torch, 118655 bytes, 27 tensors)

embedding.weight f4 [1, 64]
0.22681718 -0.0877812 -0.3323264 -0.8028031 1.5544648 -1.6091734 -0.11615748 1.1419313
-0.3416372 1.1120185 0.9282325 -0.6346655 1.2455534 -1.6229424 -1.7993674 -0.011216689
2.044503 0.74546415 1.5371845 -2.0986614 1.2151859 -0.27650177 -0.83083886 -0.48226613
-0.7689065 -0.39837518 -1.5744283 0.84044397 1.704626 0.609453 0.6488338 -0.3568576
1.0730021 -2.7699068 -0.047873743 1.9999927 1.826151 1.330812 -1.2518535 0.21376678
0.5106135 2.120458 -1.0162145 -1.4745522 0.117260024 0.2788004 0.38139737 0.91857123
0.91061157 -0.5224305 3.593232 -0.6172135 -0.30658185 1.7137525 -0.70574296 0.91037685
0.35659802 -1.0063605 -0.020610841 -0.12305056 -0.9054016 1.2089034 1.6087754 1.6372712
00000000: c342 683e a1c6 b3bd b026 aabe 8184 4dbf
00000010: b4f8 c63f 65f9 cdbf f9e3 edbd ce2a 923f
00000020: 12eb aebe 9f56 8e3f a5a0 6d3f 7079 22bf
00000030: 4b6e 9f3f 94bc cfbf ac51 e6bf 34c6 37bc
00000040: 23d9 0240 bdd6 3e3f 76c2 c43f 7850 06c0
00000050: 368b 9b3f a491 8dbe dbb1 54bf 96eb f6be
00000060: 0ed7 44bf d5f7 cbbe de86 c9bf 5627 573f
00000070: 2f31 da3f 1d05 1c3f f919 263f 0ab6 b6be
00000080: 2258 893f 2746 31c0 4217 44bd c3ff ff3f
00000090: 51bf e93f 0c58 aa3f bc3c a0bf aee5 5a3e
000000a0: 91b7 023f 95b5 0740 5113 82bf 20be bcbf
000000b0: 0626 f03d edbe 8e3e 8446 c33e 7c27 6b3f
000000c0: d71d 693f 01be 05bf 83f7 6540 b401 1ebf
000000d0: 4cf8 9cbe 3e5c db3f 92ab 34bf 750e 693f
000000e0: 0494 b63e 6cd0 80bf 11d8 a8bc ef01 fcbd
000000f0: 66c8 67bf 59bd 9a3f 5aec cd3f 1a92 d13f

conv1.nn.0.weight f4 [64, 64]
0.0873103 -0.0065313596 0.010932068 0.11521485 -0.10991178 0.10511365 -0.006001693 -0.03786915
-0.036405314 -0.12367582 0.01297032 0.059362948 0.060553353 0.01971452 -0.05837161 -0.020691179
-0.10301858 -0.068703994 0.08074497 0.031775344 -0.036001764 0.0782361 -0.019785209 -0.1256965
-0.049606983 -0.12567785 -0.11255636 0.0037275155 0.00974848 0.021102855 -0.038711734 0.06336693
-0.064940244 -0.058332156 0.019231066 0.031809308 0.07217744 0.0120674195 -0.099714264 -0.14497028
0.022525495 -0.10283308 -0.08836737 0.062799126 0.0032562865 -0.092586376 -0.12881489 0.09354295
0.029014444 0.050372444 0.06255829 0.033358406 -0.0070405016 -0.0007348924 -0.1107395 -0.0032480916
0.10099296 0.023654686 -0.166988 -0.041434858 -0.04995096 -0.044727046 0.06402336 -0.068081334
0.05254577 -0.116636395 -0.041168094 -0.006296575 0.09075077 -0.010656029 0.051357776 0.034921438
-0.10000223 -0.00305444 -0.012949988 0.004509121 -0.1210216 -0.12339221 -0.037960187 0.024529234
-0.0628164 0.04348384 -0.11310607 -0.044465795 -0.120812565 0.10086112 -0.089037046 -0.09444824
0.058424905 -0.05936961 0.025574014 -0.04263854 -0.048260406 -0.041359156 0.12009744 -0.02898866
0.022669554 -0.084147796 -0.06868054 -0.049577937 -0.118549064 -0.121378124 -0.12363832 0.03129427
-0.08888516 -0.002392292 0.01803486 -0.044424832 0.11481826 0.068090096 0.091231465 -0.12378654
-0.0026221722 0.11479378 -0.054479152 0.038664117 -0.101900056 -0.010376811 -0.00790824 -0.005537346
-0.12251876 -0.01897496 0.079615414 0.04299687 0.09605707 -0.037110254 0.0011783242 0.07869083
-0.013149291 0.018831104 -0.11209123 -0.031519175 0.09898889 0.11485678 0.038975805 -0.06732327
0.09914149 0.04311125 -0.104074895 -0.0084160715 -0.06541352 -0.01715234 -0.05978696 0.08811915
-0.018065885 0.02809444 -0.09758133 -0.04837112 -0.057316825 0.03732744 -0.10440755 -0.047782943
-0.12428115 -0.0045679808 0.036620885 -0.10833521 -0.026064947 -0.1029647 -0.12190658 -0.02544187
-0.05569087 -0.026904419 0.0537107 0.080593646 0.031030074 -0.06946549 0.023105115 0.018283322
0.122159064 0.034801126 -0.018021554 -0.06998697 -0.012140557 -0.0117896795 -0.10818556 -0.04589957
0.048203707 0.015133217 0.022303045 0.043294877 0.054087833 -0.023158297 0.074680775 0.005670622
-0.05407852 0.057017177 0.12345259 0.03624071 0.083960995 0.015748844 -0.053282186 0.022906959
-0.036901444 -0.032890886 -0.07895371 0.100979045 -0.0898059 0.107758045 -0.034148633 0.11558266
-0.018527523 0.12360768 -0.124752924 -4.0367246e-05 -0.118836656 -0.06081544 -0.004089713 0.08773029
-0.050909042 0.10760392 0.024171457 -0.0022105873 0.12449743 -0.07457639 -0.024458095 0.07789469
-0.089554936 -0.11934909 0.09608038 -0.10054584 0.008259982 0.11221379 0.073057115 0.041550487
0.022782832 -0.04557468 -0.01838474 -0.115260184 0.0066763014 0.067640215 0.08768724 -0.07682024
-0.052743554 -0.021055043 0.017935097 0.049105346 -0.006190777 -0.025927871 -0.12073065 -0.10948321
-0.044706106 -0.040337384 -0.033365726 0.041316733 -0.11554366 0.07486194 -0.06145321 -0.06200525
0.07290071 0.039413378 -0.060112804 -0.0038691312 -0.0147001445 -0.0073899925 -0.0507026 0.006001726
00000000: becf b23d 0405 d6bb 6b1c 333c c3f5 eb3d
00000010: 6d19 e1bd d345 d73d daa9 c4bb af1c 1bbd
00000020: bd1d 15bd c049 fdbd 7781 543c 9026 733d
00000030: cb06 783d 5880 a13c 1217 6fbd 8c80 a9bc
00000040: 68fb d2bd aeb4 8cbd 9e5d a53d dd26 023d
00000050: 9676 13bd 403a a03d 9714 a2bc 95b6 00be
00000060: b130 4bbd b2b1 00be f383 e6bd 5549 743b
00000070: 17b8 1f3c e5df ac3c 3290 1ebd 85c6 813d
00000080: 64ff 84bd b3ed 6ebd 788a 9d3c 7a4a 023d
00000090: c4d1 933d 6db6 453c fe36 ccbd 1773 14be
000000a0: 6387 b83c 269a d2bd f4f9 b4bd d49c 803d
000000b0: 6c67 553b ed9d bdbd 0de8 03be 7293 bf3d
000000c0: b3af ed3c 5653 4e3d 901e 803d d3a2 083d
000000d0: 02b4 e6bb cba5 40ba 64cb e2bd efdd 54bb
000000e0: 66d5 ce3d 79c7 c13c e7fe 2abe 99b7 29bd
000000f0: 6199 4cbd b533 37bd ae1e 833d 3a6e 8bbd
00000100: 3c3a 573d 10df eebd e09f 28bd 8053 cebb
00000110: 8adb b93d a096 2ebc 885c 523d c809 0f3d
00000120: f8cd ccbd 002d 48bb 302c 54bc 40c1 933b
00000130: 2cda f7bd 0eb5 fcbd 247c 1bbd 88f1 c83c
00000140: e2a5 80bd 1c1c 323d 28a4 e7bd c421 36bd
00000150: 946c f7bd 4690 ce3d 0e59 b6bd 146e c1bd
00000160: f44e 6f3d 8c2d 73bd 9880 d13c c0a5 2ebd
00000170: b4ac 45bd 3868 29bd a6f5 f53d a079 edbc
00000180: 80b5 b93c ae55 acbd 62a8 8cbd 3c12 4bbd
00000190: dac9 f2bd 1895 f8bd 1636 fdbd 6c2e 003d
000001a0: 6c09 b6bd 00c8 1cbb d8bd 933c d0f6 35bd
000001b0: d625 eb3d d272 8b3d 90d7 ba3d cc83 fdbd
000001c0: c0d8 2bbb 0019 eb3d 8825 5fbd 445e 1e3d
000001d0: fab0 d0bd 8003 2abc 9091 01bc a072 b5bb
000001e0: 1eeb fabd 6071 9bbc 680d a33d 7c1d 303d
000001f0: 92b9 c43d ec00 18bd 0072 9a3a a828 a13d
00000200: 2070 57bc b043 9a3c 1690 e5bd 401a 01bd
00000210: b0ba ca3d 083a eb3d 18a5 1f3d c8e0 89bd
00000220: b20a cb3d 6c95 303d 3825 d5bd 90e3 09bc
00000230: 86f7 85bd 1083 8cbc 2ce3 74bd d077 b43d
00000240: e8fe 93bc 5026 e63c b8d8 c7bd cc20 46bd
00000250: 0cc5 6abd a8e4 183d a0d3 d5bd 0cb8 43bd
00000260: 1e87 febd 00af 95bb c8ff 153d dade ddbd
00000270: 2886 d5bc 28df d2bd 28aa f9bd 786b d0bc
00000280: 1c1c 64bd a866 dcbc c0ff 5b3d 480e a53d
00000290: c832 fe3c ec43 8ebd f046 bd3c e8c6 953c
000002a0: 882e fa3d a08b 0e3d f0a1 93bc 5455 8fbd
000002b0: 30e9 46bc 8029 41bc 6490 ddbd 3001 3cbd
000002c0: 4071 453d 50f1 773c e0b4 b63c f855 313d
000002d0: 348b 5d3d 78b6 bdbc 3cf2 983d a0d0 b93b
000002e0: 7081 5dbd d88a 693d b6d4 fc3d 2471 143d
000002f0: bef3 ab3d b803 813c 6c3e 5abd 60a7 bb3c
00000300: f825 17bd 98b8 06bd 7cb2 a1bd 1ace ce3d
00000310: 28ec b7bd 40b0 dc3d 70df 0bbd 9ab6 ec3d
00000320: 08c7 97bc 0626 fd3d 767e ffbd 0050 29b8
00000330: a260 f3bd 9c19 79bd 0003 86bb f0ab b33d
00000340: 0086 50bd 725f dc3d 3803 c63c 80df 10bb
00000350: 82f8 fe3d 82bb 98bd 585c c8bc 4087 9f3d
00000360: 9468 b7bd 4c6d f4bd cac5 c43d faea cdbd
00000370: e054 073c 58d0 e53d f89e 953d d830 2a3d
00000380: 10a3 ba3c 84ac 3abd 989b 96bc 880d ecbd
00000390: e0c4 da3b f486 8a3d 5e95 b33d ee53 9dbd
000003a0: a009 58bd a07b acbc a0ec 923c b022 493d
000003b0: 00dc cabb b066 d4bc a241 f7bd bc38 e0bd
000003c0: c01d 37bd d038 25bd 80aa 08bd bc3b 293d
000003d0: 28a2 ecbd 3851 993d 5cb6 7bbd 38f9 7dbd
000003e0: f84c 953d ec6f 213d d838 76bd 4091 7dbb
000003f0: e0d8 70bc c027 f2bb 88ad 4fbd 20aa c43b

conv1.nn.0.bias f4 [64]
-0.03906669 0.10603526 0.038220704 0.060450718 0.23115328 -0.073990494 0.19194518 0.06195976
-0.037389636 -0.097094744 0.1324195 0.03537427 -0.023723945 0.13432297 -0.06792037 0.19362296
0.059729777 -0.088379204 0.055166345 0.18300292 0.009501323 0.22319391 0.094154015 0.1077202
-0.05906195 0.026980307 0.059842408 -0.06917427 0.120696455 0.0026016007 0.030077033 0.13169223
-0.0898467 0.053933285 -0.0826258 0.022441076 0.11583335 0.16989361 0.019475877 0.0638972
0.2212004 0.11473879 0.015978158 -0.040390775 -0.090831324 0.03812858 0.076656386 0.033294566
-0.03971371 0.08588508 0.1845931 -0.08271612 -2.8014183e-05 -0.02138932 0.24547237 0.05545007
-0.09952973 0.010069732 0.08169805 0.04522115 -0.07607219 0.13356528 -0.034537774 -0.008778198
00000000: 6504 20bd 0429 d93d 508d 1c3d 2c9b 773d
00000010: 72b3 6c3e 5488 97bd 478d 443e 84c9 7d3d
00000020: e025 19bd 9cd9 c6bd fa98 073e 9ce4 103d
00000030: b858 c2bc f68b 093e d619 8bbd 1945 463e
00000040: 36a7 743d 2800 b5bd 1bf6 613d 1e65 3b3e
00000050: 70ab 1b3c f28c 643e d2d3 c03d 699c dc3d
00000060: f1ea 71bd ce05 dd3c 501d 753d 3dab 8dbd
00000070: b42f f73d 9e7f 2a3b 1c64 f63c 54da 063e
00000080: 8c01 b8bd 26e9 5c3d b737 a9bd 59d6 b73c
00000090: 093a ed3d 97f8 2d3e e08b 9f3c 89dc 823d
000000a0: 5c82 623e 2cfc ea3d a0e4 823c cc70 25bd
000000b0: c605 babd b72c 1c3d 06fe 9c3d e25f 083d
000000c0: d8aa 22bd 84e4 af3d f905 3d3e 1267 a9bd
000000d0: 0000 ebb7 a838 afbc 1c5d 7b3e 9d1f 633d
000000e0: 3ed6 cbbd 84fb 243c 4f51 a73d d039 393d
000000f0: bdcb 9bbd 56c5 083e 7b77 0dbd 6ed2 0fbc

conv1.nn.2.weight f4 [64, 64]
0.080233395 0.009916335 0.016818061 -0.10744578 -0.028494041 -0.044738095 -0.014568271 -0.050363556
-0.06595485 0.07515737 0.0810191 0.06834893 0.06337553 -0.13704218 -0.005429208 0.07587319
0.069433376 0.014930562 -0.04655399 0.0226089 -0.12208505 -0.011309581 -0.031130513 -0.048103742
-0.02522939 0.12847142 0.09990659 -0.11912922 -0.042611107 0.067279905 0.19179016 -0.045302674
-0.059019953 -0.019030089 -0.040579773 0.06936414 -0.096975766 0.15382051 0.10244554 -0.06367654
0.10551633 0.07343903 0.052404255 -0.042868603 0.026086077 0.27457738 0.04392285 0.016278083
0.029780075 -0.023477657 -0.06892025 -0.09499216 0.089018404 -0.0017952621 0.021879075 -0.05372222
0.03271167 -0.07293787 0.07998355 -0.08057876 -0.1025067 0.11613579 0.031916667 -0.082558766
-0.11658645 0.09280747 -0.031110197 -0.080927 0.004852431 0.06497637 0.042272244 -0.07840487
0.08666159 -0.049082413 0.029506449 0.056810666 0.11521512 0.010128902 0.051577244 -0.0012900411
0.12975796 0.07564717 -0.039018527 0.079613686 0.011239544 0.09834231 0.032005243 0.08164391
0.17981045 0.09165331 -0.119968474 -0.015943902 -0.04561785 0.06682853 -0.17287521 0.103649035
0.09916608 -0.010031759 0.076081865 0.050089847 -0.07652979 0.009379025 0.11762476 -0.011182235
0.16508846 0.021110132 -0.054060742 -0.080059744 0.03455332 -0.083591044 -0.047020398 -0.017418299
-0.0074075013 -0.07983626 -0.17636162 -0.09237471 -0.0060178936 -0.026345298 -0.059786472 0.095170416
-0.06756067 -0.0360983 0.093588956 0.07607101 0.013993625 0.09998559 -0.099430606 0.017979994
-0.019401047 0.025523618 -0.027449429 0.0138344765 0.09539474 0.10128557 0.09806675 -0.033406615
0.030000484 -0.04089181 -0.049233593 0.062302563 -0.065242425 0.09221119 -0.08202903 -0.20853502
-0.06313366 -0.08477077 -0.019531045 -0.054724954 -0.021087438 -0.100134216 0.06488176 -0.028867014
-0.08829679 -0.09894676 -0.096741945 0.019527702 0.013386011 -0.07127563 -0.20843147 0.044014636
0.06889508 -0.0824099 -0.02636984 0.061071347 0.039496247 0.068030745 -0.030934408 0.08509423
-0.10799057 0.101938695 0.024447411 0.026871238 -0.04801649 -0.25800857 0.11705015 0.047324397
-0.013493687 0.04879093 -0.12981883 0.1236624 0.047306642 0.11861007 -0.09556877 -0.018061558
0.03682421 -0.054134015 -0.10840608 0.0876158 0.018512663 0.028868498 0.015360855 0.0314184
0.052087832 0.08214562 0.025836185 -0.105450496 0.12242448 0.026828112 0.121034615 -0.00054608285
-0.026216537 0.022369334 0.13752043 -0.14257574 0.06631389 -0.054742564 0.13208829 -0.030113177
-0.10980223 0.100081556 -0.08581821 -0.10760849 -0.061624765 0.01758981 0.07797529 -0.004869441
-0.05362979 0.014458246 0.089568585 0.13405336 -0.11463818 -0.059465967 0.055735957 -0.041009013
-0.08176395 0.012198927 0.0036906016 0.14518681 0.028901735 0.040512934 -0.03370051 0.07774312
0.12447415 0.034706637 -0.09894577 0.048928913 0.04075937 0.08424096 -0.04921092 0.09035555
-0.033170685 0.0687588 -0.104201056 -0.11036402 -0.04221548 -0.013289556 0.11729681 0.09863743
-0.07280895 0.04824385 0.108670436 0.018049166 0.0829485 0.055029083 -0.03867117 -0.023386482
00000000: 6851 a43d 2078 223c 08c6 893c 880c dcbd
00000010: 566c e9bc 4b3f 37bd c2af 6ebc 044a 4ebd
00000020: 5613 87bd 1bec 993d 58ed a53d 86fa 8b3d
00000030: 08cb 813d c954 0cbe 7fe7 b1bb 6763 9b3d
00000040: 1633 8e3d 519f 743c 66af 3ebd 4d36 b93c
00000050: ba07 fabd d24b 39bc 6b05 ffbc 6e08 45bd
00000060: dead cebc 038e 033e d49b cc3d 05fa f3bd
00000070: fc88 2ebd 0cca 893d a464 443e 4c8f 39bd
00000080: e8be 71bd fde4 9bbc fa36 26bd c90e 8e3d
00000090: 3b9b c6bd 2083 1d3e f8ce d13d d968 82bd
000000a0: f218 d83d 3467 963d d8a5 563d fd96 2fbd
000000b0: 78b2 d53c 6895 8c3e 72e8 333d 9d59 853c
000000c0: 58f5 f33c 3754 c0bc 0f26 8dbd 408b c2bd
000000d0: 484f b63d 004f ebba bf3b b33c d50b 5cbd
000000e0: acfc 053d 7360 95bd 6ace a33d 7a06 a5bd
000000f0: 08ef d1bd 9ad8 ed3d 0dbb 023d 9214 a9bd
00000100: e0c4 eebd d811 be3d d0da febc 0ebd a5bd
00000110: 2401 9f3b 5512 853d a925 2d3d bc92 a0bd
00000120: a27b b13d a40a 49bd 82b7 f13c 4db2 683d
00000130: e8f5 eb3d b2f3 253c a942 533d 9916 a9ba
00000140: 45df 043e e7ec 9a3d e4d1 1fbd 800c a33d
00000150: 1026 383c b167 c93d ee17 033d ec34 a73d
00000160: 3b20 383e bbb4 bb3d 08b2 f5bd c99c 82bc
00000170: c8d9 3abd 65dd 883d 3306 31be f245 d43d
00000180: 9617 cb3d 3f5c 24bc cfd0 9b3d 032b 4d3d
00000190: a7bb 9cbd 7baa 193c 40e5 f03d b135 37bc
000001a0: f30c 293e 28ef ac3c cc6e 5dbd 5df6 a3bd
000001b0: c887 0d3d c831 abbd 7698 40bd d2b0 8ebc
000001c0: a0ba f2bb 3181 a3bd 2498 34be f42e bdbd
000001d0: c031 c5bb 18d2 d7bc a9e2 74bd b5e8 c23d
000001e0: 405d 8abd d0db 13bd 91ab bf3d 1ecb 9b3d
000001f0: 8445 653c 3fc5 cc3d 46a2 cbbd c84a 933c
00000200: f2ee 9ebc e816 d13c a0dd e0bc 00aa 623c
00000210: 515e c33d cf6e cf3d 38d7 c83d 60d5 08bd
00000220: 93c3 f53c 2c7e 27bd 2aa9 49bd f930 7f3d
00000230: d29d 85bd 38d9 bc3d d6fe a7bd 348a 55be
00000240: 384c 81bd 4c9c adbd 92ff 9fbc 4627 60bd
00000250: 90bf acbc 2b13 cdbd bae0 843d 847a ecbc
00000260: f3d4 b4bd 99a4 cabd a420 c6bd 8ff8 9f3c
00000270: 0051 5b3c f5f8 91bd 0f6f 55be b148 343d
00000280: dd18 8d3d 86c6 a8bd 9005 d8bc f325 7a3d
00000290: d1c6 213d b453 8b3d 286a fdbc e245 ae3d
000002a0: 292a ddbd 3cc5 d03d f045 c83c 1221 dc3c
000002b0: f0ac 44bd b319 84be fdb7 ef3d 3ad7 413d
000002c0: a014 5dbc 00d9 473d 3aef 04be b642 fd3d
000002d0: 9cc4 413d d6e9 f23d 8fb9 c3bd d5f5 93bc
000002e0: fcd4 163d a1bb 5dbd 0204 debd ea6f b33d
000002f0: dea7 973c a17d ec3c 18ac 7b3c 95b0 003d
00000300: 0d5a 553d f63b a83d 68a6 d33c 6ef6 d7bd
00000310: b0b9 fa3d a1c6 db3c ffe0 f73d 0027 0fba
00000320: 10c4 d6bc e53f b73c 28d2 0c3e 60ff 11be
00000330: 94cf 873d bd39 60bd 2742 073e e9af f6bc
00000340: fedf e0bd 8ff7 cc3d 75c1 afbd d761 dcbd
00000350: 406a 7cbd 8118 903c 82b1 9f3d d58f 9fbb
00000360: e9aa 5bbd 47e2 6c3c bc6f b73d 4945 093e
00000370: 6cc7 eabd 9692 73bd 634b 643d 11f9 27bd
00000380: dc73 a7bd 02de 473c 05de 713b daab 143e
00000390: 55c3 ec3c e4f0 253d 8c09 0abd c937 9f3d
000003a0: 4eec fe3d 8c28 0e3d 14a4 cabd af69 483d
000003b0: 4cf3 263d 8686 ac3d 6491 49bd 550c b93d
000003c0: fcdd 07bd 6ad1 8c3d 5d67 d5bd 8806 e2bd
000003d0: 24ea 2cbd 70bc 59bc 4f39 f03d 6c02 ca3d
000003e0: dc1c 95bd 589b 453d 9b8e de3d d8db 933c
000003f0: e7e0 a93d 2d66 613d a965 1ebd 0295 bfbc

conv1.nn.2.bias f4 [64]
0.0075958567 0.0867518 -0.06634631 0.12241814 0.10687489 -0.026668295 0.111840874 0.0027685603
0.027425839 0.02269927 0.06614096 0.09033243 0.08303727 0.070900045 0.12325683 0.025154509
0.083498456 0.07285775 0.023115741 0.0009729078 -0.053448487 0.007940156 -0.113630645 0.115418576
-0.008684907 -0.12510578 0.06874875 0.07301877 -0.0064013405 -0.021394309 -0.103244305 0.053806312
-0.094932266 0.06674484 0.07223687 -0.03346045 -0.07640934 -0.02781508 0.111560695 0.10764718
-0.05228917 0.08849553 -0.0311644 -0.009051104 -0.01852645 -0.014957002 -0.071459614 0.09506081
0.08835802 0.0050751534 -0.031634416 0.041180797 -0.07879511 0.010767942 -0.097990245 -0.039033346
-0.11384308 0.12185608 -0.038462862 -0.11051761 0.026431441 -0.03099123 -0.016816428 -0.056469772
00000000: aae6 f83b edaa b13d 93e0 87bd 5db6 fa3d
00000010: 39e1 da3d 7877 dabc d40c e53d bc70 353b
00000020: 27ac e03c d2f3 b93c e974 873d 3600 b93d
00000030: 720f aa3d 0b34 913d 146e fc3d d410 ce3c
00000040: 3d01 ab3d 7236 953d 395d bd3c bd0a 7f3a
00000050: cdec 5abd 6e17 023c 2fb7 e8bd 9360 ec3d
00000060: 244b 0ebc bb1b 00be 25cc 8c3d dd8a 953d
00000070: 56c2 d1bb 1e43 afbc c071 d3bd 0264 5c3d
00000080: d96b c2bd 85b1 883d edf0 933d d30d 09bd
00000090: 807c 9cbd 73dc e3bc ef79 e43d 2076 dc3d
000000a0: 2b2d 56bd 253d b53d 7c4c ffbc 154b 14bc
000000b0: c8c4 97bc 370e 75bc 6b59 92bd 3eaf c23d
000000c0: 0df5 b43d 794d a63b 1793 01bd 32ad 283d
000000d0: 555f a1bd 066c 303c 1caf c8bd 6ee1 1fbd
000000e0: 9026 e9bd ae8f f93d 3c8b 1dbd 0f57 e2bd
000000f0: c086 d83c 52e1 fdbc 9bc2 89bc d94c 67bd

conv1.lin.weight f4 [64, 7]
-0.20724052 0.52783036 0.12172304 -0.018915161 0.40995345 -0.4595116 0.38374436 -0.46669632
0.16088182 -0.13647926 -0.0006725302 -0.22225462 0.27119446 0.11309777 -0.32765645 0.20697196
0.01072163 -0.023417542 0.07516923 0.34000176 0.18195853 0.10364041 -0.07285341 0.19270587
-0.13533035 -0.32195222 -0.19155967 -0.2767777 -0.057497077 0.34013274 0.3003936 -0.27133808
0.32068858 0.20765455 -0.38516703 0.06348888 0.07843645 -0.089976415 -0.100226454 -0.28058332
-0.23443691 -0.022650631 -1.1906397 0.7099852 -0.07582912 0.11659965 -0.44006208 0.10421046
0.11056533 0.17683083 -0.27979589 -0.4191196 0.094749264 0.17154677 -0.22779028 0.24581517
0.40125498 0.5204358 0.30865285 0.3757141 -0.2081485 0.39733225 -0.155766 0.467347
0.0017974081 -0.2048469 -0.2423753 -0.032618806 -0.12579243 -0.15948066 0.34760338 0.43196997
0.5449097 -0.015010259 0.39245656 -0.2635968 -0.09618119 -0.15150826 -0.33122075 -0.09421447
-0.29336005 0.10040172 0.025181387 -0.16403176 0.3443205 -0.5675695 0.18251692 -0.37453854
0.28066784 -0.4129035 -0.13451101 0.29692382 0.13642538 0.13721225 0.2883254 -0.09458515
-0.011551051 0.013587306 0.10488857 0.026344711 0.11082505 0.22295715 -0.16686364 -0.18662512
-0.015169614 -0.102196455 0.11892366 0.015436865 0.18738692 -0.14772193 -0.10472927 0.41478246
-0.045870613 0.4836397 0.35360652 -0.23713958 -0.19749585 -0.19910596 0.0617439 0.43885317
-0.13888927 -0.34912196 0.04402229 -0.15312816 0.2240967 -0.04225132 0.082769655 -0.11790515
-0.21543859 0.28236073 0.20664217 -0.11080208 0.0422423 -0.3233006 0.00081552943 0.14872505
0.22021355 -0.140166 -0.22177324 0.3364938 -0.045167457 0.052798864 0.0002612328 -0.15938102
-0.3549609 -0.20475686 0.09025414 -0.38658717 0.029739393 0.21414796 -0.27341217 0.16154104
0.2812692 -0.25083596 0.32188043 -0.043045085 -0.0009408326 0.28742808 0.35929433 -0.13869669
-0.34053063 0.5599672 0.34409577 -0.4293772 0.25643378 0.15562497 -0.26548982 -0.14739652
0.33670914 0.1524423 -0.12236753 0.15409565 0.26632395 0.186155 0.43579516 -0.014053817
0.0124719 0.008031127 0.07946356 0.21678202 -0.0067568077 0.5993929 0.07440485 -0.19936717
0.07686419 -0.13641235 -0.22728251 0.20610934 0.20933834 0.4020281 -0.16379724 0.14995342
-0.19275197 -0.42326665 0.08146253 0.1282729 -0.120153666 0.2604789 -0.29520452 -0.34234604
-0.066606365 -0.15875736 -0.11975031 -0.66438466 0.13579932 -0.4923035 0.14846863 -0.40464324
0.012215564 0.12149867 0.45282146 -0.2905119 0.37453225 0.27850658 0.306171 -0.40913266
0.008814731 0.17832935 -0.021307802 0.093941785 0.22104642 0.022151718 0.06462453 -0.1303422
0.23963311 -0.2960579 -0.32219777 0.35664335 0.08911295 0.18521324 -0.0982924 -0.27768666
-0.2331842 0.35968047 0.08902775 0.3360212 -0.17391066 -0.051975224 -0.27681488 -0.07626994
0.14233287 -0.30682844 0.026458794 0.3119884 -0.21263795 -0.20588149 0.14949392 0.083576895
-0.02509841 -0.356898 -0.036457933 0.27238455 -0.15742302 0.16422518 0.41677618 -0.26089358
00000000: dc36 54be e41f 073f ee49 f93d f8f3 9abc
00000010: 6be5 d13e 1b45 ebbe 247a c43e d2f2 eebe
00000020: 34be 243e 38c1 0bbe bd4c 30ba b796 63be
00000030: 00da 8a3e ce9f e73d 96c2 a7be 75f0 533e
00000040: c7a9 2f3c 25d6 bfbc 53f2 993d b614 ae3e
00000050: 5653 3a3e 6c41 d43d 2b34 95bd b054 453e
00000060: 0a94 0abe ecd6 a4be 3828 44be cfb5 8dbe
00000070: 0e82 6bbd e125 ae3e 31cd 993e d3ec 8abe
00000080: 4b31 a43e 65a3 543e 9d34 c5be 7506 823d
00000090: 4aa3 a03d 8e45 b8bd 8743 cdbd 9ea8 8fbe
000000a0: 3b10 70be d18d b9bc e266 98bf 97c1 353f
000000b0: 4c4c 9bbd cccb ee3d d14f e1be 4b6c d53d
000000c0: 1370 e23d 2413 353e 6841 8fbe d896 d6be
000000d0: e70b c23d f5a9 2f3e db41 69be f9b6 7b3e
000000e0: 4b71 cd3e 483b 053f bf07 9e3e 995d c03e
000000f0: e124 55be 226f cb3e 1f81 1fbe 1b48 ef3e
00000100: 0297 eb3a 63c3 51be 3b31 78be 4c9b 05bd
00000110: bbcf 00be e64e 23be 12f9 b13e 2b2b dd3e
00000120: 347f 0b3f 97ed 75bc 11f0 c83e 29f6 86be
00000130: a5fa c4bd fb24 1bbe c495 a9be 84f3 c0bd
00000140: 4a33 96be 6b9f cd3d 3249 ce3c f1f7 27be
00000150: c74a b03e 3c4c 11bf b7e5 3a3e 84c3 bfbe
00000160: b2b3 8f3e 1668 d3be 41bd 09be 6606 983e
00000170: 18b3 0b3e 5e81 0c3e 639f 933e dcb5 c1bd
00000180: 9f40 3dbc 4b9d 5e3c d2cf d63d ddd0 d73c
00000190: 3ef8 e23d e14e 643e 4dde 2abe a81a 3fbe
000001a0: f989 78bc 604c d1bd 3f8e f33d e8ea 7c3c
000001b0: 5be2 3f3e 6b44 17be 4d7c d6bd 5e5e d43e
000001c0: d3e2 3bbd 9f9f f73e ea0b b53e b8d4 72be
000001d0: 5a3c 4abe 6fe2 4bbe 2ce7 7c3d 5db1 e03e
000001e0: fd38 0ebe 1dc0 b2be b750 343d a1cd 1cbe
000001f0: 9b79 653e b80f 2dbd 2383 a93d 4178 f1bd
00000200: ef9b 5cbe 9691 903e 019a 533e 33ec e2bd
00000210: 4306 2d3d a887 a5be 41c9 553a 614b 183e
00000220: a97f 613e ad87 0fbe 8618 63be ea48 ac3e
00000230: 8301 39bd 9f43 583d 13f6 8839 c734 23be
00000240: 6fbd b5be c8ab 51be 2ad7 b83d c1ee c5be
00000250: 07a0 f33c 9a49 5b3e aefc 8bbe 046b 253e
00000260: 8402 903e 926d 80be 83cd a43e 0b50 30bd
00000270: 35a2 76ba c629 933e 6df5 b73e 8106 0ebe
00000280: 085a aebe 035a 0f3f 522d b03e 54d7 dbbe
00000290: 4a4b 833e 275c 1f3e 48ee 87be 1def 16be
000002a0: 2465 ac3e d619 1c3e d49b fabd 40cb 1d3e
000002b0: 9d5b 883e 6b9f 3e3e 8b20 df3e fb41 66bc
000002c0: f156 4c3c fd94 033c cabd a23d 1bfc 5d3e
000002d0: 3668 ddbb d071 193f 9261 983d e826 4cbe
000002e0: f96a 9d3d aeaf 0bbe bfbc 68be 540e 533e
000002f0: ca5c 563e a1d6 cd3e 77ba 27be 648d 193e
00000300: c660 45be 68b6 d8be d4d5 a63d f959 033e
00000310: 2013 f6bd 7e5d 853e 0c25 97be fb47 afbe
00000320: eb68 88bd 4a91 22be a73f f5bd 1d15 2abf
00000330: fa0e 0b3e 340f fcbe 2908 183e 662d cfbe
00000340: ca23 483c 4bd4 f83d 37d8 e73e fabd 94be
00000350: b1c2 bf3e 6a98 8e3e 72c2 9c3e d679 d1be
00000360: a96b 103c f89b 363e b38d aebc 8d64 c03d
00000370: fe59 623e 8577 b53c de59 843d 6d78 05be
00000380: 6262 753e e794 97be 1bf7 a4be f599 b63e
00000390: da80 b63d 8aa8 3d3e 874d c9bd f22c 8ebe
000003a0: d7c7 6ebe 0a28 b83e 2e54 b63d f90a ac3e
000003b0: a315 32be f9e3 54bd aeba 8dbe 6a33 9cbd
000003c0: b5bf 113e 9e18 9dbe 1dc0 d83c f2bc 9f3e
000003d0: c3bd 59be 99d2 52be ef14 193e 5d2a ab3d
000003e0: 2e9b cdbc 56bb b6be ea54 15bd fd75 8b3e
000003f0: 8033 21be a52a 283e b063 d53e d893 85be

conv1.lin.bias f4 [64]
-0.10995825 0.32960135 -0.19773272 0.346418 -0.046537746 0.26328102 0.16114253 0.18264975
0.16354497 0.08112446 0.015353491 0.3500791 0.1539172 0.24090894 0.012706039 0.002540055
0.3166582 0.073214814 0.21270593 -0.2186106 -0.23249142 0.20547777 -0.28856257 0.3912713
0.3880503 0.051807076 -0.0449523 0.16525494 0.3061222 0.2322389 0.23523676 -0.23162198
-0.10322797 0.28516456 -0.37752503 0.2907616 -0.12534605 0.18441525 -0.21417448 -0.11394426
0.28801614 -0.121514395 -0.16258408 0.30474082 0.19160938 -0.24471961 0.017723361 -0.30032444
-0.3324399 -0.36224967 -0.11274735 -0.3179624 0.1367032 0.012204396 -0.13865171 -0.2933679
-0.21786292 0.29113284 0.071826465 -0.10179301 0.3535884 0.019519871 0.048656624 0.054358266
00000000: ca31 e1bd 82c1 a83e 727a 4abe b35d b13e
00000010: 5d9e 3ebd c5cc 863e 8c02 253e 8908 3b3e
00000020: 5578 273e 9524 a63d 358d 7b3c 913d b33e
00000030: 789c 1d3e d5b0 763e fd2c 503c 0d77 263b
00000040: 0621 a23e a6f1 953d 95cf 593e 75db 5fbe
00000050: 3b12 6ebe c468 523e 79be 93be b654 c83e
00000060: 87ae c63e a833 543d e71f 38bd 9738 293e
00000070: 0dbc 9c3e 09d0 6d3e e8e1 703e 502e 6dbe
00000080: 3069 d3bd 1701 923e f64a c1be b4de 943e
00000090: b75a 00be 5ad7 3c3e 8e50 5bbe 9c5b e9bd
000000a0: da76 933e 8adc f8bd 717c 26be fd06 9c3e
000000b0: 4035 443e c797 7abe 9530 913c 20c4 99be
000000c0: 9035 aabe ca78 b9be 15e8 e6bd f8cb a2be
000000d0: ecfb 0b3e f2f4 473c b7fa 0dbe 5134 96be
000000e0: 7517 5fbe 5d0f 953e c119 933d db78 d0bd
000000f0: 8a09 b53e 23e8 9f3c 2b4c 473d c6a6 5e3d

bn1.weight f4 [64]
1.0712806 0.955031 1.0594426 0.98843867 0.91642636 1.0 0.9422064 1.0614551
1.0968089 0.9871019 1.0817665 0.9349525 1.0553399 0.9695962 1.0 1.0209339
1.0592551 1.0726881 1.084374 0.98655903 1.0519352 1.1630201 0.9602029 1.0743932
0.96391016 1.023317 0.936385 1.1536696 0.9837757 1.0635097 0.9855031 1.1542011
1.1085521 0.87396157 1.0205047 0.9414132 0.90562093 0.9140738 0.9452443 1.097825
0.8950016 1.2134705 0.9542833 0.9880467 1.027893 0.969168 1.0071882 0.99522954
1.0708951 1.1705344 1.0875249 0.9269812 0.8992885 1.0108076 1.012272 0.98384476
1.0843765 1.000931 0.9962549 1.0032647 0.9522979 1.0733256 1.1375253 1.0771781
00000000: b91f 893f e97c 743f d19b 873f 510a 7d3f
00000010: eb9a 6a3f 0000 803f 7034 713f c3dd 873f
00000020: 3c64 8c3f b6b2 7c3f 5377 8a3f 0c59 6f3f
00000030: 6115 873f 7537 783f 0000 803f f6ad 823f
00000040: ac95 873f d84d 893f c4cc 8a3f 228f 7c3f
00000050: d0a5 863f d8dd 943f dbcf 753f b785 893f
00000060: d1c2 763f 0dfc 823f edb6 6f3f 72ab 933f
00000070: b9d8 7b3f 1621 883f ee49 7c3f ddbc 933f
00000080: 09e5 8d3f f2bb 5f3f e69f 823f 7500 713f
00000090: c6d6 673f be00 6a3f 88fb 713f 8885 8c3f
000000a0: d31e 653f 0053 9b3f e94b 743f a1f0 7c3f
000000b0: ff91 833f 651b 783f 8beb 803f 5dc7 7e3f
000000c0: 1713 893f 12d4 953f 0434 8b3f a44e 6d3f
000000d0: c537 663f 2562 813f 2192 813f 40dd 7b3f
000000e0: d9cc 8a3f 821e 803f 900a 7f3f fa6a 803f
000000f0: ccc9 733f bc62 893f 6e9a 913f f9e0 893f

bn1.bias f4 [64]
-0.037294514 0.017348351 0.06624628 0.040722694 -0.060792487 0.0 -0.019848533 -0.041734084
0.07777678 -0.053539343 -0.042759992 -0.067876264 -0.044025645 -0.0321727 0.0 0.04543199
-0.014237718 -0.013751598 -0.032004748 -0.015143574 -0.0049658995 0.17388873 -0.05187527 0.17133398
0.005668541 0.031518746 -0.045358352 0.0061013745 -0.06691613 -0.006386096 -0.032327402 0.15013985
-0.047612846 -0.14295867 0.08434138 -0.05837953 -0.09608046 -0.0435694 -0.02033276 0.043780427
-0.00053447403 -0.085425235 -0.020264916 -0.020142412 0.07899564 0.019268058 0.011848861 -0.039531596
-0.023017103 0.17198081 -0.08169391 -0.049437553 -0.056931596 -0.020502424 0.019196648 -0.017478528
-0.038920548 0.0019192254 0.04648518 0.0608473 -0.017095689 -0.04192176 -0.015100461 -0.05636677
00000000: 22c2 18bd 211e 8e3c 21ac 873d d7cc 263d
00000010: 8b01 79bd 0000 0000 6499 a2bc 5cf1 2abd
00000020: 6f49 9f3d 124c 5bbd 1a25 2fbd b602 8bbd
00000030: 3c54 34bd 85c7 03bd 0000 0000 e516 3a3d
00000040: 5145 69bc 624e 61bc 6917 03bd c11c 78bc
00000050: fcb8 a2bb e30f 323e 2a7b 54bd 2d72 2f3e
00000060: 2bbf b93b cd19 013d aec9 39bd 0aee c73b
00000070: 530b 89bd 7542 d1bb bd69 04bd 43be 193e
00000080: b005 43bd c263 12be 2cbb ac3d 601f 6fbd
00000090: d5c5 c4bd d475 32bd e390 a6bc 1b53 333d
000000a0: f21b 0cba 6df3 aebd 9c02 a6bc b301 a5bc
000000b0: 77c8 a13d 0cd8 9d3c ba21 423c e2eb 21bd
000000c0: 5d8e bcbc bd1b 303e 234f a7bd 087f 4abd
000000d0: 1b31 69bd b3f4 a7bc 4a42 9d3c 212f 8fbc
000000e0: 276b 1fbd 858e fb3a 3e67 3e3d 053b 793d
000000f0: 420c 8cbc 27b6 2bbd ed67 77bc d8e0 66bd

bn1.running_mean f4 [64]
-0.8395856 0.48346952 -2.4638371 5.0607567 -0.33754817 -4.348618 1.933386 -0.1832815
0.47774932 -2.3890936 -4.136633 -2.127231 -2.3046145 -2.9782956 -3.9251041 -2.3935044
-1.754517 0.8396369 -1.05455 -1.8531965 -1.1841565 -1.5688696 -3.4961789 -3.5721931
-2.4607375 -4.2163444 -1.9381303 1.0096856 -1.2470499 -3.3011749 -5.649911 -1.326498
1.0507724 2.9200068 -1.7133749 2.739242 2.1381187 0.5688839 2.0125535 -2.7011788
1.5593994 -2.8801692 2.987646 -1.7859441 -0.62487525 0.25911212 -0.39422455 0.7792652
-0.049687605 -2.6127522 -4.364182 5.4325476 3.751748 -4.3733187 -1.3656063 -3.6691916
-1.6601048 -1.5153902 2.4606366 -1.4207224 3.3793705 -2.5246043 -1.2013545 -1.6841321
00000000: 15ef 56bf 5189 f73e 82af 1dc0 b8f1 a140
00000010: 1dd3 acbe e127 8bc0 3179 f73f 25ae 3bbe
00000020: 8f9b f43e e9e6 18c0 4c5f 84c0 8d24 08c0
00000030: ce7e 13c0 659c 3ec0 e834 7bc0 2d2f 19c0
00000040: 0394 e0bf 72f2 563f 7ffb 86bf 8b35 edbf
00000050: 7192 97bf b8d0 c8bf 65c1 5fc0 d09e 64c0
00000060: b97c 1dc0 4bec 86c0 a714 f8bf 613d 813f
00000070: 559f 9fbf 7346 53c0 12cc b4c0 b0ca a9bf
00000080: b67f 863f 64e1 3a40 de4f dbbf be4f 2f40
00000090: f0d6 0840 60a2 113f adcd 0040 1de0 2cc0
000000a0: 669a c73f b154 38c0 9835 3f40 d199 e4bf
000000b0: d3f7 1fbf 58aa 843e cdd7 c9be ed7d 473f
000000c0: 3b85 4bbd 5537 27c0 61a7 8bc0 6ed7 ad40
000000d0: a41c 7040 3af2 8bc0 30cc aebf 09d4 6ac0
000000e0: 507e d4bf 4ef8 c1bf 127b 1d40 3bda b5bf
000000f0: 9b47 5840 1e93 21c0 fcc5 99bf a491 d7bf

bn1.running_var f4 [64]
3.2610695 5.2137685 2.1521847 18.941637 6.3437686 18.672699 4.3644524 3.5782666
3.2428849 1.2034755 8.153159 6.3633194 6.4027386 1.648072 16.331892 6.237515
4.959738 3.2574651 2.764846 3.9495778 3.763958 5.436773 12.8078575 5.5669875
6.2330275 24.452208 1.1691698 7.6825194 0.8614724 6.7246423 10.320959 3.7707057
3.079572 4.655803 1.2082713 23.423391 5.5841436 1.4143624 13.287834 3.3341656
5.3695507 3.1913662 12.685055 3.36514 4.3547044 1.1763506 2.0798142 2.3019934
2.4486043 4.771348 24.049948 38.340202 15.493235 5.5350595 6.7000856 8.025034
4.2027617 4.4832883 10.606204 7.9874706 5.661804 4.2224226 1.8796601 5.0300775
00000000: 5db5 5040 31d7 a640 65bd 0940 7988 9741
00000010: 2700 cb40 b061 9541 98a9 8b40 5202 6540
00000020: 6d8b 4f40 7c0b 9a3f 5773 0241 50a0 cb40
00000030: 3ce3 cc40 06f4 d23f b7a7 8241 b999 c740
00000040: 2cb6 9e40 4f7a 5040 3df3 3040 e2c5 7c40
00000050: b0e4 7040 0bfa ad40 fcec 4c41 c324 b240
00000060: f674 c740 1f9e c341 5ba7 953f 33d7 f540
00000070: 7589 5c3f 4530 d740 a622 2541 3e53 7140
00000080: b517 4540 57fc 9440 a2a8 9a3f 1b63 bb41
00000090: 4eb1 b240 d409 b53f f89a 5441 f862 5540
000000a0: 5cd3 ab40 583f 4c40 fcf5 4a41 745e 5740
000000b0: bd59 8b40 a892 963f ad1b 0540 dc53 1340
000000c0: efb5 1c40 e2ae 9840 4b66 c041 5e5c 1942
000000d0: 4ae4 7741 351f b140 1a67 d640 8a66 0041
000000e0: 067d 8640 1977 8f40 03b3 2941 5c99 ff40
000000f0: 802d b540 161e 8740 b498 f03f 65f6 a040

conv2.nn.0.weight f4 [64, 64]
-0.039722413 0.056752514 -0.09814489 -0.039593183 -0.04035966 -0.08194811 0.02546837 -0.12494157
-0.16103299 -0.12867805 0.1042317 -0.031801548 0.06442947 -0.25713342 0.06912539 0.09848842
-0.1448879 -0.0316924 -0.07893154 -0.21859132 -0.021963475 -0.15553942 -0.12017727 -0.041534845
0.008569762 0.08467304 0.1461417 -0.095221564 -0.09205611 0.07601118 -0.07483595 -0.21808077
-0.13357762 0.039215263 -0.08118907 0.09099763 -0.09295147 0.019219842 -0.10199271 -0.007550793
0.059334915 0.057895042 0.04320097 0.041353878 -0.122123405 -0.12847525 0.0753571 -0.08880756
0.05468029 0.02721381 0.13834754 0.030067159 0.07904415 0.1166821 -0.006112389 0.10094864
0.17861293 -0.10790866 -0.022334876 0.08351881 0.07210967 0.039250728 -0.049651355 0.010101651
-0.0051377094 -0.0024965615 -0.16032892 0.073206805 0.038459677 0.008396201 -0.014838899 0.064420074
0.043502085 -0.017424352 0.03178865 -0.031542756 0.060366325 -0.07409996 0.15371443 -0.04990235
0.058667384 0.00023358017 0.06513119 -0.2225689 -0.040220123 -0.017734215 -0.057176545 0.03610007
0.011333238 -0.03954173 -0.009463895 0.026260788 -0.1245168 0.12838237 0.025172783 -0.0026308382
-0.06816559 -0.11102262 -0.016713902 -0.085973255 0.0033455035 0.0615697 0.08728901 -0.00041095263
0.05517617 0.058073882 -0.09542761 -0.014310181 -0.1187594 0.061416812 -0.068264864 0.10446242
-0.004665603 0.21243238 -0.072765805 -0.022207242 0.106264226 -0.03482836 -0.16404487 -0.008631846
-0.035842367 0.07601819 0.06389365 -0.060303308 -0.1328067 0.083486095 -0.1265502 -0.016422456
0.046787146 0.07130457 0.030931747 -0.15053599 -0.072830796 0.2568687 -0.11418793 -0.11219919
0.033707876 0.014960224 0.10383469 -0.013707786 -0.07739376 0.11448439 -0.20072612 0.0006191376
-0.021193724 -0.03769998 -0.014417524 0.16152531 -0.024549903 0.16421932 -0.12345808 0.04637358
-0.08397558 0.052066386 0.20469597 -0.024635382 0.0015273633 -0.013164777 0.07167732 0.06968979
0.080871016 0.054796267 0.0015474061 -0.026727147 0.025621772 -0.061941225 -0.08851969 0.10367245
0.050934806 0.091467015 -0.016375855 0.041676663 -0.067425154 -0.0054230713 0.017718293 0.091605015
0.051423434 -0.0552682 -0.041716088 -0.00089423725 0.035844386 -0.08953447 0.010913429 -0.057681493
0.03125285 -0.10434662 0.06492932 0.1238241 -0.033307347 0.0012952388 -0.10426368 -0.037873823
-0.12005645 0.08362867 0.05979715 -0.104118824 0.022463083 0.06328376 -0.14577734 -0.008175792
0.010033993 -0.03692571 -0.11861092 -0.044746455 0.044278517 0.003666387 0.033630624 -0.04584882
-0.038703896 -0.0008277231 0.085310906 0.023101296 -0.037361898 0.049111392 -0.004087161 0.03770869
-0.10901897 0.027494168 0.10239065 0.17764784 -0.11573761 -0.15719055 -0.10172166 0.04602928
-0.11271135 -0.04329236 -0.02031521 -0.03287796 0.095632486 0.03353267 -0.04573444 0.01688275
0.075222865 -0.041906234 0.020935476 -0.015685037 0.083444424 -0.002657599 0.032746784 0.072327554
-0.11590767 -0.12353729 0.0736839 0.04448222 0.04142773 -0.06894607 0.027643537 0.01943714
-0.040638603 0.033892576 0.013074997 0.048048884 -0.11526654 0.051973805 0.122551955 -0.022245165
00000000: f8b3 22bd 5375 683d 3000 c9bd 762c 22bd
00000010: 2c50 25bd 69d4 a7bd 0ba3 d03c 5ee1 ffbd
00000020: d5e5 24be 2ec4 03be 6e77 d53d 5742 02bd
00000030: 99f3 833d fea6 83be 9d91 8d3d 4cb4 c93d
00000040: 7e5d 14be e4cf 01bd dca6 a1bd 67d6 5fbe
00000050: bfec b3bc ba45 1fbe 801f f6bd 7120 2abd
00000060: 3068 0c3c 0f69 ad3d 2ba6 153e 8603 c3bd
00000070: ea87 bcbd c0ab 9b3d 9743 99bd 9150 5fbe
00000080: 92c8 08be 2fa0 203d 7546 a6bd f75c ba3d
00000090: 575d bebd ee72 9d3c 8ee1 d0bd a46c f7bb
000000a0: 2b09 733d 5a23 6d3d 80f3 303d af62 293d
000000b0: d61b fabd 048f 03be d354 9a3d bde0 b5bd
000000c0: 71f8 5f3d 7fef de3c faaa 0d3e 674f f63c
000000d0: e6e1 a13d 06f7 ee3d 6f4a c8bb 29be ce3d
000000e0: 4fe6 363e 37ff dcbd a1f7 b6bc e90b ab3d
000000f0: 3cae 933d 5fc5 203d 385f 4bbd 6581 253c
00000100: 3b5a a8bb 5a9d 23bb 442d 24be 73ed 953d
00000110: e587 1d3d 3890 093c da1e 73bc acee 833d
00000120: 3e2f 323d 84bd 8ebc d134 023d fa32 01bd
00000130: ae42 773d b8c1 97bd 5167 1d3e 6866 4cbd
00000140: 364d 703d 33ed 7439 8063 853d 1ae9 63be
00000150: dbbd 24bd 5847 91bc f431 6abd abdd 133d
00000160: 0caf 393c 82f6 21bd 740e 1bbc dd20 d73c
00000170: aa02 ffbd ab76 033e 2737 ce3c 246a 2cbb
00000180: 679a 8bbd d45f e3bd 98eb 88bc bf12 b0bd
00000190: 3c40 5b3b 8230 7c3d 95c4 b23d 2175 d7b9
000001a0: 6800 623d e1de 6d3d 8d6f c3bd 4075 6abc
000001b0: 2138 f3bd 3290 7b3d 73ce 8bbd 65f0 d53d
000001c0: eae1 98bb e087 593e 3d06 95bd f6eb b5bc
000001d0: 0fa1 d93d 2fa8 0ebd 61fb 27be 966c 0dbc
000001e0: 72cf 12bd 6daf 9b3d adda 823d 9a00 77bd
000001f0: 7bfe 07be c2fa aa3d 6096 01be 6388 86bc
00000200: e1a3 3f3d 2108 923d 9364 fd3c 1b26 1abe
00000210: 5028 95bd 4b84 833e 5ddb e9bd b0c8 e5bd
00000220: 4511 0a3d ba1b 753c 48a7 d43d 9f96 60bc
00000230: 9f80 9ebd cb76 ea3d 268b 4dbe 9f4d 223a
00000240: 769e adbc 4b6b 1abd 7b37 6cbc e466 253e
00000250: e11c c9bc 1c29 283e 97d7 fcbd 39f2 3d3d
00000260: 64fb abbd 9043 553d d29b 513e 24d0 c9bc
00000270: cf31 c83a 14b1 57bc 8fcb 923d 85b9 8e3d
00000280: b49f a53d 0d72 603d 55d2 ca3a e4f2 dabc
00000290: c0e4 d13c 15b6 7dbd d049 b5bd 3952 d43d
000002a0: 04a1 503d 0f53 bb3d a826 86bc 26b5 2a3d
000002b0: 3316 8abd 05b4 b1bb f425 913c 699b bb3d
000002c0: 61a1 523d e860 62bd 7dde 2abd 3f6b 6aba
000002d0: 90d1 123d d95d b7bd 3dce 323c 6e43 6cbd
000002e0: fd02 003d aeb3 d5bd aaf9 843d 7d97 fd3d
000002f0: 496d 08bd 01c5 a93a 3288 d5bd 9521 1bbd
00000300: 28e0 f5bd 8245 ab3d dbed 743d 403c d5bd
00000310: 8004 b83c ea9a 813d a846 15be c2f3 05bc
00000320: 9e65 243c 6a3f 17bd 48ea f2bd 0f48 37bd
00000330: 645d 353d c447 703b 44c0 093d f9cb 3bbd
00000340: fa87 1ebd 8ffb 58ba 7cb7 ae3d ee3e bd3c
00000350: ca08 19bd 0729 493d 97ed 85bb 6d74 1a3d
00000360: 5645 dfbd 733b e13c 30b2 d13d 51e9 353e
00000370: d707 edbd 8ff6 20be 7253 d0bd 3389 3c3d
00000380: 35d5 e6bd 5453 31bd 156c a6bc 0aab 06bd
00000390: f7da c33d 8e59 093d 0954 3bbd b14d 8a3c
000003a0: 720e 9a3d dfa5 2bbd e080 ab3c e87d 80bc
000003b0: e9e4 aa3d 1d2b 2ebb 7e21 063d 7820 943d
000003c0: 0061 edbd 1e01 fdbd 96e7 963d fd32 363d
000003d0: 20b0 293d 9933 8dbd b374 e23c a33a 9f3c
000003e0: aa74 26bd f1d2 0a3d 8338 563c e8ce 443d
000003f0: dd10 ecbd 7ce2 543d 85fc fa3d 7e3b b6bc

conv2.nn.0.bias f4 [64]
0.09080782 -0.04862076 -0.10958122 0.07921206 0.107350074 -0.0302437 0.041481763 -0.023382006
0.25162178 -0.010220507 0.07896219 -0.03586664 -0.06855968 0.045145594 -0.025979377 0.300428
0.12089438 0.12441162 -0.13594197 0.006030846 0.15710902 0.10675088 0.037180312 0.03047815
-0.0876667 0.056156278 -0.03231019 -0.021268195 -0.031531256 0.14889626 0.15150338 0.08672298
0.075428404 -0.14538807 -0.051246587 0.1794341 0.0037656163 0.15233794 0.21302304 0.1735669
0.09688497 -0.10405587 -0.033899304 0.12917823 0.07299224 0.07560435 0.086300716 0.2234039
0.13102032 0.028209396 -0.023786841 0.068090804 -0.014704285 -0.067560494 0.06651474 0.0063320855
0.16779958 0.27520263 0.09836654 0.12656398 0.15127313 0.2956986 0.072479986 -0.05782921
00000000: 73f9 b93d 9026 47bd 1e6c e0bd ef39 a23d
00000010: 5bda db3d a3c1 f7bc c8e8 293d 9f8b bfbc
00000020: 92d4 803e ea73 27bc eeb6 a13d e6e8 12bd
00000030: 0469 8cbd 96ea 383d b4d2 d4bc b3d1 993e
00000040: 7997 f73d 85cb fe3d 5f34 0bbe 679e c53b
00000050: 30e1 203e 35a0 da3d 624a 183d 50ad f93c
00000060: 998a b3bd 2004 663d b157 04bd a33a aebc
00000070: eb26 01bd 4378 183e b423 1b3e d19b b13d
00000080: 357a 9a3d 9ce0 14be f1e7 51bd 93bd 373e
00000090: 8fc8 763b 7afe 1b3e b622 5a3e 85bb 313e
000000a0: a16b c63d 3e1b d5bd ffd9 0abd 4c47 043e
000000b0: f57c 953d 74d6 9a3d 6ebe b03d fec3 643e
000000c0: 312a 063e 6417 e73c 9fdc c2bc 3173 8b3d
000000d0: 3eea 70bc 285d 8abd e138 883d 627d cf3b
000000e0: a7d3 2b3e 5ce7 8c3e 6674 c93d fd99 013e
000000f0: 58e7 1a3e cf65 973e 6370 943d 52de 6cbd

conv2.nn.2.weight f4 [64, 64]
0.13871245 -0.12027297 -0.07353322 0.008845981 -0.0014619662 -0.048110332 0.10311452 0.07766335
-0.16027239 -0.057422522 0.15252079 -0.16180739 0.009609971 0.08460132 -0.017470755 -0.13173935
0.054191414 -0.15835701 -0.083535455 0.085389405 -0.024961736 -0.053558066 -0.060836118 0.0402301
0.086621076 -0.08708876 0.02922256 0.013895814 -0.048454873 -0.12611072 -0.14062476 0.0036626267
0.033187605 0.0029662037 0.073219106 -0.09723349 -0.005352246 -0.011458417 -0.20105459 0.0124361385
0.05175165 0.104106456 -0.038774334 -0.1833982 0.0904083 -0.059416078 0.023173474 -0.02629792
-0.120133854 -0.10042097 -0.12895134 0.039227825 -0.009669499 0.051010236 0.0076431455 0.04695764
0.041825555 -0.12886773 0.07989807 0.06520192 0.08463637 0.08150362 0.06887612 0.07012939
-0.18781303 -0.090361066 -0.060642585 -0.054852474 0.017268289 0.050215457 0.084775195 -0.1076807
0.08180634 0.14031115 0.029717213 -0.09672381 -0.13610764 0.07097518 -0.011321732 -0.04672271
-0.120692596 -0.001368804 0.08270512 0.024376001 -0.048989445 -0.13037266 -0.025904985 -0.07711902
-0.00650626 0.123595506 0.005183768 0.02878516 0.053549506 -0.10640823 -0.09277308 -0.012139757
-0.014893431 0.04456923 -0.17744099 -0.0446519 0.047660727 0.04789287 -0.08768979 0.118435495
0.043468997 0.086596176 0.09292272 -0.06378464 0.08061271 0.021048928 0.06898777 -0.0047027394
0.04930603 0.107249156 0.026371771 0.075282976 0.004526879 0.07711088 -0.028951759 0.004596046
-0.06345341 0.010873937 -0.0638928 0.0954118 -0.057207365 -0.065239854 -0.08931705 -0.038494438
-0.07608382 -0.036418702 0.04554944 0.0041560163 0.016603032 -0.12918791 -0.144779 -0.011374048
-0.11970182 -0.008687791 0.106036924 0.048731584 -0.14976017 0.1052626 0.031588934 0.13688704
0.16969606 -0.043644678 -0.08743466 -0.04531879 0.07833651 0.08488397 0.06756348 -0.08240664
-0.0057352413 -0.08460775 0.03300148 -0.09877861 -0.13044484 -0.07276934 0.05426225 0.07205118
-0.035041176 -0.06642591 -0.0023225988 0.012138172 0.055612527 -0.103022754 0.012994238 -0.06959264
0.107264884 -0.07187759 0.08657116 0.040586103 -0.12433898 -0.053452548 -0.14077894 0.09255558
0.059977088 -0.14187233 0.03551989 0.022736302 0.031147834 0.055410087 -0.103099965 -0.13167536
0.005150163 -0.0015494388 0.14639585 0.09234755 -0.11187549 0.10649988 0.007573263 0.055457603
-0.11700633 0.09500097 0.016231606 -0.09474273 0.0260903 -0.08246357 0.10090291 0.02747401
0.08551898 0.00545162 -0.24998432 -0.059107672 0.013069123 0.018733049 0.045055334 -0.016506178
-0.03683388 0.07026338 -0.09787833 -0.014114121 -0.020616172 -0.19025928 0.057093054 0.00017176001
-0.1110602 0.053391248 0.13844469 0.049907215 -0.11369232 0.008089698 0.15639679 0.14651479
0.034535583 0.0037659402 -0.00040069234 -0.026369635 -0.024289291 0.044919375 0.053005032 -0.07271696
0.09540569 0.08467961 0.063182026 -0.082470864 -0.02510046 0.11800288 0.015082293 0.08408107
0.07130399 -0.042005558 0.06819617 -0.020548398 -0.063952446 0.055964872 -0.14120187 0.015410416
0.15241179 0.08116787 -0.22627376 -0.058620263 -0.053572077 -0.14100607 0.038028184 0.05685383
00000000: a30a 0e3e ad51 f6bd 9698 96bd bcee 103c
00000010: 729f bfba 570f 45bd b52d d33d f60d 9f3d
00000020: 721e 24be e133 6bbd 692e 1c3e d6b0 25be
00000030: 2473 1d3c 7543 ad3d d41e 8fbc aee6 06be
00000040: d1f7 5d3d 5728 22be a314 abbd a4e0 ae3d
00000050: 8e7c ccbc b45f 5bbd 4b2f 79bd 51c8 243d
00000060: 6466 b13d 985b b2bd 2664 ef3c 45ab 633c
00000070: 9e78 46bd 2b23 01be f0ff 0fbe ae08 703b
00000080: baef 073d a464 423b e6f3 953d 5a22 c7bd
00000090: e561 afbb 16bc 3bbc 41e1 4dbe f2c0 4b3c
000000a0: 8af9 533d c435 d53d d6d1 1ebd bdcc 3bbe
000000b0: fd27 b93d 465e 73bd 4cd6 bd3c bc6e d7bc
000000c0: bd08 f6bd 82a9 cdbd d20b 04be 5bad 203d
000000d0: d16c 1ebc 1cf0 503d 5a73 fa3b a856 403d
000000e0: 4651 2b3d e7f5 03be 99a1 a33d 9688 853d
000000f0: d555 ad3d 5feb a63d ec0e 8d3d ff9f 8f3d
00000100: 0f52 40be 390f b9bd 5c64 78bd fdac 60bd
00000110: 3a76 8d3c b9ae 4d3d 9e9e ad3d b387 dcbd
00000120: 158a a73d baad 0f3e 8371 f33c 2217 c6bd
00000130: cd5f 0bbe 6f5b 913d c97e 39bc 5060 3fbd
00000140: ae2d f7bd 7169 b3ba 4d61 a93d 2eb0 c73c
00000150: 28a9 48bd 6980 05be b136 d4bc 94f0 9dbd
00000160: 7732 d5bb a41f fd3d 99dc a93b dbce eb3c
00000170: ba56 5b3d 8fec d9bd d0ff bdbd d5e5 46bc
00000180: 9403 74bc 3a8e 363d 17b3 35be e9e4 36bd
00000190: e537 433d 502b 443d b496 b3bd 4f8e f23d
000001a0: 8c0c 323d 5659 b13d 444e be3d 85a1 82bd
000001b0: 4718 a53d cd6e ac3c 7649 8d3d 7019 9abb
000001c0: 1ff5 493d 72a5 db3d 9d09 d83c f62d 9a3d
000001d0: 3756 943b 4fec 9d3d 3d2c edbc 6e9a 963b
000001e0: ddf3 81bd 9928 323c 3ada 82bd 4367 c33d
000001f0: 4552 6abd 799c 85bd dceb b6bd 58ac 1dbd
00000200: d5d1 9bbd c72b 15bd 0d92 3a3d 312f 883b
00000210: 1503 883c d649 04be f240 14be 375a 3abc
00000220: 3a26 f5bd 3d57 0ebc e329 d93d c59a 473d
00000230: bb5a 19be eb93 d73d 6663 013d 1e2c 0c3e
00000240: cec4 2d3e c3c4 32bd f110 b3bd 32a0 39bd
00000250: e46e a03d a6d7 ad3d b95e 8a3d d0c4 a8bd
00000260: b1ee bbbb d446 adbd 8f2c 073d 714c cabd
00000270: 5593 05be 1708 95bd 1842 5e3d 928f 933d
00000280: 5687 0fbd 4f0a 88bd be36 18bb 2fdf 463c
00000290: f6c9 633d 98fd d2bd c9e5 543c 9686 8ebd
000002a0: b1ad db3d 8f34 93bd 384c b13d 9d3d 263d
000002b0: 6fa5 febd 0ff1 5abd 5b28 10be c88d bd3d
000002c0: 89aa 753d fb46 11be 4e7d 113d 7b41 ba3c
000002d0: be29 ff3c b0f5 623d 1326 d3bd e8d5 06be
000002e0: b3c2 a83b 8a16 cbba cbe8 153e b620 bd3d
000002f0: fa1e e5bd 9c1c da3d 2229 f83b 8327 633d
00000300: 04a1 efbd de8f c23d 25f8 843c 7a08 c2bd
00000310: 53bb d53c a9e2 a8bd 2fa6 ce3d 2d11 e13c
00000320: 9324 af3d 81a3 b23b e4fb 7fbe e31a 72bd
00000330: e01f 563c 0d76 993c f18b 383d f737 87bc
00000340: 1fdf 16bd 3fe6 8f3d 6f74 c8bd ea3e 67bc
00000350: 3fe3 a8bc 54d3 42be 68da 693d 7a1a 3439
00000360: 8873 e3bd c8b0 5a3d 72c4 0d3e 826b 4c3d
00000370: 85d7 e8bd a78a 043c 7b26 203e f907 163e
00000380: 2f75 0d3d fecd 763b 0414 d2b9 2205 d8bc
00000390: 56fa c6bc 61fd 373d ce1b 593d a1ec 94bd
000003a0: 0f64 c33d 816c ad3d 9465 813d 7ce6 a8bd
000003b0: 7b9f cdbc 7eab f13d b91b 773c b232 ac3d
000003c0: d407 923d 050e 2cbd 6faa 8b3d 1d55 a8bc
000003d0: 80f9 82bd 6c3b 653d 3997 10be f87b 7c3c
000003e0: d611 1c3e 573b a63d 4fb4 67be cd1b 70bd
000003f0: 656e 5bbd e563 10be 71c3 1b3d 90df 683d

conv2.nn.2.bias f4 [64]
-0.0055238223 0.031309918 0.01199473 0.08581457 0.071877845 -0.06398702 -0.11728063 -0.049267646
0.10034828 0.11679029 0.109853946 0.11349137 0.0772859 -0.08792234 -0.027957207 -0.008108162
0.05097721 -0.06985782 0.11203581 0.031667784 0.0912176 0.09849623 0.09342557 0.021356126
0.062233496 0.034796577 -0.07490321 0.124263115 0.051482894 -0.06333162 0.02166273 0.04414223
-0.12425174 -0.017840369 0.044525813 -0.07606858 -0.11060897 0.07430982 0.025414977 0.031240627
-0.028009837 -0.013915521 0.0741516 0.045953482 0.059702992 -0.04649941 -0.031179931 -0.069739126
-0.108153746 0.022113573 -0.117242455 -0.05231688 0.01683774 -0.07164683 -0.05747743 -0.0039572497
0.09310689 0.114457905 0.12427185 -0.024886215 -0.046695307 0.07117294 -0.12456859 -0.11834138
00000000: 2e01 b5bb d43e 003d 8b85 443c 8dbf af3d
00000010: b134 933d a00b 83bd d430 f0bd dfcc 49bd
00000020: 6683 cd3d bf2f ef3d 1bfb e03d 2a6e e83d
00000030: 1248 9e3d a110 b4bd 8306 e5bc 19d8 04bc
00000040: 7bcd 503d 9e11 8fbd 0873 e53d 14b6 013d
00000050: 4bd0 ba3d 64b8 c93d e855 bf3d 0bf3 ae3c
00000060: 8de8 7e3d db86 0e3d db66 99bd a97d fe3d
00000070: badf 523d 02b4 81bd 0a76 b13c 7cce 343d
00000080: b277 febd f725 92bc b360 363d d8c9 9bbd
00000090: f586 e2bd bf2f 983d 1233 d03c 58ec ff3c
000000a0: e374 e5bc edfd 63bc cbdc 973d b839 3c3d
000000b0: 208b 743d 2a76 3ebd 0e6d ffbc 63d3 8ebd
000000c0: b67f ddbd 8627 b53c d01c f0bd 3a4a 56bd
000000d0: 4def 893c 93bb 92bd 746d 6bbd d1ab 81bb
000000e0: d3ae be3d e868 ea3d 3d82 fe3d 2dde cbbc
000000f0: 9443 3fbd 1ec3 913d d11d ffbd f75c f2bd
