checkpoints/A/model_A_epoch_102.pth (torch, 78709 bytes, 15 tensors)

node_embedding.weight f4 [1, 64]
000000 e3 b5 1d 3e 2d e3 e4 bd c8 a4 b3 be 3e 78 7a bf
       0.15401416 -0.11176143 -0.35086656 -0.97839725
000010 2c a5 bc 3f 05 f3 be bf 65 fa 28 be 14 02 8a 3f
       1.4737906 -1.4917914 -0.16501768 1.0781884
000020 d4 95 6f be 64 14 8d 3f ad 54 75 3f 54 e8 40 bf
       -0.23396999 1.1021848 0.9583233 -0.75354505
000030 9b d5 9a 3f 99 b0 ce bf f3 09 e4 bf 70 c1 fc bc
       1.2096437 -1.6147643 -1.7815536 -0.030853957
000040 93 ac 00 40 6c e9 38 3f db 90 af 3f ed 51 03 c0
       2.010533 0.72231174 1.3716081 -2.0518754
000050 06 d5 97 3f 04 2c 91 be 8c 5a 6d bf f7 b8 eb be
       1.1861885 -0.28353894 -0.9271629 -0.46039554
000060 3e 0c 5c bf dd f3 ef be 05 1b b2 bf 57 f0 43 3f
       -0.8595618 -0.4686574 -1.3914496 0.76538604
000070 67 1d d1 3f ec 67 17 3f 2f 98 26 3f a8 3b 05 bf
       1.6337098 0.5914295 0.65075964 -0.52044153
000080 4d 41 84 3f cb 61 2d c0 be 69 75 be d2 ed fe 3f
       1.0332428 -2.7090938 -0.23966119 1.9916327
000090 8d 9b e6 3f 6a 9a ab 3f 18 60 a8 bf 34 b9 1f 3e
       1.801622 1.3406498 -1.3154325 0.15597993
0000a0 a1 a5 eb 3e 51 2b 03 40 ab 85 8c bf 27 21 b7 bf
       0.46024802 2.0495188 -1.0978292 -1.4306992
0000b0 af 62 06 3e 31 ea 93 3e 60 a8 bc 3e 81 78 59 3f
       0.13123582 0.2888961 0.3684721 0.849495
0000c0 6c 61 66 3f 69 ab 40 bf 89 19 5c 40 79 61 29 bf
       0.89992404 -0.7526155 3.4390585 -0.66164356
0000d0 ae 9e 69 be 37 75 d4 3f 37 b8 59 bf 65 95 51 3f
       -0.22814438 1.6598271 -0.85046715 0.8186858
0000e0 7d 70 8e 3e 22 36 87 bf 06 07 47 bd fb 72 9c be
       0.27820197 -1.0563395 -0.048590682 -0.30556473
0000f0 24 76 5c bf f6 f4 90 3f 7f 29 c6 3f 64 9c cf 3f
       -0.8611777 1.1324756 1.5481414 1.6219602

conv1.nn.0.weight f4 [64, 64]
000000 f5 80 d0 3d c6 e3 0d bd 4f b1 e5 3c 96 31 07 3e
       0.101808466 -0.03464105 0.028038649 0.1320251
000010 c1 78 f6 bd 43 d1 fa 3d 64 b1 ff bd 32 60 07 bd
       -0.12034751 0.12246945 -0.124850065 -0.033050723
000020 cf b3 17 be fe b1 02 be ef 06 2d 3c b2 db 9b 3d
       -0.14814685 -0.12763211 0.010560735 0.07610263
000030 76 d9 66 3d 39 8e 19 3d e3 70 27 bd b7 7e 10 3d
       0.05635973 0.03748915 -0.04087914 0.035277095
000040 c7 ac e0 bd a9 f7 8f bd 3f 01 a8 3d dc e8 49 3d
       -0.10970455 -0.07029659 0.08203363 0.049294338
000050 cb dc 21 bd 97 48 8d 3a 8b f7 32 bb 8e e7 d5 bd
       -0.039517205 0.001077908 -0.0027308192 -0.10444556
000060 7e b7 62 3d 77 83 4d bd 2a f2 c1 bd 57 7c 74 bb
       0.055350773 -0.050174203 -0.09470017 -0.0037305558
000070 da b7 88 3b f5 67 97 3c ee e1 0c bd 99 b6 9f 3d
       0.0041723074 0.018482188 -0.03439515 0.077984996
000080 42 af 7d bd 27 09 24 bd 57 64 ec 3c 95 7b d9 3c
       -0.061934717 -0.04004779 0.02885644 0.026548186
000090 3d f1 81 3d 98 12 01 3c aa 65 a8 bd b1 30 f7 bd
       0.06344841 0.007877968 -0.08222516 -0.12069834
0000a0 b3 e9 3f 3c fe 14 e7 bd eb f7 91 bd 20 17 a4 3d
       0.011713433 -0.11283301 -0.07127365 0.08012223
0000b0 82 0c 4f bc a4 ab 9a bd 4e e8 e1 bd f9 42 ad 3d
       -0.012637259 -0.07552269 -0.11030637 0.0846004
0000c0 8f 57 b2 3c 9f 25 89 3d e4 ce 77 3d 6a 7d 4c 3d
       0.021770267 0.06696629 0.06050004 0.04992429
0000d0 24 09 63 3d 33 8e bc bb eb d3 c0 bd 19 ea 9e bc
       0.05542864 -0.005754256 -0.0941542 -0.019398736
0000e0 86 9f ab 3d 62 57 27 3d 52 97 f8 bd 03 46 e9 bc
       0.08380036 0.04085482 -0.12138237 -0.028475767
0000f0 34 7d 7f bb 6b fa 5c bd c2 8c 75 3d 37 37 90 bd
       -0.003898454 -0.053949755 0.05994869 -0.070417814
000100 3c 3a 57 3d 10 df ee bd e0 9f 28 bd 80 53 ce bb
       0.05254577 -0.116636395 -0.041168094 -0.006296575
000110 8a db b9 3d a0 96 2e bc 88 5c 52 3d c8 09 0f 3d
       0.09075077 -0.010656029 0.051357776 0.034921438
000120 f8 cd cc bd 00 2d 48 bb 30 2c 54 bc 40 c1 93 3b
       -0.10000223 -0.00305444 -0.012949988 0.004509121
000130 2c da f7 bd 0e b5 fc bd 24 7c 1b bd 88 f1 c8 3c
       -0.1210216 -0.12339221 -0.037960187 0.024529234
000140 e2 a5 80 bd 1c 1c 32 3d 28 a4 e7 bd c4 21 36 bd
       -0.0628164 0.04348384 -0.11310607 -0.044465795
000150 94 6c f7 bd 46 90 ce 3d 0e 59 b6 bd 14 6e c1 bd
       -0.120812565 0.10086112 -0.089037046 -0.09444824
000160 f4 4e 6f 3d 8c 2d 73 bd 98 80 d1 3c c0 a5 2e bd
       0.058424905 -0.05936961 0.025574014 -0.04263854
000170 b4 ac 45 bd 38 68 29 bd a6 f5 f5 3d a0 79 ed bc
       -0.048260406 -0.041359156 0.12009744 -0.02898866
000180 80 b5 b9 3c ae 55 ac bd 62 a8 8c bd 3c 12 4b bd
       0.022669554 -0.084147796 -0.06868054 -0.049577937
000190 da c9 f2 bd 18 95 f8 bd 16 36 fd bd 6c 2e 00 3d
       -0.118549064 -0.121378124 -0.12363832 0.03129427
0001a0 6c 09 b6 bd 00 c8 1c bb d8 bd 93 3c d0 f6 35 bd
       -0.08888516 -0.002392292 0.01803486 -0.044424832
0001b0 d6 25 eb 3d d2 72 8b 3d 90 d7 ba 3d cc 83 fd bd
       0.11481826 0.068090096 0.091231465 -0.12378654
0001c0 c0 d8 2b bb 00 19 eb 3d 88 25 5f bd 44 5e 1e 3d
       -0.0026221722 0.11479378 -0.054479152 0.038664117
0001d0 fa b0 d0 bd 80 03 2a bc 90 91 01 bc a0 72 b5 bb
       -0.101900056 -0.010376811 -0.00790824 -0.005537346
0001e0 1e eb fa bd 60 71 9b bc 68 0d a3 3d 7c 1d 30 3d
       -0.12251876 -0.01897496 0.079615414 0.04299687
0001f0 92 b9 c4 3d ec 00 18 bd 00 72 9a 3a a8 28 a1 3d
       0.09605707 -0.037110254 0.0011783242 0.07869083
000200 20 70 57 bc b0 43 9a 3c 16 90 e5 bd 40 1a 01 bd
       -0.013149291 0.018831104 -0.11209123 -0.031519175
000210 b0 ba ca 3d 08 3a eb 3d 18 a5 1f 3d c8 e0 89 bd
       0.09898889 0.11485678 0.038975805 -0.06732327
000220 b2 0a cb 3d 6c 95 30 3d 38 25 d5 bd 90 e3 09 bc
       0.09914149 0.04311125 -0.104074895 -0.0084160715
000230 86 f7 85 bd 10 83 8c bc 2c e3 74 bd d0 77 b4 3d
       -0.06541352 -0.01715234 -0.05978696 0.08811915
000240 e8 fe 93 bc 50 26 e6 3c b8 d8 c7 bd cc 20 46 bd
       -0.018065885 0.02809444 -0.09758133 -0.04837112
000250 0c c5 6a bd a8 e4 18 3d a0 d3 d5 bd 0c b8 43 bd
       -0.057316825 0.03732744 -0.10440755 -0.047782943
000260 1e 87 fe bd 00 af 95 bb c8 ff 15 3d da de dd bd
       -0.12428115 -0.0045679808 0.036620885 -0.10833521
000270 28 86 d5 bc 28 df d2 bd 28 aa f9 bd 78 6b d0 bc
       -0.026064947 -0.1029647 -0.12190658 -0.02544187
000280 1c 1c 64 bd a8 66 dc bc c0 ff 5b 3d 48 0e a5 3d
       -0.05569087 -0.026904419 0.0537107 0.080593646
000290 c8 32 fe 3c ec 43 8e bd f0 46 bd 3c e8 c6 95 3c
       0.031030074 -0.06946549 0.023105115 0.018283322
0002a0 88 2e fa 3d a0 8b 0e 3d f0 a1 93 bc 54 55 8f bd
       0.122159064 0.034801126 -0.018021554 -0.06998697
0002b0 30 e9 46 bc 80 29 41 bc 64 90 dd bd 30 01 3c bd
       -0.012140557 -0.0117896795 -0.10818556 -0.04589957
0002c0 40 71 45 3d 50 f1 77 3c e0 b4 b6 3c f8 55 31 3d
       0.048203707 0.015133217 0.022303045 0.043294877
0002d0 34 8b 5d 3d 78 b6 bd bc 3c f2 98 3d a0 d0 b9 3b
       0.054087833 -0.023158297 0.074680775 0.005670622
0002e0 70 81 5d bd d8 8a 69 3d b6 d4 fc 3d 24 71 14 3d
       -0.05407852 0.057017177 0.12345259 0.03624071
0002f0 be f3 ab 3d b8 03 81 3c 6c 3e 5a bd 60 a7 bb 3c
       0.083960995 0.015748844 -0.053282186 0.022906959
000300 f8 25 17 bd 98 b8 06 bd 7c b2 a1 bd 1a ce ce 3d
       -0.036901444 -0.032890886 -0.07895371 0.100979045
000310 28 ec b7 bd 40 b0 dc 3d 70 df 0b bd 9a b6 ec 3d
       -0.0898059 0.107758045 -0.034148633 0.11558266
000320 08 c7 97 bc 06 26 fd 3d 76 7e ff bd 00 50 29 b8
       -0.018527523 0.12360768 -0.124752924 -4.0367246e-05
000330 a2 60 f3 bd 9c 19 79 bd 00 03 86 bb f0 ab b3 3d
       -0.118836656 -0.06081544 -0.004089713 0.08773029
000340 00 86 50 bd 72 5f dc 3d 38 03 c6 3c 80 df 10 bb
       -0.050909042 0.10760392 0.024171457 -0.0022105873
000350 82 f8 fe 3d 82 bb 98 bd 58 5c c8 bc 40 87 9f 3d
       0.12449743 -0.07457639 -0.024458095 0.07789469
000360 94 68 b7 bd 4c 6d f4 bd ca c5 c4 3d fa ea cd bd
       -0.089554936 -0.11934909 0.09608038 -0.10054584
000370 e0 54 07 3c 58 d0 e5 3d f8 9e 95 3d d8 30 2a 3d
       0.008259982 0.11221379 0.073057115 0.041550487
000380 10 a3 ba 3c 84 ac 3a bd 98 9b 96 bc 88 0d ec bd
       0.022782832 -0.04557468 -0.01838474 -0.115260184
000390 e0 c4 da 3b f4 86 8a 3d 5e 95 b3 3d ee 53 9d bd
       0.0066763014 0.067640215 0.08768724 -0.07682024
0003a0 a0 09 58 bd a0 7b ac bc a0 ec 92 3c b0 22 49 3d
       -0.052743554 -0.021055043 0.017935097 0.049105346
0003b0 00 dc ca bb b0 66 d4 bc a2 41 f7 bd bc 38 e0 bd
       -0.006190777 -0.025927871 -0.12073065 -0.10948321
0003c0 c0 1d 37 bd d0 38 25 bd 80 aa 08 bd bc 3b 29 3d
       -0.044706106 -0.040337384 -0.033365726 0.041316733
0003d0 28 a2 ec bd 38 51 99 3d 5c b6 7b bd 38 f9 7d bd
       -0.11554366 0.07486194 -0.06145321 -0.06200525
0003e0 f8 4c 95 3d ec 6f 21 3d d8 38 76 bd 40 91 7d bb
       0.07290071 0.039413378 -0.060112804 -0.0038691312
0003f0 e0 d8 70 bc c0 27 f2 bb 88 ad 4f bd 20 aa c4 3b
       -0.0147001445 -0.0073899925 -0.0507026 0.006001726

conv1.nn.0.bias f4 [64]
000000 34 ea 66 bd 04 29 d9 3d 50 8d 1c 3d 2c 9b 77 3d
       -0.056375697 0.10603526 0.038220704 0.060450718
000010 12 5a 93 3e e4 89 e5 bd 7d d3 a8 3d 84 c9 7d 3d
       0.28779656 -0.11207941 0.08243463 0.06195976
000020 2e 4d 20 bd 46 78 40 be 82 8b 75 3d 38 27 89 bd
       -0.039136104 -0.1879588 0.0599475 -0.066969335
000030 b8 58 c2 bc 95 08 38 3e 14 54 2d be 0b 9a b7 3d
       -0.023723945 0.17972024 -0.16926605 0.08964928
000040 bb 07 5a 3d 97 cf 81 bd 82 d6 2a bd 84 80 85 3e
       0.05323003 -0.06338423 -0.041708477 0.26074612
000050 70 ab 1b 3c 0c a6 7f 3e 15 a5 c0 3d 45 5b c8 bc
       0.009501323 0.24965686 0.09406487 -0.024457583
000060 67 70 fe bd 1f 07 ef 3c 50 1d 75 3d 68 35 c1 bd
       -0.12423783 0.0291782 0.059842408 -0.094340146
000070 b4 2f f7 3d 9f ea 8b bd 30 83 17 be 3e 29 32 3d
       0.120696455 -0.0683186 -0.14796138 0.043496363
000080 4e 37 02 3e b9 85 47 3c 23 f9 af bd d5 59 f4 bd
       0.1271641 0.012177878 -0.08592441 -0.119311966
000090 1c 9a b4 bc dd 40 d4 3d e0 8b 9f 3c 29 5f a6 3c
       -0.022046141 0.10363934 0.019475877 0.020309048
0000a0 f9 a1 d7 3d 2c fc ea 3d a0 e4 82 3c cb 06 cd bd
       0.10528941 0.11473879 0.015978158 -0.10011061
0000b0 c6 05 ba bd fd d3 8f bd 15 6d 94 3d 2f 29 22 3d
       -0.090831324 -0.070228554 0.07247368 0.039590057
0000c0 d8 aa 22 bd f8 e5 78 3d 04 e8 14 be 12 67 a9 bd
       -0.03971371 0.06076619 -0.14541632 -0.08271612
0000d0 00 00 eb b7 a8 38 af bc 38 96 9a 3d 77 9a 45 3d
       -2.8014183e-05 -0.02138932 0.07548183 0.048243012
0000e0 3e d6 cb bd 9d c1 16 be 71 9f b9 3d 1f 32 78 3d
       -0.09952973 -0.14722295 0.09063614 0.060594674
0000f0 e7 b5 41 bd 1a eb 8c 3d d9 fa 16 bd bf 7d 34 bc
       -0.047292616 0.068807796 -0.03686032 -0.011016308

conv1.nn.2.weight f4 [64, 64]
000000 2c 36 6d 3d 20 78 22 3c 08 c6 89 3c 88 0c dc bd
       0.05791299 0.009916335 0.016818061 -0.10744578
000010 3b 68 a2 bd 82 43 78 bd 47 c0 be 3c 04 4a 4e bd
       -0.07930037 -0.060611255 0.023285044 -0.050363556
000020 0a af 17 bc ae 36 5b 3d a0 73 25 3d 78 f3 37 3d
       -0.009258041 0.053518943 0.04039347 0.044909924
000030 08 cb 81 3d 3b 46 15 be eb 96 bd bc e2 64 8c 3d
       0.06337553 -0.14577572 -0.023143252 0.06855179
000040 6b 4a 84 3d 7f 11 41 bc 15 2b 28 bd 96 ba 5f 3d
       0.064595066 -0.011783957 -0.04105671 0.0546213
000050 ba 07 fa bd 4b 16 a7 bc 5a 48 f9 bc 9e 27 ae bd
       -0.12208505 -0.020396372 -0.030430008 -0.0850365
000060 87 f4 55 3c d1 8f 03 3e d4 9b cc 3d 1b 06 fb bd
       0.013058788 0.1284783 0.09990659 -0.12257024
000070 fc 88 2e bd 96 ae 23 3d 1e 6e 5c 3d 2e b3 9f bd
       -0.042611107 0.03996142 0.053815953 -0.07797848
000080 03 c9 ce bd 79 21 27 bd 4e a7 8c bd 94 ea 3b 3d
       -0.10096934 -0.040803406 -0.06867848 0.045878008
000090 36 c0 d0 bd 73 75 fa 3d f8 ce d1 3d 2a 99 e1 bd
       -0.10192911 0.12229433 0.10244554 -0.11015542
0000a0 a6 be f5 3d 34 67 96 3d d8 a5 56 3d 08 45 92 bd
       0.11999254 0.07343903 0.052404255 -0.07142073
0000b0 78 b2 d5 3c 67 47 36 3d 0c 77 26 3d 98 5d 85 3c
       0.026086077 0.04450169 0.040640876 0.01627998
0000c0 58 f5 f3 3c 26 2c b0 bc 25 c5 b8 bd 40 8b c2 bd
       0.029780075 -0.021505427 -0.09021977 -0.09499216
0000d0 48 4f b6 3d 00 4f eb ba c9 14 cb 3b c3 cb 88 bd
       0.089018404 -0.0017952621 0.006197546 -0.066794895
0000e0 ac fc 05 3d a2 16 9e bd b6 69 97 3d 7a 06 a5 bd
       0.03271167 -0.077191606 0.0739321 -0.08057876
0000f0 9d 0c b7 bd a6 0d f6 3d 3c 57 14 3d 52 18 81 bd
       -0.08937953 0.12014322 0.036216006 -0.06303467
000100 f2 78 c0 bd d8 11 be 3d d0 da fe bc 0e bd a5 bd
       -0.093980685 0.09280747 -0.031110197 -0.080927
000110 34 20 16 3e 15 0a 71 3d 0e 28 f9 3d bc 92 a0 bd
       0.14660722 0.058847506 0.12165843 -0.07840487
000120 fe 54 5b 3d 25 93 e3 bd 34 ca 55 bd bc 70 e6 3d
       0.05354785 -0.1111205 -0.05219479 0.11251971
000130 e8 f5 eb 3d c3 6e 18 3d a6 f7 2d bd 4c 00 94 3d
       0.11521512 0.037215006 -0.042472504 0.07226619
000140 33 cb f8 3d c8 9c 7d 3d 50 10 a6 3c 7b ce 15 3e
       0.12148132 0.061917096 0.02027145 0.14629547
000150 10 26 38 3c 3e b6 4b 3d c1 90 05 3d 64 b1 4f bd
       0.011239544 0.049734347 0.03260875 -0.050706282
000160 5f e0 65 3d ee f4 d1 3d 08 b2 f5 bd d6 97 b7 3d
       0.05612218 0.10251795 -0.119968474 0.08964507
000170 c8 d9 3a bd 7c c5 a3 bd a6 34 bd bd 6f d2 b7 3c
       -0.04561785 -0.079966515 -0.092385575 0.02243921
000180 06 e5 c1 3d ad eb 49 3d 5d a0 f7 3c 88 72 be bd
       0.09467511 0.049297024 0.030227834 -0.09299189
000190 50 28 37 bd ad 64 42 3d 40 e5 f0 3d 72 45 3e bc
       -0.04471618 0.047459293 0.11762476 -0.011613237
0001a0 45 df 9b bc 28 ef ac 3c cc 6e 5d bd 15 b3 fa ba
       -0.019027362 0.021110132 -0.054060742 -0.0019126857
0001b0 c8 87 0d 3d 81 9c a1 bd 41 99 23 bd 18 af 8e bc
       0.03455332 -0.07891179 -0.039941076 -0.017417476
0001c0 a0 ba f2 bb fb f8 73 bc 16 38 4b be f4 2e bd bd
       -0.0074075013 -0.014890905 -0.19845614 -0.09237471
0001d0 c0 31 c5 bb 18 d2 d7 bc 74 4a 87 bd 9b c0 b2 3d
       -0.0060178936 -0.026345298 -0.06605998 0.08728143
0001e0 40 5d 8a bd f1 d4 6e 3d 0c c3 d1 3d 98 6b 85 3d
       -0.06756067 0.058308546 0.1024228 0.065146625
0001f0 17 ec a6 3d 7e 54 81 3d 62 d1 b5 bd 5c 96 05 3d
       0.08150499 0.06314944 -0.08877827 0.032614097
000200 e8 b5 f6 bc e8 16 d1 3c a0 dd e0 bc 00 aa 62 3c
       -0.030116037 0.025523618 -0.027449429 0.0138344765
000210 61 1d b0 3c 30 df 9f 3d 7a 23 56 bc 60 d5 08 bd
       0.021498384 0.078062415 -0.013069982 -0.033406615
000220 f5 fb 5c bd ea 28 f4 bc 50 36 42 bd b2 64 d2 3d
       -0.053951222 -0.029804666 -0.047415078 0.10273112
000230 d2 9d 85 bd 54 b1 7b 3d 84 21 0b be 60 94 ed 3b
       -0.065242425 0.06144841 -0.13587004 0.0072503537
000240 46 5b 80 bd a9 36 f9 bd d8 4c 1e 3d b6 08 ad bd
       -0.06267409 -0.12168629 0.038647503 -0.08448927
000250 90 bf ac bc 55 2a a5 bd 26 85 8d 3d c4 c9 38 bd
       -0.021087438 -0.08064715 0.06910162 -0.045114294
000260 1a 1b b2 bd 22 6f bd bd a4 20 c6 bd 60 3a f6 3b
       -0.086965755 -0.092497125 -0.096741945 0.007514283
000270 00 51 5b 3c 58 b8 ad bd c8 ae 51 bd 68 55 4a 3d
       0.013386011 -0.084824264 -0.051192075 0.049397856
000280 30 97 01 3d d6 49 92 bd f8 9c 76 bd b3 ff b3 ba
       0.031638324 -0.07142989 -0.06020829 -0.001373282
000290 3e d7 ff 3d 0c 70 a2 3d 28 6a fd bc 30 54 cd 3d
       0.12492226 0.079315275 -0.030934408 0.10025823
0002a0 ac 70 f9 bd 3c c5 d0 3d f0 45 c8 3c 2d 48 cd bc
       -0.121796936 0.101938695 0.024447411 -0.02505883
0002b0 f0 ac 44 bd 4a 72 8a bd 4c b0 f3 3d 04 da 41 3d
       -0.04801649 -0.0676008 0.1189886 0.047327057
0002c0 a0 14 5d bc a2 b4 8b 3d fc 82 e2 bd b6 42 fd 3d
       -0.013493687 0.06821562 -0.110601395 0.1236624
0002d0 9c c4 41 3d d6 e9 f2 3d 90 9a 7e bd 98 40 fb bc
       0.047306642 0.11861007 -0.06215912 -0.03067045
0002e0 fc d4 16 3d b8 12 bb 3c 92 15 de bd ea 6f b3 3d
       0.03682421 0.022836074 -0.10843958 0.0876158
0002f0 00 df 06 3d 20 25 95 3b c8 6d 9b 3c bc b5 6b 3d
       0.032927513 0.004551545 0.018973246 0.057546362
000300 fc d4 4c 3d f6 3b a8 3d 68 a6 d3 3c 6e f6 d7 bd
       0.050007805 0.08214562 0.025836185 -0.105450496
000310 64 13 00 3e 43 7d b6 3c d2 07 ba 3d 00 27 0f ba
       0.12507397 0.022276526 0.09083523 -0.00054608285
000320 0c 3c 86 3b 65 ff 2b bd fd f6 d6 3d 27 c5 e2 bd
       0.0040965136 -0.04199161 0.10496328 -0.1107276
000330 94 cf 87 3d 61 4b ba bd 51 32 c5 3d 5c 04 ee bc
       0.06631389 -0.09096409 0.09628738 -0.029054813
000340 2d 25 f0 bd a3 c4 47 3d 22 4e be bd ec 24 ff bd
       -0.11725841 0.04877151 -0.092922464 -0.12458214
000350 40 6a 7c bd 05 26 a9 ba 26 98 98 3d 32 75 a5 bc
       -0.061624765 -0.0012905007 0.07450895 -0.020197485
000360 bd b6 dd bd 0c eb 63 3c bc 6f b7 3d 3c 38 bc 3d
       -0.1082587 0.01391102 0.089568585 0.09190413
000370 6c c7 ea bd 9f b4 c1 bd 04 f3 5e 3d bd 10 99 bd
       -0.11463818 -0.09458279 0.054430977 -0.07473896
000380 eb 8e d4 bd 15 07 c3 bc 88 ac 2f bb 78 d1 e2 3d
       -0.10378822 -0.023807088 -0.0026805717 0.11075109
000390 2b 14 f0 3b 02 79 6c 3d 8c 09 0a bd 04 89 ea 3d
       0.007326623 0.05773259 -0.03370051 0.11451915
0003a0 3e a1 ed 3d 8c 28 0e 3d 14 a4 ca bd 7d c7 f8 3b
       0.1160302 0.034706637 -0.09894577 0.00759214
0003b0 4c f3 26 3d ae 54 e0 3d f5 ae 7b bd 34 0d b9 3d
       0.04075937 0.10953651 -0.06144615 0.090357214
0003c0 fc dd 07 bd a8 bc 1d 3d 86 39 f1 bd 88 06 e2 bd
       -0.033170685 0.038509995 -0.1177855 -0.11036402
0003d0 24 ea 2c bd 70 bc 59 bc 6f 00 f8 3d cd 57 ca 3d
       -0.04221548 -0.013289556 0.12109458 0.09880028
0003e0 dc 1c 95 bd 0a b2 3b 3d b0 01 de 3d d8 db 93 3c
       -0.07280895 0.04582409 0.108401656 0.018049166
0003f0 45 75 54 3d 52 79 34 3d 81 1d 49 bd d0 1a 60 bd
       0.05186965 0.044061013 -0.049100403 -0.05471307

conv1.nn.2.bias f4 [64]
000000 33 af e7 bc 1f 5a cf 3e 5f 7d c3 bd 16 7e e0 3d
       -0.028281784 0.40498444 -0.09545397 0.10961549
000010 96 72 9d 3d 7d 0b ae bd 2d 00 7e 3c a1 8a a5 bc
       0.07687871 -0.08498285 0.015502972 -0.020207705
000020 8f e4 09 bc fc 06 e6 bd e0 38 a9 3b 1f 54 0f 3d
       -0.008416309 -0.11231801 0.0051642507 0.034992334
000030 2c 99 c6 3c 51 38 be bc a1 3e c8 3d a8 b9 36 bc
       0.02424296 -0.023220213 0.097775705 -0.011152662
000040 10 3d ac 3d 58 f6 2b 3d 5d 38 c1 3c 00 f3 76 3a
       0.08410084 0.04198298 0.023586446 0.0009420365
000050 c8 7e fe bd ff aa bf bc dc 34 01 be 82 9a a8 3d
       -0.12426525 -0.023396967 -0.1261782 0.08232595
000060 fe d1 60 bd 4f cf 3d be f8 92 92 3d 7f c2 b4 3d
       -0.054887764 -0.18536113 0.07156938 0.0882616
000070 bf ec e9 bd fd da 11 bd 26 02 d6 bd ac d0 5e 3d
       -0.11422109 -0.035609234 -0.104496285 0.054398224
000080 eb 48 b6 be 0b 37 1d 3d b4 80 75 3c 8e 4f ad bd
       -0.35602507 0.03838257 0.0149842985 -0.084624395
000090 df 3b 00 be e9 7a ea bd be e9 af 3d b9 27 b0 3d
       -0.12522839 -0.114492245 0.08589505 0.086013265
0000a0 fd 95 de bd 91 bc b7 3c 2e 82 95 bd c6 c1 41 bc
       -0.10868452 0.022428783 -0.073002204 -0.011825984
0000b0 5a 83 89 bd 1d 77 37 bd cf 9b f8 bd 63 bb 91 3d
       -0.067145064 -0.04479133 -0.12139093 0.07115819
0000c0 63 60 9a 3d 69 31 9a bd bb 38 c3 3c bf 58 d9 bc
       0.075379156 -0.075289555 0.023830762 -0.026531575
0000d0 c3 8c be bd 40 2e 28 3c 18 b0 44 be bc 30 4e bd
       -0.09304192 0.010264933 -0.192078 -0.050339445
0000e0 73 ad 45 be 02 f9 fd 3d 07 d2 22 be 43 dd 41 be
       -0.19304447 0.1240101 -0.15900432 -0.18932061
0000f0 84 29 ca bc ee 5d 6d bd 6f 15 aa bc 83 70 e4 bd
       -0.024678 -0.057950906 -0.020762173 -0.111542724

conv1.lin.weight f4 [64, 7]
000000 df da bd be cc 71 bd 3d 47 28 fe 3d e8 c5 81 3c
       -0.37081048 0.09250221 0.12410026 0.01584144
000010 c5 82 b8 3e ef a4 a2 be fa c7 a1 3e 7d eb d3 be
       0.3603727 -0.3176646 0.31597883 -0.413906
000020 3d af e0 be 96 50 4e be a3 ac c4 bc 01 d1 70 be
       -0.43883696 -0.20147929 -0.0240081 -0.23517229
000030 d3 4c 91 3e 2e e2 a7 3d 4f b6 ba be 4d 0f 49 3e
       0.28378925 0.08197437 -0.36467215 0.19634743
000040 38 f0 cd bc 05 02 95 bc 85 0b 97 3d b9 b5 a6 3e
       -0.02513896 -0.01818944 0.07375244 0.32560518
000050 8e 7b 06 3e 6c 41 d4 3d 2b 34 95 bd b0 54 45 3e
       0.1313307 0.10364041 -0.07285341 0.19270587
000060 0a 94 0a be ec d6 a4 be 38 28 44 be cf b5 8d be
       -0.13533035 -0.32195222 -0.19155967 -0.2767777
000070 00 e0 8d 3e 2e 4c c3 3e 9a 2d b1 3e 9c b2 b3 be
       0.2770996 0.38144058 0.34605104 -0.35097206
000080 dc 37 4f 3e c3 96 ab 3d 34 81 02 bf 75 06 82 3d
       0.20236152 0.08378365 -0.509784 0.06348888
000090 4a a3 a0 3d 8e 45 b8 bd 87 43 cd bd 9e a8 8f be
       0.07843645 -0.089976415 -0.100226454 -0.28058332
0000a0 3b 10 70 be d1 8d b9 bc 5d 39 8d be a8 7e c6 3e
       -0.23443691 -0.022650631 -0.27582827 0.38768506
0000b0 53 ad 9d be f1 ec 36 3e 0f d4 12 3e 82 19 7c 3c
       -0.30796298 0.17863823 0.14338706 0.015386941
0000c0 2b c5 b8 3e c7 88 65 be 31 0c 24 bf 1a f4 e7 be
       0.36087927 -0.22415458 -0.640811 -0.45303422
0000d0 6b 80 07 bd bb 91 b8 3d c2 14 ce be 10 52 04 3e
       -0.033081453 0.09012171 -0.40250212 0.1292193
0000e0 5a 57 49 3f 2a 80 36 3f 0c c6 2c 3f 2a f7 47 3e
       0.7864891 0.7128931 0.67489696 0.1952788
0000f0 e9 38 16 be 15 c2 4e 3d 2b 58 8c be 85 ff 17 3e
       -0.14670147 0.05047806 -0.27411017 0.14843567
000100 fd 56 15 be b9 98 ce be 04 37 89 be 69 f7 03 bd
       -0.14583965 -0.40350893 -0.26799786 -0.03221837
000110 da 1a e8 bd 23 4a 42 be 45 99 fa 3e 48 95 12 3f
       -0.113332465 -0.18973593 0.4894506 0.57259035
000120 51 eb e6 3e e7 0a 51 bd f5 09 a7 3e 90 6e 49 be
       0.45101407 -0.051035788 0.32624784 -0.19671082
000130 03 02 2a bd fb 24 1b be c4 95 a9 be 84 f3 c0 bd
       -0.041505825 -0.15150826 -0.33122075 -0.09421447
000140 4a 33 96 be 6b 9f cd 3d 32 49 ce 3c f1 f7 27 be
       -0.29336005 0.10040172 0.025181387 -0.16403176
000150 bd 83 30 bd 57 09 66 bf cb 72 2a bc df 08 d7 be
       -0.043094385 -0.89858 -0.010403345 -0.41998956
000160 39 0c 8b 3e a9 8c f9 be a7 07 2b be 66 06 98 3e
       0.27157763 -0.48740128 -0.16702138 0.29692382
000170 18 b3 0b 3e 5e 81 0c 3e 63 9f 93 3e dc b5 c1 bd
       0.13642538 0.13721225 0.2883254 -0.09458515
000180 9f 40 3d bc 4b 9d 5e 3c d2 cf d6 3d dd d0 d7 3c
       -0.011551051 0.013587306 0.10488857 0.026344711
000190 3e f8 e2 3d e1 4e 64 3e 4d de 2a be a8 1a 3f be
       0.11082505 0.22295715 -0.16686364 -0.18662512
0001a0 f9 89 78 bc 24 54 02 bf 02 53 36 be 58 fd 09 bd
       -0.015169614 -0.5090964 -0.17805102 -0.033688873
0001b0 9c 49 71 3e f0 6e 01 3d 1d 0e b5 bd b3 02 bb 3e
       0.23563236 0.03159994 -0.088405825 0.36525497
0001c0 a6 40 02 bd 79 8b 26 3f a5 26 4c 3e 3a bf a3 be
       -0.031799935 0.6505657 0.19936617 -0.31981832
0001d0 78 66 b1 be 52 64 5c be 57 40 55 bd 08 80 8e 3b
       -0.3464849 -0.21522644 -0.052063312 0.0043487586
0001e0 85 c3 6d bd 22 42 0c bf fc c3 ae bc 50 93 4d be
       -0.05804779 -0.5478841 -0.021333687 -0.20075727
0001f0 6f 69 23 3e 03 fc c8 bc ee 92 84 be 99 9b a3 be
       0.15958188 -0.024534231 -0.25893348 -0.3195465
000200 9b 10 b7 be 72 db fa 3d 6e 43 8c 3d df fe 9f be
       -0.35754856 0.12248887 0.06848799 -0.3124914
000210 9d fa 28 be a8 87 a5 be 41 c9 55 3a 61 4b 18 3e
       -0.16501851 -0.3233006 0.00081552943 0.14872505
000220 a9 7f 61 3e ad 87 0f be 86 18 63 be ea 48 ac 3e
       0.22021355 -0.140166 -0.22177324 0.3364938
000230 a0 64 af be b3 81 df bd 28 70 7d be 7a 30 f7 bd
       -0.34256458 -0.1091341 -0.24749815 -0.12069793
000240 6c 01 52 be ff f4 56 be 10 99 2c 3e 37 c0 03 bd
       -0.20508355 -0.20991896 0.16855264 -0.032165732
000250 39 ec 38 bf ea c7 c2 3e 75 78 b2 be 95 23 71 3d
       -0.7223545 0.38043147 -0.34857526 0.058871824
000260 b8 92 cd 3e 19 fe 2a be 83 cd a4 3e 0b 50 30 bd
       0.40151 -0.16698493 0.32188043 -0.043045085
000270 35 a2 76 ba c6 29 93 3e 6d f5 b7 3e 81 06 0e be
       -0.0009408326 0.28742808 0.35929433 -0.13869669
000280 08 5a ae be 97 bd 39 3f 7c 2d 0a 3f 29 95 27 3d
       -0.34053063 0.72554916 0.53975654 0.040913735
000290 10 4f 45 3e 06 19 b6 3d ab 3f 03 bf e3 53 47 be
       0.19268441 0.088914916 -0.51269025 -0.19465594
0002a0 f2 0c 57 3d 32 38 3e 3e 92 4b f2 bd 7b 60 35 3d
       0.05250258 0.18576124 -0.1183082 0.044281464
0002b0 d7 ac 6a 3d 08 9f 44 3e 95 e8 0a 3e c3 0f c5 3e
       0.05729374 0.1920129 0.13565286 0.38488588
0002c0 70 c9 c1 3e c9 df 47 3e 48 ab 8f 3c 5e e8 33 3d
       0.37848997 0.19518961 0.017537728 0.043922774
0002d0 3f 89 8c bd 8c f2 e5 3e 92 61 98 3d e8 26 4c be
       -0.06862115 0.4491161 0.07440485 -0.19936717
0002e0 f9 6a 9d 3d ae af 0b be bf bc 68 be 54 0e 53 3e
       0.07686419 -0.13641235 -0.22728251 0.20610934
0002f0 ca 5c 56 3e c7 c7 7a 3e 87 e9 4b 3e 33 89 56 3e
       0.20933834 0.24490272 0.19913302 0.20950775
000300 e4 45 9f be d4 8f 0a bf 65 a9 d3 3d 0a a6 2e 3e
       -0.3110801 -0.54125714 0.10335044 0.17055526
000310 d0 df 37 be 76 ca 89 be 70 1b e1 be fc e1 cd be
       -0.17956471 -0.26912278 -0.43966246 -0.40211475
000320 51 7b bd bd 43 0d 59 be b2 d2 0f be c9 4a df be
       -0.09252036 -0.21196465 -0.14045218 -0.43611744
000330 10 9d 82 be a4 2e b3 be fb de 24 3e 2f d0 c5 be
       -0.25510454 -0.3499652 0.16100685 -0.38635394
000340 5b bb 13 3d b1 70 bd 3d 14 c4 1c 3e d9 35 84 be
       0.036067348 0.0925001 0.15309173 -0.25822333
000350 f9 39 32 3e 87 d9 b0 3d a6 e3 bd 3d 9d b3 5d be
       0.17404927 0.0863524 0.09271936 -0.21650548
000360 84 78 39 3e f8 9b 36 3e b3 8d ae bc 8d 64 c0 3d
       0.1811238 0.17832935 -0.021307802 0.093941785
000370 fe 59 62 3e 85 77 b5 3c de 59 84 3d 6d 78 05 be
       0.22104642 0.022151718 0.06462453 -0.1303422
000380 72 23 33 be 22 8f ec be 35 92 21 bf 95 95 89 3e
       -0.1749399 -0.46202952 -0.6311372 0.26871935
000390 9d 4c 76 3c 03 a9 06 3e fb 6a 6f bd f2 2c 8e be
       0.0150329145 0.1315041 -0.058451634 -0.27768666
0003a0 d7 c7 6e be 0a 28 b8 3e 2e 54 b6 3d f9 0a ac 3e
       -0.2331842 0.35968047 0.08902775 0.3360212
0003b0 a3 15 32 be f9 e3 54 bd ae ba 8d be 6a 33 9c bd
       -0.17391066 -0.051975224 -0.27681488 -0.07626994
0003c0 c2 43 1e 3e 9e 18 9d be 1d c0 d8 3c 2b ae a6 3e
       0.15455535 -0.30682844 0.026458794 0.32554755
0003d0 c3 bd 59 be d2 bc 2b bf 1a c6 81 3d b3 6f 1c bd
       -0.21263795 -0.6708499 0.06336613 -0.038192462
0003e0 70 b1 8c bd 06 b4 b1 be 4a 4d b8 bc e4 20 9d 3e
       -0.06869781 -0.3470766 -0.022497792 0.30689156
0003f0 63 14 15 3e a3 a5 8d 3e 3f 49 e5 3e d9 25 a7 be
       0.14558558 0.27665433 0.44782445 -0.32646063

conv1.lin.bias f4 [64]
000000 4f f8 4a be aa 36 9d 3e 9c cd 54 be b3 5d b1 3e
       -0.19821285 0.30705768 -0.20781559 0.346418
000010 b3 96 14 be c5 cc 86 3e 5e 29 c3 3d 03 a5 ce 3d
       -0.14510612 0.26328102 0.095293745 0.10090067
000020 98 5d 81 3e a9 bc 65 3d 52 be e0 3c 91 3d b3 3e
       0.2526672 0.056088123 0.027434502 0.3500791
000030 58 14 d0 3d d5 b0 76 3e fd 2c 50 3c 92 52 d1 bb
       0.1016013 0.24090894 0.012706039 -0.006388017
000040 21 1b 92 3e 1c 07 4a 3d f1 56 1f 3d 75 db 5f be
       0.28536323 0.049323186 0.038901273 -0.2186106
000050 82 0a 78 be 32 ef 6b 3e 79 be 93 be 77 4b e4 3e
       -0.24222758 0.23040465 -0.28856257 0.44588825
000060 93 b8 82 3e aa 50 25 3d e7 1f 38 bd 20 57 e6 3d
       0.25531444 0.04036013 -0.0449523 0.112470865
000070 be 89 53 3e ac b2 63 3e 89 96 73 3e 50 2e 6d be
       0.20658013 0.22236127 0.23787893 -0.23162198
000080 6a 5b 23 be 17 01 92 3e 0b 44 ba be 94 b5 84 3e
       -0.1595284 0.28516456 -0.36380038 0.25919783
000090 b5 ba 36 be 58 a5 3a 3e 8e 50 5b be a9 c4 13 be
       -0.1784466 0.18227136 -0.21417448 -0.14430489
0000a0 a8 b3 7b 3e 0e 06 80 be 71 7c 26 be fd 06 9c 3e
       0.24580252 -0.2500462 -0.16258408 0.30474082
0000b0 b5 56 73 3e 4a 3c 5b be c1 a9 e2 3c cf c9 c2 be
       0.23763545 -0.21409717 0.027668836 -0.38044593
0000c0 71 00 b4 be ca 78 b9 be c6 a4 98 be f8 cb a2 be
       -0.35156587 -0.36224967 -0.29813212 -0.3179624
0000d0 2c 3b 5e 3e 86 e5 23 bd b7 fa 0d be 79 d2 c4 be
       0.2170226 -0.040013812 -0.13865171 -0.38441828
0000e0 2c 5f 9a be 5d 0f 95 3e 6b 72 1d 3d 0e 3c 56 be
       -0.30150735 0.29113284 0.038439196 -0.20921347
0000f0 e5 50 d2 3e 17 db 97 bd 2a 5b 65 bb ac 35 a4 3c
       0.41077343 -0.07414835 -0.0034996965 0.020045124

conv2.nn.0.weight f4 [64, 64]
000000 f9 5a f7 3d 23 ae 20 3e 61 1f 2b bd e3 74 92 bd
       0.120778985 0.15691428 -0.041777972 -0.071512006
000010 0d 80 f2 bd de be a0 be e4 5c fd 3c 23 e8 1e be
       -0.1184083 -0.3139562 0.030928083 -0.1551824
000020 41 a2 b2 be 24 3f 6c bd 15 c3 90 3d 47 51 51 bd
       -0.34889415 -0.057677403 0.07068459 -0.051102903
000030 68 27 b1 3d e6 63 60 be af dd 4a be 6c e2 13 bd
       0.08650094 -0.21913108 -0.19811128 -0.036104605
000040 ec b5 0a bd d5 eb af bd 59 55 c1 bd 12 67 ae bd
       -0.0338649 -0.08589903 -0.09440107 -0.08515753
000050 3d fa 9a 3c 8b d6 71 bd cb 06 55 be ac d0 9c bd
       0.018918151 -0.059042495 -0.20803373 -0.076569885
000060 a0 46 cd 3c 82 6d a1 3d 8c 77 10 bd 18 56 9f bd
       0.02505809 0.07882215 -0.03527026 -0.07780093
000070 a7 3a aa bd 56 cb c2 bc 44 af aa be 16 51 c3 bd
       -0.08311968 -0.023778599 -0.33336842 -0.0953695
000080 bd bb 18 3d 9e da be 3d ec c6 8d bd cb 90 c8 bb
       0.037288416 0.09319042 -0.06922707 -0.0061207763
000090 b1 9d b1 bd 90 5c 1a 3c d1 cf 7f bd 7c 0a 62 bb
       -0.086726554 0.009421483 -0.06245405 -0.0034491112
0000a0 a4 d8 d8 bc 46 cb 64 3d d7 9b 8a 3d 85 06 00 be
       -0.02647049 0.05585792 0.06768005 -0.12502487
0000b0 8f 64 46 be 03 ef df be 35 ad 21 3e e5 ec 99 bd
       -0.19374298 -0.4373704 0.1578873 -0.07515887
0000c0 fc 58 00 3e 7d 34 13 be 5a 50 15 3e 62 42 4b 3d
       0.12533945 -0.14375491 0.14581433 0.049623854
0000d0 6a e8 4e be 92 4d 35 bd b9 de d5 3b c6 9d fc 3d
       -0.20205846 -0.04426343 0.0065267948 0.123347804
0000e0 b9 e2 a3 3e 8c aa f1 bd cb 27 f9 bb 1d 1c 88 bc
       0.32008913 -0.11800107 -0.0076036206 -0.016614968
0000f0 b3 91 ba 3d 9a cf b6 3c e9 61 8e bd cb 22 0f 3d
       0.09109821 0.022315789 -0.06952269 0.03494529
000100 5c 97 f3 3d d6 3d b6 3b 94 65 ae bd 17 4a a9 3d
       0.11894104 0.0055615706 -0.08515468 0.08266085
000110 85 af 49 38 cf 43 1b be 8d 0c d7 bc 2e dc f2 3d
       4.80856e-05 -0.15162586 -0.026251102 0.11858402
000120 ee 4f e9 bc 35 9c f5 3c 8e 23 11 bd ea 09 af bd
       -0.028480496 0.029981712 -0.0354343 -0.08546813
000130 75 ca 98 3e 93 71 f9 be c3 07 b8 3e ef c8 c8 bd
       0.29841962 -0.48719463 0.35943422 -0.0980395
000140 ae 7d c3 3d c8 72 36 3e b3 f6 8b 3d 31 8f da be
       0.09545456 0.17817223 0.068341635 -0.4268737
000150 e3 10 1b bd 2a d8 e8 bd 3d df 05 be bc cd bf bc
       -0.0378579 -0.11369355 -0.1307344 -0.023413531
000160 8d d0 5e 3c 84 5e 5b bd 71 57 78 be c3 e0 91 3c
       0.013599527 -0.053556934 -0.24252106 0.01780737
000170 80 02 02 be 92 ce 99 3d fe 47 5c bd b5 b3 2f 3d
       -0.12696266 0.07510103 -0.053779595 0.04289599
000180 07 d1 89 bc 1d a7 84 bd c3 6e a7 3b c6 1a 2c be
       -0.016823305 -0.06477187 0.0051096394 -0.16807088
000190 cd 30 da bc 55 7f a7 3d 26 1d 6b 3d 2b dd 45 3c
       -0.026634598 0.081785835 0.057400845 0.012076656
0001a0 ae 8a 32 bc 9a 6f de b9 2a 11 d0 bd d0 ee 13 bd
       -0.010897322 -0.0004242629 -0.10159524 -0.03611642
0001b0 be 15 6a 3d f4 34 c3 bc 0e 69 79 bd 27 d6 db 3d
       0.05714964 -0.023828961 -0.060891204 0.10734206
0001c0 07 37 63 3f ce cf 23 bc b3 76 8a bd c8 cb 84 bc
       0.8875584 -0.009998275 -0.06760921 -0.016210452
0001d0 d6 84 d7 bb be 68 1d be 1e 78 c6 bd 74 b6 95 bc
       -0.0065771146 -0.15371987 -0.09690879 -0.018275477
0001e0 dd 72 fb bd 91 0c ac 3d 96 84 db 3d 97 78 84 bd
       -0.12277768 0.08400834 0.10718648 -0.06468313
0001f0 17 b8 0c be 2c e6 6b 3d f3 aa a6 bd 37 46 21 3b
       -0.137421 0.057592556 -0.08138075 0.0024608502
000200 6c 33 71 be 87 88 00 3e b0 b3 5d be e5 61 bd be
       -0.23554772 0.12552081 -0.21650577 -0.3698875
000210 db e5 a2 bd 62 d1 07 3e 95 d5 1a be 08 04 88 be
       -0.07953998 0.13263467 -0.15120538 -0.26565576
000220 14 04 1d 3e b3 8c 4b be 88 94 8e 3d 06 56 38 be
       0.15333587 -0.19877891 0.06961924 -0.18001565
000230 78 39 c6 bd 6d ea 46 3d c6 e4 89 be 1e 81 f1 3d
       -0.0967893 0.04856341 -0.26932353 0.11792205
000240 3e ce d0 3d 08 6e 7b be ce d6 03 be 75 40 99 3d
       0.101955876 -0.24553692 -0.1287491 0.07482997
000250 d5 53 1b be 55 78 1c 3e 9a bc 80 be 9e 89 08 3c
       -0.15168698 0.15280278 -0.25143892 0.008333592
000260 6d 0a 95 be f4 2d e9 bd e4 88 e8 3d 56 e1 a3 bc
       -0.29109517 -0.11385718 0.11354235 -0.02000491
000270 1c 26 cb bc da f2 5e be 17 b7 bf 3d e9 45 94 bd
       -0.024798445 -0.21772328 0.093610935 -0.07239897
000280 65 80 33 bd ef 6b ec 3c 54 6a af bd 74 df b4 bd
       -0.04382362 0.02886006 -0.08565202 -0.08831683
000290 8f 19 1f 3c 4a 90 2e 3e 07 4c 14 be 83 24 63 3d
       0.0097106835 0.1704723 -0.14482127 0.055454742
0002a0 9e 38 90 3d 14 4d 2e 3d 16 88 90 bd dc 65 b9 bc
       0.07042049 0.042553976 -0.07057206 -0.022631578
0002b0 aa e8 c7 be 8c 6f 47 3d da 6a 82 be 63 5b 25 bd
       -0.39044696 0.048690364 -0.25472146 -0.040370356
0002c0 16 cb 7b bd da b7 69 be c3 41 83 3d 4c 2b 8d bd
       -0.061472975 -0.2282404 0.064090274 -0.06893024
0002d0 58 6b 27 bd 3d 97 74 be f3 bf 79 bc f7 98 41 be
       -0.040873855 -0.23885818 -0.015243518 -0.18906008
0002e0 bb 9f a4 bd c5 85 d6 bc 26 f4 0c 3e 3b 2e 67 3d
       -0.08038279 -0.026186833 0.1376501 0.056440573
0002f0 d8 81 ba 3e 2b f4 46 3d a6 d7 92 bd d4 04 8b be
       0.36427188 0.0485727 -0.07170038 -0.2715212
000300 f6 ad 3a be 94 6e 07 3e d5 33 49 3c 18 60 99 be
       -0.18230423 0.13225776 0.012280424 -0.29956126
000310 12 08 63 3d fb 6c 9b be e4 95 0d be 27 20 79 be
       0.05542762 -0.30356583 -0.1382671 -0.24328671
000320 71 b7 33 be 48 4f 33 bd 34 be be bd 32 70 c8 bd
       -0.17550446 -0.04377678 -0.09313622 -0.097870246
000330 55 56 db bd bb e7 ae be 21 76 b0 be b5 77 14 bd
       -0.10709826 -0.3416117 -0.34465125 -0.036246974
000340 6e 2b 86 be 18 be 80 be 74 08 cf 3d 29 6d 81 bd
       -0.2620501 -0.2514503 0.10109034 -0.06319649
000350 32 eb 9a bd d7 12 b9 bd 62 87 1b bd 4a 83 d5 bc
       -0.07564391 -0.090367965 -0.037970908 -0.02606358
000360 1e 11 06 be 34 25 2a 3b a6 c0 be bc 24 0a ba 3d
       -0.13092467 0.0025962116 -0.023285221 0.090839654
000370 77 19 0a be 71 64 32 be 04 3d 30 be 33 64 b6 bd
       -0.13486277 -0.17421128 -0.17210776 -0.0890583
000380 50 21 2a be 73 5a 53 be c4 fc a6 bd c1 f0 16 3c
       -0.1661427 -0.20639972 -0.0815368 0.009212674
000390 e0 9d d3 3d 79 b9 0a 3e 5a 7e 09 be d8 94 1e 3d
       0.10332847 0.13547315 -0.13427106 0.038716167
0003a0 38 fb cb 3d 78 8b 46 bd 70 fb 2e 3d 71 fd 1d 3d
       0.099600255 -0.04847285 0.04272026 0.03857178
0003b0 2f 4a da bd cf 02 9d bd 76 27 0e be e3 c1 8f 3d
       -0.10658681 -0.07666551 -0.1388224 0.07019403
0003c0 fa f7 bc be 34 63 62 be 57 ac 1b be cc 4d f9 ba
       -0.3690794 -0.22108155 -0.15202461 -0.0019020378
0003d0 df e7 9c 3c 84 63 b0 bd aa 4f 11 bf c6 dc 85 bc
       0.019153534 -0.08612731 -0.5676218 -0.016340625
0003e0 58 b9 41 be 13 50 9a 3d 47 bc 14 3d 03 fe 55 bd
       -0.1891836 0.07534804 0.036312368 -0.052244198
0003f0 de e5 4f be 14 e7 4b b9 ae e3 b7 3d 17 31 df bd
       -0.20302531 -0.00019445672 0.08978973 -0.10898035

conv2.nn.0.bias f4 [64]
000000 09 fa 5d 3e 43 fb e0 3d 98 22 ac be 04 9e c0 bd
       0.21677412 0.10985424 -0.33620143 -0.09405139
000010 39 bc 4a bd df 45 d7 3d 71 ab 08 3f 5d f6 90 bd
       -0.04949591 0.10511374 0.533866 -0.0707824
000020 2f 9d ae be cc c6 c8 3a 0a 32 12 be bf 90 81 bc
       -0.34104297 0.0015318035 -0.14276901 -0.01581609
000030 66 52 dd ba c2 66 34 bf 0f c2 eb bd 8c dc c1 bd
       -0.0016885519 -0.70469296 -0.11511623 -0.09465894
000040 5c bd 35 be 53 80 44 bd 41 86 9e be 4d 07 e7 3c
       -0.17748016 -0.047973942 -0.30961803 0.028201723
000050 e8 3c 99 bd af 5c fe bd b5 d2 02 3f 37 bc 4a be
       -0.0748232 -0.12420022 0.51102763 -0.19798361
000060 c8 83 16 be 51 27 4d 3e bf 7d 1e bd 5c 34 cd bd
       -0.14698708 0.2003453 -0.03869414 -0.100197524
000070 81 4b 97 3d 4a af 04 3e d6 15 a0 3e 3c e8 b2 bd
       0.07387448 0.12957492 0.3126666 -0.087357014
000080 7d f1 20 be cf f8 26 3e 02 38 5d be fb d6 a3 3d
       -0.1571712 0.1630585 -0.21603397 0.07999989
000090 b0 ea 23 3f 96 c1 2f 3c 61 ea 1b bd c8 8c de 3e
       0.6402998 0.010727307 -0.038065318 0.43466783
0000a0 00 40 64 3e a0 d7 d5 3e 27 a6 5f be 5c 0d da bc
       0.22290039 0.4176607 -0.21840726 -0.026617698
0000b0 07 bd 9f 3e 59 ba 46 bd e1 41 6a be 53 7d 2c 3d
       0.31198904 -0.04851756 -0.22876693 0.042111706
0000c0 63 4e ac 3e 77 f5 92 3d 99 19 0d be 25 05 87 be
       0.33653554 0.07175725 -0.13779296 -0.26371112
0000d0 26 74 6e 3e 74 dc d2 bd 9c 2d da bd e7 4c 82 bd
       0.23286495 -0.10295954 -0.106532305 -0.06362324
0000e0 b1 40 a2 3c 6a fe ef 3d 76 d6 b3 bd bd e7 05 3f
       0.019806238 0.117184475 -0.087811396 0.5230673
0000f0 fc 16 96 be 84 4c 39 3e 7e 9d 27 bc ab 0f 95 3e
       -0.2931441 0.18095595 -0.01023042 0.29113516

conv2.nn.2.weight f4 [64, 64]
000000 27 49 c9 3d 23 76 08 be 56 cd 08 bd 28 fd a8 3e
       0.09828406 -0.13326316 -0.03339895 0.33005643
000010 fa 65 c0 3d e1 42 88 be e4 a0 d9 3e 54 1e db 3d
       0.093944505 -0.26613525 0.42505562 0.10699144
000020 b8 04 05 be b3 e4 d0 bd 2a db cd 3d 2c e9 07 be
       -0.12990081 -0.10199871 0.10051568 -0.13272542
000030 ab ba d9 bd 41 44 41 3d 25 86 1b bd 99 af 38 3c
       -0.10631307 0.047184233 -0.037969727 0.0112723345
000040 c9 6f 1a 3d 69 c7 3d be 45 96 fc bd 74 39 b7 3d
       0.037704263 -0.185331 -0.12333349 0.08946505
000050 68 21 e9 3b 31 7c 15 bd 95 32 f0 3c a5 c5 d9 bc
       0.007114578 -0.03649539 0.029320994 -0.026583502
000060 00 d5 97 3d 66 05 00 be 44 71 73 3d 27 cb a9 bb
       0.074136734 -0.1250206 0.05943419 -0.0051816883
000070 df a3 f6 bd b7 a8 d4 3d ac 84 26 be 35 98 71 3d
       -0.12042975 0.10383742 -0.16261548 0.058983047
000080 e4 a1 42 3d 16 74 94 3c 91 16 ae 3c c5 a8 e8 bd
       0.047517672 0.01812176 0.021250995 -0.11360315
000090 8b 57 f0 bd c4 36 52 bc 0f ff 0d be 1b 2a d6 bd
       -0.117354475 -0.01283044 -0.13866828 -0.1045725
0000a0 73 bc 95 ba 10 b9 ff 3d b1 7f a1 3d 9c fe ec bd
       -0.001142396 0.1248647 0.07885683 -0.115720004
0000b0 94 65 34 3e ec 9e 97 bd 70 ba b8 3d 07 7b ca be
       0.17616874 -0.07403359 0.09019935 -0.39546987
0000c0 57 6d 09 be 29 98 46 be 92 cb d2 bd b0 e2 ea 3c
       -0.13420616 -0.19393982 -0.10292734 0.028672546
0000d0 c6 39 11 3d 49 46 f2 3c 54 9f ea bc 19 2d 8e bc
       0.035455488 0.02957453 -0.028640427 -0.017355489
0000e0 e5 b8 83 3d d1 a2 bd bd 3a d2 fc 3d d7 aa 6c 3e
       0.0643175 -0.092595704 0.12344785 0.23112045
0000f0 60 1f 96 bc a7 a8 ee 3c 1c 7e fd 3c da a7 c1 3d
       -0.018325508 0.029133154 0.030943923 0.09455843
000100 f1 cc e3 bd 9f 45 1a bd 1d f9 c5 bd aa bd 55 3e
       -0.11123074 -0.037664052 -0.09666655 0.20873132
000110 b2 5f 50 3d f2 47 77 be 05 ff b7 3e fd 83 a0 bd
       0.050872512 -0.24148539 0.35936752 -0.07837675
000120 4c 4b 24 3c f7 91 a2 3c 45 ba cb 3d 31 0c a8 bd
       0.010027718 0.019844992 0.099476375 -0.0820545
000130 13 e3 d6 bd 85 bc 19 3d f7 81 bb bc 30 2d 0f bc
       -0.1049253 0.0375333 -0.02288912 -0.008738801
000140 59 7f 4d bd 19 a1 33 bd f3 7a 9e 3c 6e 73 de 3c
       -0.050170276 -0.043854807 0.019345736 0.02715465
000150 d1 d2 b3 bd 71 31 2f bd 87 d3 b4 3c c7 fe 0c be
       -0.087804444 -0.04277176 0.02207352 -0.13769065
000160 48 4f 03 3d 53 94 92 3d 64 56 5d 3d 7a de 84 3d
       0.03205803 0.07157197 0.054037467 0.064877465
000170 11 07 8c 3d 16 59 a5 3d 44 4d 14 be 56 d7 0a 3c
       0.06837285 0.080736324 -0.144826 0.008474192
000180 7c ae c8 bd c7 eb 9a 3d 7b a5 20 be 4d 12 e3 bd
       -0.09798905 0.07564502 -0.15688126 -0.11087475
000190 ff a5 9c 3d 5a d9 1c 3d 19 9f 0d be 51 31 37 bd
       0.07648849 0.03829322 -0.13830222 -0.044724766
0001a0 da e7 44 3d 9b 84 ed 3d 37 4e e4 3d a2 2d ad bd
       0.048072673 0.11597558 0.11147731 -0.084559694
0001b0 30 2d ec 3c 68 f7 27 3d 19 fa 1b 3e 18 2d 43 bf
       0.02883014 0.04100743 0.15232123 -0.7624068
0001c0 d6 8a 82 3d 68 ea 7c 3d 5c 92 af 3d f7 db 21 3d
       0.06374137 0.061746985 0.08572838 0.039516415
0001d0 76 27 40 3d b0 87 c0 3d a0 a6 36 bd 02 39 1f bd
       0.046912633 0.0940088 -0.0445925 -0.038872726
0001e0 16 72 63 bc dc 33 01 be 30 2b 01 bd 43 52 54 3e
       -0.013882181 -0.12617439 -0.031535327 0.20734505
0001f0 1c 8f 9c bd ba 90 89 bd ca e1 b2 3c 82 dd a9 bd
       -0.076444834 -0.067170575 0.02183618 -0.082942024
000200 cd dd 61 bd f5 3f 9b bd 3b 81 4f 3e 2a 2f 00 be
       -0.055143166 -0.07580558 0.20264141 -0.12517992
000210 4e b2 ef 3c bd 79 3b be 4e 15 d2 bd b1 d2 8e 3c
       0.029259827 -0.18308158 -0.1025797 0.01743445
000220 f0 e5 25 be 20 f8 4c bb 72 67 4e 3c 54 df 50 3d
       -0.16200995 -0.0031275824 0.0125979055 0.050994232
000230 7a 91 85 bd af e4 eb 3d bd d6 6d 3d c4 7c d5 3d
       -0.06521888 0.11518227 0.05806612 0.10424188
000240 10 57 94 3b bd eb 05 3e 56 a0 8a bd 2e 0f b2 3d
       0.00452698 0.13078208 -0.06768863 0.086943015
000250 33 1d 32 3d 6f ac cf 3c 2c 71 d7 3c 2a 9a 84 3c
       0.043484878 0.025350777 0.026299082 0.016186792
000260 6b 1a 41 bd 86 22 11 be 5f 38 61 3d 31 9a 10 bd
       -0.047144335 -0.14173326 0.0549854 -0.0353033
000270 c2 2d ee bd 19 7d 42 be dc ac 30 3d f5 07 2e bd
       -0.11629821 -0.18993033 0.0431336 -0.042488057
000280 09 4d 1f 3d f3 86 1d bd 4c 43 72 3c 88 e1 ad 3c
       0.038891826 -0.038458776 0.014786553 0.021225706
000290 ca 62 a3 3d ed fa 12 3d 5a a6 ea 3c b4 0a 66 bd
       0.07977827 0.035883833 0.028643776 -0.05616255
0002a0 a2 f0 6a 3d 84 6d fe bd f3 1e a0 3d 57 e9 e0 3d
       0.05735839 -0.12423232 0.07818403 0.10982006
0002b0 94 e9 13 be 7b a9 d3 bd 9d cf dd bd bf 34 13 3f
       -0.14444572 -0.1033506 -0.10830615 0.5750236
0002c0 61 7b 0b 3e ed e2 0e be ee b1 15 3d 12 14 84 3d
       0.13621284 -0.13953753 0.03654664 0.064491406
0002d0 db d1 7c 3b 34 4f a1 3d ed 7c ab bd 35 0c a6 bd
       0.0038577232 0.07876435 -0.08373437 -0.08107797
0002e0 c8 8d 12 bd 7a a5 c7 3b 76 99 d8 3d 19 1c 7c 3d
       -0.035779744 0.0060927244 0.10576145 0.061550234
0002f0 dc 53 85 bd 7b f4 88 3c fe f9 87 bd d5 58 60 3d
       -0.065101355 0.01671814 -0.06639479 0.054772217
000300 e8 ae bd bd 0b ab 96 3d 22 98 06 be df 36 96 3d
       -0.09261876 0.073568426 -0.13143972 0.073346846
000310 2f bc 53 bc 54 7e 49 be 0e dc 43 3e 9d 2e cd 3c
       -0.012923284 -0.19677097 0.19126913 0.025046641
000320 63 07 8c 3d 5e 4d 73 bd 17 c8 eb bd af 81 2f be
       0.068373464 -0.059399955 -0.115127735 -0.17139314
000330 78 45 8e bd cd 08 2a 3d df 57 ad 3c 0c f6 f7 bd
       -0.06946844 0.0415123 0.021160064 -0.121074766
000340 74 b8 2a 3d ff ff 8b 3d 81 b4 ad bd 01 d3 60 bd
       0.041679814 0.06835937 -0.08481694 -0.05488873
000350 71 63 c4 bc 39 0a 0f be 58 89 a8 3d e7 57 75 3d
       -0.023973199 -0.13968743 0.08229321 0.059898283
000360 1c 07 aa bd 47 7c ae 3d 49 d5 82 3d 57 8c d8 3d
       -0.08302137 0.08519798 0.06388337 0.10573643
000370 a4 bb be bd 28 e3 06 3d 36 84 a0 3d 35 07 97 3d
       -0.09313133 0.032931477 0.07837717 0.073744215
000380 7e 1c ab 3d a8 c9 16 3d 3d 03 b7 3d cf 46 c2 ba
       0.08355044 0.036813408 0.089361645 -0.0014822128
000390 68 0b 83 bc a0 67 ee 3d bc e4 91 3d 13 c4 66 bd
       -0.01599665 0.11640859 0.07123706 -0.056339335
0003a0 ea 84 01 3d 25 44 c1 3d 3b 1c d1 3d 56 3f 42 be
       0.031620897 0.09436826 0.10210463 -0.18969473
0003b0 ea 8d 2d b8 87 ad 7e 3d 7b d8 31 3d f3 1f bc 3e
       -4.1378582e-05 0.062177207 0.043419342 0.36743125
0003c0 02 8e 0f bd 6c c6 4a bd 6e e5 d8 3d 57 9d 30 bc
       -0.03504754 -0.049505636 0.10590635 -0.0107797
0003d0 b1 ae 95 bb 76 c6 44 3d 8d 08 c7 bd 33 27 95 3c
       -0.004567944 0.04804083 -0.09718428 0.018207168
0003e0 c3 c6 a6 3d 6d 51 97 3d cf 78 f8 bd c0 8c a5 3c
       0.081433795 0.073885776 -0.121324174 0.020208716
0003f0 59 8d 36 bc 5c ae 0c be eb b6 74 3d 11 d2 97 3d
       -0.011142098 -0.13738388 0.059744757 0.07413114

conv2.nn.2.bias f4 [64]
000000 5b 84 ae bd 0a ae b3 3d c1 77 61 3d 77 be 45 be
       -0.085213386 0.0877343 0.055045847 -0.19310938
000010 3b 7b 65 3d d0 f8 df be b1 0a 49 be 42 ab ab be
       0.056025725 -0.43744516 -0.19632985 -0.33529097
000020 45 c0 8c 3d 96 2d d5 3d 25 9e df 3c 90 38 79 3e
       0.0687261 0.104090855 0.027297089 0.24337983
000030 18 8c 40 be 3d 0c 04 be 87 57 a1 bd 06 4e 9d be
       -0.18803442 -0.12895294 -0.07878023 -0.3072359
000040 92 35 2a bc 82 ea ab be f0 f4 af be da e7 dd 3d
       -0.010388749 -0.33577353 -0.3436656 0.10835238
000050 eb da 1f 3e 39 8a 97 bd dd 4f 24 3e 53 45 71 3e
       0.15610854 -0.07399411 0.1604609 0.23561601
000060 b7 e8 2d be 54 70 64 be bd a6 b8 bb dc 36 23 be
       -0.16983305 -0.22308475 -0.005635111 -0.15938896
000070 df 04 5b 3e cf 3a 04 be ed ec b2 be fe 2e 29 3d
       0.21388577 -0.12913059 -0.34946385 0.04130458
000080 65 9a d4 3c ee 0d 86 bc 4a 4d 45 be 4e 8a de be
       0.025952527 -0.016364064 -0.19267765 -0.43464893
000090 24 db be bd 5f f5 6f be 3e 3b a5 bd c7 a9 6c 3e
       -0.093191415 -0.23433445 -0.0806794 0.2311164
0000a0 13 55 b1 bd 50 9f 3e 3e 05 7b 25 3d a6 b4 18 be
       -0.08658805 0.1861546 0.040400524 -0.14912662
0000b0 04 7f 38 3e 92 2e 7b be 42 11 e8 3b 64 32 45 be
       0.18017203 -0.24529484 0.0070821354 -0.19257504
0000c0 16 e8 87 be 53 38 7e bc da d6 69 bc 5d 9b 4b be
       -0.26544255 -0.015516358 -0.014272416 -0.19883485
0000d0 53 20 14 be af 79 85 3e 77 98 02 3f 61 08 47 be
       -0.14465456 0.260694 0.5101389 -0.1943679
0000e0 6b bb d2 3d dc f0 4b be 7d a9 dd be bf b7 90 be
       0.102896534 -0.199161 -0.43293372 -0.28265187
0000f0 4e 4b 22 be 73 5b 8b 3c f5 39 97 bd ea 65 17 be
       -0.15849039 0.01701138 -0.07384101 -0.14784971
