checkpoints/A/model_A_epoch_108.pth (torch, 78709 bytes, 15 tensors)

node_embedding.weight f4 [1, 64]
000000 c9 60 0d 3e a0 11 de bd 08 5d b1 be 2c 2a 7b bf
       0.13806452 -0.108432055 -0.3464129 -0.98111224
000010 09 41 bc 3f 7f 07 bf bf 4e 86 24 be 98 3c 89 3f
       1.4707347 -1.4924163 -0.16066858 1.0721617
000020 14 de 6e be 5b fb 8b 3f 5d 6d 74 3f 8c 6a 41 bf
       -0.23326904 1.0936083 0.95479375 -0.755532
000030 c7 ce 99 3f f7 f0 ce bf 77 a5 e4 bf 74 93 ff bc
       1.2016228 -1.6167287 -1.7862996 -0.03119824
000040 79 5b 00 40 2a 35 37 3f d2 dd ad 3f 15 93 03 c0
       2.005583 0.71565497 1.3583319 -2.0558522
000050 e4 39 97 3f eb 6b 91 be 37 12 6e bf 72 3e e8 be
       1.1814542 -0.28402647 -0.92996544 -0.45360142
000060 0b e2 5b bf 6c bf e7 be ff 52 b2 bf 0b 8a 42 3f
       -0.8589179 -0.4526323 -1.3931578 0.75991887
000070 3d 24 d1 3f 5c ad 14 3f a3 23 24 3f d0 1c 05 bf
       1.6339184 0.58077025 0.6411688 -0.5199709
000080 a4 1c 83 3f 41 84 2d c0 db b4 77 be b7 32 fe 3f
       1.0243115 -2.7111971 -0.24190085 1.9859227
000090 37 0e e6 3f 2a 20 ab 3f 08 7c a8 bf b9 91 14 3e
       1.7973088 1.3369191 -1.3162851 0.14508714
0000a0 2a 54 eb 3e 39 68 02 40 ec d2 8c bf f0 e1 b6 bf
       0.4596265 2.0376112 -1.1001868 -1.4287701
0000b0 a1 0d 04 3e 09 0d 98 3e 16 7f b6 3e b5 4a 59 3f
       0.12895824 0.29697445 0.35643834 0.8487962
0000c0 00 70 65 3f 7a 1d 40 bf aa df 5b 40 a4 81 29 bf
       0.89624023 -0.7504498 3.4355264 -0.6621344
0000d0 dc 04 67 be 00 b9 d3 3f 00 96 5a bf a2 8a 50 3f
       -0.22560447 1.6540833 -0.8538513 0.81461537
0000e0 46 a1 8f 3e 6d 4c 87 bf cc 6f 43 bd ca 61 9d be
       0.2805273 -1.0570198 -0.04771404 -0.3073867
0000f0 af a4 59 bf 40 f7 90 3f 06 15 c5 3f 62 77 ce 3f
       -0.8501691 1.1325455 1.5397041 1.6130183

conv1.nn.0.weight f4 [64, 64]
000000 f5 80 d0 3d c6 e3 0d bd 4f b1 e5 3c 96 31 07 3e
       0.101808466 -0.03464105 0.028038649 0.1320251
000010 c1 78 f6 bd 43 d1 fa 3d 64 b1 ff bd 32 60 07 bd
       -0.12034751 0.12246945 -0.124850065 -0.033050723
000020 cf b3 17 be fe b1 02 be ef 06 2d 3c b2 db 9b 3d
       -0.14814685 -0.12763211 0.010560735 0.07610263
000030 76 d9 66 3d 39 8e 19 3d e3 70 27 bd b7 7e 10 3d
       0.05635973 0.03748915 -0.04087914 0.035277095
000040 c7 ac e0 bd a9 f7 8f bd 3f 01 a8 3d dc e8 49 3d
       -0.10970455 -0.07029659 0.08203363 0.049294338
000050 cb dc 21 bd 97 48 8d 3a 8b f7 32 bb 8e e7 d5 bd
       -0.039517205 0.001077908 -0.0027308192 -0.10444556
000060 7e b7 62 3d 77 83 4d bd 2a f2 c1 bd 57 7c 74 bb
       0.055350773 -0.050174203 -0.09470017 -0.0037305558
000070 da b7 88 3b f5 67 97 3c ee e1 0c bd 99 b6 9f 3d
       0.0041723074 0.018482188 -0.03439515 0.077984996
000080 42 af 7d bd 27 09 24 bd 57 64 ec 3c 95 7b d9 3c
       -0.061934717 -0.04004779 0.02885644 0.026548186
000090 3d f1 81 3d 98 12 01 3c aa 65 a8 bd b1 30 f7 bd
       0.06344841 0.007877968 -0.08222516 -0.12069834
0000a0 b3 e9 3f 3c fe 14 e7 bd eb f7 91 bd 20 17 a4 3d
       0.011713433 -0.11283301 -0.07127365 0.08012223
0000b0 82 0c 4f bc a4 ab 9a bd 4e e8 e1 bd f9 42 ad 3d
       -0.012637259 -0.07552269 -0.11030637 0.0846004
0000c0 8f 57 b2 3c 9f 25 89 3d e4 ce 77 3d 6a 7d 4c 3d
       0.021770267 0.06696629 0.06050004 0.04992429
0000d0 24 09 63 3d 33 8e bc bb eb d3 c0 bd 19 ea 9e bc
       0.05542864 -0.005754256 -0.0941542 -0.019398736
0000e0 86 9f ab 3d 62 57 27 3d 52 97 f8 bd 03 46 e9 bc
       0.08380036 0.04085482 -0.12138237 -0.028475767
0000f0 34 7d 7f bb 6b fa 5c bd c2 8c 75 3d 37 37 90 bd
       -0.003898454 -0.053949755 0.05994869 -0.070417814
000100 3c 3a 57 3d 10 df ee bd e0 9f 28 bd 80 53 ce bb
       0.05254577 -0.116636395 -0.041168094 -0.006296575
000110 8a db b9 3d a0 96 2e bc 88 5c 52 3d c8 09 0f 3d
       0.09075077 -0.010656029 0.051357776 0.034921438
000120 f8 cd cc bd 00 2d 48 bb 30 2c 54 bc 40 c1 93 3b
       -0.10000223 -0.00305444 -0.012949988 0.004509121
000130 2c da f7 bd 0e b5 fc bd 24 7c 1b bd 88 f1 c8 3c
       -0.1210216 -0.12339221 -0.037960187 0.024529234
000140 e2 a5 80 bd 1c 1c 32 3d 28 a4 e7 bd c4 21 36 bd
       -0.0628164 0.04348384 -0.11310607 -0.044465795
000150 94 6c f7 bd 46 90 ce 3d 0e 59 b6 bd 14 6e c1 bd
       -0.120812565 0.10086112 -0.089037046 -0.09444824
000160 f4 4e 6f 3d 8c 2d 73 bd 98 80 d1 3c c0 a5 2e bd
       0.058424905 -0.05936961 0.025574014 -0.04263854
000170 b4 ac 45 bd 38 68 29 bd a6 f5 f5 3d a0 79 ed bc
       -0.048260406 -0.041359156 0.12009744 -0.02898866
000180 80 b5 b9 3c ae 55 ac bd 62 a8 8c bd 3c 12 4b bd
       0.022669554 -0.084147796 -0.06868054 -0.049577937
000190 da c9 f2 bd 18 95 f8 bd 16 36 fd bd 6c 2e 00 3d
       -0.118549064 -0.121378124 -0.12363832 0.03129427
0001a0 6c 09 b6 bd 00 c8 1c bb d8 bd 93 3c d0 f6 35 bd
       -0.08888516 -0.002392292 0.01803486 -0.044424832
0001b0 d6 25 eb 3d d2 72 8b 3d 90 d7 ba 3d cc 83 fd bd
       0.11481826 0.068090096 0.091231465 -0.12378654
0001c0 c0 d8 2b bb 00 19 eb 3d 88 25 5f bd 44 5e 1e 3d
       -0.0026221722 0.11479378 -0.054479152 0.038664117
0001d0 fa b0 d0 bd 80 03 2a bc 90 91 01 bc a0 72 b5 bb
       -0.101900056 -0.010376811 -0.00790824 -0.005537346
0001e0 1e eb fa bd 60 71 9b bc 68 0d a3 3d 7c 1d 30 3d
       -0.12251876 -0.01897496 0.079615414 0.04299687
0001f0 92 b9 c4 3d ec 00 18 bd 00 72 9a 3a a8 28 a1 3d
       0.09605707 -0.037110254 0.0011783242 0.07869083
000200 20 70 57 bc b0 43 9a 3c 16 90 e5 bd 40 1a 01 bd
       -0.013149291 0.018831104 -0.11209123 -0.031519175
000210 b0 ba ca 3d 08 3a eb 3d 18 a5 1f 3d c8 e0 89 bd
       0.09898889 0.11485678 0.038975805 -0.06732327
000220 b2 0a cb 3d 6c 95 30 3d 38 25 d5 bd 90 e3 09 bc
       0.09914149 0.04311125 -0.104074895 -0.0084160715
000230 86 f7 85 bd 10 83 8c bc 2c e3 74 bd d0 77 b4 3d
       -0.06541352 -0.01715234 -0.05978696 0.08811915
000240 e8 fe 93 bc 50 26 e6 3c b8 d8 c7 bd cc 20 46 bd
       -0.018065885 0.02809444 -0.09758133 -0.04837112
000250 0c c5 6a bd a8 e4 18 3d a0 d3 d5 bd 0c b8 43 bd
       -0.057316825 0.03732744 -0.10440755 -0.047782943
000260 1e 87 fe bd 00 af 95 bb c8 ff 15 3d da de dd bd
       -0.12428115 -0.0045679808 0.036620885 -0.10833521
000270 28 86 d5 bc 28 df d2 bd 28 aa f9 bd 78 6b d0 bc
       -0.026064947 -0.1029647 -0.12190658 -0.02544187
000280 1c 1c 64 bd a8 66 dc bc c0 ff 5b 3d 48 0e a5 3d
       -0.05569087 -0.026904419 0.0537107 0.080593646
000290 c8 32 fe 3c ec 43 8e bd f0 46 bd 3c e8 c6 95 3c
       0.031030074 -0.06946549 0.023105115 0.018283322
0002a0 88 2e fa 3d a0 8b 0e 3d f0 a1 93 bc 54 55 8f bd
       0.122159064 0.034801126 -0.018021554 -0.06998697
0002b0 30 e9 46 bc 80 29 41 bc 64 90 dd bd 30 01 3c bd
       -0.012140557 -0.0117896795 -0.10818556 -0.04589957
0002c0 40 71 45 3d 50 f1 77 3c e0 b4 b6 3c f8 55 31 3d
       0.048203707 0.015133217 0.022303045 0.043294877
0002d0 34 8b 5d 3d 78 b6 bd bc 3c f2 98 3d a0 d0 b9 3b
       0.054087833 -0.023158297 0.074680775 0.005670622
0002e0 70 81 5d bd d8 8a 69 3d b6 d4 fc 3d 24 71 14 3d
       -0.05407852 0.057017177 0.12345259 0.03624071
0002f0 be f3 ab 3d b8 03 81 3c 6c 3e 5a bd 60 a7 bb 3c
       0.083960995 0.015748844 -0.053282186 0.022906959
000300 f8 25 17 bd 98 b8 06 bd 7c b2 a1 bd 1a ce ce 3d
       -0.036901444 -0.032890886 -0.07895371 0.100979045
000310 28 ec b7 bd 40 b0 dc 3d 70 df 0b bd 9a b6 ec 3d
       -0.0898059 0.107758045 -0.034148633 0.11558266
000320 08 c7 97 bc 06 26 fd 3d 76 7e ff bd 00 50 29 b8
       -0.018527523 0.12360768 -0.124752924 -4.0367246e-05
000330 a2 60 f3 bd 9c 19 79 bd 00 03 86 bb f0 ab b3 3d
       -0.118836656 -0.06081544 -0.004089713 0.08773029
000340 00 86 50 bd 72 5f dc 3d 38 03 c6 3c 80 df 10 bb
       -0.050909042 0.10760392 0.024171457 -0.0022105873
000350 82 f8 fe 3d 82 bb 98 bd 58 5c c8 bc 40 87 9f 3d
       0.12449743 -0.07457639 -0.024458095 0.07789469
000360 94 68 b7 bd 4c 6d f4 bd ca c5 c4 3d fa ea cd bd
       -0.089554936 -0.11934909 0.09608038 -0.10054584
000370 e0 54 07 3c 58 d0 e5 3d f8 9e 95 3d d8 30 2a 3d
       0.008259982 0.11221379 0.073057115 0.041550487
000380 10 a3 ba 3c 84 ac 3a bd 98 9b 96 bc 88 0d ec bd
       0.022782832 -0.04557468 -0.01838474 -0.115260184
000390 e0 c4 da 3b f4 86 8a 3d 5e 95 b3 3d ee 53 9d bd
       0.0066763014 0.067640215 0.08768724 -0.07682024
0003a0 a0 09 58 bd a0 7b ac bc a0 ec 92 3c b0 22 49 3d
       -0.052743554 -0.021055043 0.017935097 0.049105346
0003b0 00 dc ca bb b0 66 d4 bc a2 41 f7 bd bc 38 e0 bd
       -0.006190777 -0.025927871 -0.12073065 -0.10948321
0003c0 c0 1d 37 bd d0 38 25 bd 80 aa 08 bd bc 3b 29 3d
       -0.044706106 -0.040337384 -0.033365726 0.041316733
0003d0 28 a2 ec bd 38 51 99 3d 5c b6 7b bd 38 f9 7d bd
       -0.11554366 0.07486194 -0.06145321 -0.06200525
0003e0 f8 4c 95 3d ec 6f 21 3d d8 38 76 bd 40 91 7d bb
       0.07290071 0.039413378 -0.060112804 -0.0038691312
0003f0 e0 d8 70 bc c0 27 f2 bb 88 ad 4f bd 20 aa c4 3b
       -0.0147001445 -0.0073899925 -0.0507026 0.006001726

conv1.nn.0.bias f4 [64]
000000 34 ea 66 bd 04 29 d9 3d 50 8d 1c 3d 2c 9b 77 3d
       -0.056375697 0.10603526 0.038220704 0.060450718
000010 a4 7c 90 3e e4 89 e5 bd 7d d3 a8 3d 84 c9 7d 3d
       0.28220093 -0.11207941 0.08243463 0.06195976
000020 3a d0 13 bd e4 82 49 be 82 8b 75 3d 38 27 89 bd
       -0.036087252 -0.19678837 0.0599475 -0.066969335
000030 b8 58 c2 bc e7 bc 3e 3e 14 54 2d be 0b 9a b7 3d
       -0.023723945 0.18626748 -0.16926605 0.08964928
000040 bb 07 5a 3d ec 28 9d bd 82 d6 2a bd 6b 10 87 3e
       0.05323003 -0.07673821 -0.041708477 0.26379713
000050 70 ab 1b 3c 13 60 7f 3e 15 a5 c0 3d 45 5b c8 bc
       0.009501323 0.24938993 0.09406487 -0.024457583
000060 67 70 fe bd 1f 07 ef 3c 50 1d 75 3d 68 35 c1 bd
       -0.12423783 0.0291782 0.059842408 -0.094340146
000070 b4 2f f7 3d c7 9f 5f bd 30 83 17 be 3e 29 32 3d
       0.120696455 -0.054595735 -0.14796138 0.043496363
000080 da c8 0d 3e b9 85 47 3c 5f 57 c5 bd d5 59 f4 bd
       0.1384615 0.012177878 -0.09635805 -0.119311966
000090 1c 9a b4 bc dd 40 d4 3d e0 8b 9f 3c 29 5f a6 3c
       -0.022046141 0.10363934 0.019475877 0.020309048
0000a0 f9 a1 d7 3d 2c fc ea 3d a0 e4 82 3c 22 c6 cc bd
       0.10528941 0.11473879 0.015978158 -0.09998728
0000b0 c6 05 ba bd fd d3 8f bd 15 6d 94 3d 2f 29 22 3d
       -0.090831324 -0.070228554 0.07247368 0.039590057
0000c0 d8 aa 22 bd f8 e5 78 3d 28 f7 14 be 12 67 a9 bd
       -0.03971371 0.06076619 -0.14547408 -0.08271612
0000d0 00 00 eb b7 a8 38 af bc 38 96 9a 3d 01 3b 42 3d
       -2.8014183e-05 -0.02138932 0.07548183 0.04741955
0000e0 3e d6 cb bd fd 7c 16 be 71 9f b9 3d 93 d3 6b 3d
       -0.09952973 -0.14696117 0.09063614 0.05757482
0000f0 e7 b5 41 bd 1f 2d 8d 3d d9 fa 16 bd bf 7d 34 bc
       -0.047292616 0.06893372 -0.03686032 -0.011016308

conv1.nn.2.weight f4 [64, 64]
000000 2c 36 6d 3d 20 78 22 3c 08 c6 89 3c 88 0c dc bd
       0.05791299 0.009916335 0.016818061 -0.10744578
000010 3b 68 a2 bd 82 43 78 bd 47 c0 be 3c 04 4a 4e bd
       -0.07930037 -0.060611255 0.023285044 -0.050363556
000020 0a af 17 bc ae 36 5b 3d a0 73 25 3d 78 f3 37 3d
       -0.009258041 0.053518943 0.04039347 0.044909924
000030 08 cb 81 3d 3b 46 15 be eb 96 bd bc e2 64 8c 3d
       0.06337553 -0.14577572 -0.023143252 0.06855179
000040 6b 4a 84 3d 7f 11 41 bc 15 2b 28 bd 96 ba 5f 3d
       0.064595066 -0.011783957 -0.04105671 0.0546213
000050 ba 07 fa bd 4b 16 a7 bc 5a 48 f9 bc 9e 27 ae bd
       -0.12208505 -0.020396372 -0.030430008 -0.0850365
000060 87 f4 55 3c d1 8f 03 3e d4 9b cc 3d 1b 06 fb bd
       0.013058788 0.1284783 0.09990659 -0.12257024
000070 fc 88 2e bd 96 ae 23 3d 1e 6e 5c 3d 2e b3 9f bd
       -0.042611107 0.03996142 0.053815953 -0.07797848
000080 03 c9 ce bd 79 21 27 bd 4e a7 8c bd 94 ea 3b 3d
       -0.10096934 -0.040803406 -0.06867848 0.045878008
000090 36 c0 d0 bd 73 75 fa 3d f8 ce d1 3d 2a 99 e1 bd
       -0.10192911 0.12229433 0.10244554 -0.11015542
0000a0 a6 be f5 3d 34 67 96 3d d8 a5 56 3d 08 45 92 bd
       0.11999254 0.07343903 0.052404255 -0.07142073
0000b0 78 b2 d5 3c 67 47 36 3d 0c 77 26 3d 98 5d 85 3c
       0.026086077 0.04450169 0.040640876 0.01627998
0000c0 58 f5 f3 3c 26 2c b0 bc 25 c5 b8 bd 40 8b c2 bd
       0.029780075 -0.021505427 -0.09021977 -0.09499216
0000d0 48 4f b6 3d 00 4f eb ba c9 14 cb 3b c3 cb 88 bd
       0.089018404 -0.0017952621 0.006197546 -0.066794895
0000e0 ac fc 05 3d a2 16 9e bd b6 69 97 3d 7a 06 a5 bd
       0.03271167 -0.077191606 0.0739321 -0.08057876
0000f0 9d 0c b7 bd a6 0d f6 3d 3c 57 14 3d 52 18 81 bd
       -0.08937953 0.12014322 0.036216006 -0.06303467
000100 f2 78 c0 bd d8 11 be 3d d0 da fe bc 0e bd a5 bd
       -0.093980685 0.09280747 -0.031110197 -0.080927
000110 72 96 fc 3d 15 0a 71 3d 0e 28 f9 3d bc 92 a0 bd
       0.12333383 0.058847506 0.12165843 -0.07840487
000120 50 0b 46 3d 9d de ee bd 34 ca 55 bd bc 70 e6 3d
       0.048350632 -0.11663554 -0.05219479 0.11251971
000130 e8 f5 eb 3d fa de 21 3d a6 f7 2d bd 4c 00 94 3d
       0.11521512 0.039519288 -0.042472504 0.07226619
000140 33 cb f8 3d 13 5a 7e 3d 50 10 a6 3c eb d7 0b 3e
       0.12148132 0.06209762 0.02027145 0.13656585
000150 10 26 38 3c 5f d5 3e 3d c1 90 05 3d 64 b1 4f bd
       0.011239544 0.046590205 0.03260875 -0.050706282
000160 5f e0 65 3d ee f4 d1 3d 08 b2 f5 bd d6 97 b7 3d
       0.05612218 0.10251795 -0.119968474 0.08964507
000170 c8 d9 3a bd 5c e0 26 bd a6 34 bd bd 6f d2 b7 3c
       -0.04561785 -0.04074131 -0.092385575 0.02243921
000180 26 f9 bf 3d ad eb 49 3d 4a 11 e3 3c 88 72 be bd
       0.09373693 0.049297024 0.027718205 -0.09299189
000190 50 28 37 bd ad 64 42 3d 40 e5 f0 3d 72 45 3e bc
       -0.04471618 0.047459293 0.11762476 -0.011613237
0001a0 45 df 9b bc 28 ef ac 3c cc 6e 5d bd 6d a5 f9 ba
       -0.019027362 0.021110132 -0.054060742 -0.0019046493
0001b0 c8 87 0d 3d 81 9c a1 bd 41 99 23 bd 18 af 8e bc
       0.03455332 -0.07891179 -0.039941076 -0.017417476
0001c0 a0 ba f2 bb fb f8 73 bc 5a 1a 5d be f4 2e bd bd
       -0.0074075013 -0.014890905 -0.21592084 -0.09237471
0001d0 c0 31 c5 bb 18 d2 d7 bc 74 4a 87 bd af 73 b2 3d
       -0.0060178936 -0.026345298 -0.06605998 0.08713471
0001e0 40 5d 8a bd 4c bf 6f 3d 0c c3 d1 3d 6a 74 85 3d
       -0.06756067 0.058532044 0.1024228 0.06516345
0001f0 17 ec a6 3d ea 54 81 3d 62 d1 b5 bd 5c 96 05 3d
       0.08150499 0.06315024 -0.08877827 0.032614097
000200 e8 b5 f6 bc e8 16 d1 3c a0 dd e0 bc 00 aa 62 3c
       -0.030116037 0.025523618 -0.027449429 0.0138344765
000210 61 1d b0 3c 30 df 9f 3d 7a 23 56 bc 60 d5 08 bd
       0.021498384 0.078062415 -0.013069982 -0.033406615
000220 f5 fb 5c bd ea 28 f4 bc 50 36 42 bd b2 64 d2 3d
       -0.053951222 -0.029804666 -0.047415078 0.10273112
000230 d2 9d 85 bd 54 b1 7b 3d 84 21 0b be 60 94 ed 3b
       -0.065242425 0.06144841 -0.13587004 0.0072503537
000240 46 5b 80 bd a9 36 f9 bd d8 4c 1e 3d b6 08 ad bd
       -0.06267409 -0.12168629 0.038647503 -0.08448927
000250 90 bf ac bc 55 2a a5 bd 26 85 8d 3d c4 c9 38 bd
       -0.021087438 -0.08064715 0.06910162 -0.045114294
000260 1a 1b b2 bd 22 6f bd bd a4 20 c6 bd 60 3a f6 3b
       -0.086965755 -0.092497125 -0.096741945 0.007514283
000270 00 51 5b 3c 58 b8 ad bd c8 ae 51 bd 68 55 4a 3d
       0.013386011 -0.084824264 -0.051192075 0.049397856
000280 30 97 01 3d d6 49 92 bd f8 9c 76 bd b3 ff b3 ba
       0.031638324 -0.07142989 -0.06020829 -0.001373282
000290 3e d7 ff 3d 0c 70 a2 3d 28 6a fd bc 30 54 cd 3d
       0.12492226 0.079315275 -0.030934408 0.10025823
0002a0 ac 70 f9 bd 3c c5 d0 3d f0 45 c8 3c 2d 48 cd bc
       -0.121796936 0.101938695 0.024447411 -0.02505883
0002b0 f0 ac 44 bd 4a 72 8a bd 4c b0 f3 3d 04 da 41 3d
       -0.04801649 -0.0676008 0.1189886 0.047327057
0002c0 a0 14 5d bc a2 b4 8b 3d fc 82 e2 bd b6 42 fd 3d
       -0.013493687 0.06821562 -0.110601395 0.1236624
0002d0 9c c4 41 3d d6 e9 f2 3d 90 9a 7e bd 98 40 fb bc
       0.047306642 0.11861007 -0.06215912 -0.03067045
0002e0 fc d4 16 3d b8 12 bb 3c 92 15 de bd ea 6f b3 3d
       0.03682421 0.022836074 -0.10843958 0.0876158
0002f0 00 df 06 3d 20 25 95 3b c8 6d 9b 3c bc b5 6b 3d
       0.032927513 0.004551545 0.018973246 0.057546362
000300 fc d4 4c 3d f6 3b a8 3d 68 a6 d3 3c 6e f6 d7 bd
       0.050007805 0.08214562 0.025836185 -0.105450496
000310 64 13 00 3e 43 7d b6 3c d2 07 ba 3d 00 27 0f ba
       0.12507397 0.022276526 0.09083523 -0.00054608285
000320 0c 3c 86 3b 65 ff 2b bd fd f6 d6 3d 27 c5 e2 bd
       0.0040965136 -0.04199161 0.10496328 -0.1107276
000330 94 cf 87 3d 61 4b ba bd 51 32 c5 3d 5c 04 ee bc
       0.06631389 -0.09096409 0.09628738 -0.029054813
000340 2d 25 f0 bd a3 c4 47 3d 22 4e be bd ec 24 ff bd
       -0.11725841 0.04877151 -0.092922464 -0.12458214
000350 40 6a 7c bd 05 26 a9 ba 26 98 98 3d 32 75 a5 bc
       -0.061624765 -0.0012905007 0.07450895 -0.020197485
000360 bd b6 dd bd 0c eb 63 3c bc 6f b7 3d 3c 38 bc 3d
       -0.1082587 0.01391102 0.089568585 0.09190413
000370 6c c7 ea bd 9f b4 c1 bd 04 f3 5e 3d bd 10 99 bd
       -0.11463818 -0.09458279 0.054430977 -0.07473896
000380 eb 8e d4 bd 15 07 c3 bc 88 ac 2f bb 78 d1 e2 3d
       -0.10378822 -0.023807088 -0.0026805717 0.11075109
000390 2b 14 f0 3b 02 79 6c 3d 8c 09 0a bd 04 89 ea 3d
       0.007326623 0.05773259 -0.03370051 0.11451915
0003a0 3e a1 ed 3d 8c 28 0e 3d 14 a4 ca bd 7d c7 f8 3b
       0.1160302 0.034706637 -0.09894577 0.00759214
0003b0 4c f3 26 3d ae 54 e0 3d f5 ae 7b bd 34 0d b9 3d
       0.04075937 0.10953651 -0.06144615 0.090357214
0003c0 fc dd 07 bd a8 bc 1d 3d 86 39 f1 bd 88 06 e2 bd
       -0.033170685 0.038509995 -0.1177855 -0.11036402
0003d0 24 ea 2c bd 70 bc 59 bc 6f 00 f8 3d cd 57 ca 3d
       -0.04221548 -0.013289556 0.12109458 0.09880028
0003e0 dc 1c 95 bd 0a b2 3b 3d b0 01 de 3d d8 db 93 3c
       -0.07280895 0.04582409 0.108401656 0.018049166
0003f0 45 75 54 3d 52 79 34 3d 81 1d 49 bd d0 1a 60 bd
       0.05186965 0.044061013 -0.049100403 -0.05471307

conv1.nn.2.bias f4 [64]
000000 33 af e7 bc f7 6f d1 3e 5f 7d c3 bd 16 7e e0 3d
       -0.028281784 0.40905735 -0.09545397 0.10961549
000010 96 72 9d 3d 7d 0b ae bd 2d 00 7e 3c a1 8a a5 bc
       0.07687871 -0.08498285 0.015502972 -0.020207705
000020 8f e4 09 bc fc 06 e6 bd 77 25 b4 bb e0 38 0c 3d
       -0.008416309 -0.11231801 -0.00549763 0.034233928
000030 2c 99 c6 3c 51 38 be bc a1 3e c8 3d a8 b9 36 bc
       0.02424296 -0.023220213 0.097775705 -0.011152662
000040 2a 8a ad 3d 58 f6 2b 3d 5d 38 c1 3c 00 f3 76 3a
       0.08473618 0.04198298 0.023586446 0.0009420365
000050 c8 7e fe bd ff aa bf bc dc 34 01 be 82 9a a8 3d
       -0.12426525 -0.023396967 -0.1261782 0.08232595
000060 a7 07 69 bd 4f cf 3d be f8 92 92 3d 93 ce ae 3d
       -0.056892063 -0.18536113 0.07156938 0.08535495
000070 bf ec e9 bd fd da 11 bd 26 02 d6 bd ac d0 5e 3d
       -0.11422109 -0.035609234 -0.104496285 0.054398224
000080 eb 48 b6 be 0b 37 1d 3d b4 80 75 3c 1b 62 c8 bd
       -0.35602507 0.03838257 0.0149842985 -0.09784337
000090 df 3b 00 be e9 7a ea bd be e9 af 3d b9 27 b0 3d
       -0.12522839 -0.114492245 0.08589505 0.086013265
0000a0 fd 95 de bd 91 bc b7 3c 2e 82 95 bd c6 c1 41 bc
       -0.10868452 0.022428783 -0.073002204 -0.011825984
0000b0 5a 83 89 bd 1d 77 37 bd cf 9b f8 bd 63 bb 91 3d
       -0.067145064 -0.04479133 -0.12139093 0.07115819
0000c0 63 60 9a 3d 69 31 9a bd bb 38 c3 3c bf 58 d9 bc
       0.075379156 -0.075289555 0.023830762 -0.026531575
0000d0 c3 8c be bd 40 2e 28 3c 18 b0 44 be bc 30 4e bd
       -0.09304192 0.010264933 -0.192078 -0.050339445
0000e0 73 ad 45 be 02 f9 fd 3d 07 d2 22 be 43 dd 41 be
       -0.19304447 0.1240101 -0.15900432 -0.18932061
0000f0 84 29 ca bc ee 5d 6d bd 6f 15 aa bc 83 70 e4 bd
       -0.024678 -0.057950906 -0.020762173 -0.111542724

conv1.lin.weight f4 [64, 7]
000000 df fe ca be 14 fd 50 3d ba 75 cf 3d ee e7 04 3c
       -0.39647576 0.051022604 0.101298764 0.008111937
000010 74 61 b9 3e 09 a9 a0 be 41 e4 99 3e a5 1c d8 be
       0.36207163 -0.31378964 0.30056956 -0.42209354
000020 20 49 cc be 3c bc 4c be 3d 85 b9 bc 40 07 6d be
       -0.3989954 -0.1999368 -0.02264654 -0.23147297
000030 20 c5 91 3e 2e e4 b5 3d 4f b6 ba be 4d 0f 49 3e
       0.28470707 0.088814124 -0.36467215 0.19634743
000040 38 f0 cd bc 05 02 95 bc 85 0b 97 3d b9 b5 a6 3e
       -0.02513896 -0.01818944 0.07375244 0.32560518
000050 8e 7b 06 3e 6c 41 d4 3d 2b 34 95 bd b0 54 45 3e
       0.1313307 0.10364041 -0.07285341 0.19270587
000060 0a 94 0a be ec d6 a4 be 38 28 44 be cf b5 8d be
       -0.13533035 -0.32195222 -0.19155967 -0.2767777
000070 cf 42 92 3e 66 33 c5 3e a3 b0 b4 3e ba df b6 be
       0.28566596 0.38515776 0.35291013 -0.35717565
000080 aa 68 45 3e a6 4c a4 3d cb 33 03 bf 75 06 82 3d
       0.19278207 0.08022432 -0.51250905 0.06348888
000090 4a a3 a0 3d 8e 45 b8 bd 87 43 cd bd 9e a8 8f be
       0.07843645 -0.089976415 -0.100226454 -0.28058332
0000a0 3b 10 70 be d1 8d b9 bc a3 f4 8a be 58 99 d9 3e
       -0.23443691 -0.022650631 -0.27139768 0.42499804
0000b0 82 43 a0 be 30 dd 39 3e 21 1f 15 3e 9a 26 99 3c
       -0.31301504 0.18150783 0.14562656 0.018695164
0000c0 4d 47 bd 3e f5 dd 7d be d0 15 2d bf e8 8b eb be
       0.3696846 -0.24791701 -0.6761141 -0.46005177
0000d0 c6 7a 1c bd 55 e2 c6 3d 4a a3 c8 be 65 74 f1 3d
       -0.038203023 0.09711138 -0.3918708 0.117897786
0000e0 3d 68 4c 3f 56 92 3c 3f 21 56 2f 3f 3e d5 44 3e
       0.79846555 0.7366079 0.684908 0.1922197
0000f0 09 6e 19 be d7 54 4e 3d 18 c9 87 be 68 bc 0d 3e
       -0.14983381 0.05037388 -0.2652061 0.13841403
000100 6b d8 1d be 5b 5c d8 be 24 3c 87 be 14 f5 10 bd
       -0.15414588 -0.42257962 -0.2641307 -0.035389975
000110 c5 e3 09 be 05 dc 46 be f2 76 fa 3e 5d 1a 19 3f
       -0.13465793 -0.19419868 0.48918873 0.5980585
000120 82 91 df 3e b0 d6 64 bd 02 1f a3 3e 80 62 4d be
       0.436657 -0.055868804 0.31859595 -0.20057106
000130 55 ce 2b bd fb 24 1b be c4 95 a9 be 84 f3 c0 bd
       -0.04194482 -0.15150826 -0.33122075 -0.09421447
000140 4a 33 96 be 6b 9f cd 3d 32 49 ce 3c f1 f7 27 be
       -0.29336005 0.10040172 0.025181387 -0.16403176
000150 dc ea 72 bd e8 ad 80 bf 5b 17 27 bd c3 67 d8 be
       -0.05930601 -1.0053072 -0.040793758 -0.42266664
000160 b7 bf 8e 3e 48 60 fb be 44 83 44 be 66 06 98 3e
       0.27880642 -0.49096894 -0.19190699 0.29692382
000170 18 b3 0b 3e 5e 81 0c 3e 63 9f 93 3e dc b5 c1 bd
       0.13642538 0.13721225 0.2883254 -0.09458515
000180 9f 40 3d bc 4b 9d 5e 3c d2 cf d6 3d dd d0 d7 3c
       -0.011551051 0.013587306 0.10488857 0.026344711
000190 3e f8 e2 3d e1 4e 64 3e 4d de 2a be a8 1a 3f be
       0.11082505 0.22295715 -0.16686364 -0.18662512
0001a0 f9 89 78 bc 75 44 0b bf 2c 0c 70 be 6a 0f 64 bd
       -0.015169614 -0.5440133 -0.23442143 -0.055678762
0001b0 ac e1 67 3e 4e 0c 02 3d 79 d7 c3 bd 38 4a bd 3e
       0.2264468 0.031750016 -0.095625825 0.36970687
0001c0 21 c2 ff bc a6 5a 26 3f 18 86 4c 3e 5c df a5 be
       -0.031220498 0.6498207 0.19973028 -0.32396972
0001d0 6a a7 b3 be 8a 27 62 be 12 87 67 bd c5 eb 9a bc
       -0.35088664 -0.22085395 -0.056525297 -0.018911252
0001e0 ea 07 d1 bd c0 95 10 bf 59 3f 94 bc f9 ee 43 be
       -0.102065876 -0.564785 -0.018096613 -0.1913413
0001f0 84 99 20 3e b5 1d 14 bd 1e aa 94 be dc d4 c7 be
       0.15683562 -0.036161143 -0.2903604 -0.39029586
000200 f9 c3 c5 be 01 1d ee 3d ab cb 81 3d 9a 27 a5 be
       -0.38626078 0.11626626 0.06337675 -0.32256776
000210 2f 7c 3b be a8 87 a5 be 41 c9 55 3a 61 4b 18 3e
       -0.18309091 -0.3233006 0.00081552943 0.14872505
000220 a9 7f 61 3e ad 87 0f be 86 18 63 be ea 48 ac 3e
       0.22021355 -0.140166 -0.22177324 0.3364938
000230 a8 85 b7 be 37 2a 03 be af 15 86 be 1a 4c f1 bd
       -0.3584416 -0.12809072 -0.26188418 -0.11782093
000240 ae ae 4b be 17 24 60 be 3d 76 27 3e c8 58 b4 bb
       -0.19890854 -0.21888767 0.16353698 -0.0055037476
000250 fb 64 1d bf 75 00 c8 3e 42 8d ad be 9e 9a 70 3d
       -0.6148221 0.3906285 -0.33896834 0.058741204
000260 38 f4 d4 3e 66 02 26 be 83 cd a4 3e 0b 50 30 bd
       0.41592574 -0.16211852 0.32188043 -0.043045085
000270 35 a2 76 ba c6 29 93 3e 6d f5 b7 3e 81 06 0e be
       -0.0009408326 0.28742808 0.35929433 -0.13869669
000280 08 5a ae be 0e 60 3c 3f a8 09 12 3f 4b db 50 3d
       -0.34053063 0.7358407 0.57045984 0.050990384
000290 2d 1a 43 3e e9 aa b9 3d 19 02 04 bf 7e 8c 39 be
       0.19052954 0.09065802 -0.515657 -0.1812
0002a0 f2 0c 57 3d 32 38 3e 3e 92 4b f2 bd 7b 60 35 3d
       0.05250258 0.18576124 -0.1183082 0.044281464
0002b0 d7 ac 6a 3d 08 9f 44 3e 95 e8 0a 3e 6b 32 cf 3e
       0.05729374 0.1920129 0.13565286 0.40468153
0002c0 90 17 e0 3e 74 87 70 3e 26 d8 7b 3c 10 ef 29 3d
       0.43767977 0.23489171 0.015371358 0.041487753
0002d0 84 c6 7f bd 03 82 ed 3e 92 61 98 3d e8 26 4c be
       -0.06244518 0.46388254 0.07440485 -0.19936717
0002e0 f9 6a 9d 3d ae af 0b be bf bc 68 be 54 0e 53 3e
       0.07686419 -0.13641235 -0.22728251 0.20610934
0002f0 ca 5c 56 3e 52 a0 81 3e f5 13 8d 3e e8 64 55 3e
       0.20933834 0.25317627 0.27554289 0.20839274
000300 55 29 aa be c1 05 13 bf 72 ab de 3d 9b d2 3e 3e
       -0.3323466 -0.57430655 0.10872544 0.18635027
000310 11 f9 39 be 1c b7 73 be 2d 53 e0 be cb 07 ce be
       -0.18161418 -0.2380032 -0.43813458 -0.4024032
000320 81 40 bd bd 9a 67 57 be 99 bd 0e be cf 53 e4 be
       -0.09240819 -0.21035615 -0.13939513 -0.4459519
000330 23 a4 58 be 16 8d be be 31 28 12 3e f2 73 d4 be
       -0.21156363 -0.37217015 0.14273144 -0.4149471
000340 3b 0f f6 3c 81 55 cb 3d 7a 08 15 3e c2 95 42 be
       0.03003656 0.09928418 0.14554015 -0.1900244
000350 84 8c 1c 3e a1 a1 91 3d ee 4f 59 3d ee 49 69 be
       0.15287977 0.071109064 0.053054743 -0.22782108
000360 c4 17 49 3e f8 9b 36 3e b3 8d ae bc 8d 64 c0 3d
       0.19637972 0.17832935 -0.021307802 0.093941785
000370 fe 59 62 3e 85 77 b5 3c de 59 84 3d 6d 78 05 be
       0.22104642 0.022151718 0.06462453 -0.1303422
000380 8b 3d 50 be a9 16 07 bf 97 5a 26 bf 62 b8 88 3e
       -0.20335977 -0.5276895 -0.6498198 0.26703173
000390 36 5e 97 3c f3 dd 03 3e 7e 4f 95 bd f2 2c 8e be
       0.01847754 0.12877636 -0.072905526 -0.27768666
0003a0 d7 c7 6e be 0a 28 b8 3e 2e 54 b6 3d f9 0a ac 3e
       -0.2331842 0.35968047 0.08902775 0.3360212
0003b0 a3 15 32 be f9 e3 54 bd ae ba 8d be 6a 33 9c bd
       -0.17391066 -0.051975224 -0.27681488 -0.07626994
0003c0 c2 43 1e 3e 9e 18 9d be 1d c0 d8 3c 2b ae a6 3e
       0.15455535 -0.30682844 0.026458794 0.32554755
0003d0 c3 bd 59 be 20 31 2f bf e9 d5 81 3d 11 9b 56 bd
       -0.21263795 -0.68434334 0.06339628 -0.052393977
0003e0 a4 1b 8c bd 9d fc b0 be e9 a8 fb bc 21 ea 9c 3e
       -0.068412095 -0.3456773 -0.030720191 0.30647376
0003f0 0d 0d 1c 3e 55 7b 9d 3e 50 13 e6 3e c6 d6 ac be
       0.15239353 0.30758157 0.4493661 -0.3375761

conv1.lin.bias f4 [64]
000000 c4 f6 5a be 30 e3 9e 3e 9c cd 54 be b3 5d b1 3e
       -0.21383196 0.31032705 -0.20781559 0.346418
000010 e4 6d 17 be c5 cc 86 3e fd e2 cb 3d 42 15 c2 3d
       -0.14788014 0.26328102 0.09955404 0.09476711
000020 5d fc 81 3e b8 d5 42 3d 0c ae c5 3c 91 3d b3 3e
       0.2538785 0.0475671 0.024130844 0.3500791
000030 93 d6 bf 3d d5 b0 76 3e fd 2c 50 3c 0b 0a f0 bb
       0.09367099 0.24090894 0.012706039 -0.007325416
000040 0f ba 8f 3e 76 6e 2e 3d 3e 81 d2 3c 75 db 5f be
       0.2807164 0.042585813 0.025696393 -0.2186106
000050 55 27 7d be b0 42 6c 3e 79 be 93 be b3 31 e8 3e
       -0.24722035 0.23072314 -0.28856257 0.45350417
000060 93 b8 82 3e 41 fe 7b 3d e7 1f 38 bd b2 27 dc 3d
       0.25531444 0.061521772 -0.0449523 0.10749759
000070 35 bb 53 3e bc 49 59 3e 4f ca 69 3e 50 2e 6d be
       0.20676883 0.21219534 0.22831081 -0.23162198
000080 0e b3 2c be 17 01 92 3e 0b 44 ba be 18 cb 81 3e
       -0.16865179 0.28516456 -0.36380038 0.2535026
000090 8a b2 3a be 5e fd 36 3e 8e 50 5b be eb 2c 1f be
       -0.1823217 0.1787009 -0.21417448 -0.15544479
0000a0 24 44 7b 3e bc d6 85 be 71 7c 26 be fd 06 9c 3e
       0.24537712 -0.26140392 -0.16258408 0.30474082
0000b0 88 dc 70 3e d8 56 52 be 3f 92 80 3c ec 23 c3 be
       0.23521626 -0.20540941 0.015694736 -0.38113344
0000c0 44 ca b5 be ca 78 b9 be 66 53 9a be f8 cb a2 be
       -0.3550588 -0.36224967 -0.30141753 -0.3179624
0000d0 94 a9 60 3e f5 1d 3a bd b7 fa 0d be c7 c5 c6 be
       0.21939689 -0.045438726 -0.13865171 -0.38822767
0000e0 20 8f 98 be 5d 0f 95 3e a2 0c 19 3d 0e 3c 56 be
       -0.29796696 0.29113284 0.037365563 -0.20921347
0000f0 60 55 d8 3e 15 73 97 bd 34 49 3d bc c6 83 37 3c
       0.42252636 -0.07394997 -0.0115530975 0.011200851

conv2.nn.0.weight f4 [64, 64]
000000 3e a4 15 3e ab a6 19 3e 97 68 b7 bc 85 a4 54 bd
       0.14613435 0.15004985 -0.02238874 -0.05191471
000010 e8 bd 0c be 54 fb ae be 45 5c 0b 3d 28 47 37 be
       -0.13744318 -0.34176123 0.034023542 -0.17898238
000020 c3 89 e6 be 15 fa 69 bd e7 9e 81 3d 05 4c 38 bd
       -0.4502698 -0.057123262 0.06329136 -0.044994373
000030 bd 9f 91 3d 34 67 9d be 37 bc 8b be 81 cf eb bc
       0.07110546 -0.307428 -0.27292034 -0.028785469
000040 6a 25 bb bd 23 53 c5 bd a8 c0 d4 bd ee b8 0f be
       -0.091379955 -0.09634998 -0.10388309 -0.14035389
000050 e5 ed 83 3c 29 07 88 bd 4c 0e 56 be c7 df a1 bd
       0.016104648 -0.06641991 -0.20903891 -0.0790401
000060 8a 13 a4 3c 04 80 9e 3d 03 c3 df bc 98 d3 b6 bd
       0.020028848 0.07739261 -0.027314669 -0.08927077
000070 47 aa af bd 24 a6 1b bd 46 78 b6 be d8 ba a8 bd
       -0.085774 -0.03800024 -0.35638636 -0.082387626
000080 bd bb 18 3d 7b 64 f0 3d 9f fc c6 bd 51 20 aa bc
       0.037288416 0.11737915 -0.097161524 -0.020767363
000090 34 3e 90 bd de 20 1c 3b c6 75 48 bd 7c 0a 62 bb
       -0.07043114 0.0023823301 -0.048940443 -0.0034491112
0000a0 c8 a9 a4 bc 3a 5d 51 3d c5 be 8c 3d 81 64 39 be
       -0.02010049 0.0511143 0.06872324 -0.18104745
0000b0 69 a4 54 be a3 1f f3 be ff fa 27 3e d4 4c b3 bd
       -0.20765842 -0.47485074 0.16404341 -0.08754888
0000c0 96 b9 2a 3d 02 8e 13 be c2 f9 31 3e 82 50 47 3d
       0.041680895 -0.1440964 0.17380431 0.048660763
0000d0 13 70 74 be cf 9c a8 bd b9 de d5 3b cd ea 0a 3e
       -0.23870878 -0.08233034 0.0065267948 0.13566132
0000e0 c6 c2 b5 3e 19 77 f3 bd cb 27 f9 bb d2 da af 3b
       0.35500163 -0.118879505 -0.0076036206 0.0053666616
0000f0 05 41 ab 3d 46 9f 68 3c e9 61 8e bd 64 c2 26 3d
       0.08362011 0.01419813 -0.06952269 0.04071273
000100 de 93 ff 3d b5 05 21 bb fc f7 a2 bd 5c f5 bd 3d
       0.12479375 -0.0024570052 -0.079574555 0.09275314
000110 1a 96 0a bb b1 21 20 be bb 81 25 bd 88 e3 f8 3d
       -0.0021146596 -0.15637852 -0.040406924 0.12152773
000120 9a ac eb bc e2 28 0b 3d 47 90 1f bd 44 e2 bc bd
       -0.028768826 0.033974536 -0.038955953 -0.09222844
000130 eb 75 9b 3e 90 5e ff be fa 16 b2 3e 39 a2 00 be
       0.30363402 -0.49876833 0.34783155 -0.12561883
000140 30 ff bc 3d 01 07 3b 3e e6 c4 94 3d 73 70 06 bf
       0.09228361 0.1826439 0.07264118 -0.52515334
000150 de 13 72 bb 51 c2 06 be c0 d9 0d be a8 0c 4a bd
       -0.0036938111 -0.13160063 -0.13852596 -0.049328476
000160 b1 79 0f 3d f0 5e 80 bd 10 f0 7f be 48 bb ab 3b
       0.035028163 -0.06268108 -0.2499392 0.0052408315
000170 5f 67 d8 bd b9 38 ad 3d d0 14 55 bd d7 f7 2c 3d
       -0.105665915 0.084580846 -0.0520218 0.042228546
000180 07 d1 89 bc e3 83 9c bd b8 0f 5c bb e4 2f 1e be
       -0.016823305 -0.07642343 -0.0033578705 -0.15447956
000190 c4 c2 05 bd de 1a ac 3d 73 bc 64 3d 2b dd 45 3c
       -0.032656446 0.08403562 0.05584378 0.012076656
0001a0 37 bc 85 bc 25 c6 a2 ba b3 aa d0 bd d2 79 09 bd
       -0.0163251 -0.0012418671 -0.10188808 -0.033563443
0001b0 d1 5b 7c 3d 86 4d 71 bc 46 67 50 bd c4 59 f1 3d
       0.061611 -0.014727956 -0.05087974 0.117846996
0001c0 90 23 6a 3f 30 18 6c bc f9 53 ba bd 54 ca 98 bb
       0.91460514 -0.014410064 -0.09098048 -0.0046627913
0001d0 7a c0 89 3a 8f 9a 19 be 1e 78 c6 bd 66 92 78 bc
       0.0010509633 -0.15000366 -0.09690879 -0.015171623
0001e0 09 77 15 be 43 0d b9 3d 96 84 db 3d 8f aa a6 bd
       -0.1459619 0.090357326 0.10718648 -0.08138
0001f0 3e 94 30 be c4 d5 5f 3d f3 aa a6 bd 7b 03 13 3c
       -0.1724405 0.054647222 -0.08138075 0.008972998
000200 e9 7e 97 be 11 6a 04 3e d8 71 78 be 70 1e d6 be
       -0.29589012 0.12931086 -0.24262178 -0.41820097
000210 d4 b9 9e bd d8 82 17 3e c6 81 16 be 23 60 8b be
       -0.07750288 0.14796007 -0.14697942 -0.27221784
000220 31 c3 41 3e a9 8b 6f be 37 41 ad 3d b4 c0 48 be
       0.18922116 -0.2339312 0.08459704 -0.1960476
000230 ed 72 ab bd 4a eb be 3d 6c 9d a7 be 82 48 e0 3d
       -0.0837153 0.093222216 -0.3273729 0.1095133
000240 b7 2f d6 3d fd 3f 8b be 88 6f 01 be d4 58 86 3d
       0.1045832 -0.27197257 -0.12640202 0.06559911
000250 18 c4 5f be 0e f1 23 3e 67 c3 80 be 34 cc 83 3c
       -0.21852148 0.16009924 -0.2514908 0.016088583
000260 5d 3e b1 be b2 52 2a be 2a 72 01 3e 5f 37 8c bc
       -0.34617892 -0.16633108 0.12641206 -0.017116247
000270 c3 eb dc bc 78 ea 9f be 5b c0 ce 3d 96 2a bf bd
       -0.026967889 -0.31233573 0.10095283 -0.093342945
000280 65 80 33 bd 9e fd 33 3c 1d be bb bd 19 6e 80 bd
       -0.04382362 0.01098576 -0.091671206 -0.062709995
000290 e1 40 0f 3c 6e 01 51 3e f8 fa 14 be 83 24 63 3d
       0.008743496 0.20410702 -0.14548862 0.055454742
0002a0 03 cc 99 3d cf 92 78 3d 0b ec 9c bd 2c 0d f8 bb
       0.07509615 0.060686883 -0.07662209 -0.0075699296
0002b0 dc 0f e7 be e1 0a 68 3d ed 51 be be 51 6f d0 bd
       -0.45129287 0.056651 -0.3717188 -0.10177482
0002c0 e4 02 e6 bd ed 20 7f be 9f 6b a1 3d 29 a5 98 bd
       -0.1123102 -0.24914904 0.07881855 -0.07453377
0002d0 f5 67 82 bd 98 2d 74 be f3 bf 79 bc 35 25 4e be
       -0.063674845 -0.23845518 -0.015243518 -0.20131381
0002e0 fe 40 ae bd 60 d9 38 bd 26 f4 0c 3e 8c 0f 5f 3d
       -0.0850849 -0.04512918 0.1376501 0.054458186
0002f0 83 ba da 3e 4e c1 80 3d a6 d7 92 bd 16 b8 a5 be
       0.42720422 0.0628687 -0.07170038 -0.3236701
000300 a1 ab 46 be 68 e7 13 3e 4b a6 b6 bb 2a 22 bb be
       -0.19401409 0.14443743 -0.005574023 -0.36549503
000310 db b7 94 3d da c6 9d be 4c b0 1e be 42 24 91 be
       0.0726163 -0.30815774 -0.1549694 -0.28347975
000320 7d 3d 4d be e7 14 1a bd e2 ad bc bd d5 97 c9 bd
       -0.20042987 -0.03761759 -0.09212853 -0.09843413
000330 6d 30 fb bd 5d 8b d9 be 91 8c e8 be 3c 4e 9c bc
       -0.12265096 -0.42489138 -0.45419744 -0.019080274
000340 10 76 96 be bf 4e 92 be 83 9a 65 3e 69 61 15 3d
       -0.2938695 -0.28575704 0.22422223 0.03646985
000350 ac d6 01 be c1 39 a1 bd b9 93 2d bd 5d c2 a6 bd
       -0.12679547 -0.07872344 -0.042377207 -0.081425406
000360 d0 51 15 be c1 ce b9 ba 39 60 ea bc 3c 1d d2 3d
       -0.1458199 -0.0014175997 -0.028610336 0.10259482
000370 45 85 13 be e8 8d 40 be 61 2a 4e be fd 22 aa bd
       -0.14406307 -0.18804133 -0.20133354 -0.08307455
000380 50 21 2a be a4 b1 6d be 79 2c 92 bd aa 20 d6 3c
       -0.1661427 -0.23212296 -0.07137389 0.026138622
000390 b1 d9 b1 3d 24 04 47 3e 99 e7 2c be d8 94 1e 3d
       0.086840995 0.19435173 -0.16885222 0.038716167
0003a0 7c 25 b3 3d 25 fd 70 bd 9d ed 22 3d 88 fd 4a 3d
       0.08747384 -0.058835167 0.039777387 0.049558192
0003b0 04 0d ab bd 7f e1 b6 bd 98 a6 2a be f2 1f dc 3d
       -0.08352092 -0.08929729 -0.16665113 0.107482806
0003c0 c0 95 bf be 3c 3d 84 be fb b9 37 be d0 c9 10 bd
       -0.37418938 -0.25827968 -0.1794204 -0.035348713
0003d0 75 c4 02 3c bc 7c 39 bd aa 4f 11 bf d8 7b 0f bc
       0.007981409 -0.04528497 -0.5676218 -0.008757554
0003e0 eb 4c 41 be bf 60 ae 3d 47 bc 14 3d 6d a3 68 bd
       -0.18876998 0.085145466 0.036312368 -0.05679648
0003f0 51 c8 88 be cf 52 8f 3b ae e3 b7 3d 05 ac 0e be
       -0.2671533 0.004373885 0.08978973 -0.13932808

conv2.nn.0.bias f4 [64]
000000 02 94 49 3e ae d2 c9 3d 3c be c2 be 3e 74 ad bd
       0.19685367 0.09854637 -0.38035762 -0.08469437
000010 98 0c 1f bd 59 5d df 3d 5d 1e 0b 3f 5d f6 90 bd
       -0.03883037 0.109064765 0.54343206 -0.0707824
000020 29 dc b2 be cc c6 c8 3a 0a 32 12 be bf 90 81 bc
       -0.34933594 0.0015318035 -0.14276901 -0.01581609
000030 71 90 5e 3c 72 97 3e bf 0f c2 eb bd 8c dc c1 bd
       0.013584242 -0.7444984 -0.11511623 -0.09465894
000040 5c bd 35 be a3 7f 85 bd 78 9e 9e be 4d 07 e7 3c
       -0.17748016 -0.065184854 -0.30980277 0.028201723
000050 e4 b5 a7 bd af 5c fe bd 89 2e 02 3f 4f 6d 60 be
       -0.0818899 -0.12420022 0.50852257 -0.21916698
000060 e3 90 3b be 8c 34 49 3e 23 db 28 bd 5c 34 cd bd
       -0.18316989 0.19648951 -0.04122461 -0.100197524
000070 ac 92 84 3d e8 17 06 3e d1 05 9f 3e 3c e8 b2 bd
       0.06473288 0.13095057 0.31059125 -0.087357014
000080 50 7f 4c be 3a 99 2a 3e 6a b7 64 be bd 38 ad 3d
       -0.19970441 0.16660014 -0.22335592 0.084580876
000090 a4 0b 26 3f 09 2e 91 3c 9c be 37 bd 58 8a df 3e
       0.6486151 0.017722147 -0.044859514 0.43660235
0000a0 d7 d9 63 3e 81 cf d6 3e 27 a6 5f be e1 25 bc bc
       0.22251068 0.41955188 -0.21840726 -0.02296728
0000b0 43 34 a0 3e 59 ba 46 bd d2 bb 66 be 83 df 46 3d
       0.31289873 -0.04851756 -0.22532585 0.048553
0000c0 40 87 aa 3e b6 3a 95 3d 8f 41 0b be 17 5b 95 be
       0.33306313 0.07286589 -0.13599227 -0.2917106
0000d0 1e 67 9d 3e 54 98 d2 bd 9c 2d da bd de b5 99 bd
       0.30742735 -0.102829605 -0.106532305 -0.075053915
0000e0 b1 40 a2 3c 6a fe ef 3d 76 d6 b3 bd 51 a7 06 3f
       0.019806238 0.117184475 -0.087811396 0.52599055
0000f0 33 04 97 be 52 85 66 3e 7e 9d 27 bc cb dc 91 3e
       -0.2949539 0.22511795 -0.01023042 0.28488764

conv2.nn.2.weight f4 [64, 64]
000000 4b c6 bd 3d 1a 79 08 be ea a8 1a bb 2d 96 d7 3e
       0.09266337 -0.13327447 -0.0023599216 0.42106763
000010 31 81 c9 3d a6 5e 84 be d6 f9 da 3e 54 1e db 3d
       0.098390944 -0.2585346 0.42768735 0.10699144
000020 2e 9c 02 be b3 e4 d0 bd 2a db cd 3d 2c e9 07 be
       -0.1275489 -0.10199871 0.10051568 -0.13272542
000030 0b 01 da bd 34 ad 06 3d 25 86 1b bd 99 af 38 3c
       -0.1064473 0.032880023 -0.037969727 0.0112723345
000040 c9 6f 1a 3d 33 da 6f be 15 7c fc bd 74 39 b7 3d
       0.037704263 -0.2342308 -0.12328354 0.08946505
000050 81 04 ec 3b 31 7c 15 bd 80 f5 ff 3c 5a c2 13 bd
       0.0072026853 -0.03649539 0.031244993 -0.03607402
000060 38 bc 94 3d 8b 92 fc bd 2b 8f ce 3d 27 cb a9 bb
       0.072624624 -0.12332638 0.10085901 -0.0051816883
000070 71 a1 f4 bd b7 88 eb 3d 7b 28 23 be 35 98 71 3d
       -0.11944855 0.11500686 -0.15933411 0.058983047
000080 b8 c0 65 3d ce 89 d7 3c 09 ce ae 3c 10 8d f0 bd
       0.056091994 0.026310828 0.02133848 -0.117456555
000090 b0 c0 06 be ac 59 56 bc 2a 90 0c be b6 aa e9 bd
       -0.13159442 -0.013082903 -0.13726869 -0.11409514
0000a0 85 24 2b 3c 6c 60 01 3e b1 7f a1 3d 11 6d 02 be
       0.010445719 0.12634438 0.07885683 -0.12736918
0000b0 49 9d 34 3e ec 9e 97 bd 39 9d e9 3d 3c 95 c9 be
       0.17638125 -0.07403359 0.11406941 -0.3937167
0000c0 c6 b5 13 be 11 ce 49 be 69 85 d2 bd 82 f4 f3 3c
       -0.1442481 -0.19707514 -0.10279352 0.029779676
0000d0 31 d3 28 3d 6e 46 f2 3c 54 9f ea bc 91 e8 ed bc
       0.041217033 0.0295746 -0.028640427 -0.02904156
0000e0 e5 b8 83 3d d1 a2 bd bd 3a d2 fc 3d 05 f2 72 3e
       0.0643175 -0.092595704 0.12344785 0.23725136
0000f0 5f d4 95 bc 80 ab 0e 3d 1c 7e fd 3c 04 21 dc 3d
       -0.018289743 0.034831524 0.030943923 0.10748485
000100 1e be eb bd 4b 0d ff bc 5e 72 a4 bd 8b dd 99 3e
       -0.11510871 -0.031134268 -0.08029626 0.30051836
000110 85 77 50 3d 3d a6 73 be a4 e6 b7 3e fd 83 a0 bd
       0.050895233 -0.23793884 0.35918152 -0.07837675
000120 b5 42 23 3c f7 91 a2 3c 45 ba cb 3d 31 0c a8 bd
       0.009964635 0.019844992 0.099476375 -0.0820545
000130 cc 11 d7 bd 6a 90 f0 3c f7 81 bb bc 30 2d 0f bc
       -0.10501441 0.029365737 -0.02288912 -0.008738801
000140 59 7f 4d bd 35 01 bd bd 65 b3 9e 3c 6e 73 de 3c
       -0.050170276 -0.09228746 0.019372651 0.02715465
000150 15 b9 b3 bd 71 31 2f bd 82 df 98 3c aa 33 22 be
       -0.08775536 -0.04277176 0.018661264 -0.15840021
000160 0f fd 02 3d f6 63 95 3d d5 76 94 3d 7a de 84 3d
       0.031979617 0.07294457 0.07249228 0.064877465
000170 5a 36 85 3d f1 23 ac 3d 0b bd 13 be 56 d7 0a 3c
       0.06504507 0.08405293 -0.14427583 0.008474192
000180 17 34 c5 bd 00 f7 a0 3d 30 92 20 be 8a f8 f0 bd
       -0.09629076 0.078596115 -0.15680766 -0.11766155
000190 c4 f1 8d 3d 88 78 09 3d a4 27 19 be dd 90 61 bd
       0.06930879 0.033562213 -0.14956528 -0.055069793
0001a0 81 1d 65 3d ca 5d f1 3d 37 4e e4 3d af 55 bf bd
       0.05593634 0.11785467 0.11147731 -0.09342515
0001b0 b0 bd e2 3c 68 f7 27 3d de 93 2d 3e 08 ca 42 bf
       0.02767834 0.04100743 0.16950938 -0.76089525
0001c0 4b f6 4c 3d af 9c 6d 3d ca b9 af 3d 27 6e 16 3d
       0.05003957 0.058010753 0.08580358 0.036726143
0001d0 2f 2f 4d 3d 6c 87 c0 3d a0 a6 36 bd b2 a2 60 bd
       0.050093826 0.0940083 -0.0445925 -0.05484266
0001e0 16 72 63 bc dc 33 01 be 30 2b 01 bd 00 3b 56 3e
       -0.013882181 -0.12617439 -0.031535327 0.20920944
0001f0 0e 84 9c bd 77 b3 78 bd ca e1 b2 3c be ee 96 bd
       -0.07642375 -0.060718026 0.02183618 -0.07369755
000200 48 27 83 bd a9 ca ae bd b7 c8 17 3e 36 64 2b be
       -0.06403977 -0.08534748 0.1482266 -0.16737446
000210 83 82 e3 3c cd 1d 3a be 5d 2f c7 bd b1 d2 8e 3c
       0.027772194 -0.1817543 -0.09725831 0.01743445
000220 74 ef 2f be 20 f8 4c bb 72 67 4e 3c 54 df 50 3d
       -0.17181188 -0.0031275824 0.0125979055 0.050994232
000230 2b 7a 85 bd ce 56 d9 3d bd d6 6d 3d c4 7c d5 3d
       -0.06517442 0.1061226 0.05806612 0.10424188
000240 10 57 94 3b 4a 8b 2c 3e 18 a0 8a bd 2e 0f b2 3d
       0.00452698 0.1685001 -0.06768817 0.086943015
000250 a7 28 32 3d 6f ac cf 3c 88 84 02 3d 5e 81 c1 3c
       0.0434958 0.025350777 0.031864673 0.023621257
000260 bd a2 2c bd 00 fa 14 be 00 2e 3d 3d 31 9a 10 bd
       -0.042147387 -0.14548492 0.046186447 -0.0353033
000270 30 ab eb bd 02 ab 4a be 9d 89 39 3d f5 07 2e bd
       -0.11507261 -0.19791797 0.045297254 -0.042488057
000280 9f b8 52 3d 29 e7 17 bd d5 ac 70 3c c8 dd d1 3c
       0.0514456 -0.037085686 0.014689644 0.025618449
000290 20 07 a9 3d fc 52 46 3d 4e 83 3b 3d 09 ec 56 bd
       0.08253312 0.048418984 0.04577952 -0.052471194
0002a0 31 f3 72 3d 0a bb 0b be f3 1e a0 3d 36 63 04 3e
       0.059313957 -0.13645568 0.07818403 0.12928471
0002b0 04 0e 11 be 7b a9 d3 bd c8 d2 ea bd 16 54 14 3f
       -0.14165503 -0.1033506 -0.114659846 0.57940805
0002c0 47 9c 10 3e 6b 66 10 be f5 b3 15 3d cb 42 8d 3d
       0.14122115 -0.1410157 0.036548574 0.068975054
0002d0 99 63 ab bb 06 4f a1 3d ed 7c ab bd e7 64 9d bd
       -0.005230379 0.07876401 -0.08373437 -0.07685261
0002e0 c8 8d 12 bd 7a a5 c7 3b 76 99 d8 3d 17 ee 97 3d
       -0.035779744 0.0060927244 0.10576145 0.07418459
0002f0 59 54 85 bd 06 33 6f b9 fe f9 87 bd a7 19 79 3d
       -0.06510229 -0.00022811824 -0.06639479 0.06081548
000300 25 fd a9 bd cf e7 4f 3d 76 11 28 be 67 d1 47 3e
       -0.083002366 0.05075818 -0.16412911 0.19513474
000310 c0 f5 d2 bc 01 c1 46 be 69 1f 3f 3e 9d 2e cd 3c
       -0.025751948 -0.19409563 0.18664326 0.025046641
000320 c4 0e 8b 3d 5e 4d 73 bd 17 c8 eb bd af 81 2f be
       0.06789926 -0.059399955 -0.115127735 -0.17139314
000330 b9 4e 8e bd 56 b1 06 3d df 57 ad 3c 0c f6 f7 bd
       -0.06948609 0.032883964 0.021160064 -0.121074766
000340 74 b8 2a 3d 83 ed 32 3d 5f ad ad bd 01 d3 60 bd
       0.041679814 0.04368354 -0.084803335 -0.05488873
000350 89 f7 c3 bc 39 0a 0f be 3d d6 a9 3d fb fd 8e 3d
       -0.023921745 -0.13968743 0.08292816 0.06982037
000360 b2 5e aa bd 25 03 ab 3d e3 ce 9c 3d 57 8c d8 3d
       -0.08318843 0.08350209 0.07656648 0.10573643
000370 8f c5 b4 bd 35 db 4a 3d 4b b1 b1 3d 35 07 97 3d
       -0.08826744 0.04952546 0.08676394 0.073744215
000380 fc f8 c4 3d 06 72 2d 3d 56 fa b6 3d b2 2f bc bb
       0.096178025 0.04234507 0.089344665 -0.0057429904
000390 cf ed 54 bc 50 3a d2 3d 12 ff 99 3d 0c 2b 81 bd
       -0.012996151 0.102650285 0.07519354 -0.06307039
0003a0 dd 12 2d 3d 02 63 9b 3d 3b 1c d1 3d d9 7b 5b be
       0.042254318 0.075872436 0.10210463 -0.21433963
0003b0 0f 64 7c bc 87 ad 7e 3d c1 a7 69 3d 16 0e c3 3e
       -0.015404715 0.062177207 0.05704475 0.38096684
0003c0 27 ae 2b bd 0b 3a 6f bd fa e9 d8 3d 06 08 87 bc
       -0.04191413 -0.058404963 0.105915025 -0.016483318
0003d0 47 bc ef bb 7d c6 44 3d 8d 08 c7 bd 42 53 89 3c
       -0.0073161456 0.048040856 -0.09718428 0.016763333
0003e0 c3 c6 a6 3d 6d 51 97 3d cf 78 f8 bd dc 00 88 3c
       0.081433795 0.073885776 -0.121324174 0.016601972
0003f0 88 0e 37 bc 7e f4 18 be eb b6 74 3d a4 51 ae 3d
       -0.011172898 -0.14937016 0.059744757 0.085116655

conv2.nn.2.bias f4 [64]
000000 69 a4 af bd ab 11 aa 3d bd 42 70 3d 17 ca 4b be
       -0.085762806 0.08304151 0.058657397 -0.1990131
000010 d3 fe 60 3d 7a f8 df be 70 b4 49 be f8 83 a9 be
       0.05493052 -0.4374426 -0.19697738 -0.33108497
000020 80 ee 91 3d 47 94 d3 3d 50 f0 d6 3c 55 74 78 3e
       0.071255684 0.10331016 0.026237637 0.24263127
000030 b9 ca 3e be df 1d 06 be de 0e a6 bd 1d 83 9c be
       -0.1863202 -0.13097332 -0.081083044 -0.30568781
000040 ef 4d 5d bc cd e2 a9 be ab 63 af be 57 8d e2 3d
       -0.01350735 -0.33180848 -0.34255728 0.11062115
000050 cd 68 1e 3e 15 65 8e bd dc f0 24 3e 2a 46 73 3e
       0.15469666 -0.069528736 0.16107506 0.23757234
000060 58 49 2e be 3d b4 5e be 75 5a 76 bb 24 80 20 be
       -0.17020166 -0.21748443 -0.0037590538 -0.15673882
000070 16 b5 5a 3e 88 1a 05 be bf 15 b1 be db d4 21 3d
       0.21358141 -0.12998402 -0.34586903 0.039509635
000080 24 04 e4 3c f7 a0 8d bc 78 c7 42 be b8 18 dc be
       0.027834006 -0.017288668 -0.19021404 -0.4298761
000090 89 b8 c1 bd 01 5b 6b be 13 25 9f bd 55 52 67 3e
       -0.094590254 -0.22983934 -0.07770743 0.22590001
0000a0 56 23 ae bd f0 33 3e 3e f9 85 16 3d 83 13 13 be
       -0.085028335 0.185745 0.03674886 -0.14362912
0000b0 d8 2d 38 3e 58 1c 81 be 9c b1 40 3c ee 77 45 be
       0.17986238 -0.25216937 0.011761095 -0.19284031
0000c0 87 24 88 be 75 0b 2f bc d8 4b 75 bc c5 eb 4c be
       -0.26590368 -0.010683884 -0.014971696 -0.20011814
0000d0 3b 7c 11 be 9c 92 84 3e 30 74 02 3f 22 a7 47 be
       -0.14207546 0.25893104 0.5095854 -0.1949735
0000e0 68 99 ce 3d a7 52 4c be 4d af dc be d2 7e 8f be
       0.10087854 -0.19953404 -0.43102494 -0.28026444
0000f0 3b be 1b be 9c 8d 92 3c 89 29 98 bd e1 4b 19 be
       -0.15209286 0.01788979 -0.07429797 -0.14970352
