checkpoints/A/model_A_epoch_90.pth (torch, 78688 bytes, 15 tensors)

node_embedding.weight f4 [1, 64]
000000 ca dd 1b 3e 0f 9b be bd d3 94 ab be 5c c6 70 bf
       0.15221325 -0.09306919 -0.3351198 -0.9405267
000010 ea 80 c3 3f 1c 88 bc bf b0 f0 1c be 05 ff 8d 3f
       1.5273716 -1.4729037 -0.1532619 1.1093451
000020 27 27 72 be b6 1d 8d 3f b3 ee 72 3f 79 e5 3b bf
       -0.23647748 1.1024692 0.94895476 -0.7339702
000030 ea b7 99 3f 63 38 cc bf 22 7c e1 bf 7c 25 3c bd
       1.2009251 -1.5954708 -1.7616007 -0.045934185
000040 25 7c 00 40 cb d3 3b 3f 97 62 b1 3f 87 c3 01 c0
       2.0075772 0.73370045 1.3858212 -2.027559
000050 09 22 95 3f fa d5 8a be 71 ac 66 bf 8c 43 e2 be
       1.1651012 -0.27116376 -0.90106875 -0.4419216
000060 5c a4 58 bf fb 5a e5 be 3f cf af bf 5a bf 4b 3f
       -0.8462579 -0.44795975 -1.3735121 0.79588854
000070 30 cf d6 3f 79 b9 17 3f bc 16 23 3f 9a d2 01 bf
       1.6781979 0.59267384 0.63706565 -0.5071198
000080 36 99 81 3f 74 31 2c c0 c7 20 5c be 4f db fe 3f
       1.0124881 -2.6905184 -0.21496879 1.9910678
000090 ef 46 e6 3f 01 99 aa 3f 85 fd a4 bf 7a b6 12 3e
       1.7990397 1.3327943 -1.2889868 0.14327422
0000a0 06 65 fa 3e 82 ce 02 40 76 26 89 bf 38 19 b5 bf
       0.489052 2.0438542 -1.0714862 -1.4148321
0000b0 11 ae ef 3d a7 78 95 3e fb 12 b2 3e 44 ef 60 3f
       0.117031224 0.29193613 0.34780106 0.8786509
0000c0 b4 68 67 3f bb 0a 3e bf 5c 8b 60 40 5b 99 25 bf
       0.9039414 -0.74235123 3.5085058 -0.64687127
0000d0 06 f5 7d be df 0e d7 3f 18 e4 53 bf ed 25 5b 3f
       -0.248005 1.6801413 -0.8276992 0.85604745
0000e0 00 b8 9e 3e 87 c0 85 bf 3d dc 71 bd 54 ec 90 be
       0.30999756 -1.044938 -0.059047926 -0.28305304
0000f0 42 c3 55 bf db 8e 95 3f 7c 01 c6 3f aa 21 cf 3f
       -0.83501065 1.1684221 1.5469203 1.6182148

conv1.nn.0.weight f4 [64, 64]
000000 f5 80 d0 3d c6 e3 0d bd 4f b1 e5 3c 96 31 07 3e
       0.101808466 -0.03464105 0.028038649 0.1320251
000010 c1 78 f6 bd 43 d1 fa 3d 64 b1 ff bd 32 60 07 bd
       -0.12034751 0.12246945 -0.124850065 -0.033050723
000020 cf b3 17 be fe b1 02 be ef 06 2d 3c b2 db 9b 3d
       -0.14814685 -0.12763211 0.010560735 0.07610263
000030 76 d9 66 3d 39 8e 19 3d e3 70 27 bd b7 7e 10 3d
       0.05635973 0.03748915 -0.04087914 0.035277095
000040 c7 ac e0 bd a9 f7 8f bd 3f 01 a8 3d dc e8 49 3d
       -0.10970455 -0.07029659 0.08203363 0.049294338
000050 cb dc 21 bd 97 48 8d 3a 8b f7 32 bb 8e e7 d5 bd
       -0.039517205 0.001077908 -0.0027308192 -0.10444556
000060 7e b7 62 3d 77 83 4d bd 2a f2 c1 bd 57 7c 74 bb
       0.055350773 -0.050174203 -0.09470017 -0.0037305558
000070 da b7 88 3b f5 67 97 3c ee e1 0c bd 99 b6 9f 3d
       0.0041723074 0.018482188 -0.03439515 0.077984996
000080 42 af 7d bd 27 09 24 bd 57 64 ec 3c 95 7b d9 3c
       -0.061934717 -0.04004779 0.02885644 0.026548186
000090 3d f1 81 3d 98 12 01 3c aa 65 a8 bd b1 30 f7 bd
       0.06344841 0.007877968 -0.08222516 -0.12069834
0000a0 b3 e9 3f 3c fe 14 e7 bd eb f7 91 bd 20 17 a4 3d
       0.011713433 -0.11283301 -0.07127365 0.08012223
0000b0 82 0c 4f bc a4 ab 9a bd 4e e8 e1 bd f9 42 ad 3d
       -0.012637259 -0.07552269 -0.11030637 0.0846004
0000c0 8f 57 b2 3c 9f 25 89 3d e4 ce 77 3d 6a 7d 4c 3d
       0.021770267 0.06696629 0.06050004 0.04992429
0000d0 24 09 63 3d 33 8e bc bb eb d3 c0 bd 19 ea 9e bc
       0.05542864 -0.005754256 -0.0941542 -0.019398736
0000e0 86 9f ab 3d 62 57 27 3d 52 97 f8 bd 03 46 e9 bc
       0.08380036 0.04085482 -0.12138237 -0.028475767
0000f0 34 7d 7f bb 6b fa 5c bd c2 8c 75 3d 37 37 90 bd
       -0.003898454 -0.053949755 0.05994869 -0.070417814
000100 3c 3a 57 3d 10 df ee bd e0 9f 28 bd 80 53 ce bb
       0.05254577 -0.116636395 -0.041168094 -0.006296575
000110 8a db b9 3d a0 96 2e bc 88 5c 52 3d c8 09 0f 3d
       0.09075077 -0.010656029 0.051357776 0.034921438
000120 f8 cd cc bd 00 2d 48 bb 30 2c 54 bc 40 c1 93 3b
       -0.10000223 -0.00305444 -0.012949988 0.004509121
000130 2c da f7 bd 0e b5 fc bd 24 7c 1b bd 88 f1 c8 3c
       -0.1210216 -0.12339221 -0.037960187 0.024529234
000140 e2 a5 80 bd 1c 1c 32 3d 28 a4 e7 bd c4 21 36 bd
       -0.0628164 0.04348384 -0.11310607 -0.044465795
000150 94 6c f7 bd 46 90 ce 3d 0e 59 b6 bd 14 6e c1 bd
       -0.120812565 0.10086112 -0.089037046 -0.09444824
000160 f4 4e 6f 3d 8c 2d 73 bd 98 80 d1 3c c0 a5 2e bd
       0.058424905 -0.05936961 0.025574014 -0.04263854
000170 b4 ac 45 bd 38 68 29 bd a6 f5 f5 3d a0 79 ed bc
       -0.048260406 -0.041359156 0.12009744 -0.02898866
000180 80 b5 b9 3c ae 55 ac bd 62 a8 8c bd 3c 12 4b bd
       0.022669554 -0.084147796 -0.06868054 -0.049577937
000190 da c9 f2 bd 18 95 f8 bd 16 36 fd bd 6c 2e 00 3d
       -0.118549064 -0.121378124 -0.12363832 0.03129427
0001a0 6c 09 b6 bd 00 c8 1c bb d8 bd 93 3c d0 f6 35 bd
       -0.08888516 -0.002392292 0.01803486 -0.044424832
0001b0 d6 25 eb 3d d2 72 8b 3d 90 d7 ba 3d cc 83 fd bd
       0.11481826 0.068090096 0.091231465 -0.12378654
0001c0 c0 d8 2b bb 00 19 eb 3d 88 25 5f bd 44 5e 1e 3d
       -0.0026221722 0.11479378 -0.054479152 0.038664117
0001d0 fa b0 d0 bd 80 03 2a bc 90 91 01 bc a0 72 b5 bb
       -0.101900056 -0.010376811 -0.00790824 -0.005537346
0001e0 1e eb fa bd 60 71 9b bc 68 0d a3 3d 7c 1d 30 3d
       -0.12251876 -0.01897496 0.079615414 0.04299687
0001f0 92 b9 c4 3d ec 00 18 bd 00 72 9a 3a a8 28 a1 3d
       0.09605707 -0.037110254 0.0011783242 0.07869083
000200 20 70 57 bc b0 43 9a 3c 16 90 e5 bd 40 1a 01 bd
       -0.013149291 0.018831104 -0.11209123 -0.031519175
000210 b0 ba ca 3d 08 3a eb 3d 18 a5 1f 3d c8 e0 89 bd
       0.09898889 0.11485678 0.038975805 -0.06732327
000220 b2 0a cb 3d 6c 95 30 3d 38 25 d5 bd 90 e3 09 bc
       0.09914149 0.04311125 -0.104074895 -0.0084160715
000230 86 f7 85 bd 10 83 8c bc 2c e3 74 bd d0 77 b4 3d
       -0.06541352 -0.01715234 -0.05978696 0.08811915
000240 e8 fe 93 bc 50 26 e6 3c b8 d8 c7 bd cc 20 46 bd
       -0.018065885 0.02809444 -0.09758133 -0.04837112
000250 0c c5 6a bd a8 e4 18 3d a0 d3 d5 bd 0c b8 43 bd
       -0.057316825 0.03732744 -0.10440755 -0.047782943
000260 1e 87 fe bd 00 af 95 bb c8 ff 15 3d da de dd bd
       -0.12428115 -0.0045679808 0.036620885 -0.10833521
000270 28 86 d5 bc 28 df d2 bd 28 aa f9 bd 78 6b d0 bc
       -0.026064947 -0.1029647 -0.12190658 -0.02544187
000280 1c 1c 64 bd a8 66 dc bc c0 ff 5b 3d 48 0e a5 3d
       -0.05569087 -0.026904419 0.0537107 0.080593646
000290 c8 32 fe 3c ec 43 8e bd f0 46 bd 3c e8 c6 95 3c
       0.031030074 -0.06946549 0.023105115 0.018283322
0002a0 88 2e fa 3d a0 8b 0e 3d f0 a1 93 bc 54 55 8f bd
       0.122159064 0.034801126 -0.018021554 -0.06998697
0002b0 30 e9 46 bc 80 29 41 bc 64 90 dd bd 30 01 3c bd
       -0.012140557 -0.0117896795 -0.10818556 -0.04589957
0002c0 40 71 45 3d 50 f1 77 3c e0 b4 b6 3c f8 55 31 3d
       0.048203707 0.015133217 0.022303045 0.043294877
0002d0 34 8b 5d 3d 78 b6 bd bc 3c f2 98 3d a0 d0 b9 3b
       0.054087833 -0.023158297 0.074680775 0.005670622
0002e0 70 81 5d bd d8 8a 69 3d b6 d4 fc 3d 24 71 14 3d
       -0.05407852 0.057017177 0.12345259 0.03624071
0002f0 be f3 ab 3d b8 03 81 3c 6c 3e 5a bd 60 a7 bb 3c
       0.083960995 0.015748844 -0.053282186 0.022906959
000300 f8 25 17 bd 98 b8 06 bd 7c b2 a1 bd 1a ce ce 3d
       -0.036901444 -0.032890886 -0.07895371 0.100979045
000310 28 ec b7 bd 40 b0 dc 3d 70 df 0b bd 9a b6 ec 3d
       -0.0898059 0.107758045 -0.034148633 0.11558266
000320 08 c7 97 bc 06 26 fd 3d 76 7e ff bd 00 50 29 b8
       -0.018527523 0.12360768 -0.124752924 -4.0367246e-05
000330 a2 60 f3 bd 9c 19 79 bd 00 03 86 bb f0 ab b3 3d
       -0.118836656 -0.06081544 -0.004089713 0.08773029
000340 00 86 50 bd 72 5f dc 3d 38 03 c6 3c 80 df 10 bb
       -0.050909042 0.10760392 0.024171457 -0.0022105873
000350 82 f8 fe 3d 82 bb 98 bd 58 5c c8 bc 40 87 9f 3d
       0.12449743 -0.07457639 -0.024458095 0.07789469
000360 94 68 b7 bd 4c 6d f4 bd ca c5 c4 3d fa ea cd bd
       -0.089554936 -0.11934909 0.09608038 -0.10054584
000370 e0 54 07 3c 58 d0 e5 3d f8 9e 95 3d d8 30 2a 3d
       0.008259982 0.11221379 0.073057115 0.041550487
000380 10 a3 ba 3c 84 ac 3a bd 98 9b 96 bc 88 0d ec bd
       0.022782832 -0.04557468 -0.01838474 -0.115260184
000390 e0 c4 da 3b f4 86 8a 3d 5e 95 b3 3d ee 53 9d bd
       0.0066763014 0.067640215 0.08768724 -0.07682024
0003a0 a0 09 58 bd a0 7b ac bc a0 ec 92 3c b0 22 49 3d
       -0.052743554 -0.021055043 0.017935097 0.049105346
0003b0 00 dc ca bb b0 66 d4 bc a2 41 f7 bd bc 38 e0 bd
       -0.006190777 -0.025927871 -0.12073065 -0.10948321
0003c0 c0 1d 37 bd d0 38 25 bd 80 aa 08 bd bc 3b 29 3d
       -0.044706106 -0.040337384 -0.033365726 0.041316733
0003d0 28 a2 ec bd 38 51 99 3d 5c b6 7b bd 38 f9 7d bd
       -0.11554366 0.07486194 -0.06145321 -0.06200525
0003e0 f8 4c 95 3d ec 6f 21 3d d8 38 76 bd 40 91 7d bb
       0.07290071 0.039413378 -0.060112804 -0.0038691312
0003f0 e0 d8 70 bc c0 27 f2 bb 88 ad 4f bd 20 aa c4 3b
       -0.0147001445 -0.0073899925 -0.0507026 0.006001726

conv1.nn.0.bias f4 [64]
000000 34 ea 66 bd 04 29 d9 3d 50 8d 1c 3d 2c 9b 77 3d
       -0.056375697 0.10603526 0.038220704 0.060450718
000010 06 6f 89 3e e4 89 e5 bd 03 63 ab 3d 84 c9 7d 3d
       0.26842517 -0.11207941 0.08368494 0.06195976
000020 e1 9a 40 bd 71 ff 33 be 82 8b 75 3d 38 27 89 bd
       -0.047022704 -0.17577912 0.0599475 -0.066969335
000030 b8 58 c2 bc 7c 22 1e 3e 14 54 2d be 59 16 b8 3d
       -0.023723945 0.15442842 -0.16926605 0.089886375
000040 38 44 88 3d 4a 20 a5 bd 82 d6 2a bd bb 2a 6e 3e
       0.06653637 -0.08062799 -0.041708477 0.23258488
000050 70 ab 1b 3c d9 61 5a 3e 15 a5 c0 3d 45 5b c8 bc
       0.009501323 0.21326388 0.09406487 -0.024457583
000060 67 70 fe bd 1f 07 ef 3c 50 1d 75 3d 68 35 c1 bd
       -0.12423783 0.0291782 0.059842408 -0.094340146
000070 b4 2f f7 3d 9e 5b b3 bd 30 83 17 be 3e 29 32 3d
       0.120696455 -0.08757709 -0.14796138 0.043496363
000080 00 ef 9a 3d b9 85 47 3c b5 cb c8 bd 2e 7e c0 bd
       0.07565117 0.012177878 -0.09804479 -0.09399067
000090 1c 9a b4 bc dd 40 d4 3d e0 8b 9f 3c 29 5f a6 3c
       -0.022046141 0.10363934 0.019475877 0.020309048
0000a0 f9 a1 d7 3d 2c fc ea 3d a0 e4 82 3c 82 d1 c6 bd
       0.10528941 0.11473879 0.015978158 -0.09707929
0000b0 c6 05 ba bd fd d3 8f bd 15 6d 94 3d 2f 29 22 3d
       -0.090831324 -0.070228554 0.07247368 0.039590057
0000c0 d8 aa 22 bd f8 e5 78 3d 59 76 2a be 12 67 a9 bd
       -0.03971371 0.06076619 -0.16646709 -0.08271612
0000d0 00 00 eb b7 a8 38 af bc 38 96 9a 3d 34 a3 4c 3d
       -2.8014183e-05 -0.02138932 0.07548183 0.04996033
0000e0 3e d6 cb bd 2c 9a 13 be 71 9f b9 3d d0 39 39 3d
       -0.09952973 -0.1441428 0.09063614 0.04522115
0000f0 e7 b5 41 bd 83 a1 8c 3d d9 fa 16 bd bf 7d 34 bc
       -0.047292616 0.068667434 -0.03686032 -0.011016308

conv1.nn.2.weight f4 [64, 64]
000000 2c 36 6d 3d 20 78 22 3c 08 c6 89 3c 88 0c dc bd
       0.05791299 0.009916335 0.016818061 -0.10744578
000010 3b 68 a2 bd 82 43 78 bd 47 c0 be 3c 04 4a 4e bd
       -0.07930037 -0.060611255 0.023285044 -0.050363556
000020 0a af 17 bc 3e 80 56 3d a0 73 25 3d 78 f3 37 3d
       -0.009258041 0.052368395 0.04039347 0.044909924
000030 08 cb 81 3d c2 85 15 be eb 96 bd bc e2 64 8c 3d
       0.06337553 -0.14601806 -0.023143252 0.06855179
000040 6b 4a 84 3d 29 1b 4b bc 15 2b 28 bd a4 ab 66 3d
       0.064595066 -0.012396612 -0.04105671 0.056316033
000050 ba 07 fa bd b2 b6 ad bc 5a 48 f9 bc 9e 27 ae bd
       -0.12208505 -0.02120528 -0.030430008 -0.0850365
000060 87 f4 55 3c d1 8f 03 3e d4 9b cc 3d 1b 06 fb bd
       0.013058788 0.1284783 0.09990659 -0.12257024
000070 fc 88 2e bd 32 23 24 3d 1e 6e 5c 3d 2e b3 9f bd
       -0.042611107 0.040072627 0.053815953 -0.07797848
000080 d9 c6 ce bd 79 21 27 bd 70 3f 91 bd e3 cb 3b 3d
       -0.10096521 -0.040803406 -0.07092178 0.04584874
000090 36 c0 d0 bd 73 75 fa 3d f8 ce d1 3d 2a 99 e1 bd
       -0.10192911 0.12229433 0.10244554 -0.11015542
0000a0 a6 be f5 3d 34 67 96 3d d8 a5 56 3d 08 45 92 bd
       0.11999254 0.07343903 0.052404255 -0.07142073
0000b0 78 b2 d5 3c 67 47 36 3d 0c 77 26 3d 98 5d 85 3c
       0.026086077 0.04450169 0.040640876 0.01627998
0000c0 58 f5 f3 3c 26 2c b0 bc 4d c2 b8 bd 40 8b c2 bd
       0.029780075 -0.021505427 -0.09021435 -0.09499216
0000d0 48 4f b6 3d 00 4f eb ba c9 14 cb 3b c3 cb 88 bd
       0.089018404 -0.0017952621 0.006197546 -0.066794895
0000e0 ac fc 05 3d a2 16 9e bd b6 69 97 3d 7a 06 a5 bd
       0.03271167 -0.077191606 0.0739321 -0.08057876
0000f0 9d 0c b7 bd a6 0d f6 3d 3c 57 14 3d 52 18 81 bd
       -0.08937953 0.12014322 0.036216006 -0.06303467
000100 f2 78 c0 bd d8 11 be 3d d0 da fe bc 0e bd a5 bd
       -0.093980685 0.09280747 -0.031110197 -0.080927
000110 f7 d3 0a 3e 15 0a 71 3d eb 1f f9 3d bc 92 a0 bd
       0.1355742 0.058847506 0.12164291 -0.07840487
000120 18 fb 7f 3d 64 22 c8 bd 34 ca 55 bd bc 70 e6 3d
       0.06249532 -0.097721845 -0.05219479 0.11251971
000130 e8 f5 eb 3d 95 e0 ba 3c a6 f7 2d bd 4c 00 94 3d
       0.11521512 0.022812167 -0.042472504 0.07226619
000140 20 e8 fa 3d 89 00 66 3d 50 10 a6 3c d8 4d 0e 3e
       0.122513056 0.056152854 0.02027145 0.13896883
000150 10 26 38 3c 7c 70 64 3d c1 90 05 3d 64 b1 4f bd
       0.011239544 0.055771336 0.03260875 -0.050706282
000160 5f e0 65 3d ee f4 d1 3d 08 b2 f5 bd d6 97 b7 3d
       0.05612218 0.10251795 -0.119968474 0.08964507
000170 c8 d9 3a bd a9 ce 01 be a6 34 bd bd 6f d2 b7 3c
       -0.04561785 -0.12676491 -0.092385575 0.02243921
000180 a3 13 b8 3d ad eb 49 3d 8a 1a 32 3d 0a c6 a2 bd
       0.089881204 0.049297024 0.04348234 -0.07947929
000190 50 28 37 bd ad 64 42 3d 40 e5 f0 3d 72 45 3e bc
       -0.04471618 0.047459293 0.11762476 -0.011613237
0001a0 45 df 9b bc 28 ef ac 3c cc 6e 5d bd f6 cb 00 bb
       -0.019027362 0.021110132 -0.054060742 -0.001965282
0001b0 c8 87 0d 3d 81 9c a1 bd 41 99 23 bd 18 af 8e bc
       0.03455332 -0.07891179 -0.039941076 -0.017417476
0001c0 a0 ba f2 bb fb f8 73 bc 18 ad 28 be f4 2e bd bd
       -0.0074075013 -0.014890905 -0.1647228 -0.09237471
0001d0 c0 31 c5 bb 18 d2 d7 bc 74 4a 87 bd 86 da b3 3d
       -0.0060178936 -0.026345298 -0.06605998 0.087819144
0001e0 40 5d 8a bd b5 a4 6e 3d 0c c3 d1 3d 1e cb 9b 3d
       -0.06756067 0.058262546 0.1024228 0.07607101
0001f0 17 ec a6 3d 0d 54 81 3d 62 d1 b5 bd 5c 96 05 3d
       0.08150499 0.063148595 -0.08877827 0.032614097
000200 e8 b5 f6 bc e8 16 d1 3c a0 dd e0 bc 00 aa 62 3c
       -0.030116037 0.025523618 -0.027449429 0.0138344765
000210 61 1d b0 3c 30 df 9f 3d 7a 23 56 bc 60 d5 08 bd
       0.021498384 0.078062415 -0.013069982 -0.033406615
000220 f5 fb 5c bd ea 28 f4 bc 50 36 42 bd b2 64 d2 3d
       -0.053951222 -0.029804666 -0.047415078 0.10273112
000230 d2 9d 85 bd 54 b1 7b 3d 84 21 0b be 60 94 ed 3b
       -0.065242425 0.06144841 -0.13587004 0.0072503537
000240 46 5b 80 bd a9 36 f9 bd d8 4c 1e 3d b6 08 ad bd
       -0.06267409 -0.12168629 0.038647503 -0.08448927
000250 90 bf ac bc 55 2a a5 bd 26 85 8d 3d c4 c9 38 bd
       -0.021087438 -0.08064715 0.06910162 -0.045114294
000260 1a 1b b2 bd 22 6f bd bd a4 20 c6 bd 60 3a f6 3b
       -0.086965755 -0.092497125 -0.096741945 0.007514283
000270 00 51 5b 3c 58 b8 ad bd c8 ae 51 bd 68 55 4a 3d
       0.013386011 -0.084824264 -0.051192075 0.049397856
000280 30 97 01 3d d6 49 92 bd f8 9c 76 bd b3 ff b3 ba
       0.031638324 -0.07142989 -0.06020829 -0.001373282
000290 3e d7 ff 3d 0c 70 a2 3d 28 6a fd bc 30 54 cd 3d
       0.12492226 0.079315275 -0.030934408 0.10025823
0002a0 ac 70 f9 bd 3c c5 d0 3d f0 45 c8 3c 2d 48 cd bc
       -0.121796936 0.101938695 0.024447411 -0.02505883
0002b0 f0 ac 44 bd 4a 72 8a bd 4c b0 f3 3d 04 da 41 3d
       -0.04801649 -0.0676008 0.1189886 0.047327057
0002c0 a0 14 5d bc a2 b4 8b 3d fc 82 e2 bd b6 42 fd 3d
       -0.013493687 0.06821562 -0.110601395 0.1236624
0002d0 9c c4 41 3d d6 e9 f2 3d 90 9a 7e bd 98 40 fb bc
       0.047306642 0.11861007 -0.06215912 -0.03067045
0002e0 fc d4 16 3d b8 12 bb 3c 92 15 de bd ea 6f b3 3d
       0.03682421 0.022836074 -0.10843958 0.0876158
0002f0 00 df 06 3d 20 25 95 3b c8 6d 9b 3c bc b5 6b 3d
       0.032927513 0.004551545 0.018973246 0.057546362
000300 fc d4 4c 3d f6 3b a8 3d 68 a6 d3 3c 6e f6 d7 bd
       0.050007805 0.08214562 0.025836185 -0.105450496
000310 64 13 00 3e 43 7d b6 3c d2 07 ba 3d 00 27 0f ba
       0.12507397 0.022276526 0.09083523 -0.00054608285
000320 e1 7f 86 3b cb 98 2a bd fd f6 d6 3d 27 c5 e2 bd
       0.0041046 -0.04164962 0.10496328 -0.1107276
000330 94 cf 87 3d 51 40 ba bd 51 32 c5 3d 5c 04 ee bc
       0.06631389 -0.09094299 0.09628738 -0.029054813
000340 2d 25 f0 bd e0 e2 47 3d 22 4e be bd ec 24 ff bd
       -0.11725841 0.04880035 -0.092922464 -0.12458214
000350 40 6a 7c bd 04 0c a1 ba 26 98 98 3d 32 75 a5 bc
       -0.061624765 -0.0012286906 0.07450895 -0.020197485
000360 bd b6 dd bd 0c eb 63 3c bc 6f b7 3d 3c 38 bc 3d
       -0.1082587 0.01391102 0.089568585 0.09190413
000370 6c c7 ea bd 9f b4 c1 bd 04 f3 5e 3d bd 10 99 bd
       -0.11463818 -0.09458279 0.054430977 -0.07473896
000380 eb 8e d4 bd 15 07 c3 bc 29 05 19 bb bd ff e2 3d
       -0.10378822 -0.023807088 -0.0023349023 0.110839345
000390 2b 14 f0 3b 02 79 6c 3d 8c 09 0a bd 04 89 ea 3d
       0.007326623 0.05773259 -0.03370051 0.11451915
0003a0 3e a1 ed 3d 8c 28 0e 3d 14 a4 ca bd 7d c7 f8 3b
       0.1160302 0.034706637 -0.09894577 0.00759214
0003b0 4c f3 26 3d ae 54 e0 3d f5 ae 7b bd 34 0d b9 3d
       0.04075937 0.10953651 -0.06144615 0.090357214
0003c0 fc dd 07 bd a8 bc 1d 3d 48 e3 f0 bd 88 06 e2 bd
       -0.033170685 0.038509995 -0.117621005 -0.11036402
0003d0 24 ea 2c bd 70 bc 59 bc 6f 00 f8 3d cd 57 ca 3d
       -0.04221548 -0.013289556 0.12109458 0.09880028
0003e0 dc 1c 95 bd 0a b2 3b 3d b0 01 de 3d d8 db 93 3c
       -0.07280895 0.04582409 0.108401656 0.018049166
0003f0 45 75 54 3d 52 79 34 3d 81 1d 49 bd d0 1a 60 bd
       0.05186965 0.044061013 -0.049100403 -0.05471307

conv1.nn.2.bias f4 [64]
000000 c5 9f 01 bd 0c a5 bf 3e 5f 7d c3 bd ec cf e1 3d
       -0.03164651 0.37430608 -0.09545397 0.11025986
000010 96 72 9d 3d 7d 0b ae bd 14 ca 02 3d a1 8a a5 bc
       0.07687871 -0.08498285 0.031930998 -0.020207705
000020 ec 9d b8 3b ac 8b 65 bd 52 97 8d 3c b9 60 55 3d
       0.00563406 -0.056041405 0.01728407 0.052094195
000030 87 da 39 3d 51 38 be bc a1 3e c8 3d c8 8b 6c 3c
       0.04537442 -0.023220213 0.097775705 0.014437623
000040 ba 09 92 3d 58 f6 2b 3d 5d 38 c1 3c 00 f3 76 3a
       0.071307614 0.04198298 0.023586446 0.0009420365
000050 c8 7e fe bd ff aa bf bc 3a 2a 01 be ea 95 e0 3d
       -0.12426525 -0.023396967 -0.12613764 0.10966094
000060 1d d2 5e bd 4f cf 3d be f8 92 92 3d a4 99 b5 3d
       -0.0543996 -0.18536113 0.07156938 0.08867195
000070 20 bd c9 bd f0 e1 22 bd 26 02 d6 bd ac d0 5e 3d
       -0.09850526 -0.039766252 -0.104496285 0.054398224
000080 d0 ee a2 be 3a a1 26 3d 09 48 0d 3d c1 98 9d bd
       -0.31822824 0.0406811 0.034492526 -0.07695151
000090 df 3b 00 be 89 e8 bc bd 12 ef a8 3d 85 b5 d2 3d
       -0.12522839 -0.0922404 0.08248724 0.10288528
0000a0 7a be bb bd 31 f4 2c 3d e3 9e 87 bd c6 c1 41 bc
       -0.0916719 0.042225067 -0.06622102 -0.011825984
0000b0 28 ba 11 bd 1d 77 37 bd cf 9b f8 bd 5a 40 8f 3d
       -0.035577923 -0.04479133 -0.12139093 0.06994696
0000c0 63 60 9a 3d 24 dc 25 bd 36 db fe 3c d6 fb 12 bd
       0.075379156 -0.040493146 0.031110387 -0.0358847
0000d0 c3 8c be bd 40 2e 28 3c 69 ae f6 bd bc 30 4e bd
       -0.09304192 0.010264933 -0.12044985 -0.050339445
0000e0 ac 20 20 be d3 2f fc 3d cf 89 af bd 43 dd 41 be
       -0.15637463 0.12313809 -0.08571207 -0.18932061
0000f0 e8 94 ec ba 38 29 40 bd 6f 15 aa bc 83 70 e4 bd
       -0.0018049749 -0.04691431 -0.020762173 -0.111542724

conv1.lin.weight f4 [64, 7]
000000 39 cc a3 be 26 ff 41 3e af f8 12 3e 01 94 cd 3c
       -0.31991747 0.18944988 0.14352678 0.025094988
000010 d5 db b0 3e 7d a7 a7 be 8a f6 a2 3e 77 cd bb be
       0.3454272 -0.3274497 0.3182872 -0.36680195
000020 e1 9e ca be 11 01 26 be 0b 01 9f bc d2 f1 6b be
       -0.3957434 -0.16211344 -0.019409677 -0.23041466
000030 8b f3 a0 3e d8 1a 97 3d 4f b6 ba be 4d 0f 49 3e
       0.3143581 0.07378167 -0.36467215 0.19634743
000040 38 f0 cd bc 05 02 95 bc 85 0b 97 3d b9 b5 a6 3e
       -0.02513896 -0.01818944 0.07375244 0.32560518
000050 8e 7b 06 3e 6c 41 d4 3d 2b 34 95 bd b0 54 45 3e
       0.1313307 0.10364041 -0.07285341 0.19270587
000060 0a 94 0a be ec d6 a4 be 38 28 44 be cf b5 8d be
       -0.13533035 -0.32195222 -0.19155967 -0.2767777
000070 ab ec 96 3e 02 e8 ad 3e 00 d1 ad 3e d1 2a 91 be
       0.29477438 0.3396607 0.33948517 -0.2835298
000080 3a 48 8e 3e 11 39 fb 3d ca 16 e6 be 75 06 82 3d
       0.2778948 0.12266744 -0.44939262 0.06348888
000090 4a a3 a0 3d 8e 45 b8 bd 87 43 cd bd 9e a8 8f be
       0.07843645 -0.089976415 -0.100226454 -0.28058332
0000a0 3b 10 70 be d1 8d b9 bc 0e f9 6e be c7 66 a8 3e
       -0.23443691 -0.022650631 -0.23337194 0.32890913
0000b0 d8 bb 93 be 19 c0 4c 3e 00 4a 28 3e 17 c8 e3 bb
       -0.2885425 0.19995154 0.16434479 -0.006951343
0000c0 97 66 b9 3e e2 8e 44 be aa 15 00 bf d0 94 d9 be
       0.36211082 -0.1919513 -0.50033057 -0.42496347
0000d0 0b 9e 92 3a fc e4 d9 3d 19 1b b4 be c8 46 29 3e
       0.0011186016 0.106393784 -0.35176924 0.16530907
0000e0 03 37 45 3f cf 8a 23 3f 25 d7 24 3f 1f 5e 55 3e
       0.77037066 0.6388368 0.64390785 0.20836686
0000f0 66 33 05 be 5f af cd 3c 3d 41 8b be a6 ea 34 3e
       -0.13007888 0.025108038 -0.2719821 0.17667636
000100 f7 80 90 bd 43 b1 a8 be 09 93 a3 be fb 0b ca bd
       -0.07055848 -0.3294774 -0.31948116 -0.09865566
000110 16 33 f8 bd 6e b0 50 be 86 2d ea 3e c1 d0 09 3f
       -0.12119119 -0.20379803 0.45737857 0.5383416
000120 c1 de e4 3e 07 c0 65 bd 4a be a6 3e 66 e5 63 be
       0.44701198 -0.056091335 0.32567054 -0.22255477
000130 d4 7e 56 bd fb 24 1b be c4 95 a9 be 84 f3 c0 bd
       -0.052367046 -0.15150826 -0.33122075 -0.09421447
000140 4a 33 96 be 6b 9f cd 3d 32 49 ce 3c f1 f7 27 be
       -0.29336005 0.10040172 0.025181387 -0.16403176
000150 ae bd 58 bd ed 94 20 bf 88 8a 54 3c 9a f0 d5 be
       -0.052915268 -0.6272724 0.012972482 -0.41785127
000160 0d bd 77 3e dd 7d f2 be 75 f2 07 be 66 06 98 3e
       0.24193211 -0.4736165 -0.13276084 0.29692382
000170 18 b3 0b 3e 5e 81 0c 3e 63 9f 93 3e dc b5 c1 bd
       0.13642538 0.13721225 0.2883254 -0.09458515
000180 9f 40 3d bc 4b 9d 5e 3c d2 cf d6 3d dd d0 d7 3c
       -0.011551051 0.013587306 0.10488857 0.026344711
000190 3e f8 e2 3d e1 4e 64 3e 4d de 2a be a8 1a 3f be
       0.11082505 0.22295715 -0.16686364 -0.18662512
0001a0 f9 89 78 bc 4a f1 dd be 5c f7 b8 bd 77 d3 28 bc
       -0.015169614 -0.4334815 -0.09031555 -0.010304323
0001b0 a8 2e 82 3e 9d c9 f2 3c 41 1a c8 bd 75 9d b0 3e
       0.2542622 0.029637152 -0.097706325 0.3449513
0001c0 0b 9a 34 bd 5d a5 1e 3f 8d 6c 3f 3e d4 ff ac be
       -0.04409222 0.61971074 0.18693753 -0.3378893
0001d0 9c a6 b6 be b5 38 63 be 05 5c 5c bd 7f 88 54 3d
       -0.35673988 -0.22189601 -0.053798694 0.051887985
0001e0 ba f6 ef 3c 22 3c 01 bf 10 b5 df bc 77 0f 5e be
       0.029292453 -0.5048238 -0.027308017 -0.21685587
0001f0 fb 75 40 3e f3 c5 cf bc fa d3 5d be 9f f2 40 be
       0.18795006 -0.025362944 -0.21662894 -0.18842553
000200 d3 9c 9f be 7d c7 f9 3d 3a 36 4d 3d b0 eb 9c be
       -0.31174335 0.121962525 0.050100543 -0.30648565
000210 77 fd 09 be a8 87 a5 be 41 c9 55 3a 61 4b 18 3e
       -0.13475595 -0.3233006 0.00081552943 0.14872505
000220 a9 7f 61 3e ad 87 0f be 86 18 63 be ea 48 ac 3e
       0.22021355 -0.140166 -0.22177324 0.3364938
000230 0e 56 a2 be 0d 42 ec bc 62 23 4a be 6e 87 23 be
       -0.3170628 -0.02884009 -0.1974006 -0.15969631
000240 fa 47 87 be 7c d7 7f be ad e8 02 3e 62 50 9f bc
       -0.264221 -0.24984545 0.12784071 -0.01944751
000250 19 1c 33 bf b5 1b c4 3e bf 6e 9d be 53 2b b8 3d
       -0.6996475 0.3830239 -0.30748555 0.089926384
000260 ef a2 c4 3e 7d ca 0d be 83 cd a4 3e 0b 50 30 bd
       0.38405558 -0.13846774 0.32188043 -0.043045085
000270 35 a2 76 ba c6 29 93 3e 6d f5 b7 3e 81 06 0e be
       -0.0009408326 0.28742808 0.35929433 -0.13869669
000280 08 5a ae be 70 a7 36 3f 19 d9 e9 3e 5e b4 92 3c
       -0.34053063 0.7134924 0.45673445 0.017908271
000290 93 95 68 3e 01 1d 05 3e 0d e7 e6 be 6c 44 3b be
       0.22713308 0.12999345 -0.45098153 -0.1828782
0002a0 f2 0c 57 3d 32 38 3e 3e 92 4b f2 bd 7b 60 35 3d
       0.05250258 0.18576124 -0.1183082 0.044281464
0002b0 d7 ac 6a 3d 08 9f 44 3e 95 e8 0a 3e 82 be c1 3e
       0.05729374 0.1920129 0.13565286 0.37840658
0002c0 75 8f 83 3e 53 04 2c 3e 41 e7 85 3d 99 9e c7 3d
       0.25695387 0.16798525 0.06538249 0.09747047
0002d0 a9 fa 36 3d c8 bd e6 3e 92 61 98 3d e8 26 4c be
       0.044672642 0.45066667 0.07440485 -0.19936717
0002e0 f9 6a 9d 3d ae af 0b be bf bc 68 be 54 0e 53 3e
       0.07686419 -0.13641235 -0.22728251 0.20610934
0002f0 ca 5c 56 3e 05 30 79 3e 99 8d 31 3d 87 d0 52 3e
       0.20933834 0.24334724 0.04334793 0.2058736
000300 7e a1 73 be 34 3b d8 be ad 94 bb 3d df 25 24 3e
       -0.23792073 -0.42232668 0.09159217 0.16030072
000310 50 fd f1 bd f7 f4 9b be b2 c8 c9 be e5 47 bb be
       -0.11815894 -0.3046033 -0.3941093 -0.3657829
000320 10 53 57 bd fa 68 39 be f4 68 f0 bd 60 39 d7 be
       -0.05256945 -0.18106452 -0.11738768 -0.4203596
000330 2f 14 7b be 40 da 99 be 74 fd 2a 3e eb 8a c3 be
       -0.24519418 -0.30049324 0.16698247 -0.38191923
000340 42 67 ef 3a 26 e9 81 3d 73 73 0a 3e 27 f8 b9 be
       0.0018265026 0.06343298 0.13520603 -0.36322138
000350 c5 2f 6f 3e 8a 3e c0 3d 19 a3 f6 3d 3a 83 8f be
       0.23358066 0.093869284 0.12042827 -0.28029805
000360 68 a6 e8 3d f8 9b 36 3e b3 8d ae bc 8d 64 c0 3d
       0.113598645 0.17832935 -0.021307802 0.093941785
000370 fe 59 62 3e 85 77 b5 3c de 59 84 3d 6d 78 05 be
       0.22104642 0.022151718 0.06462453 -0.1303422
000380 01 ae 32 be 86 8f cc be 5c 67 15 bf 1c c3 76 3e
       -0.1744919 -0.3995325 -0.5836084 0.24097866
000390 fd 76 96 bc d8 e5 f0 3d 9d 40 b3 bd f2 2c 8e be
       -0.018367285 0.11762589 -0.087525584 -0.27768666
0003a0 d7 c7 6e be 0a 28 b8 3e 2e 54 b6 3d f9 0a ac 3e
       -0.2331842 0.35968047 0.08902775 0.3360212
0003b0 a3 15 32 be f9 e3 54 bd ae ba 8d be 6a 33 9c bd
       -0.17391066 -0.051975224 -0.27681488 -0.07626994
0003c0 c2 43 1e 3e 9e 18 9d be 1d c0 d8 3c 2b ae a6 3e
       0.15455535 -0.30682844 0.026458794 0.32554755
0003d0 c3 bd 59 be 4d 0f 24 bf 30 4d c3 3d 4e 20 46 3c
       -0.21263795 -0.6408585 0.09536207 0.012092663
0003e0 ce cc aa bd d2 6c bd be 3d ae 26 bd ea bf 8b 3e
       -0.08339845 -0.36997086 -0.04069351 0.27294856
0003f0 d1 e3 f4 3d 8b 22 59 3e 9f 4d d8 3e ed 68 9f be
       0.11957515 0.21204583 0.4224672 -0.3113474

conv1.lin.bias f4 [64]
000000 ee 36 4f be 68 3c a6 3e 9c cd 54 be b3 5d b1 3e
       -0.20235798 0.3246796 -0.20781559 0.346418
000010 c6 8a bc bd c5 cc 86 3e d3 c2 d5 3d 0b d1 08 3e
       -0.092061564 0.26328102 0.104375504 0.13360994
000020 b1 62 7e 3e ab 55 64 3d 18 be 89 3c 91 3d b3 3e
       0.24842335 0.05574576 0.016814277 0.3500791
000030 aa a3 bf 3d d5 b0 76 3e fd 2c 50 3c e3 f8 b7 bc
       0.09357388 0.24090894 0.012706039 -0.022457546
000040 53 68 90 3e 31 5b 7b 3d 5c 6a 66 3d 75 db 5f be
       0.28204593 0.061366264 0.056253776 -0.2186106
000050 0d 20 87 be ca 95 75 3e 79 be 93 be d2 01 ed 3e
       -0.2639164 0.23982921 -0.28856257 0.4629045
000060 93 b8 82 3e 94 88 5e 3d e7 1f 38 bd 2a 89 10 3e
       0.25531444 0.05432947 -0.0449523 0.14114824
000070 f7 9e 7f 3e bb bf 62 3e 5e 6b 63 3e 50 2e 6d be
       0.24962984 0.22143452 0.22208926 -0.23162198
000080 16 dc 35 be 17 01 92 3e 0b 44 ba be 7e 00 84 3e
       -0.17759737 0.28516456 -0.36380038 0.25781626
000090 28 08 3b be a1 04 33 3e 8e 50 5b be 2e a6 23 be
       -0.1826483 0.17482235 -0.21417448 -0.15981361
0000a0 8b f9 8b 3e 3c ce 81 be 71 7c 26 be fd 06 9c 3e
       0.27338824 -0.25352657 -0.16258408 0.30474082
0000b0 7b 99 64 3e a7 fe 58 be 4a 5e 87 3b ce e5 b3 be
       0.22324173 -0.21190892 0.004131113 -0.35136265
0000c0 4d 15 b2 be ca 78 b9 be eb 09 6a be f8 cb a2 be
       -0.34781876 -0.36224967 -0.22855346 -0.3179624
0000d0 14 a8 49 3e fa 34 95 bc b7 fa 0d be 95 07 b2 be
       0.19693023 -0.018213738 -0.13865171 -0.3477141
0000e0 df 54 8b be 5d 0f 95 3e 5e 79 2c 3d 0e 3c 56 be
       -0.2721319 0.29113284 0.042107932 -0.20921347
0000f0 6b 66 de 3e f1 64 21 bd b9 ab a6 bb 10 fb 84 3c
       0.43437514 -0.039402906 -0.005086389 0.016232997

conv2.nn.0.weight f4 [64, 64]
000000 85 d8 52 3c 33 a4 1a 3e 9f 5d a8 bd f3 f3 5e bd
       0.012869005 0.151017 -0.08220982 -0.054431867
000010 d6 49 9f bd 72 38 77 be a3 ac fa 3c 4e 36 e6 bd
       -0.07777755 -0.24142626 0.030599898 -0.112408265
000020 6a ce 52 be 34 17 e0 bd 73 e6 c2 3d 23 d0 5d bd
       -0.20586553 -0.10941926 0.09516611 -0.054153573
000030 c2 88 e8 3d 5a 7d f1 bd e9 f4 c2 bd 78 9d eb bc
       0.113542095 -0.11791487 -0.09519369 -0.02876161
000040 bc 01 79 bd a8 52 3f bd 9b d2 b4 bd 57 88 ea bb
       -0.06079267 -0.046709687 -0.08829232 -0.0071573663
000050 7b d8 af 3c 8e e4 c4 bd 97 df 3a be 56 83 95 bd
       0.02146553 -0.09613906 -0.18249355 -0.07300441
000060 9d 14 03 3d a9 fc a3 3d 40 55 80 bd 94 76 6b bd
       0.03200208 0.080071755 -0.0626626 -0.05748613
000070 a2 0d a4 bd 5c 3f b1 3a f5 a6 9d be 23 33 24 be
       -0.08010413 0.0013522911 -0.3079144 -0.16035132
000080 f8 0a 49 bd 95 43 2c 3d 35 44 98 3c bb 9c 82 3c
       -0.049082726 0.04205664 0.018587211 0.015943876
000090 f0 57 fd bd c0 7e a6 3c 94 28 b7 bd 1e 2a 8d bb
       -0.12370288 0.020324111 -0.089432865 -0.0043079993
0000a0 2a 2f 17 bd 00 8c 34 3d 2c e4 8e 3d 7b 37 d4 bc
       -0.036910214 0.044078827 0.06977114 -0.025905361
0000b0 a3 f4 30 be 89 2d a9 be 7e 6a 22 3e 0a f0 8e bd
       -0.17280822 -0.33042553 0.15860936 -0.069793776
0000c0 60 3a 7d 3e fc 6b fa bd b3 cc 25 3e a2 23 45 3d
       0.247293 -0.12227628 0.16191368 0.048129685
0000d0 cb 7d 9e bd c0 74 ad 3c 45 2c e7 3b 0f 76 de 3d
       -0.07738837 0.021173835 0.007054838 0.10862362
0000e0 de e3 78 3e 6e 4c ef bd a9 e8 da 3c c8 72 a2 bd
       0.24305674 -0.116845 0.02672227 -0.07932049
0000f0 81 53 c8 3d a1 c3 e9 3c e9 61 8e bd 00 9a e9 3c
       0.09781552 0.028535666 -0.06952269 0.028515816
000100 e8 7c ba 3d c0 3b a5 3c 4f c7 ca bd c7 f9 8c 3d
       0.09105855 0.020170093 -0.09901296 0.06883579
000110 57 62 a7 3a 2b 13 34 be cc 1b b9 bc 4c b6 e1 3d
       0.0012770396 -0.17585437 -0.022596262 0.110210985
000120 9a c1 65 bc ab c3 ea 3b bb 68 d2 bc ed 9e 9f bd
       -0.014023209 0.0071644387 -0.025684705 -0.077939846
000130 8a 60 8f 3e 99 16 d5 be 5d a4 a8 3e 87 3f 96 bd
       0.2800334 -0.41618803 0.329379 -0.07336336
000140 27 38 c6 3d 0a 86 35 3e d3 5b 79 3d 17 4b ac be
       0.09678679 0.17726913 0.060878586 -0.3365104
000150 bf 77 2e bd fe 07 d8 bd 52 c3 f1 bd 12 c3 8c bb
       -0.042594668 -0.105483994 -0.118048325 -0.004295715
000160 fd 14 fc 3a 69 5a 69 bd 76 8d 7a be 58 e9 c7 3c
       0.0019232329 -0.056970987 -0.24468026 0.02440326
000170 ca fc 09 be eb ab 86 3d 0c d3 81 bd 19 6d 02 3d
       -0.13475338 0.065757595 -0.06339082 0.031842325
000180 79 01 e8 bc 42 50 2c bd d3 ff 63 3c 32 7e 0f be
       -0.028321015 -0.042068727 0.013915974 -0.14012983
000190 77 bb 6f bc fb 75 a2 3d 70 10 6f 3d dc 5b 3f 3c
       -0.014632097 0.07932659 0.058365285 0.011679616
0001a0 c1 62 7f 3a ec c4 46 3c f9 ad ce bd 83 99 35 bd
       0.00097421935 0.012131911 -0.100917764 -0.044335853
0001b0 f2 e9 1c 3d f6 2b d3 bc 85 c5 8a bd 30 14 d2 3d
       0.038309045 -0.025777798 -0.06775955 0.10257757
0001c0 bc 0b 4a 3f 69 1b 1c 3c 9e f9 84 bd 80 30 cf bc
       0.78924155 0.009528019 -0.06492923 -0.025291681
0001d0 28 db 57 39 73 40 12 be 2c 76 c6 bd 98 d1 b1 bc
       0.0002058564 -0.14282398 -0.09690508 -0.021706387
0001e0 c7 aa c1 bd b7 ee 98 3d b0 39 e3 3d 74 0a 7a bd
       -0.09456401 0.07467406 0.110949874 -0.061045125
0001f0 87 78 01 be a0 80 68 3d f3 aa a6 bd 10 fe cb bb
       -0.12643634 0.05676329 -0.08138075 -0.006225355
000200 6f db 9f 3a 2b 6a 1f 3d 05 2b cc bc 2f 54 34 be
       0.0012196134 0.03891961 -0.024922857 -0.17610238
000210 a1 79 e5 bd 85 b5 a7 ba 6e 2a 18 be b5 9b 32 be
       -0.112048395 -0.0012795186 -0.14859936 -0.1744221
000220 a7 95 fb 3b af 71 29 bd 05 a1 58 3b 82 d8 6d bd
       0.007677752 -0.041368183 0.003305496 -0.058067806
000230 ae c5 87 bd f9 89 56 bd ba d4 7d bd f8 a9 a8 3c
       -0.06629501 -0.052377675 -0.06197045 0.02058886
000240 ac c4 74 3d ee 5d ce bd 36 9e 80 bd 32 12 c5 bc
       0.059757873 -0.100765094 -0.06280176 -0.024056528
000250 41 42 90 bd da f4 38 3d 5f 2c 38 be d7 ba ed 3c
       -0.07043887 0.045155384 -0.17985676 0.029019756
000260 31 55 f7 bd a0 a1 11 3d 33 0d 8d bc e8 2d a0 bd
       -0.12076796 0.03555453 -0.017218208 -0.07821256
000270 87 bf c0 bc 79 0c 76 bd 6b ce c8 3c 86 db 3e bd
       -0.023528827 -0.06007049 0.02451249 -0.046596073
000280 d2 5b 3f 3c 9c 4a 2e bc d3 51 89 bd f6 50 88 bd
       0.0116796065 -0.010637905 -0.0670506 -0.06656067
000290 74 2d 89 bc dc 5d aa bd 26 e3 06 be 83 24 63 3d
       -0.016745307 -0.083186835 -0.13172588 0.055454742
0002a0 33 a4 a1 3c a4 0e 71 3c 99 2a 2a bd cb eb 39 bd
       0.019731617 0.014712963 -0.04154453 -0.045390885
0002b0 8a 34 17 be fb 16 80 3c 98 a7 94 bd 24 f7 e7 3c
       -0.14766136 0.015635958 -0.072585285 0.028316088
0002c0 fe a7 0e 3d b4 82 d0 bd e7 47 89 bd 11 8a 78 bc
       0.03482818 -0.1018118 -0.067031674 -0.015169636
0002d0 21 52 88 3b c7 d9 43 be 85 b8 ee bd 8f 10 1c be
       0.004160181 -0.19126044 -0.11656288 -0.15240692
0002e0 ad f5 56 bd 39 47 0e be 9c 88 c7 3d ab f2 4f 3c
       -0.05248039 -0.13894357 0.09742853 0.012692134
0002f0 45 19 a5 bd 74 34 b5 bd a6 d7 92 bd 4b 71 5c bd
       -0.080614604 -0.08847895 -0.07170038 -0.053818982
000300 cc 81 39 be 18 d7 b6 3d 85 9d e7 3c 7d 4b e6 bd
       -0.1811592 0.089277446 0.028273353 -0.11244867
000310 b2 10 b2 3c f7 9e 69 be 50 b9 02 be a0 9e 2a be
       0.021736477 -0.22814547 -0.12766004 -0.16662073
000320 02 6a fb bd 46 c6 bf bd dc bd dc bd 0f 2b a5 bd
       -0.12276079 -0.093639895 -0.107784 -0.080648534
000330 e4 67 5d bd d2 5b 9f bd d7 93 da bc c0 fc 73 bd
       -0.054054156 -0.07781185 -0.026681824 -0.059567213
000340 cf 32 17 be c8 0c 5e be 8b f8 e8 3b b1 1e dc ba
       -0.14765476 -0.21684563 0.0071097068 -0.0016793815
000350 b7 35 52 bd 58 7c c3 bd 50 62 87 bc 61 21 10 3d
       -0.051320758 -0.09545201 -0.016526371 0.035188083
000360 cc 64 e1 bd f5 2e b5 3c a3 17 82 bc bd d7 dd 3d
       -0.110055536 0.022117117 -0.015880411 0.108321644
000370 00 5e f7 bd 83 dd 0a be 03 4d 12 be 69 21 e9 bd
       -0.12078476 -0.13561063 -0.1428719 -0.113833256
000380 7d 11 ce bd 2b 86 11 be 8f 6d 8e bd 44 f6 ef bc
       -0.100619294 -0.14211337 -0.069544904 -0.029292233
000390 8a 92 af 3d bf 34 3d 3d 6d c0 50 bd d8 94 1e 3d
       0.08572872 0.04619288 -0.05096476 0.038716167
0003a0 76 8e 9f 3d b9 c3 80 bd 7b 47 80 3c 8e b3 28 bd
       0.07790844 -0.06287331 0.015659085 -0.04118686
0003b0 6b 62 0f be 16 ca cc bd 9c 80 e6 bc bb 47 8c 3d
       -0.14002387 -0.09999482 -0.028137498 0.06849619
0003c0 3f 0a be be ea d7 ff bd bc 7e 3d 3b a8 ac 4f 3c
       -0.37117192 -0.12492354 0.002891465 0.012675442
0003d0 70 bb 69 3b 5b eb bb bd 09 90 10 bf 44 1d 6d 3c
       0.00356647 -0.0917575 -0.5646978 0.0144723095
0003e0 83 e2 12 be e2 7f 25 3d 0b 3f 0f 3d 51 b3 8c bd
       -0.1434422 0.04040516 0.03497223 -0.068701394
0003f0 5e be b6 bd 10 d3 c6 3c ae e3 b7 3d f6 7d 11 bd
       -0.089230284 0.024270564 0.08978973 -0.035520516

conv2.nn.0.bias f4 [64]
000000 da 59 65 3e 73 72 16 3e 3b 96 06 be 69 f0 d6 bd
       0.22397557 0.14692096 -0.13143246 -0.10495073
000010 5e ce 91 bd e6 6b c4 3d 32 fb 01 3f 5d f6 90 bd
       -0.071194395 0.095908925 0.5077392 -0.0707824
000020 8a 94 a3 be fd 9e ed 3c a1 bb 12 be bf 90 81 bc
       -0.31949264 0.029006476 -0.14329387 -0.01581609
000030 ef 7e af bc 24 1c 17 bf 50 71 db bd 8c dc c1 bd
       -0.021422831 -0.59027314 -0.10714972 -0.09465894
000040 5c bd 35 be 4e e1 c7 bb 0a 87 9e be 4d 07 e7 3c
       -0.17748016 -0.0060998565 -0.30962402 0.028201723
000050 32 25 95 bd af 5c fe bd 11 a0 09 3f cc 1e 11 be
       -0.07282485 -0.12420022 0.53759867 -0.14171904
000060 c8 c2 ee bd 99 fc 5a 3e 8d e4 d1 bb 5c 34 cd bd
       -0.11658245 0.21385421 -0.006405419 -0.100197524
000070 c4 fa c6 3d 54 38 14 3e 64 35 a2 3e 3c e8 b2 bd
       0.097157985 0.14474612 0.3168136 -0.087357014
000080 3a cf 89 bd c1 9f 03 3e 95 fb 4e be fe e6 a5 3d
       -0.067289785 0.1285391 -0.20213158 0.08100699
000090 fb b5 19 3f b9 38 e3 3a 9d 33 1e bd e6 92 dc 3e
       0.60043305 0.001733563 -0.03862344 0.43080825
0000a0 95 88 63 3e 32 a1 d4 3e b9 91 4c be dd 74 34 bd
       0.2222007 0.41529232 -0.19977464 -0.044056762
0000b0 46 92 a2 3e 06 aa 45 bd bf ef 69 be ec 9b ef 3c
       0.31752223 -0.04825785 -0.22845362 0.029249154
0000c0 8c 3e b4 3e cc 29 80 3d 1b 6b 0f be 77 c9 4f be
       0.3520397 0.06257972 -0.14005701 -0.20291696
0000d0 2e c6 04 3e ed e1 d3 bd 31 90 d3 bd 21 2f 29 bd
       0.12966225 -0.10345826 -0.10330237 -0.04130471
0000e0 b1 40 a2 3c 6a fe ef 3d 05 dc a5 bd 05 17 05 3f
       0.019806238 0.117184475 -0.08098606 0.5198825
0000f0 eb 86 98 be 65 3f 16 3e 8c 3e 90 bb 83 f4 8e 3e
       -0.29790434 0.1467262 -0.0044019874 0.27920923

conv2.nn.2.weight f4 [64, 64]
000000 14 bd d2 3d fe ae f1 bd f8 ab 9a bd 85 49 cc 3d
       0.1028997 -0.11800955 -0.07552332 0.0997496
000010 a0 ab 9e 3d 0b 95 95 be f8 6e d0 3e 54 1e db 3d
       0.077475786 -0.29215273 0.40709662 0.10699144
000020 31 c9 e0 bd 35 e1 ed bd d6 cf cd 3d 2c e9 07 be
       -0.10975874 -0.116152205 0.10049407 -0.13272542
000030 aa 9d d9 bd 14 68 70 3d 32 6f 9f bc 99 af 38 3c
       -0.10625775 0.058693007 -0.019462202 0.0112723345
000040 c9 6f 1a 3d 46 f8 cf bd 63 97 fc bd 74 39 b7 3d
       0.037704263 -0.10154776 -0.12333562 0.08946505
000050 ba da e7 3b 31 7c 15 bd 25 51 78 3c db 23 1e bc
       0.007075635 -0.03649539 0.015156065 -0.009652103
000060 64 2c a1 3d cc b7 02 be 8f c9 a2 3c 27 cb a9 bb
       0.07869795 -0.12765425 0.019871501 -0.0051816883
000070 a3 26 e9 bd 7f 5d a2 3d b6 2f 2c be 35 98 71 3d
       -0.113843225 0.07927989 -0.16815075 0.058983047
000080 be bb 8e 3c 07 5e 5e 3c 9c 0b 17 3d ad f8 da bd
       0.017423507 0.013572223 0.036876306 -0.106919624
000090 1c ea ad bd 08 c7 71 bb 8e 19 07 be b9 e4 ab bd
       -0.084919184 -0.0036892314 -0.13193342 -0.08393235
0000a0 36 41 1e bc a8 b7 01 3e 14 eb a0 3d fa 1d e5 bd
       -0.009659102 0.12667716 0.078573376 -0.11187358
0000b0 4d 4c 25 3e fb a1 97 bd bb 48 18 3d 85 22 d1 be
       0.16142388 -0.07403942 0.037178736 -0.4084665
0000c0 02 9e 02 be ec f2 3d be d6 36 d3 bd b7 11 1b 3d
       -0.12755588 -0.18549699 -0.103131935 0.03785869
0000d0 69 ed db 3c bf 46 f2 3c fb b1 ea bc b6 bc ec b9
       0.026846604 0.02957475 -0.02864932 -0.00045154028
0000e0 e5 b8 83 3d d1 a2 bd bd 1a 28 f7 3d 49 9f 66 3e
       0.0643175 -0.092595704 0.12068196 0.225217
0000f0 96 d8 9d bc db c5 29 3d 1f 44 00 3d 1d a3 a4 3d
       -0.019268315 0.041448455 0.031314965 0.08038924
000100 0c 41 e6 bd 00 96 2e bd 24 34 c2 bc 0b 21 df bc
       -0.112428755 -0.04262352 -0.023706503 -0.027237436
000110 40 71 2e 3d 07 6d 82 be 72 95 b3 3e fd 83 a0 bd
       0.042588472 -0.25473806 0.35074955 -0.07837675
000120 86 47 a3 3c eb 8f 93 3b ec b2 cb 3d 31 0c a8 bd
       0.019931566 0.0045032403 0.09946236 -0.0820545
000130 06 cf d6 bd 72 d1 36 3d c6 0e 14 bb 30 2d 0f bc
       -0.10488705 0.044633336 -0.0022591813 -0.008738801
000140 59 7f 4d bd 9c 67 24 3d 76 78 9e 3c 6e 73 de 3c
       -0.050170276 0.040137872 0.01934455 0.02715465
000150 3b dd b3 bd 71 31 2f bd 90 d8 72 3c 56 b2 db bd
       -0.08782431 -0.04277176 0.01482214 -0.10727374
000160 d3 0c 13 3d 0b a0 8e 3d f9 f9 14 3d 7a de 84 3d
       0.035900902 0.069641195 0.036371205 0.064877465
000170 c8 f6 a3 3d 3b 99 8e 3d 95 87 15 be 56 d7 0a 3c
       0.08006054 0.0696282 -0.14602502 0.008474192
000180 f3 93 e8 bd f0 63 9b 3d d4 2d 13 be 22 96 c4 bd
       -0.11356344 0.07587421 -0.14372951 -0.09598948
000190 f8 9e b0 3d 02 f4 46 3d 4c 15 f9 bd f2 ef ad bc
       0.08624071 0.048572548 -0.12162265 -0.021232579
0001a0 67 09 28 3d fc f7 dd 3d fa 15 e4 3d 07 72 93 bd
       0.04102459 0.10838315 0.11137004 -0.07199483
0001b0 0a c0 b9 3c 99 f4 27 3d 41 c4 df 3d f4 33 47 bf
       0.02267458 0.04100475 0.10926104 -0.7781365
0001c0 00 d4 99 3d de d8 76 3d 46 48 af 3d 12 d6 35 3d
       0.07511139 0.060265414 0.08558707 0.044393606
0001d0 7e 65 2c 3d df 87 c0 3d 84 af 36 bd 71 57 ab bc
       0.042088978 0.09400915 -0.04460098 -0.020915719
0001e0 16 72 63 bc dc 33 01 be a6 d3 19 bd a1 69 52 3e
       -0.013882181 -0.12617439 -0.03755536 0.20548107
0001f0 2e ed 9d bd 3e bc 91 bd d5 1b b7 3c 82 9d bc bd
       -0.07711254 -0.071159825 0.022352139 -0.0920973
000200 39 77 2f bd df 5e 6d bd 3a 36 30 3e 2c ee 42 3d
       -0.04283831 -0.057951804 0.17208186 0.04759042
000210 59 3e c4 3c 8f 86 3d be 0e 15 e3 bd b1 d2 8e 3c
       0.02395551 -0.18508361 -0.11088 0.01743445
000220 6c 3c 1f be 65 64 91 3c 93 db 4e 3c 54 df 50 3d
       -0.15550393 0.017748067 0.012625593 0.050994232
000230 ff 96 85 bd 51 54 ee 3d e2 62 21 3d c4 7c d5 3d
       -0.06522941 0.11637176 0.039400943 0.10424188
000240 10 57 94 3b d3 42 83 3d 4d a0 8a bd 2e 0f b2 3d
       0.00452698 0.0640923 -0.06768856 0.086943015
000250 2a ff 31 3d 6f ac cf 3c 7a 26 02 3d 71 61 25 bb
       0.043456234 0.025350777 0.031774975 -0.0025235082
000260 de 33 3a bd e2 00 0c be 8e b2 85 3d 31 9a 10 bd
       -0.04545962 -0.13672212 0.06528197 -0.0353033
000270 7d 62 e9 bd f8 f3 33 be 18 6a 2a 3d f5 07 2e bd
       -0.11395738 -0.17573535 0.041605085 -0.042488057
000280 2d 6a 1a 3d a2 ac 16 bd 56 83 a6 3c cf 8c 04 3c
       0.037698913 -0.03678573 0.020326298 0.008090212
000290 02 e3 b0 3d a4 7b eb ba 8d df ea 3c 4a 59 86 bd
       0.08637048 -0.0017965925 0.02867105 -0.06559999
0002a0 d3 56 aa 3d 1e f3 bf bd 65 ef 9f 3d 3f c8 92 3d
       0.08317342 -0.09372543 0.07809333 0.071671
0002b0 f6 21 19 be 04 a8 d3 bd 6e 4b a5 bd 80 ed 12 3f
       -0.14954361 -0.10334781 -0.08071028 0.57393646
0002c0 ea 45 00 3e 30 cb 0b be 3d bb 15 3d bf 51 81 3d
       0.1252667 -0.13651729 0.036555517 0.0631442
0002d0 1c 3b 09 3a 11 4f a1 3d b4 77 ab bd eb e5 a9 bd
       0.0005234943 0.07876409 -0.08372441 -0.082958065
0002e0 c8 8d 12 bd 7a a5 c7 3b 02 c3 d8 3d d7 48 5b 3d
       -0.035779744 0.0060927244 0.1058407 0.053536262
0002f0 63 44 84 bd f1 1b 2f 3d 9e ee 87 bd 27 8f 44 3d
       -0.06458356 0.042751256 -0.066373095 0.047988083
000300 93 4c dc bd 12 f8 c0 3d 6b 2e 85 3d 90 6d cf bd
       -0.10756793 0.09422316 0.06502994 -0.10128319
000310 c3 57 20 bb 6a 41 58 be 3c 02 36 3e 9d 2e cd 3c
       -0.0024466373 -0.21118703 0.1777429 0.025046641
000320 68 1b d3 3d 34 6e 03 bd d1 c3 eb bd af 81 2f be
       0.10307962 -0.03208752 -0.115119584 -0.17139314
000330 d2 42 8e bd 73 ea 2a 3d f3 8f 10 3d 0c f6 f7 bd
       -0.06946339 0.041727494 0.03529353 -0.121074766
000340 74 b8 2a 3d 9d 30 c5 3d c9 b4 ad bd 01 d3 60 bd
       0.041679814 0.09628413 -0.08481748 -0.05488873
000350 f4 b9 c4 bc 39 0a 0f be 23 8c 9a 3d ad a7 45 3d
       -0.02401445 -0.13968743 0.0754626 0.04825561
000360 90 8a ab bd 6d 35 91 3d 36 03 59 3d 57 8c d8 3d
       -0.08376038 0.07090268 0.052981578 0.10573643
000370 00 9c cb bd ad de b8 3c bc 3c 89 3d 35 07 97 3d
       -0.09941864 0.022567118 0.06701037 0.073744215
000380 45 14 a2 3d 0e 94 e9 3c 69 78 b6 3d f0 1c af 3b
       0.07914022 0.02851298 0.08909685 0.005344026
000390 9d cc 85 bc 65 6b 08 3e 13 cb 64 3d 0a 69 58 bd
       -0.016332919 0.13322218 0.05585773 -0.052834548
0003a0 f6 bc 2e 3d f8 e5 ea 3d 21 36 d0 3d e2 94 2d be
       0.042660676 0.11469644 0.10166574 -0.16951326
0003b0 7e 13 2b 3c c9 a9 7e 3d fd dd 05 3d 4a f2 b1 3e
       0.010441659 0.06217364 0.032682408 0.34755164
0003c0 df e5 ed bc ce 88 11 bd 80 de d8 3d b5 15 07 bb
       -0.029040275 -0.035530858 0.105893135 -0.0020612304
0003d0 d4 3a 6d bc 33 c6 44 3d ca 06 c7 bd 8c f1 ba 3c
       -0.014479358 0.04804058 -0.09718092 0.022820257
0003e0 c3 c6 a6 3d 6d 51 97 3d 51 f3 00 be 84 cd 2e 3c
       0.081433795 0.073885776 -0.12592818 0.010669116
0003f0 cc 43 33 bc 9a a2 f9 bd 84 3b 74 3d 1e 1c 6e 3d
       -0.010941457 -0.12189217 0.05962707 0.058132283

conv2.nn.2.bias f4 [64]
000000 ec 53 b5 bd a0 c8 ba 3d 58 9f 53 3d 7e 60 3c be
       -0.088538975 0.091202974 0.051665634 -0.18396184
000010 0c b2 61 3d 86 2b e1 be f0 a8 48 be 55 a0 ac be
       0.05510144 -0.43978518 -0.19595695 -0.33716074
000020 0f 8a 97 3d 93 e4 eb 3d d5 43 e8 3c 81 71 81 3e
       0.073993795 0.115182064 0.028352657 0.2528191
000030 63 84 42 be 55 1b 07 be 1f 6c a0 bd 1c b3 9e be
       -0.18995814 -0.1319402 -0.078331225 -0.30996025
000040 f4 17 2c bc 8d 9f ac be 09 7f b1 be 5a ea d8 3d
       -0.010503758 -0.33715478 -0.34667233 0.10591574
000050 7a 80 20 3e 87 63 92 bd b1 95 22 3e 4f d5 72 3e
       0.1567401 -0.071478896 0.15877415 0.23714183
000060 9c 6c 32 be 54 18 66 be cb 2b d6 bb f4 8f 25 be
       -0.17424244 -0.22470218 -0.0065359822 -0.16168195
000070 62 9e 66 3e da c8 05 be 04 2f b7 be 48 92 23 3d
       0.22521356 -0.130649 -0.35778058 0.039934427
000080 76 55 cc 3c 24 2a 38 bc 98 2c 41 be 5e c8 de be
       0.024943095 -0.011240516 -0.18864667 -0.43512243
000090 16 9a be bd 31 cc 70 be 9a da a8 bd 17 f6 68 3e
       -0.09306733 -0.23515393 -0.0824482 0.22750126
0000a0 bd a6 b3 bd 52 0e 43 3e 2b ef 34 3d 35 58 28 be
       -0.08772037 0.19048432 0.0441734 -0.16439898
0000b0 fa 25 37 3e 2d f9 7e be 91 cf 64 3a 24 5c 43 be
       0.1788558 -0.2489974 0.00087284396 -0.19078118
0000c0 ff b1 88 be da 5a 8c bc d0 f4 8c bc 19 e6 51 be
       -0.266983 -0.017133165 -0.01720658 -0.20497932
0000d0 af fd 15 be cc 7f 87 3e 3e 33 02 3f c6 d4 47 be
       -0.14647554 0.2646469 0.5085944 -0.1951476
0000e0 c8 8e d3 3d fa 49 4d be a5 e6 dc be 95 e6 99 be
       0.10329968 -0.20047751 -0.43144718 -0.30058733
0000f0 42 b0 2b be be 89 9d 3c 8a 64 84 bd 07 cc 22 be
       -0.16766456 0.01923072 -0.06464489 -0.15898143
