checkpoints/A/model_A_epoch_66.pth (torch, 78688 bytes, 15 tensors)

node_embedding.weight f4 [1, 64]
0.18899862 -0.08923469 -0.33074304 -0.8959687 1.5561857 -1.4481925 -0.16893783 1.1687219
-0.26463798 1.129609 0.96329117 -0.70039815 1.239027 -1.5565197 -1.7232642 -0.07096639
2.0262654 0.7508803 1.4829663 -1.9925947 1.1874549 -0.29575878 -0.8630381 -0.44280654
-0.82155627 -0.47085556 -1.335584 0.8232151 1.7305537 0.62864846 0.6741636 -0.47263142
1.0740162 -2.6589437 -0.17977525 2.0126193 1.8139441 1.367291 -1.2578024 0.16102864
0.51411784 2.108502 -1.0304127 -1.395749 0.09504128 0.2612073 0.3667461 0.91138804
0.9341687 -0.7188415 3.5834892 -0.6072906 -0.23561719 1.743134 -0.78355783 0.89150494
0.3425609 -1.0266258 -0.065771796 -0.24880305 -0.8440838 1.2005848 1.6029601 1.6738689
00000000: db88 413e adc0 b6bd 2757 a9be 345e 65bf
00000010: 1831 c73f 5f5e b9bf 0afe 2cbe ae98 953f
00000020: a17e 87be 0797 903f 409a 763f 4b4d 33bf
00000030: 7098 9e3f 0a3c c7bf ec93 dcbf d456 91bd
00000040: 55ae 0140 b139 403f d7d1 bd3f 580d ffbf
00000050: 86fe 973f b26d 97be 11f0 5cbf 8ab7 e2be
00000060: 8351 52bf fb13 f1be 6bf4 aabf 3abe 523f
00000070: c982 dd3f 1bef 203f fc95 2c3f bffc f1be
00000080: 5d79 893f 222c 2ac0 0117 38be c1ce 0040
00000090: 522f e83f 6403 af3f abff a0bf b1e4 243e
000000a0: 3a9d 033f b2f1 0640 90e4 83bf e7a7 b2bf
000000b0: 01a5 c23d f7bc 853e 25c6 bb3e ba50 693f
000000c0: ae25 6f3f ff05 38bf e357 6540 6677 1bbf
000000d0: a245 71be 041f df3f 3f97 48bf ab39 643f
000000e0: 2464 af3e 7968 83bf 5db3 86bd 3ac6 7ebe
000000f0: e015 58bf c3ac 993f cc2d cd3f 5641 d63f

conv1.nn.0.weight f4 [64, 64]
0.101808466 -0.03464105 0.028038649 0.1320251 -0.12034751 0.12246945 -0.124850065 -0.033050723
-0.14814685 -0.12763211 0.010560735 0.07610263 0.05635973 0.03748915 -0.04087914 0.035277095
-0.10970455 -0.07029659 0.08203363 0.049294338 -0.039517205 0.001077908 -0.0027308192 -0.10444556
0.055350773 -0.050174203 -0.09470017 -0.0037305558 0.0041723074 0.018482188 -0.03439515 0.077984996
-0.061934717 -0.04004779 0.02885644 0.026548186 0.06344841 0.007877968 -0.08222516 -0.12069834
0.011713433 -0.11283301 -0.07127365 0.08012223 -0.012637259 -0.07552269 -0.11030637 0.0846004
0.021770267 0.06696629 0.06050004 0.04992429 0.05542864 -0.005754256 -0.0941542 -0.019398736
0.08380036 0.04085482 -0.12138237 -0.028475767 -0.003898454 -0.053949755 0.05994869 -0.070417814
0.05254577 -0.116636395 -0.041168094 -0.006296575 0.09075077 -0.010656029 0.051357776 0.034921438
-0.10000223 -0.00305444 -0.012949988 0.004509121 -0.1210216 -0.12339221 -0.037960187 0.024529234
-0.0628164 0.04348384 -0.11310607 -0.044465795 -0.120812565 0.10086112 -0.089037046 -0.09444824
0.058424905 -0.05936961 0.025574014 -0.04263854 -0.048260406 -0.041359156 0.12009744 -0.02898866
0.022669554 -0.084147796 -0.06868054 -0.049577937 -0.118549064 -0.121378124 -0.12363832 0.03129427
-0.08888516 -0.002392292 0.01803486 -0.044424832 0.11481826 0.068090096 0.091231465 -0.12378654
-0.0026221722 0.11479378 -0.054479152 0.038664117 -0.101900056 -0.010376811 -0.00790824 -0.005537346
-0.12251876 -0.01897496 0.079615414 0.04299687 0.09605707 -0.037110254 0.0011783242 0.07869083
-0.013149291 0.018831104 -0.11209123 -0.031519175 0.09898889 0.11485678 0.038975805 -0.06732327
0.09914149 0.04311125 -0.104074895 -0.0084160715 -0.06541352 -0.01715234 -0.05978696 0.08811915
-0.018065885 0.02809444 -0.09758133 -0.04837112 -0.057316825 0.03732744 -0.10440755 -0.047782943
-0.12428115 -0.0045679808 0.036620885 -0.10833521 -0.026064947 -0.1029647 -0.12190658 -0.02544187
-0.05569087 -0.026904419 0.0537107 0.080593646 0.031030074 -0.06946549 0.023105115 0.018283322
0.122159064 0.034801126 -0.018021554 -0.06998697 -0.012140557 -0.0117896795 -0.10818556 -0.04589957
0.048203707 0.015133217 0.022303045 0.043294877 0.054087833 -0.023158297 0.074680775 0.005670622
-0.05407852 0.057017177 0.12345259 0.03624071 0.083960995 0.015748844 -0.053282186 0.022906959
-0.036901444 -0.032890886 -0.07895371 0.100979045 -0.0898059 0.107758045 -0.034148633 0.11558266
-0.018527523 0.12360768 -0.124752924 -4.0367246e-05 -0.118836656 -0.06081544 -0.004089713 0.08773029
-0.050909042 0.10760392 0.024171457 -0.0022105873 0.12449743 -0.07457639 -0.024458095 0.07789469
-0.089554936 -0.11934909 0.09608038 -0.10054584 0.008259982 0.11221379 0.073057115 0.041550487
0.022782832 -0.04557468 -0.01838474 -0.115260184 0.0066763014 0.067640215 0.08768724 -0.07682024
-0.052743554 -0.021055043 0.017935097 0.049105346 -0.006190777 -0.025927871 -0.12073065 -0.10948321
-0.044706106 -0.040337384 -0.033365726 0.041316733 -0.11554366 0.07486194 -0.06145321 -0.06200525
0.07290071 0.039413378 -0.060112804 -0.0038691312 -0.0147001445 -0.0073899925 -0.0507026 0.006001726
00000000: f580 d03d c6e3 0dbd 4fb1 e53c 9631 073e
00000010: c178 f6bd 43d1 fa3d 64b1 ffbd 3260 07bd
00000020: cfb3 17be feb1 02be ef06 2d3c b2db 9b3d
00000030: 76d9 663d 398e 193d e370 27bd b77e 103d
00000040: c7ac e0bd a9f7 8fbd 3f01 a83d dce8 493d
00000050: cbdc 21bd 9748 8d3a 8bf7 32bb 8ee7 d5bd
00000060: 7eb7 623d 7783 4dbd 2af2 c1bd 577c 74bb
00000070: dab7 883b f567 973c eee1 0cbd 99b6 9f3d
00000080: 42af 7dbd 2709 24bd 5764 ec3c 957b d93c
00000090: 3df1 813d 9812 013c aa65 a8bd b130 f7bd
000000a0: b3e9 3f3c fe14 e7bd ebf7 91bd 2017 a43d
000000b0: 820c 4fbc a4ab 9abd 4ee8 e1bd f942 ad3d
000000c0: 8f57 b23c 9f25 893d e4ce 773d 6a7d 4c3d
000000d0: 2409 633d 338e bcbb ebd3 c0bd 19ea 9ebc
000000e0: 869f ab3d 6257 273d 5297 f8bd 0346 e9bc
000000f0: 347d 7fbb 6bfa 5cbd c28c 753d 3737 90bd
00000100: 3c3a 573d 10df eebd e09f 28bd 8053 cebb
00000110: 8adb b93d a096 2ebc 885c 523d c809 0f3d
00000120: f8cd ccbd 002d 48bb 302c 54bc 40c1 933b
00000130: 2cda f7bd 0eb5 fcbd 247c 1bbd 88f1 c83c
00000140: e2a5 80bd 1c1c 323d 28a4 e7bd c421 36bd
00000150: 946c f7bd 4690 ce3d 0e59 b6bd 146e c1bd
00000160: f44e 6f3d 8c2d 73bd 9880 d13c c0a5 2ebd
00000170: b4ac 45bd 3868 29bd a6f5 f53d a079 edbc
00000180: 80b5 b93c ae55 acbd 62a8 8cbd 3c12 4bbd
00000190: dac9 f2bd 1895 f8bd 1636 fdbd 6c2e 003d
000001a0: 6c09 b6bd 00c8 1cbb d8bd 933c d0f6 35bd
000001b0: d625 eb3d d272 8b3d 90d7 ba3d cc83 fdbd
000001c0: c0d8 2bbb 0019 eb3d 8825 5fbd 445e 1e3d
000001d0: fab0 d0bd 8003 2abc 9091 01bc a072 b5bb
000001e0: 1eeb fabd 6071 9bbc 680d a33d 7c1d 303d
000001f0: 92b9 c43d ec00 18bd 0072 9a3a a828 a13d
00000200: 2070 57bc b043 9a3c 1690 e5bd 401a 01bd
00000210: b0ba ca3d 083a eb3d 18a5 1f3d c8e0 89bd
00000220: b20a cb3d 6c95 303d 3825 d5bd 90e3 09bc
00000230: 86f7 85bd 1083 8cbc 2ce3 74bd d077 b43d
00000240: e8fe 93bc 5026 e63c b8d8 c7bd cc20 46bd
00000250: 0cc5 6abd a8e4 183d a0d3 d5bd 0cb8 43bd
00000260: 1e87 febd 00af 95bb c8ff 153d dade ddbd
00000270: 2886 d5bc 28df d2bd 28aa f9bd 786b d0bc
00000280: 1c1c 64bd a866 dcbc c0ff 5b3d 480e a53d
00000290: c832 fe3c ec43 8ebd f046 bd3c e8c6 953c
000002a0: 882e fa3d a08b 0e3d f0a1 93bc 5455 8fbd
000002b0: 30e9 46bc 8029 41bc 6490 ddbd 3001 3cbd
000002c0: 4071 453d 50f1 773c e0b4 b63c f855 313d
000002d0: 348b 5d3d 78b6 bdbc 3cf2 983d a0d0 b93b
000002e0: 7081 5dbd d88a 693d b6d4 fc3d 2471 143d
000002f0: bef3 ab3d b803 813c 6c3e 5abd 60a7 bb3c
00000300: f825 17bd 98b8 06bd 7cb2 a1bd 1ace ce3d
00000310: 28ec b7bd 40b0 dc3d 70df 0bbd 9ab6 ec3d
00000320: 08c7 97bc 0626 fd3d 767e ffbd 0050 29b8
00000330: a260 f3bd 9c19 79bd 0003 86bb f0ab b33d
00000340: 0086 50bd 725f dc3d 3803 c63c 80df 10bb
00000350: 82f8 fe3d 82bb 98bd 585c c8bc 4087 9f3d
00000360: 9468 b7bd 4c6d f4bd cac5 c43d faea cdbd
00000370: e054 073c 58d0 e53d f89e 953d d830 2a3d
00000380: 10a3 ba3c 84ac 3abd 989b 96bc 880d ecbd
00000390: e0c4 da3b f486 8a3d 5e95 b33d ee53 9dbd
000003a0: a009 58bd a07b acbc a0ec 923c b022 493d
000003b0: 00dc cabb b066 d4bc a241 f7bd bc38 e0bd
000003c0: c01d 37bd d038 25bd 80aa 08bd bc3b 293d
000003d0: 28a2 ecbd 3851 993d 5cb6 7bbd 38f9 7dbd
000003e0: f84c 953d ec6f 213d d838 76bd 4091 7dbb
000003f0: e0d8 70bc c027 f2bb 88ad 4fbd 20aa c43b

conv1.nn.0.bias f4 [64]
-0.056375697 0.10603526 0.038220704 0.060450718 0.23511264 -0.11197052 0.0874124 0.06195976
-0.07704164 -0.14380334 0.06717802 -0.04773576 -0.023723945 0.13761777 -0.1406326 0.09061443
0.06804133 -0.10276096 -0.041708477 0.18700765 0.009501323 0.17801113 0.09406487 -0.024457583
-0.12423783 0.0291782 0.059842408 -0.094340146 0.120696455 -0.11740403 -0.14796138 0.044145875
0.02671487 0.012177878 -0.085512206 -0.068538144 -0.02754592 0.10363934 0.019475877 0.025122441
0.10565351 0.11473879 0.015978158 -0.08396961 -0.090831324 -0.070228554 0.07247368 0.039590057
-0.03971371 0.058605917 -0.10821095 -0.08271612 -2.8014183e-05 -0.02138932 0.07548183 0.05691191
-0.09952973 -0.09855082 0.09063614 0.04522115 -0.047292616 0.0708645 -0.03686032 -0.011016308
00000000: 34ea 66bd 0429 d93d 508d 1c3d 2c9b 773d
00000010: 5ec1 703e cd50 e5bd 4605 b33d 84c9 7d3d
00000020: 02c8 9dbd 2f41 13be a194 893d 9386 43bd
00000030: b858 c2bc aceb 0c3e fe01 10be 0f94 b93d
00000040: 4159 8b3d 5774 d2bd 82d6 2abd ef7e 3f3e
00000050: 70ab 1b3c 8d48 363e 15a5 c03d 455b c8bc
00000060: 6770 febd 1f07 ef3c 501d 753d 6835 c1bd
00000070: b42f f73d 8671 f0bd 3083 17be 4ed2 343d
00000080: 25d9 da3c b985 473c 0621 afbd ba5d 8cbd
00000090: fba7 e1bc dd40 d43d e08b 9f3c 94cd cd3c
000000a0: de60 d83d 2cfc ea3d a0e4 823c 42f8 abbd
000000b0: c605 babd fdd3 8fbd 156d 943d 2f29 223d
000000c0: d8aa 22bd c20c 703d b49d ddbd 1267 a9bd
000000d0: 0000 ebb7 a838 afbc 3896 9a3d 771c 693d
000000e0: 3ed6 cbbd 03d5 c9bd 719f b93d d039 393d
000000f0: e7b5 41bd 6821 913d d9fa 16bd bf7d 34bc

conv1.nn.2.weight f4 [64, 64]
0.05791299 0.009916335 0.016818061 -0.10744578 -0.07930037 -0.060611255 0.023285044 -0.050363556
-0.009258041 0.052368395 0.04039347 0.044909924 0.06337553 -0.14601806 -0.023143252 0.06855179
0.064595066 -0.012396612 -0.04105671 0.056316033 -0.12208505 -0.02120528 -0.030430008 -0.0850365
0.013058788 0.1284783 0.09990659 -0.12257024 -0.042611107 0.040072627 0.053815953 -0.07797848
-0.10096521 -0.040803406 -0.07092178 0.04584874 -0.10192911 0.12229433 0.10244554 -0.11015542
0.11999254 0.07343903 0.052404255 -0.07142073 0.026086077 0.04450169 0.040640876 0.01627998
0.029780075 -0.021505427 -0.09021435 -0.09499216 0.089018404 -0.0017952621 0.006197546 -0.066794895
0.03271167 -0.077191606 0.0739321 -0.08057876 -0.08937953 0.12014322 0.036216006 -0.06303467
-0.093980685 0.09280747 -0.031110197 -0.080927 0.08058537 0.058847506 0.12161328 -0.07840487
0.08301358 -0.09803329 -0.08526345 0.11100146 0.11521512 -0.005106948 -0.022404224 0.07226619
0.12252482 0.046718486 0.02027145 0.11244072 0.011239544 0.044827804 0.03260875 -0.050706282
0.05612218 0.10251795 -0.119968474 0.08964507 -0.04561785 -0.13132043 -0.092385575 0.02243921
0.079744115 0.049297024 0.05118684 -0.050162893 -0.006444191 0.047459293 0.11762476 -0.011613237
-0.019027362 0.021110132 -0.054060742 -0.0024379308 0.03455332 -0.07891179 -0.039941076 -0.017417476
-0.0074075013 -0.014261396 -0.12175994 -0.09237471 -0.0060178936 -0.026345298 -0.06605998 0.09328721
-0.06756067 0.073369354 0.1024228 0.07607101 0.08150499 0.063162185 -0.08877827 0.032614097
-0.030116037 0.025523618 -0.027449429 0.0138344765 0.021498384 0.078062415 -0.013069982 -0.033406615
-0.053951222 -0.029804666 -0.047415078 0.10273112 -0.065242425 0.06144841 -0.13587004 0.0072503537
-0.06267409 -0.12168629 0.038647503 -0.08448927 -0.021087438 -0.08064715 0.06910162 -0.045114294
-0.086965755 -0.092497125 -0.096741945 0.007514283 0.013386011 -0.084824264 -0.051192075 0.049397856
0.031638324 -0.07142989 -0.06020829 -0.001373282 0.12492226 0.079315275 -0.030934408 0.10025823
-0.121796936 0.101938695 0.024447411 -0.02505883 -0.04801649 -0.0676008 0.1189886 0.047327057
-0.013493687 0.06821562 -0.110601395 0.1236624 0.047306642 0.11861007 -0.06215912 -0.03067045
0.03682421 0.022836074 -0.10843958 0.0876158 0.032927513 0.004551545 0.018973246 0.057546362
0.050007805 0.08214562 0.025836185 -0.105450496 0.12507397 0.022276526 0.09083523 -0.00054608285
0.0039855624 -0.042117175 0.10496328 -0.1107276 0.06631389 -0.09098099 0.09628738 -0.029054813
-0.11725841 0.048722383 -0.092922464 -0.124583036 -0.061624765 -0.0013853756 0.07450895 -0.020197485
-0.1082587 0.01391102 0.089568585 0.09190413 -0.11463818 -0.09458279 0.054430977 -0.07473896
-0.10392428 -0.023807088 -0.0032824883 0.110630386 0.007326623 0.05773259 -0.03370051 0.11451915
0.1160302 0.034706637 -0.09894577 0.00759214 0.04075937 0.10953651 -0.06144615 0.090357214
-0.033170685 0.038509995 -0.118124016 -0.11036402 -0.04221548 -0.013289556 0.12109458 0.09880028
-0.07280895 0.04582409 0.108401656 0.018049166 0.05186965 0.044061013 -0.049100403 -0.05471307
00000000: 2c36 6d3d 2078 223c 08c6 893c 880c dcbd
00000010: 3b68 a2bd 8243 78bd 47c0 be3c 044a 4ebd
00000020: 0aaf 17bc 3e80 563d a073 253d 78f3 373d
00000030: 08cb 813d c285 15be eb96 bdbc e264 8c3d
00000040: 6b4a 843d 291b 4bbc 152b 28bd a4ab 663d
00000050: ba07 fabd b2b6 adbc 5a48 f9bc 9e27 aebd
00000060: 87f4 553c d18f 033e d49b cc3d 1b06 fbbd
00000070: fc88 2ebd 3223 243d 1e6e 5c3d 2eb3 9fbd
00000080: d9c6 cebd 7921 27bd 703f 91bd e3cb 3b3d
00000090: 36c0 d0bd 7375 fa3d f8ce d13d 2a99 e1bd
000000a0: a6be f53d 3467 963d d8a5 563d 0845 92bd
000000b0: 78b2 d53c 6747 363d 0c77 263d 985d 853c
000000c0: 58f5 f33c 262c b0bc 4dc2 b8bd 408b c2bd
000000d0: 484f b63d 004f ebba c914 cb3b c3cb 88bd
000000e0: acfc 053d a216 9ebd b669 973d 7a06 a5bd
000000f0: 9d0c b7bd a60d f63d 3c57 143d 5218 81bd
00000100: f278 c0bd d811 be3d d0da febc 0ebd a5bd
00000110: f109 a53d 150a 713d 6210 f93d bc92 a0bd
00000120: 0603 aa3d adc5 c8bd 9b9e aebd bc54 e33d
00000130: e8f5 eb3d 2f58 a7bb 1089 b7bc 4c00 943d
00000140: 4bee fa3d e25b 3f3d 5010 a63c 5247 e63d
00000150: 1026 383c 5c9d 373d c190 053d 64b1 4fbd
00000160: 5fe0 653d eef4 d13d 08b2 f5bd d697 b73d
00000170: c8d9 3abd dd78 06be a634 bdbd 6fd2 b73c
00000180: e250 a33d adeb 493d 4ba9 513d 9b77 4dbd
00000190: cb29 d3bb ad64 423d 40e5 f03d 7245 3ebc
000001a0: 45df 9bbc 28ef ac3c cc6e 5dbd b1c5 1fbb
000001b0: c887 0d3d 819c a1bd 4199 23bd 18af 8ebc
000001c0: a0ba f2bb a1a8 69bc 475d f9bd f42e bdbd
000001d0: c031 c5bb 18d2 d7bc 744a 87bd 5d0d bf3d
000001e0: 405d 8abd ac42 963d 0cc3 d13d 1ecb 9b3d
000001f0: 17ec a63d 2d5b 813d 62d1 b5bd 5c96 053d
00000200: e8b5 f6bc e816 d13c a0dd e0bc 00aa 623c
00000210: 611d b03c 30df 9f3d 7a23 56bc 60d5 08bd
00000220: f5fb 5cbd ea28 f4bc 5036 42bd b264 d23d
00000230: d29d 85bd 54b1 7b3d 8421 0bbe 6094 ed3b
00000240: 465b 80bd a936 f9bd d84c 1e3d b608 adbd
00000250: 90bf acbc 552a a5bd 2685 8d3d c4c9 38bd
00000260: 1a1b b2bd 226f bdbd a420 c6bd 603a f63b
00000270: 0051 5b3c 58b8 adbd c8ae 51bd 6855 4a3d
00000280: 3097 013d d649 92bd f89c 76bd b3ff b3ba
00000290: 3ed7 ff3d 0c70 a23d 286a fdbc 3054 cd3d
000002a0: ac70 f9bd 3cc5 d03d f045 c83c 2d48 cdbc
000002b0: f0ac 44bd 4a72 8abd 4cb0 f33d 04da 413d
000002c0: a014 5dbc a2b4 8b3d fc82 e2bd b642 fd3d
000002d0: 9cc4 413d d6e9 f23d 909a 7ebd 9840 fbbc
000002e0: fcd4 163d b812 bb3c 9215 debd ea6f b33d
000002f0: 00df 063d 2025 953b c86d 9b3c bcb5 6b3d
00000300: fcd4 4c3d f63b a83d 68a6 d33c 6ef6 d7bd
00000310: 6413 003e 437d b63c d207 ba3d 0027 0fba
00000320: 5299 823b 0f83 2cbd fdf6 d63d 27c5 e2bd
00000330: 94cf 873d 3e54 babd 5132 c53d 5c04 eebc
00000340: 2d25 f0bd 1f91 473d 224e bebd 6425 ffbd
00000350: 406a 7cbd 7e95 b5ba 2698 983d 3275 a5bc
00000360: bdb6 ddbd 0ceb 633c bc6f b73d 3c38 bc3d
00000370: 6cc7 eabd 9fb4 c1bd 04f3 5e3d bd10 99bd
00000380: 41d6 d4bd 1507 c3bc 041f 57bb 2f92 e23d
00000390: 2b14 f03b 0279 6c3d 8c09 0abd 0489 ea3d
000003a0: 3ea1 ed3d 8c28 0e3d 14a4 cabd 7dc7 f83b
000003b0: 4cf3 263d ae54 e03d f5ae 7bbd 340d b93d
000003c0: fcdd 07bd a8bc 1d3d 01eb f1bd 8806 e2bd
000003d0: 24ea 2cbd 70bc 59bc 6f00 f83d cd57 ca3d
000003e0: dc1c 95bd 0ab2 3b3d b001 de3d d8db 933c
000003f0: 4575 543d 5279 343d 811d 49bd d01a 60bd

conv1.nn.2.bias f4 [64]
-0.03164651 0.2740997 -0.09545397 0.10951484 0.103536926 -0.053364877 0.09864776 -0.020207705
0.00563406 -0.007215099 0.037399646 0.07961238 0.04537442 0.02193167 0.12325683 0.014385548
0.08271646 0.04198298 0.023586446 0.0009420365 -0.12426525 -0.0049318257 -0.11641169 0.13586387
-0.050630372 -0.13592057 0.07840656 0.059166178 -0.079602465 -0.039766252 -0.104496285 0.054398224
-0.22745211 0.06977115 0.0636483 -0.06442205 -0.09353513 -0.08504966 0.082885444 0.10359409
-0.0916719 0.04029383 -0.020122923 -0.011825984 -0.035577923 -0.0175621 -0.10027151 0.08841529
0.08895899 -0.040493146 0.06770957 0.02973713 -0.11579113 0.010264933 -0.12044985 -0.020569982
-0.15637463 0.12313809 -0.084940106 -0.15872929 -0.0018049749 -0.041761022 -0.020762173 -0.111542724
00000000: c59f 01bd cc56 8c3e 5f7d c3bd 5149 e03d
00000010: 2b0b d43d 2195 5abd d607 ca3d a18a a5bc
00000020: ec9d b83b a36c ecbb 5f30 193d d10b a33d
00000030: 87da 393d 0caa b33c 146e fc3d 5db1 6b3c
00000040: 3f67 a93d 58f6 2b3d 5d38 c13c 00f3 763a
00000050: c87e febd 279b a1bb 4169 eebd e61f 0b3e
00000060: cb61 4fbd c32e 0bbe 9e93 a03d 3c58 723d
00000070: 9e06 a3bd f0e1 22bd 2602 d6bd acd0 5e3d
00000080: 35e9 68be 2de4 8e3d 0a5a 823d b5ef 83bd
00000090: 598f bfbd 842e aebd d8bf a93d 2329 d43d
000000a0: 7abe bbbd 250b 253d d4d8 a4bc c6c1 41bc
000000b0: 28ba 11bd 65de 8fbc 265b cdbd 1313 b53d
000000c0: 2230 b63d 24dc 25bd 51ab 8a3d 489b f33c
000000d0: e623 edbd 402e 283c 69ae f6bd 6182 a8bc
000000e0: ac20 20be d32f fc3d 14f5 adbd ee89 22be
000000f0: e894 ecba 9b0d 2bbd 6f15 aabc 8370 e4bd

conv1.lin.weight f4 [64, 7]
-0.23930843 0.31355852 0.19143724 0.044988338 0.34436426 -0.31385958 0.33622578 -0.30299935
-0.2779158 -0.11531684 0.012503662 -0.22180974 0.3325551 0.051737964 -0.36467215 0.19634743
-0.02513896 -0.01818944 0.07375244 0.32560518 0.1313307 0.10364041 -0.07285341 0.19270587
-0.13533035 -0.32195222 -0.19155967 -0.2767777 0.2804799 0.23352498 0.28399405 -0.27156672
0.29925513 0.14354129 -0.41681057 0.06348888 0.07843645 -0.089976415 -0.100226454 -0.28058332
-0.23443691 -0.022650631 -0.19429229 0.25449178 -0.27970782 0.16179615 0.11282727 -0.044588283
0.30271077 -0.11257731 -0.233453 -0.31033304 0.061781287 0.13449237 -0.27020887 0.21710677
0.71357304 0.4791885 0.5908384 0.20022607 -0.14237933 0.021411657 -0.2875033 0.2152534
0.009886965 -0.24438146 -0.3085672 -0.08496831 -0.10257753 -0.17442766 0.42101008 0.44905064
0.40666977 -0.02304597 0.37372282 -0.223603 -0.020563016 -0.15150826 -0.33122075 -0.09421447
-0.29336005 0.10040172 0.025181387 -0.16403176 -0.0017245502 -0.31704608 0.110663794 -0.41635093
0.24225132 -0.4285802 -0.06969489 0.29692382 0.13642538 0.13721225 0.2883254 -0.09458515
-0.011551051 0.013587306 0.10488857 0.026344711 0.11082505 0.22295715 -0.16686364 -0.18662512
-0.015169614 -0.3526451 0.012093798 0.09419667 0.24957885 -0.0017505717 -0.08043103 0.2901068
-0.07962056 0.476663 0.20237479 -0.31130946 -0.3187455 -0.16815558 -0.00594358 0.10968114
0.100005396 -0.38665965 -0.009986252 -0.20667066 0.21838401 -0.018686542 -0.09384154 -0.077063166
-0.20560701 0.15055296 0.06745471 -0.2331274 -0.040283706 -0.3233006 0.00081552943 0.14872505
0.22021355 -0.140166 -0.22177324 0.3364938 -0.24592863 0.14010684 -0.11779453 -0.14335816
-0.2674105 -0.24374332 0.13282034 -0.100231424 -0.5695324 0.31393903 -0.27133542 0.11011958
0.32484698 -0.16883682 0.32188043 -0.043045085 -0.0009408326 0.28742808 0.35929433 -0.13869669
-0.34053063 0.67107975 0.3009298 -0.04026806 0.24062994 0.14813279 -0.42440003 -0.17234981
0.05250258 0.18576124 -0.1183082 0.044281464 0.05729374 0.1920129 0.13565286 0.2938083
0.10900004 0.12734343 0.060632575 0.09963265 0.062311362 0.4004695 0.07440485 -0.19936717
0.07686419 -0.13641235 -0.22728251 0.20610934 0.20933834 0.2299264 -0.13807793 0.13103782
-0.16939875 -0.33933133 0.072608545 0.1445739 -0.014087821 -0.112536326 -0.357143 -0.31981993
-0.037641194 -0.16685735 -0.11832837 -0.35700732 -0.1329376 -0.33769184 0.18359053 -0.36999273
-0.008824065 0.066914536 0.2071594 -0.36083153 0.19178325 0.2106445 0.23394945 -0.3282388
0.09047654 0.17832935 -0.021307802 0.093941785 0.22104642 0.022151718 0.06462453 -0.1303422
-0.032203685 -0.25073823 -0.39736181 0.30845967 0.02158328 0.15121202 -0.06086177 -0.27768666
-0.2331842 0.35968047 0.08902775 0.3360212 -0.17391066 -0.051975224 -0.27681488 -0.07626994
0.15455535 -0.30682844 0.026458794 0.32554755 -0.21263795 -0.58521014 0.20265563 0.08390832
-0.06491802 -0.3630519 -0.03592389 0.2663579 0.08823426 0.13993615 0.3499076 -0.29242158
00000000: 450d 75be be8a a03e 2008 443e b145 383d
00000010: 8350 b03e 34b2 a0be c925 ac3e bb22 9bbe
00000020: fb4a 8ebe 3c2b ecbd 29dc 4c3c 1822 63be
00000030: a944 aa3e 30eb 533d 4fb6 babe 4d0f 493e
00000040: 38f0 cdbc 0502 95bc 850b 973d b9b5 a63e
00000050: 8e7b 063e 6c41 d43d 2b34 95bd b054 453e
00000060: 0a94 0abe ecd6 a4be 3828 44be cfb5 8dbe
00000070: 109b 8f3e 2c21 6f3e ab67 913e cb0a 8bbe
00000080: f837 993e 7dfc 123e 3268 d5be 7506 823d
00000090: 4aa3 a03d 8e45 b8bd 8743 cdbd 9ea8 8fbe
000000a0: 3b10 70be d18d b9bc 8ff4 46be bf4c 823e
000000b0: dd35 8fbe e4ad 253e fc11 e73d 34a2 36bd
000000c0: e8fc 9a3e ef8e e6bd 4e0e 6fbe f9e3 9ebe
000000d0: 600e 7d3d 5eb8 093e d158 8abe 3d51 5e3e
000000e0: b9ac 363f 3258 f53e 2f41 173f 1008 4d3e
000000f0: e3cb 11be 8067 af3c a233 93be 636b 5c3e
00000100: f0fc 213c 223f 7abe 85fc 9dbe de03 aebd
00000110: 2b14 d2bd 2a9d 32be a28e d73e f7e9 e53e
00000120: 0537 d03e e7ca bcbc 9958 bf3e 2ff8 64be
00000130: c573 a8bc fb24 1bbe c495 a9be 84f3 c0bd
00000140: 4a33 96be 6b9f cd3d 3249 ce3c f1f7 27be
00000150: 4d0a e2ba dd53 a2be b3a3 e23d f32b d5be
00000160: bb10 783e dd6e dbbe 32bc 8ebd 6606 983e
00000170: 18b3 0b3e 5e81 0c3e 639f 933e dcb5 c1bd
00000180: 9f40 3dbc 4b9d 5e3c d2cf d63d ddd0 d73c
00000190: 3ef8 e23d e14e 643e 4dde 2abe a81a 3fbe
000001a0: f989 78bc e68d b4be 1125 463c 2fea c03d
000001b0: 9991 7f3e 7073 e5ba 06b9 a4bd e188 943e
000001c0: 1b10 a3bd 2c0d f43e 563b 4f3e f463 9fbe
000001d0: 9c32 a3be fa30 2cbe 5dc2 c2bb 81a0 e03d
000001e0: a1cf cc3d 41f8 c5be 609d 23bc 79a1 53be
000001f0: 0fa0 5f3e 8514 99bc fe2f c0bd 4bd3 9dbd
00000200: a58a 52be 8e2a 1a3e b225 8a3d f3b8 6ebe
00000210: 8700 25bd a887 a5be 41c9 553a 614b 183e
00000220: a97f 613e ad87 0fbe 8618 63be ea48 ac3e
00000230: b7d4 7bbe 2b78 0f3e 423e f1bd 7bcc 12be
00000240: 07ea 88be d997 79be 0e02 083e 2246 cdbd
00000250: e0cc 11bf 9ebc a03e 7aec 8abe 6086 e13d
00000260: 5852 a63e 8fe3 2cbe 83cd a43e 0b50 30bd
00000270: 35a2 76ba c629 933e 6df5 b73e 8106 0ebe
00000280: 085a aebe e2cb 2b3f 7913 9a3e 1ff0 24bd
00000290: b267 763e 1fb0 173e f64a d9be 787c 30be
000002a0: f20c 573d 3238 3e3e 924b f2bd 7b60 353d
000002b0: d7ac 6a3d 089f 443e 95e8 0a3e 0b6e 963e
000002c0: 6a3b df3d 5166 023e dd59 783d 340c cc3d
000002d0: 333a 7f3d 570a cd3e 9261 983d e826 4cbe
000002e0: f96a 9d3d aeaf 0bbe bfbc 68be 540e 533e
000002f0: ca5c 563e d471 6b3e 4d64 0dbe c72e 063e
00000300: de76 2dbe d6bc adbe cab3 943d 2e0b 143e
00000310: 9bd0 66bc 7279 e6bd 73db b6be 70bf a3be
00000320: a72d 1abd a7dc 2abe 2556 f2bd aac9 b6be
00000330: cb20 08be f2e5 acbe 28ff 3b3e b06f bdbe
00000340: d092 10bc 7d0a 893d 9821 543e e9be b8be
00000350: d462 443e 31b3 573e 7290 6f3e ea0e a8be
00000360: c44b b93d f89b 363e b38d aebc 8d64 c03d
00000370: fe59 623e 8577 b53c de59 843d 6d78 05be
00000380: 03e8 03bd c360 80be 0273 cbbe 6dee 9d3e
00000390: 6bcf b03c 53d7 1a3e 314a 79bd f22c 8ebe
000003a0: d7c7 6ebe 0a28 b83e 2e54 b63d f90a ac3e
000003b0: a315 32be f9e3 54bd aeba 8dbe 6a33 9cbd
000003c0: c243 1e3e 9e18 9dbe 1dc0 d83c 2bae a63e
000003d0: c3bd 59be 55d0 15bf f584 4f3e 20d8 ab3d
000003e0: bdf3 84bd f0e1 b9be ee24 13bd 1060 883e
000003f0: 2ab4 b43d 6c4b 0f3e 1727 b33e 48b8 95be

conv1.lin.bias f4 [64]
-0.16676594 0.32839254 -0.20781559 0.346418 -0.0642911 0.26328102 0.08422887 0.19396017
0.21811953 0.08315959 0.028758872 0.3500791 0.13191354 0.24090894 0.012706039 -0.04855319
0.30084786 0.0794183 0.1559717 -0.2186106 -0.24123271 0.2100585 -0.28856257 0.46046904
0.25531444 0.018248035 -0.0449523 0.1647724 0.3002594 0.25517732 0.2568042 -0.23162198
-0.1139288 0.28516456 -0.36380038 0.27928194 -0.17007184 0.2085164 -0.21417448 -0.14336099
0.29643244 -0.18621399 -0.16258408 0.30474082 0.20071167 -0.24467765 0.020313246 -0.3190739
-0.31780317 -0.36224967 -0.15268143 -0.3179624 0.20898302 0.04294096 -0.13865171 -0.31288537
-0.24196447 0.29113284 0.042138714 -0.20921347 0.4118048 -0.010366317 0.04961696 0.07164891
00000000: b1c4 2abe 1123 a83e 9ccd 54be b35d b13e
00000010: 0dab 83bd c5cc 863e 3080 ac3d 7f9d 463e
00000020: ba5a 5f3e 934f aa3d ba97 eb3c 913d b33e
00000030: 5814 073e d5b0 763e fd2c 503c b6df 46bd
00000040: bb08 9a3e 10a6 a23d 0cb7 1f3e 75db 5fbe
00000050: b505 77be 9319 573e 79be 93be 99c2 eb3e
00000060: 93b8 823e e77c 953c e71f 38bd 19ba 283e
00000070: 9abb 993e 9aa6 823e d77b 833e 502e 6dbe
00000080: 8153 e9bd 1701 923e 0b44 babe 0bfe 8e3e
00000090: 5027 2ebe 5385 553e 8e50 5bbe 39cd 12be
000000a0: fec5 973e e1ae 3ebe 717c 26be fd06 9c3e
000000b0: 5c87 4d3e c78c 7abe f767 a63c a75d a3be
000000c0: 19b7 a2be ca78 b9be 8558 1cbe f8cb a2be
000000d0: a5ff 553e dce2 2f3d b7fa 0dbe 8332 a0be
000000e0: 89c5 77be 5d0f 953e a599 2c3d 0e3c 56be
000000f0: 14d8 d23e 7cd7 29bc 273b 4b3d aabc 923d

conv2.nn.0.weight f4 [64, 64]
-0.07422629 0.08576273 -0.08105729 -0.0013666876 -0.03605954 -0.16540556 0.03289753 -0.14653374
-0.12826408 -0.1389147 0.11195397 -0.010819896 0.070915245 -0.09684395 -0.046950355 0.083772905
-0.09863842 -0.026597086 -0.092677295 0.004366905 0.019773664 -0.041290767 -0.13719967 -0.07113741
0.034140583 0.08019342 -0.011555827 -0.049993537 -0.07965236 0.0046236 -0.22177587 -0.16358787
-0.08412656 0.050372858 0.094418585 0.066255145 -0.10406862 0.027669786 -0.09184153 -0.0041815354
0.038606346 0.06658679 0.081312396 0.04329732 -0.21068712 -0.19544561 0.13372065 -0.064854756
0.2018698 -0.08336039 0.12820041 0.043997608 0.051916134 0.13826944 0.007054838 0.10647368
0.257825 -0.11324198 0.02672227 -0.027548304 0.0997842 0.031357262 -0.06952269 0.013753329
0.060933985 -0.0012519745 -0.08747333 0.084140904 0.031750374 -0.15904127 -0.02241308 0.1025261
0.03377059 -0.07279422 -0.0015708146 -0.030029071 0.24617992 -0.088790104 0.27013692 0.051189046
0.08922683 0.19939907 0.05583006 -0.21615721 -0.032937378 -0.07619828 -0.07673177 -0.00025059585
0.0024483385 -0.057722334 -0.22011079 0.045468654 -0.1349177 0.075127915 -0.04606854 0.045547232
-0.05463352 -0.077406324 0.079498716 -0.092819735 0.005559426 0.0808782 0.05536451 0.011677105
0.033559397 0.022882184 -0.09036308 -0.020511279 -0.05948241 0.02300175 -0.051480763 0.11445582
0.44069046 0.050276097 -0.06735784 -0.02893651 0.055650696 -0.08154017 -0.09690508 -0.019578053
-0.036884822 0.078274 0.11094919 -0.14062761 -0.1256632 0.06136702 -0.08138075 -0.018551307
0.0035510322 0.038921535 -0.018782925 -0.1761643 -0.11091427 -0.0007577758 -0.14850543 -0.17340107
0.0077393334 -0.039874215 0.0061613806 -0.054210726 -0.06332267 -0.052154433 -0.062033266 0.02109004
0.056972988 -0.09754809 -0.05035665 -0.01356352 -0.070424825 0.046170138 -0.17847645 0.029074471
-0.12094527 0.039262593 -0.016313985 -0.07420983 -0.023528837 -0.0596162 0.026553338 -0.041912474
0.014207724 -0.0013813807 -0.06311746 -0.06597378 -0.0121766925 -0.08273768 -0.131677 0.055454742
0.022596579 0.014701214 -0.038247667 -0.04541788 -0.1467543 0.014969865 -0.07188698 0.03634284
0.048470266 -0.09998032 -0.0677174 -0.014088083 0.0037264198 -0.19038148 -0.11656288 -0.15239587
-0.050178416 -0.13753381 0.09742853 0.018735997 -0.080451146 -0.08626672 -0.07170038 -0.051839683
-0.17387155 0.07385884 0.02983081 -0.10034306 0.02712087 -0.089792304 -0.12711528 -0.10561829
-0.11211074 -0.10668045 -0.10355601 -0.07923684 0.01033675 -0.052952126 0.025882976 -0.062408496
-0.099463224 -0.20656842 0.008434705 -0.05410441 -0.051257145 -0.08439475 -0.013671438 0.03559449
-0.109525 0.021905812 0.022997914 0.116613455 -0.12050836 -0.13050489 -0.1643981 -0.09981038
-0.11001402 -0.05621258 -0.03083576 -0.031398874 0.08447806 0.042682275 -0.048341766 0.038716167
0.05946924 -0.06743441 0.013426974 -0.018027015 0.0023373396 -0.12478655 -0.008590441 0.07533582
-0.39777705 -0.12171991 0.059311137 0.012811619 -0.01589105 -0.08758048 -0.5646978 0.01679946
-0.098736495 0.0398847 0.03497223 -0.09018067 -0.08786586 0.02578327 0.08978973 -0.028729066
00000000: f403 98bd 5fa4 af3d 5d01 a6bd 6d22 b3ba
00000010: 2bb3 13bd 1360 29be 8fbf 063d f10c 16be
00000020: a957 03be a83f 0ebe 1f48 e53d ef45 31bc
00000030: 033c 913d 1f56 c6bd 044f 40bd 2191 ab3d
00000040: f102 cabd 22e2 d9bc 98cd bdbd 4118 8f3b
00000050: 61fc a13c 8220 29bd 127e 0cbe 7eb0 91bd
00000060: ffd6 0b3d 733c a43d a754 3dbc 06c6 4cbd
00000070: c720 a3bd 9181 973b 3719 63be 9483 27be
00000080: 8c4a acbd c553 4e3d 885e c13d c7b0 873d
00000090: ee21 d5bd bfab e23c 6917 bcbd 4305 89bb
000000a0: b021 1e3d a85e 883d 1d87 a63d 8858 313d
000000b0: 5dbe 57be e522 48be 11ee 083e 92d2 84bd
000000c0: f5b6 4e3e dab8 aabd f846 033e d636 343d
000000d0: 03a6 543d 8196 0d3e 452c e73b df0e da3d
000000e0: a301 843e 69eb e7bd a9e8 da3c fbac e1bc
000000f0: a95b cc3d 7970 003d e961 8ebd a555 613c
00000100: ea95 793d 4b19 a4ba 3825 b3bd 1152 ac3d
00000110: ae0c 023d b7db 22be a39b b7bc 34f9 d13d
00000120: 0853 0a3d 2315 95bd cbe3 cdba 87ff f5bc
00000130: 9716 7c3e 96d7 b5bd 634f 8a3e 9bab 513d
00000140: 8ebc b63d 452f 4c3e 10ae 643d 5158 5dbe
00000150: 58e9 06bd d80d 9cbd 8c25 9dbd 6862 83b9
00000160: 4e74 203b 416e 6cbd b964 61be 573d 3a3d
00000170: de27 0abe aadc 993d 5eb2 3cbd bc8f 3a3d
00000180: 66c7 5fbd 3587 9ebd 39d0 a23d 4618 bebd
00000190: d82b b63b 78a3 a53d e5c5 623d 5451 3f3c
000001a0: 9475 093d 6b73 bb3c 4710 b9bd 4507 a8bc
000001b0: d4a3 73bd 2b6e bc3c 7edd 52bd d067 ea3d
000001c0: 2ea2 e13e 4fee 4d3d e8f2 89bd 430c edbc
000001d0: fcf1 633d 88fe a6bd 2c76 c6bd 2762 a0bc
000001e0: 8a14 17bd 1e4e a03d 5439 e33d af00 10be
000001f0: dbad 00be fc5b 7b3d f3aa a6bd e9f8 97bc
00000200: 6fb8 683b 306c 1f3d a6de 99bc 6a64 34be
00000210: 0527 e3bd 79a5 46ba cf11 18be 0d90 31be
00000220: 3c9a fd3b 2553 23bd 68e5 c93b 110c 5ebd
00000230: 51af 81bd e39f 55bd 9816 7ebd 05c5 ac3c
00000240: 825c 693d 4bc7 c7bd c642 4ebd 8739 5ebc
00000250: e43a 90bd e61c 3d3d 88c2 36be 962d ee3c
00000260: 27b2 f7bd d0d1 203d e8a4 85bc 53fb 97bd
00000270: 8cbf c0bc 1e30 74bd 6386 d93c 6aac 2bbd
00000280: 83c7 683c 720f b5ba ba43 81bd 431d 87bd
00000290: c080 47bc 5f72 a9bd 56d6 06be 8324 633d
000002a0: 761c b93c 5cdd 703c 96a9 1cbd 1908 3abd
000002b0: c246 16be 2a44 753c 7b39 93bd 3bdc 143d
000002c0: c288 463d 7bc2 ccbd 6caf 8abd b4d1 66bc
000002d0: f336 743b 5df3 42be 85b8 eebd aa0d 1cbe
000002e0: e287 4dbd aad5 0cbe 9c88 c73d 3c7c 993c
000002f0: 92c3 a4bd 9bac b0bd a6d7 92bd d955 54bd
00000300: 620b 32be 4e43 973d be5f f43c aa80 cdbd
00000310: 962c de3c 07e5 b7bd 822a 02be 674e d8bd
00000320: 519a e5bd 487b dabd 2c15 d4bd ed46 a2bd
00000330: 795b 293c 54e4 58bd 8908 d43c 0da0 7fbd
00000340: 60b3 cbbd ac86 53be b831 0a3c 969c 5dbd
00000350: 03f3 51bd 28d7 acbd 2bfe 5fbc 87cb 113d
00000360: a54e e0bd d173 b33c 1f66 bc3c 09d3 ee3d
00000370: 16cd f6bd 13a3 05be fa57 28be 6269 ccbd
00000380: 084f e1bd 2a3f 66bd 479b fcbc 1b9c 00bd
00000390: d502 ad3d 9cd3 2e3d 0402 46bd d894 1e3d
000003a0: 0596 733d 0d1b 8abd d0fc 5b3c 64ad 93bc
000003b0: 0d2e 193b 1790 ffbd ecbe 0cbc ab49 9a3d
000003c0: 6fa9 cbbe 4a48 f9bd 3cf0 723d d3e7 513c
000003d0: f32d 82bc 655d b3bd 0990 10bf 059f 893c
000003e0: 5c36 cabd 245e 233d 0b3f 0f3d a5b0 b8bd
000003f0: 04f3 b3bd 7037 d33c aee3 b73d 3859 ebbc

conv2.nn.0.bias f4 [64]
0.17116915 0.14843811 -0.1237946 -0.08080301 -0.12402678 0.05661167 0.43873543 -0.0707824
-0.24060616 -0.004529215 -0.14329387 -0.01581609 -0.023187082 -0.32250252 -0.09991175 -0.09367142
-0.17748016 0.056713864 -0.21357729 0.028201723 -0.07006334 -0.10493581 0.48812118 -0.092926726
-0.07583144 0.08909702 -0.1115656 -0.100197524 0.15737836 0.19016983 0.3361687 -0.087357014
0.04563493 0.011018301 -0.17547661 0.13045466 0.36458322 -0.045162056 -0.052303 0.417925
0.22433037 0.3671985 -0.1995605 -0.053464532 0.31849128 -0.04852892 -0.08325084 0.04865171
0.36474782 0.017216718 -0.11175579 -0.08731361 -0.06122555 -0.10345826 -0.10583111 0.0013232752
0.019806238 0.117184475 -0.0528271 0.49090874 -0.20081684 0.09910239 -0.0044019874 0.16914843
00000000: f746 2f3e 2900 183e 0688 fdbd 0c7c a5bd
00000010: c101 febd a3e1 673d eea1 e03e 5df6 90bd
00000020: 7661 76be cf69 94bb a1bb 12be bf90 81bc
00000030: d6f2 bdbc 0d1f a5be 889e ccbd cdd6 bfbd
00000040: 5cbd 35be cc4c 683d 01b4 5abe 4d07 e73c
00000050: 5e7d 8fbd 96e8 d6bd 05eb f93e 5e50 bebd
00000060: 844d 9bbd 8078 b63d 817c e4bd 5c34 cdbd
00000070: cb27 213e e1bb 423e 4e1e ac3e 3ce8 b2bd
00000080: b1eb 3a3d 1b86 343c 24b0 33be e895 053e
00000090: a7aa ba3e d9fb 38bd ac3b 56bd 44fa d53e
000000a0: dcb6 653e 7101 bc3e 9659 4cbe a0fd 5abd
000000b0: 4a11 a33e 43c6 46bd 6b7f aabd 0447 473d
000000c0: 3ac0 ba3e 130a 8d3c 38e0 e4bd 7ad1 b2bd
000000d0: a4c7 7abd ede1 d3bd fbbd d8bd bf71 ad3a
000000e0: b140 a23c 6afe ef3d 3b61 58bd 6458 fb3e
000000f0: eea2 4dbe 32f6 ca3d 8c3e 90bb 3f35 2d3e

conv2.nn.2.weight f4 [64, 64]
0.10094796 -0.12550321 -0.07661825 0.03885772 0.04815197 -0.29558843 0.36219224 0.10699144
-0.117056586 -0.091547795 0.10049407 -0.13272542 -0.106256396 0.08609952 -0.020148817 0.028438088
0.037704263 0.025110109 -0.13799372 0.08946505 0.0070434706 -0.037093848 -0.017562438 -0.00035581185
0.076008186 -0.12026172 0.012258705 -0.0051816883 -0.10590577 -0.03557781 -0.119423695 0.058983047
0.017597327 0.0028813859 0.033891287 -0.08334856 -0.058745887 0.023044962 -0.08821419 -0.002290446
-0.03060973 0.11366217 0.07859714 -0.106484964 0.12365514 -0.07393463 -0.016340999 -0.3069101
-0.09135618 -0.13426168 -0.11858964 0.029796308 0.019220008 0.02957475 -0.028728873 0.025051428
0.0643175 -0.092595704 0.11718173 0.17196989 -0.016159212 0.041293096 0.031314965 0.076055564
-0.11701012 -0.058409765 -0.02347757 -0.06514323 0.026586823 -0.23540667 0.3182324 -0.07837675
0.018466279 0.02701274 0.09946236 -0.0820545 -0.10488631 0.07430156 -0.0015128175 0.005759908
-0.050170276 0.16104221 0.0075180195 0.02715465 -0.08782567 -0.043506525 -0.007869258 -0.06915038
0.03463455 0.09030128 0.032662503 0.064877465 0.090291694 -0.018064044 -0.094736755 0.008474192
-0.06914284 0.06835059 -0.148493 -0.07204222 0.09725157 0.08861007 -0.07102047 0.06930057
0.029460525 0.08232195 0.11138481 -0.056576736 0.022153523 0.04104886 0.06357646 -0.73471576
0.11115811 0.094172604 0.076344825 0.04883524 0.041044436 0.09400915 -0.044683244 0.008926433
-0.013882181 -0.12617439 -0.04439087 0.14909999 -0.07415759 -0.07149858 0.022352139 -0.09577321
-0.025496822 -0.04031737 0.1726391 0.045686312 0.014543788 -0.16965145 -0.10948984 0.01743445
-0.14316498 0.015722513 0.012625593 0.050994232 -0.06522974 0.11888077 0.037674196 0.08355964
0.00452698 -0.07976667 -0.093554 0.086943015 0.043724462 0.025799409 0.04280422 0.0009072821
-0.04252375 -0.08896565 0.067123786 -0.0353033 -0.10876516 -0.1422505 0.04759492 -0.042488057
-0.0059762457 -0.034190964 0.011108969 -0.0013797445 0.09205067 -0.073949456 -0.005713212 -0.07973385
0.11621384 -0.06281891 0.07808578 0.038656794 -0.122775525 -0.10327376 -0.07671113 0.59483963
0.104771405 -0.12356753 0.038027532 0.054696944 -0.00239109 0.07876409 -0.083559744 -0.08568078
-0.035779744 0.0060927244 0.11581955 0.0886306 -0.058216408 0.04285717 -0.066373095 0.04607942
-0.11835275 0.1108025 0.06472658 -0.13038383 -0.0030821534 -0.19125469 0.18876968 0.025046641
0.106988266 -0.026707193 -0.115119584 -0.17139314 -0.06946351 0.03275723 0.03607582 -0.11061593
0.041679814 0.15970041 -0.092598185 -0.05488873 -0.023951791 -0.13947292 0.0494913 0.035447426
-0.08546743 0.07023181 0.05090971 0.10573643 -0.10047992 0.034460668 0.08766221 0.073744215
0.048840147 0.023833925 0.08599805 0.0039675534 -0.016339514 0.12378604 0.023244958 -0.084615104
0.0698647 0.11383379 0.10167378 -0.12102507 0.010997903 0.062314622 0.025653685 0.39018762
-0.003367205 -0.01823353 0.105454646 -0.00587393 -0.014455738 0.04804058 -0.09709694 0.019711817
0.081433795 0.073885776 -0.12735197 0.0018876286 -0.010550945 -0.12034689 0.05962707 0.05088749
00000000: cebd ce3d ea83 00be 07ea 9cbd 4629 1f3d
00000010: 003b 453d 5e57 97be 4371 b93e 541e db3d
00000020: 5dbb efbd 697d bbbd d6cf cd3d 2ce9 07be
00000030: f49c d9bd f254 b03d 220f a5bc fef6 e83c
00000040: c96f 1a3d b7b3 cd3c 3a4e 0dbe 7439 b73d
00000050: eacc e63b b8ef 17bd 1adf 8fbc 428c bab9
00000060: 2eaa 9b3d c74b f6bd bcd8 483c 27cb a9bb
00000070: 20e5 d8bd 0aba 11bd 6994 f4bd 3598 713d
00000080: 4528 903c a2d5 3c3b 97d1 0a3d a6b2 aabd
00000090: 879f 70bd cac8 bc3c a4a9 b4bd 4f1b 16bb
000000a0: 42c1 fabc b6c7 e83d 8af7 a03d ca14 dabd
000000b0: e83e fd3d 0a6b 97bd 8fdd 85bc 5223 9dbe
000000c0: f318 bbbd e57b 09be 20df f2bd 6317 f43c
000000d0: 4773 9d3c bf46 f23c d058 ebbc a738 cd3c
000000e0: e5b8 833d d1a2 bdbd fafc ef3d e018 303e
000000f0: 5360 84bc f322 293d 1f44 003d 05c3 9b3d
00000100: 00a3 efbd 143f 6fbd 0854 c0bc d069 85bd
00000110: 9ccc d93c 720e 71be 5bef a23e fd83 a0bd
00000120: 9846 973c d249 dd3c ecb2 cb3d 310c a8bd
00000130: a2ce d6bd 6b2b 983d bb49 c6ba 9cbd bc3b
00000140: 597f 4dbd 40e8 243e b859 f63b 6e73 de3c
00000150: f2dd b3bd e633 32bd 0fee 00bc b79e 8dbd
00000160: f5dc 0d3d e1ef b83d 1ec9 053d 7ade 843d
00000170: daea b83d 0cfb 93bc 5805 c2bd 56d7 0a3c
00000180: c39a 8dbd 65fb 8b3d 8d0e 18be df8a 93bd
00000190: d52b c73d 3279 b53d 2e73 91bd 75ed 8d3d
000001a0: 3357 f13c 6998 a83d b81d e43d 02bd 67bd
000001b0: 4e7b b53c d922 283d 6034 823d 5516 3cbf
000001c0: dda6 e33d 91dd c03d ad5a 9c3d 7607 483d
000001d0: 361e 283d df87 c03d c705 37bd 2c40 123c
000001e0: 1672 63bc dc33 01be 33d3 35bd abad 183e
000001f0: efdf 97bd d96d 92bd d51b b73c bf24 c4bd
00000200: b6de d0bc d423 25bd 4ec8 303e 9221 3b3d
00000210: 1149 6e3c 1cb9 2dbe 363c e0bd b1d2 8e3c
00000220: d799 12be 80cc 803c 93db 4e3c 54df 503d
00000230: 2c97 85bd c377 f33d 4250 1a3d 5121 ab3d
00000240: 1057 943b b55c a3bd 3d99 bfbd 2e0f b23d
00000250: 6c18 333d 4859 d33c 7a53 2f3d acd6 6d3a
00000260: 622d 2ebd 9f33 b6bd 3278 893d 319a 10bd
00000270: 45c0 debd 1daa 11be e4f2 423d f507 2ebd
00000280: 62d4 c3bb d30b 0cbd 6502 363c 8bd8 b4ba
00000290: 1085 bc3d d072 97bd e535 bbbb 804b a3bd
000002a0: 8601 ee3d 33a7 80bd 70eb 9f3d 9656 1e3d
000002b0: bc71 fbbd 3181 d3bd ba1a 9dbd 6947 183f
000002c0: 6492 d63d f910 fdbd c2c2 1b3d e709 603d
000002d0: d5b3 1cbb 114f a13d 5f21 abbd 6879 afbd
000002e0: c88d 12bd 7aa5 c73b cd32 ed3d f683 b53d
000002f0: 5474 6ebd 008b 2f3d 9eee 87bd c6bd 3c3d
00000300: ed62 f2bd 6cec e23d 5f8f 843d 5783 05be
00000310: f4fd 49bb 45d8 43be d74c 413e 9d2e cd3c
00000320: aa1c db3d 0bc9 dabc d1c3 ebbd af81 2fbe
00000330: e242 8ebd 722c 063d 3dc4 133d 9b8a e2bd
00000340: 74b8 2a3d 8188 233e 1ea4 bdbd 01d3 60bd
00000350: 8c36 c4bc fdd1 0ebe 64b7 4a3d 5231 113d
00000360: 8c09 afbd b2d5 8f3d b386 503d 578c d83d
00000370: 6bc8 cdbd a126 0d3d 3f88 b33d 3507 973d
00000380: 9b0c 483d 5d3f c33c bf1f b03d 4002 823b
00000390: 72da 85bc 8983 fd3d 366c be3c af4a adbd
000003a0: 3915 8f3d b121 e93d 583a d03d fedb f7bd
000003b0: 8c30 343c 9e3d 7f3d ad27 d23c acc6 c73e
000003c0: 53ac 5cbb 7c5e 95bc 9bf8 d73d 197a c0bb
000003d0: c2d7 6cbc 33c6 443d c3da c6bd ad7a a13c
000003e0: c3c6 a63d 6d51 973d 8e68 02be 4e6a f73a
000003f0: dfdd 2cbc 6e78 f6bd 843b 743d 676f 503d

conv2.nn.2.bias f4 [64]
-0.10050853 0.0969088 0.026661383 -0.15900812 0.04179782 -0.45024076 -0.20271821 -0.34131166
0.09710348 0.13530964 0.019104386 0.27981338 -0.1971569 -0.1386085 -0.06344156 -0.32044587
-0.018836899 -0.33335313 -0.35899353 0.10796452 0.15085226 -0.06596476 0.13892053 0.2401737
-0.18791293 -0.21926245 0.0060279784 -0.15411897 0.26266727 -0.1332518 -0.37968096 0.032743856
0.0324616 0.010351842 -0.17954834 -0.42368424 -0.09894283 -0.23620471 -0.084751286 0.199364
-0.10486711 0.2078564 0.04820772 -0.18950416 0.17937978 -0.23804955 -0.025178947 -0.17568633
-0.2654228 -0.004969717 -0.017797317 -0.22134995 -0.14493716 0.2832775 0.50301456 -0.19909908
0.09900635 -0.19285882 -0.42171186 -0.34184232 -0.18024543 0.034384474 -0.031455778 -0.18892565
00000000: 6bd7 cdbd 1f78 c63d f968 da3c 06d3 22be
00000010: 3134 2b3d f585 e6be 5d95 4fbe 67c0 aebe
00000020: 30de c63d 9c8e 0a3e cd80 9c3c b343 8f3e
00000030: 80e3 49be 63ef 0dbe a6ed 81bd 7b11 a4be
00000040: d74f 9abc 43ad aabe 00ce b7be 811c dd3d
00000050: 0479 1a3e 8818 87bd 2f41 0e3e 18f0 753e
00000060: 3f6c 40be 5686 60be 5986 c53b 5dd1 1dbe
00000070: 537c 863e 2973 08be 8b65 c2be 6c1e 063d
00000080: 74f6 043d c69a 293c 85db 37be 24ed d8be
00000090: 8aa2 cabd a6df 71be 1592 adbd 1426 4c3e
000000a0: 91c4 d6bd 4fd8 543e 7575 453d 610d 42be
000000b0: 55af 373e 43c3 73be 1444 cebc 1ee7 33be
000000c0: 7fe5 87be 02d9 a2bb aecb 91bc 90a9 62be
000000d0: 686a 14be c009 913e 90c5 003f a1e0 4bbe
000000e0: d7c3 ca3d c87c 45be 9eea d7be f505 afbe
000000f0: 4292 38be bcd6 0c3d c6d7 00bd ba75 41be

conv2.lin.weight f4 [64, 7]
0.02997137 1.0494734 -0.2271955 -0.29896596 0.7535274 0.24117213 -0.18923996 0.017760424
0.59376514 -0.24446231 -0.21875086 -0.34317204 -0.13972144 0.20418124 0.02904783 0.3376834
-0.5322655 -0.13121466 0.42190325 0.14299358 -0.11161082 -0.22077638 -0.40977427 -0.25225732
0.0017181799 -0.062755905 0.00032724199 0.37619498 -0.36557758 -0.43585104 0.18723223 0.2834785
0.15949704 0.3745611 0.18592122 0.30626342 0.014537656 0.3966129 0.3630353 -0.17757802
-0.15194754 0.1412551 0.13471304 -0.38657126 0.22796403 0.22216016 0.16712326 -0.047714096
0.08759011 0.38912714 0.38280663 -0.030953508 0.22785233 -0.6044701 0.097903445 0.03120117
-0.11125566 0.20366487 0.11590756 0.22741966 -0.2905424 0.010597795 0.087083355 -0.704429
0.67013216 -0.23942739 0.30559847 0.44221327 0.05033269 -0.5570651 0.20112413 -0.15463491
-0.18938601 0.24659635 -0.20195614 0.23822966 -0.16571015 -0.2330345 -0.084812015 0.0032270672
-0.31971437 0.1722572 0.16588353 0.053228483 0.66152215 0.14575674 -0.24393295 0.061947156
-0.59639406 0.36927617 -0.21530089 -0.42009008 0.68919104 0.21850131 0.5888185 0.10617221
0.17471139 -0.041065495 -0.11183118 0.83148676 -0.6341997 0.36554083 0.031869583 -0.8973925
0.31873122 -0.8274245 0.9469017 -0.38239688 0.1192994 -0.6720127 0.25386894 -0.6534432
-0.22769295 -0.28016394 -0.37581012 -0.13503906 -0.048149094 0.09288899 -0.25129166 0.53210026
0.15642856 -0.64057773 0.2467854 -0.0030988792 -0.0028611445 0.5060464 0.28656515 -0.374682
0.13750292 -0.21392049 0.13876861 -0.0060364176 0.36672235 -0.8521684 0.81573796 0.3440317
-0.20508604 0.25587475 -0.056565307 0.052299153 0.003659215 0.015159856 0.0068807155 0.0018113907
-0.0012588027 -0.0052187606 0.7402695 -0.3112147 -0.16750209 0.6536247 -0.013935575 -0.03485054
-0.02253602 -0.22760122 0.0067850747 -0.04407141 -0.12287551 -0.119919375 -0.06616628 0.121666215
0.08497125 0.055158302 0.7345683 -0.11446996 0.28447315 -0.36994305 -0.18440802 0.24781772
-0.35849607 -0.51844925 -0.31956434 -0.33201557 -0.38121316 -0.33988333 0.23703723 -0.4552152
0.8300023 -0.1293436 -0.052752007 0.22711994 -0.14068046 0.114406765 0.21121432 -0.0959216
0.58931875 0.29271045 -0.15672956 -0.19465572 -0.40239352 -0.3696803 0.15440308 -0.21483956
0.034133647 -0.44841853 0.34456977 -0.029352302 0.05364865 -0.0770094 -0.30674967 -0.30587527
-0.09450505 -0.4417935 0.14556694 0.08556613 0.673778 -0.051887143 -0.117768146 -0.5500777
0.12352819 0.41881302 -0.47959846 0.2551543 0.2793285 0.06686109 0.06139672 -0.5895158
0.25836176 -0.111029506 0.009529404 0.44598457 0.03674261 0.53617036 0.21160004 -0.061940804
-0.2147809 -0.17074692 0.12917526 0.25290188 0.2061799 0.119324535 -0.19877437 0.5617648
-0.41634777 0.3703014 -0.18179962 0.04102915 -0.5971818 -0.106966436 -0.53529215 0.4889985
-0.14970812 -0.053767987 -0.8655762 0.378063 0.10289324 -0.17601655 -0.6889732 0.05248735
-0.098913886 -0.11110147 0.315194 -0.16651566 -0.016938752 0.25770432 -0.06925533 0.10789986
00000000: 8586 f53c 2555 863f f0a5 68be 1112 99be
00000010: 2ce7 403f d4f5 763e 1fc8 41be 4f7e 913c
00000020: fe00 183f 5454 7abe 3a00 60be 3fb4 afbe
00000030: 2313 0fbe e314 513e b7f5 ed3c d7e4 ac3e
00000040: 8d42 08bf 235d 06be b403 d83e e96c 123e
00000050: 3794 e4bd 3413 62be efcd d1be df27 81be
00000060: 8d34 e13a 2b86 80bd ad91 ab39 a19c c03e
00000070: fc2c bbbe de27 dfbe ceb9 3f3e 1824 913e
00000080: 3153 233e 79c6 bf3e 2262 3e3e 8fce 9c3e
00000090: 592f 6e3c d910 cb3e c3df b93e 03d7 35be
000000a0: 2398 1bbe 2da5 103e 37f2 093e abec c5be
000000b0: 676f 693e f47d 633e 5c22 2b3e db6f 43bd
000000c0: 7262 b33d ac3b c73e 3bff c33e 3692 fdbc
000000d0: 1f52 693e 8dbe 1abf 9a81 c83d 9999 ff3c
000000e0: 02da e3bd 868d 503e f160 ed3d b3e0 683e
000000f0: f9c1 94be 60a2 2d3c c258 b23d 7555 34bf
00000100: c88d 2b3f 742c 75be 6777 9c3e c769 e23e
00000110: a729 4e3d d29b 0ebf 7cf3 4d3e 9d58 1ebe
00000120: 68ee 41be c183 7c3e 97cd 4ebe 7af2 733e
00000130: ecaf 29be 99a0 6ebe ecb1 adbd 347d 533b
00000140: 9ab1 a3be 3164 303e 5fdd 293e 1c06 5a3d
00000150: 8459 293f 4141 153e 8fc9 79be 4dbc 7d3d
00000160: 48ad 18bf c411 bd3e d677 5cbe 0c16 d7be
00000170: d36e 303f cfbe 5f3e cfbc 163f d170 d93d
00000180: 8be7 323e 4b34 28bd bf07 e5bd 51dc 543f
00000190: e95a 22bf 2b28 bb3e ae89 023d 84bb 65bf
000001a0: bd30 a33e 18d2 53bf 2668 723f 86c9 c3be
000001b0: 3e53 f43d 0609 2cbf 1cfb 813e 0e48 27bf
000001c0: 5728 69be a671 8fbe 2f6a c0be ae47 0abe
000001d0: fc37 45bd 953c be3d 4da9 80be b937 083f
000001e0: cf2e 203e e7fc 23bf 50b5 7c3e 9116 4bbb
000001f0: 0a82 3bbb 428c 013f abb8 923e 52d6 bfbe
00000200: 91cd 0c3e f90d 5bbe 5c19 0e3e 24cd c5bb
00000210: 08c3 bb3e b527 5abf 34d4 503f ec24 b03e
00000220: 1302 52be 0402 833e 06b1 67bd a337 563d
00000230: 71cf 6f3b 0b61 783c a077 e13b 306c ed3a
00000240: 69fe a4ba 2302 abbb 4d82 3d3f 8857 9fbe
00000250: ab85 2bbe f353 273f 0a52 64bc 71bf 0ebd
00000260: 769d b8bc 4b10 69be 5555 de3b 3984 34bd
00000270: 28a6 fbbd 4a98 f5bd 3082 87bd 232c f93d
00000280: 6805 ae3d aced 613d ab0c 3c3f 3a6f eabd
00000290: 77a6 913e 2d69 bdbe 75d5 3cbe eec3 7d3e
000002a0: cc8c b7be 17b9 04bf f09d a3be f2fd a9be
000002b0: 5f2e c3be 3005 aebe e3b9 723e f711 e9be
000002c0: 087b 543f a672 04be 7d12 58bd 2192 683e
000002d0: 8a0e 10be 184e ea3d 9148 583e 8b72 c4bd
000002e0: 98dd 163f 25de 953e b77d 20be d453 47be
000002f0: 8606 cebe bc46 bdbe d71b 1e3e e7fe 5bbe
00000300: b9cf 0b3d 1d97 e5be 736b b03e 3d74 f0bc
00000310: b0be 5b3d 1bb7 9dbd 4b0e 9dbe af9b 9cbe
00000320: dd8b c1bd c232 e2be 800f 153e 4c3d af3d
00000330: b77c 2c3f 9d87 54bd 6d30 f1bd e4d1 0cbf
00000340: 59fc fc3d a96e d63e ee8d f5be 96a3 823e
00000350: 2504 8f3e 78ee 883d 217b 7b3d 82ea 16bf
00000360: fe47 843e 7063 e3bd 3821 1c3c 1758 e43e
00000370: 6b7f 163d 7642 093f aead 583e a4b5 7dbd
00000380: 86ef 5bbe 48d8 2ebe 8546 043e 5b7c 813e
00000390: d320 533e 6c60 f43d 828b 4bbe d1cf 0f3f
000003a0: 892b d5be 2598 bd3e ae29 3abe 2f0e 283d
000003b0: e8e0 18bf 3811 dbbd e808 09bf 035e fa3e
000003c0: 164d 19be d23b 5cbd 6796 5dbf 7991 c13e
000003d0: b1b9 d23d af3d 34be 8c60 30bf fafc 563d
000003e0: 5d93 cabd 2b89 e3bd 1c61 a13e 1583 2abe
000003f0: 23c3 8abc d2f1 833e bdd5 8dbd 9afa dc3d

conv2.lin.bias f4 [64]
-0.114326365 0.24485749 0.071158424 -0.022471137 0.02364993 -0.21277891 0.021309119 -0.054145735
0.008906473 0.019374343 0.12199015 0.16439292 -0.09813637 -0.38828224 -0.20140748 -0.009793642
-0.25804037 -0.011038176 -0.30118537 -0.2890385 -0.42211044 0.07557582 0.2155966 -0.04181479
0.08918242 -0.18095799 -0.016795902 0.04423898 -0.08252354 -0.028834281 0.14347857 -0.054404344
-0.31368893 -0.060500696 0.013934819 0.2081803 0.2510379 0.011101653 0.17939952 -0.04034589
0.29731002 0.28042606 0.20870665 -0.20110133 -0.31796652 0.1583132 0.020470591 -0.13348764
-0.3319287 0.2693966 -0.20385458 -0.13215438 0.14413324 0.13979135 -0.19676927 0.0030687083
0.29755366 -0.04955555 -0.4166171 -0.045880992 -0.269121 -0.06678398 -0.16620335 -0.05135571
00000000: f123 eabd ecbb 7a3e 82bb 913d 6415 b8bc
00000010: 7fbd c13c b7e2 59be 7690 ae3c ebc7 5dbd
00000020: 75ec 113c f1b6 9e3c f9d5 f93d 9e56 283e
00000030: b9fb c8bd eecc c6be c33d 4ebe 8375 20bc
00000040: de1d 84be 77d9 34bc f834 9abe dbfc 93be
00000050: dc1e d8be 7fc7 9a3d 5bc5 5c3e fc45 2bbd
00000060: 46a5 b63d 0d4d 39be 8f97 89bc ef33 353d
00000070: 1a02 a9bd df35 ecbc 0cec 123e 17d7 5ebd
00000080: d69b a0be 94cf 77bd de4e 643c 372d 553e
00000090: 0a88 803e b5e3 353c 82b4 373e bb41 25bd
000000a0: 0539 983e 0194 8f3e 32b7 553e 82ed 4dbe
000000b0: 82cc a2be db1c 223e f1b1 a73c fcb0 08be
000000c0: 8ff2 a9be 5aee 893e 41bf 50be 7a53 07be
000000d0: aa97 133e 7725 0f3e e27d 49be 621c 493b
000000e0: f458 983e c3fa 4abd d64e d5be b5ed 3bbd
000000f0: 3aca 89be 0ac6 88bd 3631 2abe 5d5a 52bd
