checkpoints/A/model_A_epoch_156.pth (torch, 78709 bytes, 15 tensors)

node_embedding.weight f4 [1, 64]
0	0x3dab916b	0.08377346
1	0xbde5e5e6	-0.1122549
2	0xbeb66a5e	-0.35628027
3	0xbf8146a4	-1.0099683
4	0x3fb8401e	1.4394567
5	0xbfc1d69c	-1.5143619
6	0xbe0fe8a9	-0.14053597
7	0x3f7e6945	0.9937938
8	0xbe67c082	-0.2263203
9	0x3f7d74ec	0.99006534
10	0x3f585207	0.84500164
11	0xbf468581	-0.7754746
12	0x3f901f63	1.1259578
13	0xbfd3b22c	-1.6538749
14	0xbfe9873a	-1.8244393
15	0x3c88f7e5	0.016719768
16	0x3ff75626	1.9323165
17	0x3f28b1a3	0.6589605
18	0x3f96bb41	1.1775895
19	0xc0050a2e	-2.0787463
20	0x3f8e748a	1.1129315
21	0xbeb83d67	-0.35984346
22	0xbf76b980	-0.963768
23	0xbedc9937	-0.43085644
24	0xbf6393e5	-0.88897544
25	0xbef643b6	-0.48098534
26	0xbfb6a4b3	-1.4269012
27	0x3f3bd696	0.7337431
28	0x3fc80679	1.5626975
29	0x3ef29a54	0.47383368
30	0x3f080dae	0.53145874
31	0xbf0c270d	-0.54747087
32	0x3f7ae767	0.9800934
33	0xc02f9f59	-2.7441008
34	0xbe8a295a	-0.26984674
35	0x3ff46874	1.9094377
36	0x3fe0e380	1.7569427
37	0x3f9ea9a5	1.2395521
38	0xbfac1f8d	-1.3447129
39	0x3dca3a43	0.09874394
40	0x3ecf1f48	0.40453553
41	0x3ff5a0e5	1.9189726
42	0xbf91125e	-1.133373
43	0xbfba5f17	-1.4560269
44	0x3de1518b	0.11001881
45	0x3ea53a63	0.32271108
46	0x3e75f7ab	0.24020259
47	0x3f4aaa2c	0.7916591
48	0x3f4d24b2	0.8013412
49	0xbf469c72	-0.77582467
50	0x40590a60	3.3912582
51	0xbf32e173	-0.6987526
52	0xbe2e56c5	-0.17025287
53	0x3fc6cdc9	1.5531551
54	0xbf636b21	-0.8883534
55	0x3f30d5f2	0.69076455
56	0x3e950b7b	0.2911032
57	0xbf8b000a	-1.0859387
58	0xbc10fa2f	-0.008848711
59	0xbeacc914	-0.3374716
60	0xbf62e234	-0.8862641
61	0x3f8a86be	1.082237
62	0x3fbbda5a	1.4676011
63	0x3fc1e34c	1.514749

conv1.nn.0.weight f4 [64, 64]
0	0x3dd080f5	0.101808466
1	0xbd0de3c6	-0.03464105
2	0x3ce5b14f	0.028038649
3	0x3e073196	0.1320251
4	0xbdf678c1	-0.12034751
5	0x3dfad143	0.12246945
6	0xbdffb164	-0.124850065
7	0xbd076032	-0.033050723
8	0xbe17b3cf	-0.14814685
9	0xbe02b1fe	-0.12763211
10	0x3c2d06ef	0.010560735
11	0x3d9bdbb2	0.07610263
12	0x3d66d976	0.05635973
13	0x3d198e39	0.03748915
14	0xbd2770e3	-0.04087914
15	0x3d107eb7	0.035277095
16	0xbde0acc7	-0.10970455
17	0xbd8ff7a9	-0.07029659
18	0x3da8013f	0.08203363
19	0x3d49e8dc	0.049294338
20	0xbd21dccb	-0.039517205
21	0x3a8d4897	0.001077908
22	0xbb32f78b	-0.0027308192
23	0xbdd5e78e	-0.10444556
24	0x3d62b77e	0.055350773
25	0xbd4d8377	-0.050174203
26	0xbdc1f22a	-0.09470017
27	0xbb747c57	-0.0037305558
28	0x3b88b7da	0.0041723074
29	0x3c9767f5	0.018482188
30	0xbd0ce1ee	-0.03439515
31	0x3d9fb699	0.077984996
32	0xbd7daf42	-0.061934717
33	0xbd240927	-0.04004779
34	0x3cec6457	0.02885644
35	0x3cd97b95	0.026548186
36	0x3d81f13d	0.06344841
37	0x3c011298	0.007877968
38	0xbda865aa	-0.08222516
39	0xbdf730b1	-0.12069834
40	0x3c3fe9b3	0.011713433
41	0xbde714fe	-0.11283301
42	0xbd91f7eb	-0.07127365
43	0x3da41720	0.08012223
44	0xbc4f0c82	-0.012637259
45	0xbd9aaba4	-0.07552269
46	0xbde1e84e	-0.11030637
47	0x3dad42f9	0.0846004
48	0x3cb2578f	0.021770267
49	0x3d89259f	0.06696629
50	0x3d77cee4	0.06050004
51	0x3d4c7d6a	0.04992429
52	0x3d630924	0.05542864
53	0xbbbc8e33	-0.005754256
54	0xbdc0d3eb	-0.0941542
55	0xbc9eea19	-0.019398736
56	0x3dab9f86	0.08380036
57	0x3d275762	0.04085482
58	0xbdf89752	-0.12138237
59	0xbce94603	-0.028475767
60	0xbb7f7d34	-0.003898454
61	0xbd5cfa6b	-0.053949755
62	0x3d758cc2	0.05994869
63	0xbd903737	-0.070417814
64	0x3d573a3c	0.05254577
65	0xbdeedf10	-0.116636395
66	0xbd289fe0	-0.041168094
67	0xbbce5380	-0.006296575
68	0x3db9db8a	0.09075077
69	0xbc2e96a0	-0.010656029
70	0x3d525c88	0.051357776
71	0x3d0f09c8	0.034921438
72	0xbdcccdf8	-0.10000223
73	0xbb482d00	-0.00305444
74	0xbc542c30	-0.012949988
75	0x3b93c140	0.004509121
76	0xbdf7da2c	-0.1210216
77	0xbdfcb50e	-0.12339221
78	0xbd1b7c24	-0.037960187
79	0x3cc8f188	0.024529234
80	0xbd80a5e2	-0.0628164
81	0x3d321c1c	0.04348384
82	0xbde7a428	-0.11310607
83	0xbd3621c4	-0.044465795
84	0xbdf76c94	-0.120812565
85	0x3dce9046	0.10086112
86	0xbdb6590e	-0.089037046
87	0xbdc16e14	-0.09444824
88	0x3d6f4ef4	0.058424905
89	0xbd732d8c	-0.05936961
90	0x3cd18098	0.025574014
91	0xbd2ea5c0	-0.04263854
92	0xbd45acb4	-0.048260406
93	0xbd296838	-0.041359156
94	0x3df5f5a6	0.12009744
95	0xbced79a0	-0.02898866
96	0x3cb9b580	0.022669554
97	0xbdac55ae	-0.084147796
98	0xbd8ca862	-0.06868054
99	0xbd4b123c	-0.049577937
100	0xbdf2c9da	-0.118549064
101	0xbdf89518	-0.121378124
102	0xbdfd3616	-0.12363832
103	0x3d002e6c	0.03129427
104	0xbdb6096c	-0.08888516
105	0xbb1cc800	-0.002392292
106	0x3c93bdd8	0.01803486
107	0xbd35f6d0	-0.044424832
108	0x3deb25d6	0.11481826
109	0x3d8b72d2	0.068090096
110	0x3dbad790	0.091231465
111	0xbdfd83cc	-0.12378654
112	0xbb2bd8c0	-0.0026221722
113	0x3deb1900	0.11479378
114	0xbd5f2588	-0.054479152
115	0x3d1e5e44	0.038664117
116	0xbdd0b0fa	-0.101900056
117	0xbc2a0380	-0.010376811
118	0xbc019190	-0.00790824
119	0xbbb572a0	-0.005537346
120	0xbdfaeb1e	-0.12251876
121	0xbc9b7160	-0.01897496
122	0x3da30d68	0.079615414
123	0x3d301d7c	0.04299687
124	0x3dc4b992	0.09605707
125	0xbd1800ec	-0.037110254
126	0x3a9a7200	0.0011783242
127	0x3da128a8	0.07869083
128	0xbc14aace	-0.009073926
129	0xbc3addda	-0.011405433
130	0xbdf2602a	-0.11834748
131	0xbd1fc137	-0.039002623
132	0x3dbca7f3	0.09211721
133	0x3ddb56a6	0.10709886
134	0x3c5866b0	0.013208076
135	0xbda8890c	-0.082292646
136	0x3dc45aaa	0.09587605
137	0x3d024de5	0.031812567
138	0xbde01706	-0.10941891
139	0xbc80585c	-0.015667133
140	0xbda4db18	-0.08049601
141	0xbccc6f15	-0.024955312
142	0xbd8a869a	-0.067639545
143	0x3db99761	0.09062076
144	0xbcccee8a	-0.025016088
145	0x3c8a4efd	0.016883368
146	0xbde7e1d4	-0.1132237
147	0xbd668acc	-0.05628471
148	0xbd899161	-0.06717182
149	0x3d0e3b39	0.034724448
150	0xbde51090	-0.111848
151	0xbd81c7cf	-0.063369386
152	0xbe06d080	-0.13165474
153	0x3a7e5acc	0.0009702861
154	0x3cecc03c	0.028900258
155	0xbde6881a	-0.11256428
156	0xbd1296e1	-0.03578842
157	0xbdf5a2a3	-0.11993911
158	0xbe02b19b	-0.12763064
159	0xbd04453c	-0.03229259
160	0xbd8ee2f6	-0.06976883
161	0xbd0f09fc	-0.03492163
162	0x3d44a1e3	0.04800595
163	0x3d96e0cc	0.07367095
164	0x3cd176f1	0.025569411
165	0xbd9e6865	-0.077347554
166	0x3c7ca225	0.015419518
167	0x3ce03e71	0.027373524
168	0x3dedc8fb	0.116105996
169	0x3cb5e531	0.022204014
170	0xbcd1a188	-0.02558972
171	0xbd9f2c7e	-0.07772158
172	0xbce37282	-0.027764563
173	0xbc987291	-0.018609317
174	0xbdf18011	-0.11792005
175	0xbd68b39a	-0.056811906
176	0x3d336fcd	0.043807793
177	0x3c013841	0.007886947
178	0x3c741a31	0.014898823
179	0x3d142405	0.036167163
180	0x3d4b7f7b	0.04968212
181	0xbd034fa9	-0.03205839
182	0x3d89dac0	0.067311764
183	0x3a8c1446	0.0010687194
184	0xbd5c5556	-0.05379232
185	0x3d4aaad6	0.049479328
186	0x3df8ee9a	0.12154885
187	0x3cf6cf28	0.030128077
188	0x3d98b1eb	0.0745581
189	0x3c242e7a	0.0100208465
190	0xbd79fa4c	-0.061029717
191	0x3c8a4e61	0.016883077
192	0xbd1725f8	-0.036901444
193	0xbd06b898	-0.032890886
194	0xbda1b27c	-0.07895371
195	0x3dcece1a	0.100979045
196	0xbdb7ec28	-0.0898059
197	0x3ddcb040	0.107758045
198	0xbd0bdf70	-0.034148633
199	0x3decb69a	0.11558266
200	0xbc97c708	-0.018527523
201	0x3dfd2606	0.12360768
202	0xbdff7e76	-0.124752924
203	0xb8295000	-4.0367246e-05
204	0xbdf360a2	-0.118836656
205	0xbd79199c	-0.06081544
206	0xbb860300	-0.004089713
207	0x3db3abf0	0.08773029
208	0xbd508600	-0.050909042
209	0x3ddc5f72	0.10760392
210	0x3cc60338	0.024171457
211	0xbb10df80	-0.0022105873
212	0x3dfef882	0.12449743
213	0xbd98bb82	-0.07457639
214	0xbcc85c58	-0.024458095
215	0x3d9f8740	0.07789469
216	0xbdb76894	-0.089554936
217	0xbdf46d4c	-0.11934909
218	0x3dc4c5ca	0.09608038
219	0xbdcdeafa	-0.10054584
220	0x3c0754e0	0.008259982
221	0x3de5d058	0.11221379
222	0x3d959ef8	0.073057115
223	0x3d2a30d8	0.041550487
224	0x3cbaa310	0.022782832
225	0xbd3aac84	-0.04557468
226	0xbc969b98	-0.01838474
227	0xbdec0d88	-0.115260184
228	0x3bdac4e0	0.0066763014
229	0x3d8a86f4	0.067640215
230	0x3db3955e	0.08768724
231	0xbd9d53ee	-0.07682024
232	0xbd5809a0	-0.052743554
233	0xbcac7ba0	-0.021055043
234	0x3c92eca0	0.017935097
235	0x3d4922b0	0.049105346
236	0xbbcadc00	-0.006190777
237	0xbcd466b0	-0.025927871
238	0xbdf741a2	-0.12073065
239	0xbde038bc	-0.10948321
240	0xbd371dc0	-0.044706106
241	0xbd2538d0	-0.040337384
242	0xbd08aa80	-0.033365726
243	0x3d293bbc	0.041316733
244	0xbdeca228	-0.11554366
245	0x3d995138	0.07486194
246	0xbd7bb65c	-0.06145321
247	0xbd7df938	-0.06200525
248	0x3d954cf8	0.07290071
249	0x3d216fec	0.039413378
250	0xbd7638d8	-0.060112804
251	0xbb7d9140	-0.0038691312
252	0xbc70d8e0	-0.0147001445
253	0xbbf227c0	-0.0073899925
254	0xbd4fad88	-0.0507026
255	0x3bc4aa20	0.006001726

conv1.nn.0.bias f4 [64]
0	0xbd66ea34	-0.056375697
1	0x3dd92904	0.10603526
2	0x3d3b3dd4	0.04571326
3	0x3d779b2c	0.060450718
4	0x3e9c50a3	0.3053027
5	0xbe0fd4db	-0.14046042
6	0x3d8fb3c3	0.07016709
7	0x3d7dc984	0.06195976
8	0xbd6f07ba	-0.058356978
9	0xbe8110eb	-0.2520822
10	0x3d758b82	0.0599475
11	0xbd892738	-0.066969335
12	0xbcc258b8	-0.023723945
13	0x3e31dbef	0.17369054
14	0xbe2d5414	-0.16926605
15	0x3db79a0b	0.08964928
16	0x3d5a07bb	0.05323003
17	0xbd277b01	-0.04088879
18	0xbd2ad682	-0.041708477
19	0x3ea35487	0.31900427
20	0x3c1bab70	0.009501323
21	0x3e7422fc	0.2384147
22	0x3d81c91b	0.06337186
23	0xbcc85b45	-0.024457583
24	0xbe018247	-0.12647353
25	0x3cef071f	0.0291782
26	0x3d751d50	0.059842408
27	0xbdc13568	-0.094340146
28	0x3df72fb4	0.120696455
29	0xbcc0dda0	-0.023543179
30	0xbe178330	-0.14796138
31	0x3d3bba24	0.045831814
32	0x3e39496e	0.18094417
33	0x3c4785b9	0.012177878
34	0xbde44036	-0.1114506
35	0xbe19eec4	-0.15032488
36	0xbcb49a1c	-0.022046141
37	0x3dd440dd	0.10363934
38	0x3c9f8be0	0.019475877
39	0xbb8cb478	-0.0042939745
40	0x3dd7a1f9	0.10528941
41	0x3dc72e81	0.09725667
42	0x3c82e4a0	0.015978158
43	0xbe0a0ccd	-0.13481446
44	0xbde17484	-0.11008552
45	0xbd8fd3fd	-0.070228554
46	0x3d864687	0.06556421
47	0x3d22292f	0.039590057
48	0xbd22aad8	-0.03971371
49	0x3d6369d5	0.05552085
50	0xbe4f7457	-0.20259224
51	0xbda96712	-0.08271612
52	0xb7eb0000	-2.8014183e-05
53	0xbcaf38a8	-0.02138932
54	0x3d9a9638	0.07548183
55	0x3c3bfe05	0.011474137
56	0xbdfe8849	-0.12428338
57	0xbde6edc9	-0.11275823
58	0x3db99f71	0.09063614
59	0x3d3cbd47	0.046078946
60	0xbd0f7f08	-0.035033256
61	0x3d469653	0.048483204
62	0xbd39ed30	-0.045392215
63	0xbc347dbf	-0.011016308

conv1.nn.2.weight f4 [64, 64]
0	0x3d6d362c	0.05791299
1	0x3c227820	0.009916335
2	0x3c89c608	0.016818061
3	0xbddc0c88	-0.10744578
4	0xbda2683b	-0.07930037
5	0xbd784382	-0.060611255
6	0x3cbec047	0.023285044
7	0xbd4e4a04	-0.050363556
8	0xbc17af0a	-0.009258041
9	0x3b988615	0.0046546557
10	0x3d2573a0	0.04039347
11	0x3d37f378	0.044909924
12	0x3d81cb08	0.06337553
13	0xbe16a8e1	-0.1471286
14	0xbcbd96eb	-0.023143252
15	0x3d8c64e2	0.06855179
16	0x3d844a6b	0.064595066
17	0xbd5080ee	-0.050904207
18	0xbd282b15	-0.04105671
19	0x3ab08f05	0.0013470358
20	0xbdfa07ba	-0.12208505
21	0xbd8958f4	-0.067064196
22	0xbcf9485a	-0.030430008
23	0xbdae279e	-0.0850365
24	0x3c55f487	0.013058788
25	0x3e038fd1	0.1284783
26	0x3dcc9bd4	0.09990659
27	0xbdfb061b	-0.12257024
28	0xbd2e88fc	-0.042611107
29	0x3d0efda5	0.034909863
30	0x3d5c6e1e	0.053815953
31	0xbd9fb32e	-0.07797848
32	0xbdd45364	-0.10367468
33	0xbd272179	-0.040803406
34	0xbe081ec8	-0.13292992
35	0x3d3bea94	0.045878008
36	0xbdd0c036	-0.10192911
37	0x3dfa7573	0.12229433
38	0x3dd1cef8	0.10244554
39	0xbde1992a	-0.11015542
40	0x3df5bea6	0.11999254
41	0x3d966734	0.07343903
42	0x3d56a5d8	0.052404255
43	0xbd924508	-0.07142073
44	0x3cd5b278	0.026086077
45	0x3d364767	0.04450169
46	0x3d26770c	0.040640876
47	0x3c855d98	0.01627998
48	0x3cf3f558	0.029780075
49	0xbcb02c26	-0.021505427
50	0xbdbd04b0	-0.0922941
51	0xbdc28b40	-0.09499216
52	0x3db64f48	0.089018404
53	0xbaeb4f00	-0.0017952621
54	0x3bcb14c9	0.006197546
55	0xbd88cbc3	-0.066794895
56	0x3d05fcac	0.03271167
57	0xbd9e16a2	-0.077191606
58	0x3d9769b6	0.0739321
59	0xbda5067a	-0.08057876
60	0xbdb70c9d	-0.08937953
61	0x3df60da6	0.12014322
62	0x3d14573c	0.036216006
63	0xbd811852	-0.06303467
64	0xbdc078f2	-0.093980685
65	0x3dbe11d8	0.09280747
66	0xbd87880f	-0.06617748
67	0xbda5bd0e	-0.080927
68	0xbd76c819	-0.06024942
69	0x3d072f54	0.03300412
70	0x3df6c892	0.120499745
71	0xbda092bc	-0.07840487
72	0xbca9b22f	-0.020714847
73	0xbe00f497	-0.12593304
74	0xbd55ca34	-0.05219479
75	0x3de670bc	0.11251971
76	0x3debf5e8	0.11521512
77	0xbb8dcc21	-0.0043273126
78	0xbd2df7a6	-0.042472504
79	0x3d94004c	0.07226619
80	0x3df8cb33	0.12148132
81	0x3d4569ea	0.04819671
82	0x3ca61050	0.02027145
83	0x3e0e8739	0.13918771
84	0x3c382610	0.011239544
85	0x3c82806d	0.015930379
86	0x3b0eeca7	0.0021808536
87	0xbd4fb164	-0.050706282
88	0x3d65f9d1	0.056146447
89	0x3dd1f4ee	0.10251795
90	0xbdf5b208	-0.119968474
91	0x3db797d6	0.08964507
92	0xbd3ad9c8	-0.04561785
93	0x3d0a42c2	0.03375507
94	0xbdbd34a6	-0.092385575
95	0x3cb70ca6	0.022344898
96	0x3d91ecb7	0.07125228
97	0x3d49ebad	0.049297024
98	0x3b7edba1	0.0038888233
99	0xbe0bdc4c	-0.13658255
100	0xbd372850	-0.04471618
101	0x3d4264ad	0.047459293
102	0x3df0e540	0.11762476
103	0x3c1daf12	0.00962426
104	0xbc9bdf45	-0.019027362
105	0x3cacef28	0.021110132
106	0xbd5d6ecc	-0.054060742
107	0x3c38c506	0.011277443
108	0x3d0557e5	0.032554526
109	0xbda19c81	-0.07891179
110	0xbd239941	-0.039941076
111	0xbc8eaf18	-0.017417476
112	0xbbf2baa0	-0.0074075013
113	0xbc7402df	-0.014893263
114	0xbe94df49	-0.29076603
115	0xbdbd2ef4	-0.09237471
116	0xbbc531c0	-0.0060178936
117	0xbcd7d218	-0.026345298
118	0xbd874a74	-0.06605998
119	0x3d43bd5f	0.04778802
120	0xbd7363bc	-0.059421286
121	0x3d9e6fb4	0.077361494
122	0x3dd1c30c	0.1024228
123	0x3d837dfb	0.06420513
124	0x3da96172	0.08270539
125	0x3d985b29	0.074392624
126	0xbd81b033	-0.063324355
127	0x3d05965c	0.032614097
128	0xbcf6b5e8	-0.030116037
129	0x3cd116e8	0.025523618
130	0xbce0dda0	-0.027449429
131	0x3c62aa00	0.0138344765
132	0x3cb01d61	0.021498384
133	0x3d9fdf30	0.078062415
134	0xbc56237a	-0.013069982
135	0xbd08d560	-0.033406615
136	0xbd5cfbf5	-0.053951222
137	0xbcf428ea	-0.029804666
138	0xbd423650	-0.047415078
139	0x3dd264b2	0.10273112
140	0xbd859dd2	-0.065242425
141	0x3d7bb154	0.06144841
142	0xbe0b2184	-0.13587004
143	0x3bed9460	0.0072503537
144	0xbd805b46	-0.06267409
145	0xbdf936a9	-0.12168629
146	0x3d1e4cd8	0.038647503
147	0xbdad08b6	-0.08448927
148	0xbcacbf90	-0.021087438
149	0xbda52a55	-0.08064715
150	0x3d8d8526	0.06910162
151	0xbd38c9c4	-0.045114294
152	0xbdb21b1a	-0.086965755
153	0xbdbd6f22	-0.092497125
154	0xbdc620a4	-0.096741945
155	0x3bf63a60	0.007514283
156	0x3c5b5100	0.013386011
157	0xbdadb858	-0.084824264
158	0xbd51aec8	-0.051192075
159	0x3d4a5568	0.049397856
160	0x3d019730	0.031638324
161	0xbd9249d6	-0.07142989
162	0xbd769cf8	-0.06020829
163	0xbab3ffb3	-0.001373282
164	0x3dffd73e	0.12492226
165	0x3da2700c	0.079315275
166	0xbcfd6a28	-0.030934408
167	0x3dcd5430	0.10025823
168	0xbdf970ac	-0.121796936
169	0x3dd0c53c	0.101938695
170	0x3cc845f0	0.024447411
171	0xbccd482d	-0.02505883
172	0xbd44acf0	-0.04801649
173	0xbd8a724a	-0.0676008
174	0x3df3b04c	0.1189886
175	0x3d41da04	0.047327057
176	0xbc5d14a0	-0.013493687
177	0x3d8bb4a2	0.06821562
178	0xbde282fc	-0.110601395
179	0x3dfd42b6	0.1236624
180	0x3d41c49c	0.047306642
181	0x3df2e9d6	0.11861007
182	0xbd7e9a90	-0.06215912
183	0xbcfb4098	-0.03067045
184	0x3d16d4fc	0.03682421
185	0x3cbb12b8	0.022836074
186	0xbdde1592	-0.10843958
187	0x3db36fea	0.0876158
188	0x3d06df00	0.032927513
189	0x3b952520	0.004551545
190	0x3c9b6dc8	0.018973246
191	0x3d6bb5bc	0.057546362
192	0x3d4cd4fc	0.050007805
193	0x3da83bf6	0.08214562
194	0x3cd3a668	0.025836185
195	0xbdd7f66e	-0.105450496
196	0x3e001364	0.12507397
197	0x3cb67d43	0.022276526
198	0x3dba07d2	0.09083523
199	0xba0f2700	-0.00054608285
200	0x3b863c0c	0.0040965136
201	0xbda8ef28	-0.082487404
202	0x3dd6f6fd	0.10496328
203	0xbde2c527	-0.1107276
204	0x3d87cf94	0.06631389
205	0xbdba6a04	-0.09102252
206	0x3dc53251	0.09628738
207	0xbcee045c	-0.029054813
208	0xbdf0252d	-0.11725841
209	0x3c819af8	0.015820965
210	0xbdbe4e22	-0.092922464
211	0xbdff24ec	-0.12458214
212	0xbd7c6a40	-0.061624765
213	0xbd0ac7c4	-0.033881918
214	0x3d989826	0.07450895
215	0xbca57532	-0.020197485
216	0xbdddb6bd	-0.1082587
217	0x3c63eb0c	0.01391102
218	0x3db76fbc	0.089568585
219	0x3dbc383c	0.09190413
220	0xbdeac76c	-0.11463818
221	0xbdc1d2f4	-0.09464064
222	0x3d5ef304	0.054430977
223	0xbd9910bd	-0.07473896
224	0xbe014611	-0.12624384
225	0xbcc30715	-0.023807088
226	0xbd4354a5	-0.047688145
227	0x3da76a18	0.08174533
228	0x3bf0142b	0.007326623
229	0x3d6c7902	0.05773259
230	0xbd0a098c	-0.03370051
231	0x3dea8904	0.11451915
232	0x3deda13e	0.1160302
233	0x3d0e288c	0.034706637
234	0xbdcaa414	-0.09894577
235	0x3bf8c77d	0.00759214
236	0x3d26f34c	0.04075937
237	0x3de054ae	0.10953651
238	0xbd7baef5	-0.06144615
239	0x3db90d34	0.090357214
240	0xbd07ddfc	-0.033170685
241	0x3d1dbca8	0.038509995
242	0xbdf13986	-0.1177855
243	0xbde20688	-0.11036402
244	0xbd2cea24	-0.04221548
245	0xbc59bc70	-0.013289556
246	0x3df8006f	0.12109458
247	0x3dca57cd	0.09880028
248	0xbd951cdc	-0.07280895
249	0x3d3bb20a	0.04582409
250	0x3dde01b0	0.108401656
251	0x3c93dbd8	0.018049166
252	0x3d547545	0.05186965
253	0x3d347952	0.044061013
254	0xbd491d81	-0.049100403
255	0xbd601ad0	-0.05471307

conv1.nn.2.bias f4 [64]
0	0xbda2184d	-0.07914791
1	0x3eebcfc5	0.46056953
2	0xbdc37d5f	-0.09545397
3	0x3d80a87a	0.06282134
4	0x3d76daee	0.06026738
5	0xbdae0b7d	-0.08498285
6	0xbaa31f31	-0.0012445209
7	0xbca58aa1	-0.020207705
8	0xbd303b51	-0.04302532
9	0xbde606fc	-0.11231801
10	0xbd3da554	-0.046300247
11	0x3c2291cc	0.009922456
12	0x3cc6992c	0.02424296
13	0xbcbe3851	-0.023220213
14	0x3dc83ea1	0.097775705
15	0xbd1406c1	-0.036139254
16	0x3d8613d9	0.065467544
17	0x3d2bf658	0.04198298
18	0x3cc1385d	0.023586446
19	0xbc3b42e5	-0.011429523
20	0xbdfe7ec8	-0.12426525
21	0xbd42aa94	-0.047525957
22	0xbe065e14	-0.13121825
23	0x3d28e907	0.041237857
24	0xbd52014e	-0.051270775
25	0xbe3dcf4f	-0.18536113
26	0x3d8aad53	0.0677134
27	0x3d92f8f6	0.07176392
28	0xbde9ecbf	-0.11422109
29	0xbd701f69	-0.058623705
30	0xbdd60226	-0.104496285
31	0x3d5ed0ac	0.054398224
32	0xbebd9cea	-0.37033778
33	0x3b13397f	0.002246469
34	0x3a87e6f5	0.0010368513
35	0xbe046573	-0.12929325
36	0xbe0d7dc2	-0.13817504
37	0xbdea7ae9	-0.114492245
38	0x3dafe9be	0.08589505
39	0x3d29ea6f	0.04148334
40	0xbdde95fd	-0.10868452
41	0x3ca95d85	0.020674476
42	0xbddb0d29	-0.106958695
43	0xbd0e11de	-0.03468501
44	0xbd89835a	-0.067145064
45	0xbd37771d	-0.04479133
46	0xbe1a5272	-0.15070513
47	0x3d52b704	0.05144407
48	0x3d32b05d	0.043625224
49	0xbd9a3169	-0.075289555
50	0x3c0cb9d1	0.008589224
51	0xbd84803a	-0.0646977
52	0xbddeef24	-0.10885456
53	0x3c282e40	0.010264933
54	0xbe5329f4	-0.20621473
55	0xbd4e30bc	-0.050339445
56	0xbe45ad73	-0.19304447
57	0x3dc9a374	0.09845629
58	0xbe34bffc	-0.17651361
59	0xbe41dd43	-0.18932061
60	0xbcca2984	-0.024678
61	0xbdb28f65	-0.087187566
62	0xbcaa156f	-0.020762173
63	0xbe037e85	-0.12841232

conv1.lin.weight f4 [64, 7]
0	0xbf110d25	-0.5666068
1	0xbe840a6f	-0.2578921
2	0x3cbf528f	0.023354797
3	0x3ce864eb	0.028368434
4	0x3ec2b114	0.38025725
5	0xbe33d83a	-0.17562953
6	0x3e9df28a	0.30849105
7	0xbf0268b7	-0.5094103
8	0xbe7ea96c	-0.24869317
9	0xbe77d85e	-0.24203631
10	0xbd4985e3	-0.04919995
11	0xbe2152ef	-0.15754293
12	0x3e8593f5	0.26089445
13	0x3e538cb3	0.20659141
14	0xbebab64f	-0.36467215
15	0x3e490f4d	0.19634743
16	0xbccdf038	-0.02513896
17	0xbc950205	-0.01818944
18	0x3d970b85	0.07375244
19	0x3ea6b5b9	0.32560518
20	0x3e067b8e	0.1313307
21	0x3dd4416c	0.10364041
22	0xbd95342b	-0.07285341
23	0x3e4554b0	0.19270587
24	0xbe0a940a	-0.13533035
25	0xbea4d6ec	-0.32195222
26	0xbe442838	-0.19155967
27	0xbe8db5cf	-0.2767777
28	0x3ebdfb41	0.37105754
29	0x3e25ed3f	0.16203783
30	0x3ecb10a6	0.3966114
31	0xbec6f7b9	-0.38860872
32	0x3df54edd	0.119779326
33	0x3d4ca094	0.049957827
34	0xbf178cd4	-0.5919926
35	0x3d820675	0.06348888
36	0x3da0a34a	0.07843645
37	0xbdb8458e	-0.089976415
38	0xbdcd4387	-0.100226454
39	0xbe8fa89e	-0.28058332
40	0xbe70103b	-0.23443691
41	0xbcb98dd1	-0.022650631
42	0xbebd02a7	-0.36916086
43	0x3f43b6e4	0.76450944
44	0xbec778ad	-0.38959256
45	0x3deefabc	0.116689175
46	0x3e063b75	0.13108619
47	0x3d34b718	0.044119924
48	0x3edb5bb0	0.4284339
49	0xbecb1857	-0.39667007
50	0xbf46bc64	-0.7763121
51	0xbf09a827	-0.53772205
52	0xbd58c559	-0.05292258
53	0x3de6ee85	0.11275963
54	0xbec026a6	-0.37529486
55	0x3db1a98a	0.08674915
56	0x3f6be1e4	0.92141557
57	0x3f1dc95a	0.61635363
58	0x3f4375a9	0.7635141
59	0x3e418c33	0.18901138
60	0xbe45212a	-0.19250932
61	0x3d6779be	0.056512587
62	0xbe8c56e6	-0.27410048
63	0xbd8e53dc	-0.06949589
64	0xbd181bc8	-0.03713587
65	0xbf0d3ce9	-0.55171067
66	0xbea21a33	-0.31660613
67	0xbdd0e0f5	-0.10199157
68	0xbe793fd8	-0.2434076
69	0xbe9850e1	-0.29749206
70	0x3ed1a744	0.40947926
71	0x3f15a350	0.5845232
72	0x3eac072b	0.3359922
73	0xbe29fc9e	-0.16600272
74	0x3e45ffe6	0.19335899
75	0xbe92d38a	-0.28677016
76	0xbe05dda3	-0.13072829
77	0xbe1b24fb	-0.15150826
78	0xbea995c4	-0.33122075
79	0xbdc0f384	-0.09421447
80	0xbe96334a	-0.29336005
81	0x3dcd9f6b	0.10040172
82	0x3cce4932	0.025181387
83	0xbe27f7f1	-0.16403176
84	0xbe567c38	-0.20945823
85	0xbfb8620f	-1.4404925
86	0xbe2f75bd	-0.17134757
87	0xbee40b8d	-0.44540063
88	0x3e65ae16	0.2242969
89	0xbf051509	-0.5198522
90	0xbed63333	-0.41835937
91	0x3e980666	0.29692382
92	0x3e0bb318	0.13642538
93	0x3e0c815e	0.13721225
94	0x3e939f63	0.2883254
95	0xbdc1b5dc	-0.09458515
96	0xbc3d409f	-0.011551051
97	0x3c5e9d4b	0.013587306
98	0x3dd6cfd2	0.10488857
99	0x3cd7d0dd	0.026344711
100	0x3de2f83e	0.11082505
101	0x3e644ee1	0.22295715
102	0xbe2ade4d	-0.16686364
103	0xbe3f1aa8	-0.18662512
104	0xbc7889f9	-0.015169614
105	0xbf3f3f99	-0.7470642
106	0xbeddf144	-0.43348134
107	0xbdc42f15	-0.09579293
108	0x3e3ffc23	0.18748526
109	0x3cc0de46	0.023543488
110	0xbd5f433a	-0.05450747
111	0x3eeeb0e0	0.4661932
112	0xbccfbefb	-0.025359621
113	0x3ed7ec3d	0.42172423
114	0x3e3c71a1	0.18402721
115	0xbeafe01a	-0.34350663
116	0xbecc531e	-0.39907163
117	0xbe85686c	-0.2605623
118	0xbe0171ad	-0.1264102
119	0xbe4cc210	-0.19995904
120	0xbd3c9cb9	-0.0460479
121	0xbf2afb85	-0.6679004
122	0xbb494312	-0.0030710143
123	0xbe1ac3fd	-0.15113826
124	0x3e16ccd7	0.14726578
125	0xbd62a243	-0.055330526
126	0xbf0c68a2	-0.54847157
127	0xbf36ffe6	-0.7148422
128	0xbf1df7da	-0.61706316
129	0x3d1f7e32	0.03893871
130	0xbccd2eeb	-0.025046786
131	0xbeea8e95	-0.45811906
132	0xbec0899a	-0.37604982
133	0xbea587a8	-0.3233006
134	0x3a55c941	0.00081552943
135	0x3e184b61	0.14872505
136	0x3e617fa9	0.22021355
137	0xbe0f87ad	-0.140166
138	0xbe631886	-0.22177324
139	0x3eac48ea	0.3364938
140	0xbf08e56e	-0.5347508
141	0xbbae7d47	-0.005324993
142	0xbebf2600	-0.3733368
143	0xbe241a21	-0.16025592
144	0xbe54bb32	-0.20774534
145	0xbe8a3aee	-0.26998085
146	0x3e08db2c	0.13364857
147	0x3dd040d8	0.10168618
148	0xbe78a3c8	-0.24281228
149	0x3eec5fe2	0.46166903
150	0xbe8c6297	-0.27418968
151	0xbce0585c	-0.027385883
152	0x3ed7414b	0.42042002
153	0xbde733e4	-0.11289194
154	0x3ea4cd83	0.32188043
155	0xbd30500b	-0.043045085
156	0xba76a235	-0.0009408326
157	0x3e9329c6	0.28742808
158	0x3eb7f56d	0.35929433
159	0xbe0e0681	-0.13869669
160	0xbeae5a08	-0.34053063
161	0x3f58e7d4	0.8472874
162	0x3ee51775	0.4474446
163	0x3dd76084	0.10516456
164	0x3e24c3b5	0.16090281
165	0x3df8344f	0.12119352
166	0xbf1f9797	-0.6234068
167	0xbe40b718	-0.18819845
168	0x3d570cf2	0.05250258
169	0x3e3e3832	0.18576124
170	0xbdf24b92	-0.1183082
171	0x3d35607b	0.044281464
172	0x3d6aacd7	0.05729374
173	0x3e449f08	0.1920129
174	0x3e0ae895	0.13565286
175	0x3ee2d454	0.44302619
176	0x3ef4dde6	0.47825545
177	0x3e9bb7cd	0.30413666
178	0xbd05a9bd	-0.03263258
179	0x3cb3afa4	0.021934338
180	0xbe0c8da3	-0.13725905
181	0x3f01d594	0.5071652
182	0x3d986192	0.07440485
183	0xbe4c26e8	-0.19936717
184	0x3d9d6af9	0.07686419
185	0xbe0bafae	-0.13641235
186	0xbe68bcbf	-0.22728251
187	0x3e530e54	0.20610934
188	0x3e565cca	0.20933834
189	0x3e91ee3e	0.28502077
190	0x3ede9b09	0.43477657
191	0x3e6df05a	0.23236218
192	0xbee46234	-0.44606173
193	0xbf310e12	-0.69162095
194	0x3dccc69b	0.099988185
195	0x3e60b38c	0.21943492
196	0xbe9ae490	-0.30252504
197	0xbd960c69	-0.07326586
198	0xbf0b33b5	-0.54375774
199	0xbf03b9ba	-0.5145527
200	0xbe1cd054	-0.15313846
201	0xbe7efc71	-0.24900986
202	0xbe2a9b64	-0.1666084
203	0xbf1c8795	-0.6114438
204	0x3e2e864a	0.17043415
205	0xbef47d4a	-0.47751838
206	0x3b4df230	0.0031424873
207	0xbf107f2a	-0.56444037
208	0xbd909b64	-0.070608884
209	0x3dda8569	0.10669977
210	0x3c8a9c41	0.01692021
211	0xbd3dc9df	-0.046335097
212	0xbc70af55	-0.01469024
213	0xbd6b47f2	-0.05744166
214	0xbdeb18d7	-0.11479347
215	0xbea99681	-0.33122638
216	0x3e5f3ea4	0.21801239
217	0x3e369bf8	0.17832935
218	0xbcae8db3	-0.021307802
219	0x3dc0648d	0.093941785
220	0x3e6259fe	0.22104642
221	0x3cb57785	0.022151718
222	0x3d8459de	0.06462453
223	0xbe05786d	-0.1303422
224	0xbeb0adf6	-0.34507722
225	0xbf39c2a7	-0.7256264
226	0xbf4143cc	-0.75494075
227	0x3ea15657	0.31511185
228	0x3d6cd3d3	0.0578192
229	0x3e08c4fb	0.13356392
230	0xbde0b7fc	-0.10972592
231	0xbe8e2cf2	-0.27768666
232	0xbe6ec7d7	-0.2331842
233	0x3eb8280a	0.35968047
234	0x3db6542e	0.08902775
235	0x3eac0af9	0.3360212
236	0xbe3215a3	-0.17391066
237	0xbd54e3f9	-0.051975224
238	0xbe8dbaae	-0.27681488
239	0xbd9c336a	-0.07626994
240	0x3e1e43c2	0.15455535
241	0xbe9d189e	-0.30682844
242	0x3cd8c01d	0.026458794
243	0x3ea6ae2b	0.32554755
244	0xbe59bdc3	-0.21263795
245	0xbf5df5c6	-0.86703146
246	0x3e8cddd4	0.2751299
247	0xbe336790	-0.17519975
248	0xbe011283	-0.12604718
249	0xbeba5ce9	-0.3639901
250	0xbda89adf	-0.08232664
251	0x3e9b15af	0.3028998
252	0x3e5ae4e1	0.21376373
253	0x3e75c338	0.24000251
254	0x3efb4fa7	0.49084207
255	0xbed8d9a2	-0.4235354

conv1.lin.bias f4 [64]
0	0xbe8eeb77	-0.2791402
1	0x3e9e9b86	0.3097803
2	0xbe54cd9c	-0.20781559
3	0x3eb15db3	0.346418
4	0xbe35c2ab	-0.17750041
5	0x3e86ccc5	0.26328102
6	0x3dfd0542	0.123545185
7	0x3c8c2246	0.017106187
8	0x3e867ec2	0.26268584
9	0xbd56ced3	-0.052443337
10	0xbda7912d	-0.08181987
11	0x3eb33d91	0.3500791
12	0x3c36010a	0.011108646
13	0x3e76b0d5	0.24090894
14	0x3c502cfd	0.012706039
15	0x3d30551d	0.04304992
16	0x3e5838fe	0.21115491
17	0xbc5964bf	-0.013268649
18	0xbe21fa33	-0.158181
19	0xbe5fdb75	-0.2186106
20	0xbea0fd46	-0.31443232
21	0x3e2221fa	0.15833274
22	0xbe93be79	-0.28856257
23	0x3ef54ff9	0.47912577
24	0x3e82b893	0.25531444
25	0x3d2b3f90	0.041808665
26	0xbd381fe7	-0.0449523
27	0x3db08435	0.086189665
28	0x3e0defb3	0.13860969
29	0x3de1c80c	0.11024484
30	0x3df7d768	0.12101632
31	0xbe6d2e50	-0.23162198
32	0xbe5bd909	-0.21469511
33	0x3e920117	0.28516456
34	0xbeba440b	-0.36380038
35	0x3e38b31c	0.18037075
36	0xbe6042d9	-0.219005
37	0x3dacef12	0.084440365
38	0xbe5b508e	-0.21417448
39	0xbe4a3a22	-0.19748738
40	0x3e46aaa4	0.19401032
41	0xbec13f6d	-0.37743703
42	0xbe267c71	-0.16258408
43	0x3e9c06fd	0.30474082
44	0x3e608d1b	0.21928827
45	0xbe38f5b4	-0.18062478
46	0xbdc5e3fe	-0.09662627
47	0xbee16812	-0.44024712
48	0xbee3351b	-0.44376454
49	0xbeb978ca	-0.36224967
50	0xbeb1945f	-0.3468351
51	0xbea2cbf8	-0.3179624
52	0x3e905db2	0.28196484
53	0xbe10652b	-0.14101093
54	0xbe0dfab7	-0.13865171
55	0xbf01a987	-0.50649303
56	0xbe8fe741	-0.2810612
57	0x3e950f5d	0.29113284
58	0x3d2cb96c	0.04216902
59	0xbe563c0e	-0.20921347
60	0x3ec85f1b	0.3913506
61	0xbdf730bb	-0.120698415
62	0xbda1de67	-0.07903748
63	0xbdaa4941	-0.08314753

conv2.nn.0.weight f4 [64, 64]
0	0x3de1e961	0.110308416
1	0x3e02cc0c	0.1277315
2	0xbc27b3e3	-0.010235759
3	0x3ef4d044	0.47815144
4	0xbe7b6e59	-0.24553813
5	0xbea23377	-0.3167989
6	0x3d30e68e	0.043188624
7	0xbea861eb	-0.32887205
8	0xbf701662	-0.93784153
9	0xbe58697a	-0.21133986
10	0x3d3172e1	0.043322448
11	0xbcb36c86	-0.021902334
12	0xbd87411f	-0.06604218
13	0xbf1b09a7	-0.60561603
14	0xbf5830b5	-0.8444932
15	0x3e0d61cf	0.13806842
16	0xbe8b6f9a	-0.27233583
17	0xbe3074f6	-0.17232117
18	0xbf043670	-0.51645565
19	0xbed4f3ba	-0.415922
20	0xbcc0073f	-0.023440955
21	0xbe3fd2f7	-0.1873282
22	0xbe27dc95	-0.16392739
23	0xbcfa3cdd	-0.0305466
24	0x3d640bc2	0.055675276
25	0x3d30c7dc	0.04315935
26	0xbbd6bc4e	-0.0065532094
27	0xbe11d898	-0.1424278
28	0xbe864b47	-0.26229307
29	0xbe16e01d	-0.1473393
30	0xbec50215	-0.3847815
31	0xbdbc0ac6	-0.09181742
32	0x3d18b167	0.03727856
33	0x3e3ddf2d	0.18542166
34	0xbe6053a4	-0.21906906
35	0xb3096db8	-3.1997587e-08
36	0xbdbd73a1	-0.0925057
37	0x3d88d6bb	0.066815816
38	0xbd85d919	-0.06535549
39	0xbb620a7c	-0.0034491112
40	0x3d04d72b	0.032431763
41	0x3e141218	0.14460027
42	0x3d5a59e3	0.05330838
43	0xbf144db8	-0.5793109
44	0xbea5c850	-0.3237939
45	0xbed3d4ea	-0.41373378
46	0x3e809903	0.2511674
47	0xbe8ff1f1	-0.28114274
48	0xbf099788	-0.53746843
49	0xbdf3d924	-0.11906651
50	0x3f3d11b4	0.7385514
51	0xbda3b7d4	-0.07994047
52	0xbde91cff	-0.11382484
53	0xbe2cbd35	-0.16869052
54	0x3c34cd87	0.01103533
55	0x3e829377	0.25503132
56	0x3ef82792	0.4846769
57	0xbd0bbf79	-0.03411815
58	0xbd1f6f72	-0.038924642
59	0xbc432ad7	-0.011912069
60	0xbdc0c035	-0.094116606
61	0xbdf38431	-0.11890448
62	0xbd8e61e9	-0.06952269
63	0x3dc76512	0.097360745
64	0x3dde9d1f	0.10869812
65	0xbc66fb18	-0.014097951
66	0xbda96c08	-0.082725585
67	0x3dbf6519	0.09345455
68	0xbccde51d	-0.025133664
69	0xbe7b65ea	-0.24550596
70	0xbe0724dc	-0.13197654
71	0x3dcebc0f	0.10094463
72	0xbbe21ff0	-0.00690078
73	0x3d15ed60	0.03660333
74	0xbd9e19bf	-0.077197544
75	0xbe15cc85	-0.146288
76	0x3ea5ac82	0.32358176
77	0xbf0cc11b	-0.54982156
78	0x3ea43500	0.32071686
79	0xbeba938a	-0.36440688
80	0x3dba4323	0.090948366
81	0x3e2cfdd8	0.16893709
82	0xbd1b1b8b	-0.037868064
83	0xbf603ebc	-0.87595725
84	0x3e6a5cd3	0.22886972
85	0xbe9712e9	-0.29506615
86	0xbe4420f2	-0.19153193
87	0xbe87029a	-0.26369172
88	0x3df433ef	0.11923968
89	0xbcdde275	-0.027085522
90	0xbe958847	-0.29205534
91	0xbd7c6bcb	-0.061626237
92	0x3d3b879b	0.04578362
93	0x3df7f7d5	0.12107817
94	0xbd196f2f	-0.03745955
95	0x3c215856	0.009847721
96	0xbc89d107	-0.016823305
97	0xbe3accde	-0.18242213
98	0xbd3f3c93	-0.046688627
99	0xbdef90ce	-0.11697541
100	0xbd8c3847	-0.068466716
101	0x3d59c9fa	0.053171135
102	0xbc01b016	-0.007915517
103	0x3c45dd2b	0.012076656
104	0xbcf6d5e9	-0.030131297
105	0xbc834dfa	-0.016028393
106	0xbdeaa51d	-0.11457274
107	0xbd483bd6	-0.04888519
108	0x3c0f1712	0.008733528
109	0x3d47eaf0	0.04880804
110	0xbd2ee6a6	-0.042700432
111	0x3df78a4e	0.120869264
112	0x3f78de5a	0.9721428
113	0xbd67b476	-0.056568585
114	0xbe4917aa	-0.19637933
115	0x3ce4f6d7	0.027949734
116	0x3d3218ea	0.04348079
117	0xbe074152	-0.13208511
118	0xbe050c44	-0.1299296
119	0x3d3035f5	0.043020207
120	0xbea7d8dd	-0.3278264
121	0x3c6b518b	0.014362703
122	0x3e10fd38	0.14159095
123	0xbe14d0d2	-0.14532784
124	0xbea316c1	-0.31853297
125	0x3d2488d7	0.040169563
126	0xbda6aaf3	-0.08138075
127	0x3c12c252	0.008957462
128	0xbef3bda5	-0.47605625
129	0x3e1a4663	0.15065913
130	0xbec31b12	-0.3810659
131	0xbf417672	-0.7557136
132	0xbe0d3a5e	-0.13791797
133	0x3e0b5327	0.13605939
134	0xbe05a6c2	-0.13051894
135	0xbe95e2c2	-0.29274565
136	0x3e7296ed	0.23690386
137	0xbe9f20a1	-0.3107958
138	0x3db13b4c	0.08653888
139	0xbe35048b	-0.17677514
140	0xbda3be40	-0.07995272
141	0x3e585c89	0.2112905
142	0xbf1f7f44	-0.62303567
143	0x3e37585f	0.17904805
144	0x3b8ae245	0.004238399
145	0xbedbbf9a	-0.42919618
146	0xbe0812a2	-0.13288358
147	0x3c9a3d83	0.01882816
148	0xbf1527bf	-0.5826377
149	0x3e1f9ee8	0.15587962
150	0xbe594dcf	-0.21221088
151	0x3d929a72	0.07158364
152	0xbf120785	-0.57042724
153	0xbe3da662	-0.18520501
154	0x3e0d294c	0.13785285
155	0xbd35cdb2	-0.04438562
156	0xbe5b797b	-0.2143306
157	0xbf39055a	-0.7227379
158	0x3dd381c2	0.10327484
159	0xbe44c959	-0.19217433
160	0xbd334fa9	-0.04377714
161	0xbe057b51	-0.13035323
162	0xbdc9ba98	-0.09850043
163	0xbdcc4546	-0.0997415
164	0x3ca498c6	0.02009238
165	0x3ef018eb	0.4689401
166	0xbe2b8867	-0.16751252
167	0x3d632483	0.055454742
168	0x3ddd8f69	0.10818369
169	0x3e29b8e5	0.16574438
170	0xbd7735cf	-0.06035405
171	0xbcaaac7f	-0.020834206
172	0xbf0598d9	-0.5218635
173	0x3c076b82	0.008265378
174	0xbf6ff913	-0.9373943
175	0xbed176c8	-0.40910935
176	0xbe9424cc	-0.28934324
177	0xbe874ca4	-0.2642566
178	0x3de65657	0.11246937
179	0xbe966fc0	-0.29382133
180	0xbdf6549e	-0.12027858
181	0xbe551509	-0.20808806
182	0xbd561dbc	-0.05227445
183	0xbe907ff8	-0.28222632
184	0xbdb19123	-0.08670261
185	0xbd9652ab	-0.073399864
186	0x3e0cf426	0.1376501
187	0x3b3dc305	0.0028955352
188	0x3f0aa236	0.54153764
189	0x3d3e2fe7	0.046432402
190	0xbd92d7a6	-0.07170038
191	0xbefd5a6e	-0.49483055
192	0xbe8197a4	-0.25311005
193	0x3e32bc3b	0.17454617
194	0xbdfc698e	-0.123248205
195	0xbf36e4d4	-0.71442914
196	0x3da637d9	0.08116121
197	0xbd4cc6ce	-0.049994282
198	0xbea29fa2	-0.31762415
199	0xbf11ab73	-0.56902236
200	0xbe8be11d	-0.27320185
201	0xbcce0a9f	-0.025151549
202	0xbdd6c030	-0.104858756
203	0xbe0f5e2b	-0.14000766
204	0xbe924c37	-0.28573772
205	0xbf5dac21	-0.8659077
206	0xbf66b2dc	-0.9011667
207	0xbc10bd0f	-0.008834138
208	0xbe4107b8	-0.188506
209	0xbeb15ef3	-0.34642753
210	0x3f5eb4c0	0.8699455
211	0x3f47ec58	0.78095007
212	0xbfba931f	-1.4576148
213	0xbca9d8ae	-0.020733204
214	0xbcdca3cf	-0.026933579
215	0xbf130a28	-0.5743737
216	0xbe813a21	-0.2523966
217	0x3ea7bbf5	0.32760587
218	0xbc966719	-0.018359708
219	0x3ddf468f	0.1090213
220	0xbe368161	-0.17822792
221	0xbe61b2d7	-0.22040878
222	0xbeae951e	-0.34098142
223	0xbdc902ba	-0.09814973
224	0xbe1da5e5	-0.15395315
225	0xbe79bb26	-0.24387798
226	0xbdc6500c	-0.096832365
227	0x3c595eb9	0.013267213
228	0x3d2a3fe0	0.041564822
229	0x3edfa301	0.4367905
230	0xbec56a49	-0.38557652
231	0x3d1e94d8	0.038716167
232	0x3d80e998	0.062945545
233	0x3b8a2aef	0.004216544
234	0x3d07ef11	0.033186976
235	0x3e402893	0.18765478
236	0x3dcd990d	0.10038958
237	0xbdce4d58	-0.10073346
238	0xbe6a7001	-0.22894289
239	0x3d85fa45	0.06541876
240	0xbeaaa67f	-0.3333015
241	0xbea9aec7	-0.33141157
242	0xbe685152	-0.22687271
243	0xbe994447	-0.29934904
244	0x3e21a431	0.1578529
245	0x3d3ea9f2	0.04654879
246	0xbf1c1e4c	-0.6098373
247	0xbda43352	-0.08017601
248	0xbe337280	-0.17524147
249	0x3d437625	0.047720093
250	0x3d14bc47	0.036312368
251	0xbcc61d65	-0.024183938
252	0xbf293a9b	-0.6610505
253	0xbdb721e3	-0.0894201
254	0x3db7e3ae	0.08978973
255	0xbe632642	-0.22182563

conv2.nn.0.bias f4 [64]
0	0x3db846c8	0.089978755
1	0x3ceeb7b6	0.029140335
2	0xbed3fed5	-0.4140536
3	0xbd62d3b7	-0.05537769
4	0x3d84dfe8	0.06488019
5	0x3e03b830	0.1286323
6	0x3f1a41fd	0.6025694
7	0xbdc81c74	-0.09771052
8	0xbec5d924	-0.38642228
9	0x3ac8c6cc	0.0015318035
10	0xbe12320a	-0.14276901
11	0xbc8190bf	-0.01581609
12	0xbdc3fbbe	-0.095695004
13	0xbf81f4be	-1.0152814
14	0xbdebc20f	-0.11511623
15	0xbdc1dc8c	-0.09465894
16	0xbe35bd5c	-0.17748016
17	0xbe13171e	-0.14364287
18	0xbe9ed5da	-0.3102253
19	0x3ce7074d	0.028201723
20	0xbe2b3af1	-0.16721703
21	0xbe143eac	-0.14477032
22	0x3ec5b753	0.38616428
23	0xbea18c57	-0.31552383
24	0xbe7615eb	-0.24031799
25	0x3e18fc17	0.14939915
26	0xbd392cb6	-0.045208655
27	0xbdcd345c	-0.100197524
28	0x3d312d89	0.043256316
29	0x3e39d774	0.18148595
30	0x3e960129	0.2929776
31	0xbdb2e83c	-0.087357014
32	0xbef1865f	-0.4717283
33	0x3e468426	0.19386348
34	0xbe7c991d	-0.24667783
35	0x3d3c101c	0.0459138
36	0x3f25f406	0.64825475
37	0x3d53062e	0.051519565
38	0xbdf49e01	-0.11944199
39	0x3ee5ca0d	0.44880715
40	0x3e535dd4	0.20641261
41	0x3ee2ff42	0.4433537
42	0xbe6ec2db	-0.23316519
43	0x3c650761	0.01397881
44	0x3eb4c161	0.35303786
45	0xbda02240	-0.07819033
46	0xbe8d5a91	-0.2760816
47	0x3daeed77	0.085413866
48	0x3eae4805	0.34039322
49	0x3d165e7f	0.036711212
50	0xbe2a010d	-0.16601963
51	0xbefa774d	-0.48919144
52	0x3ed4d679	0.4156988
53	0xbdede776	-0.11616413
54	0xbdff9c65	-0.12481002
55	0xbe2fbd68	-0.17162097
56	0x3ca240b1	0.019806238
57	0x3da6f4bb	0.081521474
58	0xbdb3d676	-0.087811396
59	0x3f0b1895	0.54334384
60	0xbe9cb475	-0.30606428
61	0x3e85f4ab	0.2616323
62	0xbd0bbbfc	-0.034114823
63	0x3e94026e	0.28908104

conv2.nn.2.weight f4 [64, 64]
0	0x3c0f22d1	0.008736328
1	0xbe335770	-0.17513824
2	0xbd96a2d1	-0.073552735
3	0x3f29242e	0.6607083
4	0x3de64dbf	0.11245298
5	0xbe6efe0e	-0.23339102
6	0x3edcd54b	0.4313148
7	0x3dd8b1aa	0.10580762
8	0xbe395ffd	-0.18103023
9	0xbdd0e4b3	-0.10199871
10	0x3dcddb2a	0.10051568
11	0xbe07e92c	-0.13272542
12	0xbe5bc828	-0.21463072
13	0xbdb05464	-0.08609846
14	0xbd1b8625	-0.037969727
15	0x3c38af99	0.0112723345
16	0x3d1a6fc9	0.037704263
17	0xbf0dd61e	-0.5540484
18	0xbdf7af45	-0.12093977
19	0x3db73974	0.08946505
20	0x3c8ae5a7	0.01695521
21	0xbd14b97d	-0.036309708
22	0x3d255845	0.040367384
23	0x3d264864	0.04059638
24	0x3d914866	0.07093887
25	0xbdf573f5	-0.11985008
26	0x3eac59c0	0.33662224
27	0xbba9cb27	-0.0051816883
28	0xbe12fd11	-0.1435435
29	0x3e3399bd	0.17539115
30	0xbe185d2e	-0.14879295
31	0x3d719835	0.058983047
32	0x3de7928d	0.11307249
33	0x3d74c7a0	0.05976069
34	0xbbc87fde	-0.0061187586
35	0xbe0dd344	-0.13850123
36	0xbe558913	-0.20853071
37	0xbca5fa9d	-0.020261103
38	0xbe38d249	-0.18048967
39	0xbe168d2c	-0.1470229
40	0x3d1e2239	0.038606856
41	0x3e014c68	0.12626803
42	0x3da1932d	0.078894
43	0xbe44144b	-0.19148366
44	0x3e41558e	0.18880293
45	0xbd97680b	-0.073928915
46	0x3e4f2d3c	0.202321
47	0xbec25199	-0.3795288
48	0xbdefde6c	-0.117123455
49	0xbe5093ec	-0.20368928
50	0xbdd3a665	-0.103344716
51	0x3da086be	0.078382
52	0x3c46da44	0.0121369995
53	0x3c86ae49	0.016440528
54	0xbcea8992	-0.028630052
55	0xbdc15ea6	-0.09441881
56	0x3d83b8e5	0.0643175
57	0xbd87249e	-0.06598781
58	0x3dfcd23a	0.12344785
59	0x3e7f6428	0.2494055
60	0xbc99d717	-0.01877932
61	0x3d31a8d7	0.04337391
62	0xbd04588c	-0.032311007
63	0x3e533e6a	0.20629278
64	0xbe29f08b	-0.16595666
65	0xbd2feaa2	-0.042948373
66	0xbe02962e	-0.12752602
67	0x3f0b5768	0.54430246
68	0x3d358f0d	0.044325877
69	0xbe6cb993	-0.23117666
70	0x3eb2ff83	0.34960565
71	0xbda2727c	-0.079319924
72	0xbca5a387	-0.020219577
73	0x3ca291f7	0.019844992
74	0x3dcbba45	0.099476375
75	0xbda80c31	-0.0820545
76	0xbe70395d	-0.23459382
77	0xbd392938	-0.045205325
78	0xbcbb81f7	-0.02288912
79	0xbc0f2d30	-0.008738801
80	0xbd4d7f59	-0.050170276
81	0xbed5b53e	-0.4173984
82	0x3ca4ece1	0.020132484
83	0x3cde736e	0.02715465
84	0xbdaba11a	-0.08380337
85	0xbd2e7e92	-0.042601176
86	0x3bfe5ffa	0.007762906
87	0xbe67d5f2	-0.22640207
88	0x3cf2f792	0.029659066
89	0x3d99ff75	0.07519428
90	0x3e6897f8	0.22714221
91	0x3d84de7a	0.064877465
92	0x3bcdb815	0.006278048
93	0x3e012274	0.12610799
94	0xbe1d0c45	-0.15336712
95	0x3c0ad756	0.008474192
96	0xbd969a06	-0.073535964
97	0x3dae67d6	0.08515899
98	0xbe38eb1d	-0.18058439
99	0xbe2ca422	-0.16859487
100	0x3c19bdcd	0.009383631
101	0x3c20719e	0.009792713
102	0xbe47e978	-0.19522655
103	0xbd9ccc23	-0.076561235
104	0x3d8d34db	0.06894847
105	0x3df57ff9	0.119872995
106	0x3de44ebe	0.111478314
107	0xbe2b4a84	-0.16727644
108	0x3d5ba1a0	0.053620934
109	0x3d280d18	0.041028112
110	0x3e7181f3	0.23584728
111	0xbf3f64a1	-0.7476292
112	0x3d83687e	0.06416415
113	0x3d2b8633	0.04187603
114	0x3daeecb6	0.08541243
115	0x3d14e552	0.03635151
116	0xbd812729	-0.06306297
117	0x3d95e2f4	0.073186785
118	0xbd369dd9	-0.04458413
119	0xbe029305	-0.12751396
120	0xbc637216	-0.013882181
121	0xbdd4ffe5	-0.104003705
122	0xbd012b30	-0.031535327
123	0x3e483f1e	0.19555327
124	0xbd9ce80c	-0.07661447
125	0xbd902153	-0.07037606
126	0x3ad47e75	0.0016212004
127	0x3a8619df	0.0010231099
128	0xbe5f8e9b	-0.21831743
129	0xbe1d8f03	-0.15386586
130	0xbcc8f835	-0.024532417
131	0xbe9d0afb	-0.3067244
132	0x3d4ce1eb	0.05002014
133	0xbe427dac	-0.18993253
134	0xbdbe0f27	-0.09280234
135	0x3c949e7c	0.018141977
136	0xbe2743d8	-0.16334474
137	0xbb4cf820	-0.0031275824
138	0x3c4e6772	0.0125979055
139	0x3d50df54	0.050994232
140	0x3ea0c99b	0.31403813
141	0x3d1c09b7	0.038095202
142	0x3d6dd6bd	0.05806612
143	0x3dd57cc4	0.10424188
144	0x3b945710	0.00452698
145	0x3ed3c220	0.41359043
146	0xbd887727	-0.066633515
147	0x3db20f2e	0.086943015
148	0x3d447211	0.047960345
149	0x3cce4a41	0.025181891
150	0x3c89aadb	0.016805103
151	0x3e11f58c	0.14253825
152	0xbc6f6e47	-0.0146136945
153	0xbe161a3a	-0.14658442
154	0x3d120a78	0.035654515
155	0xbd109a31	-0.0353033
156	0xbda4da3b	-0.08049437
157	0xbe96020e	-0.29298443
158	0x3d0932fc	0.033495888
159	0xbd2e07f5	-0.042488057
160	0x3d89f883	0.06736853
161	0xbd470255	-0.04858621
162	0x3c6853b0	0.014180109
163	0x3dbdae44	0.09261754
164	0x3d837f18	0.064207256
165	0x3dd4f489	0.10398204
166	0x3d67ecc6	0.05662229
167	0xbded629f	-0.11591076
168	0x3d5e5796	0.054282747
169	0xbe3397c3	-0.17538361
170	0x3da02935	0.078203596
171	0x3e86b98c	0.26313436
172	0xbd8f1c87	-0.06987863
173	0xbdd38103	-0.103273414
174	0xbe519c31	-0.20469739
175	0x3f108537	0.5645327
176	0x3df52ac4	0.119710475
177	0xbe25f7dc	-0.16207832
178	0x3d1401e3	0.03613461
179	0x3db0b275	0.08627788
180	0x3e095957	0.13412987
181	0x3deda45a	0.11603613
182	0xbdab8445	-0.08374838
183	0xbac25fcd	-0.0014829576
184	0xbd128dc8	-0.035779744
185	0xbb07c7ad	-0.0020718381
186	0x3dd89976	0.10576145
187	0x3e428db5	0.1899937
188	0xbd855fe5	-0.06512431
189	0xbd90319d	-0.07040713
190	0xbde0a690	-0.10969269
191	0x3e0a697b	0.135168
192	0x3d52f88c	0.051506564
193	0xbc47c93a	-0.012193972
194	0xbebe02b7	-0.37111446
195	0x3f0d19c7	0.5511746
196	0xbd1812df	-0.037127372
197	0xbdd5dab2	-0.104421034
198	0x3e40a45c	0.18812698
199	0x3ccc65f4	0.024950959
200	0xbd208aa6	-0.039194725
201	0xbd734d5e	-0.059399955
202	0xbdebc817	-0.115127735
203	0xbe2f81af	-0.17139314
204	0xbe64be75	-0.22338279
205	0xbe17d802	-0.14828494
206	0x3cad57df	0.021160064
207	0xbdf7f60c	-0.121074766
208	0x3d2ab874	0.041679814
209	0xbe55675a	-0.20840207
210	0xbdaafd4b	-0.08349093
211	0xbd60d301	-0.05488873
212	0xbc8c04ab	-0.01709207
213	0xbe0f0874	-0.13968068
214	0x3d66b3fe	0.056323998
215	0x3ee26f79	0.44225672
216	0xbd7ed4d4	-0.062214687
217	0x3dbbc990	0.09169304
218	0x3e1258b1	0.14291646
219	0x3dd88c57	0.10573643
220	0xbdff4381	-0.12464047
221	0x3e04cae7	0.12968026
222	0x3e1cd5cf	0.15315937
223	0x3d970735	0.073744215
224	0x3e2036d1	0.15645911
225	0x3dae9173	0.08523836
226	0x3d9bb7e2	0.07603432
227	0xbd6f9334	-0.058489993
228	0x3e268ec0	0.16265392
229	0x3d849b8c	0.06474981
230	0x3de688d1	0.112565644
231	0xbd5d1557	-0.05397543
232	0x3db01906	0.08598523
233	0xbcace12d	-0.021103466
234	0x3dd11c5c	0.10210487
235	0xbe8fabe8	-0.28060842
236	0xbe5c763e	-0.21529481
237	0x3d7eca8e	0.06220489
238	0x3e56d128	0.20978224
239	0x3ebba145	0.36646476
240	0xbca4a19a	-0.020096589
241	0xbd1fa37e	-0.038974278
242	0x3dd914c1	0.105996616
243	0x3b6114da	0.0034344704
244	0xbd255369	-0.04036275
245	0x3ce9adab	0.028525194
246	0xbdc70672	-0.09718026
247	0xbbd4da34	-0.0064957384
248	0x3da6c6c3	0.081433795
249	0x3da629cb	0.0811344
250	0xbdf878cf	-0.121324174
251	0xbddc8899	-0.107682414
252	0xbc39fdb8	-0.011351995
253	0xbdabdbd3	-0.083915375
254	0xbd041782	-0.03224898
255	0x3e34177f	0.17587088

conv2.nn.2.bias f4 [64]
0	0xbda53dda	-0.08068438
1	0x3d94df2e	0.07269131
2	0x3d51f2d5	0.051256973
3	0xbe3c12dd	-0.18366571
4	0x3d4af820	0.049553037
5	0xbede3a11	-0.43403676
6	0xbe4fe996	-0.2030395
7	0xbea7efd2	-0.32800156
8	0x3d83d124	0.06436375
9	0x3dab14c6	0.083535716
10	0x3c72a44b	0.014809678
11	0x3e640b30	0.22269893
12	0xbe3db0fa	-0.18524542
13	0xbdffb67f	-0.1248598
14	0xbd91edbd	-0.07125423
15	0xbe996d30	-0.29966116
16	0xbc8eb4aa	-0.017420132
17	0xbea27cfa	-0.31735975
18	0xbead45cc	-0.33842313
19	0x3df2295e	0.118242964
20	0x3e144b82	0.14481929
21	0xbd8ecf71	-0.0697316
22	0x3e1d16df	0.15340756
23	0x3e6ac287	0.22925769
24	0xbe2b677c	-0.16738695
25	0xbe570ddb	-0.21001379
26	0x3bfb2ca3	0.007665233
27	0xbe167880	-0.14694405
28	0x3e42c55a	0.19020596
29	0xbdffee23	-0.12496593
30	0xbea53b2b	-0.32271704
31	0x3d14fa2e	0.036371402
32	0x3cf42b90	0.029805928
33	0xbceeec4f	-0.029165415
34	0xbe486644	-0.19570261
35	0xbed91159	-0.42396048
36	0xbdcd35f3	-0.100200556
37	0xbe5f2133	-0.21790008
38	0xbd9e5a15	-0.077320255
39	0x3e5297b0	0.20565677
40	0xbdbb10d5	-0.0913407
41	0x3e380ac0	0.17972851
42	0x3ce35c1f	0.027753888
43	0xbe03d363	-0.12873606
44	0x3e3cc228	0.1843344
45	0xbe7367d3	-0.23770075
46	0x3c79414e	0.015213324
47	0xbe3d2806	-0.18472299
48	0xbe84bee7	-0.25926897
49	0xbba7a8d5	-0.005116562
50	0xbb6f0275	-0.003646997
51	0xbe3e6722	-0.1859403
52	0xbdeee962	-0.11665608
53	0x3e808124	0.25098526
54	0x3f020903	0.50795
55	0xbe4659ae	-0.19370148
56	0x3dba884e	0.09108029
57	0xbe3cd9bf	-0.18442439
58	0xbed9791a	-0.42475206
59	0xbe802d38	-0.250345
60	0xbe060a41	-0.13089849
61	0x3c9ec062	0.019378845
62	0xbda8ff2a	-0.08251794
63	0xbdf51ab0	-0.11967981
