checkpoints/A/model_A_epoch_84.pth (torch, 78688 bytes, 15 tensors)

node_embedding.weight f4 [1, 64]
0	0x3e254628	0.16140044
1	0xbdc9328d	-0.09824095
2	0xbeaac316	-0.33351964
3	0xbf6e48ae	-0.9307965
4	0x3fc497a2	1.5358775
5	0xbfbc4ac7	-1.471032
6	0xbe225451	-0.15852477
7	0x3f907d88	1.1288309
8	0xbe7e7781	-0.24850275
9	0x3f8e901e	1.1137731
10	0x3f74621f	0.9546222
11	0xbf3b3346	-0.7312511
12	0x3f9be7e2	1.218014
13	0xbfcb8855	-1.590098
14	0xbfe0cde1	-1.7562829
15	0xbd5231c5	-0.051316995
16	0x4000bbb2	2.011456
17	0x3f3d1696	0.7386259
18	0x3fb5ed31	1.421301
19	0xc001b706	-2.0267959
20	0x3f963184	1.1733861
21	0xbe89f83b	-0.26947197
22	0xbf65d265	-0.8977416
23	0xbee2faf7	-0.44332096
24	0xbf572736	-0.84044206
25	0xbee9adf9	-0.45640543
26	0xbfaf678b	-1.3703474
27	0x3f4d445e	0.80182445
28	0x3fd7fed1	1.6874639
29	0x3f1bf3aa	0.60918677
30	0x3f24de72	0.64401925
31	0xbf01826f	-0.5058965
32	0x3f83e53e	1.0304334
33	0xc02c15ab	-2.6888225
34	0xbe56eff8	-0.20989978
35	0x3fffb077	1.9975728
36	0x3fe6e841	1.8039628
37	0x3facc57e	1.349777
38	0xbfa4bc32	-1.2869933
39	0x3e163ce3	0.14671664
40	0x3efe1f94	0.49633467
41	0x4003fd67	2.0623415
42	0xbf8888dd	-1.0666767
43	0xbfb45ab8	-1.4090185
44	0x3de3c0ed	0.11120782
45	0x3e8bc4e9	0.27298668
46	0x3eb5d35b	0.35512814
47	0x3f64cb51	0.89372736
48	0x3f6a554f	0.9153642
49	0xbf3dc7ef	-0.741332
50	0x40620229	3.5313818
51	0xbf24ad60	-0.6432705
52	0xbe7ea7b8	-0.24868667
53	0x3fdad065	1.7094847
54	0xbf5205ba	-0.8203999
55	0x3f5f6b9d	0.8727358
56	0x3ea14df1	0.31504777
57	0xbf855c90	-1.0418873
58	0xbd760c3a	-0.060070254
59	0xbe8ea38f	-0.2785916
60	0xbf546ae5	-0.8297561
61	0x3f962740	1.1730728
62	0x3fc8d015	1.5688502
63	0x3fd149b8	1.6350622

conv1.nn.0.weight f4 [64, 64]
0	0x3dd080f5	0.101808466
1	0xbd0de3c6	-0.03464105
2	0x3ce5b14f	0.028038649
3	0x3e073196	0.1320251
4	0xbdf678c1	-0.12034751
5	0x3dfad143	0.12246945
6	0xbdffb164	-0.124850065
7	0xbd076032	-0.033050723
8	0xbe17b3cf	-0.14814685
9	0xbe02b1fe	-0.12763211
10	0x3c2d06ef	0.010560735
11	0x3d9bdbb2	0.07610263
12	0x3d66d976	0.05635973
13	0x3d198e39	0.03748915
14	0xbd2770e3	-0.04087914
15	0x3d107eb7	0.035277095
16	0xbde0acc7	-0.10970455
17	0xbd8ff7a9	-0.07029659
18	0x3da8013f	0.08203363
19	0x3d49e8dc	0.049294338
20	0xbd21dccb	-0.039517205
21	0x3a8d4897	0.001077908
22	0xbb32f78b	-0.0027308192
23	0xbdd5e78e	-0.10444556
24	0x3d62b77e	0.055350773
25	0xbd4d8377	-0.050174203
26	0xbdc1f22a	-0.09470017
27	0xbb747c57	-0.0037305558
28	0x3b88b7da	0.0041723074
29	0x3c9767f5	0.018482188
30	0xbd0ce1ee	-0.03439515
31	0x3d9fb699	0.077984996
32	0xbd7daf42	-0.061934717
33	0xbd240927	-0.04004779
34	0x3cec6457	0.02885644
35	0x3cd97b95	0.026548186
36	0x3d81f13d	0.06344841
37	0x3c011298	0.007877968
38	0xbda865aa	-0.08222516
39	0xbdf730b1	-0.12069834
40	0x3c3fe9b3	0.011713433
41	0xbde714fe	-0.11283301
42	0xbd91f7eb	-0.07127365
43	0x3da41720	0.08012223
44	0xbc4f0c82	-0.012637259
45	0xbd9aaba4	-0.07552269
46	0xbde1e84e	-0.11030637
47	0x3dad42f9	0.0846004
48	0x3cb2578f	0.021770267
49	0x3d89259f	0.06696629
50	0x3d77cee4	0.06050004
51	0x3d4c7d6a	0.04992429
52	0x3d630924	0.05542864
53	0xbbbc8e33	-0.005754256
54	0xbdc0d3eb	-0.0941542
55	0xbc9eea19	-0.019398736
56	0x3dab9f86	0.08380036
57	0x3d275762	0.04085482
58	0xbdf89752	-0.12138237
59	0xbce94603	-0.028475767
60	0xbb7f7d34	-0.003898454
61	0xbd5cfa6b	-0.053949755
62	0x3d758cc2	0.05994869
63	0xbd903737	-0.070417814
64	0x3d573a3c	0.05254577
65	0xbdeedf10	-0.116636395
66	0xbd289fe0	-0.041168094
67	0xbbce5380	-0.006296575
68	0x3db9db8a	0.09075077
69	0xbc2e96a0	-0.010656029
70	0x3d525c88	0.051357776
71	0x3d0f09c8	0.034921438
72	0xbdcccdf8	-0.10000223
73	0xbb482d00	-0.00305444
74	0xbc542c30	-0.012949988
75	0x3b93c140	0.004509121
76	0xbdf7da2c	-0.1210216
77	0xbdfcb50e	-0.12339221
78	0xbd1b7c24	-0.037960187
79	0x3cc8f188	0.024529234
80	0xbd80a5e2	-0.0628164
81	0x3d321c1c	0.04348384
82	0xbde7a428	-0.11310607
83	0xbd3621c4	-0.044465795
84	0xbdf76c94	-0.120812565
85	0x3dce9046	0.10086112
86	0xbdb6590e	-0.089037046
87	0xbdc16e14	-0.09444824
88	0x3d6f4ef4	0.058424905
89	0xbd732d8c	-0.05936961
90	0x3cd18098	0.025574014
91	0xbd2ea5c0	-0.04263854
92	0xbd45acb4	-0.048260406
93	0xbd296838	-0.041359156
94	0x3df5f5a6	0.12009744
95	0xbced79a0	-0.02898866
96	0x3cb9b580	0.022669554
97	0xbdac55ae	-0.084147796
98	0xbd8ca862	-0.06868054
99	0xbd4b123c	-0.049577937
100	0xbdf2c9da	-0.118549064
101	0xbdf89518	-0.121378124
102	0xbdfd3616	-0.12363832
103	0x3d002e6c	0.03129427
104	0xbdb6096c	-0.08888516
105	0xbb1cc800	-0.002392292
106	0x3c93bdd8	0.01803486
107	0xbd35f6d0	-0.044424832
108	0x3deb25d6	0.11481826
109	0x3d8b72d2	0.068090096
110	0x3dbad790	0.091231465
111	0xbdfd83cc	-0.12378654
112	0xbb2bd8c0	-0.0026221722
113	0x3deb1900	0.11479378
114	0xbd5f2588	-0.054479152
115	0x3d1e5e44	0.038664117
116	0xbdd0b0fa	-0.101900056
117	0xbc2a0380	-0.010376811
118	0xbc019190	-0.00790824
119	0xbbb572a0	-0.005537346
120	0xbdfaeb1e	-0.12251876
121	0xbc9b7160	-0.01897496
122	0x3da30d68	0.079615414
123	0x3d301d7c	0.04299687
124	0x3dc4b992	0.09605707
125	0xbd1800ec	-0.037110254
126	0x3a9a7200	0.0011783242
127	0x3da128a8	0.07869083
128	0xbc577020	-0.013149291
129	0x3c9a43b0	0.018831104
130	0xbde59016	-0.11209123
131	0xbd011a40	-0.031519175
132	0x3dcabab0	0.09898889
133	0x3deb3a08	0.11485678
134	0x3d1fa518	0.038975805
135	0xbd89e0c8	-0.06732327
136	0x3dcb0ab2	0.09914149
137	0x3d30956c	0.04311125
138	0xbdd52538	-0.104074895
139	0xbc09e390	-0.0084160715
140	0xbd85f786	-0.06541352
141	0xbc8c8310	-0.01715234
142	0xbd74e32c	-0.05978696
143	0x3db477d0	0.08811915
144	0xbc93fee8	-0.018065885
145	0x3ce62650	0.02809444
146	0xbdc7d8b8	-0.09758133
147	0xbd4620cc	-0.04837112
148	0xbd6ac50c	-0.057316825
149	0x3d18e4a8	0.03732744
150	0xbdd5d3a0	-0.10440755
151	0xbd43b80c	-0.047782943
152	0xbdfe871e	-0.12428115
153	0xbb95af00	-0.0045679808
154	0x3d15ffc8	0.036620885
155	0xbddddeda	-0.10833521
156	0xbcd58628	-0.026064947
157	0xbdd2df28	-0.1029647
158	0xbdf9aa28	-0.12190658
159	0xbcd06b78	-0.02544187
160	0xbd641c1c	-0.05569087
161	0xbcdc66a8	-0.026904419
162	0x3d5bffc0	0.0537107
163	0x3da50e48	0.080593646
164	0x3cfe32c8	0.031030074
165	0xbd8e43ec	-0.06946549
166	0x3cbd46f0	0.023105115
167	0x3c95c6e8	0.018283322
168	0x3dfa2e88	0.122159064
169	0x3d0e8ba0	0.034801126
170	0xbc93a1f0	-0.018021554
171	0xbd8f5554	-0.06998697
172	0xbc46e930	-0.012140557
173	0xbc412980	-0.0117896795
174	0xbddd9064	-0.10818556
175	0xbd3c0130	-0.04589957
176	0x3d457140	0.048203707
177	0x3c77f150	0.015133217
178	0x3cb6b4e0	0.022303045
179	0x3d3155f8	0.043294877
180	0x3d5d8b34	0.054087833
181	0xbcbdb678	-0.023158297
182	0x3d98f23c	0.074680775
183	0x3bb9d0a0	0.005670622
184	0xbd5d8170	-0.05407852
185	0x3d698ad8	0.057017177
186	0x3dfcd4b6	0.12345259
187	0x3d147124	0.03624071
188	0x3dabf3be	0.083960995
189	0x3c8103b8	0.015748844
190	0xbd5a3e6c	-0.053282186
191	0x3cbba760	0.022906959
192	0xbd1725f8	-0.036901444
193	0xbd06b898	-0.032890886
194	0xbda1b27c	-0.07895371
195	0x3dcece1a	0.100979045
196	0xbdb7ec28	-0.0898059
197	0x3ddcb040	0.107758045
198	0xbd0bdf70	-0.034148633
199	0x3decb69a	0.11558266
200	0xbc97c708	-0.018527523
201	0x3dfd2606	0.12360768
202	0xbdff7e76	-0.124752924
203	0xb8295000	-4.0367246e-05
204	0xbdf360a2	-0.118836656
205	0xbd79199c	-0.06081544
206	0xbb860300	-0.004089713
207	0x3db3abf0	0.08773029
208	0xbd508600	-0.050909042
209	0x3ddc5f72	0.10760392
210	0x3cc60338	0.024171457
211	0xbb10df80	-0.0022105873
212	0x3dfef882	0.12449743
213	0xbd98bb82	-0.07457639
214	0xbcc85c58	-0.024458095
215	0x3d9f8740	0.07789469
216	0xbdb76894	-0.089554936
217	0xbdf46d4c	-0.11934909
218	0x3dc4c5ca	0.09608038
219	0xbdcdeafa	-0.10054584
220	0x3c0754e0	0.008259982
221	0x3de5d058	0.11221379
222	0x3d959ef8	0.073057115
223	0x3d2a30d8	0.041550487
224	0x3cbaa310	0.022782832
225	0xbd3aac84	-0.04557468
226	0xbc969b98	-0.01838474
227	0xbdec0d88	-0.115260184
228	0x3bdac4e0	0.0066763014
229	0x3d8a86f4	0.067640215
230	0x3db3955e	0.08768724
231	0xbd9d53ee	-0.07682024
232	0xbd5809a0	-0.052743554
233	0xbcac7ba0	-0.021055043
234	0x3c92eca0	0.017935097
235	0x3d4922b0	0.049105346
236	0xbbcadc00	-0.006190777
237	0xbcd466b0	-0.025927871
238	0xbdf741a2	-0.12073065
239	0xbde038bc	-0.10948321
240	0xbd371dc0	-0.044706106
241	0xbd2538d0	-0.040337384
242	0xbd08aa80	-0.033365726
243	0x3d293bbc	0.041316733
244	0xbdeca228	-0.11554366
245	0x3d995138	0.07486194
246	0xbd7bb65c	-0.06145321
247	0xbd7df938	-0.06200525
248	0x3d954cf8	0.07290071
249	0x3d216fec	0.039413378
250	0xbd7638d8	-0.060112804
251	0xbb7d9140	-0.0038691312
252	0xbc70d8e0	-0.0147001445
253	0xbbf227c0	-0.0073899925
254	0xbd4fad88	-0.0507026
255	0x3bc4aa20	0.006001726

conv1.nn.0.bias f4 [64]
0	0xbd66ea34	-0.056375697
1	0x3dd92904	0.10603526
2	0x3d1c8d50	0.038220704
3	0x3d779b2c	0.060450718
4	0x3e85ff90	0.2617154
5	0xbde589e4	-0.11207941
6	0x3db372c9	0.08762128
7	0x3d7dc984	0.06195976
8	0xbd39dd79	-0.04537723
9	0xbe36bbf2	-0.17845133
10	0x3d870754	0.065931946
11	0xbd892738	-0.066969335
12	0xbcc258b8	-0.023723945
13	0x3e13d121	0.14435245
14	0xbe2d5414	-0.16926605
15	0x3db87cbe	0.09008168
16	0x3d884438	0.06653637
17	0xbdc0855a	-0.09400435
18	0xbd2ad682	-0.041708477
19	0x3e63f5e5	0.2226177
20	0x3c1bab70	0.009501323
21	0x3e5a2ca3	0.2130609
22	0x3dc0a515	0.09406487
23	0xbcc85b45	-0.024457583
24	0xbdfe7067	-0.12423783
25	0x3cef071f	0.0291782
26	0x3d751d50	0.059842408
27	0xbdc13568	-0.094340146
28	0x3df72fb4	0.120696455
29	0xbddde09c	-0.108338565
30	0xbe178330	-0.14796138
31	0x3d340a2e	0.04395502
32	0x3d7ba0a1	0.061432485
33	0x3c4785b9	0.012177878
34	0xbdb60192	-0.08887018
35	0xbdb980e6	-0.090577886
36	0xbc081f89	-0.0083083
37	0x3dd440dd	0.10363934
38	0x3c9f8be0	0.019475877
39	0x3cd03448	0.025415555
40	0x3dd7a1f9	0.10528941
41	0x3deafc2c	0.11473879
42	0x3c82e4a0	0.015978158
43	0xbdc118e3	-0.09428575
44	0xbdba05c6	-0.090831324
45	0xbd8fd3fd	-0.070228554
46	0x3d946d15	0.07247368
47	0x3d22292f	0.039590057
48	0xbd22aad8	-0.03971371
49	0x3d78e5f8	0.06076619
50	0xbe1fa92e	-0.1559188
51	0xbda96712	-0.08271612
52	0xb7eb0000	-2.8014183e-05
53	0xbcaf38a8	-0.02138932
54	0x3d9a9638	0.07548183
55	0x3d4febdb	0.05076204
56	0xbdcbd63e	-0.09952973
57	0xbe138b67	-0.14408647
58	0x3db99f71	0.09063614
59	0x3d3939d0	0.04522115
60	0xbd41b5e7	-0.047292616
61	0x3d8cd840	0.06877184
62	0xbd16fad9	-0.03686032
63	0xbc347dbf	-0.011016308

conv1.nn.2.weight f4 [64, 64]
0	0x3d6d362c	0.05791299
1	0x3c227820	0.009916335
2	0x3c89c608	0.016818061
3	0xbddc0c88	-0.10744578
4	0xbda2683b	-0.07930037
5	0xbd784382	-0.060611255
6	0x3cbec047	0.023285044
7	0xbd4e4a04	-0.050363556
8	0xbc17af0a	-0.009258041
9	0x3d56803e	0.052368395
10	0x3d2573a0	0.04039347
11	0x3d37f378	0.044909924
12	0x3d81cb08	0.06337553
13	0xbe1585c2	-0.14601806
14	0xbcbd96eb	-0.023143252
15	0x3d8c64e2	0.06855179
16	0x3d844a6b	0.064595066
17	0xbc4b1b29	-0.012396612
18	0xbd282b15	-0.04105671
19	0x3d66aba4	0.056316033
20	0xbdfa07ba	-0.12208505
21	0xbcadb6b2	-0.02120528
22	0xbcf9485a	-0.030430008
23	0xbdae279e	-0.0850365
24	0x3c55f487	0.013058788
25	0x3e038fd1	0.1284783
26	0x3dcc9bd4	0.09990659
27	0xbdfb061b	-0.12257024
28	0xbd2e88fc	-0.042611107
29	0x3d242332	0.040072627
30	0x3d5c6e1e	0.053815953
31	0xbd9fb32e	-0.07797848
32	0xbdcec6d9	-0.10096521
33	0xbd272179	-0.040803406
34	0xbd913f70	-0.07092178
35	0x3d3bcbe3	0.04584874
36	0xbdd0c036	-0.10192911
37	0x3dfa7573	0.12229433
38	0x3dd1cef8	0.10244554
39	0xbde1992a	-0.11015542
40	0x3df5bea6	0.11999254
41	0x3d966734	0.07343903
42	0x3d56a5d8	0.052404255
43	0xbd924508	-0.07142073
44	0x3cd5b278	0.026086077
45	0x3d364767	0.04450169
46	0x3d26770c	0.040640876
47	0x3c855d98	0.01627998
48	0x3cf3f558	0.029780075
49	0xbcb02c26	-0.021505427
50	0xbdb8c24d	-0.09021435
51	0xbdc28b40	-0.09499216
52	0x3db64f48	0.089018404
53	0xbaeb4f00	-0.0017952621
54	0x3bcb14c9	0.006197546
55	0xbd88cbc3	-0.066794895
56	0x3d05fcac	0.03271167
57	0xbd9e16a2	-0.077191606
58	0x3d9769b6	0.0739321
59	0xbda5067a	-0.08057876
60	0xbdb70c9d	-0.08937953
61	0x3df60da6	0.12014322
62	0x3d14573c	0.036216006
63	0xbd811852	-0.06303467
64	0xbdc078f2	-0.093980685
65	0x3dbe11d8	0.09280747
66	0xbcfedad0	-0.031110197
67	0xbda5bd0e	-0.080927
68	0x3e009efa	0.12560645
69	0x3d710a15	0.058847506
70	0x3df90fe1	0.12161232
71	0xbda092bc	-0.07840487
72	0x3d905c58	0.07048863
73	0xbdc394ba	-0.09549852
74	0xbdb2ffdb	-0.08740207
75	0x3de670bc	0.11251971
76	0x3debf5e8	0.11521512
77	0x3c6abc50	0.014327124
78	0xbd2df7a6	-0.042472504
79	0x3d94004c	0.07226619
80	0x3dfae820	0.122513056
81	0x3d5b7921	0.053582314
82	0x3ca61050	0.02027145
83	0x3e0a11a6	0.13483295
84	0x3c382610	0.011239544
85	0x3d678291	0.056521002
86	0x3d0590c1	0.03260875
87	0xbd4fb164	-0.050706282
88	0x3d65e05f	0.05612218
89	0x3dd1f4ee	0.10251795
90	0xbdf5b208	-0.119968474
91	0x3db797d6	0.08964507
92	0xbd3ad9c8	-0.04561785
93	0xbe0313aa	-0.1280047
94	0xbdbd34a6	-0.092385575
95	0x3cb7d26f	0.02243921
96	0x3db371d0	0.087619424
97	0x3d49ebad	0.049297024
98	0x3d4353c1	0.047687296
99	0xbd8a74da	-0.06760569
100	0xbc5dd3c0	-0.013539255
101	0x3d4264ad	0.047459293
102	0x3df0e540	0.11762476
103	0xbc3e4572	-0.011613237
104	0xbc9bdf45	-0.019027362
105	0x3cacef28	0.021110132
106	0xbd5d6ecc	-0.054060742
107	0xbb0773df	-0.002066843
108	0x3d0d87c8	0.03455332
109	0xbda19c81	-0.07891179
110	0xbd239941	-0.039941076
111	0xbc8eaf18	-0.017417476
112	0xbbf2baa0	-0.0074075013
113	0xbc73f8fb	-0.014890905
114	0xbe1d2593	-0.15346365
115	0xbdbd2ef4	-0.09237471
116	0xbbc531c0	-0.0060178936
117	0xbcd7d218	-0.026345298
118	0xbd874a74	-0.06605998
119	0x3db46e57	0.08810108
120	0xbd8a5d40	-0.06756067
121	0x3d6ea4b5	0.058262546
122	0x3dd1c30c	0.1024228
123	0x3d9bcb1e	0.07607101
124	0x3da6ec17	0.08150499
125	0x3d81544b	0.06314906
126	0xbdb5d162	-0.08877827
127	0x3d05965c	0.032614097
128	0xbcf6b5e8	-0.030116037
129	0x3cd116e8	0.025523618
130	0xbce0dda0	-0.027449429
131	0x3c62aa00	0.0138344765
132	0x3cb01d61	0.021498384
133	0x3d9fdf30	0.078062415
134	0xbc56237a	-0.013069982
135	0xbd08d560	-0.033406615
136	0xbd5cfbf5	-0.053951222
137	0xbcf428ea	-0.029804666
138	0xbd423650	-0.047415078
139	0x3dd264b2	0.10273112
140	0xbd859dd2	-0.065242425
141	0x3d7bb154	0.06144841
142	0xbe0b2184	-0.13587004
143	0x3bed9460	0.0072503537
144	0xbd805b46	-0.06267409
145	0xbdf936a9	-0.12168629
146	0x3d1e4cd8	0.038647503
147	0xbdad08b6	-0.08448927
148	0xbcacbf90	-0.021087438
149	0xbda52a55	-0.08064715
150	0x3d8d8526	0.06910162
151	0xbd38c9c4	-0.045114294
152	0xbdb21b1a	-0.086965755
153	0xbdbd6f22	-0.092497125
154	0xbdc620a4	-0.096741945
155	0x3bf63a60	0.007514283
156	0x3c5b5100	0.013386011
157	0xbdadb858	-0.084824264
158	0xbd51aec8	-0.051192075
159	0x3d4a5568	0.049397856
160	0x3d019730	0.031638324
161	0xbd9249d6	-0.07142989
162	0xbd769cf8	-0.06020829
163	0xbab3ffb3	-0.001373282
164	0x3dffd73e	0.12492226
165	0x3da2700c	0.079315275
166	0xbcfd6a28	-0.030934408
167	0x3dcd5430	0.10025823
168	0xbdf970ac	-0.121796936
169	0x3dd0c53c	0.101938695
170	0x3cc845f0	0.024447411
171	0xbccd482d	-0.02505883
172	0xbd44acf0	-0.04801649
173	0xbd8a724a	-0.0676008
174	0x3df3b04c	0.1189886
175	0x3d41da04	0.047327057
176	0xbc5d14a0	-0.013493687
177	0x3d8bb4a2	0.06821562
178	0xbde282fc	-0.110601395
179	0x3dfd42b6	0.1236624
180	0x3d41c49c	0.047306642
181	0x3df2e9d6	0.11861007
182	0xbd7e9a90	-0.06215912
183	0xbcfb4098	-0.03067045
184	0x3d16d4fc	0.03682421
185	0x3cbb12b8	0.022836074
186	0xbdde1592	-0.10843958
187	0x3db36fea	0.0876158
188	0x3d06df00	0.032927513
189	0x3b952520	0.004551545
190	0x3c9b6dc8	0.018973246
191	0x3d6bb5bc	0.057546362
192	0x3d4cd4fc	0.050007805
193	0x3da83bf6	0.08214562
194	0x3cd3a668	0.025836185
195	0xbdd7f66e	-0.105450496
196	0x3e001364	0.12507397
197	0x3cb67d43	0.022276526
198	0x3dba07d2	0.09083523
199	0xba0f2700	-0.00054608285
200	0x3b829952	0.0039855624
201	0xbd2c830f	-0.042117175
202	0x3dd6f6fd	0.10496328
203	0xbde2c527	-0.1107276
204	0x3d87cf94	0.06631389
205	0xbdba543e	-0.09098099
206	0x3dc53251	0.09628738
207	0xbcee045c	-0.029054813
208	0xbdf0252d	-0.11725841
209	0x3d47911f	0.048722383
210	0xbdbe4e22	-0.092922464
211	0xbdff2564	-0.124583036
212	0xbd7c6a40	-0.061624765
213	0xbab5957e	-0.0013853756
214	0x3d989826	0.07450895
215	0xbca57532	-0.020197485
216	0xbdddb6bd	-0.1082587
217	0x3c63eb0c	0.01391102
218	0x3db76fbc	0.089568585
219	0x3dbc383c	0.09190413
220	0xbdeac76c	-0.11463818
221	0xbdc1b49f	-0.09458279
222	0x3d5ef304	0.054430977
223	0xbd9910bd	-0.07473896
224	0xbdd4d641	-0.10392428
225	0xbcc30715	-0.023807088
226	0xbb571f04	-0.0032824883
227	0x3de2922f	0.110630386
228	0x3bf0142b	0.007326623
229	0x3d6c7902	0.05773259
230	0xbd0a098c	-0.03370051
231	0x3dea8904	0.11451915
232	0x3deda13e	0.1160302
233	0x3d0e288c	0.034706637
234	0xbdcaa414	-0.09894577
235	0x3bf8c77d	0.00759214
236	0x3d26f34c	0.04075937
237	0x3de054ae	0.10953651
238	0xbd7baef5	-0.06144615
239	0x3db90d34	0.090357214
240	0xbd07ddfc	-0.033170685
241	0x3d1dbca8	0.038509995
242	0xbdf1eb01	-0.118124016
243	0xbde20688	-0.11036402
244	0xbd2cea24	-0.04221548
245	0xbc59bc70	-0.013289556
246	0x3df8006f	0.12109458
247	0x3dca57cd	0.09880028
248	0xbd951cdc	-0.07280895
249	0x3d3bb20a	0.04582409
250	0x3dde01b0	0.108401656
251	0x3c93dbd8	0.018049166
252	0x3d547545	0.05186965
253	0x3d347952	0.044061013
254	0xbd491d81	-0.049100403
255	0xbd601ad0	-0.05471307

conv1.nn.2.bias f4 [64]
0	0xbd019fc5	-0.03164651
1	0x3eb757f4	0.3580929
2	0xbdc37d5f	-0.09545397
3	0x3de04951	0.10951484
4	0x3dd40b2b	0.103536926
5	0xbd5a9521	-0.053364877
6	0x3d4ba294	0.049715593
7	0xbca58aa1	-0.020207705
8	0x3bb89dec	0.00563406
9	0xbd658bac	-0.056041405
10	0x3cdd43ea	0.027009923
11	0x3d5560b9	0.052094195
12	0x3d39da87	0.04537442
13	0xbcbe3851	-0.023220213
14	0x3dc83ea1	0.097775705
15	0x3c6bb43b	0.014386232
16	0x3d8ad2e8	0.067785084
17	0x3d2bf658	0.04198298
18	0x3cc1385d	0.023586446
19	0x3a76f300	0.0009420365
20	0xbdfe7ec8	-0.12426525
21	0xbcbfaaff	-0.023396967
22	0xbe012fcb	-0.12615888
23	0x3def1683	0.11674216
24	0xbd5f3397	-0.05449256
25	0xbe36415a	-0.17798367
26	0x3d9292f8	0.07156938
27	0x3db08b2c	0.08620295
28	0xbdaf3238	-0.085545
29	0xbd22e1f0	-0.039766252
30	0xbdd60226	-0.104496285
31	0x3d5ed0ac	0.054398224
32	0xbea14f0d	-0.31505623
33	0x3d43a032	0.047760196
34	0x3d0d4809	0.034492526
35	0xbd9c5e9c	-0.07635233
36	0xbe003bdf	-0.12522839
37	0xbdbeb0d8	-0.09311074
38	0x3da8ef12	0.08248724
39	0x3dd2b5ae	0.10288559
40	0xbdbbbe7a	-0.0916719
41	0x3d10043f	0.0351603
42	0xbd6425cb	-0.055700105
43	0xbc41c1c6	-0.011825984
44	0xbd11ba28	-0.035577923
45	0xbd37771d	-0.04479133
46	0xbdcd5b26	-0.10027151
47	0x3d94bbdf	0.07262396
48	0x3db63022	0.08895899
49	0xbd25dc24	-0.040493146
50	0x3d3149b1	0.04328317
51	0xbd07b102	-0.033127792
52	0xbdbe8cc3	-0.09304192
53	0x3c282e40	0.010264933
54	0xbdf6ae69	-0.12044985
55	0xbd4e30bc	-0.050339445
56	0xbe2020ac	-0.15637463
57	0x3dfc2fd3	0.12313809
58	0xbdadf514	-0.084940106
59	0xbe2289ee	-0.15872929
60	0xbaec94e8	-0.0018049749
61	0xbd3fa1b9	-0.04678509
62	0xbcaa156f	-0.020762173
63	0xbde47083	-0.111542724

conv1.lin.weight f4 [64, 7]
0	0xbe942bca	-0.28939658
1	0x3e694dcb	0.22783582
2	0x3e162886	0.14663896
3	0x3d171f46	0.03689506
4	0x3eb2e0d3	0.34937152
5	0xbeab2ebd	-0.33434096
6	0x3ea68c95	0.3252913
7	0xbeb010d6	-0.34387845
8	0xbeada5f8	-0.33915687
9	0xbe1ec00e	-0.1550295
10	0xbca6c5b4	-0.020357944
11	0xbe7afe22	-0.24511006
12	0x3e9ed974	0.3102528
13	0x3d529307	0.051409747
14	0xbebab64f	-0.36467215
15	0x3e490f4d	0.19634743
16	0xbccdf038	-0.02513896
17	0xbc950205	-0.01818944
18	0x3d970b85	0.07375244
19	0x3ea6b5b9	0.32560518
20	0x3e067b8e	0.1313307
21	0x3dd4416c	0.10364041
22	0xbd95342b	-0.07285341
23	0x3e4554b0	0.19270587
24	0xbe0a940a	-0.13533035
25	0xbea4d6ec	-0.32195222
26	0xbe442838	-0.19155967
27	0xbe8db5cf	-0.2767777
28	0x3e939c88	0.2883036
29	0x3e996b1c	0.2996453
30	0x3ea74f24	0.32677567
31	0xbe8c2714	-0.27373564
32	0x3e967277	0.29384205
33	0x3e03d714	0.12875015
34	0xbedf742d	-0.43643323
35	0x3d820675	0.06348888
36	0x3da0a34a	0.07843645
37	0xbdb8458e	-0.089976415
38	0xbdcd4387	-0.100226454
39	0xbe8fa89e	-0.28058332
40	0xbe70103b	-0.23443691
41	0xbcb98dd1	-0.022650631
42	0xbe638820	-0.22219896
43	0x3e9212e2	0.2853003
44	0xbe9e5919	-0.3092735
45	0x3e3f6688	0.18691456
46	0x3e1f139d	0.15534826
47	0xbd564e9a	-0.052321054
48	0x3eac0500	0.33597565
49	0xbe2c6c69	-0.1683823
50	0xbedabce2	-0.4272223
51	0xbec9825b	-0.39357266
52	0x3cc22c66	0.023702811
53	0x3df7b9b0	0.12095964
54	0xbea4daba	-0.32198125
55	0x3e3a236b	0.18177573
56	0x3f3f8c40	0.7482338
57	0x3f17bc32	0.5927154
58	0x3f21d73f	0.63219064
59	0x3e5042aa	0.2033793
60	0xbe0deee8	-0.13860667
61	0x3c90bc7a	0.017667998
62	0xbe8f12b7	-0.27943966
63	0x3e4b7bd1	0.19871451
64	0xbc84275c	-0.01613205
65	0xbe982c81	-0.29721454
66	0xbeaa22ce	-0.3322968
67	0xbdf51be7	-0.119682126
68	0xbde9704a	-0.113983706
69	0xbe4ac308	-0.19800961
70	0x3ee2e6c9	0.443167
71	0x3f07d5a8	0.5306039
72	0x3ee25e21	0.4421244
73	0xbd539129	-0.051652107
74	0x3eaaadef	0.33335826
75	0xbe647174	-0.22308904
76	0xbd29afd5	-0.041427452
77	0xbe1b24fb	-0.15150826
78	0xbea995c4	-0.33122075
79	0xbdc0f384	-0.09421447
80	0xbe96334a	-0.29336005
81	0x3dcd9f6b	0.10040172
82	0x3cce4932	0.025181387
83	0xbe27f7f1	-0.16403176
84	0xbcfeb0e8	-0.031090215
85	0xbf0067cc	-0.5015838
86	0x3cd3446d	0.025789464
87	0xbecbb3b9	-0.39785555
88	0x3e84c188	0.25928903
89	0xbee3c333	-0.44484863
90	0xbdbf9b36	-0.09355776
91	0x3e980666	0.29692382
92	0x3e0bb318	0.13642538
93	0x3e0c815e	0.13721225
94	0x3e939f63	0.2883254
95	0xbdc1b5dc	-0.09458515
96	0xbc3d409f	-0.011551051
97	0x3c5e9d4b	0.013587306
98	0x3dd6cfd2	0.10488857
99	0x3cd7d0dd	0.026344711
100	0x3de2f83e	0.11082505
101	0x3e644ee1	0.22295715
102	0xbe2ade4d	-0.16686364
103	0xbe3f1aa8	-0.18662512
104	0xbc7889f9	-0.015169614
105	0xbecfffe2	-0.4062491
106	0xbd859e7e	-0.065243706
107	0x3c508df8	0.0127291605
108	0x3e838adc	0.2569188
109	0x3c8fa4f0	0.017534703
110	0xbdf29fde	-0.118468985
111	0x3ea62c78	0.32455802
112	0xbd7955af	-0.06087273
113	0x3f166095	0.5874112
114	0x3e47fd1c	0.19530147
115	0xbeae2c88	-0.3401835
116	0xbeb7a5d1	-0.35868695
117	0xbe4ef9a1	-0.20212413
118	0xbd298443	-0.0413859
119	0x3d8fe5ec	0.07026276
120	0x3d4fbca4	0.05071701
121	0xbef22105	-0.47290817
122	0xbcdc8602	-0.026919369
123	0xbe61e576	-0.22060189
124	0x3e4e730b	0.20161073
125	0xbcc2c4f1	-0.02377555
126	0xbe257c3d	-0.16160674
127	0xbe0be975	-0.13663276
128	0xbe8fc545	-0.28080192
129	0x3e098e10	0.13433099
130	0x3d673912	0.05645091
131	0xbe9047af	-0.2817969
132	0xbdce7a8c	-0.10081968
133	0xbea587a8	-0.3233006
134	0x3a55c941	0.00081552943
135	0x3e184b61	0.14872505
136	0x3e617fa9	0.22021355
137	0xbe0f87ad	-0.140166
138	0xbe631886	-0.22177324
139	0x3eac48ea	0.3364938
140	0xbe93a5ed	-0.2883753
141	0x3cbc2eb1	0.022971483
142	0xbe34cf6b	-0.17657249
143	0xbe246e01	-0.16057588
144	0xbe8c00aa	-0.27344257
145	0xbe803707	-0.25041983
146	0x3e006583	0.12538724
147	0xbc2d0405	-0.01056004
148	0xbf25fdcf	-0.64840406
149	0x3ebc7ba8	0.36813092
150	0xbe8e05d5	-0.27738824
151	0x3e0191e5	0.1265331
152	0x3eb8b9ff	0.36079404
153	0xbe03fc8c	-0.12889308
154	0x3ea4cd83	0.32188043
155	0xbd30500b	-0.043045085
156	0xba76a235	-0.0009408326
157	0x3e9329c6	0.28742808
158	0x3eb7f56d	0.35929433
159	0xbe0e0681	-0.13869669
160	0xbeae5a08	-0.34053063
161	0x3f3237a9	0.6961618
162	0x3ed09188	0.40736032
163	0x3c021692	0.0079399515
164	0x3e6c86de	0.23098323
165	0x3e0b0780	0.1357708
166	0xbede6f21	-0.4344416
167	0xbe3a6c20	-0.18205309
168	0x3d570cf2	0.05250258
169	0x3e3e3832	0.18576124
170	0xbdf24b92	-0.1183082
171	0x3d35607b	0.044281464
172	0x3d6aacd7	0.05729374
173	0x3e449f08	0.1920129
174	0x3e0ae895	0.13565286
175	0x3eb7b23e	0.35878175
176	0x3e41c214	0.18921691
177	0x3e0c8473	0.137224
178	0x3d8b355e	0.06797288
179	0x3dc9ca36	0.09853022
180	0x3d74c24f	0.05975562
181	0x3edd98dc	0.43280685
182	0x3d986192	0.07440485
183	0xbe4c26e8	-0.19936717
184	0x3d9d6af9	0.07686419
185	0xbe0bafae	-0.13641235
186	0xbe68bcbf	-0.22728251
187	0x3e530e54	0.20610934
188	0x3e565cca	0.20933834
189	0x3e6bd34b	0.2302982
190	0xbcb4ea85	-0.022084484
191	0x3e48ef0a	0.19622436
192	0xbe6460ab	-0.22302501
193	0xbecc0356	-0.39846295
194	0x3da6f79e	0.08152698
195	0x3e1ad4df	0.15120266
196	0xbdc2fae2	-0.09520508
197	0xbe9e5a75	-0.30928388
198	0xbec3fdc0	-0.38279533
199	0xbeb73964	-0.35785973
200	0xbd41b4d4	-0.04729159
201	0xbe42b24c	-0.19013327
202	0xbe04aba4	-0.129561
203	0xbec5fd97	-0.38670036
204	0xbe529bf6	-0.20567307
205	0xbe9d70f1	-0.3075023
206	0x3e387d57	0.18016563
207	0xbebd004f	-0.36914298
208	0xbc04996c	-0.008093219
209	0x3d8678ce	0.065660104
210	0x3e145ade	0.14487788
211	0xbecdeaa2	-0.40218073
212	0x3e6f9077	0.23394953
213	0x3de175e4	0.11008814
214	0x3e0ee592	0.13954762
215	0xbe995413	-0.29946956
216	0x3dc7d0a5	0.09756593
217	0x3e369bf8	0.17832935
218	0xbcae8db3	-0.021307802
219	0x3dc0648d	0.093941785
220	0x3e6259fe	0.22104642
221	0x3cb57785	0.022151718
222	0x3d8459de	0.06462453
223	0xbe05786d	-0.1303422
224	0xbe09df85	-0.13464172
225	0xbeccaded	-0.39976445
226	0xbf09f807	-0.53894085
227	0x3e849d3d	0.25901213
228	0xbbd86afd	-0.006604551
229	0x3e0b61d3	0.13611536
230	0xbd9e7015	-0.07736222
231	0xbe8e2cf2	-0.27768666
232	0xbe6ec7d7	-0.2331842
233	0x3eb8280a	0.35968047
234	0x3db6542e	0.08902775
235	0x3eac0af9	0.3360212
236	0xbe3215a3	-0.17391066
237	0xbd54e3f9	-0.051975224
238	0xbe8dbaae	-0.27681488
239	0xbd9c336a	-0.07626994
240	0x3e1e43c2	0.15455535
241	0xbe9d189e	-0.30682844
242	0x3cd8c01d	0.026458794
243	0x3ea6ae2b	0.32554755
244	0xbe59bdc3	-0.21263795
245	0xbf1e4404	-0.61822534
246	0x3e04f646	0.12984571
247	0x3cef1129	0.029182987
248	0xbdabe74c	-0.08393726
249	0xbec0b7e5	-0.376403
250	0xbd3fbd1f	-0.04681122
251	0x3e88a16d	0.26685658
252	0x3dd821cd	0.10553322
253	0x3e3d52ae	0.18488571
254	0x3ed0882e	0.40728897
255	0xbe99586b	-0.2995027

conv1.lin.bias f4 [64]
0	0xbe4669ce	-0.19376299
1	0x3ea3685f	0.31915566
2	0xbe54cd9c	-0.20781559
3	0x3eb15db3	0.346418
4	0xbdab7ace	-0.083730325
5	0x3e86ccc5	0.26328102
6	0x3dc7d551	0.09757484
7	0x3e1d2f31	0.15350033
8	0x3e717549	0.23579897
9	0x3d88e263	0.06683805
10	0x3cb0cdab	0.021582445
11	0x3eb33d91	0.3500791
12	0x3de2d110	0.11075032
13	0x3e76b0d5	0.24090894
14	0x3c502cfd	0.012706039
15	0xbceb73d8	-0.028741762
16	0x3e927050	0.28601313
17	0x3d888b6a	0.06667216
18	0x3dbdea33	0.092731856
19	0xbe5fdb75	-0.2186106
20	0xbe830c66	-0.25595397
21	0x3e755664	0.23958737
22	0xbe93be79	-0.28856257
23	0x3eec2bce	0.4612717
24	0x3e82b893	0.25531444
25	0x3d2db0ec	0.042405054
26	0xbd381fe7	-0.0449523
27	0x3e15f7e5	0.14645346
28	0x3e844790	0.25835848
29	0x3e7299f5	0.23691542
30	0x3e6a603a	0.2288827
31	0xbe6d2e50	-0.23162198
32	0xbe221cab	-0.15831248
33	0x3e920117	0.28516456
34	0xbeba440b	-0.36380038
35	0x3e8738cd	0.26410523
36	0xbe36997c	-0.17831987
37	0x3e43ebed	0.19132967
38	0xbe5b508e	-0.21417448
39	0xbe20d90a	-0.15707794
40	0x3e8f81cd	0.28028718
41	0xbe6f7936	-0.23386082
42	0xbe267c71	-0.16258408
43	0x3e9c06fd	0.30474082
44	0x3e5e69ed	0.21720095
45	0xbe6d3964	-0.23166424
46	0x3c2bc51d	0.010484007
47	0xbeac5409	-0.33657864
48	0xbeac5442	-0.33658034
49	0xbeb978ca	-0.36224967
50	0xbe522317	-0.20521198
51	0xbea2cbf8	-0.3179624
52	0x3e485f3c	0.19567579
53	0x3c356b56	0.011072954
54	0xbe0dfab7	-0.13865171
55	0xbea9cb65	-0.3316299
56	0xbe893b88	-0.2680323
57	0x3e950f5d	0.29113284
58	0x3d2ffdd6	0.042966686
59	0xbe563c0e	-0.20921347
60	0x3ee01f70	0.43773985
61	0xbd10f4ff	-0.035389896
62	0x3c8a20f6	0.01686142
63	0x3d06d2a0	0.03291571

conv2.nn.0.weight f4 [64, 64]
0	0xbd0fb1b9	-0.0350816
1	0x3e065b57	0.13120781
2	0xbdc16654	-0.09443346
3	0xbd0fd4cf	-0.03511506
4	0xbd7c6a3c	-0.06162475
5	0xbe5a77d9	-0.21334781
6	0x3cfca8d2	0.030842219
7	0xbdd677cf	-0.104720704
8	0xbe36e102	-0.17859271
9	0xbe042e9e	-0.12908408
10	0x3dd40c50	0.10353911
11	0xbd43b2ae	-0.047777824
12	0x3dea91a9	0.11453564
13	0xbde47746	-0.11155562
14	0xbd96be9c	-0.073605746
15	0x3a4d0291	0.0007820512
16	0xbda7d5e0	-0.0819509
17	0xbd0e6b72	-0.034770437
18	0xbdb5cfe3	-0.08877542
19	0xbaff314f	-0.0019469651
20	0x3caf3289	0.021386402
21	0xbdc6490c	-0.09681901
22	0xbe2d54cc	-0.16926879
23	0xbd93aa13	-0.072101735
24	0x3d08c89f	0.033394452
25	0x3da437c3	0.08018448
26	0xbd739993	-0.05947263
27	0xbd5a4bb3	-0.05329485
28	0xbda30742	-0.07960369
29	0x3bbc1457	0.0057397294
30	0xbe9621b6	-0.29322594
31	0xbe335408	-0.17512524
32	0xbd7a77b8	-0.06114933
33	0x3d021247	0.031755712
34	0x3d66f34e	0.056384377
35	0x3cafb55a	0.02144878
36	0xbdffbfe5	-0.12487773
37	0x3cc3eae8	0.023915723
38	0xbdbfb6fb	-0.09361073
39	0xbb8d2a1e	-0.0043079993
40	0xbcd05857	-0.025432749
41	0x3d5f4b3d	0.054515112
42	0x3d9478ba	0.07249589
43	0x3b2504c0	0.0025179833
44	0xbe2d317b	-0.16913407
45	0xbe91c30a	-0.28469115
46	0x3e1e2737	0.15444647
47	0xbd8952c2	-0.06705238
48	0x3e6354d0	0.22200322
49	0xbde8080f	-0.11329662
50	0x3e21d7ce	0.15804979
51	0x3d416461	0.04721487
52	0xbcc618b7	-0.024181707
53	0x3d53a2c2	0.05166889
54	0x3be72c45	0.007054838
55	0x3dda9dfe	0.10674666
56	0x3e644e65	0.2229553
57	0xbdec0dfa	-0.11526103
58	0x3cdae8a9	0.02672227
59	0xbdac7bcd	-0.084220506
60	0x3dc9f92b	0.09861978
61	0x3cf74255	0.030182997
62	0xbd8e61e9	-0.06952269
63	0x3cc8d40e	0.024515178
64	0x3d928b8f	0.07155525
65	0x3ca1127d	0.019662136
66	0xbdc7ca64	-0.097554
67	0x3d8a6bae	0.067588195
68	0x3c2a1bbe	0.010382591
69	0xbe462e1c	-0.19353527
70	0xbcb885ac	-0.022524677
71	0x3de2733f	0.11057138
72	0xbb368de5	-0.0027855572
73	0xbc32f2c2	-0.010922136
74	0xbc669078	-0.01407253
75	0xbd87a0c3	-0.0662246
76	0x3e8dfbb8	0.2773111
77	0xbeb24836	-0.34820718
78	0x3e9970a9	0.29968765
79	0xbd4293a1	-0.04750407
80	0x3dba7305	0.091039695
81	0x3e3c14fb	0.18367378
82	0x3d6c54ee	0.057698183
83	0xbea48b5a	-0.32137567
84	0xbd1fd044	-0.039016977
85	0xbdcf059f	-0.10108494
86	0xbdd83650	-0.10557234
87	0xbb335800	-0.0027365685
88	0x3a8ed2f9	0.0010896615
89	0xbd6b0a3e	-0.057382815
90	0xbe80ac75	-0.25131574
91	0x3d05643b	0.03256629
92	0xbe0a2d75	-0.13493903
93	0x3d8a7e8c	0.06762418
94	0xbd834c01	-0.06410981
95	0x3ccadcd3	0.0247635
96	0xbd32c000	-0.043640137
97	0xbd29a179	-0.041413758
98	0x3d009a51	0.031397168
99	0xbdf7cd52	-0.120997086
100	0xbb42df42	-0.0029735123
101	0x3da3dc78	0.080010355
102	0x3d6a2ed6	0.057173572
103	0x3c3f5bc0	0.01167959
104	0x3c613853	0.013746339
105	0x3c8eae18	0.017416999
106	0xbdc3ea98	-0.095662296
107	0xbd22419a	-0.039613344
108	0x3c12a5a8	0.008950628
109	0xbc9fc577	-0.019503338
110	0xbd8ac87a	-0.06776519
111	0x3dd59047	0.10427909
112	0x3f34b366	0.7058624
113	0x3ca92379	0.020646797
114	0xbd9536e7	-0.072858624
115	0xbcdf63dc	-0.027269296
116	0x3c1e3195	0.009655376
117	0xbe0a6695	-0.13515694
118	0xbdc6762c	-0.09690508
119	0xbcad0094	-0.02111844
120	0xbda4c887	-0.0804606
121	0x3d9b0b6e	0.075705394
122	0x3de33954	0.11094919
123	0xbd835213	-0.06412139
124	0xbe017e9d	-0.12645955
125	0x3d6f8c87	0.058483627
126	0xbda6aaf3	-0.08138075
127	0xbc1fcc15	-0.009753247
128	0x3a9f96c3	0.0012175668
129	0x3d1f5f85	0.038909454
130	0xbccc2f42	-0.024924878
131	0xbe34534f	-0.17609905
132	0xbde57ef1	-0.11205853
133	0xbaa7a92e	-0.0012791508
134	0xbe182ac8	-0.1486007
135	0xbe329545	-0.17439754
136	0x3bfbd534	0.007685328
137	0xbd297ede	-0.041380756
138	0x3b5886b1	0.0033039267
139	0xbd6ddf67	-0.05807438
140	0xbd87c5ae	-0.06629501
141	0xbd5689f9	-0.052377675
142	0xbd7dd4ba	-0.06197045
143	0x3ca8a9f8	0.02058886
144	0x3d902680	0.07038593
145	0xbdce57e9	-0.10075361
146	0xbd809e36	-0.06280176
147	0xbcc3db37	-0.02390824
148	0xbd904241	-0.07043887
149	0x3d388eb8	0.045057982
150	0xbe382cc8	-0.17985833
151	0x3cedf649	0.029048102
152	0xbdf75531	-0.12076796
153	0x3d11a892	0.03556115
154	0xbc8d7438	-0.017267331
155	0xbd9ff2ba	-0.07809968
156	0xbcc0bf87	-0.023528827
157	0xbd76074b	-0.06006555
158	0x3cc84685	0.024447689
159	0xbd3efdb0	-0.046628654
160	0x3c3fa04e	0.011695934
161	0xbc30687c	-0.0107670985
162	0xbd8951d3	-0.0670506
163	0xbd88512d	-0.06656108
164	0xbc8980fe	-0.016785141
165	0xbdaa5860	-0.083176374
166	0xbe06e346	-0.13172635
167	0x3d632483	0.055454742
168	0x3ca14bdb	0.019689491
169	0x3c710e5f	0.014712899
170	0xbd2a4055	-0.041565258
171	0xbd39e48c	-0.045383975
172	0xbe17348a	-0.14766136
173	0x3c7ffb5d	0.0156238945
174	0xbd94a709	-0.07258422
175	0x3ce7ed29	0.028311329
176	0x3d0ead15	0.034833033
177	0xbdd0817c	-0.10180947
178	0xbd893eca	-0.06701429
179	0xbc7875c0	-0.015164793
180	0x3b88b74a	0.0041722404
181	0xbe43d375	-0.19123633
182	0xbdeeb885	-0.11656288
183	0xbe1c108f	-0.15240692
184	0xbd56d914	-0.052453116
185	0xbe0e4234	-0.13892442
186	0x3dc7889c	0.09742853
187	0x3c4eaa91	0.012613908
188	0xbda5279b	-0.08064195
189	0xbdb5267d	-0.08845232
190	0xbd92d7a6	-0.07170038
191	0xbd5c6e1c	-0.053815946
192	0xbe53053d	-0.20607467
193	0x3d838d91	0.06423486
194	0x3c71cefb	0.014758821
195	0xbdcff4bb	-0.101541005
196	0x3cb4a757	0.02205245
197	0xbdec4ac2	-0.115376964
198	0xbe022ce1	-0.12712432
199	0xbdfcd97c	-0.12346169
200	0xbde20843	-0.11036732
201	0xbdd0b4db	-0.101907454
202	0xbddadabb	-0.10686251
203	0xbdbb5018	-0.09146136
204	0xbd1355c5	-0.035970468
205	0xbd58bce2	-0.052914508
206	0x3cec0fb6	0.028816085
207	0xbd950804	-0.072769195
208	0xbde3f78f	-0.111312024
209	0xbe5638b9	-0.20920075
210	0x3c05ac6a	0.0081587825
211	0xbd263075	-0.040573556
212	0xbd51f99a	-0.05126343
213	0xbdc0fcf5	-0.09423248
214	0xbcb3aac2	-0.02193201
215	0x3d1218bc	0.03566812
216	0xbde07951	-0.10960639
217	0x3cb3abcf	0.02193251
218	0x3ca3d6d2	0.019999895
219	0x3de76a5a	0.11299582
220	0xbdf6d702	-0.12052728
221	0xbe0703ee	-0.13185093
222	0xbe244c07	-0.16044627
223	0xbddf7493	-0.10910907
224	0xbde1196d	-0.10991178
225	0xbd927341	-0.07150889
226	0xbd8f7915	-0.070055164
227	0xbd04405d	-0.032287944
228	0x3daff546	0.08591704
229	0x3d2fd868	0.04293099
230	0xbd469ece	-0.04849129
231	0x3d1e94d8	0.038716167
232	0x3d819b84	0.063284904
233	0xbd888c7b	-0.066674195
234	0x3c589366	0.013218736
235	0xbcbdde6a	-0.023177344
236	0xbd15755b	-0.036488872
237	0xbdef5c9e	-0.11687587
238	0xbc9df376	-0.01928113
239	0x3d9629a8	0.07332164
240	0xbecb86f6	-0.39751405
241	0xbe066133	-0.13123016
242	0x3d025aa3	0.03182472
243	0x3c51d22b	0.012806456
244	0xbc267b7e	-0.010161279
245	0xbdcb547a	-0.09928222
246	0xbf109009	-0.5646978
247	0x3c818ef0	0.015815228
248	0xbe0e57d9	-0.13900699
249	0x3d235c59	0.03988299
250	0x3d0f3f0b	0.03497223
251	0xbdbad7b0	-0.091231704
252	0xbdb3fea8	-0.08788806
253	0x3ccda4c1	0.025102975
254	0x3db7e3ae	0.08978973
255	0xbcfb9f80	-0.030715704

conv2.nn.0.bias f4 [64]
0	0x3e64fed3	0.22362833
1	0x3e287350	0.16450238
2	0xbe068d4e	-0.13139841
3	0xbdf001d5	-0.117190994
4	0xbda7616a	-0.08172877
5	0x3dbca23b	0.092106305
6	0x3efca1cc	0.4934219
7	0xbd90f65d	-0.0707824
8	0xbe989a49	-0.2980521
9	0xba2db5b2	-0.0006626501
10	0xbe12bba1	-0.14329387
11	0xbc8190bf	-0.01581609
12	0xbcb94cda	-0.022619653
13	0xbf096127	-0.5366387
14	0xbdd25442	-0.10269977
15	0xbdc1dc8c	-0.09465894
16	0xbe35bd5c	-0.17748016
17	0x3c5f0676	0.01361238
18	0xbe9e870a	-0.30962402
19	0x3ce7074d	0.028201723
20	0xbd9540c0	-0.07287741
21	0xbdfe5caf	-0.12420022
22	0x3f083336	0.5320314
23	0xbdfb8970	-0.122820735
24	0xbde6e1ff	-0.11273574
25	0x3e54fafa	0.20798865
26	0xbc7d3167	-0.015453673
27	0xbdcd345c	-0.100197524
28	0x3de6616e	0.11249052
29	0x3e21285c	0.15738052
30	0x3ea2aa54	0.31770575
31	0xbdb2e83c	-0.087357014
32	0xbcfd9fc1	-0.030959966
33	0x3dccb41c	0.09995291
34	0xbe53624b	-0.20642965
35	0x3da341a3	0.079715036
36	0x3f0f132d	0.55888635
37	0xbc05bf71	-0.008163319
38	0xbd27cf00	-0.040968895
39	0x3eda043c	0.42581356
40	0x3e67f1cd	0.22650833
41	0x3ed4a2aa	0.41530353
42	0xbe4c13a1	-0.19929363
43	0xbd5e28bb	-0.054238062
44	0x3ea9c22a	0.33155948
45	0xbd44995b	-0.047997814
46	0xbe4eba33	-0.20188217
47	0x3cd284a8	0.025698021
48	0x3eb91005	0.36145034
49	0x3d52bfda	0.051452495
50	0xbe0e9383	-0.13923459
51	0xbe3a17a9	-0.18173088
52	0x3cddbadc	0.02706664
53	0xbdd3e1ed	-0.10345826
54	0xbdd7975e	-0.10526918
55	0xbcfeb060	-0.031089962
56	0x3ca240b1	0.019806238
57	0x3deffe6a	0.117184475
58	0xbd921753	-0.07133355
59	0x3f051ab7	0.5199389
60	0xbe8a299d	-0.26984873
61	0x3e02d345	0.12775905
62	0xbb903e8c	-0.0044019874
63	0x3e855104	0.26038373

conv2.nn.2.weight f4 [64, 64]
0	0x3dd6d94c	0.10490665
1	0xbdf4b3cb	-0.11948355
2	0xbd9aecb4	-0.07564679
3	0x3d5b8a5d	0.05359875
4	0x3d94ec86	0.07271676
5	0xbe97ffdf	-0.29687402
6	0x3ecc8acc	0.39949644
7	0x3ddb1e54	0.10699144
8	0xbde25329	-0.11051018
9	0xbdbd4e62	-0.09243466
10	0x3dcdcfd6	0.10049407
11	0xbe07e92c	-0.13272542
12	0xbdd99cff	-0.10625648
13	0x3d904052	0.07043518
14	0xbc9ef44c	-0.0194036
15	0x3c38af99	0.0112723345
16	0x3d1a6fc9	0.037704263
17	0xbd75b04f	-0.059982594
18	0xbdfc9763	-0.12333562
19	0x3db73974	0.08946505
20	0x3be7db05	0.0070756697
21	0xbd157c31	-0.03649539
22	0x3c1cc8a3	0.00956932
23	0xbb816155	-0.0039483705
24	0x3da11571	0.07865418
25	0xbdde4e21	-0.10854746
26	0x3c679d40	0.014136612
27	0xbba9cb27	-0.0051816883
28	0xbddffcdc	-0.10936901
29	0x3d6f0138	0.05835077
30	0xbe247617	-0.16060673
31	0x3d719835	0.058983047
32	0x3c430df0	0.011905178
33	0x3c09d338	0.008412175
34	0x3d146d11	0.036236826
35	0xbdca8d9f	-0.09890293
36	0xbd96f05e	-0.07370065
37	0xba288c13	-0.0006429564
38	0xbdd5e41d	-0.104439
39	0xbd856583	-0.065135024
40	0xbc370fe1	-0.011173219
41	0x3e06c920	0.1316266
42	0x3da0f712	0.07859625
43	0xbdde37e8	-0.10850507
44	0x3e1dde45	0.1541682
45	0xbd97a340	-0.07404184
46	0x3bd9cf1c	0.006647004
47	0xbec8de8c	-0.3923229
48	0xbdeb1e49	-0.11480386
49	0xbe2d4d3b	-0.16923992
50	0xbde255da	-0.11051531
51	0x3d495e15	0.04916199
52	0x3cc9b48f	0.02462223
53	0x3cf246bf	0.02957475
54	0xbceaef7e	-0.028678652
55	0x3c062691	0.008187906
56	0x3d83b8e5	0.0643175
57	0xbdbda2d1	-0.092595704
58	0x3df13f17	0.117796116
59	0x3e60e711	0.21963145
60	0xbc8f4bf8	-0.01749228
61	0x3d28b7b2	0.04119081
62	0x3d00441f	0.031314965
63	0x3da48c02	0.08034517
64	0xbde64982	-0.11244489
65	0xbd43adb3	-0.047773074
66	0xbcc2402b	-0.023712238
67	0xbd630d3e	-0.05543255
68	0x3d2af619	0.041738603
69	0xbe821f18	-0.25414348
70	0x3eb10bdb	0.34579358
71	0xbda083fd	-0.07837675
72	0x3cc8509b	0.024452498
73	0x3cd4f665	0.025996396
74	0x3dcbb2ec	0.09946236
75	0xbda80c31	-0.0820545
76	0xbdd6ceaa	-0.10488637
77	0x3d6332a9	0.055468235
78	0xbb0cf6c4	-0.0021509388
79	0xbc0f2d30	-0.008738801
80	0xbd4d7f59	-0.050170276
81	0x3da1711c	0.07882902
82	0x3c9e7876	0.01934455
83	0x3cde736e	0.02715465
84	0xbdb3dd3b	-0.08782431
85	0xbd2f3171	-0.04277176
86	0x3c226ac7	0.009913153
87	0xbdc11c77	-0.09429257
88	0x3d132c9b	0.03593121
89	0x3dbb5f43	0.09149029
90	0x3d09bfe5	0.03363027
91	0x3d84de7a	0.064877465
92	0x3dab5833	0.08366432
93	0x3d80f0bb	0.06295916
94	0xbe0f1a0e	-0.13974783
95	0x3c0ad756	0.008474192
96	0xbdd2ffd1	-0.10302699
97	0x3d984643	0.07435276
98	0xbe13196b	-0.14365165
99	0xbdb64fab	-0.08901914
100	0x3db8522d	0.09000049
101	0x3d685c10	0.056728423
102	0xbdc34b6a	-0.095358685
103	0xba624b5a	-0.0008632444
104	0x3d281983	0.041039955
105	0x3ddc72d3	0.107640885
106	0x3de41d3e	0.1113839
107	0xbd8450ba	-0.0646071
108	0x3cb6cffd	0.022315973
109	0x3d27f455	0.041004498
110	0x3dad8d72	0.08474244
111	0xbf44e314	-0.76908994
112	0x3db949a2	0.090472475
113	0x3d8f83e2	0.070075765
114	0x3da79f76	0.08184712
115	0x3d69dcf0	0.057095468
116	0x3d28910c	0.041153952
117	0x3dc087df	0.09400915
118	0xbd36bbaf	-0.044612583
119	0xbc260893	-0.01013388
120	0xbc637216	-0.013882181
121	0xbe0133dc	-0.12617439
122	0xbd288cb6	-0.041149817
123	0x3e4d4841	0.20047094
124	0xbd996236	-0.074894354
125	0xbd92a386	-0.07160096
126	0x3cb71bd5	0.022352139
127	0xbdbe6889	-0.09297282
128	0xbd19c44b	-0.037540715
129	0xbd4c5be3	-0.049892318
130	0x3e3035a6	0.17207965
131	0x3d3e2e3d	0.046430815
132	0x3ca7cd29	0.02048357
133	0xbe3cf922	-0.18454412
134	0xbde4b3a9	-0.1116708
135	0x3c8ed2b1	0.01743445
136	0xbe166e03	-0.14690404
137	0x3c818c50	0.015813977
138	0x3c4edb93	0.012625593
139	0x3d50df54	0.050994232
140	0xbd859728	-0.065229714
141	0x3df3f069	0.11911089
142	0x3d20faf9	0.039301846
143	0x3dd57cc4	0.10424188
144	0x3b945710	0.00452698
145	0x3cfeb777	0.031093342
146	0xbd8aa04d	-0.06768856
147	0x3db20f2e	0.086943015
148	0x3d31ff2a	0.043456234
149	0x3ccfac6f	0.025350777
150	0x3d16e0aa	0.03683535
151	0xbb195205	-0.0023394835
152	0xbd399a04	-0.045312896
153	0xbdcdad62	-0.10042836
154	0x3d88bd13	0.06676688
155	0xbd109a31	-0.0353033
156	0xbddc2d79	-0.10750861
157	0xbe300a26	-0.17191371
158	0x3d2656f0	0.040610254
159	0xbd2e07f5	-0.042488057
160	0x3cb9b6b5	0.02267013
161	0xbd130456	-0.035892807
162	0x3ca858b4	0.02055011
163	0x3b6ed70e	0.00364441
164	0x3db2640e	0.0871049
165	0xbca47c96	-0.020078938
166	0x3baee82c	0.0053377356
167	0xbd90cc8f	-0.070702665
168	0x3dc4792d	0.09593425
169	0xbda6405d	-0.08117745
170	0x3d9feb9f	0.07808613
171	0x3d62237f	0.055209633
172	0xbe161624	-0.14656883
173	0xbdd3a57c	-0.10334298
174	0xbd9667ef	-0.073440425
175	0x3f111715	0.56675845
176	0x3dee5b3e	0.11638497
177	0xbe039b63	-0.12852244
178	0x3d18f93f	0.037347075
179	0x3d792252	0.060823746
180	0x3a390f28	0.00070594484
181	0x3da14f11	0.07876409
182	0xbdab68cf	-0.083696
183	0xbdacc5b6	-0.08436148
184	0xbd128dc8	-0.035779744
185	0x3bc7a57a	0.0060927244
186	0x3dc7fa45	0.09764532
187	0x3d70a4bc	0.058750853
188	0xbd6bf5e0	-0.05760753
189	0x3d2f63a9	0.042819653
190	0xbd87ee9e	-0.066373095
191	0x3d487236	0.048937045
192	0xbde4800e	-0.11157237
193	0x3dcaa2fe	0.098943695
194	0x3d852ca9	0.06502659
195	0xbdff1356	-0.1245486
196	0x3a327391	0.0006807382
197	0xbe59e6e2	-0.21279481
198	0x3e357521	0.17720462
199	0x3ccd2e9d	0.025046641
200	0x3dd9bbac	0.10631499
201	0xbcdc1dd1	-0.026869686
202	0xbdebc3d1	-0.115119584
203	0xbe2f81af	-0.17139314
204	0xbd8e42de	-0.06946348
205	0x3d22d774	0.039756253
206	0x3d10a29d	0.03531133
207	0xbdf7f60c	-0.121074766
208	0x3d2ab874	0.041679814
209	0x3de8e93e	0.113726124
210	0xbdadb4c9	-0.08481748
211	0xbd60d301	-0.05488873
212	0xbcc4b9f4	-0.02401445
213	0xbe0f0a39	-0.13968743
214	0x3d921d3d	0.07134483
215	0x3d2e21ee	0.042512827
216	0xbdab7c8d	-0.083733656
217	0x3db573da	0.088599876
218	0x3d52efea	0.05149833
219	0x3dd88c57	0.10573643
220	0xbdc52076	-0.09625332
221	0x3cb4e9d7	0.02208416
222	0x3d910c67	0.07082444
223	0x3d970735	0.073744215
224	0x3d89922a	0.06717332
225	0x3ccf1376	0.025277834
226	0x3db760c3	0.08954003
227	0x3b96ea0c	0.0046055373
228	0xbc905b89	-0.017621772
229	0x3e06d67f	0.13167761
230	0x3d54649c	0.05185376
231	0xbd74919d	-0.05970918
232	0x3d4e0d5a	0.0503057
233	0x3df13f1b	0.117796145
234	0x3dd03a39	0.10167355
235	0xbe2137e9	-0.15743984
236	0x3c64797a	0.013944978
237	0x3d7ea4d5	0.062168915
238	0x3ceb1d91	0.028700622
239	0x3eb61427	0.3556225
240	0xbca28bfc	-0.01984214
241	0xbcf1f088	-0.02953364
242	0x3dd8adff	0.10580062
243	0x3c1ca88f	0.009561672
244	0xbc6c442c	-0.01442055
245	0x3d44c633	0.04804058
246	0xbdc705c3	-0.09717896
247	0x3cb3cdc1	0.021948697
248	0x3da6c6c3	0.081433795
249	0x3d97516d	0.073885776
250	0xbe082562	-0.1329551
251	0x3b476590	0.0030425526
252	0xbb96fd05	-0.004607799
253	0xbdf6bf4e	-0.12048207
254	0x3d743b84	0.05962707
255	0x3d65ef6b	0.05613653

conv2.nn.2.bias f4 [64]
0	0xbdac3594	-0.08408657
1	0x3dc9efd2	0.09860195
2	0x3d38b31c	0.045092687
3	0xbe35cfcf	-0.17755054
4	0x3d4dabe6	0.050212763
5	0xbee33622	-0.44377238
6	0xbe4d8424	-0.20069939
7	0xbeafa343	-0.34304246
8	0x3d9393b6	0.07205908
9	0x3df0129b	0.11722299
10	0x3cca9cdb	0.024732998
11	0x3e85630d	0.26052132
12	0xbe49ad90	-0.19695115
13	0xbe0bb7af	-0.13644288
14	0xbd8e59c8	-0.06950718
15	0xbea0d9da	-0.31416208
16	0xbc5bbc68	-0.013411619
17	0xbeabd9e5	-0.33564678
18	0xbeb3eb7b	-0.35140595
19	0x3de03f94	0.109496266
20	0x3e1aec06	0.15129098
21	0xbd98bdd6	-0.07458083
22	0x3e1afca8	0.15135443
23	0x3e77c43f	0.24195956
24	0xbe371cc9	-0.17882074
25	0xbe6a8c61	-0.22905113
26	0xbb4d629f	-0.00313393
27	0xbe2aa159	-0.16663112
28	0x3e6e28d8	0.23257768
29	0xbe0bb1d4	-0.13642055
30	0xbebba90e	-0.36652416
31	0x3d0c49d5	0.0342501
32	0x3ceb570f	0.028728036
33	0xbc5bce21	-0.013415844
34	0xbe437af7	-0.19089876
35	0xbee0a83e	-0.4387836
36	0xbdca4a51	-0.09877456
37	0xbe74a6aa	-0.23891702
38	0xbdb547d5	-0.088515915
39	0x3e62fc5c	0.2216658
40	0xbdbcd146	-0.09219603
41	0x3e4990ca	0.19684139
42	0x3d29fe62	0.041502364
43	0xbe2db757	-0.1696447
44	0x3e3beb7f	0.18351553
45	0xbe7d39f3	-0.24729137
46	0x3a90e335	0.0011054041
47	0xbe475c57	-0.19468819
48	0xbe8b923b	-0.27260002
49	0xbc884690	-0.01663521
50	0xbc624999	-0.013811492
51	0xbe5845be	-0.21120355
52	0xbe0f70cb	-0.14007871
53	0x3e885837	0.26629803
54	0x3f0383b2	0.51372826
55	0xbe4da59e	-0.20082709
56	0x3dc7cb51	0.097555764
57	0xbe45d1a7	-0.19318257
58	0xbedf4183	-0.4360467
59	0xbe9d22bf	-0.30690572
60	0xbe29b20b	-0.16571824
61	0x3cca5a67	0.02470131
62	0xbd69e887	-0.05710652
63	0xbe2a8ab5	-0.16654475
