checkpoints/A/model_A_epoch_50.pth (torch, 698407 bytes, 7 tensors)

embedding.weight f4 [500, 300]
0.4393176 -0.28252658 -0.32032508 -0.87965834 1.5612098 -1.7430474 -0.37832707 1.3456328
-0.48039535 0.9491334 0.7713594 -0.4543546 1.4338466 -1.4649976 -1.3177887 -0.044144765
1.8571352 0.6019839 1.6919988 -1.9167013 1.139349 -0.35056245 -0.5958476 -0.28574595
-0.64692533 0.11328688 -0.8818031 0.8911186 1.9476024 0.60078627 0.58163756 -0.3732421
1.3100259 -2.5351815 -0.022072077 2.5647337 1.4690043 1.307972 -1.3756336 0.33215588
0.4756648 2.5102997 -0.84835356 -1.218762 0.05452727 0.17039186 0.5516088 1.3372434
1.1912427 -0.88582414 3.4604902 -0.56522256 0.007987186 1.9973849 -0.5604642 0.9693283
0.49712592 -1.0963883 0.08765162 -0.101943694 -0.55256104 1.0670799 1.3937484 1.402775
0.74024963 2.1827552 -0.52536684 0.6315319 0.66286725 0.043686472 -1.1451726 0.113752656
1.4430852 0.50055176 1.2826467 -0.38222015 0.5740255 1.1581682 0.42109078 0.48148313
0.7683063 0.37700638 1.4844531 1.5622551 0.6077904 0.0800462 1.6726271 1.5040973
-0.93641734 -0.057737246 0.8605286 1.4972068 -2.144764 0.09145789 0.12660116 -2.9109814
-0.03708896 -0.2098145 1.0162829 1.9064546 0.8801513 -0.17159244 0.947065 -0.58889604
-2.0891294 -2.1468196 1.1797758 0.24687488 0.6677572 -0.52498895 -0.6598554 0.45430964
0.4592928 0.70919263 0.1974952 -0.1701759 0.67972666 0.11869779 0.6979771 0.24772735
0.5652297 -1.9035286 -0.33765227 -0.641655 -0.5527232 1.5360947 1.2332104 -0.04186389
-0.5122758 -0.86527556 0.9146197 0.8645816 -0.1029823 0.19341369 0.73960286 0.40345544
1.9310799 -2.015026 -0.27100244 1.4589913 0.19985761 -0.6476135 1.1801434 -1.6774539
-0.0520243 -0.155484 -0.15872623 -0.50398576 -0.3700679 0.8548798 -0.8612332 -0.78390855
-0.30288634 0.48606035 1.2031499 -0.64364123 0.30442944 0.58240306 0.34248126 -0.7915829
-0.22802372 -1.4313273 0.74326324 -0.9955061 -1.1226851 1.7662497 0.061279137 0.075768605
-0.8081008 2.6873434 -1.2393044 -0.49510136 0.79769754 -0.6217436 -0.36035416 -0.060213994
0.94455767 1.2012684 -0.78014666 0.4101531 1.5076059 0.05835891 0.3444069 -0.51461905
-1.1020838 -0.5009744 1.6386466 -0.9071758 -0.43926466 -0.1679113 0.13075218 0.036816623
-1.9238819 1.0119866 -1.5936077 -1.0236253 0.3622009 0.5126515 0.33151966 1.1022964
-0.11748865 -1.6281619 1.159343 -1.1154883 -0.2791075 -1.5131919 0.01782093 1.3593063
1.6645808 0.6660636 -0.122853026 -1.6785035 0.32090902 0.59340465 0.18852687 0.44634315
-0.748963 0.20846768 0.42852867 -2.0996788 0.5654104 -1.1758059 0.83350503 -1.4764855
0.049466908 0.2743105 1.9139979 1.5629478 -0.6681987 -0.79802215 -0.18223403 -0.48827985
0.41332078 2.131215 0.7144338 -0.34740183 -0.87352717 0.9844669 0.36881775 0.54360193
-0.48683196 0.8480468 0.5497591 -0.24747272 0.9114803 2.006236 -0.7786867 -1.0533162
1.1728243 -0.24691413 1.4863337 0.811334 -0.4967645 -0.41079882 -0.19014317 -0.7562808
00000000: 3dee e03e 53a7 90be a601 a4be 4a31 61bf
00000010: b9d5 c73f 2d1c dfbf 16b4 c1be b23d ac3f
00000020: 61f6 f5be 68fa 723f cf77 453f 2ba1 e8be
00000030: 4988 b73f 0b85 bbbf 4dad a8bf 24d1 34bd
00000040: 9bb6 ed3f 9e1b 1a3f 6b93 d83f 7856 f5bf
00000050: 30d6 913f ec7c b3be 7889 18bf 4b4d 92be
00000060: e69c 25bf f402 e83d d9bd 61bf 5920 643f
00000070: 094b f93f 21cd 193f 33e6 143f 9719 bfbe
00000080: eeae a73f 6a40 22c0 80d0 b4bc 9924 2440
00000090: 5508 bc3f a06b a73f c314 b0bf 5610 aa3e
000000a0: 568a f33e c0a8 2040 b32d 59bf 6500 9cbf
000000b0: fd57 5f3d 347b 2e3e 3c36 0d3f cb2a ab3f
000000c0: a47a 983f 5fc5 62bf ac78 5d40 6db2 10bf
000000d0: b0dc 023c 4faa ff3f 957a 0fbf e625 783f
000000e0: 4a87 fe3e 7456 8cbf b182 b33d dbc7 d0bd
000000f0: a474 0dbf 1396 883f 5966 b23f 228e b33f
00000100: 0081 3d3f 43b2 0b40 717e 06bf 13ac 213f
00000110: abb1 293f 96f0 323d 0495 92bf 27f7 e83d
00000120: 04b7 b83f 2924 003f c42d a43f 5cb2 c3be
00000130: 56f3 123f db3e 943f 3699 d73e f584 f63e
00000140: b9af 443f fb06 c13e 8f02 be3f faf7 c73f
00000150: 2798 1b3f 43ef a33d a518 d63f 4386 c03f
00000160: 0cb9 6fbf e47d 6cbd 9a4b 5c3f 79a4 bf3f
00000170: d043 09c0 464e bb3d bca3 013e 854d 3ac0
00000180: 98ea 17bd 9dd9 56be 8f15 823f b406 f43f
00000190: 9851 613f eeb5 2fbe da72 723f e4c1 16bf
000001a0: 4cb4 05c0 7e65 09c0 e502 973f c5cc 7c3e
000001b0: 23f2 2a3f ad65 06bf 49ec 28bf 469b e83e
000001c0: 6d28 eb3e a68d 353f 2f3c 4a3e 9742 2ebe
000001d0: 9102 2e3f d417 f33d a1ae 323f 3dac 7d3e
000001e0: e5b2 103f d3a6 f3bf c2e0 acbe 8143 24bf
000001f0: 457f 0dbf c09e c43f d7d9 9d3f 7879 2bbd
00000200: 8224 03bf b382 5dbf 8424 6a3f 3855 5d3f
00000210: 62e8 d2bd 3d0e 463e 9d56 3d3f b691 ce3e
00000220: a02d f73f 30f6 00c0 d5c0 8abe 3ac0 ba3f
00000230: 79a7 4c3e 00ca 25bf f00e 973f cfb6 d6bf
00000240: 6f17 55bd 3337 1fbe 2189 22be 3605 01bf
00000250: 8a79 bdbe 67d9 5a3f c779 5cbf 3bae 48bf
00000260: eb13 9bbe e7dc f83e d100 9a3f acc5 24bf
00000270: 2dde 9b3e 5e18 153f b459 af3e 2da5 4abf
00000280: 0d7f 69be bc35 b7bf 8046 3e3f 7dd9 7ebf
00000290: 25b4 8fbf 7814 e23f d5ff 7a3d 922c 9b3d
000002a0: b2df 4ebf 6ffd 2b40 87a1 9ebf ed7d fdbe
000002b0: e835 4c3f 972a 1fbf 5780 b8be f3a2 76bd
000002c0: 88ce 713f 2ac3 993f b1b7 47bf 96ff d13e
000002d0: 3bf9 c03f c109 6f3d 1a56 b03e 13be 03bf
000002e0: 1511 8dbf dc3f 00bf 2cbf d13f ac3c 68bf
000002f0: 4ce7 e0be f1f0 2bbe e6e3 053e 07cd 163d
00000300: c341 f6bf c788 813f 56fb cbbf 2706 83bf
00000310: 6572 b93e 213d 033f f2bc a93e 0c18 8d3f
00000320: e49d f0bd 9c67 d0bf 5a65 943f 52c8 8ebf
00000330: 2ee7 8ebe 46b0 c1bf 33fd 913c c0fd ad3f
00000340: fc10 d53f 2583 2a3f 5e9a fbbd 34d9 d6bf
00000350: 304e a43e 5ee9 173f 300d 413e 1787 e43e
00000360: 0abc 3fbf 8d78 553e 1c68 db3e 2361 06c0
00000370: bcbe 103f cf80 96bf 9660 553f 7afd bcbf
00000380: d09d 4a3d 6d72 8c3e e2fd f43f ac0e c83f
00000390: 120f 2bbf 2e4b 4cbf 8f9b 3abe d1ff f9be
000003a0: c89e d33e d465 0840 22e5 363f a7de b1be
000003b0: 7a9f 5fbf 0606 7c3f aed5 bc3e 7f29 0b3f
000003c0: 0a42 f9be 9819 593f 03bd 0c3f 7d69 7dbe
000003d0: c656 693f 2c66 0040 0358 47bf 11d3 86bf
000003e0: 1b1f 963f 0fd7 7cbe 2f40 be3f 96b3 4f3f
000003f0: eb57 febe 3954 d2be e4b4 42be 9e9b 41bf

conv1.bias f4 [64]
-0.1354257 -0.087935925 -0.10020528 -0.13096519 -0.14028963 -0.14485247 0.009504096 -0.0820923
-0.076386 -0.12997515 -0.1086555 -0.18310429 -0.1287817 -0.102796145 -0.023491053 -0.07164943
-0.120751046 -0.10077745 -0.051479097 -0.040612306 -0.13392422 -0.036719438 -0.068216845 -0.09193269
-0.06196169 -0.24403134 0.03143426 -0.08649008 -0.13566944 0.01687619 -0.10244935 -0.17872678
-0.10663381 -0.035061806 0.06705371 -0.06391233 -0.06070532 -0.029251374 0.009777781 -0.044126518
-0.22400506 -0.10582347 -0.017099846 -0.025831703 -0.01593319 -0.15406814 -0.14585759 -0.05915651
-0.1053489 -0.089216515 -0.05413215 -0.081618726 -0.09167915 -0.048900392 -0.09637384 -0.061758388
-0.11693694 -0.21092793 -0.1639184 -0.09629635 -0.17092943 -0.2183062 -0.14693758 -0.08815176
00000000: 09ad 0abe c017 b4bd 6d38 cdbd bd1b 06be
00000010: 16a8 0fbe 3554 14be 11b7 1b3c 0220 a8bd
00000020: 4370 9cbd 3518 05be c686 debd b17f 3bbe
00000030: 5adf 03be c986 d2bd 4f70 c0bc f0bc 92bd
00000040: 534c f7bd 6864 cebd bfdb 52bd 1759 26bd
00000050: 6e23 09be 1f67 16bd 46b5 8bbd 3547 bcbd
00000060: 8bcb 7dbd 5ae3 79be 36c1 003d b621 b1bd
00000070: eeec 0abe f03f 8a3c f7d0 d1bd 2704 37be
00000080: d462 dabd f89c 0fbd 7553 893d 78e4 82bd
00000090: 24a6 78bd 94a0 efbc fc32 203c 02be 34bd
000000a0: 9561 65be fab9 d8bd fa14 8cbc 029d d3bc
000000b0: 5286 82bc 0ac4 1dbe b15b 15be 194e 72bd
000000c0: 2ac1 d7bd 26b7 b6bd acb9 5dbd b827 a7bd
000000d0: 47c2 bbbd c74b 48bd a65f c5bd 5df6 7cbd
000000e0: a27c efbd 7efd 57be 3ada 27be 0537 c5bd
000000f0: 2008 2fbe a98b 5fbe ce76 16be e988 b4bd

conv1.lin.weight f4 [64, 300]
-0.2495088 0.2614077 -0.4267988 0.511402 -0.49070832 -0.072621115 -0.56303 -0.15323193
-0.39256287 -0.25110763 -0.09676633 0.05200277 0.122180335 -0.041289132 -0.023491468 -0.076512404
0.08527882 -0.08799304 0.13956495 -0.16218846 -0.2002635 0.101930745 -0.038590312 -0.06997923
0.26897904 -0.12180273 0.038228642 -0.35423294 0.08084709 -0.014914898 0.361802 0.40087658
0.09517014 0.06417052 0.72129625 -0.13810967 -0.06560659 0.15785968 -0.14794043 -0.23218536
-0.10983297 -0.14239082 -0.14743744 -0.06175378 -0.25912288 -0.21137771 -0.080339395 -0.35273483
-0.176737 -0.045995455 -0.24372476 0.001809334 -0.017220758 0.32421684 0.2163726 0.32954878
0.017465848 0.08113157 0.05748484 -0.012922443 -0.22955942 0.35067058 0.11797757 0.23698151
0.010229126 0.37887543 0.021304952 -0.25936562 -0.009637159 0.14019026 -0.05015759 -0.16964673
0.16934662 0.17905898 0.389003 -0.2201855 -0.03648383 0.09175583 -0.060076058 -0.06185339
0.14323643 0.1738415 0.2780242 0.14797428 0.16491392 -0.10281726 -0.36776358 -0.13172407
0.16869365 -0.016413955 -0.15303586 -0.12242409 0.31613445 0.1023323 -0.15128113 -0.19672059
0.2261714 -0.06470181 -0.44286552 0.004912365 -0.12786251 0.6019301 0.1137721 -0.35882428
0.14811876 -0.12330869 -0.22306903 0.20509148 -0.19757012 0.48300347 0.045505412 -0.3576012
-0.25253636 0.11862781 0.053686373 0.35833606 0.1177654 -0.2359969 0.2525554 -0.106382966
-0.24465044 0.38167933 0.06982582 0.022651691 0.06380384 -0.58511394 -0.2519519 -0.059894975
0.12004205 0.08964044 0.113229536 -0.900344 0.13414572 -0.092386805 0.17162296 -0.35732183
-0.09984517 -0.5038355 0.38478905 0.40461993 0.1356082 0.12933628 -0.4851405 0.13219239
0.24533616 -0.24994686 -0.13300124 0.22097604 -0.02038612 0.014214073 0.08035757 0.048492134
-0.02666019 0.21705717 -0.19844157 -0.14329152 -0.08158085 0.020363096 0.11374153 -0.05265215
-0.13785268 0.13715836 -0.26341024 0.11671643 -0.19546294 -0.15677232 0.16476671 0.07400548
0.14596543 -0.17882031 0.04069842 -0.42649522 -0.73737687 0.15716156 0.06337357 -0.23874307
0.16189452 0.087843694 0.26796156 -0.2712601 0.38532838 0.10238735 0.055380132 -0.27502614
-0.18703021 -0.23104787 -0.17342967 -0.027001683 -0.1959681 0.14857164 0.5274099 0.18779126
0.012369074 0.2694349 0.27814355 -0.41482422 -0.20546913 0.47366783 0.20950493 0.24970217
0.065927476 -0.015208765 0.45783392 0.42434004 -0.30619755 -0.13569191 0.503064 -0.08801094
-0.246012 0.1334412 0.32782158 -0.28955203 0.31464496 -0.010395642 -0.2051437 -0.3047588
0.057324044 -0.5481037 0.3480483 0.0882947 0.39503926 0.02943086 0.50850344 0.26355407
-0.047639713 0.28641096 -0.271468 0.0070893825 0.19902444 -0.0982048 0.22844718 -0.09544098
0.033900853 -0.32162526 -0.024073103 -0.02740374 -0.14661698 0.16890949 0.19573466 0.11733997
-0.19029815 0.38352883 0.48552844 0.26954353 -0.18636237 -0.08454061 0.35423756 -0.016603814
-0.335976 -0.028008856 0.3011194 -0.11728622 0.23089087 0.15643023 0.26784602 0.3792641
00000000: 3c7f 7fbe 3bd7 853e 5f85 dabe 3eeb 023f
00000010: 1f3e fbbe 61ba 94bd bc22 10bf d5e8 1cbe
00000020: 00fe c8be 2e91 80be 6d2d c6bd db00 553d
00000030: af39 fa3d cb1e 29bd 2e71 c0bc 89b2 9cbd
00000040: a9a6 ae3d b235 b4bd 1dea 0e3e bb14 26be
00000050: e011 4dbe 11c1 d03d e010 1ebd 4551 8fbd
00000060: 9fb7 893e b673 f9bd a395 1c3d 055e b5be
00000070: 2993 a53d 9e5d 74bc 1d3e b93e b23f cd3e
00000080: 90e8 c23d d56b 833d dfa6 383f 9f6c 0dbe
00000090: bf5c 86bd f8a5 213e b27d 17be 00c2 6dbe
000000a0: 1cf0 e0bd e6ce 11be d7f9 16be 88f1 7cbd
000000b0: c1ab 84be 6673 58be fb88 a4bd a999 b4be
000000c0: 8bfa 34be bb65 3cbd fc92 79be 2d27 ed3a
000000d0: 8c12 8dbc c0ff a53e c790 5d3e 9eba a83e
000000e0: 8a14 8f3c 4f28 a63d 3975 6b3d a8b8 53bc
000000f0: a011 6bbe 188b b33e 399e f13d 48ab 723e
00000100: 1098 273c f6fb c13e b987 ae3c 92cb 84be
00000110: 2de5 1dbc 098e 0f3e 0c72 4dbd dfb7 2dbe
00000120: 3369 2d3e 3d5b 373e 672b c73e 4f78 61be
00000130: 1270 15bd 7bea bb3d 5012 76bd fb59 7dbd
00000140: 92ac 123e 8203 323e 3059 8e3e 9286 173e
00000150: 32df 283e db91 d2bd 824b bcbe ade2 06be
00000160: 07be 2c3e 8f76 86bc 6fb5 1cbe 7bb9 fabd
00000170: 60dc a13e 9993 d13d 71e9 1abe 1f71 49be
00000180: 7a99 673e 6282 84bd 45bf e2be e8f7 a03b
00000190: 64ee 02be 1718 1a3f 5901 e93d d1b7 b7be
000001a0: 72ac 173e 4489 fcbd 356c 64be 8003 523e
000001b0: d24f 4abe 3b4c f73e e263 3a3d 8117 b7be
000001c0: 724c 81be 23f3 f23d 3ee6 5b3d d377 b73e
000001d0: fc2e f13d 2ca9 71be f14e 813e 50df d9bd
000001e0: a585 7abe 796b c33e d700 8f3d 0a90 b93c
000001f0: 96ab 823d 07ca 15bf d7ff 80be 6f54 75bd
00000200: 9bd8 f53d 6895 b73d e3e4 e73d f27c 66bf
00000210: 7f5d 093e 4b35 bdbd eebd 2f3e e3f2 b6be
00000220: a07b ccbd 5dfb 00bf 1203 c53e 582a cf3e
00000230: e0dc 0a3e bb70 043e 5664 f8be 715d 073e
00000240: 6739 7b3e 12f2 7fbe 7a31 08be 8b47 623e
00000250: cb00 a7bc 25e2 683c 8292 a43d b09f 463d
00000260: 7966 dabc 3c44 5e3e 4434 4bbe 03bb 12be
00000270: dc13 a7bd 82d0 a63c 52f1 e83d c8a9 57bd
00000280: 4129 0dbe 3e73 0c3e b5dd 86be 0609 ef3d
00000290: 7027 48be ec88 20be 9bb8 283e 2f90 973d
000002a0: f677 153e ac1c 37be 63b3 263d 955d dabe
000002b0: bbc4 3cbf f6ee 203e 01ca 813d 1079 74be
000002c0: adc7 253e 65e7 b33d 4232 893e 9be2 8abe
000002d0: c349 c53e 75b0 d13d 47d6 623d 3ad0 8cbe
000002e0: d984 3fbe d097 6cbe 8c97 31be a232 ddbc
000002f0: ddab 48be 2a23 183e 5604 073f 5a4c 403e
00000300: a8a7 4a3c 5ff3 893e d568 8e3e d763 d4be
00000310: 8066 52be 9784 f23e 7688 563e edb1 7f3e
00000320: fc04 873d 2f2e 79bc 3569 ea3e 1943 d93e
00000330: edc5 9cbe d2f2 0abe cdc8 003f 143f b4bd
00000340: 92ea 7bbe cfa4 083e 3bd8 a73e 2a40 94be
00000350: 2519 a13e 7c52 2abc 3111 52be 5809 9cbe
00000360: 9ecc 6a3d 8650 0cbf 6333 b23e dad3 b43d
00000370: 9642 ca3e fd18 f13c 482d 023f 8ff0 863e
00000380: dc21 43bd 75a4 923e dbfd 8abe 0d4e e83b
00000390: 10cd 4b3e 991f c9bd 0fee 693e 8f76 c3bd
000003a0: 9fdb 0a3d 11ac a4be f534 c5bc cf7d e0bc
000003b0: c322 16be 9cf6 2c3e ab6e 483e f04f f03d
000003c0: 85dd 42be e45d c43e 2f97 f83e 9c01 8a3e
000003d0: c7d5 3ebe a123 adbd a05e b53e b904 88bc
000003e0: 0c05 acbe d472 e5bc 522c 9a3e c233 f0bd
000003f0: a86e 6c3e 3f2f 203e 1d23 893e e72e c23e

conv2.bias f4 [64]
0.007114615 -0.015185891 0.01510562 -0.026836798 0.043873645 0.037335835 -0.038070276 0.021339497
-0.019428682 0.027680643 -0.048142795 0.072738595 0.002156218 0.02059391 -0.006672798 0.026085814
0.02255068 -0.008331172 -0.028610367 0.02759049 0.030000355 -0.034731694 0.021390451 -0.014270716
0.012136613 0.022632904 0.012739056 -0.025495147 0.028029518 -0.043541208 0.0266223 -0.0024859207
-0.039024804 0.06805474 -0.045544036 0.0020557248 0.008475772 -0.011846703 -0.008936373 -0.021057919
0.0031569323 0.018150596 0.0030357442 0.005969088 -0.049018536 0.0077622854 0.02751692 0.0352736
0.003822694 0.026744274 -0.022366703 0.0031491583 -0.04152314 -0.0073921545 0.025430566 0.006859604
0.004426628 -0.012174118 0.021991765 -0.026376512 0.0019089959 -0.036426574 -0.033885416 0.0184077
00000000: b721 e93b 3ece 78bc 907d 773c d8d8 dbbc
00000010: dab4 333d 76ed 183d 94ef 1bbd 2bd0 ae3c
00000020: e628 9fbc 84c2 e23c 6131 45bd f9f7 943d
00000030: 564f 0d3b 8fb4 a83c 7da7 dabb ebb1 d53c
00000040: 34bc b83c 787f 08bc 4a60 eabc 7405 e23c
00000050: 4ec3 f53c d242 0ebd 073b af3c b9cf 69bc
00000060: a5d8 463c a468 b93c 79b7 503c 33db d0bc
00000070: 299e e53c 4458 32bd 0217 da3c d4ea 22bb
00000080: 79d8 1fbd 4960 8b3d 628c 3abd 57b9 063b
00000090: f7dd 0a3c ac18 42bc dd69 12bc a881 acbc
000000a0: 89e4 4e3b 8fb0 943c 56f3 463b 5798 c33b
000000b0: a9c7 48bd c55a fe3b 2a6b e13c 0d7b 103d
000000c0: 2a86 7a3b cf16 db3c 603a b7bc 1c62 4e3b
000000d0: 2b14 2abd e339 f2bb c353 d03c 87c6 e03b
000000e0: 3f0d 913b f475 47bc 1328 b43c 8e13 d8bc
000000f0: 4637 fa3a 0834 15bd 6fcb 0abd bfcb 963c

conv2.lin.weight f4 [64, 64]
0.07853756 -0.3363549 -0.09920049 0.37681502 -0.57483965 -0.14104652 0.1682156 -0.3032451
0.3118337 0.3755366 -0.38033774 -0.30687863 0.20407617 0.21385296 0.06423294 -0.03838355
0.6979972 -0.34171703 0.5225042 -0.20377205 -0.46721944 0.12723227 -0.29351202 0.35398
0.3179484 -0.48170418 -0.07841928 -0.19242994 -0.14138706 -0.17668843 0.47123644 -0.13448149
0.076982975 0.58507776 -0.067791864 0.0145193525 -0.43475413 -0.2555516 0.24508071 -0.066086486
-0.21357751 0.048345454 0.4013265 -0.24544919 -0.20912316 0.29655057 -0.093456715 -0.038440824
-0.1888707 0.45236844 0.005024155 0.5447874 -0.3286477 0.20990105 -0.388313 0.33032674
0.096174814 0.021121593 -0.39885068 0.4342702 -0.45533293 -0.21911733 -0.2051658 0.049183253
0.007302312 0.11781012 0.116667286 -0.63243407 0.40189293 -0.3967527 0.28008568 0.064929515
-0.028007789 -0.44131562 -0.2179589 0.25668764 -0.055836096 0.17270118 0.39693078 0.46093607
-0.42874882 0.09080243 -0.32161957 0.14445163 0.119166456 0.4955905 0.57686335 -0.43982434
-0.3562491 0.08274926 0.03397266 -0.2901141 -0.24041757 -0.10698922 0.05772635 0.008988088
-0.3918503 -0.1895215 -0.022695342 -0.2818971 0.0033738057 0.25119016 0.35814488 0.25430954
-0.23131973 0.020424088 0.21099712 0.5792076 0.21964043 -0.42551863 0.1948478 0.4851745
-0.030806795 -0.5994227 -0.05858171 -0.20612656 -0.30060405 -0.56022847 -0.055746064 -0.10992252
-0.20187932 -0.2859557 -0.32899198 -0.5639841 0.24910566 0.029550662 -0.09955803 0.39173943
0.18087164 0.05280819 0.2704417 0.3548208 -0.30439633 0.44094288 -0.042555682 -0.028163716
0.348831 0.4324226 0.22756732 0.031316023 0.37619302 -0.0037821452 -0.5008624 -0.25050533
0.023044629 0.060431022 -0.11084546 -0.5096946 -0.45581397 -0.12271927 -0.22991028 0.36473486
0.1281455 0.23980491 -0.31130925 -0.13502401 -0.18132524 0.3553816 0.28595087 -0.14320335
0.5851063 0.3092507 -0.43570873 0.18701082 0.0018111912 -0.17119002 0.03293846 -0.5019121
-0.03621054 0.099564485 -0.21576138 -0.14678742 -0.21519974 0.3907506 0.34294206 -0.2918577
-0.28645658 0.3648753 -0.09631931 -0.104981124 0.20119102 0.47231987 -0.2751415 -0.32931456
0.49916345 0.26586345 -0.014656333 0.18402962 -0.11860836 -0.08816395 0.14917311 -0.17949703
-0.3758451 -0.057067025 -0.70024335 0.45161638 -0.2737134 0.34340525 -0.35603836 0.40048274
-0.21406324 -0.31888548 -0.055515446 0.09702076 0.15708533 -0.17440303 -0.10134832 0.13991135
0.098350376 -0.026819224 0.46857738 -0.05838685 0.09766222 -0.21265191 -0.28716013 0.68971676
0.48565555 -0.01006339 -0.3432754 0.15369055 0.53564197 -0.114776134 -0.5252994 0.39185363
0.013492645 -0.35947436 -0.31238842 0.12718475 0.23683031 0.16584998 -0.47661114 -0.43077603
0.31101704 -0.1543358 -0.25184992 -0.3414744 -0.44385868 -0.35800806 -0.62651193 -0.19268344
0.47194338 0.03436278 0.240047 -0.048715983 0.24585724 -0.050599042 0.6037657 0.61513203
0.122552164 0.1432443 0.48387116 0.13434987 0.11665707 0.56586707 0.43116233 0.0905474
00000000: 4dd8 a03d b636 acbe a029 cbbd e6ed c03e
00000010: b128 13bf 806e 10be b640 2c3e f142 9bbe
00000020: aba8 9f3e 5546 c03e a1bb c2be 321f 9dbe
00000030: 58f9 503e 45fc 5a3e 8f8c 833d 1238 1dbd
00000040: f2af 323f 89f5 aebe d6c2 053f 9fa9 50be
00000050: 6337 efbe 2d49 023e 3547 96be de3c b53e
00000060: 22ca a23e eea1 f6be 4a9a a0bd 5b0c 45be
00000070: c5c7 10be d0ed 34be e745 f13e 84b5 09be
00000080: 40a9 9d3d a8c7 153f 76d6 8abd 94e2 6d3c
00000090: 1898 debe a9d7 82be 70f6 7a3e 5a58 87bd
000000a0: 10b4 5abe e205 463d ab7a cd3e 0857 7bbe
000000b0: 6224 56be 7ad5 973e 3c66 bfbd 2074 1dbd
000000c0: 5267 41be d69c e73e aba1 a43b 3077 0b3f
000000d0: 8344 a8be 4df0 563e f6d0 c6be 9620 a93e
000000e0: 4df7 c43d 3107 ad3c 2836 ccbe aa58 de3e
000000f0: 6621 e9be 4b60 60be fc16 52be 6174 493d
00000100: 3c48 ef3b 6f46 f13d 42ef ee3d 33e7 21bf
00000110: e9c4 cd3e 2b23 cbbe 6467 8f3e c4f9 843d
00000120: 9770 e5bc 1ff4 e1be 9e30 5fbe 906c 833e
00000130: 64b4 64bd 94d8 303e 833a cb3e d0ff eb3e
00000140: f784 dbbe a0f6 b93d 52ab a4be 21eb 133e
00000150: 8b0d f43d 0abe fd3e 51ad 133f a830 e1be
00000160: 4866 b6be 7278 a93d ea26 0b3d d689 94be
00000170: 0630 76be 2a1d dbbd 7772 6c3d c642 133c
00000180: 9aa0 c8be ed11 42be 95eb b9bc d154 90be
00000190: 111b 5d3b ff9b 803e c45e b73e dc34 823e
000001a0: 14df 6cbe 6b50 a73c a10f 583e f346 143f
000001b0: 6ce9 603e 94dd d9be 2f86 473e cb68 f83e
000001c0: 885e fcbc c473 19bf 60f3 6fbd d712 53be
000001d0: c6e8 99be 226b 0fbf fc55 64bd 0f1f e1bd
000001e0: 74b9 4ebe c968 92be a371 a8be 4361 10bf
000001f0: 8e15 7f3e 3b14 f23c 15e5 cbbd 1292 c83e
00000200: 6a36 393e 674d 583d 5677 8a3e 12ab b53e
00000210: d6d9 9bbe 44c3 e13e de4e 2ebd 98b7 e6bc
00000220: fa99 b23e 7f66 dd3e 6807 693e 3b45 003d
00000230: 5f9c c03e dedd 77bb 8538 00bf 3c42 80be
00000240: 17c8 bc3c 8586 773d f202 e3bd 587b 02bf
00000250: 7360 e9be 3e54 fbbd 9a6d 6bbe 87be ba3e
00000260: 9338 033e 6b8f 753e ed63 9fbe bc43 0abe
00000270: 53ad 39be 94f4 b53e 2768 923e e6a3 12be
00000280: 87c9 153f 1c56 9e3e 3715 dfbe c47f 3f3e
00000290: 7e65 ed3a 704c 2fbe 7bea 063d 507d 00bf
000002a0: 8151 14bd 77e8 cb3d 8df0 5cbe 714f 16be
000002b0: 525d 5cbe 7610 c83e 1a96 af3e 5f6e 95be
000002c0: 70aa 92be efd0 ba3e 0f43 c5bd 5800 d7bd
000002d0: 0505 4e3e e9d3 f13e 59df 8cbe eb9b a8be
000002e0: 5a92 ff3e 411f 883e 1e21 70bc 4372 3c3e
000002f0: f1e8 f2bd 4d8f b4bd d6c0 183e 12ce 37be
00000300: c56e c0be 1dbf 69bd 2643 33bf 433a e73e
00000310: 2a24 8cbe d0d2 af3e a94a b6be 130c cd3e
00000320: 6533 5bbe f544 a3be 2a64 63bd d2b2 c63d
00000330: fada 203e b596 32be b58f cfbd ec44 0f3e
00000340: ec6b c93d fdb3 dbbc 60e9 ef3e 0d27 6fbd
00000350: 2103 c83d 6cc1 59be a706 93be 4791 303f
00000360: d8a7 f83e ebe0 24bc cbc1 afbe 0e61 1d3e
00000370: d51f 093f c00f ebbd 057a 06bf 0aa1 c83e
00000380: 4110 5d3c 060d b8be 60f1 9fbe b83c 023e
00000390: a583 723e 94d4 293e 6006 f4be ad8e dcbe
000003a0: a03d 9f3e 340a 1ebe 79f2 80be bcd5 aebe
000003b0: 7241 e3be d54c b7be 1663 20bf cf4e 45be
000003c0: 90a2 f13e fdbf 0c3d e1ce 753e 698a 47bd
000003d0: 00c2 7b3e f140 4fbd 6490 1a3f 4b79 1d3f
000003e0: a1fc fa3d a2ae 123e f6bd f73e 0393 093e
000003f0: e7e9 ee3d aadc 103f 4fc1 dc3e ea70 b93d

fc.weight f4 [6, 64]
-0.07381335 -0.45238784 -0.67732275 1.6108594 -0.6479267 1.3237561 -0.15717618 2.0013487
1.1410087 0.43481672 0.60082626 0.920276 0.99909794 -0.2141609 -1.0321563 -0.561705
-0.48033753 0.16156639 -0.260621 0.26037142 -0.8897828 -0.23881532 -0.30840012 0.25611386
-0.17717579 0.11691679 0.731588 1.9808387 -0.31852722 -0.17743184 0.526829 0.2422386
-0.23287839 0.39658773 0.38674003 -0.4098224 -0.5140799 -1.9810133 0.43197456 -0.31656823
0.3978994 -0.9038626 -0.049532246 0.42589685 1.4072778 -0.35456192 0.7090434 0.40787128
0.9557358 -1.948418 -0.22850144 -0.20298053 0.3152193 -1.1801913 -0.1469921 -0.6123766
-0.45805863 -1.6979512 1.4264717 0.467334 -1.3106091 -1.0888972 0.00073153636 -0.2525355
-0.4329186 -1.2888035 0.570234 0.19221711 0.33542305 1.0886428 0.09259596 -0.58277947
0.665986 0.9847984 -1.054379 1.3046231 0.9016092 1.6860572 -1.3470861 1.2161257
0.8082373 -0.29557654 -0.05783192 -0.89310956 -0.79554564 -1.3064215 2.2656894 0.6975066
1.5251294 -0.1412999 -0.12604313 -0.39448473 -0.5489824 -0.078677945 -0.76039904 -0.9658603
-0.74501127 -0.08926186 -0.13411099 -1.200135 -0.0044961763 0.8399802 0.16852191 -0.091757566
-0.19698945 -0.5054107 -0.00011456534 0.83837366 -1.7806458 -1.238896 1.3639835 0.43940943
0.11778252 -0.4745947 -1.5981885 0.1850304 -1.2499359 -0.6542044 -0.45453787 0.8004241
0.57278407 -1.7405361 0.79416174 0.7477831 -1.9407396 -0.35669988 -0.972437 0.06657722
-1.6904268 1.296237 -0.318744 -0.070477046 -1.520344 -0.41239923 0.32597846 -0.21444972
1.4488823 -0.7168901 0.75807965 -0.081234604 -1.3549333 0.46276417 0.5349066 -1.7368726
-0.14107609 -1.2408314 0.7294852 1.1998051 -0.6883425 -1.046602 -0.1610683 0.77514875
0.6070227 -0.43494403 -1.272893 -0.3106282 0.227347 -0.029805984 -0.43680808 -0.31984743
0.33682075 -1.0409787 0.38859686 -0.8750467 -1.1133735 -0.32944503 0.9544189 1.015353
2.1138873 -0.21313389 -0.8614135 -0.67874223 0.7969447 -0.53983384 0.18608306 -0.93370515
0.34800735 -0.562832 0.12773217 -0.9330996 -0.28045228 -0.3974468 -0.17598498 1.0345416
-0.7563026 -0.28734908 0.20417826 0.41066673 0.7128213 -1.324141 -0.8278002 -0.8391581
1.1722056 1.9350396 -0.9935067 -2.702924 0.9047667 0.064769305 0.29572856 -0.40836462
-3.6517856 -0.469354 0.8225249 -0.4254069 -1.1429769 -2.174941 1.564864 0.22785866
1.7877759 -0.096627995 -0.18434891 0.98431015 2.4387488 3.2397404 -1.9246819 -2.5719287
-2.9336658 0.75884634 -0.97337776 0.6598752 2.3220427 -1.9481468 1.4204334 -0.65670353
0.30190906 -1.3063406 -1.5665754 3.6301353 -1.1852008 0.18084176 -0.06360385 1.2659695
0.73630065 3.8562984 -0.15676099 -1.3947184 -1.2573954 2.8291016 -3.1305268 -0.5708155
-1.5883905 2.678933 2.6210878 1.0191343 0.46563706 3.1091552 2.1927137 -0.9041537
-1.9884387 2.6731534 -1.8007376 -3.291782 1.8913834 -0.03786138 0.6611945 3.918346
00000000: 742b 97bd 619f e7be 0665 2dbf a430 ce3f
00000010: 86de 25bf d770 a93f cbf2 20be 1916 0040
00000020: 930c 923f 4ca0 de3e c0cf 193f 3597 6b3f
00000030: e2c4 7f3f ff4c 5bbe b31d 84bf e6cb 0fbf
00000040: cdee f5be a971 253e 1e70 85be 674f 853e
00000050: cec8 63bf 018c 74be 9fe6 9dbe 5b21 833e
00000060: 926d 35be 1272 ef3d 5a49 3b3f 1f8c fd3f
00000070: 0016 a3be b1b0 35be 44de 063f 650d 783e
00000080: ac77 6ebe 8c0d cb3e ca02 c63e 3ed4 d1be
00000090: be9a 03bf d891 fdbf c52b dd3e 3b15 a2be
000000a0: 78b9 cb3e 8a63 67bf 53e2 4abd 270f da3e
000000b0: ae21 b43f 2489 b5be de83 353f 81d4 d03e
000000c0: 1aab 743f c365 f9bf 48fc 69be 21da 4fbe
000000d0: 6d64 a13e 8210 97bf 1985 16be b6c4 1cbf
000000e0: a986 eabe 7756 d9bf a096 b63f 6746 ef3e
000000f0: 0ac2 a7bf fc60 8bbf 93c4 3f3a 554c 81be
00000100: 82a7 ddbe 83f7 a4bf dbfa 113f 90d4 443e
00000110: 92bc ab3e a658 8b3f f3a2 bd3d 0931 15bf
00000120: 0f7e 2a3f bf1b 7c3f e4f5 86bf e4fd a63f
00000130: dccf 663f b9d0 d73f 516d acbf 02aa 9b3f
00000140: a4e8 4e3f cf55 97be 2ae1 6cbd d4a2 64bf
00000150: e1a8 4bbf d238 a7bf 0e01 1140 cb8f 323f
00000160: 7137 c33f ecb0 10be 7311 01be e7f9 c9be
00000170: 1c8a 0cbf e721 a1bd 83a9 42bf 9f42 77bf
00000180: 0fb9 3ebf ecce b6bd 6454 09be 069e 99bf
00000190: a954 93bb f108 573f 0291 2c3e 64eb bbbd
000001a0: 9ab7 49be 9862 01bf cc42 f0b8 a89f 563f
000001b0: 34ec e3bf 2594 9ebf 0397 ae3f 46fa e03e
000001c0: f637 f13d 14fe f2be 7191 ccbf 9c78 3d3e
000001d0: e6fd 9fbf f179 27bf 30b9 e8be 98e8 4c3f
000001e0: faa1 123f e3c9 debf 2f4e 4b3f b76e 3f3f
000001f0: 286a f8bf 5ea1 b6be a2f1 78bf a359 883d
00000200: e85f d8bf 18eb a53f 6a32 a3be 4556 90bd
00000210: a29a c2bf fe25 d3be a6e6 a63e b598 5bbe
00000220: fa74 b93f 1c86 37bf 8211 423f 545e a6bd
00000230: 746e adbf 6def ec3e a4ef 083f d751 debf
00000240: 4076 10be 90d3 9ebf 8bbf 3a3f 3793 993f
00000250: 3737 30bf 0ef7 85bf 17ef 24be 2670 463f
00000260: d765 1b3f fcb0 debe 28ee a2bf a90a 9fbe
00000270: a7cd 683e ae2b f4bc 4fa5 dfbe 0bc3 a3be
00000280: c573 ac3e ca3e 85bf 2bf6 c63e 0f03 60bf
00000290: 0683 8ebf 05ad a8be cc54 743f 16f7 813f
000002a0: ee49 0740 c53f 5abe 9885 5cbf 0dc2 2dbf
000002b0: 9104 4c3f 8d32 0abf 8f8c 3e3e 4d07 6fbf
000002c0: 052e b23e c215 10bf 39cc 023e 9edf 6ebf
000002d0: 7197 8fbe 267e cbbe 6835 34be dc6b 843f
000002e0: 0c9d 41bf 6b1f 93be 1b14 513e e942 d23e
000002f0: 757b 363f 747d a9bf b7ea 53bf 11d3 56bf
00000300: d50a 963f 61af f73f 7556 7ebf b5fc 2cc0
00000310: ca9e 673f c5a5 843d bc69 973e 2b15 d1be
00000320: dbb6 69c0 2b4f f0be fe90 523f efce d9be
00000330: 114d 92bf 3c32 0bc0 774d c83f c853 693e
00000340: d7d5 e43f e6e4 c5bd f6c5 3cbe c0fb 7b3f
00000350: 7614 1c40 e857 4f40 fa5b f6bf 7b9a 24c0
00000360: 2ec1 3bc0 c143 423f 492f 79bf 95ed 283f
00000370: 599c 1440 e05c f9bf c3d0 b53f b91d 28bf
00000380: d393 9a3e 2b36 a7bf 8b85 c8bf 2354 6840
00000390: a9b4 97bf 952e 393e bc42 82bd 4a0b a23f
000003a0: 337e 3c3f 98cd 7640 f485 20be 2286 b2bf
000003b0: 55f2 a0bf 0010 3540 8d5a 48c0 f720 12bf
000003c0: 6150 cbbf a373 2b40 e7bf 2740 fe72 823f
000003d0: fb67 ee3e 66fc 4640 6c55 0c40 9e76 67bf
000003e0: 2985 febf f214 2b40 927e e6bf 8eac 52c0
000003f0: da18 f23f 8914 1bbd 0b44 293f 2ec6 7a40

fc.bias f4 [6]
-0.094203524 0.010674935 -0.019854281 0.05217627 -0.02842392 -0.11404742
00000000: c7ed c0bd ece5 2e3c 72a5 a2bc c9b6 553d
00000010: 48d9 e8bc b291 e9bd
