checkpoints/A/model_A_epoch_60.pth (torch, 78688 bytes, 15 tensors)

node_embedding.weight f4 [1, 64]
00000000: 68ca 4a3e fdb4 b8bd 5c3a acbe 0931 61bf
00000010: 627e c83f d671 b8bf 52d9 39be 64ec 953f
00000020: 47f6 87be cd4c 913f f98e 773f 9843 2bbf
00000030: 5f0e 9f3f b291 c3bf c0c0 d9bf 9d30 a5bd
00000040: dbf3 0140 a92f 403f 7d0b c13f 7f23 fcbf
00000050: 2cc8 983f 5bcf 96be 6170 54bf 4f04 e5be
00000060: a193 52bf ac3a eebe 7312 a7bf 33dc 543f
00000070: 43e4 de3f 105e 233f 0d29 2f3f 8b36 ebbe
00000080: 5d8e 8a3f 9e98 28c0 46d3 20be 43fa 0040
00000090: 3904 e93f 6f2e af3f c5d9 9ebf 5ce7 293e
000000a0: 2942 043f bbc5 0740 2ab8 80bf 4442 b2bf
000000b0: 85c0 a33d f5d3 853e c1d5 bc3e f943 6a3f
000000c0: 5742 713f f423 33bf 977a 6640 e7da 15bf
000000d0: 7708 6ebe f7cc e03f dbed 41bf 50ae 653f
000000e0: 2a02 b13e 60cd 82bf a2a4 81bd 56f2 67be
000000f0: 5c0d 59bf f1f6 9a3f 2577 ce3f 6880 d73f
0.19803774 -0.09018896 -0.33638275 -0.87965447 1.5663569 -1.440974 -0.18149307 1.1712766
-0.26555082 1.1351563 0.96702534 -0.66900015 1.2426261 -1.5278838 -1.7011948 -0.08065913
2.0305088 0.75072724 1.5081631 -1.9698333 1.1936088 -0.29455075 -0.82983977 -0.4472985
-0.82256514 -0.46529138 -1.3052505 0.831485 1.741341 0.63815403 0.68422014 -0.4594005
1.0824696 -2.634315 -0.15705594 2.0152748 1.8204414 1.3686045 -1.2410208 0.16592163
0.5166345 2.1214435 -1.0056202 -1.3926473 0.079957046 0.26138273 0.3688183 0.9150997
0.9424185 -0.69976735 3.6012323 -0.58537143 -0.23245417 1.756255 -0.75753564 0.89719105
0.34571964 -1.0218925 -0.06330229 -0.22651038 -0.8478601 1.210661 1.613011 1.6836061

conv1.nn.0.weight f4 [64, 64]
00000000: f580 d03d c6e3 0dbd 4fb1 e53c 9631 073e
00000010: c178 f6bd 43d1 fa3d 64b1 ffbd 3260 07bd
00000020: cfb3 17be feb1 02be ef06 2d3c b2db 9b3d
00000030: 76d9 663d 398e 193d e370 27bd b77e 103d
00000040: c7ac e0bd a9f7 8fbd 3f01 a83d dce8 493d
00000050: cbdc 21bd 9748 8d3a 8bf7 32bb 8ee7 d5bd
00000060: 7eb7 623d 7783 4dbd 2af2 c1bd 577c 74bb
00000070: dab7 883b f567 973c eee1 0cbd 99b6 9f3d
00000080: 42af 7dbd 2709 24bd 5764 ec3c 957b d93c
00000090: 3df1 813d 9812 013c aa65 a8bd b130 f7bd
000000a0: b3e9 3f3c fe14 e7bd ebf7 91bd 2017 a43d
000000b0: 820c 4fbc a4ab 9abd 4ee8 e1bd f942 ad3d
000000c0: 8f57 b23c 9f25 893d e4ce 773d 6a7d 4c3d
000000d0: 2409 633d 338e bcbb ebd3 c0bd 19ea 9ebc
000000e0: 869f ab3d 6257 273d 5297 f8bd 0346 e9bc
000000f0: 347d 7fbb 6bfa 5cbd c28c 753d 3737 90bd
00000100: 3c3a 573d 10df eebd e09f 28bd 8053 cebb
00000110: 8adb b93d a096 2ebc 885c 523d c809 0f3d
00000120: f8cd ccbd 002d 48bb 302c 54bc 40c1 933b
00000130: 2cda f7bd 0eb5 fcbd 247c 1bbd 88f1 c83c
00000140: e2a5 80bd 1c1c 323d 28a4 e7bd c421 36bd
00000150: 946c f7bd 4690 ce3d 0e59 b6bd 146e c1bd
00000160: f44e 6f3d 8c2d 73bd 9880 d13c c0a5 2ebd
00000170: b4ac 45bd 3868 29bd a6f5 f53d a079 edbc
00000180: 80b5 b93c ae55 acbd 62a8 8cbd 3c12 4bbd
00000190: dac9 f2bd 1895 f8bd 1636 fdbd 6c2e 003d
000001a0: 6c09 b6bd 00c8 1cbb d8bd 933c d0f6 35bd
000001b0: d625 eb3d d272 8b3d 90d7 ba3d cc83 fdbd
000001c0: c0d8 2bbb 0019 eb3d 8825 5fbd 445e 1e3d
000001d0: fab0 d0bd 8003 2abc 9091 01bc a072 b5bb
000001e0: 1eeb fabd 6071 9bbc 680d a33d 7c1d 303d
000001f0: 92b9 c43d ec00 18bd 0072 9a3a a828 a13d
00000200: 2070 57bc b043 9a3c 1690 e5bd 401a 01bd
00000210: b0ba ca3d 083a eb3d 18a5 1f3d c8e0 89bd
00000220: b20a cb3d 6c95 303d 3825 d5bd 90e3 09bc
00000230: 86f7 85bd 1083 8cbc 2ce3 74bd d077 b43d
00000240: e8fe 93bc 5026 e63c b8d8 c7bd cc20 46bd
00000250: 0cc5 6abd a8e4 183d a0d3 d5bd 0cb8 43bd
00000260: 1e87 febd 00af 95bb c8ff 153d dade ddbd
00000270: 2886 d5bc 28df d2bd 28aa f9bd 786b d0bc
00000280: 1c1c 64bd a866 dcbc c0ff 5b3d 480e a53d
00000290: c832 fe3c ec43 8ebd f046 bd3c e8c6 953c
000002a0: 882e fa3d a08b 0e3d f0a1 93bc 5455 8fbd
000002b0: 30e9 46bc 8029 41bc 6490 ddbd 3001 3cbd
000002c0: 4071 453d 50f1 773c e0b4 b63c f855 313d
000002d0: 348b 5d3d 78b6 bdbc 3cf2 983d a0d0 b93b
000002e0: 7081 5dbd d88a 693d b6d4 fc3d 2471 143d
000002f0: bef3 ab3d b803 813c 6c3e 5abd 60a7 bb3c
00000300: f825 17bd 98b8 06bd 7cb2 a1bd 1ace ce3d
00000310: 28ec b7bd 40b0 dc3d 70df 0bbd 9ab6 ec3d
00000320: 08c7 97bc 0626 fd3d 767e ffbd 0050 29b8
00000330: a260 f3bd 9c19 79bd 0003 86bb f0ab b33d
00000340: 0086 50bd 725f dc3d 3803 c63c 80df 10bb
00000350: 82f8 fe3d 82bb 98bd 585c c8bc 4087 9f3d
00000360: 9468 b7bd 4c6d f4bd cac5 c43d faea cdbd
00000370: e054 073c 58d0 e53d f89e 953d d830 2a3d
00000380: 10a3 ba3c 84ac 3abd 989b 96bc 880d ecbd
00000390: e0c4 da3b f486 8a3d 5e95 b33d ee53 9dbd
000003a0: a009 58bd a07b acbc a0ec 923c b022 493d
000003b0: 00dc cabb b066 d4bc a241 f7bd bc38 e0bd
000003c0: c01d 37bd d038 25bd 80aa 08bd bc3b 293d
000003d0: 28a2 ecbd 3851 993d 5cb6 7bbd 38f9 7dbd
000003e0: f84c 953d ec6f 213d d838 76bd 4091 7dbb
000003f0: e0d8 70bc c027 f2bb 88ad 4fbd 20aa c43b
0.101808466 -0.03464105 0.028038649 0.1320251 -0.12034751 0.12246945 -0.124850065 -0.033050723
-0.14814685 -0.12763211 0.010560735 0.07610263 0.05635973 0.03748915 -0.04087914 0.035277095
-0.10970455 -0.07029659 0.08203363 0.049294338 -0.039517205 0.001077908 -0.0027308192 -0.10444556
0.055350773 -0.050174203 -0.09470017 -0.0037305558 0.0041723074 0.018482188 -0.03439515 0.077984996
-0.061934717 -0.04004779 0.02885644 0.026548186 0.06344841 0.007877968 -0.08222516 -0.12069834
0.011713433 -0.11283301 -0.07127365 0.08012223 -0.012637259 -0.07552269 -0.11030637 0.0846004
0.021770267 0.06696629 0.06050004 0.04992429 0.05542864 -0.005754256 -0.0941542 -0.019398736
0.08380036 0.04085482 -0.12138237 -0.028475767 -0.003898454 -0.053949755 0.05994869 -0.070417814
0.05254577 -0.116636395 -0.041168094 -0.006296575 0.09075077 -0.010656029 0.051357776 0.034921438
-0.10000223 -0.00305444 -0.012949988 0.004509121 -0.1210216 -0.12339221 -0.037960187 0.024529234
-0.0628164 0.04348384 -0.11310607 -0.044465795 -0.120812565 0.10086112 -0.089037046 -0.09444824
0.058424905 -0.05936961 0.025574014 -0.04263854 -0.048260406 -0.041359156 0.12009744 -0.02898866
0.022669554 -0.084147796 -0.06868054 -0.049577937 -0.118549064 -0.121378124 -0.12363832 0.03129427
-0.08888516 -0.002392292 0.01803486 -0.044424832 0.11481826 0.068090096 0.091231465 -0.12378654
-0.0026221722 0.11479378 -0.054479152 0.038664117 -0.101900056 -0.010376811 -0.00790824 -0.005537346
-0.12251876 -0.01897496 0.079615414 0.04299687 0.09605707 -0.037110254 0.0011783242 0.07869083
-0.013149291 0.018831104 -0.11209123 -0.031519175 0.09898889 0.11485678 0.038975805 -0.06732327
0.09914149 0.04311125 -0.104074895 -0.0084160715 -0.06541352 -0.01715234 -0.05978696 0.08811915
-0.018065885 0.02809444 -0.09758133 -0.04837112 -0.057316825 0.03732744 -0.10440755 -0.047782943
-0.12428115 -0.0045679808 0.036620885 -0.10833521 -0.026064947 -0.1029647 -0.12190658 -0.02544187
-0.05569087 -0.026904419 0.0537107 0.080593646 0.031030074 -0.06946549 0.023105115 0.018283322
0.122159064 0.034801126 -0.018021554 -0.06998697 -0.012140557 -0.0117896795 -0.10818556 -0.04589957
0.048203707 0.015133217 0.022303045 0.043294877 0.054087833 -0.023158297 0.074680775 0.005670622
-0.05407852 0.057017177 0.12345259 0.03624071 0.083960995 0.015748844 -0.053282186 0.022906959
-0.036901444 -0.032890886 -0.07895371 0.100979045 -0.0898059 0.107758045 -0.034148633 0.11558266
-0.018527523 0.12360768 -0.124752924 -4.0367246e-05 -0.118836656 -0.06081544 -0.004089713 0.08773029
-0.050909042 0.10760392 0.024171457 -0.0022105873 0.12449743 -0.07457639 -0.024458095 0.07789469
-0.089554936 -0.11934909 0.09608038 -0.10054584 0.008259982 0.11221379 0.073057115 0.041550487
0.022782832 -0.04557468 -0.01838474 -0.115260184 0.0066763014 0.067640215 0.08768724 -0.07682024
-0.052743554 -0.021055043 0.017935097 0.049105346 -0.006190777 -0.025927871 -0.12073065 -0.10948321
-0.044706106 -0.040337384 -0.033365726 0.041316733 -0.11554366 0.07486194 -0.06145321 -0.06200525
0.07290071 0.039413378 -0.060112804 -0.0038691312 -0.0147001445 -0.0073899925 -0.0507026 0.006001726

conv1.nn.0.bias f4 [64]
00000000: 34ea 66bd 0429 d93d 508d 1c3d 2c9b 773d
00000010: fe62 553e 3c40 e5bd 50db bd3d 84c9 7d3d
00000020: 09c0 bdbd 195b 03be a9c8 8b3d 64fa 42bd
00000030: b858 c2bc d9a5 113e 0f2a 0dbe 23c5 b93d
00000040: 4e6c 8b3d 47d7 b9bd 82d6 2abd 81ce 313e
00000050: 70ab 1b3c 6dae 1d3e 15a5 c03d 455b c8bc
00000060: 6770 febd 1f07 ef3c 501d 753d 6835 c1bd
00000070: b42f f73d 1152 d3bd 3083 17be 6b32 393d
00000080: bcd8 1c3c b985 473c e3a7 a0bd 1466 52bd
00000090: 2ead c3bc dd40 d43d e08b 9f3c 94cd cd3c
000000a0: 67be d83d 2cfc ea3d a0e4 823c 31f7 74bd
000000b0: c605 babd fdd3 8fbd 156d 943d 2f29 223d
000000c0: d8aa 22bd 0880 4e3d 665a a1bd 1267 a9bd
000000d0: 0000 ebb7 a838 afbc 3896 9a3d cad5 843d
000000e0: 3ed6 cbbd fc5b b6bd 719f b93d d039 393d
000000f0: e7b5 41bd 3868 923d d9fa 16bd bf7d 34bc
-0.056375697 0.10603526 0.038220704 0.060450718 0.20838544 -0.11193892 0.09270346 0.06195976
-0.092651434 -0.1282772 0.06825382 -0.047602072 -0.023723945 0.14223422 -0.13785575 0.09070804
0.06807767 -0.09074264 -0.041708477 0.17363931 0.009501323 0.1539857 0.09406487 -0.024457583
-0.12423783 0.0291782 0.059842408 -0.094340146 0.120696455 -0.10318387 -0.14796138 0.045214098
0.009573158 0.012177878 -0.07844522 -0.05136688 -0.02388629 0.10363934 0.019475877 0.025122441
0.10583191 0.11473879 0.015978158 -0.059806053 -0.090831324 -0.070228554 0.07247368 0.039590057
-0.03971371 0.05041507 -0.0787857 -0.08271612 -2.8014183e-05 -0.02138932 0.07548183 0.064860895
-0.09952973 -0.089042634 0.09063614 0.04522115 -0.047292616 0.071487844 -0.03686032 -0.011016308

conv1.nn.2.weight f4 [64, 64]
00000000: 2c36 6d3d 2078 223c 08c6 893c 880c dcbd
00000010: 3b68 a2bd 8243 78bd 47c0 be3c 044a 4ebd
00000020: 0aaf 17bc 3e80 563d a073 253d 78f3 373d
00000030: 08cb 813d c285 15be eb96 bdbc e264 8c3d
00000040: 6b4a 843d 291b 4bbc 152b 28bd a4ab 663d
00000050: ba07 fabd b2b6 adbc 5a48 f9bc 9e27 aebd
00000060: 87f4 553c d18f 033e d49b cc3d 1b06 fbbd
00000070: fc88 2ebd 3223 243d 1e6e 5c3d 2eb3 9fbd
00000080: d9c6 cebd 7921 27bd 703f 91bd e3cb 3b3d
00000090: 36c0 d0bd 7375 fa3d f8ce d13d 2a99 e1bd
000000a0: a6be f53d 3467 963d d8a5 563d 0845 92bd
000000b0: 78b2 d53c 6747 363d 0c77 263d 985d 853c
000000c0: 58f5 f33c 262c b0bc 4dc2 b8bd 408b c2bd
000000d0: 484f b63d 004f ebba c914 cb3b c3cb 88bd
000000e0: acfc 053d a216 9ebd b669 973d 7a06 a5bd
000000f0: 9d0c b7bd a60d f63d 3c57 143d 5218 81bd
00000100: f278 c0bd d811 be3d d0da febc 0ebd a5bd
00000110: 01f2 893d 150a 713d 53df f83d bc92 a0bd
00000120: 5644 bc3d 0aa1 b7bd 2536 aebd bc54 e33d
00000130: e8f5 eb3d 8a43 07bb 76bf 8cbc 4c00 943d
00000140: 4bee fa3d 9f7a 4d3d 5010 a63c 8bac c73d
00000150: 1026 383c 70ed 453d c190 053d 64b1 4fbd
00000160: 5fe0 653d eef4 d13d 08b2 f5bd d697 b73d
00000170: c8d9 3abd b3cc 06be a634 bdbd a391 b73c
00000180: 3948 b43d adeb 493d 9fdf 6e3d f582 22bd
00000190: e9c5 f9bb ad64 423d 40e5 f03d 7245 3ebc
000001a0: 45df 9bbc 28ef ac3c cc6e 5dbd 6ec9 dabb
000001b0: c887 0d3d 819c a1bd 4199 23bd 18af 8ebc
000001c0: a0ba f2bb 5577 42bc 49b1 d9bd f42e bdbd
000001d0: c031 c5bb 18d2 d7bc 744a 87bd 619e bc3d
000001e0: 405d 8abd 6fac c63d 0cc3 d13d 1ecb 9b3d
000001f0: 17ec a63d 6d5c 813d 62d1 b5bd 5c96 053d
00000200: e8b5 f6bc e816 d13c a0dd e0bc 00aa 623c
00000210: 611d b03c 30df 9f3d 7a23 56bc 60d5 08bd
00000220: f5fb 5cbd ea28 f4bc 5036 42bd b264 d23d
00000230: d29d 85bd 54b1 7b3d 8421 0bbe 6094 ed3b
00000240: 465b 80bd a936 f9bd d84c 1e3d b608 adbd
00000250: 90bf acbc 552a a5bd 2685 8d3d c4c9 38bd
00000260: 1a1b b2bd 226f bdbd a420 c6bd 603a f63b
00000270: 0051 5b3c 58b8 adbd c8ae 51bd 6855 4a3d
00000280: 3097 013d d649 92bd f89c 76bd b3ff b3ba
00000290: 3ed7 ff3d 0c70 a23d 286a fdbc 3054 cd3d
000002a0: ac70 f9bd 3cc5 d03d f045 c83c 2d48 cdbc
000002b0: f0ac 44bd 4a72 8abd 4cb0 f33d 04da 413d
000002c0: a014 5dbc a2b4 8b3d fc82 e2bd b642 fd3d
000002d0: 9cc4 413d d6e9 f23d 909a 7ebd 9840 fbbc
000002e0: fcd4 163d b812 bb3c 9215 debd ea6f b33d
000002f0: 00df 063d 2025 953b c86d 9b3c bcb5 6b3d
00000300: fcd4 4c3d f63b a83d 68a6 d33c 6ef6 d7bd
00000310: 472a 003e 437d b63c 570b ba3d 0027 0fba
00000320: 4b8d 853b 35d9 2bbd fdf6 d63d 27c5 e2bd
00000330: 94cf 873d 4d46 babd 8335 c53d 5c04 eebc
00000340: 2d25 f0bd bea5 473d 224e bebd da13 ffbd
00000350: 406a 7cbd 6bed adba 2698 983d 3275 a5bc
00000360: bdb6 ddbd 0ceb 633c bc6f b73d 3c38 bc3d
00000370: 6cc7 eabd 45b4 c1bd 04f3 5e3d bd10 99bd
00000380: bed3 d3bd 1507 c3bc a89f 4cbb a6ad e23d
00000390: 2b14 f03b 0279 6c3d 8c09 0abd 0489 ea3d
000003a0: 3ea1 ed3d 8c28 0e3d 14a4 cabd e4d2 f83b
000003b0: 4cf3 263d ae54 e03d f5ae 7bbd 340d b93d
000003c0: fcdd 07bd b8d4 1d3d 41e7 f1bd 8806 e2bd
000003d0: 24ea 2cbd 70bc 59bc 6f00 f83d cd57 ca3d
000003e0: dc1c 95bd faa2 3b3d b001 de3d d8db 933c
000003f0: 4575 543d 5279 343d 811d 49bd d01a 60bd
0.05791299 0.009916335 0.016818061 -0.10744578 -0.07930037 -0.060611255 0.023285044 -0.050363556
-0.009258041 0.052368395 0.04039347 0.044909924 0.06337553 -0.14601806 -0.023143252 0.06855179
0.064595066 -0.012396612 -0.04105671 0.056316033 -0.12208505 -0.02120528 -0.030430008 -0.0850365
0.013058788 0.1284783 0.09990659 -0.12257024 -0.042611107 0.040072627 0.053815953 -0.07797848
-0.10096521 -0.040803406 -0.07092178 0.04584874 -0.10192911 0.12229433 0.10244554 -0.11015542
0.11999254 0.07343903 0.052404255 -0.07142073 0.026086077 0.04450169 0.040640876 0.01627998
0.029780075 -0.021505427 -0.09021435 -0.09499216 0.089018404 -0.0017952621 0.006197546 -0.066794895
0.03271167 -0.077191606 0.0739321 -0.08057876 -0.08937953 0.12014322 0.036216006 -0.06303467
-0.093980685 0.09280747 -0.031110197 -0.080927 0.06735612 0.058847506 0.12151971 -0.07840487
0.091927215 -0.08966263 -0.08506421 0.11100146 0.11521512 -0.0020639622 -0.01718114 0.07226619
0.12252482 0.05016577 0.02027145 0.09749707 0.011239544 0.04832214 0.03260875 -0.050706282
0.05612218 0.10251795 -0.119968474 0.08964507 -0.04561785 -0.13164024 -0.092385575 0.022408312
0.08802838 0.049297024 0.05831873 -0.03967567 -0.0076224697 0.047459293 0.11762476 -0.011613237
-0.019027362 0.021110132 -0.054060742 -0.0066768443 0.03455332 -0.07891179 -0.039941076 -0.017417476
-0.0074075013 -0.011869271 -0.106295176 -0.09237471 -0.0060178936 -0.026345298 -0.06605998 0.09209896
-0.06756067 0.09700858 0.1024228 0.07607101 0.08150499 0.06316457 -0.08877827 0.032614097
-0.030116037 0.025523618 -0.027449429 0.0138344765 0.021498384 0.078062415 -0.013069982 -0.033406615
-0.053951222 -0.029804666 -0.047415078 0.10273112 -0.065242425 0.06144841 -0.13587004 0.0072503537
-0.06267409 -0.12168629 0.038647503 -0.08448927 -0.021087438 -0.08064715 0.06910162 -0.045114294
-0.086965755 -0.092497125 -0.096741945 0.007514283 0.013386011 -0.084824264 -0.051192075 0.049397856
0.031638324 -0.07142989 -0.06020829 -0.001373282 0.12492226 0.079315275 -0.030934408 0.10025823
-0.121796936 0.101938695 0.024447411 -0.02505883 -0.04801649 -0.0676008 0.1189886 0.047327057
-0.013493687 0.06821562 -0.110601395 0.1236624 0.047306642 0.11861007 -0.06215912 -0.03067045
0.03682421 0.022836074 -0.10843958 0.0876158 0.032927513 0.004551545 0.018973246 0.057546362
0.050007805 0.08214562 0.025836185 -0.105450496 0.12516128 0.022276526 0.09084194 -0.00054608285
0.0040756813 -0.04195519 0.10496328 -0.1107276 0.06631389 -0.0909544 0.09629347 -0.029054813
-0.11725841 0.04874205 -0.092922464 -0.12454958 -0.061624765 -0.0013269609 0.07450895 -0.020197485
-0.1082587 0.01391102 0.089568585 0.09190413 -0.11463818 -0.09458212 0.054430977 -0.07473896
-0.10343121 -0.023807088 -0.0031223092 0.11068277 0.007326623 0.05773259 -0.03370051 0.11451915
0.1160302 0.034706637 -0.09894577 0.0075934995 0.04075937 0.10953651 -0.06144615 0.090357214
-0.033170685 0.038532943 -0.11811686 -0.11036402 -0.04221548 -0.013289556 0.12109458 0.09880028
-0.07280895 0.045809723 0.108401656 0.018049166 0.05186965 0.044061013 -0.049100403 -0.05471307

conv1.nn.2.bias f4 [64]
00000000: c59f 01bd 1592 7b3e 5f7d c3bd 71b7 e03d
00000010: 2b0b d43d 2195 5abd 50bc e43d a18a a5bc
00000020: ec9d b83b face 893b 5f30 193d d4d0 b93d
00000030: 87da 393d 7602 bd3c 146e fc3d 5db1 6b3c
00000040: 77a6 9d3d 58f6 2b3d 5d38 c13c 00f3 763a
00000050: c87e febd 279b a1bb 4169 eebd e61f 0b3e
00000060: cb61 4fbd f470 0abe 9e93 a03d 9c0a 7d3d
00000070: e130 9bbd f0e1 22bd 2602 d6bd acd0 5e3d
00000080: ad3e 46be 0164 803d 915a 823d 6231 73bd
00000090: 598f bfbd ac77 a2bd a4c6 a93d 4155 d53d
000000a0: 7abe bbbd cddf e13c e279 a3bc c6c1 41bc
000000b0: 28ba 11bd 65de 8fbc 265b cdbd 1313 b53d
000000c0: 2230 b63d 24dc 25bd 49fc 893d ac20 8c3d
000000d0: e623 edbd 402e 283c 69ae f6bd c623 a5bc
000000e0: ac20 20be d32f fc3d 706f 80bd ee89 22be
000000f0: e894 ecba 9b0d 2bbd 6f15 aabc 8370 e4bd
-0.03164651 0.24567445 -0.09545397 0.10972489 0.103536926 -0.053364877 0.1116873 -0.020207705
0.00563406 0.0042055817 0.037399646 0.09073034 0.04537442 0.023072463 0.12325683 0.014385548
0.07697766 0.04198298 0.023586446 0.0009420365 -0.12426525 -0.0049318257 -0.11641169 0.13586387
-0.050630372 -0.1351965 0.07840656 0.061777696 -0.07577682 -0.039766252 -0.104496285 0.054398224
-0.19359846 0.06269074 0.063649304 -0.059373267 -0.09353513 -0.07932982 0.08289841 0.104166515
-0.0916719 0.027572537 -0.01995558 -0.011825984 -0.035577923 -0.0175621 -0.10027151 0.08841529
0.08895899 -0.040493146 0.06737573 0.06842169 -0.11579113 0.010264933 -0.12044985 -0.02015866
-0.15637463 0.12313809 -0.06271255 -0.15872929 -0.0018049749 -0.041761022 -0.020762173 -0.111542724

conv1.lin.weight f4 [64, 7]
00000000: 246c 64be 7336 ab3e 8a64 563e 5b2c 5e3d
00000010: a204 b43e 96c4 98be 0071 aa3e 1933 91be
00000020: f496 84be 3faf cfbd c161 353c 9fc4 5ebe
00000030: e68a a33e b8e4 1f3d 4fb6 babe 4d0f 493e
00000040: 38f0 cdbc 0502 95bc 850b 973d b9b5 a63e
00000050: 8e7b 063e 6c41 d43d 2b34 95bd b054 453e
00000060: 0a94 0abe ecd6 a4be 3828 44be cfb5 8dbe
00000070: 481a 8a3e 23d4 663e 11ba 8f3e 79d7 88be
00000080: f217 993e f3d3 2d3e e2ed cdbe 7506 823d
00000090: 4aa3 a03d 8e45 b8bd 8743 cdbd 9ea8 8fbe
000000a0: 3b10 70be d18d b9bc 8326 3ebe 6e23 8f3e
000000b0: 0ec7 9bbe 5bd0 1d3e 2c6f d33d be61 d0bc
000000c0: 2ed5 8b3e 276b ccbd c2cf 55be 5ee5 98be
000000d0: 6c8d 893d 0c83 0d3e 2d1b 8abe 761b 593e
000000e0: 3a81 323f ff4a e53e db6e 133f e3bf 4f3e
000000f0: a79c 0bbe 5b82 373d 75fe 8ebe 1cb6 703e
00000100: c356 8cbb 2ee6 78be f7d7 99be b117 91bd
00000110: a50b f1bd 78e8 24be f6d7 d83e a76d d23e
00000120: fca9 c53e 8110 96bc b73c c23e 2edd 60be
00000130: 1fb3 81bb fb24 1bbe c495 a9be 84f3 c0bd
00000140: 4a33 96be 6b9f cd3d 3249 ce3c f1f7 27be
00000150: c893 263b 5de3 a6be 9c7f fb3d 5be8 d5be
00000160: 0b59 773e 6d55 d7be 0969 93bd 6606 983e
00000170: 18b3 0b3e 5e81 0c3e 639f 933e dcb5 c1bd
00000180: 9f40 3dbc 4b9d 5e3c d2cf d63d ddd0 d73c
00000190: 3ef8 e23d e14e 643e 4dde 2abe a81a 3fbe
000001a0: f989 78bc f07d a7be e0ed 1d3d f920 ef3d
000001b0: 6389 7c3e b160 14bc ed55 6fbd 393c 893e
000001c0: 8525 b4bd 83e2 d93e d175 413e 9b99 9ebe
000001d0: 25e0 a0be 98a6 23be 1187 843c f6f0 fa3d
000001e0: 2bfe c43d 4f8b c1be aea5 3cbc 34f5 52be
000001f0: 03f3 593e 563d adbc 7fc2 80bd f971 d5bc
00000200: f6f1 2ebe a5bd 363e b9b3 c53d f095 61be
00000210: 995e 80bc a887 a5be 41c9 553a 614b 183e
00000220: a97f 613e ad87 0fbe 8618 63be ea48 ac3e
00000230: e25f 5ebe f721 3d3e bc81 c2bd c5ac 0ebe
00000240: 93b1 84be 9136 84be c18f 033e 37b7 0abe
00000250: 1988 0abf 2520 a03e 3d5b 85be c11b 013e
00000260: 03a9 9f3e bc53 2bbe 83cd a43e 0b50 30bd
00000270: 35a2 76ba c629 933e 6df5 b73e 8106 0ebe
00000280: 085a aebe e8d6 273f 03ed 8b3e 951e 5dbd
00000290: 62e3 773e 750d 183e 0afa debe a214 26be
000002a0: f20c 573d 3238 3e3e 924b f2bd 7b60 353d
000002b0: d7ac 6a3d 089f 443e 95e8 0a3e a853 893e
000002c0: 4065 c03d 702e 0d3e 3569 853d 0f82 e13d
000002d0: e26e 8a3d b3d0 ce3e 9261 983d e826 4cbe
000002e0: f96a 9d3d aeaf 0bbe bfbc 68be 540e 533e
000002f0: ca5c 563e cee0 7e3e 3e05 18be 46ee e03d
00000300: b3cb 1dbe 3d01 abbe 2651 9f3d b2a7 213e
00000310: c741 503c b8a1 23bb fec6 abbe 2024 a2be
00000320: 8dca 29bd 2418 20be f0ab 03be 7cd4 adbe
00000330: 9ae1 adbd c19d a7be 273e 463e 0a15 babe
00000340: a081 96bb 1d6c 8f3d 9a04 733e a78f 9fbe
00000350: d514 433e 4384 683e 7750 7a3e 357c a8be
00000360: 459e c73d f89b 363e b38d aebc 8d64 c03d
00000370: fe59 623e 8577 b53c de59 843d 6d78 05be
00000380: 7b39 b9ba 556a 5cbe 3450 babe e589 9d3e
00000390: 12f5 bb3c f320 193e 2a22 8bbd f22c 8ebe
000003a0: d7c7 6ebe 0a28 b83e 2e54 b63d f90a ac3e
000003b0: a315 32be f9e3 54bd aeba 8dbe 6a33 9cbd
000003c0: c243 1e3e 9e18 9dbe 1dc0 d83c 2bae a63e
000003d0: c3bd 59be 141b 11bf 4f7f 643e f71a ce3d
000003e0: f255 74bd 5ba6 b6be 6158 53bd a7b5 843e
000003f0: e6ad 973d 731e 073e 1937 ab3e 52ce 93be
-0.22306877 0.3343998 0.2093679 0.05424152 0.35159785 -0.29837483 0.33289337 -0.28359297
-0.25896418 -0.101408474 0.01107067 -0.21754692 0.3194191 0.039036483 -0.36467215 0.19634743
-0.02513896 -0.01818944 0.07375244 0.32560518 0.1313307 0.10364041 -0.07285341 0.19270587
-0.13533035 -0.32195222 -0.19155967 -0.2767777 0.26973176 0.22541861 0.28071645 -0.26726893
0.2990108 0.16975383 -0.40220553 0.06348888 0.07843645 -0.089976415 -0.100226454 -0.28058332
-0.23443691 -0.022650631 -0.18569379 0.27956718 -0.30425304 0.15411513 0.10323939 -0.025437232
0.2731108 -0.09981375 -0.20880035 -0.29862493 0.06716427 0.13819522 -0.26973858 0.21201882
0.69728434 0.4478378 0.5759103 0.20288043 -0.13633977 0.04480205 -0.2792851 0.23506969
-0.0042828037 -0.24306557 -0.3004758 -0.07084597 -0.11769799 -0.16104305 0.42352265 0.41099283
0.3860625 -0.018318417 0.37936947 -0.21959373 -0.0039581205 -0.15150826 -0.33122075 -0.09421447
-0.29336005 0.10040172 0.025181387 -0.16403176 0.0025417674 -0.3259534 0.12280199 -0.41778836
0.24155061 -0.42057362 -0.07197768 0.29692382 0.13642538 0.13721225 0.2883254 -0.09458515
-0.011551051 0.013587306 0.10488857 0.026344711 0.11082505 0.22295715 -0.16686364 -0.18662512
-0.015169614 -0.3271327 0.038556933 0.11676211 0.24661784 -0.009056256 -0.058431555 0.2680376
-0.08796219 0.42555627 0.188926 -0.30976567 -0.3142101 -0.15981519 0.016177686 0.12252991
0.09618791 -0.37801597 -0.0115141105 -0.2060135 0.21284108 -0.021147411 -0.06287097 -0.026055323
-0.17084488 0.17845781 0.0965342 -0.22029853 -0.015670108 -0.3233006 0.00081552943 0.14872505
0.22021355 -0.140166 -0.22177324 0.3364938 -0.21716264 0.18469988 -0.09497401 -0.13933094
-0.25916728 -0.2582288 0.12847807 -0.13546453 -0.5411392 0.31274524 -0.26046172 0.12608244
0.31183633 -0.16731161 0.32188043 -0.043045085 -0.0009408326 0.28742808 0.35929433 -0.13869669
-0.34053063 0.65562296 0.27329263 -0.053984243 0.24207833 0.14848883 -0.4355014 -0.16218808
0.05250258 0.18576124 -0.1183082 0.044281464 0.05729374 0.1920129 0.13565286 0.26821637
0.09394312 0.13787246 0.06514207 0.11011135 0.067594305 0.403936 0.07440485 -0.19936717
0.07686419 -0.13641235 -0.22728251 0.20610934 0.20933834 0.24890444 -0.1484575 0.10982947
-0.15409736 -0.33399382 0.0777915 0.15786627 0.012710995 -0.0024968218 -0.33550256 -0.31668186
-0.041452933 -0.15634209 -0.12858558 -0.33951175 -0.08490296 -0.32737544 0.19359647 -0.36344177
-0.004593089 0.07003043 0.23732224 -0.31164286 0.19050916 0.22706704 0.24444757 -0.32907262
0.097469844 0.17832935 -0.021307802 0.093941785 0.22104642 0.022151718 0.06462453 -0.1303422
-0.001413151 -0.21524937 -0.36389315 0.30769268 0.022944007 0.14953975 -0.06793626 -0.27768666
-0.2331842 0.35968047 0.08902775 0.3360212 -0.17391066 -0.051975224 -0.27681488 -0.07626994
0.15455535 -0.30682844 0.026458794 0.32554755 -0.21263795 -0.5668194 0.2231419 0.10063737
-0.059652276 -0.35673794 -0.051597957 0.2591984 0.07406215 0.13195209 0.33440474 -0.28868347

conv1.lin.bias f4 [64]
00000000: 024b 21be 77d8 a73e 9ccd 54be b35d b13e
00000010: 58d3 5fbd c5cc 863e 80c5 8e3d 9a2a 493e
00000020: b6b7 5d3e 4511 b73d fe34 053d 913d b33e
00000030: e9f7 0a3e d5b0 763e fd2c 503c ea0e 6cbd
00000040: e848 9c3e b1e8 a23d 3a7f 393e 75db 5fbe
00000050: 0965 70be 0f59 583e 79be 93be b2f4 e83e
00000060: 93b8 823e 4873 ac3c e71f 38bd ae8f 303e
00000070: bdc7 9e3e 395e 873e d245 883e 502e 6dbe
00000080: f1aa d8bd 1701 923e 0b44 babe 9786 903e
00000090: 122d 28be 7bf8 563e 8e50 5bbe 6412 0ebe
000000a0: 70dc 983e b720 31be 717c 26be fd06 9c3e
000000b0: 5d10 3e3e cf1a 7bbe fea3 b43c 5071 a1be
000000c0: 6753 9ebe ca78 b9be f073 0abe f8cb a2be
000000d0: b6c2 593e c8af 633d b7fa 0dbe 8e52 9dbe
000000e0: 61be 74be 5d0f 953e 2a84 393d 0e3c 56be
000000f0: 6e7b cf3e 7ee8 91ba d897 743d 1111 a63d
-0.1575127 0.32782337 -0.20781559 0.346418 -0.054644912 0.26328102 0.06971264 0.19645157
0.21652111 0.08938841 0.03252124 0.3500791 0.13571133 0.24090894 0.012706039 -0.05763141
0.30524373 0.079545386 0.1811494 -0.2186106 -0.23476042 0.21127723 -0.28856257 0.45499188
0.25531444 0.021051064 -0.0449523 0.1724231 0.31011763 0.26439074 0.2661577 -0.23162198
-0.105794795 0.28516456 -0.36380038 0.28227684 -0.16423443 0.20993225 -0.21417448 -0.13874203
0.2985568 -0.17297636 -0.16258408 0.30474082 0.1856093 -0.24521945 0.022050854 -0.31531763
-0.30923006 -0.36224967 -0.13520789 -0.3179624 0.21265683 0.05558756 -0.13865171 -0.30727047
-0.23900749 0.29113284 0.045292057 -0.20921347 0.40523857 -0.001113191 0.059715122 0.08108724

conv2.nn.0.weight f4 [64, 64]
00000000: 401e 85bd c7d0 a83d e80f 8dbd fe4b 143c
00000010: 1aef f8bc fa39 18be dc9b 0b3d 71c4 1ebe
00000020: adf5 e5bd d029 03be cee3 e53d 3503 0d3b
00000030: a7cc 763d e190 b7bd 0ae0 27bd cd01 cb3d
00000040: cf3f cbbd 2852 93bc 500c bebd 7793 5a3c
00000050: 54e4 a23c 22bd a7bc d649 02be bb0a 91bd
00000060: df96 0c3d 7e39 a43d f21e 963b 6874 4cbd
00000070: 9c0f a3bd 1a6f 923b 124b 48be 82b1 1bbe
00000080: 9361 aabd ca25 853d 7733 c63d 1b99 b83d
00000090: 428b cbbd 8827 e63c c67b b9bd 22aa 52bb
000000a0: bf49 603d 74fd 8a3d 9b2a aa3d ccfb 533d
000000b0: 8186 59be 7d1f 32be 5f16 0c3e 441f 84bd
000000c0: c52b 5a3e b34f 88bd 2810 053e 1be0 643d
000000d0: 19a4 843d e6f5 273e 452c e73b 00d9 da3d
000000e0: 6a5d 8e3e 80ba e7bd 8604 e53c c945 d5bb
000000f0: b7e1 cc3d eac0 003d e961 8ebd 9292 603c
00000100: 8472 673d 9f14 d8bb 5576 b1bd d922 b23d
00000110: 7928 003d a62a 1fbe 6391 b7bc 9ee9 c43d
00000120: b568 0c3d 10c9 8cbd 135c cdba 3c2c f7bc
00000130: 1e55 6b3e 529f 8ebd 9d6d 873e dd99 863d
00000140: 6fca b53d bc12 4d3e ef3f 633d 02c9 51be
00000150: 38ac 06bd f1d3 90bd 1b1f 9bbd 058d a9b8
00000160: 9854 353b 3766 6cbd e871 59be 800a 3a3d
00000170: 4e2a 0abe ffff 983d 4ce5 2ebd 3ca0 263d
00000180: bd64 5dbd e5cd a2bd 9cbc 9a3d b063 bbbd
00000190: c1e9 cb3b f6c7 a53d c8b2 623d 5451 3f3c
000001a0: 9647 1a3d d177 be3c 6283 b8bd 1048 a4bc
000001b0: 70e6 86bd 4065 fc3c 2104 62bd 42c1 ea3d
000001c0: 058d d93e 045b 653d 119b 8fbd 91c1 ebbc
000001d0: 1ed3 833d 0966 8abd 2c76 c6bd 19c5 9fbc
000001e0: 3155 efbc 6479 a03d 99b3 e93d 0e4c 1fbe
000001f0: cd94 00be 8a3b 7b3d f3aa a6bd 76ce 9fbc
00000200: 1e11 5f3c 877f 1f3d 87ef 73bc d65a 34be
00000210: b685 e1bd ff3a 1aba edf0 17be 0e5b 31be
00000220: 8057 ff3b ff43 1bbd 69a9 e03b c977 55bd
00000230: 820d 80bd e39f 55bd 7019 7ebd 85e5 ad3c
00000240: 6c3a 8a3c 7ce6 c5bd d839 37bd d9bb 43bc
00000250: b039 90bd 6e07 403d 60b5 35be e432 ee3c
00000260: 04ae f7bd 8a1d 223d 2ad8 81bc dadb 95bd
00000270: 8cbf c0bc 1755 73bd 99e0 ea3c bafb 23bd
00000280: 5faa 7d3c eb0d 9438 b1ff 7dbd c598 86bd
00000290: bed9 1abc 2a33 a9bd 54d2 06be 8324 633d
000002a0: 101b cd3c 29ee 703c a32b 16bd 1597 39bd
000002b0: 9624 16be fd9c 823c a535 92bd 13f1 353d
000002c0: 5f75 4d3d 700e cbbd 4f9a 88bd 8181 61bc
000002d0: 7e24 813b fa89 42be 85b8 eebd ad0b 1cbe
000002e0: ad64 45bd 81bd 0cbe 9c88 c73d 2974 ae3c
000002f0: cd76 a4bd 7bf6 afbd a6d7 92bd 93d4 52bd
00000300: ced3 2cbe d406 9c3d ec45 073d 4141 cdbd
00000310: 03ee e13c c9d9 b7bd f325 02be 3d18 d7bd
00000320: ff91 e5bd d1a8 d8bd 1b94 d3bd 6387 9ebd
00000330: a99f 783c 65e1 58bd 4ffd d33c d60f 7bbd
00000340: f24c cbbd 8987 52be a13c 0a3c 969c 5dbd
00000350: 03f3 51bd dc7b acbd 5b4f 50bc afc9 113d
00000360: c24e e0bd 0b76 b33c ae0a ba3c e72e ef3d
00000370: 16cd f6bd 8b88 05be 1a40 28be 5115 cbbd
00000380: 0948 e1bd 95c4 66bd d360 d8bc 0946 00bd
00000390: de17 ad3d a7d8 2e3d 2afa 45bd d894 1e3d
000003a0: a9ae 743d a709 8abd f509 5e3c c5a7 93bc
000003b0: bb78 033b beef febd da59 e6bb b166 9a3d
000003c0: 87a4 cbbe 2c58 f6bd 9dc9 7a3d 71e6 513c
000003d0: 7f59 80bc 031f b1bd 0990 10bf 7918 8a3c
000003e0: 452f c0bd bd61 233d 0b3f 0f3d 2185 b8bd
000003f0: 2bf3 b3bd b05c d33c aee3 b73d 7215 ebbc
-0.0649991 0.08242946 -0.068877995 0.009051321 -0.03038745 -0.14865866 0.034084186 -0.15504624
-0.112284996 -0.12808919 0.11225091 0.0021516804 0.060253765 -0.0896318 -0.040985145 0.09912453
-0.0992428 -0.017983511 -0.09279692 0.013340822 0.019884266 -0.020475928 -0.12723479 -0.07082125
0.03432357 0.08018778 0.0045813257 -0.0499157 -0.079619616 0.0044688107 -0.19559887 -0.15204433
-0.08319392 0.06501348 0.09677785 0.090135776 -0.09938671 0.028095022 -0.09056811 -0.0032144864
0.05475783 0.067866236 0.083089076 0.051753804 -0.21242715 -0.17394824 0.13680409 -0.06451276
0.21305759 -0.066558264 0.12994444 0.055877786 0.06476612 0.16402397 0.007054838 0.10685921
0.27805644 -0.11314869 0.027956259 -0.006508563 0.10003989 0.031433977 -0.06952269 0.01370682
0.056505695 -0.006594255 -0.08665148 0.08698053 0.031288598 -0.15543613 -0.022408193 0.096148714
0.034279544 -0.06874287 -0.0015667699 -0.03017246 0.22981688 -0.06963982 0.26450816 0.06572316
0.08876502 0.20026678 0.055480894 -0.20486835 -0.032879084 -0.070716746 -0.07574292 -8.084815e-05
0.002766883 -0.057714667 -0.21234858 0.04542017 -0.134927 0.074707024 -0.042699143 0.040680155
-0.05405115 -0.079494275 0.07555506 -0.09149873 0.006222934 0.0809478 0.05534628 0.011677105
0.037665926 0.023250492 -0.09009434 -0.020053893 -0.06586921 0.030809999 -0.05517972 0.11462642
0.42490402 0.055995002 -0.070119984 -0.028778823 0.06436752 -0.06757743 -0.09690508 -0.019503163
-0.029215427 0.078356534 0.11411209 -0.15556356 -0.12556763 0.061336078 -0.08138075 -0.019507628
0.013614921 0.03893998 -0.014888651 -0.17612776 -0.110118315 -0.0005883425 -0.14838 -0.17319891
0.0077924132 -0.037906643 0.0068561328 -0.05211619 -0.062525764 -0.052154433 -0.062035978 0.021227608
0.01687356 -0.09663102 -0.0447329 -0.011946642 -0.07042253 0.046882086 -0.1774497 0.029077
-0.12093738 0.039578952 -0.015850145 -0.07317324 -0.023528837 -0.05940732 0.02867155 -0.040034987
0.015482514 7.0597824e-05 -0.062011424 -0.06572107 -0.009451328 -0.08261712 -0.13166171 0.055454742
0.025037318 0.014705219 -0.03666271 -0.0453101 -0.14662394 0.015943998 -0.07139138 0.04441936
0.050160762 -0.09914863 -0.06670057 -0.013763786 0.003941118 -0.18997946 -0.11656288 -0.15238829
-0.048191715 -0.13744165 0.09742853 0.021295624 -0.08030472 -0.08591934 -0.07170038 -0.051472258
-0.16877672 0.0761849 0.033025667 -0.10022212 0.027579313 -0.08977086 -0.12709789 -0.1050267
-0.11209487 -0.10579074 -0.10330983 -0.07740667 0.015174785 -0.052949328 0.025877623 -0.0612944
-0.099267855 -0.20559515 0.008437307 -0.05410441 -0.051257145 -0.08422062 -0.012714232 0.03559273
-0.10952522 0.021906873 0.02271017 0.11678868 -0.12050836 -0.13040368 -0.16430703 -0.09916175
-0.11000068 -0.05633982 -0.026413357 -0.03131679 0.08451818 0.042687085 -0.04833428 0.038716167
0.05973688 -0.06740122 0.013552179 -0.018024335 0.0020060975 -0.12448071 -0.007029754 0.07539118
-0.39773962 -0.12028536 0.06122743 0.012811289 -0.015667675 -0.08648493 -0.5646978 0.016857373
-0.09384016 0.039888132 0.03497223 -0.09009767 -0.08786615 0.025801033 0.08978973 -0.02869675

conv2.nn.0.bias f4 [64]
00000000: ec13 243e 35f1 be3d ecec f7bd c7d2 62bd
00000010: 0bd2 0dbe 1dc0 043d 5210 d83e f1c5 45bd
00000020: 0dc5 42be e924 4dbd a1bb 12be 402e 28bc
00000030: d6f2 bdbc 96b0 96be 889e ccbd 12b1 c3bd
00000040: 5cbd 35be 4f6a 513d bd56 5abe 4d07 e73c
00000050: 09e3 8ebd 96e8 d6bd 1dd8 e53e f30b aebd
00000060: 0620 8dbd 7fe1 bc3d 0d33 e2bd 5c34 cdbd
00000070: b6e7 233e 9be1 443e 8995 af3e 3ce8 b2bd
00000080: 240b 9a3d 3325 36bc aa31 2cbe 6bbb f83d
00000090: 599e 9c3e d146 41bd d7e4 dabc d22e d13e
000000a0: ed9f 603e 0804 ab3e 563e 4cbe 7943 58bd
000000b0: eaa5 953e 41ff 52bd 4860 50bd 712d 773d
000000c0: b3c7 b53e fd99 e43c 4656 e7bd 6fbf 88bd
000000d0: 7b7f 78bd ede1 d3bd 065b d9bd 3991 7cbb
000000e0: b140 a23c 6afe ef3d b6b9 50bd 2b89 ee3e
000000f0: 2aab 1cbe b116 ca3d 8c3e 90bb 174b 153e
0.16023225 0.0932335 -0.12105736 -0.055376794 -0.13849656 0.032409776 0.4219995 -0.048284475
-0.19020481 -0.05008403 -0.14329387 -0.010264933 -0.023187082 -0.294316 -0.09991175 -0.09555258
-0.17748016 0.051126774 -0.2132215 0.028201723 -0.06976897 -0.10493581 0.44891444 -0.08498373
-0.068908736 0.092226975 -0.110448934 -0.100197524 0.1600636 0.19226687 0.34293774 -0.087357014
0.07521656 -0.011117267 -0.1681582 0.12145122 0.3058956 -0.047186676 -0.026720447 0.40856034
0.21936007 0.33401513 -0.19945654 -0.052798722 0.29228145 -0.05151296 -0.05087307 0.06034607
0.3550392 0.027905459 -0.11295752 -0.06677138 -0.06066845 -0.10345826 -0.106130645 -0.0038538708
0.019806238 0.117184475 -0.050958358 0.46589026 -0.15299669 0.09867609 -0.0044019874 0.14579426

conv2.nn.2.weight f4 [64, 64]
00000000: 8c81 cf3d a609 ffbd a073 9cbd 33c0 1d3d
00000010: 8930 2b3d 026c 8bbe 8c03 b43e ec52 ee3d
00000020: 3945 ecbd 25bd b6bd d6cf cd3d a8ec 07be
00000030: f49c d9bd a288 b23d 220f a5bc f0ed f23c
00000040: c96f 1a3d 62a9 cd3c 1468 0dbe 7439 b73d
00000050: 34da e63b b8ef 17bd 5044 ccbc 3937 bf38
00000060: 789e a23d ee76 f9bd aebe 483c 27cb a9bb
00000070: d2dd d4bd 3419 61bd 7660 dabd 3598 713d
00000080: e1a6 9a3c 0ea6 753b 8427 ff3c de11 abbd
00000090: 9fe6 6dbd 81bc 003d eed9 aebd efd3 9c3c
000000a0: 694b 08bd e527 e23d dbf7 a03d 8947 cebd
000000b0: 13c6 f43d 2e29 97bd 55e9 84bc 8027 5fbe
000000c0: 7d76 84bd d986 06be ac39 f3bd b4bd 023d
000000d0: f99e ac3c bf46 f23c 7f5a ebbc 55bf e93c
000000e0: e5b8 833d d1a2 bdbd 103d ec3d 1d17 1d3e
000000f0: 574e 93bc 8130 293d 1f44 003d 5b5f a03d
00000100: 4b51 f1bd 682d 70bd cba9 bfbc e113 86bd
00000110: 757b ab3c f978 52be 5433 9f3e 583e 87bd
00000120: 7358 a33c ca98 3c3d ecb2 cb3d e013 a8bd
00000130: a2ce d6bd 8f15 9a3d bb49 c6ba 4f59 493c
00000140: 597f 4dbd e9c0 203e f605 f33b 6e73 de3c
00000150: a3dc b3bd e633 32bd d208 3dbc b32d 8dbd
00000160: 99a7 1c3d fdb5 b93d 34c5 053d 7ade 843d
00000170: 5705 be3d 6bce 13bd 4611 a0bd 56d7 0a3c
00000180: d73b 7bbd 309e 8a3d 80fe 1abe 6896 8fbd
00000190: 8a63 c83d e965 d33d f475 8bbd 4405 ba3d
000001a0: 74b9 d23c 3113 a23d 8a1e e43d ff89 57bd
000001b0: a491 c63c 6179 283d 2e09 803d 6d99 2ebf
000001c0: 4e55 043e e822 c73d 60f4 9b3d e24d 563d
000001d0: 1842 2e3d df87 c03d ae06 37bd e821 5d3c
000001e0: 1672 63bc dc33 01be a9fb 3fbd 92a1 033e
000001f0: 3c8e 9bbd f569 92bd d51b b73c a352 bfbd
00000200: 96cb d9bc 171b 23bd 99f5 303e dd84 3a3d
00000210: d06e 353c 797e 30be fed1 e6bd 4194 91bb
00000220: 99ff 11be 4dae 02bd 93db 4e3c c1da 503d
00000230: 2c97 85bd bbc3 f53d 4250 1a3d a571 ab3d
00000240: 1057 943b 859f bebd e59a bfbd 2e0f b23d
00000250: 1517 333d 4859 d33c f4f4 283d 031e 3c3b
00000260: 753e 27bd aade b4bd f473 893d 319a 10bd
00000270: 91b5 dfbd c8fb 0abe 335a 4d3d f507 2ebd
00000280: 9edc 7ebc 1cae 0bbd ec30 673c 45a5 46ba
00000290: edca bb3d 8cae b8bd 3d19 a7bb c4f6 a1bd
000002a0: aad9 f33d 01df 81bd 33ec 9f3d bbde 273d
000002b0: 1223 edbd 689d d3bd 70e5 9ebd af3e 203f
000002c0: 7b74 d93d fd8b febd 42fe 1b3d c616 683d
000002d0: 5862 26bb 114f a13d 5f21 abbd 2045 b2bd
000002e0: c88d 12bd 7aa5 c73b afba f23d ee14 c43d
000002f0: eb8b 68bd 7889 2f3d 9eee 87bd 5a44 3a3d
00000300: ba86 f4bd df65 e83d ab79 843d 1aa1 05be
00000310: 72b8 b43a 6c07 44be acce 423e 4f3a 8f3b
00000320: 3062 d93d cb04 893c d1c3 ebbd 6782 2fbe
00000330: e242 8ebd 2921 083d 3dc4 133d 5340 e4bd
00000340: 74b8 2a3d 9e9f 303e c0a3 bdbd 01d3 60bd
00000350: 6e36 c4bc fdd1 0ebe bc67 183d 8593 143d
00000360: 31e4 b0bd c438 863d 047e 503d 578c d83d
00000370: ef57 cebd 4a37 173d d3b1 ba3d 3507 973d
00000380: 02dd 213d 5314 c53c 6ec1 af3d 69fd ed3a
00000390: 2b39 8ebc 6491 f33d b857 d63c d5de b6bd
000003a0: ff3c 903d a221 e43d ec39 d03d 070d eabd
000003b0: bb86 fc3b 2d1b 7f3d 3259 d93c 78a5 d93e
000003c0: fe24 8c3b 6a23 81bc c0f1 d73d c144 e2bb
000003d0: 8e8f 6fbc 33c6 443d e0da c6bd 1512 943c
000003e0: c3c6 a63d 6d51 973d 2ee5 fcbd c3d5 eb3b
000003f0: e6b0 47bc 5673 f6bd 843b 743d 84de 4f3d
0.10132131 -0.12453012 -0.07639241 0.038513374 0.041794334 -0.2723084 0.35158956 0.1163691
-0.11536641 -0.08922795 0.10049407 -0.13273871 -0.106256396 0.08717467 -0.020148817 0.029654473
0.037704263 0.025105182 -0.13809234 0.08946505 0.007045055 -0.037093848 -0.024934918 9.117876e-05
0.07940382 -0.12180887 0.012252493 -0.0051816883 -0.10393871 -0.054955676 -0.1066293 0.058983047
0.018878402 0.003748301 0.031146772 -0.08353017 -0.058081266 0.03142977 -0.085376605 0.019144027
-0.03327504 0.110427655 0.07859775 -0.10072238 0.11951842 -0.07380901 -0.016224543 -0.21792412
-0.06467912 -0.13137378 -0.118762344 0.031919196 0.021071898 0.02957475 -0.028729675 0.028533617
0.0643175 -0.092595704 0.11535084 0.15340848 -0.017981691 0.041306023 0.031314965 0.078306876
-0.117830835 -0.058637053 -0.023396393 -0.0654676 0.020932892 -0.2055396 0.31093848 -0.06603688
0.019939637 0.04604415 0.09946236 -0.08206916 -0.10488631 0.07523643 -0.0015128175 0.012289359
-0.050170276 0.1569859 0.007416482 0.02715465 -0.087823175 -0.043506525 -0.011537747 -0.06893482
0.03824577 0.09067915 0.03265877 0.064877465 0.09278362 -0.036085527 -0.07815795 0.008474192
-0.061336365 0.06768453 -0.15136147 -0.070111096 0.097846106 0.10322172 -0.06809607 0.090830356
0.025723197 0.07913817 0.11138637 -0.052621838 0.024239369 0.04113138 0.06251751 -0.6820286
0.12923166 0.09723455 0.0761497 0.05232037 0.0425435 0.09400915 -0.044684105 0.013496853
-0.013882181 -0.12617439 -0.04687086 0.12854603 -0.075954884 -0.07149116 0.022352139 -0.093419336
-0.026586335 -0.039820757 0.17281188 0.045536865 0.011073783 -0.17235745 -0.112705216 -0.004442722
-0.14257659 -0.031904507 0.012625593 0.05098987 -0.06522974 0.12000223 0.037674196 0.08371285
0.00452698 -0.0930777 -0.09355716 0.086943015 0.043723185 0.025799409 0.04124923 0.0028704412
-0.040831048 -0.08831532 0.067115694 -0.0353033 -0.10923303 -0.1357261 0.05013485 -0.042488057
-0.015555529 -0.03410159 0.014110785 -0.00075777277 0.091695644 -0.09017667 -0.005099444 -0.07908395
0.119067505 -0.06341363 0.07808723 0.040983897 -0.11578955 -0.10332757 -0.077586055 0.6259565
0.1061792 -0.124290444 0.038084276 0.056662343 -0.0025388207 0.07876409 -0.083559744 -0.08704591
-0.035779744 0.0060927244 0.11852013 0.095743045 -0.05677406 0.04285571 -0.066373095 0.04547534
-0.119397596 0.11347555 0.06468519 -0.13049737 0.0013787879 -0.19143456 0.19024152 0.0043709646
0.10614431 0.016725918 -0.115119584 -0.17139588 -0.06946351 0.03323475 0.03607582 -0.11145081
0.041679814 0.17248389 -0.092597485 -0.05488873 -0.023951735 -0.13947292 0.037208304 0.036273498
-0.08637274 0.06553796 0.050901428 0.10573643 -0.10075366 0.036917962 0.091159485 0.073744215
0.03951741 0.024057543 0.08581816 0.0018157187 -0.017361244 0.118929654 0.026164874 -0.089292206
0.07042884 0.111392274 0.10167298 -0.11428266 0.007706491 0.062281776 0.02653179 0.42509055
0.0042768707 -0.015763957 0.10544157 -0.0069051688 -0.014621628 0.04804058 -0.09709716 0.018075028
0.081433795 0.073885776 -0.123484 0.0071971132 -0.012188172 -0.12033717 0.05962707 0.050749317

conv2.nn.2.bias f4 [64]
00000000: d17b f7bd 2866 a53d e0eb 973c 6b66 22be
00000010: 22a3 1a3d 1718 e8be 46f4 4dbe 6ffa a9be
00000020: 86f4 ee3d 8990 173e 271d 143c 935a 933e
00000030: 2459 3bbe 50e7 13be b7c8 92bd 2fa0 a6be
00000040: 0ad4 bbbc 70e1 a6be 49eb b9be f390 d23d
00000050: e848 203e 84af 60bd 864c 0b3e ad7d 6f3e
00000060: e002 48be 48b6 4fbe 5fcc 483c 9074 0bbe
00000070: ae37 8e3e 7739 ffbd edfb c2be 90fd 1c3d
00000080: 5c61 0b3d 220b f13c 1cf4 2abe 7173 d3be
00000090: c255 bebd 66bf 69be 987e 9cbd 626d 3f3e
000000a0: 610e e6bd ed9b 5b3e 76f8 5a3d a178 4abe
000000b0: 3605 2d3e eb43 6fbe 4d35 32bd 3840 1cbe
000000c0: 943a 80be 50a8 2b3c f994 8cbc ecbd 65be
000000d0: e4c7 18be 8189 933e d3bf f63e 7d01 42be
000000e0: 01c0 de3d d8c3 4ebe 3117 ccbe c630 b8be
000000f0: 9842 47be 5f9b 1a3d bfa7 98bc c1f4 4abe
-0.12084163 0.080761254 0.018545091 -0.15859382 0.03775323 -0.4533088 -0.20112714 -0.33198878
0.11667733 0.1480123 0.009040154 0.2878004 -0.18295723 -0.14443707 -0.071671896 -0.32544085
-0.022928257 -0.3259387 -0.3631232 0.10281553 0.15652812 -0.054854885 0.1360341 0.23387785
-0.19532347 -0.20284379 0.012255757 -0.13618684 0.27776855 -0.124621324 -0.3808283 0.038327754
0.034028396 0.029424254 -0.16694683 -0.41299012 -0.09293701 -0.22826919 -0.07641333 0.1869407
-0.11233211 0.214462 0.053459607 -0.19772579 0.16896519 -0.23365752 -0.043507863 -0.15258873
-0.25044692 0.010477141 -0.01716088 -0.2243573 -0.14920002 0.28815845 0.48193225 -0.1894588
0.108764656 -0.20191896 -0.39861444 -0.3597471 -0.19458997 0.03774583 -0.018634675 -0.19819929

conv2.lin.weight f4 [64, 7]
00000000: 07b2 72bc 1c39 8e3f 6914 24be fd96 9ebe
00000010: ebe3 373f fb3a 803e d287 4bbe d7f6 1b3d
00000020: e19c 053f fe12 7cbe 8563 57be bfa0 a4be
00000030: 8078 08be 7010 5d3e 85eb 923c b7c0 bf3e
00000040: 71ec 02bf bf6b 0abe c3c5 d33e f0c1 1b3e
00000050: 943b d3bd 6d97 79be c7f3 9abe 66b8 7ebe
00000060: 10ab 39bb 0e5c b2bd 709e 01b9 95bd bb3e
00000070: 4e67 bdbe 9cd5 cebe 4796 473e 120f 983e
00000080: b158 2f3e 6805 c23e 218c 503e 54f3 9f3e
00000090: 56b3 e73d 1639 cd3e 4b04 ba3e ba03 39be
000000a0: fa27 0fbe d01b f43d 0f15 0c3e 7a3f 9dbe
000000b0: d71a 833e 9b0f 6c3e fb0a 383e 794c 00bd
000000c0: f142 f23d 9bb0 c93e 5287 dd3e 2465 59bc
000000d0: c602 6b3e 817b 08bf 1696 9c3d cfc1 5c3d
000000e0: 9124 c8bd 62b4 e23d 04c3 dc3d a7ab 5d3e
000000f0: e335 9abe 03f7 81b9 4934 cf3d 4f90 31bf
00000100: a8e2 2f3f 3ae0 58be 6d1a 983e b4e8 da3e
00000110: 2c5d 843d f69a 0bbf b5a8 6c3e ed68 47be
00000120: 4972 49be 8b59 7b3e f365 4fbe 6d54 7e3e
00000130: 8ba2 27be 787e 78be 2dbb f7bc c9a5 0d3c
00000140: 670d 9abe 6f3b 2c3e 2343 433e 03cd 463d
00000150: 2772 2c3f 6314 243e 54db 65be 908c 7f3d
00000160: 87c9 05bf e315 bf3e 48c3 64be 1f5f d2be
00000170: 867d 333f 2836 6d3e d763 133f 25f3 ab3d
00000180: 991b 3c3e 9ec3 84bd 4fcc edbd 4cf2 463f
00000190: ab64 20bf 478d bf3e 3839 7f3d cf7e 53bf
000001a0: b5c4 a53e 5e17 50bf d05f 803f 34b1 bdbe
000001b0: 56f2 903d 852d 1fbf 7a4c 843e 595d 19bf
000001c0: d3ad 3fbe 06f4 9cbe 85d3 bfbe 9246 dabd
000001d0: 1f63 b43c d9bd 823d ee71 48be 80ed 0d3f
000001e0: 2c99 f43d 481d 22bf b57e 7b3e fd91 be39
000001f0: 25b0 26bb dee1 013f 7a7f 8c3e a044 c2be
00000200: ee68 043e 5e57 7dbe cba4 333e a791 80bb
00000210: 132c b33e e88a 50bf c9bc 503f b57b b03e
00000220: 8774 3fbe 3619 893e e12b 07bd 1c19 063d
00000230: a372 273d 8e97 073d 0f69 67bc c56a 05bc
00000240: 6a2c 913d c881 64bc d8f9 353f 2575 8fbe
00000250: f209 3bbe 26c7 223f 970d b6bc db55 5fbd
00000260: b84f 08bd 7211 4dbe 054a 3d3d 5ae5 6bbd
00000270: 5d86 adbd 0cea c9bd 7071 30bd 3adc 073e
00000280: 3ded b93d 9789 b13d 157e 2c3f 0ea1 f7bd
00000290: ea54 8e3e f3ae babe 704e 56be 10f2 813e
000002a0: f799 b4be 3f27 00bf d7c1 9abe 2da2 9ebe
000002b0: 819d a9be fb4a aebe 2cb9 753e dcbc cdbe
000002c0: 36ae 583f 3c8c cabd 97da 17bd 7015 693e
000002d0: bb46 ddbd 3967 a23d cafc 643e dd27 d8bd
000002e0: cd37 143f 3476 923e 497b 1bbe f491 5dbe
000002f0: 9c12 c3be f065 c9be 1993 403e a69e 54be
00000300: 398f 0a3d d0a4 cbbe 4a2b b23e c790 00bd
00000310: 29a6 073d 1c4f b0bd 98b5 99be 9175 9ebe
00000320: 5a97 cebd 8f94 dcbe 3840 0e3e b778 943d
00000330: 6f7e 323f 509c 4fbd 32c8 cbbd 5b29 e5be
00000340: 48d9 013e 90b4 db3e bfff fabe 008d 893e
00000350: 62bd 8a3e c276 933d bd54 2a3d 01a1 0dbf
00000360: c8ad 833e c4a5 02be 0fbc b63d e8a6 eb3e
00000370: 7fec 343d b4a6 073f 57ef 603e 279e 6fbd
00000380: b1e8 43be 8264 d2bd e01c 083e 479a 943e
00000390: 7ef3 6b3e 9c05 0d3e d9b6 1fbe cd49 013f
000003a0: f034 98be 6faf bf3e 23a3 4ebe ae2e 573c
000003b0: 5271 fabe a15e 11be dffd 0ebf f25a 133f
000003c0: e658 16be 25d9 1ebd 58c8 42bf abb1 c23e
000003d0: f513 cc3d 29c2 3dbe 9ee3 25bf 5cae 853d
000003e0: 1430 bebd d2a7 cdbd 566a a63e 0c79 17be
000003f0: fc10 e23a de0b 873e 9f34 7bbd 9422 ff3d
-0.014812953 1.1111178 -0.16023411 -0.3097457 0.7183215 0.25045 -0.1987603 0.0380772
0.52192503 -0.2461662 -0.21034057 -0.3215389 -0.13327217 0.21588302 0.01793457 0.37451717
-0.5114203 -0.13517664 0.41361818 0.152107 -0.10314098 -0.2437417 -0.30264112 -0.2487503
-0.002833072 -0.08708964 -0.00012361421 0.36668077 -0.36992878 -0.40397346 0.1949092 0.29698998
0.17123677 0.3789475 0.20365955 0.31240332 0.113135025 0.40082616 0.363314 -0.18067828
-0.13980094 0.11919367 0.13679908 -0.3071249 0.25606415 0.23052828 0.17972939 -0.03132293
0.11829174 0.39392552 0.43267304 -0.013268743 0.22950277 -0.5331345 0.07645814 0.053895768
-0.097725995 0.110695615 0.10779384 0.21647511 -0.30119237 -0.00024788835 0.101173945 -0.6936082
0.68705225 -0.21179286 0.2970766 0.42755663 0.064630836 -0.54533327 0.23111232 -0.1947362
-0.19672503 0.24545877 -0.20253734 0.24836893 -0.16370599 -0.24266994 -0.03024062 0.008645483
-0.3008835 0.16819547 0.1906858 0.04853536 0.6736168 0.16023402 -0.22446948 0.06238991
-0.5226063 0.37321386 -0.22340119 -0.41088197 0.7011341 0.2316519 0.5757422 0.083959855
0.18369903 -0.064826235 -0.116112344 0.77713466 -0.6265361 0.37412474 0.062310427 -0.8261537
0.32376638 -0.81285655 1.002924 -0.37049258 0.07077472 -0.6217883 0.25839597 -0.5990806
-0.18718652 -0.30654925 -0.37466064 -0.106579915 0.02201992 0.06383867 -0.1957471 0.5544052
0.11943278 -0.6332593 0.24560054 0.00036348394 -0.002543458 0.5073527 0.27441007 -0.37942982
0.12930652 -0.24740359 0.17543332 -0.003923613 0.34994563 -0.81461954 0.81538063 0.3446938
-0.18696795 0.26777047 -0.03300083 0.03273879 0.04088081 0.03310352 -0.014124169 -0.008143132
0.070885494 -0.013946958 0.71084356 -0.28019062 -0.18265513 0.63585126 -0.022223277 -0.054525238
-0.03327915 -0.20026186 0.04621317 -0.057591774 -0.084728934 -0.09859094 -0.043076932 0.13267604
0.09078453 0.08668821 0.67379886 -0.120912656 0.2779916 -0.364616 -0.20928359 0.25379992
-0.35273716 -0.50059885 -0.30226013 -0.30983105 -0.33127978 -0.3404158 0.23996419 -0.4018315
0.84640825 -0.09890029 -0.037073698 0.22762084 -0.108045064 0.079298444 0.22362056 -0.10554478
0.57897645 0.28605807 -0.15183748 -0.21637708 -0.38100135 -0.39335585 0.18806113 -0.20763645
0.033827994 -0.3977418 0.34798652 -0.03138807 0.033117447 -0.08608839 -0.30021358 -0.3094907
-0.10087462 -0.4308209 0.13891685 0.07249587 0.6972417 -0.05068618 -0.099502936 -0.44758114
0.12680542 0.42911196 -0.49023244 0.26865387 0.27097613 0.07200386 0.04158472 -0.553238
0.25718522 -0.12758547 0.08922588 0.46025777 0.044170853 0.52988744 0.21966301 -0.058500435
-0.19131733 -0.102730766 0.13292265 0.29023954 0.23042104 0.13771671 -0.15597095 0.50503236
-0.29727888 0.37438533 -0.20179419 0.013133688 -0.48914582 -0.14196254 -0.55856127 0.57560647
-0.1468235 -0.038781304 -0.7608695 0.38026175 0.09964744 -0.18531097 -0.6480044 0.06527397
-0.09286514 -0.10041775 0.32503003 -0.1479227 0.0017247493 0.2637624 -0.06132948 0.12457767

conv2.lin.bias f4 [64]
00000000: 4ecc e9bd 2d56 833e b871 ab3d 52ad 5cbc
00000010: e4e8 2c3d 75a5 56be 4da4 443d ef55 3ebd
00000020: 8de2 763c 318e d83c d77b f33d 930e 443e
00000030: f33f b9bd fcc6 c5be f48d 46be d6fd 40bc
00000040: c8a6 8dbe ec96 69bc ef68 94be 4df6 8ebe
00000050: e852 d3be eb28 933d 2389 693e 2bfe 0bbd
00000060: de06 da3d ba66 1fbe 271a 2bbc acb2 443d
00000070: 456b 88bd a52c 16bc 7d5c 1c3e 8131 2fbd
00000080: d509 8fbe 5e9f d0bd 93bf b03c 289a 5a3e
00000090: a691 7a3e 6afa 053c d3ea 2e3e d7c1 22bd
000000a0: 8d74 9d3e 1e1c 8c3e 4385 623e 5160 4bbe
000000b0: 9703 9ebe 73ee 293e b060 033d e8e2 01be
000000c0: c04c abbe 63c7 8a3e 35ae 3ebe 7e24 3fbe
000000d0: c559 143e f535 083e e27d 49be 5dd4 253c
000000e0: 1abb 963e 8e13 78bd a618 d0be e288 2abd
000000f0: 5944 85be 037c 88bd 3631 2abe 24ab 45bd
-0.11415921 0.25651684 0.083712995 -0.013469057 0.04221429 -0.20961554 0.048008252 -0.04646867
0.015068662 0.02643499 0.11888855 0.19146185 -0.090454005 -0.38628376 -0.19390088 -0.011779269
-0.27666306 -0.014257174 -0.28986308 -0.27922288 -0.4127419 0.07185539 0.2280622 -0.03417794
0.10645841 -0.15566531 -0.010443247 0.048021957 -0.06661085 -0.0091659175 0.15269656 -0.04277182
-0.2793719 -0.10186647 0.021575725 0.21347868 0.24469623 0.008177379 0.17081766 -0.03973564
0.30752984 0.27365202 0.22121148 -0.1986096 -0.30862114 0.16594867 0.03207463 -0.12684214
-0.33456993 0.27105245 -0.18621142 -0.18666264 0.1448737 0.13301833 -0.19676927 0.010121432
0.29439622 -0.060565524 -0.40643805 -0.041634448 -0.26028708 -0.06664278 -0.16620335 -0.048258916
