checkpoints/A/model_A_epoch_40.pth (torch, 97775 bytes, 21 tensors)

embedding.weight f4 [500, 1]
0	0x3e7d2a70	0.2472322
1	0x3e7cdf3f	0.24694537
2	0x3e7d26ef	0.24721883
3	0x3e7d0ccb	0.24711911
4	0x3e7d2baf	0.24723695
5	0x3e7d3251	0.24726225
6	0x3e7d3108	0.24725735
7	0x3e7d3709	0.24728025
8	0x3e7d1624	0.24715477
9	0x3e7d2d09	0.24724211
10	0x3e7d0ff0	0.24713111
11	0x3e7d2437	0.24720846
12	0x3e7d2216	0.24720034
13	0x3e7d1d93	0.24718313
14	0x3e7d283f	0.24722384
15	0x3e7d2b65	0.24723585
16	0x3e7d32d9	0.24726428
17	0x3e7d4657	0.24733864
18	0x3e7d3105	0.2472573
19	0x3e7d45aa	0.24733606
20	0x3e7d2478	0.24720943
21	0x3e7d39b3	0.24729042
22	0x3e7d2786	0.24722108
23	0x3e7d31c2	0.24726012
24	0x3e7d313a	0.2472581
25	0x3e7d339d	0.2472672
26	0x3e7d2df5	0.24724562
27	0x3e7d3140	0.24725819
28	0x3e7d46f7	0.24734102
29	0x3e7d1cb5	0.24717982
30	0x3e7d278d	0.24722119
31	0x3e7d3352	0.24726608
32	0x3e7d12d3	0.24714212
33	0x3e7d2a34	0.2472313
34	0x3e7d37e3	0.2472835
35	0x3e7d3929	0.24728836
36	0x3e7d178b	0.24716012
37	0x3e7d1365	0.2471443
38	0x3e7d2f6e	0.24725124
39	0x3e7d3c5d	0.24730058
40	0x3e7d2d4d	0.24724312
41	0x3e7d31ab	0.24725978
42	0x3e7cf302	0.24702075
43	0x3e7d2367	0.24720536
44	0x3e7d2398	0.24720609
45	0x3e7d1e05	0.24718483
46	0x3e7d31ff	0.24726103
47	0x3e7d3a29	0.24729218
48	0x3e7d17d7	0.24716125
49	0x3e7d0525	0.24708994
50	0x3e7d1123	0.24713568
51	0x3e7d2684	0.24721724
52	0x3e7d1919	0.24716605
53	0x3e7d16e8	0.2471577
54	0x3e7d2d21	0.24724247
55	0x3e7d0200	0.24707794
56	0x3e7d3709	0.24728025
57	0x3e7d4053	0.24731569
58	0x3e7d1f97	0.24719082
59	0x3e7d2a8a	0.24723259
60	0x3e7d33d3	0.247268
61	0x3e7d3328	0.24726546
62	0x3e7d227f	0.2472019
63	0x3e7d3482	0.24727061
64	0x3e7ce675	0.24697287
65	0x3e7d21b3	0.24719886
66	0x3e7d26e3	0.24721865
67	0x3e7d2426	0.24720821
68	0x3e7d16fd	0.247158
69	0x3e7d2c34	0.24723893
70	0x3e7d32e9	0.24726452
71	0x3e7d3dea	0.2473065
72	0x3e7d549a	0.24739304
73	0x3e7d1bd7	0.24717651
74	0x3e7d14f9	0.24715032
75	0x3e7d159a	0.24715272
76	0x3e7d3991	0.24728991
77	0x3e7d58a6	0.24740848
78	0x3e7d69d6	0.24747404
79	0x3e7d1789	0.24716009
80	0x3e7d4559	0.24733485
81	0x3e7d12c4	0.2471419
82	0x3e7d1ef3	0.24718837
83	0x3e7cb0fe	0.24676892
84	0x3e7d1d69	0.2471825
85	0x3e7d877d	0.24758716
86	0x3e7d331d	0.2472653
87	0x3e7d0bfb	0.24711601
88	0x3e7d2436	0.24720845
89	0x3e7d2321	0.24720432
90	0x3e7d3a0e	0.24729177
91	0x3e7cf4aa	0.24702707
92	0x3e7d0a57	0.24710976
93	0x3e7d2f26	0.24725017
94	0x3e7d3308	0.24726498
95	0x3e7d2c08	0.24723828
96	0x3e7d5d95	0.2474273
97	0x3e7d03a6	0.24708423
98	0x3e7d0dc1	0.24712278
99	0x3e7cf8ba	0.24704257
100	0x3e7cfc9c	0.24705738
101	0x3e7d1f5c	0.24718994
102	0x3e7d17f2	0.24716166
103	0x3e7d14f1	0.2471502
104	0x3e7d2ea3	0.24724822
105	0x3e7cf38b	0.2470228
106	0x3e7d199b	0.24716799
107	0x3e7d19ed	0.24716921
108	0x3e7d2d2e	0.24724266
109	0x3e7d1520	0.2471509
110	0x3e7d6a7c	0.24747652
111	0x3e7d25c7	0.24721442
112	0x3e7d3281	0.24726297
113	0x3e7d08f9	0.24710454
114	0x3e7d2804	0.24722296
115	0x3e7c9637	0.24666677
116	0x3e7cecb3	0.24699669
117	0x3e7d4683	0.2473393
118	0x3e7d05e9	0.24709286
119	0x3e7d1d94	0.24718314
120	0x3e7bd55d	0.2459311
121	0x3e7cfb15	0.24705155
122	0x3e7d4863	0.24734645
123	0x3e7cb4ab	0.24678294
124	0x3e7d6137	0.24744116
125	0x3e7d3323	0.24726538
126	0x3e7c7583	0.24654202
127	0x3e7d8a52	0.24759796
128	0x3e7d2bd9	0.24723758
129	0x3e7d60fe	0.24744031
130	0x3e7dcc0d	0.2478487
131	0x3e7c720e	0.24652883
132	0x3e7c6878	0.24649227
133	0x3e7e0251	0.24805571
134	0x3e7cafbf	0.24676417
135	0x3e7ded69	0.24797596
136	0x3e7d0555	0.24709065
137	0x3e7d4634	0.24733812
138	0x3e7d2571	0.24721314
139	0x3e7d0e3f	0.24712466
140	0x3e7d7385	0.24751098
141	0x3e7ba933	0.24576263
142	0x3e7d50ba	0.24737826
143	0x3e7d14ab	0.24714915
144	0x3e7f45bb	0.24928944
145	0x3e7df34b	0.2479984
146	0x3e7c0d4e	0.2461445
147	0x3e7d9681	0.24764444
148	0x3e7b4d17	0.24541126
149	0x3e7d7158	0.24750268
150	0x3e7d3cc0	0.24730206
151	0x3e7d3b7d	0.24729724
152	0x3e7bbab3	0.24582939
153	0x3e7c6f86	0.24651918
154	0x3e7f9fe3	0.24963336
155	0x3e7dd05d	0.24786516
156	0x3e7f9422	0.24958852
157	0x3e7e5ba8	0.24839652
158	0x3e7ca61a	0.24672738
159	0x3e7e7636	0.24849781
160	0x3e7eb87f	0.24875067
161	0x3e7bf963	0.24606852
162	0x3e7fd89c	0.24984974
163	0x3e7bd315	0.2459224
164	0x3e7e2ee5	0.24822576
165	0x3e7d6711	0.24746348
166	0x3e7faa6e	0.24967358
167	0x3e7ff9c1	0.24997617
168	0x3e7d35ea	0.24727598
169	0x3e7d414a	0.24731937
170	0x3e7fcf5f	0.2498145
171	0x3e7f0017	0.24902378
172	0x3e7c989b	0.2466759
173	0x3e7db1ea	0.247749
174	0x3e7d16ba	0.24715701
175	0x3e7d8f85	0.2476178
176	0x3e7f3701	0.24923326
177	0x3e7d5928	0.24741042
178	0x3e7d266f	0.24721693
179	0x3e7dab85	0.24772461
180	0x3e7e6148	0.24841797
181	0x3e7ca0be	0.24670693
182	0x3e7a3265	0.24433286
183	0x3e8165fa	0.25273114
184	0x3e7ffee9	0.24999584
185	0x3e7c870b	0.2466089
186	0x3e7c53e6	0.2464138
187	0x3e7c734a	0.24653354
188	0x3e7bad16	0.24577746
189	0x3e7e757f	0.24849509
190	0x3e7ec260	0.24878836
191	0x3e7cb9be	0.2468023
192	0x3e7d77df	0.24752758
193	0x3e7d55a1	0.24739696
194	0x3e7df156	0.24799094
195	0x3e76b42a	0.24092165
196	0x3e7c11a8	0.2461611
197	0x3e7d4dbe	0.24736688
198	0x3e7fd8bd	0.24985023
199	0x3e7db397	0.2477554
200	0x3e7ad40e	0.24494955
201	0x3e4fc813	0.20291166
202	0x3e7af091	0.24505831
203	0x3e7d223d	0.24720092
204	0x3e7e2e78	0.24822414
205	0x3e237724	0.15963417
206	0x3e79d33c	0.24396986
207	0x3e7fc388	0.24976933
208	0x3e7e460f	0.24831413
209	0x3e7e4a73	0.24833088
210	0x3e7d2ffc	0.24725336
211	0xbe051142	-0.12994865
212	0x3e775649	0.24154009
213	0x3e7a42f4	0.24439603
214	0x3e7e537a	0.24836531
215	0x3e7eb3ea	0.2487332
216	0x3e7fe7f8	0.24990833
217	0x3e7c58fc	0.2464332
218	0x3e78d107	0.24298488
219	0xbef14a26	-0.47126883
220	0x3e784f63	0.24249034
221	0x3e7eba1e	0.24875686
222	0x3e7afa7c	0.24509615
223	0x3e7c9587	0.24666415
224	0x3e7bc350	0.24586225
225	0x3e7ceea7	0.24700414
226	0x3ed3e590	0.4138608
227	0x3e7d0a5a	0.2471098
228	0x3e7be166	0.24597701
229	0x3e7a7286	0.2445775
230	0x3e7cc00e	0.24682638
231	0x3e7d660a	0.24745956
232	0x3e81a679	0.2532232
233	0x3e8ba958	0.27277637
234	0x3e82e6dd	0.2556676
235	0x3e80e3a8	0.25173688
236	0x3e7dfcf0	0.24803519
237	0x3e7fcb27	0.2497984
238	0x3e80d5c6	0.25163096
239	0x3e7e9d33	0.24864654
240	0x3e82848e	0.25491756
241	0x3e7fc6aa	0.24978128
242	0x3e7f340a	0.24922195
243	0x3e7ec5c2	0.24880126
244	0x3e7f6585	0.2494107
245	0x3e78e682	0.24306682
246	0x3e8046fa	0.2505415
247	0x3e16a398	0.14710844
248	0x3e7acd9c	0.24492496
249	0x3e7a827e	0.24463841
250	0x3e793891	0.24337985
251	0x3e7d355a	0.24727383
252	0x3e7d84c2	0.24757674
253	0x3e79f93f	0.24411486
254	0x3e7ec248	0.248788
255	0x3e805ba7	0.25069925

conv1.nn.0.weight f4 [64, 1]
0	0xbef6008e	-0.48047298
1	0xbeed0768	-0.46294713
2	0x3ed6f1e5	0.41981426
3	0x3e340d9c	0.17583317
4	0x3f4a8e47	0.7912335
5	0x3f1f5393	0.622369
6	0xbd8918c5	-0.066941775
7	0x3e2ade33	0.16686325
8	0xbce70a64	-0.028203197
9	0xbe306865	-0.17227323
10	0x3f25080a	0.6446539
11	0x3f0cbaac	0.5497234
12	0x3eff72c2	0.4989224
13	0xbefa63af	-0.48904178
14	0xbf7373e4	-0.9509871
15	0x3f7bebe2	0.98406804
16	0xbf59a022	-0.8500997
17	0xbe96424a	-0.2934745
18	0x3f01cc2d	0.5070217
19	0xbcb6b86a	-0.022304732
20	0x3ddb5ebf	0.10711431
21	0x3f7101b9	0.94143254
22	0x3f463db1	0.77437884
23	0x3d8e0a92	0.0693561
24	0xbf162194	-0.58644986
25	0xbeb7f05e	-0.35925573
26	0xbd0365b2	-0.032079406
27	0x3eaff735	0.34368291
28	0xbf73222d	-0.94974023
29	0x3e8f20fb	0.2795485
30	0x3f584557	0.84480804
31	0xbd11c9a2	-0.035592683
32	0xbe2542a6	-0.16138706
33	0x3f2a61f0	0.6655569
34	0xbf57a856	-0.84241235
35	0xbf5a1383	-0.8518602
36	0x3e5cc4f3	0.21559505
37	0x3dd7d83a	0.10539289
38	0xbf2e00ae	-0.6796979
39	0x3f054abd	0.52067167
40	0xbf34c3b5	-0.70611125
41	0x3f356afa	0.7086636
42	0x3f3a057f	0.72664636
43	0x3f1a3377	0.6023478
44	0xbe1c9825	-0.15292414
45	0x3ec99dce	0.39378208
46	0x3e032446	0.12806806
47	0xbf0d49bd	-0.5519064
48	0xbf161c78	-0.5863719
49	0x3eca5d34	0.39524233
50	0x3e872684	0.26396573
51	0x3e59308c	0.21209925
52	0xbf7c97ef	-0.9866933
53	0xbf711352	-0.94170105
54	0x3d88473c	0.06654212
55	0x3d0f099c	0.034921274
56	0x3f5a171f	0.8519153
57	0xbf49400f	-0.7861337
58	0x3e8784a6	0.2646839
59	0xbf613401	-0.87969977
60	0xbf5aedfc	-0.85519385
61	0xbf16b632	-0.5887176
62	0xbeef0bfc	-0.4668883
63	0x3e4016f4	0.18758756

conv1.nn.0.bias f4 [64]
0	0x3ef0aa02	0.47004706
1	0x3f420d8a	0.7580191
2	0xbe35135b	-0.17683165
3	0xbf48db6b	-0.78459805
4	0xbe889237	-0.26674053
5	0xbf25419a	-0.64553225
6	0x3de499fb	0.11162182
7	0x3dbdbbb9	0.09264321
8	0xbe7e9fe0	-0.24865675
9	0xbe256337	-0.16151129
10	0xbf4ddfe0	-0.8041973
11	0x3f6f90d0	0.9358034
12	0x3f1645c8	0.5870023
13	0x3e433699	0.19063796
14	0x3f31e022	0.69482625
15	0x3e124d84	0.14287382
16	0xbf6252c8	-0.88407564
17	0xbf023e7c	-0.50876594
18	0x3f33133c	0.69951224
19	0xbf7eb1f3	-0.9949028
20	0x3d45d58e	0.048299365
21	0x3f018935	0.50599986
22	0x3ec1c441	0.37845042
23	0x3df5a8ae	0.11995064
24	0x3eca52b7	0.3951623
25	0x3f22f49a	0.6365448
26	0x3f7ac71f	0.97960085
27	0x3f404f38	0.7512088
28	0xbf7ff0a4	-0.99976563
29	0xbf6f4500	-0.9346466
30	0xbf7ff354	-0.99980664
31	0x3e09b58d	0.13448162
32	0x3f40ba0e	0.75283897
33	0x3c8c31ab	0.017113527
34	0x3ee128f7	0.43976566
35	0xbef93640	-0.48674202
36	0xbf0f2533	-0.55916137
37	0xbf1e0aad	-0.6173504
38	0xbd6d75e1	-0.057973746
39	0xbf6741f0	-0.9033499
40	0x3f7018eb	0.9378802
41	0x3b5ce986	0.0033708527
42	0x3eb4e39c	0.35329902
43	0xbdb04d3e	-0.08608483
44	0xbf3e3914	-0.74305844
45	0x3f35122d	0.7073086
46	0xbf191512	-0.59797776
47	0xbf25ead4	-0.64811444
48	0xbf39d28a	-0.7258688
49	0xbf33ce9a	-0.70237124
50	0xbf698df2	-0.91232216
51	0xbeb46614	-0.3523413
52	0xbf7fadf5	-0.9987481
53	0x3f47d530	0.78059673
54	0xbeea8e15	-0.45811525
55	0x3ef6a0c5	0.48169532
56	0xbf16f3b3	-0.58965605
57	0xbf6d15ee	-0.9261159
58	0xbe625c5d	-0.22105546
59	0x3e61ea1f	0.22061966
60	0x3edf3c67	0.4360077
61	0xbeb8b675	-0.36076704
62	0x3f7dc47b	0.9912793
63	0x3f7498f6	0.955459

conv1.nn.1.weight f4 [64]
0	0x3f817df0	1.0116558
1	0x3f810987	1.0081033
2	0x3f81a4de	1.0128438
3	0x3f800b24	1.00034
4	0x3f7e91a3	0.99440974
5	0x3f7b8867	0.9825501
6	0x3f7f24e5	0.9966567
7	0x3f7cd05c	0.9875543
8	0x3f82159c	1.0162845
9	0x3f8011a6	1.0005386
10	0x3f7d3bce	0.9891938
11	0x3f7cf948	0.98817873
12	0x3f81b400	1.0133057
13	0x3f790a9a	0.972818
14	0x3f7e71dd	0.9939249
15	0x3f8089ff	1.0042113
16	0x3f7e8b9a	0.99431765
17	0x3f8110c0	1.0083237
18	0x3f790887	0.97278637
19	0x3f7ba750	0.98302174
20	0x3f859465	1.0435911
21	0x3f818d4b	1.0121244
22	0x3f7ca143	0.98683566
23	0x3f7ffd96	0.99996316
24	0x3f813f84	1.0097508
25	0x3f7eaa45	0.9947856
26	0x3f7822f0	0.9692831
27	0x3f7dc309	0.99125725
28	0x3f7bc209	0.9834295
29	0x3f80f66c	1.0075202
30	0x3f7cef76	0.9880289
31	0x3f7d3fd6	0.9892553
32	0x3f7df05f	0.991949
33	0x3f76184f	0.9613084
34	0x3f805dfd	1.0028683
35	0x3f7f8ed5	0.9982732
36	0x3f7f2764	0.9966948
37	0x3f7b58e1	0.98182493
38	0x3f7b6057	0.9819388
39	0x3f845a79	1.034011
40	0x3f80e9e1	1.0071374
41	0x3f8016c6	1.000695
42	0x3f810aa5	1.0081373
43	0x3f82b496	1.021136
44	0x3f80d153	1.0063881
45	0x3f828806	1.0197761
46	0x3f82da80	1.0222931
47	0x3f86c871	1.052992
48	0x3f803f49	1.0019313
49	0x3f7e8b12	0.99430954
50	0x3f835702	1.0260928
51	0x3f792be9	0.97332627
52	0x3f7cd2fb	0.9875943
53	0x3f823df3	1.0175155
54	0x3f82eedc	1.0229144
55	0x3f756edc	0.95872283
56	0x3f7e8492	0.99421036
57	0x3f812957	1.0090741
58	0x3f7c4401	0.98541266
59	0x3f7a36d6	0.97739923
60	0x3f806046	1.002938
61	0x3f82fc1e	1.023319
62	0x3f7683e0	0.96294975
63	0x3f82578b	1.0182966

conv1.nn.1.bias f4 [64]
0	0x3c9441cf	0.018097786
1	0x3c6e7c2e	0.014555974
2	0x3b5c871c	0.0033649867
3	0xbc1997f5	-0.009374608
4	0xbd2bcc48	-0.041942865
5	0x3b48e35b	0.0030653093
6	0xbc1497b0	-0.009069368
7	0xbc01fc99	-0.007933759
8	0x3c88ce6e	0.016699996
9	0x3b93c041	0.0045090024
10	0xbbe47ed7	-0.0069731283
11	0xbc8fbbfc	-0.017545693
12	0x3c003bf6	0.007826796
13	0xbce34313	-0.027741944
14	0xbc030e37	-0.007998995
15	0xbc32655d	-0.010888425
16	0xbac9b64b	-0.001538941
17	0x3c84f486	0.01622988
18	0xbcd7edf7	-0.026358588
19	0xbc9b4520	-0.01895386
20	0x3d3c41b5	0.0459611
21	0x3b3ec9c7	0.0029111968
22	0xbcfce6a8	-0.030871704
23	0x3c59f6a8	0.013303436
24	0x3c280ba3	0.010256681
25	0xbbe726ac	-0.0070541706
26	0xbce1bc16	-0.027555507
27	0xbc476c9e	-0.012171892
28	0xbc8b0356	-0.016969364
29	0x3c676c59	0.014124953
30	0xbc320f97	-0.010867975
31	0xbc495602	-0.012288572
32	0xbc063205	-0.0081906365
33	0xbd302f5d	-0.04301392
34	0xbc02dc00	-0.007987022
35	0xbb87479d	-0.00412841
36	0xbba52b3e	-0.0050405553
37	0x3c083f74	0.00831591
38	0xbc253fea	-0.010086039
39	0x3d0e60cf	0.034760293
40	0x3b70db3b	0.0036751765
41	0x3bb03f94	0.005378673
42	0x3c9881cd	0.018616581
43	0x3c86cb1a	0.016454268
44	0x3ba4e7c7	0.005032513
45	0x3cb26eaa	0.021781284
46	0x3cef4ba7	0.029210879
47	0x3d50ffc1	0.051025156
48	0x3acf3601	0.0015808941
49	0x3b6d9117	0.003624981
50	0x3cf48af9	0.029851424
51	0xbd15544d	-0.03645735
52	0x3bdca41c	0.0067334305
53	0x3ca07b65	0.01959009
54	0x3c93e1b1	0.018051954
55	0xbcdbcf3d	-0.026832217
56	0x3c6560d0	0.014000133
57	0x3c3b1dd4	0.011420686
58	0xbb8e494e	-0.0043422347
59	0xbcb59265	-0.022164533
60	0x3c804c05	0.015661249
61	0x3c9b67d0	0.0189704
62	0xbd1fdbbe	-0.03902792
63	0x3b2f1ab9	0.0026718809

conv1.nn.1.running_mean f4 [64]
0	0xbff49ccc	-1.9110351
1	0xbfc4a289	-1.5362102
2	0x3ff3aa97	1.9036435
3	0x3db1b953	0.08677926
4	0x4069e156	3.6543784
5	0x401c1463	2.4387443
6	0xbe61679f	-0.22012185
7	0x3f6b68d5	0.91956836
8	0xbec6df6d	-0.38842335
9	0xbf81f397	-1.0152463
10	0x4018fe3b	2.390517
11	0x406a3e95	3.6600697
12	0x4043cf13	3.0595138
13	0xc00ee7fa	-2.2329087
14	0xc0809355	-4.017985
15	0x40a0a0c4	5.0196247
16	0xc0a319f3	-5.0969176
17	0xbffb4820	-1.9631386
18	0x404d940f	3.2121618
19	0xbf8d7f04	-1.1054387
20	0x3f14419d	0.5791262
21	0x40a57c9a	5.17146
22	0x4086e9d3	4.216043
23	0x3eed64b2	0.46365887
24	0xc020b605	-2.5111096
25	0xbf9268b6	-1.1438205
26	0x3f52146c	0.8206241
27	0x401d14df	2.4543989
28	0xc0b69ace	-5.706397
29	0x3ee6c3df	0.45071313
30	0x404bf4bb	3.1868122
31	0xbd2ba4cb	-0.041905206
32	0xbd404c38	-0.046947688
33	0x40542fc9	3.3154166
34	0xc06f09ec	-3.7349806
35	0xc096aa78	-4.708309
36	0x3f025f21	0.50926405
37	0xbdc2abd5	-0.095054306
38	0xc05b4967	-3.4263551
39	0x3fd6a622	1.676945
40	0xc023edf4	-2.5613985
41	0x4060faa6	3.5152984
42	0x407d13f6	3.9543433
43	0x403988c6	2.898973
44	0xbfc01da5	-1.5009047
45	0x402a2963	2.658776
46	0x3d164804	0.036689773
47	0xc0588655	-3.383199
48	0xc0686ea9	-3.6317542
49	0x3fa0cf86	1.2563331
50	0x3ecaa822	0.395814
51	0x3f32e1ef	0.69876
52	0xc0bc6ea8	-5.888508
53	0xc078b76d	-3.8861954
54	0xbe036ebc	-0.1283521
55	0x3f279e04	0.6547549
56	0x406875b4	3.632184
57	0xc09a4d82	-4.8219614
58	0x3f8b9a14	1.0906396
59	0xc08471f8	-4.138912
60	0xc0735548	-3.8020802
61	0xc051cf4a	-3.278277
62	0xbfa94712	-1.3224814
63	0x3ff14a8b	1.8850874

conv1.nn.1.running_var f4 [64]
0	0x40d4d788	6.65131
1	0x40c59906	6.1749296
2	0x40a27e18	5.0778923
3	0x3f640a32	0.89078057
4	0x41904cfa	18.037586
5	0x41328f73	11.160022
6	0x3e0435b3	0.1291111
7	0x3f4d5df0	0.8022146
8	0x3cbbbd52	0.022917423
9	0x3f5ae646	0.8550762
10	0x413f9399	11.973535
11	0x410b4ef8	8.7067795
12	0x40e58056	7.171916
13	0x40dc8051	6.8906636
14	0x41d073ff	26.056639
15	0x41df3534	27.900978
16	0x41a69220	20.82135
17	0x401ed07f	2.4814756
18	0x40ed0359	7.4066586
19	0x3c6ad894	0.014333863
20	0x3ea9408c	0.33057058
21	0x41cc4915	25.535685
22	0x418a37ec	17.277306
23	0x3e0deb16	0.1385921
24	0x411e8b60	9.909027
25	0x406dfd22	3.718575
26	0x3cf2e427	0.029649807
27	0x4059cdba	3.4031816
28	0x41cfe82b	25.988363
29	0x4010198f	2.25156
30	0x41a480e9	20.562944
31	0x3d1580d3	0.03649981
32	0x3f401bc5	0.7504237
33	0x414c33a7	12.76261
34	0x41a39266	20.446484
35	0x41a742ef	20.907682
36	0x3fab6b0b	1.3392042
37	0x3ea3db13	0.32003078
38	0x4154f8a2	13.310701
39	0x40f9f24e	7.810828
40	0x4165d85d	14.365323
41	0x41678281	14.469361
42	0x41736886	15.213018
43	0x412741bf	10.453551
44	0x3f2c7d2b	0.6737849
45	0x408ef727	4.46767
46	0x3ef1f283	0.47255334
47	0x410c6ac8	8.77607
48	0x411e8096	9.906393
49	0x40900719	4.5008664
50	0x40007b88	2.0075397
51	0x3fa5e77a	1.2961266
52	0x41e0667c	28.050041
53	0x41cc66ed	25.550257
54	0x3e02a2c7	0.12757407
55	0x3d0fea82	0.035135753
56	0x41a74879	20.910387
57	0x418e7251	17.805819
58	0x40012ec1	2.0184786
59	0x41b25f62	22.296574
60	0x41a892b6	21.071636
61	0x411fc5df	9.985808
62	0x40c8f9f8	6.280514
63	0x3f81c61b	1.0138582

conv1.nn.3.weight f4 [64, 64]
0	0xbd5c1a49	-0.053736005
1	0x3df5f3e9	0.12009413
2	0xbd621a97	-0.05520114
3	0x3d8e819b	0.06958314
4	0xbdd4e9fc	-0.103961915
5	0xbc87abed	-0.016561473
6	0xbd2bdfa0	-0.041961312
7	0x3d44adc2	0.04801727
8	0x3d98f81b	0.07469197
9	0xbc87f115	-0.016594449
10	0xbd4aa4e8	-0.049473673
11	0xbd44d751	-0.048056904
12	0x3da28947	0.0793634
13	0xbdb26929	-0.08711464
14	0xbdb0f429	-0.0864032
15	0x3d40acd2	0.047039814
16	0x3b8fe50e	0.004391319
17	0xbcacfb15	-0.021115819
18	0xbd8acd4e	-0.0677744
19	0x3dd0570e	0.10172854
20	0x3c5e316a	0.013561586
21	0x3d886109	0.06659133
22	0xbcf7371a	-0.030177642
23	0x3dfd965a	0.12382193
24	0x3da437ee	0.0801848
25	0xbc31ddae	-0.010856075
26	0xbdf4c89b	-0.11952325
27	0xbdc532fc	-0.09628865
28	0xbcbde27b	-0.023179283
29	0x3e105148	0.14093506
30	0xbcdd5ec0	-0.02702272
31	0x3d7d78fd	0.06188296
32	0xbdef49c0	-0.116839886
33	0x3d92ba0d	0.071643926
34	0xbdb9ff62	-0.090819135
35	0xbd93350f	-0.071878545
36	0x3dc7377a	0.09727378
37	0xbd82f510	-0.06394398
38	0xbd708da0	-0.058728814
39	0x3c61a974	0.013773311
40	0xbd94e14d	-0.07269535
41	0x3d98b716	0.07456796
42	0x3dfedafe	0.12444113
43	0x3ddd247a	0.10797973
44	0x3d528431	0.0513956
45	0xbdae0d94	-0.084986836
46	0x3dd23d35	0.102655806
47	0x3ca8f2ef	0.020623652
48	0xbdbe2659	-0.09284658
49	0xbd2fea46	-0.04294803
50	0x3e04c19d	0.12964483
51	0xbd540f3a	-0.051772334
52	0x3de98ab6	0.1140341
53	0xbdcccc6a	-0.099999264
54	0x3d6c6e9c	0.057722673
55	0xbdcb380a	-0.09922798
56	0x3cc1b92c	0.023647867
57	0x3d41ae8c	0.0472856
58	0xbdb04c0f	-0.08608257
59	0xbdd58b6e	-0.10426985
60	0x3d99fcb8	0.075189054
61	0x3db53a0c	0.08848962
62	0x3c5fb730	0.013654515
63	0x3e0cc654	0.13747531
64	0x3e126760	0.14297247
65	0x3db109d7	0.08644455
66	0xbd2e5e60	-0.04257047
67	0x3d74e57b	0.059789162
68	0x3dd67cf1	0.104730494
69	0xbd7cde30	-0.061735332
70	0x3d5c8312	0.053835936
71	0xbd4fd11f	-0.050736543
72	0xbca27b61	-0.019834222
73	0x3da72aec	0.081624836
74	0x3da9da42	0.082935825
75	0xbd9b7665	-0.07590941
76	0x3d215a08	0.0393925
77	0xbd7ea9b8	-0.062173575
78	0xbd3688f8	-0.044564217
79	0xbd0fed09	-0.035138164
80	0xbdc5538c	-0.09635076
81	0x3dca6707	0.09882932
82	0x3d92d760	0.07169986
83	0x3c3e9625	0.011632477
84	0xbd881279	-0.066441484
85	0xbde33b96	-0.110953495
86	0x3c03d503	0.008046391
87	0x3dc16636	0.09443323
88	0xbcf0dbe1	-0.029401721
89	0xbd75e761	-0.060035113
90	0x3c9dad88	0.019247785
91	0xbdd92e5d	-0.10604546
92	0x3e0b51b1	0.13605382
93	0x3d884abd	0.0665488
94	0x3d8b9e5c	0.06817314
95	0x3975c592	0.00023438621
96	0xbd4ee4c4	-0.050511137
97	0x3c940970	0.018070906
98	0xbc1284cf	-0.008942797
99	0x3d2b319f	0.04179537
100	0x3dd54cd8	0.104150474
101	0xbc8061cf	-0.015671639
102	0x3b3c7366	0.0028755306
103	0xbde9df4e	-0.11419545
104	0x3ca1a4c4	0.019731887
105	0x3d890335	0.06690065
106	0xbdd0cf9c	-0.10195848
107	0x3cec1146	0.02881683
108	0x3e014ea4	0.12627655
109	0xbde6d050	-0.11270201
110	0xbceaacbc	-0.02864682
111	0x3d8f9acc	0.07011947
112	0x3e12d38b	0.1433851
113	0xbd731ce8	-0.05935374
114	0x3d64a731	0.05582351
115	0xbdb0cbd3	-0.086326264
116	0xbd26b6f7	-0.040701833
117	0x3df7fee3	0.12109163
118	0x3d56f442	0.052479036
119	0xbdf7a300	-0.12091637
120	0x3d80e5a5	0.06293801
121	0xbd847a34	-0.06468621
122	0xbdd80f57	-0.10549801
123	0xbd8d9a60	-0.0691421
124	0x3d911968	0.07084924
125	0x3dbbbaec	0.09166512
126	0xbd5d0913	-0.053963732
127	0x3dc0fb6f	0.09422957
128	0x3dc6e508	0.09711653
129	0xbd8a36f5	-0.067487635
130	0xbcdcf791	-0.026973518
131	0xbccbd625	-0.024882386
132	0x3d068f05	0.032851238
133	0x3cc9b873	0.024624085
134	0x3d00ead4	0.03147395
135	0xbd34c8cb	-0.044136804
136	0xbc2241cf	-0.009903385
137	0x3cc13aa2	0.023587529
138	0x3bdfbf8a	0.006828253
139	0x3d794eee	0.06086629
140	0xbdfe2a12	-0.12410368
141	0x3d9f4b3b	0.07778021
142	0xbd9a0479	-0.07520384
143	0xbdcf9162	-0.101351514
144	0xbd65b3e6	-0.056079768
145	0x3b45bdbe	0.003017291
146	0xbe03f824	-0.12887627
147	0xbdc84fdd	-0.09780858
148	0x3db75b41	0.08952952
149	0xbcf8a109	-0.030350225
150	0x3d21a349	0.03946236
151	0xbc96b73b	-0.018397918
152	0xbd913b89	-0.070914336
153	0xbd6ddcba	-0.05807183
154	0x3d8bdba5	0.06829003
155	0xbdfca828	-0.12336761
156	0x3d90ca47	0.07069831
157	0x3d2d763c	0.042349085
158	0x3cac15ec	0.021006547
159	0x3dc2cfe4	0.09512308
160	0xbd3cdfd8	-0.04611191
161	0x3d86b751	0.065779336
162	0xbc9e186c	-0.019298755
163	0xbd7ece3d	-0.062208403
164	0x3d458c9e	0.048229806
165	0xbdcfea53	-0.10152116
166	0x3d12a788	0.0358043
167	0x3b48e69d	0.0030655034
168	0x3c26a53c	0.010171231
169	0x3deb5d10	0.1149236
170	0x3da17fec	0.07885727
171	0xbd96ce16	-0.073635265
172	0x3d3d33a3	0.046191823
173	0xbcbc273b	-0.022967925
174	0xbcfc0c64	-0.030767627
175	0x3c9de712	0.019275222
176	0xbcced0ff	-0.025246141
177	0x3cb226c4	0.021747
178	0x3d511310	0.05104357
179	0xbd58a333	-0.052890014
180	0x3c852407	0.01625253
181	0xbd49b964	-0.049249068
182	0xbdb2e28c	-0.08734617
183	0xbdb883f5	-0.09009544
184	0x3d925177	0.071444444
185	0x3c541f2d	0.012946886
186	0xbbcc3916	-0.006232391
187	0x3d813a5c	0.06309959
188	0xbde5dcd2	-0.11223759
189	0xbdf16915	-0.11787621
190	0xbcea425f	-0.028596101
191	0xbd9c5b51	-0.07634605
192	0xbd89c086	-0.06726174
193	0xbcc3210c	-0.023819469
194	0x3dc38216	0.09546296
195	0x3d1cbf68	0.038268477
196	0x3d772848	0.06034115
197	0x3ddae954	0.10689035
198	0xbc42671c	-0.0118654035
199	0xbd6b9e0b	-0.05752377
200	0xbdb34259	-0.08752889
201	0x3da718ba	0.08159013
202	0x3dd2c23c	0.102909535
203	0xbc99e049	-0.018783705
204	0xbd959afe	-0.07304953
205	0x3d9b4636	0.07581751
206	0x3beaaf19	0.0071619865
207	0xbdfdb114	-0.123872906
208	0xbbf905d7	-0.007599573
209	0xbdae19c8	-0.08501011
210	0x3dda09b3	0.10646381
211	0xbc745891	-0.014913694
212	0xbdbf54c9	-0.09342343
213	0xbcfe3499	-0.03103094
214	0x3dc6fa1c	0.09715673
215	0xbd5c2079	-0.053741906
216	0x3dd65c73	0.10466852
217	0xbd76b2b7	-0.06022903
218	0xbd9a7906	-0.07542615
219	0xbd0adbbd	-0.033900965
220	0x3dabab72	0.0838231
221	0x3d6a24f4	0.057164147
222	0x3d236535	0.03989144
223	0x3dd755f0	0.10514438
224	0x3dbbfcd8	0.091790855
225	0xbd09d561	-0.03365076
226	0x3d0f9315	0.035052378
227	0xbc118c44	-0.00888354
228	0xbd906e55	-0.07052294
229	0x3dcdce22	0.10049082
230	0xbc8e770a	-0.017390747
231	0xbd688640	-0.056768656
232	0x3d940143	0.07226803
233	0xbdc8682f	-0.097854964
234	0x3da6fac7	0.08153301
235	0xbde003c7	-0.109382205
236	0xbdf0804a	-0.11743219
237	0x3b837658	0.0040119104
238	0xbd2a9e73	-0.041655015
239	0xbd3e7af5	-0.04650398
240	0x3ba1201e	0.0049171587
241	0x3d9c8ae4	0.07643679
242	0x3d02f5d5	0.031972725
243	0xbca80517	-0.02051024
244	0xbc5cb1b3	-0.013470101
245	0xbcc5f945	-0.024166713
246	0x3dbfed27	0.09371405
247	0xbd956bcf	-0.072959535
248	0xbd85e4db	-0.06537791
249	0x3dc82ca9	0.09774143
250	0x3cb5ba93	0.022183692
251	0x3d6fadaf	0.058515247
252	0x3d81b3ae	0.06333099
253	0xbdf5641b	-0.11981984
254	0xbd494736	-0.049140178
255	0xbe098e2a	-0.13433138

conv1.nn.3.bias f4 [64]
0	0x3e04b3d3	0.12959222
1	0x3df95203	0.121738456
2	0x3cd4eb2d	0.025991047
3	0xbda8f51e	-0.082498774
4	0x3db42e23	0.087978624
5	0x3cea23c7	0.028581513
6	0xbde71aed	-0.112844326
7	0xbcd1ac2c	-0.025594793
8	0xbd9dd960	-0.077074766
9	0x3bcf21b2	0.0063211555
10	0xbd8a8277	-0.067631654
11	0x3dcc2ab6	0.09969084
12	0xbd1af41e	-0.037830465
13	0x3d4efa61	0.05053175
14	0xbdc7d8b8	-0.09758133
15	0xbd8e9f3b	-0.069639646
16	0xbd6ac50c	-0.057316825
17	0x3d14012c	0.03613393
18	0xbdd5d3a0	-0.10440755
19	0xbd80d636	-0.062908575
20	0xbdce1947	-0.10063415
21	0xbc77555f	-0.015096038
22	0x3d0226e5	0.031775374
23	0xbddddeda	-0.10833521
24	0x3ba9e220	0.005184427
25	0xbde15817	-0.1100313
26	0xbe046562	-0.129293
27	0xbd0f37b9	-0.03496525
28	0xbc9f768f	-0.019465713
29	0xbc327a64	-0.010893438
30	0x3d8ea07d	0.069642045
31	0x3de02881	0.109452255
32	0x3c5e89c9	0.013582655
33	0xbd90be59	-0.07067556
34	0x3c8e7c78	0.017393336
35	0x3c16ae82	0.009196879
36	0x3ddc977f	0.10771083
37	0x3d91f408	0.071266234
38	0x3ba85806	0.0051374463
39	0xbd8428d1	-0.064530976
40	0xbd0b27ef	-0.03397363
41	0xbc46c997	-0.012133024
42	0xbd98e252	-0.07465042
43	0xbd41dce6	-0.047329806
44	0x3cc0b3e1	0.023523273
45	0x3d16200f	0.036651667
46	0x3d230021	0.039795045
47	0x3d08bc1c	0.03338252
48	0x3d0d3ba7	0.034480717
49	0xbd2e889f	-0.04261076
50	0x3d93cb49	0.07216508
51	0xbb6824b1	-0.003542226
52	0xbc99474a	-0.018710751
53	0x3d229417	0.03969201
54	0x3dfa899f	0.122332804
55	0x3d089994	0.03334959
56	0x3dce9fb7	0.10089057
57	0x3cf2d2bf	0.029641507
58	0xbc82a3e5	-0.015947292
59	0x3d343495	0.04399546
60	0x3c067cbb	0.008208449
61	0xbd4d4e84	-0.050123706
62	0xbda1b27c	-0.07895371
63	0x3e3500fd	0.17676158

conv2.nn.0.weight f4 [64, 64]
0	0x3d5a2cef	0.05326551
1	0x3d38b9bf	0.045099016
2	0xbdd8fccb	-0.105950914
3	0xbdc82712	-0.09773077
4	0xbc603f12	-0.013686912
5	0xbc1994d3	-0.009373861
6	0xbd45a1ff	-0.048250195
7	0xbddd40ee	-0.108034
8	0xbc40b619	-0.011762165
9	0xbe15531f	-0.1458249
10	0x3dabbf2f	0.08386075
11	0xbdbbd1c0	-0.09170866
12	0x3d0ae80b	0.0339127
13	0xbcfe2cad	-0.031027162
14	0x3dc0e860	0.09419322
15	0xbd62178a	-0.05519823
16	0x3db033ba	0.08603616
17	0x3d4abdd6	0.049497448
18	0x3dbe74a2	0.0929959
19	0xbdfb3efd	-0.122678734
20	0x3d4de84c	0.050270364
21	0x3d438e7a	0.047743298
22	0x3b882934	0.0041553024
23	0x3cfe8300	0.031068325
24	0x3dc6c30b	0.0970517
25	0x3c0faaa7	0.008768714
26	0xbca6b91d	-0.02035194
27	0xbd6763c0	-0.056491613
28	0xbcd833fe	-0.02639198
29	0xbbe4f2ba	-0.006986943
30	0xbddf2130	-0.10895002
31	0x3d9aa555	0.07551066
32	0x3ce28746	0.027652394
33	0x3d8ac4fb	0.06775852
34	0xbd0e6e1f	-0.03477299
35	0xbe0466fa	-0.12929907
36	0xbda2a286	-0.07941155
37	0x3daaa208	0.08331686
38	0x3c909bbe	0.017652389
39	0x3dd9b79b	0.10630723
40	0xbd2b719b	-0.04185639
41	0xbd757e16	-0.059934698
42	0xbda1b54a	-0.07895906
43	0xbb993145	-0.004675063
44	0x3d895d91	0.067072995
45	0xbe16790e	-0.14694616
46	0xbcbb77eb	-0.02288433
47	0x3dccd6b7	0.10001891
48	0xbda5aa1f	-0.08089089
49	0xbde07905	-0.10960583
50	0x3d9b56a0	0.07584882
51	0x3d8dfff6	0.06933586
52	0x3d0d5415	0.034504015
53	0xbdcf7eaa	-0.10131581
54	0xbce069a7	-0.027394129
55	0x3d41fb9f	0.047359105
56	0xbd8e0570	-0.06934631
57	0xbc6838f2	-0.014173733
58	0x3e1463df	0.14491223
59	0xbe0311c1	-0.12799741
60	0x3b72ffaf	0.0037078669
61	0x3d831deb	0.06402191
62	0x3c9d7748	0.019221917
63	0xbd1ee255	-0.038790066
64	0x3dc3be71	0.09557808
65	0x3cb2af7d	0.021812195
66	0x3d964680	0.073376656
67	0xbd045684	-0.03230907
68	0x3c07d82d	0.008291286
69	0xbd0f66a2	-0.035009988
70	0x3dc8b3d7	0.09799927
71	0xbd8246dd	-0.06361172
72	0x3d91a02a	0.07110627
73	0xbdfe1d29	-0.124079056
74	0xbdd3af08	-0.10336119
75	0xbc765a7a	-0.01503622
76	0x3dd8612a	0.105654076
77	0x3d72b916	0.059258543
78	0xbc921750	-0.017833382
79	0xbb643297	-0.0034820193
80	0x3ddf05ce	0.10889779
81	0x3b46fb2a	0.0030362108
82	0x3c061640	0.008184016
83	0x3df9054c	0.121592134
84	0x3d153bd9	0.03643403
85	0x3d4c1722	0.04982675
86	0xbd0e7327	-0.034777787
87	0xbdff6fcc	-0.124724954
88	0xbd9f3b8c	-0.077750295
89	0x3cf9765d	0.030451948
90	0x3d65d51a	0.056111433
91	0xbdd60916	-0.10450952
92	0x3dbd650d	0.092477895
93	0xbd6d8b1c	-0.057993993
94	0xbe025f14	-0.12731582
95	0xbe17145e	-0.14753863
96	0xbded4aba	-0.115865186
97	0xbdbf7e23	-0.093502305
98	0x3da5631c	0.08075544
99	0xbdfa5d50	-0.12224829
100	0xbdd31e20	-0.1030848
101	0x3d377288	0.04478696
102	0xb88882ea	-6.50937e-05
103	0x3c93b0d7	0.01802866
104	0xbdc08293	-0.09399905
105	0xbddd55f5	-0.10807411
106	0xbd8bb636	-0.06821863
107	0x3e0629ed	0.13101931
108	0x3dd2e5c9	0.10297734
109	0x3dc8d002	0.09805299
110	0xbbec13f7	-0.0072045284
111	0xbdf5d041	-0.12002612
112	0xbdf6e5e8	-0.1205557
113	0xbde0f933	-0.10985031
114	0xbe12e261	-0.14344169
115	0xbdf0a6da	-0.117505744
116	0xbd83f466	-0.064431
117	0xbc784961	-0.015154214
118	0x3d9db3f4	0.07700339
119	0x3cb2b293	0.021813666
120	0xbc095a18	-0.008383296
121	0xbe13e241	-0.14441778
122	0x3e000c59	0.1250471
123	0xbd2ab50d	-0.04167657
124	0xbd905d4b	-0.07049044
125	0xbd96fd2e	-0.07372509
126	0x3ddb8b2c	0.10719904
127	0xbe0816a1	-0.13289882
128	0xbddd8779	-0.10816855
129	0x3dc0c0ba	0.0941176
130	0x3d6622f3	0.056185674
131	0xbd8d4338	-0.068975866
132	0x3c117439	0.008877807
133	0xbe07fc14	-0.13279754
134	0xbddfaabd	-0.109212376
135	0x3c1074b9	0.008816891
136	0x3dc53068	0.096283734
137	0x3dd9683d	0.10615585
138	0x3d9bea27	0.076130204
139	0xbe0c4e6f	-0.13701795
140	0x3d146673	0.036230516
141	0xbd8a69ab	-0.06758436
142	0xbd7b0f14	-0.061293676
143	0xbdee83fe	-0.11646269
144	0xbd12e610	-0.035863936
145	0x3da0c019	0.0784914
146	0x3d9ce0ae	0.07660042
147	0x3dbf7227	0.09347945
148	0x3d6d4ab0	0.057932556
149	0xbdcc77da	-0.09983797
150	0x3bd51bd8	0.0065035634
151	0xbdc023a8	-0.09381801
152	0x3bd08610	0.0063636377
153	0x3dab150a	0.08353622
154	0x3df05f66	0.11736946
155	0x3cbf475f	0.023349462
156	0xbdd77805	-0.10520939
157	0x3d657be1	0.056026343
158	0x3d833c83	0.06408026
159	0x3dc7be0a	0.09753044
160	0xbccb635d	-0.024827654
161	0xbccf3846	-0.025295388
162	0x3d599c9d	0.053127874
163	0xbde707a6	-0.11280756
164	0xbdfb5cea	-0.12273581
165	0xbdda4c37	-0.10659068
166	0xbde61082	-0.11233617
167	0x3c6b7409	0.014370927
168	0xbe0e2150	-0.13879895
169	0xbdbfa851	-0.09358276
170	0xbccae1d9	-0.024765896
171	0x3d91ab27	0.07112723
172	0x3cb6f66a	0.022334296
173	0xbd3f180b	-0.04665379
174	0x3d0bc860	0.03412664
175	0x3d979582	0.07401563
176	0xbdb739da	-0.08946581
177	0xbc1b8d64	-0.009494159
178	0xbd59e9cd	-0.053201485
179	0x3d8ddbae	0.06926666
180	0xbd9f3940	-0.077745914
181	0xbdcc44f3	-0.099740885
182	0x3d619c4e	0.055080704
183	0x3d1c7543	0.038197767
184	0x3dfa0b4f	0.12209188
185	0xbdb53f5b	-0.08849975
186	0xbe1b11cc	-0.15143508
187	0x3d37eb11	0.04490191
188	0xbd89c371	-0.067267306
189	0xbc3878ce	-0.011259271
190	0x3de7ff2e	0.113279685
191	0x3db99efd	0.09063528
192	0xbdcf6724	-0.101270944
193	0xbc932e5e	-0.017966446
194	0xbc9427f6	-0.018085461
195	0x3ca1c254	0.019745983
196	0x3df208be	0.11818074
197	0x3db1ecf7	0.086877756
198	0x3dc49834	0.09599343
199	0xbcec391a	-0.028835822
200	0xbd17a8fb	-0.037026387
201	0x3dbb4bc3	0.0914531
202	0x3c2400b3	0.010009932
203	0xbdec0723	-0.11524799
204	0xbd947cb9	-0.072503515
205	0xbcba0539	-0.022707568
206	0x3dfb4a3a	0.12270017
207	0x3ccebe7c	0.025237314
208	0xbd7da2b0	-0.06192273
209	0xbdd93932	-0.10606612
210	0xbc7ce2b0	-0.015434906
211	0xbda1325d	-0.07870934
212	0xbe047d12	-0.12938336
213	0x3ca94db6	0.020666938
214	0x3c0af491	0.008481161
215	0xba97de00	-0.0011586547
216	0x3c19ee85	0.009395246
217	0xbd8828f3	-0.066484354
218	0x3d1d15c9	0.038350854
219	0xbd076450	-0.03305465
220	0xbe0ec439	-0.1394204
221	0x3a4e794f	0.0007876353
222	0xbda8f667	-0.082501225
223	0x3d1b11eb	0.037858885
224	0x3dd085ec	0.101817936
225	0xbdcfbfba	-0.10143991
226	0xbd1664e1	-0.0367173
227	0xbcf5f11d	-0.030022198
228	0x3bdb7cd5	0.0066982307
229	0x3dabe531	0.08393324
230	0xbdcec84b	-0.100967966
231	0xbc3e94f8	-0.011632197
232	0xbd8c9838	-0.06864971
233	0x3d530ea7	0.051527645
234	0xbc52f73a	-0.012876326
235	0xbd0fe59b	-0.03513108
236	0x3d625252	0.055254288
237	0xbd02df6d	-0.031951357
238	0xbdadbf1b	-0.08483716
239	0x3dc076f6	0.0939769
240	0xbcb7d2ce	-0.022439387
241	0x3c4ffb2b	0.01269416
242	0xbde2177f	-0.11039638
243	0xbdab0dc3	-0.08352234
244	0xbcdc5eef	-0.026900737
245	0xbd991343	-0.07474377
246	0xbd373479	-0.044727776
247	0x3dcb5cae	0.099297866
248	0x3d8a7e8c	0.06762418
249	0x3d02fde7	0.03198042
250	0xbd5f5936	-0.054528438
251	0x3ce8b511	0.028406652
252	0xbd9e3aa1	-0.07726026
253	0x3dc4160a	0.09574516
254	0xbd82caf4	-0.063863665
255	0x3c98e71b	0.018664887

conv2.nn.0.bias f4 [64]
0	0x3daa7da0	0.08324742
1	0x3d0a2d06	0.033734344
2	0xbdf03828	-0.11729461
3	0x3d82c949	0.06386048
4	0xbd509495	-0.05092295
5	0x3d7e3391	0.062060896
6	0xbd6c294a	-0.057656564
7	0xbcd10670	-0.025515765
8	0x3da35fb3	0.079772376
9	0x3d8349e4	0.06410578
10	0xbc679ef0	-0.014137015
11	0xbd98f7ae	-0.07469116
12	0x3d753194	0.059861735
13	0xbda10a72	-0.078633204
14	0x3b9b72bc	0.004743902
15	0xbd91bcfb	-0.07116123
16	0x3a0671e5	0.0005128666
17	0xbd7fa725	-0.06241526
18	0xbb94aa41	-0.0045368974
19	0xbcaa2cc1	-0.020773293
20	0x3caa2e65	0.020774076
21	0x3cc0d130	0.023537248
22	0xbd541c5f	-0.05178487
23	0x3da0ac99	0.078454204
24	0x3cc31b62	0.023816768
25	0xbdcc7353	-0.09982934
26	0x3d94f8c4	0.07274011
27	0xbdcba8a4	-0.09944275
28	0x3d98dfad	0.07464538
29	0x3d5478bf	0.051872965
30	0xbde77b1d	-0.11302779
31	0x3d7eefe4	0.062240496
32	0xbde902c6	-0.11377482
33	0x3dc21a4d	0.09477673
34	0x3d7f3c77	0.062313523
35	0xbd2a574a	-0.04158715
36	0x3d70fe9d	0.05883657
37	0x3b9b6f97	0.004743527
38	0xbd991343	-0.07474377
39	0xbc4ec700	-0.0126206875
40	0x3d02c075	0.031921823
41	0xbceb489f	-0.028721152
42	0xbd2f0aba	-0.04273484
43	0x3dd0132e	0.10159908
44	0x3b0cbcbb	0.0021474797
45	0x3d964a81	0.07338429
46	0xbdac77fe	-0.08421324
47	0xbdcfd55b	-0.10148116
48	0xbbf17fc1	-0.007369966
49	0xbda1b491	-0.078957684
50	0xbcfe0eca	-0.031012911
51	0x3ba72696	0.0051010353
52	0x3d334d85	0.0437751
53	0xbd08ab58	-0.03336653
54	0x3df8b83b	0.12144514
55	0xbd8a115b	-0.067415915
56	0x3bf78935	0.007554198
57	0xbdf7d6e2	-0.121015325
58	0xbd68b6ed	-0.056815077
59	0xb8e2a2c9	-0.00010806841
60	0xbdad0c87	-0.08449655
61	0x3cdc921a	0.026925135
62	0xbd708804	-0.058723465
63	0x3dbc2347	0.09186416

conv2.nn.1.weight f4 [64]
0	0x3f7a9110	0.978776
1	0x3f7fd0d0	0.99928
2	0x3f796a37	0.97427696
3	0x3f84acdd	1.0365254
4	0x3f7e63e2	0.9937116
5	0x3f7ffdaf	0.99996465
6	0x3f787951	0.97060114
7	0x3f7b11c9	0.98074013
8	0x3f7e4ea6	0.9933876
9	0x3f7e0b1f	0.9923572
10	0x3f75d5c1	0.9602929
11	0x3f82da31	1.0222837
12	0x3f7aa84f	0.9791307
13	0x3f787662	0.9705564
14	0x3f7143fa	0.9424435
15	0x3f706160	0.9389858
16	0x3f7c3d96	0.9853147
17	0x3f7acd58	0.9796958
18	0x3f7bdf5c	0.98387694
19	0x3f75ef28	0.9606805
20	0x3f82cb2b	1.0218252
21	0x3f80cbc1	1.0062181
22	0x3f80221e	1.0010412
23	0x3f7ce5c1	0.98788077
24	0x3f82a975	1.0207964
25	0x3f7bcef9	0.9836269
26	0x3f7add83	0.9799425
27	0x3f7a03cd	0.9766205
28	0x3f8077c0	1.0036545
29	0x3f76f132	0.96461785
30	0x3f7f2d4a	0.9967848
31	0x3f81ae66	1.0131347
32	0x3f7817a8	0.96911097
33	0x3f80588d	1.0027024
34	0x3f7fd2bc	0.9993093
35	0x3f78a27f	0.9712295
36	0x3f7f58ae	0.9974469
37	0x3f807563	1.0035824
38	0x3f779909	0.9671789
39	0x3f7b82a5	0.9824622
40	0x3f7b5d54	0.9818928
41	0x3f79b760	0.97545433
42	0x3f7b4ef1	0.9816733
43	0x3f80c273	1.0059341
44	0x3f77b4b7	0.96760124
45	0x3f7d86a0	0.99033546
46	0x3f765510	0.96223545
47	0x3f772fb9	0.96557194
48	0x3f7ec91f	0.99525636
49	0x3f7ba4c6	0.982983
50	0x3f787bfa	0.97064173
51	0x3f806c83	1.0033115
52	0x3f7bb01b	0.9831559
53	0x3f7990e6	0.9748672
54	0x3f7df207	0.9919743
55	0x3f6e75f1	0.93148714
56	0x3f75c736	0.96007097
57	0x3f7a0c14	0.9767468
58	0x3f80d961	1.0066339
59	0x3f7983c6	0.97466695
60	0x3f8097b0	1.0046291
61	0x3f81570f	1.0104693
62	0x3f7a7867	0.9783997
63	0x3f859c6f	1.0438365

conv2.nn.1.bias f4 [64]
0	0xbcce1ece	-0.025161173
1	0xbb9c6d53	-0.0047737746
2	0xbb882c77	-0.0041556912
3	0x3ced5101	0.02896929
4	0x3c3b2c86	0.011424189
5	0x3c478b15	0.012179156
6	0xbcca1aac	-0.024670921
7	0xbce5d6d8	-0.028056547
8	0x3a820f00	0.0009922683
9	0x3af980c8	0.0019035572
10	0x3a8ec03b	0.0010891029
11	0xbbad00b7	-0.005279626
12	0xbcd16ad6	-0.025563639
13	0xbcf0d145	-0.029396662
14	0xbc8ba7cb	-0.017047783
15	0xbc04dbde	-0.008109061
16	0xbc335683	-0.010945919
17	0x3b7f1a9c	0.0038925773
18	0x3ba38dac	0.004991254
19	0xbd816aa6	-0.0631917
20	0x3c81e6c5	0.01585711
21	0xbb79b6ae	-0.003810327
22	0x3b75adb3	0.0037487566
23	0xbc8d5375	-0.01725171
24	0x3ca8e6c2	0.020617846
25	0x39bf0ced	0.0003643999
26	0xbcb3407a	-0.02188133
27	0x3bed5738	0.0072430633
28	0x3cb6f4ed	0.022333587
29	0xbd0b0352	-0.033938713
30	0xbb776233	-0.003774774
31	0x3c350ba9	0.011050143
32	0xbc8bb156	-0.017052334
33	0xbc834102	-0.01602221
34	0x376be1eb	1.4059692e-05
35	0xbcbbd0af	-0.022926657
36	0xbcb5eca0	-0.022207558
37	0x3913100e	0.00014024993
38	0xbbb71ca7	-0.0055881324
39	0xbd002546	-0.031285547
40	0xbc2ae26c	-0.01042996
41	0xbbad62b8	-0.005291309
42	0x3c0076b0	0.007840797
43	0xbab1caf8	-0.0013564518
44	0xbcc1cd7f	-0.023657558
45	0xbaccbae8	-0.0015619667
46	0xbd19313a	-0.03740046
47	0xbccfcec6	-0.025367152
48	0xbb2d5f4b	-0.0026454504
49	0xbb3a0329	-0.0028383231
50	0x3c7882c8	0.015167899
51	0x3bce4a4b	0.0062954775
52	0xbbe2c3cc	-0.0069203135
53	0x3c9633e5	0.018335292
54	0xbc1cf231	-0.009579227
55	0xbb5d9cd2	-0.0033815396
56	0xbd19ae16	-0.037519537
57	0xbc70158e	-0.014653577
58	0x3c0ecb07	0.008715398
59	0xbd2ba413	-0.04190452
60	0x3ba03c45	0.004889997
61	0x3c1bcb08	0.009508856
62	0xbb9c238b	-0.0047649792
63	0x3c68bd12	0.014205234

conv2.nn.1.running_mean f4 [64]
0	0x41519347	13.098456
1	0xc1a1b44b	-20.213034
2	0xc18afe85	-17.374277
3	0xc0f6fd66	-7.7184324
4	0x41bc79a0	23.559387
5	0x419a0a07	19.254896
6	0xc18650b2	-16.789402
7	0x4205f308	33.487335
8	0xc19e6db1	-19.80356
9	0xc14e4d2e	-12.893843
10	0x41f0a30f	30.079618
11	0x408f9228	4.4865913
12	0xc1310761	-11.0643015
13	0xc16b6ebc	-14.714535
14	0x416676c8	14.403999
15	0x41803202	16.024418
16	0xc0a750b6	-5.2286024
17	0x41969ad0	18.825592
18	0xc184f563	-16.619818
19	0xc131d88c	-11.115368
20	0xc19070b2	-18.055027
21	0x414ac2cb	12.672557
22	0xc19a338b	-19.275167
23	0x419a693b	19.301382
24	0xc11210bf	-9.129088
25	0xc18841bd	-17.032099
26	0x41a9313c	21.14904
27	0x4186d4c3	16.853888
28	0x412bf33c	10.746883
29	0xc1c6ac6a	-24.834187
30	0xc19d4803	-19.660162
31	0xc1948ef9	-18.56981
32	0x41a4dd28	20.607986
33	0x415310a1	13.19156
34	0xc15268a1	-13.150544
35	0x41832fc3	16.398321
36	0xc0d54339	-6.664456
37	0x40a9a15f	5.3009486
38	0xc1ed1937	-29.637312
39	0xc166ac37	-14.417045
40	0xc1d24b49	-26.28676
41	0x403e6aea	2.9752755
42	0xc0dee8d7	-6.965923
43	0xc13c00b2	-11.75017
44	0x419e22fb	19.76708
45	0xc180bc97	-16.092085
46	0x41bcc916	23.598186
47	0x41e68c26	28.818432
48	0xc11640cd	-9.3908205
49	0xc17a2619	-15.634301
50	0x41d2a55b	26.33074
51	0xc0be3beb	-5.944814
52	0xc178e970	-15.556992
53	0x418777cf	16.9335
54	0xc1886962	-17.051456
55	0x40bb29fe	5.848876
56	0xc11ebc0c	-9.92091
57	0xc1b4ab2a	-22.583576
58	0x41d5e87b	26.738516
59	0xc139e78c	-11.61903
60	0x419e060b	19.75295
61	0xc15ef7ad	-13.935468
62	0xc15a2d33	-13.636035
63	0x415ea9b4	13.916431

conv2.nn.1.running_var f4 [64]
0	0x442a53f9	681.3121
1	0x448ecf68	1142.4814
2	0x4476f92a	987.8932
3	0x432241f5	162.25764
4	0x44d48479	1700.1398
5	0x4488f93c	1095.7886
6	0x446463c4	913.55884
7	0x4547e852	3198.52
8	0x44887957	1091.7919
9	0x44003429	512.815
10	0x45258ebb	2648.9207
11	0x42b45144	90.15872
12	0x439c2aef	312.33542
13	0x4416b035	602.75323
14	0x4416cfc8	603.2466
15	0x44375a77	733.4135
16	0x42aa8597	85.26092
17	0x445b6ca2	877.6974
18	0x442935b2	676.839
19	0x440da0b6	566.5111
20	0x447c3877	1008.88226
21	0x43b44694	360.5514
22	0x4483bcdb	1053.9017
23	0x4485f741	1071.7267
24	0x436b4699	235.27577
25	0x447ec6ac	1019.10425
26	0x448550de	1066.5271
27	0x444cfe75	819.9759
28	0x438a04d8	276.03784
29	0x44e6e5c6	1847.1804
30	0x448beb76	1119.3582
31	0x4486c0fa	1078.0305
32	0x44af2018	1401.0029
33	0x44155433	597.3156
34	0x43ff5b57	510.7136
35	0x444fc5d5	831.0911
36	0x42f2d7bf	121.42138
37	0x42b8f265	92.47343
38	0x453919b3	2961.6062
39	0x440a31b9	552.7769
40	0x44f81a61	1984.8243
41	0x41c7cef2	24.976048
42	0x43550117	213.00426
43	0x43afd654	351.67444
44	0x44ae438d	1394.111
45	0x444c54cd	817.325
46	0x44ce862a	1652.1926
47	0x451c020d	2496.1282
48	0x432c955b	172.58342
49	0x4436551d	729.3299
50	0x45056a16	2134.6304
51	0x430b210b	139.12907
52	0x4434f3d1	723.80963
53	0x4440f7e7	771.8735
54	0x44539dc2	846.46497
55	0x42ab4e09	85.65241
56	0x4350c3eb	208.7653
57	0x44b80687	1472.204
58	0x44f5b352	1965.6038
59	0x43a74735	334.5563
60	0x4485a6ef	1069.2167
61	0x44161528	600.33057
62	0x442119f6	644.40564
63	0x44202fbf	640.74603

conv2.nn.3.weight f4 [64, 64]
0	0xbc536f25	-0.012904917
1	0x3d0a6ba0	0.033794045
2	0x3b97599b	0.004618836
3	0xbcd5caba	-0.026097644
4	0x3dcaa86a	0.09895404
5	0xbde61961	-0.112353094
6	0x3c919b1c	0.017774157
7	0xbd1ec1cc	-0.038759038
8	0xbd679631	-0.056539718
9	0xbd6195b6	-0.055074416
10	0xbda9fad9	-0.082997985
11	0xbdcd7ea6	-0.10033922
12	0xbc939180	-0.018013716
13	0xbd4a0428	-0.04932037
14	0xbc727548	-0.01479847
15	0x3db5ed52	0.08883156
16	0x3dad1325	0.08450917
17	0x3cd5b635	0.02608786
18	0xbddcd2ea	-0.10782416
19	0xbc56714a	-0.013088534
20	0x3d8c3a0a	0.068470076
21	0xbcc8e002	-0.024520878
22	0xbdcaa7d2	-0.098952904
23	0xbdb0266c	-0.086010784
24	0x3d52709d	0.051376928
25	0xbd76b4e6	-0.060231112
26	0xbdd121fc	-0.1021156
27	0x3dc025ed	0.09382234
28	0xbc150668	-0.009095766
29	0x3bbf1fd4	0.0058326516
30	0x3d579909	0.05263618
31	0xbdda6620	-0.1066401
32	0xbd3a110d	-0.045426417
33	0x3be8f59c	0.007109357
34	0xbdf8c2b0	-0.12146509
35	0xbd8e11c3	-0.069369815
36	0xbdd328cd	-0.103105165
37	0xbd8c0059	-0.06836004
38	0xbc249ed5	-0.010047634
39	0x3d5c8fc7	0.053848054
40	0x3dd21a55	0.10258929
41	0xbd596d2d	-0.053082634
42	0xbd016336	-0.031588756
43	0x3dd7ca70	0.10536659
44	0x3da39f1e	0.079893336
45	0x3c38a8e5	0.011270736
46	0x3c77605c	0.015098657
47	0x3d9daf00	0.07699394
48	0xbd562433	-0.052280616
49	0x3bfec67f	0.0077751274
50	0x3bf90dda	0.007600528
51	0xbda3ac21	-0.07991815
52	0x3d059b2d	0.03261869
53	0x3dbe7254	0.0929915
54	0x3dd168d3	0.10225072
55	0xbc992ad1	-0.018697174
56	0xbcbecf8f	-0.023292331
57	0xbdcb81f2	-0.099368945
58	0xbdc97618	-0.09836978
59	0xbdca8f3d	-0.09890602
60	0x3d5dff81	0.054198746
61	0xbdf8b811	-0.12144483
62	0x3e023809	0.12716688
63	0xbdccbe80	-0.099972725
64	0x3d892f67	0.066984944
65	0xbdf7ea79	-0.12105269
66	0x3d8596fb	0.06522938
67	0x3a2922fa	0.00064520503
68	0x3cbf39bc	0.02334296
69	0x3d457a2c	0.048212215
70	0x3b77411c	0.0037728017
71	0xbdbc505f	-0.09195017
72	0xbd3c5743	-0.045981657
73	0xbdff86dc	-0.12476894
74	0xbde0c57a	-0.10975166
75	0xbd6cc9cf	-0.057809647
76	0xbbe81f86	-0.007083836
77	0xbdbb6f4c	-0.091520876
78	0xbdc150d9	-0.094392486
79	0xbcc274d0	-0.023737341
80	0x3c9b4612	0.01895431
81	0x3d40775b	0.046988826
82	0xbd9ff959	-0.07811231
83	0xbc8f7fed	-0.017517054
84	0xbd29974f	-0.041404065
85	0xbc7fd78c	-0.015615355
86	0xbd0baa50	-0.03409797
87	0xbc0962e4	-0.008385394
88	0xbd7003bc	-0.05859731
89	0xbdb2acf7	-0.08724397
90	0xbe0756bc	-0.1321668
91	0x3d4cfafb	0.05004404
92	0x3d7d7474	0.061878636
93	0x3d8aa9f7	0.067706995
94	0x3b8c1510	0.004274972
95	0x3d44ce78	0.048048466
96	0x3dd44313	0.10364356
97	0x3da53e10	0.08068478
98	0xbd090b88	-0.033458263
99	0xbd8eef0c	-0.06979188
100	0xbce2d2cc	-0.027688406
101	0x3d40f8ce	0.04711228
102	0x3d4eae5b	0.050459247
103	0x3d4d9fe1	0.0502013
104	0xbd4b8ef3	-0.049696874
105	0x3c804346	0.015657078
106	0xbda6a100	-0.08136177
107	0x3db5906e	0.088654384
108	0xbd9e9e93	-0.077450894
109	0x3de2dfe5	0.11077861
110	0xbd7b8095	-0.061401922
111	0xbdd5b5cd	-0.10435066
112	0x3d726006	0.059173606
113	0xbd1f6cca	-0.03892211
114	0x3da722c6	0.081609294
115	0xbd432b90	-0.047648966
116	0xbdfaa551	-0.12238563
117	0xbbb67e78	-0.0055692755
118	0xbb28ec28	-0.0025775526
119	0x3d126883	0.0357442
120	0x3d5ff5a5	0.054677624
121	0xbcbeae08	-0.023276344
122	0xbdfe7cab	-0.12426122
123	0x3da6056b	0.08106502
124	0x3d340e8f	0.043959197
125	0x3d0623e0	0.032749057
126	0xbd27a62b	-0.040929954
127	0xbcc4c035	-0.024017433
128	0xbd911315	-0.07083718
129	0x3dc21dd9	0.09478349
130	0x3d8f14fe	0.06986426
131	0xbd9b5ed0	-0.075864434
132	0xbda4d165	-0.08047751
133	0x3ded8d4f	0.11599218
134	0x3da1c908	0.07899672
135	0xbd8ff272	-0.07028665
136	0xbaf17f29	-0.0018424738
137	0x3c0fe4ad	0.008782548
138	0x3d5c98ee	0.053856783
139	0xbd51ec6c	-0.05125086
140	0x3dcff845	0.101547755
141	0x3dbe00d1	0.092774995
142	0x3d49c688	0.0492616
143	0x3ceb469a	0.028720189
144	0x3dae6c82	0.0851679
145	0xbd8cafd3	-0.06869473
146	0x3d8b20f9	0.067933984
147	0x3c9d1755	0.019176165
148	0x3e0fe29c	0.14051288
149	0xbe0e8285	-0.13916977
150	0x3cdfad88	0.027304426
151	0xbce3d27a	-0.027810324
152	0x3df41f7c	0.11920068
153	0xbc11725e	-0.008877365
154	0xbd0766c8	-0.033057004
155	0xbdcff2b9	-0.101537175
156	0xbd9cf1ab	-0.07663282
157	0x3dc615d9	0.09672136
158	0xbd3de917	-0.04636487
159	0x3cdc5679	0.026896702
160	0x3cdd191b	0.02698951
161	0xbd856703	-0.065137886
162	0xbdf1de57	-0.11809986
163	0xbd4707ca	-0.048591413
164	0x39fa1034	0.00047695788
165	0xbd04f59f	-0.032460805
166	0x3d2df5f2	0.04247088
167	0x3d9a5b46	0.0753694
168	0x3ca61116	0.02027182
169	0xbc57501a	-0.013141656
170	0x3de63073	0.1123971
171	0xbc629654	-0.013829786
172	0xbd101d4c	-0.03518419
173	0xbd034efd	-0.03205775
174	0x3d2f904c	0.04286222
175	0x3ddd1182	0.10794355
176	0x3ddf6d65	0.10909537
177	0xbd2050dc	-0.039139614
178	0x3d28a0a4	0.041168824
179	0xbe0519cc	-0.12998122
180	0x3c9d62c8	0.019212142
181	0xbd09dff4	-0.033660844
182	0x3c575b80	0.013144374
183	0xbcc65274	-0.024209239
184	0x3c4e9ff1	0.012611375
185	0x3d3a3d5d	0.045468677
186	0xbda23c80	-0.07921696
187	0xbdc87701	-0.09788323
188	0xbdb50c6b	-0.08840259
189	0x3dcf7bf2	0.101310626
190	0xbd8cc5fd	-0.06873701
191	0x3e0f6d0a	0.14006439
192	0x3d11801a	0.035522558
193	0xbb6cec69	-0.0036151654
194	0x3d9b6d98	0.07589263
195	0xbdc1c00f	-0.094604604
196	0xbc01fd22	-0.007933887
197	0x3d574b26	0.0525619
198	0xbd9324b3	-0.07184734
199	0x3c2bfc1a	0.010497117
200	0x3cb71a55	0.022351423
201	0x3d090656	0.033453308
202	0xbceb97e6	-0.028758954
203	0xbde022aa	-0.10944112
204	0xbdf5e6c8	-0.12006909
205	0x3b38820f	0.0028153693
206	0xbdff4a52	-0.12465347
207	0x3d5fc64b	0.054632466
208	0x3d7a0b96	0.061046205
209	0xbbe260d6	-0.0069085164
210	0xbe181f21	-0.14855625
211	0x3ceecea3	0.029151266
212	0xbdd776fb	-0.105207406
213	0xbd617b65	-0.05504932
214	0xbd0b355d	-0.033986438
215	0xbc26c022	-0.010177644
216	0xbcd56c51	-0.026052626
217	0xbc606a57	-0.013697228
218	0x3db6304c	0.08895931
219	0xbd933be4	-0.071891576
220	0xbd453461	-0.048145656
221	0x3d0e606a	0.034759916
222	0x3d892716	0.06696908
223	0x3c8f1555	0.017466227
224	0x3d73d9d3	0.059533905
225	0x3be73c45	0.0070567452
226	0x3d61c69c	0.05512105
227	0xbd9a6302	-0.075384155
228	0xbced01bf	-0.028931497
229	0xbba365d0	-0.004986502
230	0xbd7b8542	-0.06140638
231	0x3d39cb3e	0.045359842
232	0xbd1778cd	-0.03698044
233	0xbdad35e3	-0.08457544
234	0x3d0f4d26	0.034985684
235	0xbcb9863a	-0.022647012
236	0xbd1e6ad7	-0.03867611
237	0xbbb19c87	-0.005420271
238	0xbdba1fe8	-0.09088117
239	0xbdc99ced	-0.09844384
240	0xbdda9700	-0.10673332
241	0xbdde9f9b	-0.10870286
242	0x3da20cc2	0.079125896
243	0xbd2e1f58	-0.04251036
244	0x3d0ffb9f	0.035152074
245	0xbd67926a	-0.056536116
246	0x3c9c34fa	0.01906823
247	0x3cb88d00	0.022528172
248	0xbdc5364d	-0.09629498
249	0x3d421dc0	0.047391653
250	0x3d8c3b35	0.0684723
251	0x3dcfc05f	0.10144114
252	0x3d808243	0.062748455
253	0xbdb9a3a5	-0.09064416
254	0xbbe5a213	-0.007007846
255	0xbd158877	-0.036507096

conv2.nn.3.bias f4 [64]
0	0xbc19c03d	-0.009384212
1	0x3c4b0184	0.012390498
2	0x3d6a1f65	0.057158846
3	0x3ba5fc18	0.0050654523
4	0x3b044a61	0.0020185935
5	0x3cc73f52	0.024322186
6	0x3d778e4e	0.060438447
7	0x3d2ca357	0.04214796
8	0xbde661ab	-0.112490974
9	0xbd81ff75	-0.06347553
10	0xbac3500e	-0.0014901177
11	0xbe0b56f6	-0.13607392
12	0x3ddba14e	0.10724126
13	0x3dd42390	0.103583455
14	0x3ce81eda	0.028335024
15	0x3d7668bb	0.060158473
16	0xbd8178d8	-0.06321877
17	0xbd47d7ce	-0.04878979
18	0xbbae6a96	-0.0053227646
19	0xbca4106b	-0.02002736
20	0x3d44cdf4	0.048047975
21	0xbcb5eb86	-0.022207033
22	0x3dcf0803	0.1010895
23	0xbd0ce9f6	-0.03440281
24	0xbc21f1d7	-0.009884319
25	0x3ca26e24	0.01982791
26	0x3cc5a395	0.024125854
27	0xbd4d240b	-0.0500832
28	0xbdbd1a4a	-0.0923353
29	0x3dea6ea5	0.11446885
30	0x3dbdf3d8	0.09275025
31	0xbdd4c335	-0.10388795
32	0xbd4cf970	-0.05004257
33	0x3cc02666	0.02345581
34	0x3d9dfb2f	0.07713925
35	0xbe0252b2	-0.12726858
36	0xbbbb659c	-0.0057189
37	0xbd750931	-0.05982322
38	0xbdd793a8	-0.1052621
39	0xbe00766b	-0.12545173
40	0x3d9eb3e2	0.07749154
41	0xbdc3de4c	-0.09563884
42	0xbd9bf5f5	-0.07615272
43	0xbd67fc84	-0.056637302
44	0x3dd1637b	0.102240525
45	0xbd8d116f	-0.06888091
46	0xbd9b13b1	-0.07572115
47	0x3dbe76df	0.093000166
48	0xbdb8e1e7	-0.090274625
49	0xbd2002c5	-0.03906514
50	0xbc598d65	-0.01327834
51	0xbc415a7c	-0.011801358
52	0xbc20b4d0	-0.009808734
53	0x3ce0046e	0.027345862
54	0xbd4dbc1e	-0.05022823
55	0xbd389f09	-0.045073543
56	0xbbfe7680	-0.007765591
57	0x3da584ec	0.080819935
58	0x3cc4938c	0.023996137
59	0x3d9f6b47	0.077841334
60	0xbdcf19cf	-0.101123445
61	0xbb08db15	-0.0020882536
62	0xbd57a25b	-0.05264507
63	0x3d597208	0.053087264
