checkpoints/A/model_A_epoch_144.pth (torch, 78709 bytes, 15 tensors)

node_embedding.weight f4 [1, 64]
00000000: 2b5c 9f3d ff44 b8bd a94f b2be d099 7fbf
00000010: 5b01 b93f 3a84 c0bf 91ec fdbd 6c38 813f
00000020: 230a 75be 0002 833f 32ba 643f 2612 44bf
00000030: 074c 913f 12c5 d1bf 6099 e7bf 53ae 8e3b
00000040: 1de3 f63f 2bff 2a3f 4b82 9e3f de3d 04c0
00000050: d556 923f ca91 a3be 6ac1 72bf eab7 debe
00000060: bb50 60bf 1912 ecbe 10b2 b4bf 5ff9 3a3f
00000070: 5653 cc3f 6dbd 033f 1ed9 133f 29f3 08bf
00000080: f6e2 783f fdc9 2ec0 def4 83be 182d f83f
00000090: bd88 e13f ae40 9f3f b96d aabf e5ba fc3d
000000a0: 1a6f e13e bac4 f53f 3b50 8fbf e406 b9bf
000000b0: b741 003e 807e 9e3e 9e89 8f3e 3d12 523f
000000c0: 60e9 503f b6f7 42bf 9a3b 5840 03f3 2ebf
000000d0: da6a 39be 2744 c63f f56a 60bf 0845 3b3f
000000e0: 605c 8f3e 037d 89bf 0963 cbbc de32 a7be
000000f0: 645c 5fbf a8e1 8e3f 1f24 bc3f 922c c63f
0.077812515 -0.08997535 -0.348264 -0.99844074 1.4453539 -1.5040352 -0.12398637 1.0095344
-0.23929648 1.0234985 0.8934661 -0.7659019 1.1351327 -1.6388266 -1.8093681 0.004354277
1.928806 0.66795605 1.2383512 -2.066276 1.1432749 -0.31947166 -0.94826376 -0.4349969
-0.87623185 -0.46107557 -1.411684 0.7303676 1.5962932 0.51460916 0.5775317 -0.5349603
0.97221315 -2.7310784 -0.25772756 1.9388762 1.7619854 1.2441614 -1.3314735 0.12340335
0.44030076 1.9200661 -1.1196359 -1.4455228 0.12525068 0.30955887 0.2803468 0.8205908
0.816061 -0.76159227 3.3786378 -0.68339556 -0.18107167 1.5489548 -0.87663203 0.7315221
0.28000164 -1.0741276 -0.024827497 -0.32655996 -0.8725035 1.1162615 1.4698523 1.5482352

conv1.nn.0.weight f4 [64, 64]
00000000: f580 d03d c6e3 0dbd 4fb1 e53c 9631 073e
00000010: c178 f6bd 43d1 fa3d 64b1 ffbd 3260 07bd
00000020: cfb3 17be feb1 02be ef06 2d3c b2db 9b3d
00000030: 76d9 663d 398e 193d e370 27bd b77e 103d
00000040: c7ac e0bd a9f7 8fbd 3f01 a83d dce8 493d
00000050: cbdc 21bd 9748 8d3a 8bf7 32bb 8ee7 d5bd
00000060: 7eb7 623d 7783 4dbd 2af2 c1bd 577c 74bb
00000070: dab7 883b f567 973c eee1 0cbd 99b6 9f3d
00000080: 42af 7dbd 2709 24bd 5764 ec3c 957b d93c
00000090: 3df1 813d 9812 013c aa65 a8bd b130 f7bd
000000a0: b3e9 3f3c fe14 e7bd ebf7 91bd 2017 a43d
000000b0: 820c 4fbc a4ab 9abd 4ee8 e1bd f942 ad3d
000000c0: 8f57 b23c 9f25 893d e4ce 773d 6a7d 4c3d
000000d0: 2409 633d 338e bcbb ebd3 c0bd 19ea 9ebc
000000e0: 869f ab3d 6257 273d 5297 f8bd 0346 e9bc
000000f0: 347d 7fbb 6bfa 5cbd c28c 753d 3737 90bd
00000100: 3c3a 573d 10df eebd e09f 28bd 8053 cebb
00000110: 8adb b93d a096 2ebc 885c 523d c809 0f3d
00000120: f8cd ccbd 002d 48bb 302c 54bc 40c1 933b
00000130: 2cda f7bd 0eb5 fcbd 247c 1bbd 88f1 c83c
00000140: e2a5 80bd 1c1c 323d 28a4 e7bd c421 36bd
00000150: 946c f7bd 4690 ce3d 0e59 b6bd 146e c1bd
00000160: f44e 6f3d 8c2d 73bd 9880 d13c c0a5 2ebd
00000170: b4ac 45bd 3868 29bd a6f5 f53d a079 edbc
00000180: 80b5 b93c ae55 acbd 62a8 8cbd 3c12 4bbd
00000190: dac9 f2bd 1895 f8bd 1636 fdbd 6c2e 003d
000001a0: 6c09 b6bd 00c8 1cbb d8bd 933c d0f6 35bd
000001b0: d625 eb3d d272 8b3d 90d7 ba3d cc83 fdbd
000001c0: c0d8 2bbb 0019 eb3d 8825 5fbd 445e 1e3d
000001d0: fab0 d0bd 8003 2abc 9091 01bc a072 b5bb
000001e0: 1eeb fabd 6071 9bbc 680d a33d 7c1d 303d
000001f0: 92b9 c43d ec00 18bd 0072 9a3a a828 a13d
00000200: ceaa 14bc dadd 3abc 2a60 f2bd 37c1 1fbd
00000210: f3a7 bc3d a656 db3d b066 583c 0c89 a8bd
00000220: aa5a c43d e54d 023d 0617 e0bd 5c58 80bc
00000230: 18db a4bd 156f ccbc 9a86 8abd 6197 b93d
00000240: 8aee ccbc fd4e 8a3c d4e1 e7bd cc8a 66bd
00000250: 6191 89bd 393b 0e3d 9010 e5bd cfc7 81bd
00000260: 80d0 06be cc5a 7e3a 3cc0 ec3c 1a88 e6bd
00000270: e196 12bd a3a2 f5bd 9bb1 02be 3c45 04bd
00000280: f6e2 8ebd fc09 0fbd e3a1 443d cce0 963d
00000290: f176 d13c 6568 9ebd 25a2 7c3c 713e e03c
000002a0: fbc8 ed3d 31e5 b53c 88a1 d1bc 7e2c 9fbd
000002b0: 8272 e3bc 9172 98bc 1180 f1bd 9ab3 68bd
000002c0: cd6f 333d 4138 013c 311a 743c 0524 143d
000002d0: 7b7f 4b3d a94f 03bd c0da 893d 4614 8c3a
000002e0: 5655 5cbd d6aa 4a3d 9aee f83d 28cf f63c
000002f0: ebb1 983d 7a2e 243c 4cfa 79bd 614e 8a3c
00000300: f825 17bd 98b8 06bd 7cb2 a1bd 1ace ce3d
00000310: 28ec b7bd 40b0 dc3d 70df 0bbd 9ab6 ec3d
00000320: 08c7 97bc 0626 fd3d 767e ffbd 0050 29b8
00000330: a260 f3bd 9c19 79bd 0003 86bb f0ab b33d
00000340: 0086 50bd 725f dc3d 3803 c63c 80df 10bb
00000350: 82f8 fe3d 82bb 98bd 585c c8bc 4087 9f3d
00000360: 9468 b7bd 4c6d f4bd cac5 c43d faea cdbd
00000370: e054 073c 58d0 e53d f89e 953d d830 2a3d
00000380: 10a3 ba3c 84ac 3abd 989b 96bc 880d ecbd
00000390: e0c4 da3b f486 8a3d 5e95 b33d ee53 9dbd
000003a0: a009 58bd a07b acbc a0ec 923c b022 493d
000003b0: 00dc cabb b066 d4bc a241 f7bd bc38 e0bd
000003c0: c01d 37bd d038 25bd 80aa 08bd bc3b 293d
000003d0: 28a2 ecbd 3851 993d 5cb6 7bbd 38f9 7dbd
000003e0: f84c 953d ec6f 213d d838 76bd 4091 7dbb
000003f0: e0d8 70bc c027 f2bb 88ad 4fbd 20aa c43b
0.101808466 -0.03464105 0.028038649 0.1320251 -0.12034751 0.12246945 -0.124850065 -0.033050723
-0.14814685 -0.12763211 0.010560735 0.07610263 0.05635973 0.03748915 -0.04087914 0.035277095
-0.10970455 -0.07029659 0.08203363 0.049294338 -0.039517205 0.001077908 -0.0027308192 -0.10444556
0.055350773 -0.050174203 -0.09470017 -0.0037305558 0.0041723074 0.018482188 -0.03439515 0.077984996
-0.061934717 -0.04004779 0.02885644 0.026548186 0.06344841 0.007877968 -0.08222516 -0.12069834
0.011713433 -0.11283301 -0.07127365 0.08012223 -0.012637259 -0.07552269 -0.11030637 0.0846004
0.021770267 0.06696629 0.06050004 0.04992429 0.05542864 -0.005754256 -0.0941542 -0.019398736
0.08380036 0.04085482 -0.12138237 -0.028475767 -0.003898454 -0.053949755 0.05994869 -0.070417814
0.05254577 -0.116636395 -0.041168094 -0.006296575 0.09075077 -0.010656029 0.051357776 0.034921438
-0.10000223 -0.00305444 -0.012949988 0.004509121 -0.1210216 -0.12339221 -0.037960187 0.024529234
-0.0628164 0.04348384 -0.11310607 -0.044465795 -0.120812565 0.10086112 -0.089037046 -0.09444824
0.058424905 -0.05936961 0.025574014 -0.04263854 -0.048260406 -0.041359156 0.12009744 -0.02898866
0.022669554 -0.084147796 -0.06868054 -0.049577937 -0.118549064 -0.121378124 -0.12363832 0.03129427
-0.08888516 -0.002392292 0.01803486 -0.044424832 0.11481826 0.068090096 0.091231465 -0.12378654
-0.0026221722 0.11479378 -0.054479152 0.038664117 -0.101900056 -0.010376811 -0.00790824 -0.005537346
-0.12251876 -0.01897496 0.079615414 0.04299687 0.09605707 -0.037110254 0.0011783242 0.07869083
-0.009073926 -0.011405433 -0.11834748 -0.039002623 0.09211721 0.10709886 0.013208076 -0.082292646
0.09587605 0.031812567 -0.10941891 -0.015667133 -0.08049601 -0.024955312 -0.067639545 0.09062076
-0.025016088 0.016883368 -0.1132237 -0.05628471 -0.06717182 0.034724448 -0.111848 -0.063369386
-0.13165474 0.0009702861 0.028900258 -0.11256428 -0.03578842 -0.11993911 -0.12763064 -0.03229259
-0.06976883 -0.03492163 0.04800595 0.07367095 0.025569411 -0.077347554 0.015419518 0.027373524
0.116105996 0.022204014 -0.02558972 -0.07772158 -0.027764563 -0.018609317 -0.11792005 -0.056811906
0.043807793 0.007886947 0.014898823 0.036167163 0.04968212 -0.03205839 0.067311764 0.0010687194
-0.05379232 0.049479328 0.12154885 0.030128077 0.0745581 0.0100208465 -0.061029717 0.016883077
-0.036901444 -0.032890886 -0.07895371 0.100979045 -0.0898059 0.107758045 -0.034148633 0.11558266
-0.018527523 0.12360768 -0.124752924 -4.0367246e-05 -0.118836656 -0.06081544 -0.004089713 0.08773029
-0.050909042 0.10760392 0.024171457 -0.0022105873 0.12449743 -0.07457639 -0.024458095 0.07789469
-0.089554936 -0.11934909 0.09608038 -0.10054584 0.008259982 0.11221379 0.073057115 0.041550487
0.022782832 -0.04557468 -0.01838474 -0.115260184 0.0066763014 0.067640215 0.08768724 -0.07682024
-0.052743554 -0.021055043 0.017935097 0.049105346 -0.006190777 -0.025927871 -0.12073065 -0.10948321
-0.044706106 -0.040337384 -0.033365726 0.041316733 -0.11554366 0.07486194 -0.06145321 -0.06200525
0.07290071 0.039413378 -0.060112804 -0.0038691312 -0.0147001445 -0.0073899925 -0.0507026 0.006001726

conv1.nn.0.bias f4 [64]
00000000: 34ea 66bd 0429 d93d d43d 3b3d 2c9b 773d
00000010: a45a 973e dbd4 0fbe c3b3 8f3d 84c9 7d3d
00000020: 8c28 4ebd b3a2 66be 828b 753d 3827 89bd
00000030: b858 c2bc 1708 433e 1454 2dbe 0b9a b73d
00000040: bb07 5a3d 20b1 42bd 82d6 2abd 2bd5 9c3e
00000050: 70ab 1b3c 16e8 703e 1bc9 813d 455b c8bc
00000060: 6770 febd 1f07 ef3c 501d 753d 6835 c1bd
00000070: b42f f73d a890 a3bc 3083 17be 93b4 403d
00000080: 76fc 2f3e b985 473c f8e1 bcbd a2fb f5bd
00000090: 1c9a b4bc dd40 d43d e08b 9f3c 78b4 8cbb
000000a0: f9a1 d73d 812e c73d a0e4 823c cd0c 0abe
000000b0: 8474 e1bd fdd3 8fbd 8746 863d 2f29 223d
000000c0: d8aa 22bd f8e5 783d 59a9 3bbe 1267 a9bd
000000d0: 0000 ebb7 a838 afbc 3896 9a3d 3807 2f3d
000000e0: 4988 febd 4cd0 14be 719f b93d 0699 393d
000000f0: e7b5 41bd b73e 8a3d 30ed 39bd bf7d 34bc
-0.056375697 0.10603526 0.04571326 0.060450718 0.2956134 -0.14046042 0.07016709 0.06195976
-0.050331637 -0.22523002 0.0599475 -0.066969335 -0.023723945 0.19046055 -0.16926605 0.08964928
0.05323003 -0.0475322 -0.041708477 0.30631384 0.009501323 0.23526034 0.06337186 -0.024457583
-0.12423783 0.0291782 0.059842408 -0.094340146 0.120696455 -0.019966438 -0.14796138 0.04704721
0.1718615 0.012177878 -0.092227876 -0.12010886 -0.022046141 0.10363934 0.019475877 -0.0042939745
0.10528941 0.09725667 0.015978158 -0.13481446 -0.11008552 -0.070228554 0.06556421 0.039590057
-0.03971371 0.06076619 -0.1832632 -0.08271612 -2.8014183e-05 -0.02138932 0.07548183 0.042731494
-0.12428338 -0.14532584 0.09063614 0.04531195 -0.047292616 0.06750243 -0.045392215 -0.011016308

conv1.nn.2.weight f4 [64, 64]
00000000: 2c36 6d3d 2078 223c 08c6 893c 880c dcbd
00000010: 3b68 a2bd 8243 78bd 47c0 be3c 044a 4ebd
00000020: 0aaf 17bc dd0c 0f3d a073 253d 78f3 373d
00000030: 08cb 813d e1a8 16be eb96 bdbc e264 8c3d
00000040: 6b4a 843d ba60 b7bc 152b 28bd 058f b03a
00000050: ba07 fabd 1be2 15bd 5a48 f9bc 9e27 aebd
00000060: 87f4 553c d18f 033e d49b cc3d 1b06 fbbd
00000070: fc88 2ebd a5fd 0e3d 1e6e 5c3d 2eb3 9fbd
00000080: e02e d0bd 7921 27bd c0b2 e1bd 94ea 3b3d
00000090: 36c0 d0bd 7375 fa3d f8ce d13d 2a99 e1bd
000000a0: a6be f53d 3467 963d d8a5 563d 0845 92bd
000000b0: 78b2 d53c 6747 363d 0c77 263d 985d 853c
000000c0: 58f5 f33c 262c b0bc b004 bdbd 408b c2bd
000000d0: 484f b63d 004f ebba c914 cb3b c3cb 88bd
000000e0: acfc 053d a216 9ebd b669 973d 7a06 a5bd
000000f0: 9d0c b7bd a60d f63d 3c57 143d 5218 81bd
00000100: f278 c0bd d811 be3d 0f88 87bd 0ebd a5bd
00000110: 7434 81bc 542f 073d 92c8 f63d bc92 a0bd
00000120: 8beb 14bc 7728 e8bd 34ca 55bd bc70 e63d
00000130: e8f5 eb3d ca0d 8e3c a6f7 2dbd 4c00 943d
00000140: 33cb f83d effb 4a3d 5010 a63c ca1f 0e3e
00000150: 1026 383c 5790 f73c a7ec 0e3b 64b1 4fbd
00000160: 5fe0 653d eef4 d13d 08b2 f5bd d697 b73d
00000170: c8d9 3abd f016 a63c a634 bdbd 7ff8 b63c
00000180: 7af5 ab3d adeb 493d b779 7a3c 8b96 01be
00000190: 5028 37bd ad64 423d 40e5 f03d 12af 1d3c
000001a0: 45df 9bbc 28ef ac3c cc6e 5dbd 06c5 383c
000001b0: e557 053d 819c a1bd 4199 23bd 18af 8ebc
000001c0: a0ba f2bb fbf8 73bc 3fad 96be f42e bdbd
000001d0: c031 c5bb 18d2 d7bc 744a 87bd e33c a23d
000001e0: bc63 73bd 1020 fd3c 0cc3 d13d 3d72 833d
000001f0: 17ec a63d 9b55 813d 33b0 81bd 5c96 053d
00000200: e8b5 f6bc e816 d13c a0dd e0bc 00aa 623c
00000210: 611d b03c 30df 9f3d 7a23 56bc 60d5 08bd
00000220: f5fb 5cbd ea28 f4bc 5036 42bd b264 d23d
00000230: d29d 85bd 54b1 7b3d 8421 0bbe 6094 ed3b
00000240: 465b 80bd a936 f9bd d84c 1e3d b608 adbd
00000250: 90bf acbc 552a a5bd 2685 8d3d c4c9 38bd
00000260: 1a1b b2bd 226f bdbd a420 c6bd 603a f63b
00000270: 0051 5b3c 58b8 adbd c8ae 51bd 6855 4a3d
00000280: 3097 013d d649 92bd f89c 76bd b3ff b3ba
00000290: 3ed7 ff3d 0c70 a23d 286a fdbc 3054 cd3d
000002a0: ac70 f9bd 3cc5 d03d f045 c83c 2d48 cdbc
000002b0: f0ac 44bd 4a72 8abd 4cb0 f33d 04da 413d
000002c0: a014 5dbc a2b4 8b3d fc82 e2bd b642 fd3d
000002d0: 9cc4 413d d6e9 f23d 909a 7ebd 9840 fbbc
000002e0: fcd4 163d b812 bb3c 9215 debd ea6f b33d
000002f0: 00df 063d 2025 953b c86d 9b3c bcb5 6b3d
00000300: fcd4 4c3d f63b a83d 68a6 d33c 6ef6 d7bd
00000310: 6413 003e 437d b63c d207 ba3d 0027 0fba
00000320: 0c3c 863b fbce 4fbd fdf6 d63d 27c5 e2bd
00000330: 94cf 873d 046a babd 5132 c53d 5c04 eebc
00000340: 2d25 f0bd 1be4 413d 224e bebd ec24 ffbd
00000350: 406a 7cbd 92c7 0fbb 2698 983d 3275 a5bc
00000360: bdb6 ddbd 0ceb 633c bc6f b73d 3c38 bc3d
00000370: 6cc7 eabd f4d2 c1bd 04f3 5e3d bd10 99bd
00000380: 684a d5bd 1507 c3bc 517e 82bc 78d1 e23d
00000390: 2b14 f03b 0279 6c3d 8c09 0abd 0489 ea3d
000003a0: 3ea1 ed3d 8c28 0e3d 14a4 cabd 7dc7 f83b
000003b0: 4cf3 263d ae54 e03d f5ae 7bbd 340d b93d
000003c0: fcdd 07bd a8bc 1d3d 8639 f1bd 8806 e2bd
000003d0: 24ea 2cbd 70bc 59bc 6f00 f83d cd57 ca3d
000003e0: dc1c 95bd 0ab2 3b3d b001 de3d d8db 933c
000003f0: 4575 543d 5279 343d 811d 49bd d01a 60bd
0.05791299 0.009916335 0.016818061 -0.10744578 -0.07930037 -0.060611255 0.023285044 -0.050363556
-0.009258041 0.034924377 0.04039347 0.044909924 0.06337553 -0.1471286 -0.023143252 0.06855179
0.064595066 -0.02238499 -0.04105671 0.0013470358 -0.12208505 -0.036592584 -0.030430008 -0.0850365
0.013058788 0.1284783 0.09990659 -0.12257024 -0.042611107 0.034909863 0.053815953 -0.07797848
-0.10165191 -0.040803406 -0.11020422 0.045878008 -0.10192911 0.12229433 0.10244554 -0.11015542
0.11999254 0.07343903 0.052404255 -0.07142073 0.026086077 0.04450169 0.040640876 0.01627998
0.029780075 -0.021505427 -0.0922941 -0.09499216 0.089018404 -0.0017952621 0.006197546 -0.066794895
0.03271167 -0.077191606 0.0739321 -0.08057876 -0.08937953 0.12014322 0.036216006 -0.06303467
-0.093980685 0.09280747 -0.06617748 -0.080927 -0.015772082 0.03300412 0.120499745 -0.07840487
-0.009089361 -0.11335843 -0.05219479 0.11251971 0.11521512 0.01734056 -0.042472504 0.07226619
0.12148132 0.04955667 0.02027145 0.13879314 0.011239544 0.030220194 0.0021808536 -0.050706282
0.05612218 0.10251795 -0.119968474 0.08964507 -0.04561785 0.02027461 -0.092385575 0.022335289
0.0839643 0.049297024 0.015287808 -0.12655084 -0.04471618 0.047459293 0.11762476 0.00962426
-0.019027362 0.021110132 -0.054060742 0.011277443 0.032554526 -0.07891179 -0.039941076 -0.017417476
-0.0074075013 -0.014890905 -0.2942905 -0.09237471 -0.0060178936 -0.026345298 -0.06605998 0.079217695
-0.059421286 0.030899078 0.1024228 0.064182736 0.08150499 0.06315156 -0.063324355 0.032614097
-0.030116037 0.025523618 -0.027449429 0.0138344765 0.021498384 0.078062415 -0.013069982 -0.033406615
-0.053951222 -0.029804666 -0.047415078 0.10273112 -0.065242425 0.06144841 -0.13587004 0.0072503537
-0.06267409 -0.12168629 0.038647503 -0.08448927 -0.021087438 -0.08064715 0.06910162 -0.045114294
-0.086965755 -0.092497125 -0.096741945 0.007514283 0.013386011 -0.084824264 -0.051192075 0.049397856
0.031638324 -0.07142989 -0.06020829 -0.001373282 0.12492226 0.079315275 -0.030934408 0.10025823
-0.121796936 0.101938695 0.024447411 -0.02505883 -0.04801649 -0.0676008 0.1189886 0.047327057
-0.013493687 0.06821562 -0.110601395 0.1236624 0.047306642 0.11861007 -0.06215912 -0.03067045
0.03682421 0.022836074 -0.10843958 0.0876158 0.032927513 0.004551545 0.018973246 0.057546362
0.050007805 0.08214562 0.025836185 -0.105450496 0.12507397 0.022276526 0.09083523 -0.00054608285
0.0040965136 -0.0507345 0.10496328 -0.1107276 0.06631389 -0.09102252 0.09628738 -0.029054813
-0.11725841 0.04733668 -0.092922464 -0.12458214 -0.061624765 -0.0021939022 0.07450895 -0.020197485
-0.1082587 0.01391102 0.089568585 0.09190413 -0.11463818 -0.09464064 0.054430977 -0.07473896
-0.104145825 -0.023807088 -0.015929373 0.11075109 0.007326623 0.05773259 -0.03370051 0.11451915
0.1160302 0.034706637 -0.09894577 0.00759214 0.04075937 0.10953651 -0.06144615 0.090357214
-0.033170685 0.038509995 -0.1177855 -0.11036402 -0.04221548 -0.013289556 0.12109458 0.09880028
-0.07280895 0.04582409 0.108401656 0.018049166 0.05186965 0.044061013 -0.049100403 -0.05471307

conv1.nn.2.bias f4 [64]
00000000: a815 8fbd 409f e53e 5f7d c3bd 1214 c13d
00000010: 9672 9d3d 7d0b aebd 3546 57b9 a18a a5bc
00000020: 513b 30bd fc06 e6bd 54a5 3dbd cc91 223c
00000030: 2c99 c63c 5138 bebc a13e c83d d900 03bd
00000040: c9c0 7c3d 58f6 2b3d 5d38 c13c e542 3bbc
00000050: c87e febd 94aa 42bd dc34 01be 958b 5f3d
00000060: 4e01 52bd 4fcf 3dbe 64f6 873d f6f8 923d
00000070: bfec e9bd 691f 70bd 2602 d6bd acd0 5e3d
00000080: ea9c bdbe 7f39 133b f5e6 873a fc92 eebd
00000090: c27d 0dbe e97a eabd bee9 af3d 6fea 293d
000000a0: fd95 debd b11a 9a3c 73f0 c9bd de11 0ebd
000000b0: 5a83 89bd 1d77 37bd cf9b f8bd 04b7 523d
000000c0: 5db0 323d 6931 9abd d1b9 0c3c af77 84bd
000000d0: 24ef debd 402e 283c f429 53be bc30 4ebd
000000e0: 73ad 45be a7e6 e93d 07d2 22be 43dd 41be
000000f0: 8429 cabc 658f b2bd 6f15 aabc 28a1 fabd
-0.069865525 0.4484806 -0.09545397 0.09427656 0.07687871 -0.08498285 -0.00020530152 -0.020207705
-0.04302532 -0.11231801 -0.046300247 0.009922456 0.02424296 -0.023220213 0.097775705 -0.03198323
0.06170729 0.04198298 0.023586446 -0.011429523 -0.12426525 -0.047525957 -0.1261782 0.054576475
-0.051270775 -0.18536113 0.06638792 0.07176392 -0.11422109 -0.058623705 -0.104496285 0.054398224
-0.37033778 0.002246469 0.0010368513 -0.11649129 -0.13817504 -0.114492245 0.08589505 0.04148334
-0.10868452 0.018811556 -0.09860315 -0.03468501 -0.067145064 -0.04479133 -0.12139093 0.05144407
0.043625224 -0.075289555 0.008589224 -0.0646814 -0.10885456 0.010264933 -0.20621473 -0.050339445
-0.19304447 0.114209466 -0.15900432 -0.18932061 -0.024678 -0.087187566 -0.020762173 -0.12237769

conv1.lin.weight f4 [64, 7]
00000000: 4415 0abf 0ab4 40be 92ad 353d 8e5f a43b
00000010: 2c7e bd3e df97 6ebe 57c6 8e3e 661f f2be
00000020: f152 83be ab20 5dbe d63b f9bc 15d0 2cbe
00000030: 75eb 943e 74d3 3b3e 4fb6 babe 4d0f 493e
00000040: 38f0 cdbc 0502 95bc 850b 973d b9b5 a63e
00000050: 8e7b 063e 6c41 d43d 2b34 95bd b054 453e
00000060: 0a94 0abe ecd6 a4be 3828 44be cfb5 8dbe
00000070: 1ac9 b43e 1939 923e 4215 c63e d829 bdbe
00000080: 659a 0f3e 2e62 4a3d 2847 0ebf 7506 823d
00000090: 4aa3 a03d 8e45 b8bd 8743 cdbd 9ea8 8fbe
000000a0: 3b10 70be d18d b9bc ea24 b1be 002c 243f
000000b0: 2d88 bbbe 72da 0b3e feb4 0c3e e75c 8d3d
000000c0: 994e d43e cf51 b8be 9d41 53bf 6e72 09bf
000000d0: 6c3e 51bd 6901 fa3d 57cb c2be 3786 b43d
000000e0: ca28 633f 5a9a 333f a2fc 3d3f 2f86 443e
000000f0: 6b08 3bbe a9a4 0d3d f54f 83be 0afd 06bc
00000100: bdc1 77bd b647 05bf 9e8c 98be 417a adbd
00000110: 26f1 5cbe 365c 89be 8548 e73e 58c4 273f
00000120: 544a c23e d788 f2bd af2d 673e 02c3 80be
00000130: db60 c1bd fb24 1bbe c495 a9be 84f3 c0bd
00000140: 4a33 96be 6b9f cd3d 3249 ce3c f1f7 27be
00000150: 7477 34be bfc6 adbf c653 3abe b9b8 debe
00000160: c52f 873e 8687 05bf 08e1 bcbe 6606 983e
00000170: 18b3 0b3e 5e81 0c3e 639f 933e dcb5 c1bd
00000180: 9f40 3dbc 4b9d 5e3c d2cf d63d ddd0 d73c
00000190: 3ef8 e23d e14e 643e 4dde 2abe a81a 3fbe
000001a0: f989 78bc 08be 39bf 8380 d4be f99b b2bd
000001b0: ba94 3f3e c639 c73c b7e7 48bd 3283 dd3e
000001c0: 69c6 07bd 0efe 083f 622b 373e 8fa0 b2be
000001d0: 4c5b cabe 4b30 92be cc4c f1bd fba8 25be
000001e0: f3a2 ecbd 3a20 29bf 9f26 adbc 1c88 1fbe
000001f0: 9c19 0b3e 59cd 80bd 904b f5be 19b5 34bf
00000200: 0f12 0fbf 8ff9 8c3d e2a4 033c 3628 d3be
00000210: e9dd a7be a887 a5be 41c9 553a 614b 183e
00000220: a97f 613e ad87 0fbe 8618 63be ea48 ac3e
00000230: 8a4f f5be d8ca bebd 55e1 afbe d10e 11be
00000240: f395 48be 9bff 78be 11e6 0e3e 2047 d23d
00000250: b8e1 81be 7a51 f93e 9c9e 81be 53d6 193b
00000260: e9f1 e53e e134 e4bd 83cd a43e 0b50 30bd
00000270: 35a2 76ba c629 933e 6df5 b73e 8106 0ebe
00000280: 085a aebe bcde 513f 493b 0d3f 74be cf3d
00000290: 3e0a 383e 67ff e23d 5305 19bf 204f 30be
000002a0: f20c 573d 3238 3e3e 924b f2bd 7b60 353d
000002b0: d7ac 6a3d 089f 443e 95e8 0a3e ae7a e73e
000002c0: efdb 0c3f a6bc a53e bb0f 99bc 2862 ca3c
000002d0: fb7c cabd 7ea1 fe3e 9261 983d e826 4cbe
000002e0: f96a 9d3d aeaf 0bbe bfbc 68be 540e 533e
000002f0: ca5c 563e 3ba3 8d3e 2794 de3e b639 623e
00000300: dc14 dcbe 7ab7 2ebf 76c4 9c3d 23db 673e
00000310: 4bad 88be 088c e1bd 9a0a 03bf 2158 f4be
00000320: 915c 05be 9a51 5ebe eaca 1fbe 8455 0abf
00000330: b6aa a53d 49ce e5be 84cd ce3c 3d81 10bf
00000340: c5f8 12bd 35e5 f83d 9bae 933d 3ba2 14bc
00000350: 706d 003d fdad b6bc f4d9 cebd fc29 97be
00000360: 31d7 713e f89b 363e b38d aebc 8d64 c03d
00000370: fe59 623e 8577 b53c de59 843d 6d78 05be
00000380: b950 a4be eae2 35bf 0683 43bf abf8 943e
00000390: e852 5e3d a1b3 e23d 96af dabd f22c 8ebe
000003a0: d7c7 6ebe 0a28 b83e 2e54 b63d f90a ac3e
000003b0: a315 32be f9e3 54bd aeba 8dbe 6a33 9cbd
000003c0: c243 1e3e 9e18 9dbe 1dc0 d83c 2bae a63e
000003d0: c3bd 59be 750a 51bf 0d21 2d3e 9b17 13be
000003e0: 9555 eebd bf6d b8be d303 7fbd 5328 993e
000003f0: 88d4 4f3e e5ad 993e 8306 f63e 23c9 cabe
-0.539387 -0.1881868 0.044354983 0.005016274 0.37010324 -0.23300122 0.27885696 -0.4728958
-0.25649217 -0.21594493 -0.03042404 -0.16876252 0.2908589 0.18342382 -0.36467215 0.19634743
-0.02513896 -0.01818944 0.07375244 0.32560518 0.1313307 0.10364041 -0.07285341 0.19270587
-0.13533035 -0.32195222 -0.19155967 -0.2767777 0.35309678 0.28559187 0.38688093 -0.36945987
0.1402374 0.049410038 -0.55577326 0.06348888 0.07843645 -0.089976415 -0.100226454 -0.28058332
-0.23443691 -0.022650631 -0.34598476 0.6412964 -0.3662733 0.13657549 0.13740918 0.06902485
0.41466215 -0.35999915 -0.8252199 -0.5369023 -0.05108492 0.122073 -0.3804576 0.08814662
0.88734114 0.70157397 0.7421361 0.19191812 -0.1826493 0.03458086 -0.2564694 -0.00823904
-0.060487498 -0.5206255 -0.29794782 -0.08470584 -0.21576366 -0.26828164 0.45172516 0.6553397
0.37947333 -0.118425064 0.2257602 -0.2514878 -0.09442302 -0.15150826 -0.33122075 -0.09421447
-0.29336005 0.10040172 0.025181387 -0.16403176 -0.17623693 -1.3576277 -0.1819602 -0.43500307
0.26403633 -0.5215992 -0.36890435 0.29692382 0.13642538 0.13721225 0.2883254 -0.09458515
-0.011551051 0.013587306 0.10488857 0.026344711 0.11082505 0.22295715 -0.16686364 -0.18662512
-0.015169614 -0.7255559 -0.41504297 -0.08721156 0.18709078 0.02431954 -0.049049105 0.43264157
-0.033148203 0.53512657 0.17887643 -0.3488812 -0.3952278 -0.2855247 -0.11782226 -0.16177742
-0.115545176 -0.660648 -0.02113658 -0.15579265 0.13583988 -0.06289167 -0.47909212 -0.70588833
-0.5588693 0.06883537 0.008034917 -0.41241616 -0.32786492 -0.3233006 0.00081552943 0.14872505
0.22021355 -0.140166 -0.22177324 0.3364938 -0.47912246 -0.09316033 -0.34351602 -0.14165808
-0.19588451 -0.24316256 0.13954951 0.10267472 -0.25367522 0.48694974 -0.25316322 0.0023473694
0.44911125 -0.11142898 0.32188043 -0.043045085 -0.0009408326 0.28742808 0.35929433 -0.13869669
-0.34053063 0.8198049 0.55168587 0.10143748 0.17972657 0.110838704 -0.5977375 -0.17217684
0.05250258 0.18576124 -0.1183082 0.044281464 0.05729374 0.1920129 0.13565286 0.45210785
0.5502309 0.3237049 -0.018684259 0.024705008 -0.098871194 0.49732584 0.07440485 -0.19936717
0.07686419 -0.13641235 -0.22728251 0.20610934 0.20933834 0.27663597 0.43472406 0.22092327
-0.42984664 -0.68248713 0.076546595 0.22642188 -0.26694712 -0.11013037 -0.5118805 -0.47723487
-0.13023593 -0.21710816 -0.1560475 -0.54036736 0.08089201 -0.44883946 0.025244482 -0.564472
-0.035881776 0.12153093 0.07211038 -0.009071882 0.031354368 -0.022299761 -0.10100165 -0.2952422
0.23617245 0.17832935 -0.021307802 0.093941785 0.22104642 0.022151718 0.06462453 -0.1303422
-0.32092836 -0.7104937 -0.763718 0.2909597 0.054278284 0.11069418 -0.106780216 -0.27768666
-0.2331842 0.35968047 0.08902775 0.3360212 -0.17391066 -0.051975224 -0.27681488 -0.07626994
0.15455535 -0.30682844 0.026458794 0.32554755 -0.21263795 -0.8165658 0.16907139 -0.14364474
-0.11637417 -0.3602123 -0.062259506 0.29913577 0.20295918 0.30015483 0.48051843 -0.3960658

conv1.lin.bias f4 [64]
00000000: 9b41 91be 67ee a93e 9ccd 54be b35d b13e
00000010: b144 30be c5cc 863e b7e8 0f3e 567c 023d
00000020: 97d0 7e3e 6a11 9cbc 7d24 0ebd 913d b33e
00000030: bc36 b03c d5b0 763e fd2c 503c 021f f93c
00000040: 6648 523e 5c01 a7bb 8e8b c5bd 75db 5fbe
00000050: 1169 91be 756a 4b3e 79be 93be 53c1 f23e
00000060: 93b8 823e 3aae 753d e71f 38bd be39 a53d
00000070: 0f58 303e dc1c 1a3e 4f12 2a3e 502e 6dbe
00000080: ca50 64be 1701 923e 0b44 babe 680e 563e
00000090: 08a1 5cbe 500b b33d 8e50 5bbe 028a 31be
000000a0: 91b9 6a3e 80bd c1be 717c 26be fd06 9c3e
000000b0: 3c3a 6f3e 5449 46be c1d1 66bd d105 d2be
000000c0: c665 ddbe ca78 b9be 2145 b8be f8cb a2be
000000d0: 78d8 893e 15ab 16be b7fa 0dbe 1486 eebe
000000e0: 3888 96be 5d0f 953e f98b 2a3d 0e3c 56be
000000f0: 4dec ce3e 4b8f b2bd b989 a1bd 42ed 50bd
-0.28370366 0.331897 -0.20781559 0.346418 -0.17213704 0.26328102 0.14053617 0.031856857
0.24884258 -0.019051272 -0.034702767 0.3500791 0.021510474 0.24090894 0.012706039 0.030410293
0.2053543 -0.0050965976 -0.096457586 -0.2186106 -0.28400472 0.19864829 -0.28856257 0.4741312
0.25531444 0.05998061 -0.0449523 0.08067654 0.17221092 0.15050071 0.16608547 -0.23162198
-0.22296444 0.28516456 -0.36380038 0.20903933 -0.21545804 0.08742392 -0.21417448 -0.17337802
0.2292235 -0.3783989 -0.16258408 0.30474082 0.23362058 -0.1936391 -0.05635238 -0.41020063
-0.4324171 -0.36224967 -0.3599024 -0.3179624 0.26922965 -0.147137 -0.13865171 -0.46586668
-0.29400802 0.29113284 0.041637395 -0.20921347 0.40414658 -0.08718737 -0.07887597 -0.051007517

conv2.nn.0.weight f4 [64, 64]
00000000: 9214 0f3e 0a45 033e efe9 6a3b 9c5b bc3e
00000010: a140 62be d85b 98be c6df b73d a033 9ebe
00000020: 33fe 5fbf f16e 24be 1254 4a3d b983 cbbc
00000030: 6233 2cbd 3d8b 20bf 099f 3bbf 982b d13d
00000040: 29ac 93be 4f72 1dbe 0fcd b6be 6e4a dcbe
00000050: d794 f9ba 04aa 31be 4f83 30be d59e 8cbd
00000060: 7498 083d 39cf 583d 5628 b9bb df9f 04be
00000070: 8797 31be 5860 f7bd 3d8f cbbe 030d cbbd
00000080: 67b1 183d a3fc 383e 5743 45be 76e1 8dbb
00000090: 20c2 99bd 9c36 e83c fbf4 72bd 7c0a 62bb
000000a0: 5d2d 763c 94cc c93d 8728 6b3d f106 f6be
000000b0: 66b1 9ebe 2b3e e3be 8841 643e c206 7bbe
000000c0: 0451 cebe a434 04be 5531 313f 42a8 89bd
000000d0: f21d 34be 161e 45be 87cd 343c 9253 6e3e
000000e0: db06 ec3e 63a1 65bd cb27 f9bb 4040 a13c
000000f0: 48c0 46bc a370 bdbd e961 8ebd 1541 a43d
00000100: 05f9 ef3d c34f 16bc 4ede a3bd f9dc cc3d
00000110: 9939 a6bc 7cde 61be ff7f e7bd a26f de3d
00000120: aea6 50bc ebef 2b3d 8d5e 91bd f79c 05be
00000130: 51ab a53e 1c4b 0abf 53d2 a73e 3a66 95be
00000140: f5d1 c03d 7b9b 333e afcf 973a 7fc4 4ebf
00000150: 0eed 433e eb3d 83be 8ef2 37be b146 62be
00000160: 1338 df3d bd5b 1abd 7f8b 8fbe 4612 45bd
00000170: 74ce ba3c 15c3 f23d 0e19 12bd 6ab7 9e3c
00000180: 07d1 89bc 3348 1ebe e597 0dbd 97bb f1bd
00000190: 24f4 6bbd bc28 8e3d a30a 543c 2bdd 453c
000001a0: 17d5 d4bc 107b 6cbc 4e71 dfbd f9e5 31bd
000001b0: b94c f83c 97b5 243d ef50 15bd b267 013e
000001c0: e0ec 773f 4018 3dbd 5804 30be a4c2 093d
000001d0: 71d6 0b3d efcc 06be 440c 05be ce0e 2c3d
000001e0: 8e6d 90be dc04 403d 9684 db3d 09f5 03be
000001f0: f99b 93be e264 403d f3aa a6bd 3755 663c
00000200: 2d0a dfbe 4d2a 163e f025 b0be 1b53 2bbf
00000210: d1e5 f1bd 845a 193e 8f12 0ebe 5f06 8dbe
00000220: c3bd 753e 5737 9bbe 2f1c d13d b87c 37be
00000230: 17f6 90bd 6582 4f3e 9680 18bf 8ccf 323e
00000240: d454 3d3d 4214 cebe 36e9 f4bd e3cf c23c
00000250: 399d 14bf 626e 233e 096c 57be b9e1 8e3d
00000260: 624e 03bf 0e51 48be 1a42 113e 8c33 b8bc
00000270: 8349 00be f9c7 20bf 88eb d13d aa58 30be
00000280: a94f 33bd 4c83 c4bd 4ea5 a3bd 887b acbd
00000290: 5d0d 5a3c 03bf d33e 7939 27be 8324 633d
000002a0: 6d06 c83d f357 0b3e cd99 96bd 227e 64bc
000002b0: 5996 02bf f2f0 da3c cfa7 4fbf c242 b2be
000002c0: 55bf 6cbe 0c72 89be 1a9d fe3d 0caa 73be
000002d0: e7d2 f2bd b065 5dbe bc1d 56bd 1917 85be
000002e0: 24ea b5bd 801d 8dbd 26f4 0c3e fa6b 8c3c
000002f0: 4356 083f 15c8 703d a6d7 92bd e844 eebe
00000300: 9586 75be 6a15 2e3e 1b66 babd 905a 25bf
00000310: c5e0 c03d 9fc5 d7bd c9a7 80be 3754 01bf
00000320: 3bd1 89be 97fb c1bc 2a63 bdbd 8937 e6bd
00000330: 00b5 79be 8e76 47bf 66ba 52bf fe70 aebb
00000340: 46ad 5dbe 32a3 b5be 5b10 4d3f e225 0d3f
00000350: 7b2e 8bbf e96b 1abd 072d cbbc 2def fbbe
00000360: 0fa2 74be c5d5 1d3e abb8 01bd acb1 eb3d
00000370: dc7d 3dbe b74e 65be 50b7 a7be 0aa5 a5bd
00000380: e5a5 1dbe 9e14 8abe 3e0f a7bd f781 413c
00000390: e6be 1e3d 880c cc3e e16a b5be d894 1e3d
000003a0: 04bf 743d 066c dfbc 69a1 253d 99fc 193e
000003b0: 53bb 903d 84b9 bcbd 93f5 6dbe faa1 cb3d
000003c0: 1828 b4be 22a8 abbe a6c6 72be 9a38 8cbe
000003d0: 4ce9 cc3d 4d08 363d 4c1e 1cbf e293 72bd
000003e0: 0f2a 32be 4981 6b3d 47bc 143d 73ad 4abd
000003f0: 02be 0dbf d923 65bd aee3 b73d 3412 65be
0.1397269 0.12819305 0.0035845002 0.36788642 -0.22094966 -0.2975757 0.08978228 -0.30898762
-0.8749725 -0.16057946 0.049396582 -0.024843084 -0.04204119 -0.6271246 -0.73289543 0.10213393
-0.28842285 -0.15375637 -0.35703322 -0.43025535 -0.001904155 -0.17350012 -0.1723759 -0.06866232
0.033348516 0.052931998 -0.0056505604 -0.12951611 -0.1734296 -0.12078923 -0.3975772 -0.09914591
0.03727856 0.18065123 -0.1926397 -0.0043298556 -0.075077295 0.028346352 -0.059315663 -0.0034491112
0.015025464 0.09853473 0.057411697 -0.4805217 -0.3099472 -0.44383368 0.22290623 -0.24514297
-0.40296185 -0.12910706 0.692159 -0.06721546 -0.17589548 -0.19249758 0.01103533 0.23274067
0.4609898 -0.056062113 -0.0076036206 0.019683957 -0.012130804 -0.092499994 -0.06952269 0.08020226
0.117174186 -0.00917429 -0.08001386 0.10003085 -0.020291137 -0.22057527 -0.1130371 0.10861136
-0.012735052 0.04197685 -0.07098112 -0.13048159 0.32357267 -0.5402086 0.32777652 -0.29179555
0.09415046 0.1753978 0.001158228 -0.8076858 0.19133398 -0.25633177 -0.17963621 -0.22097279
0.10899367 -0.037685145 -0.28036115 -0.04811313 0.022803523 0.11853615 -0.035668425 0.019374568
-0.016823305 -0.1545723 -0.034568686 -0.11803358 -0.057605878 0.06941363 0.012941989 0.012076656
-0.025980515 -0.014433637 -0.10910283 -0.04343221 0.030310022 0.04021224 -0.036454137 0.12637213
0.9684582 -0.046165705 -0.17189157 0.03363289 0.034140054 -0.13164113 -0.1299296 0.042006306
-0.28208584 0.046879634 0.10718648 -0.12886442 -0.28829935 0.04697121 -0.08138075 0.014058403
-0.4356245 0.14664574 -0.34403944 -0.66923684 -0.11811412 0.14975935 -0.13874267 -0.27543923
0.2399817 -0.30315658 0.10210454 -0.1791867 -0.07078188 0.20264585 -0.59571207 0.17461985
0.046223477 -0.4024983 -0.11958544 0.023780769 -0.580524 0.15960076 -0.21037306 0.06976647
-0.5129148 -0.1956217 0.14185372 -0.022485517 -0.12528042 -0.62805134 0.10250002 -0.17221323
-0.04377714 -0.095953554 -0.07990514 -0.08421999 0.01330885 0.41356668 -0.16330518 0.055454742
0.097668506 0.13607769 -0.07353554 -0.013946088 -0.5101066 0.02672622 -0.8111543 -0.34816557
-0.23119862 -0.26844823 0.124323085 -0.23795336 -0.11856633 -0.21620822 -0.05227445 -0.25994185
-0.088825494 -0.06890392 0.1376501 0.017141331 0.53256625 0.058784563 -0.07170038 -0.46536946
-0.2397712 0.17000356 -0.09101506 -0.6459131 0.094178714 -0.1053574 -0.2512801 -0.50519127
-0.26917443 -0.023679538 -0.0924743 -0.11241061 -0.24385452 -0.77915275 -0.8231567 -0.0053235283
-0.2164813 -0.3547607 0.8010308 0.5513593 -1.087356 -0.037700567 -0.024801744 -0.49205914
-0.23889945 0.15413578 -0.031670254 0.115084976 -0.18505043 -0.22393309 -0.32757044 -0.08088119
-0.15395315 -0.26968855 -0.08157204 0.011810771 0.038756274 0.3985331 -0.35433105 0.038716167
0.05975248 -0.02727319 0.040437136 0.15037765 0.07066979 -0.09215072 -0.2323821 0.09943004
-0.3518684 -0.33526713 -0.23708591 -0.27386934 0.10005435 0.04444151 -0.6098373 -0.059223063
-0.17398857 0.057496343 0.036312368 -0.04948182 -0.55368054 -0.05594239 0.08978973 -0.22370225

conv2.nn.0.bias f4 [64]
00000000: cecc d13d 592a 5f3d 326e d5be c85c 6ebd
00000010: 4dce 203d aeb4 fb3d b87b 173f 5df6 90bd
00000020: 6393 cebe ccc6 c83a 0a32 12be bf90 81bc
00000030: a30f 6dbd f64c 74bf 0fc2 ebbd 8cdc c1bd
00000040: 5cbd 35be d8f9 0abe dad5 9ebe 4d07 e73c
00000050: beae 1bbe ac3e 14be 95b5 d73e d010 98be
00000060: eb15 76be b324 1f3e cff4 1fbd 5c34 cdbd
00000070: b71b 293d 9f9f 2c3e 41bf 983e 3ce8 b2bd
00000080: d1de cfbe 3fa8 4d3e d552 7cbe ab5e 5d3d
00000090: f7ff 263f 02b5 243d 1865 cdbd 4a41 e43e
000000a0: 44c4 593e c3a3 e03e 27a6 5fbe 2069 853c
000000b0: 198d b13e 59ba 46bd 015f 88be c385 9b3d
000000c0: dcaa ab3e fe88 363d 0d01 2abe b344 e3be
000000d0: 16b3 cd3e 76e7 edbd 8419 eabd bd77 18be
000000e0: b140 a23c bbf4 a63d 76d6 b3bd 084e 0c3f
000000f0: 1be7 9abe 38db 853e 62ba 32bd 6aa3 933e
0.102441415 0.054483745 -0.41685635 -0.05819395 0.039259244 0.12290321 0.59173155 -0.0707824
-0.40346822 0.0015318035 -0.14276901 -0.01581609 -0.05787624 -0.95429933 -0.11511623 -0.09465894
-0.17748016 -0.1357187 -0.3102253 0.028201723 -0.15203378 -0.14477032 0.42130724 -0.29700327
-0.24031799 0.15541343 -0.039051827 -0.100197524 0.041286197 0.16857766 0.29833415 -0.087357014
-0.40599683 0.20083712 -0.24640973 0.05404536 0.6523432 0.040211685 -0.10029048 0.44581062
0.21266276 0.4387494 -0.21840726 0.01628548 0.3467796 -0.04851756 -0.26634982 0.075938724
0.33528793 0.04456424 -0.16601963 -0.4438835 0.40175694 -0.11616413 -0.11430648 -0.14889427
0.019806238 0.081521474 -0.087811396 0.54806566 -0.30254444 0.26143813 -0.04363478 0.28835613

conv2.nn.2.weight f4 [64, 64]
00000000: 9837 193d 9c8b 30be 4637 45bd a068 1a3f
00000010: a5b6 de3d 4d87 6fbe 6c5a dc3e 541e db3d
00000020: 8ed0 20be b3e4 d0bd 2adb cd3d 2ce9 07be
00000030: f4c3 2cbe f471 9bbd 2586 1bbd 99af 383c
00000040: c96f 1a3d 7789 f9be 45af f7bd 7439 b73d
00000050: d465 363c 7db9 14bd c33b 203d 3fdf c63c
00000060: 6648 913d 63ae f5bd bdc6 9f3e 27cb a9bb
00000070: 3f1e 12be c977 293e 6b8e 15be 3598 713d
00000080: 5399 d23d feae 5f3d ce79 22bc 1bbc 06be
00000090: 3580 42be 584f 9bbc 6918 46be e925 05be
000000a0: 774a 303d 940f 023e b17f a13d f890 3bbe
000000b0: 56bb 403e ec9e 97bd 08ab 443e 824e c7be
000000c0: 8e5b 01be 6e26 52be 65a6 d3bd 564a 873d
000000d0: e856 183c 49ae 863c b797 eabc 5c1c b0bd
000000e0: e5b8 833d 9e24 87bd 3ad2 fc3d dda3 803e
000000f0: 44f5 99bc 4768 4d3d 4a02 123c 57c8 413e
00000100: c185 18be ee6a 2cbd c072 e2bd fa9a fb3e
00000110: ab1c 323d 9dae 6abe 1d3a b43e fd83 a0bd
00000120: f7ab 09bb f791 a23c 45ba cb3d 310c a8bd
00000130: b44c 2abe 8736 1fbd f781 bbbc 302d 0fbc
00000140: 597f 4dbd d7ad b3be e1ec a43c 6e73 de3c
00000150: 48c7 afbd 927e 2ebd c237 373c 5479 57be
00000160: 92f7 f23c 63d9 993d 7dd9 593e 7ade 843d
00000170: 40d8 9b3c ae48 f23d 2c06 17be 56d7 0a3c
00000180: ee76 8bbd f441 b13d 39bd 2bbe f94e 21be
00000190: c926 c03c c460 663c 8105 4dbe b283 87bd
000001a0: 2631 953d 50a9 f43d 374e e43d 54f9 1fbe
000001b0: 6ec8 473d 68f7 273d 8892 6e3e 6538 41bf
000001c0: 3a13 693d afa0 3b3d b6ec ae3d ec6d 253d
000001d0: f28c 25bd f4e2 953d 42a3 36bd 47ef edbd
000001e0: 1672 63bc e5ff d4bd 302b 01bd 68ff 4b3e
000001f0: a5ee 9cbd a92e 81bd 27af 0d3d b8af 80bc
00000200: 884e 2fbe 150d 0dbe b6e0 1c3c 9746 97be
00000210: 991f 3d3d 851b 3ebe 788b bdbd b1d2 8e3c
00000220: b106 48be 20f8 4cbb 7267 4e3c 54df 503d
00000230: dd40 af3d 249d 1b3d bdd6 6d3d c47c d53d
00000240: 1057 943b 137d be3e 2777 88bd 2e0f b23d
00000250: f378 353d 414a ce3c b700 9b3c 98ae f43d
00000260: 476e 6fbc 8c24 17be 4854 923c 319a 10bd
00000270: ef1c c9bd d5c2 89be cc63 173d f507 2ebd
00000280: 046f 573d 08b9 2ebd 1867 85bc 8832 983d
00000290: 10af 9b3d 3691 c73d 5235 8c3d 36d0 cbbd
000002a0: 930d 4a3d 264a 2abe f31e a03d 26d2 813e
000002b0: fd61 c5bd 7ba9 d3bd b4b0 54be 1ae8 113f
000002c0: c60e 023e 5fb9 20be e301 143d cae2 983d
000002d0: d6f1 c13d 5aa4 ed3d 717f abbd e2b2 6dbc
000002e0: c88d 12bd adc7 07bb 7699 d83d 76cd 2c3e
000002f0: a556 85bd e1cf 90bd 85f2 f5bd afa7 f63d
00000300: 2e69 c03b 7fd3 88ba b0d3 a9be 5ed7 013f
00000310: deab 1ebd 5ce1 0abe 741c 3b3e 9d2e cd3c
00000320: a4e3 68bc 5e4d 73bd 17c8 ebbd af81 2fbe
00000330: 3965 dabd d51f e2bd df57 ad3c 0cf6 f7bd
00000340: 74b8 2a3d 301c 0dbe 4bfd aabd 01d3 60bd
00000350: 8ca3 afbc 7408 0fbe ffa5 823d ba99 af3e
00000360: d4d4 7ebd 165e bc3d ccad 143e 578c d83d
00000370: a396 c0bd a445 e03d 4ef1 0e3e 3507 973d
00000380: c973 083e 5564 933d e124 773d 4998 1abd
00000390: 2485 fd3d afd1 9a3d ce65 883d 960b 29bd
000003a0: 8a90 bb3d 094a a0bb 3b1c d13d cc1f a2be
000003b0: 703f 10be 87ad 7e3d 6d1c 453e 9ba1 be3e
000003c0: 0631 18bd ec21 4bbd c114 d93d 9fd5 22bc
000003d0: b24d b9bc abad e93c 6b08 c7bd 58a8 3a3b
000003e0: c3c6 a63d cb29 a63d cf78 f8bd 254c 6dbd
000003f0: e523 3abc d846 b6bd b24c 223d 3acd 333e
0.037406534 -0.17240757 -0.048148416 0.60315895 0.108746804 -0.23391457 0.43037736 0.10699144
-0.15704557 -0.10199871 0.10051568 -0.13272542 -0.16871625 -0.07590094 -0.037969727 0.0112723345
0.037704263 -0.4873769 -0.12093977 0.08946505 0.011132676 -0.036309708 0.039119493 0.024276374
0.07093887 -0.11996152 0.31206313 -0.0051816883 -0.1426935 0.165496 -0.1460511 0.058983047
0.102831505 0.054610245 -0.009916736 -0.13157694 -0.1899422 -0.018958732 -0.19345249 -0.13002743
0.043039765 0.12701255 0.07885683 -0.1831702 0.18821463 -0.07403359 0.19205868 -0.38927084
-0.12632582 -0.20522472 -0.103344716 0.06605975 0.009298064 0.016440528 -0.028636796 -0.08599159
0.0643175 -0.06598781 0.12344785 0.25125018 -0.01879371 0.050148275 0.008911679 0.1892408
-0.14894773 -0.042094164 -0.11057043 0.49141675 0.04348437 -0.22918172 0.35200587 -0.07837675
-0.002100704 0.019844992 0.099476375 -0.0820545 -0.16630822 -0.03887036 -0.02288912 -0.008738801
-0.050170276 -0.35093567 0.020132484 0.02715465 -0.08582932 -0.042601176 0.011182727 -0.21042377
0.029659066 0.07512166 0.21274371 0.064877465 0.019024014 0.11830269 -0.14748448 0.008474192
-0.068097934 0.08655158 -0.16771401 -0.15752782 0.023455994 0.014061157 -0.20021631 -0.06616916
0.07284765 0.11946356 0.11147731 -0.15622455 0.04877513 0.04100743 0.23298085 -0.75476676
0.0569031 0.045807537 0.08541243 0.040388033 -0.04041762 0.073186785 -0.04458929 -0.11617904
-0.013882181 -0.104003705 -0.031535327 0.19921649 -0.07662705 -0.06307728 0.034590866 -0.01570879
-0.17119801 -0.13774522 0.00957506 -0.29546043 0.046172712 -0.18565185 -0.09255117 0.01743445
-0.19533803 -0.0031275824 0.0125979055 0.050994232 0.085572936 0.037991658 0.05806612 0.10424188
0.00452698 0.372048 -0.066633515 0.086943015 0.0443048 0.025181891 0.01892124 0.119473636
-0.0146136945 -0.14760035 0.017862454 -0.0353033 -0.09819972 -0.26906458 0.036960408 -0.042488057
0.052596107 -0.04265693 -0.01628451 0.07431513 0.0760175 0.09744494 0.068461075 -0.099518225
0.04932935 -0.16629848 0.07818403 0.25355643 -0.096378304 -0.1033506 -0.20770532 0.56994784
0.12700948 -0.15695713 0.03613461 0.074651316 0.09469955 0.11603613 -0.08373917 -0.014507981
-0.035779744 -0.0020718381 0.10576145 0.16875252 -0.06510667 -0.070709 -0.120091476 0.12043702
0.0058719134 -0.0010439007 -0.33169317 0.5071925 -0.038738124 -0.1356253 0.18272573 0.025046641
-0.01421443 -0.059399955 -0.115127735 -0.17139314 -0.10663838 -0.11041228 0.021160064 -0.121074766
0.041679814 -0.13780284 -0.08349093 -0.05488873 -0.02144029 -0.13968068 0.063793175 0.34296972
-0.062214687 0.09197633 0.14519423 0.10573643 -0.09403732 0.10950783 0.13959238 0.073744215
0.13325419 0.07196871 0.060337905 -0.037742887 0.1237891 0.07559525 0.06660043 -0.041270815
0.09158428 -0.004891638 0.10210463 -0.31664884 -0.140867 0.062177207 0.19249125 0.3723267
-0.037156127 -0.049592897 0.105996616 -0.009938627 -0.022620056 0.028525194 -0.097184025 0.0028481688
0.081433795 0.0811344 -0.121324174 -0.057933945 -0.011361097 -0.08900231 0.039623924 0.17558756

conv2.nn.2.bias f4 [64]
00000000: f157 a3bd e906 9e3d 51cc 523d fe51 41be
00000010: 7fee 4d3d 61cc debe 86d1 4fbe fe18 a9be
00000020: a8f1 823d d8c9 ae3d bf42 8a3c 6670 683e
00000030: 2839 3fbe 9581 01be 8ba6 93bd 8b93 9abe
00000040: 6006 8bbc f337 a4be baf3 adbe 7caa f13d
00000050: 4186 153e 0dce 91bd 0c06 1e3e a0c0 6d3e
00000060: 6924 2cbe 7d85 59be 2d4d c63b 9bc2 19be
00000070: 3e0b 463e e320 02be 9771 a8be 7769 143d
00000080: 5899 f33c cd4e f0bc 2885 49be 1ca8 dabe
00000090: cbfe ccbd 9761 63be c57f a0bd 4456 5b3e
000000a0: 5823 babd 9d11 3a3e 4e60 e93c 91c6 04be
000000b0: cb40 3d3e 69d1 75be ba62 693c bc7d 41be
000000c0: c850 86be e822 c3bb f925 a7bb 50aa 41be
000000d0: 8e4b 02be 9570 803e 65a4 023f 8916 48be
000000e0: d190 bc3d f696 3ebe ed27 dbbe f6ad 81be
000000f0: 140c 08be 1d0b 9f3c 3ef3 a6bd e82d 03be
-0.07975758 0.07716162 0.051464383 -0.18878934 0.050276276 -0.43515304 -0.2029477 -0.3302688
0.063937485 0.085345924 0.01687753 0.22699127 -0.18674147 -0.12647088 -0.072095 -0.3019069
-0.016970813 -0.32073936 -0.3397501 0.118000954 0.14601995 -0.07119379 0.15431994 0.23218012
-0.16810764 -0.21242328 0.0060516805 -0.15015642 0.19340226 -0.12707858 -0.32899162 0.03623339
0.029736206 -0.02933445 -0.19679701 -0.42706382 -0.100095354 -0.22205196 -0.0783687 0.21419626
-0.090887725 0.18170781 0.028488304 -0.12966372 0.18481748 -0.24005665 0.01424473 -0.1889562
-0.26233506 -0.005955089 -0.0051009622 -0.18912625 -0.12724134 0.25085893 0.51032096 -0.19539846
0.09207309 -0.18612275 -0.42803898 -0.25328034 -0.13285857 0.019414479 -0.081518635 -0.1281048

conv2.lin.weight f4 [64, 7]
00000000: 1b07 5f3e 0a53 4e3f 729a 9fbe f460 96be
00000010: bef3 603f 9e4c d23d 519f 31be 1925 1a3c
00000020: 0206 d43e 1eeb 88be 4465 4dbe 363c bd3c
00000030: 2f5d 77be e51a 8ebd 5414 333e 6a5b a23e
00000040: 9086 05bf d52e 20be 509a ac3e b8a1 5e3d
00000050: b112 28be 865b ca3c c0e8 fbbf a5f1 b8be
00000060: 2f08 9b3d 4f83 ddbc ac27 283d cf3b e03e
00000070: 015c 0bbf aa57 b8bf 4b2a cd3d f1eb 703e
00000080: deb7 df3d 3f4c 963e 7bd1 4d3e 39c7 b83e
00000090: d248 e63c 751e c43e a262 9e3e 76f1 17be
000000a0: 55fb 78bd 41cc 8e3e 69bf 873d 089c 93be
000000b0: 57d9 ca3d 6710 223e c970 083d 8caf adbe
000000c0: 5906 1ebd e98d f33e 1467 523e 5f57 f7bd
000000d0: 3f1b 5c3e c345 71bf 1cad f53d 00b9 8bbd
000000e0: 9d5f 3abe 01d5 043f 20db 803e 1133 9a3e
000000f0: fff0 afbe 9b75 6a3d c23e 903a fded 36bf
00000100: 1eb7 213f 98a9 88be 5184 9b3e 217a f33e
00000110: e91a 283b bff7 1ebf f938 723c 50fa 9a3d
00000120: bbb3 8cbe 570c 2e3e 9e14 36be d1df 513e
00000130: c6d1 3ebe ab83 d5be 9bf7 92be 55e1 c6bd
00000140: e480 0cbf 483d 4c3e 041d b13d 3513 2c3d
00000150: cbf6 353f dde4 0dbf 747f bcbe 3b50 9f3d
00000160: 4f9d 89bf 6cf5 b63e 12ad 71be 184c fdbd
00000170: 55aa 123f 766d 933e bcbc 223f 4742 533d
00000180: bd3f 8c3e 3b9a 85bd 0998 44be 7d90 7d3f
00000190: 880b 5dbf ae1d e13e 8832 803d a20b 5abf
000001a0: 6884 2f3e 11d1 5bbf c6aa 403f 096f ddbe
000001b0: 99de 733e df6d 82bf 49f2 5c3e 0ab3 86bf
000001c0: a712 41bf 69fc f13e 8f68 19be f72a 26bf
000001d0: bcca 03bf 59ef 853e 1518 70bf 25c5 cf3e
000001e0: be76 0a3e 7e9d 4cbf 3195 713e b9a5 733c
000001f0: fb4b e3bc bdc8 ee3e 0c6c c03e 5ddc d0bd
00000200: 650f 3c3e c91f 79bd af61 1d3c f444 fabc
00000210: 02ac dc3e af9b 60bf b922 663f c621 d83e
00000220: 6227 98be 4424 763e efb4 6dbe 21d3 513e
00000230: 58e8 2eba fb46 af3c 39a1 983b 8e24 6dbb
00000240: e3b6 ab3b aea0 733a 7256 553f 050e 19bf
00000250: e8fb 19be 2303 333f f729 02bd 39bb be3c
00000260: 5046 a5bd afe0 5ebe b9f6 21be 8ea6 243e
00000270: f4f7 95be 5bdf b9be 9e07 49be ac50 313d
00000280: 55b2 c7bc 4c92 c93d 8b4f 9e3f 9198 363e
00000290: 264c 9c3e 4d18 b2be 0aff ae3c 29b4 ce3d
000002a0: 628b 42be a46a 04bf b967 13bf b5d5 6ebe
000002b0: 8cdf 72bf 8d68 b4be bf37 9f3e 4b39 6fbe
000002c0: 21cc 513f eebb f0bc 96a6 49be 005e b73e
000002d0: 078d d2be bd37 a73e 4588 5f3e 6d2b 4b3d
000002e0: 417d 133f 87d5 9b3e ba91 4dbe 532f 8bbd
000002f0: dd24 06bf 160f 82be 5865 373e a7b2 053c
00000300: d87c 5fbe a8b5 35bf fcdd 903e cc85 84bd
00000310: faa8 22bc 3cda ebbd 661c e2be fff6 afbd
00000320: a08c 83be be32 0ebe 7546 a73e 7ce6 213e
00000330: 2c60 e33e 9245 013d 43be 79be b87a 72bf
00000340: 4f09 1a3e 5787 bd3e 364f e1be 30f5 b73e
00000350: 67ec 903e 99bd 373c 307c 5c3d ebd0 59bf
00000360: 657e 7e3e bdb5 83be 436e 7bbe c775 df3e
00000370: 0e86 d9bd 4086 d23e 7819 433e 51af 23be
00000380: 157f debe b7ae 37bf 5978 da3d 88e9 253e
00000390: 9023 6d3e b41d c3bd 95f9 cbbe 1287 1b3f
000003a0: 6616 31bc b5b2 bd3e b1df 65be 03f5 a83d
000003b0: 355c 26bf 3e45 2fbe 5efb d1be 77a9 193e
000003c0: be08 babc 247c fcbd 6a52 bfbf 37fa ac3e
000003d0: bd6a 393e b859 55be e0f8 5dbf 7b2b 52be
000003e0: 1292 f6bd 52fd 17be 19ce 343e 1922 c5be
000003f0: 3c63 e0bc ab72 863d 6b5a edbd a7c9 5d3c
0.21780054 0.8059546 -0.3117252 -0.29370844 0.8787192 0.1026852 -0.1734593 0.009408259
0.41410834 -0.2674188 -0.20058161 0.0231 -0.2415664 -0.069387235 0.17488223 0.31710368
-0.5215845 -0.15642865 0.3371148 0.054353446 -0.1641338 0.024701845 -1.9680405 -0.3612186
0.0756992 -0.027040152 0.04105346 0.4379563 -0.5443726 -1.4401753 0.10017832 0.23527505
0.10923742 0.29355046 0.20099442 0.36089495 0.028110895 0.38304487 0.30934626 -0.14838204
-0.060786564 0.27890208 0.066283055 -0.2882998 0.099047355 0.1582657 0.033310685 -0.33922994
-0.038580272 0.47569206 0.20547134 -0.120772116 0.21494769 -0.9424707 0.119959086 -0.06822395
-0.18200536 0.5188752 0.2516718 0.30117086 -0.34363553 0.057241064 0.0011005031 -0.7145689
0.6317004 -0.2669189 0.30374387 0.47554114 0.0025650805 -0.6209678 0.014784091 0.075672746
-0.27480873 0.16996895 -0.17781302 0.20495535 -0.1863471 -0.41702017 -0.28704533 -0.097109474
-0.5488417 0.19945252 0.086481124 0.042010505 0.710797 -0.5542734 -0.3681599 0.077789746
-1.0751132 0.35734117 -0.23601177 -0.12368029 0.57291156 0.2879445 0.63569236 0.05157688
0.27392378 -0.06523558 -0.19198622 0.99048597 -0.8634572 0.43967956 0.06259638 -0.85174
0.17140353 -0.85865885 0.7526058 -0.43248776 0.23815383 -1.018978 0.215768 -1.0523388
-0.75419086 0.47262886 -0.14981292 -0.6490931 -0.51481223 0.2615917 -0.93786746 0.40580097
0.13521859 -0.79927814 0.23592068 0.014871054 -0.027746191 0.46637526 0.37582433 -0.10198281
0.18365248 -0.06082133 0.009605809 -0.030550458 0.43099982 -0.87737554 0.8989673 0.42213267
-0.29717547 0.24037272 -0.23213552 0.20490696 -0.0006672195 0.02139615 0.004657891 -0.0036185118
0.0052403077 0.00092936575 0.8333503 -0.5978702 -0.15037501 0.6992666 -0.031778302 0.023282634
-0.08070052 -0.21765397 -0.15816773 0.1607916 -0.29290736 -0.3630322 -0.19631812 0.043289825
-0.024377028 0.09842357 1.2368025 0.17831637 0.30526847 -0.34784165 0.021361846 0.100929566
-0.18998483 -0.5172522 -0.57580143 -0.2332371 -0.94872355 -0.35236016 0.31097218 -0.233617
0.819521 -0.029386487 -0.19692454 0.35813904 -0.4112322 0.32659712 0.21829326 0.04960196
0.57613 0.30436346 -0.20075122 -0.06796136 -0.524 -0.25402135 0.17909753 0.00816027
-0.21824968 -0.7098031 0.2829436 -0.06470832 -0.009927982 -0.11516234 -0.4416229 -0.08592033
-0.25693226 -0.13886544 0.32670942 0.15810579 0.4440931 0.031560488 -0.24388985 -0.94718504
0.15042613 0.3701732 -0.44005746 0.3592925 0.2830536 0.011214637 0.053829372 -0.8508441
0.24852903 -0.25724593 -0.2455378 0.43644544 -0.10621272 0.4111805 0.19052684 -0.15984847
-0.4345633 -0.7175097 0.10667486 0.16202366 0.23158097 -0.0952715 -0.39838853 0.60752976
-0.010808563 0.37050405 -0.22448613 0.08249857 -0.64984447 -0.17116258 -0.4101209 0.15006052
-0.022709247 -0.123283654 -1.4947026 0.3378465 0.18107124 -0.20835006 -0.8670788 -0.20524399
-0.120395795 -0.14842728 0.17656745 -0.38502577 -0.027391069 0.0656484 -0.115895115 0.013536847

conv2.lin.bias f4 [64]
00000000: 0fdb 0dbe efb9 b53d e25c b9ba 89a1 f8bd
00000010: b8e0 eebd 79f4 89be e75c 9bbd e212 97bd
00000020: a83d 69bd 14e8 aebb 2ef4 003e ff02 a43d
00000030: 6bbc 06be b06c ccbe 53df 60be 856d dd3b
00000040: d22e 9fbe f313 debc 6f44 d2be f923 a1be
00000050: 81ad f4be cb83 623d 26ec ef3d 48a4 4cbe
00000060: 204d 203c 69fc 4abe f2fb 9ebd c349 013b
00000070: 2877 03be 7f6c d1bd da9e 883d 8107 bfbd
00000080: bde5 e4be cd57 edbd e20e 3abc 4ad6 e13d
00000090: acb7 863e f419 d53c 3887 643e 3c5f 6bbd
000000a0: da35 913e c80e 9e3e 75e1 043e c6b0 33be
000000b0: 3cc6 babe 523f 0e3d 273a 08be 6630 62be
000000c0: bad9 88be 064a 6c3e 7f95 86be 8bcc 91bd
000000d0: d2e4 0d3e d204 1e3e 575c 74be 8f82 9bbd
000000e0: 5400 983e 5a69 c5bb 74b3 e2be 37b4 83bd
000000f0: d059 9dbe 6d94 9dbd 3631 2abe a97d bebd
-0.13853095 0.08873355 -0.0014142061 -0.121401854 -0.116639555 -0.2694433 -0.07586079 -0.073766485
-0.056943566 -0.0053377245 0.12593147 0.08008384 -0.13157813 -0.39926672 -0.21960191 0.0067574405
-0.3109041 -0.027109122 -0.41067836 -0.31472757 -0.47788623 0.05530147 0.117149636 -0.19984543
0.009784013 -0.1982285 -0.077628985 0.0019727803 -0.12838423 -0.10225772 0.066709235 -0.09327603
-0.44706526 -0.11589012 -0.011356087 0.110272005 0.26312006 0.026013352 0.22317207 -0.05746387
0.28361398 0.30870652 0.1297663 -0.17547902 -0.36479366 0.034728356 -0.13303433 -0.22088775
-0.26728612 0.23075113 -0.2628593 -0.071190916 0.1385682 0.15431526 -0.2386335 -0.075932615
0.2968775 -0.006024522 -0.44277537 -0.06430858 -0.30732584 -0.076943256 -0.16620335 -0.093013115
